results/SlayRL_FINAL001/SlayTheSquire_RL/SlayTheSquire_RL-0.onnx (onnx, 81835 bytes, 9 tensors)

network_body.observation_encoder.processors.0.normalizer.running_mean f4 [12]
0	0x00000000	0.0
1	0x00000000	0.0
2	0x00000000	0.0
3	0x00000000	0.0
4	0x00000000	0.0
5	0x00000000	0.0
6	0x00000000	0.0
7	0x00000000	0.0
8	0x00000000	0.0
9	0x00000000	0.0
10	0x00000000	0.0
11	0x00000000	0.0

network_body._body_endoder.seq_layers.0.weight f4 [128, 12]
0	0x3e84ad80	0.2591362
1	0x3ea6fece	0.32616276
2	0xbe97c0e3	-0.29639348
3	0x3ec7aa16	0.38996953
4	0xbe3a7858	-0.1820997
5	0x3e3c2412	0.18373135
6	0xbea12d94	-0.31480086
7	0xbdabb23f	-0.08383607
8	0x3e7d63e3	0.24745135
9	0x3e7301b6	0.23731121
10	0x3e10cbc9	0.14140238
11	0x3f26d326	0.65165937
12	0xbee144e0	-0.4399786
13	0xbd0eb4f5	-0.034840543
14	0x3e116db6	0.14202008
15	0x3e2433bb	0.16035359
16	0x3db3d7be	0.08781384
17	0xbea6668f	-0.3250012
18	0xbcd54a9a	-0.02603655
19	0x3e95d807	0.29266378
20	0xbe8a0b50	-0.26961756
21	0xbe49a166	-0.19690475
22	0x3eb9d7a9	0.36297348
23	0xbee7a21e	-0.45240873
24	0xbdd62043	-0.10455372
25	0x3ed07b73	0.40719184
26	0x3e946965	0.2898666
27	0xbd853588	-0.06504351
28	0x3e6074e1	0.21919586
29	0xbc2c8bd2	-0.010531383
30	0x3ea28d19	0.31748274
31	0x3e21c75c	0.15798706
32	0x3e850e63	0.2598754
33	0x3eb81e8d	0.35960808
34	0x3c4b3146	0.012401884
35	0x3c558cb1	0.013034032
36	0xbdf6d3e8	-0.12052137
37	0xbe479d5f	-0.19493626
38	0xbeca6322	-0.39528757
39	0xbedad435	-0.42740026
40	0xbe6e183b	-0.2325143
41	0xbe6f9b88	-0.23399174
42	0x3f4fdf8d	0.81200486
43	0x3e02d456	0.12776312
44	0x3df5903c	0.11990401
45	0xbf0f0428	-0.55865717
46	0xbe65e850	-0.22451901
47	0xbe90717c	-0.28211582
48	0xbc800799	-0.015628623
49	0x3e362801	0.17788698
50	0xbed343ac	-0.41262567
51	0xbe297c0a	-0.16551223
52	0xbe609b0e	-0.21934149
53	0x3d0b56f0	0.034018457
54	0xbe9b83f2	-0.30374104
55	0x3e2a4c3b	0.16630642
56	0x3ed753ac	0.42056024
57	0x3e11ef1e	0.14251372
58	0xbe81a7e8	-0.25323415
59	0xbdae4ffb	-0.08511349
60	0xbce76eea	-0.02825113
61	0x3daf99fa	0.085742906
62	0xbeb8d026	-0.36096305
63	0x3db78510	0.089609265
64	0xbd126928	-0.035744816
65	0x3f028574	0.50984883
66	0x3e890c97	0.26767418
67	0x3b954c0f	0.004556186
68	0x3b3d1f24	0.0028857673
69	0x3deb2982	0.11482526
70	0xbeaa669e	-0.33281416
71	0xbd88f3be	-0.06687115
72	0xbe799d0c	-0.24376315
73	0xbdb98bb9	-0.09059853
74	0x3dcd85a0	0.100352526
75	0x3e97a861	0.2962065
76	0xbe779617	-0.24178348
77	0xbd3c1bf0	-0.04592508
78	0x3dacd57f	0.08439159
79	0x3eb2e4d3	0.34940204
80	0x3ca7c41f	0.02047926
81	0x3d76ac56	0.060222946
82	0xbc7a292a	-0.015268603
83	0x3eb53d33	0.35398254
84	0x3e9a4933	0.30133972
85	0x3d42eba6	0.047588013
86	0x3d8d7549	0.06907136
87	0xbf2c49e2	-0.67300236
88	0x3ddc73d3	0.10764279
89	0xbe1da49e	-0.15394828
90	0x3e97a624	0.29618943
91	0x3dee89d1	0.1164738
92	0x3dd45d48	0.103693545
93	0x3e82826d	0.25490132
94	0xbe2c707e	-0.16839787
95	0xbefa2af8	-0.48860908
96	0x3eb03fe8	0.34423757
97	0xbe267f52	-0.16259506
98	0x3dd25e99	0.10271949
99	0x3d8e4afd	0.06947897
100	0x3e2da137	0.1695603
101	0x3dbf341e	0.093361124
102	0x3da037fc	0.07823178
103	0x3f0e3de9	0.5556322
104	0x3e3a2c32	0.18180922
105	0x3df6af25	0.12045125
106	0x3eb50e46	0.35362452
107	0x3d636166	0.05551281
108	0x3e46d201	0.19416048
109	0x3e4227cd	0.18960495
110	0x3e06a11c	0.13147396
111	0xbe52b044	-0.20575052
112	0xbd8dcdde	-0.06924032
113	0xbe69843c	-0.2280435
114	0x3e99a24f	0.30006644
115	0x3d5ce4ef	0.053929266
116	0xbebfb8be	-0.37445635
117	0x3ea86161	0.32886794
118	0x3e02ca88	0.12772572
119	0x3e99d649	0.300463
120	0x3e6f0a2f	0.23343728
121	0x3ea9349d	0.33047953
122	0xbdb38917	-0.08766382
123	0x3f0470b7	0.5173449
124	0x3cfdb344	0.03096927
125	0xbd7fe602	-0.062475212
126	0xbe8ed3fd	-0.2789611
127	0x3eb77360	0.35830212
128	0xbd4c21b8	-0.049836844
129	0xbe923d3d	-0.28562346
130	0xbd82e3d4	-0.06391111
131	0x3ec1d3db	0.37856945
132	0x3e8dfd93	0.27732524
133	0x3c2955d1	0.010335402
134	0xbe9195f6	-0.28434724
135	0xbe47eac0	-0.19523144
136	0x3db2c47a	0.08728881
137	0x3e396df0	0.18108344
138	0xbeb9c6c1	-0.3628445
139	0xbdbfb534	-0.09360734
140	0x3e26cbfa	0.16288748
141	0xbe16a2c9	-0.14710535
142	0x3ecdc735	0.40191045
143	0x3e10b5cb	0.14131849
144	0x3e9a7540	0.3016758
145	0x3f0924c6	0.53571737
146	0x3da84cee	0.08217798
147	0x3f0a044c	0.53912807
148	0xbd4f3165	-0.050584216
149	0xbea6426e	-0.32472557
150	0xbe8b6fb4	-0.2723366
151	0x3e94ad8f	0.29038665
152	0x3da60438	0.081062734
153	0x3e847a0f	0.25874373
154	0x3eead6a2	0.45866877
155	0x3e0bd3dc	0.13655037
156	0xbe78a6be	-0.24282357
157	0x3e819eed	0.25316563
158	0xbe71f6f4	-0.23629361
159	0xbe8e8956	-0.27839154
160	0xbee96c79	-0.4559057
161	0xbf2ff49e	-0.6873263
162	0x3f063328	0.5242181
163	0xbe2686d5	-0.16262372
164	0xbdc5485d	-0.09632943
165	0x3ecf93f4	0.40542567
166	0xbda9b66b	-0.082867466
167	0xbf4256c7	-0.7591366
168	0x3ecb32b1	0.39687112
169	0xbe9e254c	-0.3088783
170	0x3de9ab43	0.11409619
171	0x3da0d269	0.078526326
172	0x3e9b5e55	0.30345407
173	0xbf1a0040	-0.6015663
174	0x3ed0be2e	0.40770096
175	0xbda1e11d	-0.07904265
176	0x3d5a1050	0.053238213
177	0x3c7ec1e4	0.015549157
178	0xbdcc6af3	-0.099813364
179	0xbd87158a	-0.06595905
180	0xbf0b3b87	-0.54387707
181	0x3d7b9b08	0.061427146
182	0xbc8aaafd	-0.016927237
183	0xbe127ca3	-0.14305358
184	0x3e96e387	0.29470465
185	0xbdb32752	-0.08747734
186	0xbe0b2da2	-0.13591626
187	0xbea467da	-0.32110482
188	0x3eecbe03	0.46238717
189	0xbe8fa71f	-0.2805719
190	0x3da4381b	0.08018514
191	0x3f0e4900	0.5558014
192	0x3eb70424	0.35745347
193	0xbec61dfa	-0.38694745
194	0x3e513bd9	0.20432986
195	0xbd20d6d9	-0.039267395
196	0xbdb16dc7	-0.086635165
197	0x3d15b96c	0.036553785
198	0xbcf9bc12	-0.030485187
199	0x3e9877a7	0.29778787
200	0x3d4f77a0	0.050651193
201	0x3e63e4cd	0.2225525
202	0xbe7f9f6a	-0.24963155
203	0x3caf6587	0.021410717
204	0xbb29b5b2	-0.0025895652
205	0xbe371cb3	-0.17882042
206	0x3e27f82c	0.16403264
207	0x3e509146	0.20367917
208	0xbe15856c	-0.14601678
209	0xbe6b849a	-0.22999802
210	0xbe7bf9ad	-0.24606963
211	0xbdcda3b6	-0.10040991
212	0xbecb0203	-0.39649972
213	0x3e78971c	0.24276394
214	0xbe5f14da	-0.21785298
215	0xbe80567f	-0.2506599
216	0x3ca10f7a	0.0196607
217	0x3f063e05	0.52438384
218	0x3ea69e76	0.3254277
219	0xbea22888	-0.31671548
220	0x3d007ec2	0.031370886
221	0x3d032167	0.032014277
222	0x3e706163	0.2347465
223	0xbe1e823a	-0.15479365
224	0x3e48711a	0.19574395
225	0x3e5f3ea9	0.21801247
226	0xbe86b685	-0.26311126
227	0x3f219e05	0.63131744
228	0x3e9dda38	0.3083055
229	0xbf063a59	-0.5243278
230	0x3f12a77c	0.5728681
231	0x3e43febe	0.19140145
232	0xbdfaa7eb	-0.12239059
233	0xbe859430	-0.2608962
234	0xbe391bce	-0.18077013
235	0x3e884ded	0.26621953
236	0x3ed47423	0.41494855
237	0xbe7f3ab8	-0.24924743
238	0x3e65aab6	0.22428402
239	0x3f06df79	0.5268474
240	0x3e9a7b93	0.30172405
241	0xbf05591a	-0.52089083
242	0x3e514e29	0.20439972
243	0x3ef132fb	0.47109208
244	0xbea48117	-0.32129738
245	0x3ebf83ce	0.37405246
246	0xbdae8811	-0.08522046
247	0x3c73cee7	0.014880872
248	0xbdf1a258	-0.11798543
249	0xbe7833e4	-0.24238545
250	0x3e202d22	0.15642217
251	0xbe63f560	-0.22261572
252	0xbf087359	-0.53301007
253	0xbea28ca5	-0.31747928
254	0xbe83a106	-0.2570879
255	0x3ddd5bf3	0.108085535

network_body._body_endoder.seq_layers.0.bias f4 [128]
0	0x00000000	0.0
1	0x00000000	0.0
2	0x00000000	0.0
3	0x00000000	0.0
4	0x00000000	0.0
5	0x00000000	0.0
6	0x00000000	0.0
7	0x00000000	0.0
8	0x00000000	0.0
9	0x00000000	0.0
10	0x00000000	0.0
11	0x00000000	0.0
12	0x00000000	0.0
13	0x00000000	0.0
14	0x00000000	0.0
15	0x00000000	0.0
16	0x00000000	0.0
17	0x00000000	0.0
18	0x00000000	0.0
19	0x00000000	0.0
20	0x00000000	0.0
21	0x00000000	0.0
22	0x00000000	0.0
23	0x00000000	0.0
24	0x00000000	0.0
25	0x00000000	0.0
26	0x00000000	0.0
27	0x00000000	0.0
28	0x00000000	0.0
29	0x00000000	0.0
30	0x00000000	0.0
31	0x00000000	0.0
32	0x00000000	0.0
33	0x00000000	0.0
34	0x00000000	0.0
35	0x00000000	0.0
36	0x00000000	0.0
37	0x00000000	0.0
38	0x00000000	0.0
39	0x00000000	0.0
40	0x00000000	0.0
41	0x00000000	0.0
42	0x00000000	0.0
43	0x00000000	0.0
44	0x00000000	0.0
45	0x00000000	0.0
46	0x00000000	0.0
47	0x00000000	0.0
48	0x00000000	0.0
49	0x00000000	0.0
50	0x00000000	0.0
51	0x00000000	0.0
52	0x00000000	0.0
53	0x00000000	0.0
54	0x00000000	0.0
55	0x00000000	0.0
56	0x00000000	0.0
57	0x00000000	0.0
58	0x00000000	0.0
59	0x00000000	0.0
60	0x00000000	0.0
61	0x00000000	0.0
62	0x00000000	0.0
63	0x00000000	0.0
64	0x00000000	0.0
65	0x00000000	0.0
66	0x00000000	0.0
67	0x00000000	0.0
68	0x00000000	0.0
69	0x00000000	0.0
70	0x00000000	0.0
71	0x00000000	0.0
72	0x00000000	0.0
73	0x00000000	0.0
74	0x00000000	0.0
75	0x00000000	0.0
76	0x00000000	0.0
77	0x00000000	0.0
78	0x00000000	0.0
79	0x00000000	0.0
80	0x00000000	0.0
81	0x00000000	0.0
82	0x00000000	0.0
83	0x00000000	0.0
84	0x00000000	0.0
85	0x00000000	0.0
86	0x00000000	0.0
87	0x00000000	0.0
88	0x00000000	0.0
89	0x00000000	0.0
90	0x00000000	0.0
91	0x00000000	0.0
92	0x00000000	0.0
93	0x00000000	0.0
94	0x00000000	0.0
95	0x00000000	0.0
96	0x00000000	0.0
97	0x00000000	0.0
98	0x00000000	0.0
99	0x00000000	0.0
100	0x00000000	0.0
101	0x00000000	0.0
102	0x00000000	0.0
103	0x00000000	0.0
104	0x00000000	0.0
105	0x00000000	0.0
106	0x00000000	0.0
107	0x00000000	0.0
108	0x00000000	0.0
109	0x00000000	0.0
110	0x00000000	0.0
111	0x00000000	0.0
112	0x00000000	0.0
113	0x00000000	0.0
114	0x00000000	0.0
115	0x00000000	0.0
116	0x00000000	0.0
117	0x00000000	0.0
118	0x00000000	0.0
119	0x00000000	0.0
120	0x00000000	0.0
121	0x00000000	0.0
122	0x00000000	0.0
123	0x00000000	0.0
124	0x00000000	0.0
125	0x00000000	0.0
126	0x00000000	0.0
127	0x00000000	0.0

network_body._body_endoder.seq_layers.2.weight f4 [128, 128]
0	0x3db11e8b	0.08648404
1	0xbd5fb24c	-0.054613397
2	0x3dfb8857	0.12281864
3	0xbdc6c208	-0.09704977
4	0x3b426c1d	0.0029666491
5	0xbd5b4cfc	-0.053540215
6	0xbd2a80c4	-0.041626707
7	0xbd195774	-0.037436917
8	0xbe2371b3	-0.15961342
9	0x3d63a22f	0.055574592
10	0x3da45f38	0.08025974
11	0x3c84017d	0.01611399
12	0xbc60d055	-0.013721545
13	0x3e565a94	0.2093299
14	0xbbfe86cc	-0.007767534
15	0x3c940d45	0.018072734
16	0x3d9c4444	0.07630208
17	0xbbb77e6b	-0.005599787
18	0x3dde7f99	0.10864181
19	0x3bf5cad6	0.0075009866
20	0xbd923bd1	-0.07140315
21	0x3d789cbe	0.060696356
22	0x3be3757e	0.0069414964
23	0x3e3181af	0.17334627
24	0xbd3f8034	-0.046753123
25	0x3cf1f34b	0.029534956
26	0xbdf10b4c	-0.11769733
27	0x3e2456e0	0.16048765
28	0x3ce3e57c	0.027819388
29	0xbd7d15aa	-0.06178824
30	0xbd2c5db7	-0.04208156
31	0xbdb865d6	-0.09003799
32	0xbbda8e6a	-0.006669809
33	0x3baa596a	0.0051986473
34	0xbd8c1fba	-0.06841989
35	0xbd2a085a	-0.04151187
36	0x3ceaf935	0.028683284
37	0x3dbe172d	0.09281764
38	0xbe0026ca	-0.12514797
39	0xbd5230cc	-0.051316068
40	0xbde6392b	-0.11241373
41	0xbdd292dc	-0.102819175
42	0xbd48995c	-0.04897438
43	0x3d015c5c	0.03158222
44	0xbd62baeb	-0.05535404
45	0x3d75492a	0.059884228
46	0x3d1965af	0.03745049
47	0xbd36ab46	-0.044596933
48	0xbdbccdff	-0.09218978
49	0xbe5ed10f	-0.21759437
50	0x3e013374	0.12617284
51	0xbc141d9a	-0.009040261
52	0xbd965333	-0.07340088
53	0x3c8a6ba8	0.016897038
54	0xbd9620a2	-0.07330443
55	0xbc9ff79b	-0.019527247
56	0xbd3ed1f5	-0.04658695
57	0x3e1a8858	0.15091074
58	0xbd2a487c	-0.041573033
59	0xbbe8685c	-0.0070925187
60	0xbe5937d9	-0.2121271
61	0xbdd263e1	-0.10272957
62	0x3dde17c1	0.108443744
63	0xbe0cada6	-0.13738117
64	0xbd540ae8	-0.051768214
65	0x3d12fc90	0.035885394
66	0x3d99a61a	0.075023845
67	0xbd42ae07	-0.047529247
68	0x3ca3cf9c	0.019996457
69	0xbd494061	-0.049133662
70	0x3d504fdb	0.050857406
71	0xbc150ccc	-0.009097289
72	0x3e1c5c28	0.1526953
73	0xbdf6dd29	-0.12053902
74	0x3d56650c	0.05234246
75	0x3dbf2648	0.093334734
76	0x3daf904e	0.08572446
77	0x3e390ea8	0.18071997
78	0xbd30c7e8	-0.043159395
79	0x3d5ac46d	0.053409982
80	0x3bc8fc28	0.006133575
81	0xbd319f7d	-0.04336499
82	0x3e338916	0.17532763
83	0xbdfaa969	-0.12239344
84	0x3d845ad2	0.06462635
85	0xbe0dc428	-0.13844359
86	0xbd2c50a6	-0.0420691
87	0xbd494ebb	-0.04914735
88	0xbc25ea0b	-0.010126601
89	0x3e407fcc	0.1879875
90	0xbd7e4a9d	-0.062082876
91	0xbcf3845e	-0.029726204
92	0xbe10b8b6	-0.14132962
93	0xbd0462b5	-0.032320697
94	0x3db4580f	0.08805858
95	0x3df44eac	0.11929068
96	0x3e0a8ea1	0.13530971
97	0x3d934b1b	0.071920596
98	0xbdc84b32	-0.09779967
99	0x3d7af461	0.061268214
100	0xbce69e2c	-0.028151594
101	0xbda7a380	-0.08185482
102	0xbd8c353a	-0.0684609
103	0x3d257577	0.040395226
104	0x3dae7f8b	0.08520421
105	0x3d85f9ed	0.0654181
106	0xbd358409	-0.04431537
107	0xbe1956a7	-0.14974461
108	0x3c576213	0.013145941
109	0xbca4d007	-0.020118726
110	0x3d8b67d2	0.068069115
111	0x3da136bc	0.07871768
112	0xbd3e86fb	-0.046515446
113	0xbceb7813	-0.02874378
114	0xbd4e547a	-0.050373532
115	0xbe019d6c	-0.12657708
116	0x3d4ae3d9	0.0495337
117	0xbda49366	-0.080359265
118	0x3dc8f5e1	0.09812523
119	0x3d5b6593	0.053563666
120	0x3d9818c5	0.074265994
121	0xbd29c30f	-0.041445788
122	0xbcdc9a78	-0.026929125
123	0xbc92ee88	-0.017936006
124	0x3cdb0363	0.026735013
125	0xbcf7baca	-0.030240435
126	0xbc574f7d	-0.01314151
127	0x3d4a3575	0.049367387
128	0xbd492476	-0.049107037
129	0xbcc79e3c	-0.024367444
130	0x3dd8debe	0.1058936
131	0xbc8cd78a	-0.01719262
132	0x3d9e55fe	0.077312455
133	0xbd929c21	-0.071586855
134	0xbced7ccb	-0.02899017
135	0x3d98ea47	0.0746656
136	0x3c9a2a95	0.018819133
137	0xbd6a8577	-0.05725619
138	0xbc96a6ca	-0.018390078
139	0xbca370f6	-0.019951325
140	0x3e025183	0.12726407
141	0xbd268611	-0.0406552
142	0xbd39aa33	-0.04532833
143	0x3e2c00d8	0.16797197
144	0x3dc43619	0.09580631
145	0x3e8ff0e1	0.28113464
146	0xbe314dc7	-0.17314826
147	0x3ca1a4ad	0.019731844
148	0x3d5e6c31	0.054302398
149	0xbc14f89a	-0.009092474
150	0xbd0ad11e	-0.033890836
151	0xbd83e5bc	-0.06440303
152	0x3e17f3c3	0.14839081
153	0x3cc8fc48	0.02453436
154	0x3e2172dd	0.15766473
155	0xbd8980d0	-0.06714022
156	0x3d0d0bf9	0.034435246
157	0x3dd0d221	0.10196329
158	0xbdbf8aaf	-0.09352624
159	0x3e1605e0	0.14650679
160	0x3d25bd1c	0.040463552
161	0x3d5ce99f	0.053933736
162	0xbd4bfc4d	-0.04980116
163	0x3d953d4a	0.072870806
164	0xbca4c8b7	-0.02011524
165	0xbdc054e1	-0.09391189
166	0xbcecbc42	-0.028898362
167	0x3bc1a844	0.0059099514
168	0x3d14c4b6	0.03632041
169	0xbd3fddae	-0.04684227
170	0xbe29b45c	-0.16572708
171	0xbd6f97a0	-0.05849421
172	0x3d282fc2	0.04106117
173	0x3de630d2	0.112397805
174	0xbe2d290e	-0.16910192
175	0x3d975386	0.07388978
176	0x3cba192d	0.022717083
177	0xbd815a98	-0.063161075
178	0xbccaaaf1	-0.024739714
179	0xbd30f089	-0.043198142
180	0xbd96fba5	-0.07372216
181	0xbcbccc72	-0.023046706
182	0x3d1fcb08	0.039011985
183	0x3d544c4b	0.05183057
184	0xbdebb098	-0.11508292
185	0xbd337425	-0.043811936
186	0x3daed3a0	0.08536458
187	0x3b4e1a48	0.003144877
188	0x3d75930a	0.05995468
189	0xbe09c5dd	-0.13454385
190	0x3d6a085a	0.05713687
191	0x3d7655eb	0.06014053
192	0xbc3e89b0	-0.011629507
193	0x3d4d7b76	0.05016657
194	0x3dd47a33	0.1037487
195	0x3d5c05f1	0.053716604
196	0xbdcc2257	-0.09967487
197	0xbbc44ada	-0.0059903683
198	0x3b2948ed	0.002583082
199	0xbda2372a	-0.07920678
200	0x3e4f747e	0.20259282
201	0x3d3b266e	0.045690946
202	0x3d6c7a76	0.057733975
203	0x3ccbb2ad	0.024865473
204	0xbdd2e5ab	-0.10297712
205	0x3db85a81	0.09001637
206	0xbdbfb00d	-0.09359751
207	0x3c3cdcb4	0.011527229
208	0x3d123c32	0.035701938
209	0x3e767fed	0.24072237
210	0xbb78c0e0	-0.003795676
211	0xbcdb0695	-0.026736537
212	0x3dd35011	0.10318006
213	0x3e49ea7e	0.19718358
214	0xbd17566d	-0.036947656
215	0x3d534722	0.05158151
216	0xbd00bfaf	-0.031432804
217	0x3c6c1711	0.014409796
218	0x3d179bcf	0.037013825
219	0x3e4b7f7c	0.1987285
220	0xbd9514e6	-0.07279377
221	0xbdb54282	-0.08850576
222	0x3c8a5058	0.016884014
223	0x3c8cc324	0.017182894
224	0xbb6413f4	-0.0034801932
225	0xbd45e873	-0.048317384
226	0xbd9f3094	-0.077729374
227	0x3c8105de	0.015749868
228	0x3c490396	0.012268921
229	0xbd7f04b9	-0.062260363
230	0x3e389881	0.18026926
231	0xbd93ab52	-0.07210411
232	0xbcfb5319	-0.030679272
233	0xbda1a050	-0.07891905
234	0xbd355693	-0.044272017
235	0x3e955e4c	0.29173505
236	0x3dc95fca	0.098327234
237	0xbb24fb9d	-0.0025174387
238	0x3d316450	0.043308556
239	0xbe02a29d	-0.12757345
240	0xbde0df75	-0.10980121
241	0xbe0402f8	-0.12891757
242	0x3dcb7f2a	0.09936364
243	0x3e037f81	0.12841608
244	0x3dc7837e	0.09741877
245	0xbd57977c	-0.0526347
246	0x3d5ac4e5	0.05341043
247	0x3db78a79	0.089619584
248	0xbe00c897	-0.12576519
249	0x3e17e51d	0.14833494
250	0x3c6fae06	0.014628893
251	0xbbb31bfa	-0.0054659816
252	0xbdf58028	-0.119873345
253	0xbd694093	-0.05694635
254	0xbe3249f8	-0.1741103
255	0x3d4c17a6	0.04982724

action_model._continuous_distribution.log_sigma f4 [1, 2]
0	0x00000000	0.0
1	0x00000000	0.0

action_model._continuous_distribution.mu.weight f4 [2, 128]
0	0x3c2cf65f	0.010556786
1	0xbb813001	-0.00394249
2	0xbba89b58	-0.0051454715
3	0x3c128ff8	0.008945458
4	0x3bf4f8cf	0.0074759494
5	0xbcab90b0	-0.020943016
6	0x3b28460b	0.0025676514
7	0xbcb01593	-0.021494662
8	0x3ca01090	0.019539148
9	0xbcc198a1	-0.02363235
10	0x3cdcab08	0.026937023
11	0xbc463155	-0.012096723
12	0xbd09a24c	-0.033602044
13	0xbc0a6170	-0.0084460825
14	0xbc17547d	-0.009236452
15	0x3ad49010	0.001621725
16	0xbcad3f77	-0.021148426
17	0x3c8a6ca3	0.016897505
18	0xbc87bfeb	-0.016571006
19	0xbb396381	-0.0028288069
20	0x3ad3d28d	0.0016160771
21	0x3ccaad6d	0.024740899
22	0xbc237c90	-0.0099784285
23	0x3c4c9c63	0.012488457
24	0x3c5d8aa0	0.01352182
25	0xbbb94a7b	-0.0056546307
26	0x3c1a7f75	0.009429802
27	0x3d3bd98b	0.045861762
28	0xbafe47f3	-0.0019400105
29	0xbd56a2e8	-0.052401453
30	0x3b42d469	0.0029728657
31	0x3bfbcb57	0.007684152
32	0xbbbcaa34	-0.0057575945
33	0xbcace660	-0.021105945
34	0xbc6dc675	-0.014512648
35	0x3ba4c245	0.0050280415
36	0x3bfcd66d	0.007715991
37	0xbb869871	-0.004107528
38	0x3c7346b3	0.014848399
39	0x3c09d527	0.008412636
40	0x3c04ea1f	0.008112459
41	0xbc9d9e54	-0.019240536
42	0x3c8f82b6	0.017518383
43	0x3c647d52	0.013945894
44	0x3ad467af	0.0016205217
45	0xbd42ed43	-0.04758955
46	0xbb575362	-0.0032856097
47	0xbd210aeb	-0.039317053
48	0x3c3a88b5	0.011385133
49	0xbb3352e4	-0.002736264
50	0x3ca5c81b	0.02023702
51	0xbb702340	-0.0036642104
52	0xbcad6a77	-0.02116893
53	0x3c0fb5c6	0.0087713655
54	0xbca8a04f	-0.020584254
55	0xbd02c42d	-0.03192537
56	0x3caab6b5	0.020839075
57	0x3c103bd5	0.008803328
58	0xbc938ffc	-0.018012993
59	0xbc5d7dbd	-0.013518748
60	0x3c013983	0.007887247
61	0xbc5d7e58	-0.013518892
62	0xbcc5c29c	-0.024140649
63	0xbcbcc2e7	-0.023042155
64	0x3c0566ca	0.008142183
65	0x3c93f077	0.018058999
66	0xbc41cee6	-0.011829114
67	0x3c31ba71	0.010847674
68	0xbb36379a	-0.0027804137
69	0x3b8a094c	0.004212534
70	0x3ba3cb94	0.0049986336
71	0x3c781cdf	0.015143602
72	0x3b9b6f23	0.004743473
73	0x3cce7660	0.02520293
74	0x3c184eee	0.009296162
75	0x3c2dda43	0.01061112
76	0xbca4edae	-0.020132866
77	0x3cbfd626	0.023417544
78	0xbc96214f	-0.01832643
79	0xbceee19a	-0.02916031
80	0x3b44c13e	0.0030022408
81	0x3bc9d031	0.0061588516
82	0xbc350fab	-0.011051099
83	0xbc4d9bcd	-0.012549353
84	0x3cb7ebe2	0.022451345
85	0xbd2ef11b	-0.042710405
86	0x3d31ff43	0.043456327
87	0x3c6bf502	0.014401676
88	0x3cbf189f	0.02332717
89	0xbc8073eb	-0.015680274
90	0xbcc7ed4e	-0.024405148
91	0x3c80ef45	0.015739093
92	0x3c1452e6	0.009052968
93	0x3ceca1a8	0.028885677
94	0xbd126c43	-0.035747778
95	0xbc95f29d	-0.018304164
96	0xbcb14f43	-0.02164424
97	0xbd0ba2ab	-0.03409068
98	0x3b1d9280	0.002404362
99	0x3cb044a1	0.0215171
100	0x3bd3d0d7	0.0064641046
101	0xbc1b8667	-0.009492493
102	0x3a01cd6e	0.0004951571
103	0x3d093716	0.0334998
104	0xbbf5b680	-0.0074985623
105	0xbca4bb7c	-0.02010893
106	0xbcb3f532	-0.021967504
107	0xbb0b862e	-0.0021289694
108	0xbc657758	-0.014005505
109	0x3bb3890a	0.005478983
110	0x3c6a9665	0.014318083
111	0xbcb7a9bb	-0.022419801
112	0xba98d307	-0.0011659571
113	0xbc49abd7	-0.012309036
114	0x3ca0bc2b	0.019620975
115	0xbc36168d	-0.011113775
116	0xbb91c0ff	-0.0044480558
117	0xbbeaf62f	-0.0071704607
118	0x3cbff0a6	0.02343018
119	0x3c2859b3	0.010275292
120	0xba2d417a	-0.0006609183
121	0x3be38670	0.0069435164
122	0xbc1cdfc0	-0.0095748305
123	0xbbfa02c5	-0.0076297247
124	0x3d0eb519	0.034840677
125	0x3d2003f8	0.039066285
126	0x3c87903f	0.016548274
127	0x3a3905e4	0.0007058068
128	0x3bbdbeb6	0.005790557
129	0xb9d76417	-0.00041082568
130	0xbc5b065b	-0.0133682145
131	0xbcca1142	-0.024666432
132	0x3c7f64bd	0.015587983
133	0x3c97745f	0.018488107
134	0xb97df0cf	-0.00024217668
135	0x3d0dfdb6	0.034665786
136	0xbc900196	-0.017578881
137	0xbae0d4ca	-0.001715326
138	0xbc84ccbf	-0.016210912
139	0xbc37aa0e	-0.011209978
140	0x3c8fa67d	0.017535442
141	0xbc463d87	-0.01209963
142	0xbbe5fff7	-0.007019039
143	0x3b362ebb	0.002779885
144	0x3b260af9	0.002533613
145	0x3cd900ed	0.0264897
146	0x3b62dab2	0.0034615216
147	0xbc330c58	-0.010928236
148	0xbac535e5	-0.0015045969
149	0x3cb0096d	0.02148887
150	0x3bb8a926	0.0056353984
151	0xbd2a1394	-0.041522577
152	0x3cae7bda	0.021299291
153	0xbcb6b3da	-0.022302557
154	0xbb76f370	-0.003768172
155	0xbaf9f34d	-0.0019069702
156	0xbb959253	-0.0045645623
157	0x3c7285a5	0.014802371
158	0xbc07b2b0	-0.0082823485
159	0x398eb7eb	0.0002722138
160	0xbb66bf4f	-0.0035209244
161	0xbc1e7829	-0.009672203
162	0x3b324d88	0.0027206857
163	0x3cbadff2	0.022811864
164	0x3cc7f1ec	0.02440735
165	0xbc8bfbca	-0.017087836
166	0xbc18d12b	-0.009327213
167	0xbce15d60	-0.027510345
168	0x3babc05c	0.005241437
169	0x3b882995	0.0041553476
170	0x3c728b68	0.014803745
171	0xbc3d3e10	-0.011550441
172	0xbc13a8e8	-0.009012438
173	0xbcce1447	-0.025156153
174	0xbb607b98	-0.0034253355
175	0xbc4875bd	-0.012235102
176	0x3b7c90dd	0.0038538494
177	0x3c4ef7e8	0.012632348
178	0x3d111c21	0.035427216
179	0x3c92b152	0.017906819
180	0x3b042952	0.002016623
181	0x3be1f0ca	0.0068951594
182	0x3b0bd579	0.0021336956
183	0xb9c0b678	-0.00036757044
184	0xbc4957ef	-0.012289031
185	0x3b405963	0.0029350154
186	0x3c6cc7ba	0.014451915
187	0x3d3a96e9	0.045554075
188	0xbafaae8a	-0.0019125503
189	0xbc8b74e3	-0.01702351
190	0x3c88e0bb	0.016708722
191	0x3a35b877	0.00069320895
192	0x3af6d9ad	0.0018833183
193	0xbba0e77a	-0.0049104067
194	0xbc128e43	-0.008945051
195	0xbcf5ad52	-0.029989872
196	0xbc295b97	-0.010336778
197	0x3d0d7cda	0.034542896
198	0x3c89e0f3	0.016830897
199	0x3bb2550f	0.0054422687
200	0xbbebf45f	-0.007200762
201	0xbc3e2075	-0.011604418
202	0xbbd9e32d	-0.006649396
203	0x3cd4b470	0.025964946
204	0x3c88ce11	0.016699823
205	0x3cad2d90	0.02113989
206	0xbc1f53ba	-0.009724552
207	0xbb39519f	-0.002827741
208	0x3c60bf1f	0.013717442
209	0xbbab1418	-0.005220901
210	0xbc4167ed	-0.011804563
211	0x3a43399e	0.00074472453
212	0x3bc6af1c	0.006063355
213	0xbc2d5276	-0.010578742
214	0xbd0205d4	-0.03174384
215	0x3ca23803	0.0198021
216	0xbce73ae5	-0.028226325
217	0x3b62c5d0	0.0034602769
218	0x3c710415	0.014710446
219	0xbcab11e6	-0.020882558
220	0xbc8cea85	-0.017201671
221	0xbb99d2b7	-0.0046943086
222	0xbc04e8d8	-0.008112155
223	0xba4f2d55	-0.00079031783
224	0xba39fe93	-0.00070951245
225	0x3c09aa97	0.008402488
226	0xbb1a058a	-0.0023501837
227	0xbc5b6ff3	-0.01339339
228	0xbc38e3ab	-0.011284749
229	0xbc628358	-0.01382526
230	0xbc5ab64b	-0.013349126
231	0xbc5294ab	-0.012852828
232	0xbd0fc6e2	-0.03510178
233	0x3d2571f6	0.040391885
234	0xbc6d2ed8	-0.0144765
235	0xbbb86a62	-0.005627916
236	0xbcbe2a72	-0.023213599
237	0xbc254053	-0.010086137
238	0x3c3d7006	0.011562353
239	0xbbb8b866	-0.0056372164
240	0xbc647bd0	-0.013945535
241	0xb9e84b20	-0.0004430646
242	0x38ccb396	9.7609285e-05
243	0x3c3361ff	0.010948657
244	0x3b3a078b	0.0028385844
245	0xbc35d390	-0.011097804
246	0xbb0801a9	-0.0020752943
247	0x3c3f59e1	0.011679144
248	0x3a3c09e3	0.0007173104
249	0x3cd24733	0.025668716
250	0x3a20bcdf	0.00061316596
251	0xbbb5b252	-0.005544939
252	0xbaad0175	-0.0013199287
253	0xbbd3d9bf	-0.0064651663
254	0x3beac155	0.0071641603
255	0xbc8abf14	-0.016936816

action_model._continuous_distribution.mu.bias f4 [2]
0	0x00000000	0.0
1	0x00000000	0.0

action_model._discrete_distribution.branches.0.weight f4 [1, 128]
0	0xbb891669	-0.0041835797
1	0xbc515383	-0.012776258
2	0xbc1fa9f9	-0.0097451145
3	0x3afa0435	0.001907474
4	0x3bd6f962	0.0065604905
5	0xbb3008b5	-0.0026860659
6	0xbc26efed	-0.010189039
7	0x3c17a92f	0.009256645
8	0xbb2acc8f	-0.0026061868
9	0xbba01727	-0.0048855725
10	0x3bcf3fda	0.0063247504
11	0xb9d0e253	-0.00039841476
12	0x383e3760	4.5351102e-05
13	0xbb92e693	-0.004483053
14	0xbb00f82f	-0.001967918
15	0xbc127d1b	-0.00894096
16	0xbbb6917f	-0.0055715437
17	0x3c4a093d	0.012331304
18	0x3b135052	0.0022478295
19	0xbcaf4885	-0.021396885
20	0x3bd8ebf8	0.0066199265
21	0xba3d2040	-0.00072145835
22	0xbbb0e360	-0.005398199
23	0xbbe99ff7	-0.007129665
24	0x3ba7a585	0.005116167
25	0x3c117891	0.008878843
26	0xbc207a77	-0.009794823
27	0xbadc8d63	-0.0016826804
28	0xbb27d477	-0.0025608817
29	0x3b135ff0	0.0022487603
30	0xbc0445ec	-0.008073311
31	0xbbf1300f	-0.0073604654
32	0x39bf0d6d	0.00036440362
33	0xbb75a61d	-0.0037483044
34	0xbc995433	-0.018716907
35	0xba96765f	-0.0011479369
36	0xb9eefe2b	-0.00045584267
37	0xbc8671bf	-0.01641166
38	0xbc22594f	-0.009908988
39	0x3c265ecb	0.010154436
40	0x3c935d4e	0.017988827
41	0x3bd00f9b	0.0063495166
42	0xbc58522b	-0.013203184
43	0xbb5c996a	-0.0033660778
44	0xbc2ef73d	-0.010679063
45	0x3bfdc132	0.007743978
46	0x3bd46422	0.0064816633
47	0xba6d1d3a	-0.00090451876
48	0x3cdf6f0d	0.027274633
49	0xbc0b3a57	-0.008497796
50	0x3ab3ac18	0.0013707904
51	0x3aa5f47e	0.0012661365
52	0xbc331e0e	-0.010932459
53	0xbbb72d18	-0.0055900924
54	0xbc41876f	-0.011812075
55	0xb8c6ddaf	-9.4826675e-05
56	0x3bc27da6	0.0059353886
57	0xbbb92c2f	-0.005651019
58	0xbc478bea	-0.012179354
59	0xbbf03743	-0.0073308065
60	0x3c2838b3	0.010267424
61	0xba9af00d	-0.0011820808
62	0x3a4465f4	0.0007491999
63	0x3bee595f	0.0072738375
64	0xbabfb29b	-0.0014625372
65	0xba9bb51b	-0.0011879535
66	0xbb02e4d1	-0.001997281
67	0xbc0d404a	-0.008621285
68	0x3b8b7d38	0.0042568706
69	0xbc13f674	-0.009030927
70	0x3b090db7	0.0020912716
71	0x3b918def	0.0044419686
72	0xbc7cf7e5	-0.015439962
73	0xbc3acde7	-0.01140163
74	0xbc1e3946	-0.00965721
75	0xbad054a3	-0.0015894364
76	0x3c2fe153	0.010734874
77	0xbc058a6f	-0.008150681
78	0xbc44b387	-0.012005693
79	0x3bbc529e	0.0057471534
80	0xbbbcd409	-0.0057625812
81	0xbbe198fd	-0.0068846927
82	0xbb3d010b	-0.0028839733
83	0xbb723eeb	-0.0036963772
84	0xbbcf55af	-0.006327353
85	0xbbe18693	-0.0068824976
86	0xba4598e6	-0.0007537737
87	0xbc72ae43	-0.014812055
88	0xbc450941	-0.012026132
89	0x3bc5636b	0.0060238144
90	0xbc1c38b9	-0.009535008
91	0x3c544505	0.012955909
92	0xbb8bb003	-0.0042629256
93	0xbc6df318	-0.01452329
94	0xbc17bcf3	-0.009261358
95	0xbca1475f	-0.019687353
96	0x3b2069e6	0.0024477183
97	0xbabeaabe	-0.0014546735
98	0x3c36a876	0.011148563
99	0x3c2e38ff	0.010633706
100	0xbbf7d17b	-0.007562814
101	0xbb96308d	-0.0045834244
102	0xbc2c73c2	-0.010525646
103	0xbb585ecd	-0.003301549
104	0x3a56e02f	0.0008196858
105	0x38b5341f	8.640461e-05
106	0xba943e3f	-0.0011310055
107	0xbc45edb3	-0.012080598
108	0xbc01fa8b	-0.007933269
109	0x3bc45f62	0.005992816
110	0x3bff5a53	0.00779275
111	0x3b745537	0.0037282237
112	0x3bb616e4	0.005556928
113	0x3c3e344e	0.01160915
114	0x395de05f	0.00021159787
115	0xbbbe5a2b	-0.0058090887
116	0xbb70eb12	-0.0036761207
117	0x3c1b6242	0.009483876
118	0xbc0da913	-0.0086462675
119	0xbb470e04	-0.0030373344
120	0x3c009323	0.00784758
121	0xbaca387f	-0.0015428214
122	0x3c06fa2c	0.008238357
123	0x3c27f923	0.01025227
124	0x3c0815ba	0.008305961
125	0x3a57b8dd	0.0008229146
126	0x3c484643	0.012223783
127	0xbbfad6b5	-0.0076549896

onnx::Div_70 f4 [12]
0	0x3f800000	1.0
1	0x3f800000	1.0
2	0x3f800000	1.0
3	0x3f800000	1.0
4	0x3f800000	1.0
5	0x3f800000	1.0
6	0x3f800000	1.0
7	0x3f800000	1.0
8	0x3f800000	1.0
9	0x3f800000	1.0
10	0x3f800000	1.0
11	0x3f800000	1.0
