results/SlayRL_030/SlayTheSquire_RL/SlayTheSquire_RL-28210.pt (torch, 467439 bytes, 47 tensors)

network_body.observation_encoder.processors.0.normalizer.running_mean f4 [12]
000000 08 61 71 3f bc fa a3 be a8 3b 22 3b 3e 6c 7d 3f
       0.9428868 -0.32027233 0.0024754796 0.9899329
000010 40 37 e8 be 7f d5 83 bc 77 6f e7 bc 7e 19 e2 be
       -0.45354652 -0.016093014 -0.028251393 -0.44160074
000020 00 00 00 00 a2 86 49 bc 7a 74 34 bf d6 0e ef be
       0.0 -0.012300165 -0.7049023 -0.46691006

network_body.observation_encoder.processors.0.normalizer.running_variance f4 [12]
000000 b7 e7 a4 41 5c e6 58 43 b0 90 80 3f 19 44 24 43
       20.613142 216.89984 1.0044155 164.266
000010 fd 86 da 45 ca d8 df 43 f5 de 41 44 4c 6c d9 45
       6992.8735 447.69366 775.4837 6957.537
000020 00 00 80 3f af dd ab 43 81 6a b7 45 e2 76 db 45
       1.0 343.7319 5869.313 7022.8604

network_body.processors.0.normalizer.running_mean f4 [12]
000000 08 61 71 3f bc fa a3 be a8 3b 22 3b 3e 6c 7d 3f
       0.9428868 -0.32027233 0.0024754796 0.9899329
000010 40 37 e8 be 7f d5 83 bc 77 6f e7 bc 7e 19 e2 be
       -0.45354652 -0.016093014 -0.028251393 -0.44160074
000020 00 00 00 00 a2 86 49 bc 7a 74 34 bf d6 0e ef be
       0.0 -0.012300165 -0.7049023 -0.46691006

network_body.processors.0.normalizer.running_variance f4 [12]
000000 b7 e7 a4 41 5c e6 58 43 b0 90 80 3f 19 44 24 43
       20.613142 216.89984 1.0044155 164.266
000010 fd 86 da 45 ca d8 df 43 f5 de 41 44 4c 6c d9 45
       6992.8735 447.69366 775.4837 6957.537
000020 00 00 80 3f af dd ab 43 81 6a b7 45 e2 76 db 45
       1.0 343.7319 5869.313 7022.8604

network_body._body_endoder.seq_layers.0.weight f4 [128, 12]
000000 2f d2 71 3e 17 e4 b5 be 41 44 0e 3d 28 78 df be
       0.23615335 -0.3552558 0.03473306 -0.4364636
000010 b2 6a 3e bd 51 ff 59 3e 3c e6 e5 3e d3 bf d7 be
       -0.04648847 0.21288802 0.44902217 -0.42138538
000020 35 ae 43 3e 9f 5d 0c be dd 05 63 3e d2 b6 cf 3e
       0.19109423 -0.13707589 0.22170205 0.40569168
000030 c3 79 15 bf c8 06 18 3f 8c 41 95 3e d7 33 32 3e
       -0.5838892 0.5938535 0.2915157 0.17402588
000040 ca 22 71 3d d8 91 54 be c8 0b c4 be 4c 28 82 3d
       0.058871068 -0.2075876 -0.38290238 0.06355342
000050 e0 67 f7 be 07 2f b0 3d df 31 ad 3e e8 1b 98 3a
       -0.48321438 0.0860272 0.3382711 0.0011604996
000060 4e 61 af 3e 87 3d a8 bd f3 95 be bd 0b 57 8c 3e
       0.34253925 -0.082148604 -0.09305944 0.2741016
000070 87 ea 06 3a 23 93 b3 3e b7 d4 30 3d 9c b2 88 3e
       0.00051466416 0.35073194 0.04317161 0.26698768
000080 f6 b9 f7 3e a8 0d f0 3e 5e 58 27 3c b8 6b 41 be
       0.48384064 0.4688542 0.0102139395 -0.18888748
000090 ee 18 ff bc 2e 92 5b 3e 71 0b 9b be bc 6a de be
       -0.031139817 0.21442482 -0.30282167 -0.43440807
0000a0 36 f9 4c be 27 4c d1 bd 3e e0 7e be 08 60 41 3e
       -0.20016941 -0.10219603 -0.24890229 0.1888429
0000b0 08 6e 01 bd f5 a9 24 3e 97 67 0f 3e 44 7d 4c bc
       -0.031599075 0.16080458 0.1400436 -0.0124810375
0000c0 09 7e 14 3f 6e fb 70 3e af a8 cb bb 0e 57 6d 3e
       0.58004814 0.23533413 -0.006215177 0.2317774
0000d0 96 d0 0c bd 17 ce 8c be 68 06 ef 3e e0 fb 06 bf
       -0.03437861 -0.27500984 0.46684575 -0.5272808
0000e0 80 7c 1c 3d 27 04 ab 3b 03 4a 15 bf 57 5d bd 3e
       0.03820467 0.005219001 -0.5831606 0.36985275
0000f0 21 16 34 3e aa 42 c2 3d 6f 38 8e 3d 21 30 5a 3d
       0.17586567 0.094853714 0.069443576 0.053268556
000100 e0 84 b1 be fb f5 08 3e b7 da 63 3e 91 19 74 bc
       -0.34671688 0.13375084 0.22251402 -0.014898674
000110 90 be cb be 9a 6a da be d2 08 55 be 79 0d 8d 3d
       -0.39793825 -0.42659456 -0.20804146 0.06887335
000120 d7 6b ad 3d 24 4a a8 bd 00 74 c8 3d 02 6d 71 be
       0.084678344 -0.08217266 0.0978775 -0.2357674
000130 6c 4e f6 bd 2b 88 30 3e ce c7 88 3e 6d 0a ec be
       -0.120266765 0.17239444 0.2671494 -0.46101704
000140 77 1d 3a be 41 c3 cc be 2f 43 0b be 9c dc 07 be
       -0.18175302 -0.39992717 -0.13599847 -0.1326775
000150 0f 93 9f be f1 fb 11 3e d5 0c c2 be 6c 6d fa 3c
       -0.31166884 0.14256264 -0.37900415 0.030569755
000160 e3 3e ec 3b a7 15 0a be 85 c3 e1 3e 01 bf 05 3f
       0.007209645 -0.13484822 0.44094482 0.52244574
000170 aa 07 83 3e e2 47 8a be 42 10 8a be b0 c2 63 3e
       0.25591785 -0.27007967 -0.2696553 0.22242236
000180 f5 c8 23 be 29 c1 c5 be 78 74 20 bf 97 8a 66 3e
       -0.15994628 -0.38623932 -0.6267772 0.22513805
000190 b7 b4 98 be 5c 56 44 3d 8d 78 ee 3e 75 db b0 be
       -0.29825374 0.04793392 0.46576348 -0.34542432
0001a0 7a c3 5a be 0c 3c a9 3d 77 ef 7d 3d 92 30 e3 bc
       -0.21363631 0.08263406 0.06199595 -0.027733121
0001b0 dc 73 f9 3e cc 0b 39 3e cf 2b f2 3d fc d3 2b 3e
       0.48721206 0.18070906 0.11824762 0.16780084
0001c0 cb c7 54 bf f0 fc 23 3e 85 66 57 be e1 21 22 3e
       -0.8311736 0.16014457 -0.21035202 0.15833236
0001d0 aa e8 9b 3e 92 cf 7a 3e e4 bb 3f be 02 bf e3 3e
       0.30450946 0.24493244 -0.18724018 0.44481665
0001e0 3d a2 d0 3e d6 de 62 be 94 7e 52 3d 67 cf c5 bd
       0.40748778 -0.22155318 0.051390246 -0.096586995
0001f0 16 e4 c3 be e9 df fb be db 23 13 3d bb bb aa 3c
       -0.38259953 -0.49194267 0.035922866 0.02084147
000200 04 86 66 3e 7c d0 f7 3e c3 98 31 be 10 85 df bc
       0.2251206 0.48401248 -0.1734343 -0.027285129
000210 58 1c ea bb 42 03 b9 3d ab 8a 94 3e 01 00 9e bb
       -0.007144492 0.090338245 0.29012045 -0.004821778
000220 5a 13 be 3d c5 a9 cc 3c f3 db 05 3e 58 3d 9b bd
       0.09281035 0.024983296 0.13072185 -0.0758006
000230 f8 c5 f9 be 75 45 d4 3c 45 a3 d3 3c d1 5a 47 3e
       -0.4878385 0.025912026 0.025834689 0.19468237
000240 02 c5 d1 bd 1f 0e 41 3e 4e d2 87 3e 2e 9f 05 bf
       -0.102426544 0.18853043 0.26527637 -0.52196014
000250 ed 56 51 be 59 40 86 3d 1d 00 e3 bd e8 ae 8e bd
       -0.20443316 0.06555242 -0.11084006 -0.069669545
000260 08 fb 7d be a4 53 32 3e 68 f4 8c 39 a0 25 97 bb
       -0.24802792 0.17414719 0.00026884978 -0.0046126395
000270 96 58 13 be 20 ff 41 be 0f 9a b4 3d 03 96 fa 3c
       -0.14389262 -0.18944979 0.08818447 0.03058911
000280 8e 2c d2 3e 0b cf 25 bd 4f a4 0a be b5 23 d3 3c
       0.41049618 -0.040480655 -0.13539241 0.025773862
000290 aa e9 a2 3c 4d 5d a8 be 79 17 dc bd 0c e4 42 3d
       0.01988681 -0.32883683 -0.107466646 0.047580764
0002a0 44 cf 67 3b 97 17 ed be 78 e8 e2 bd ee f5 93 be
       0.0035371343 -0.4630706 -0.11079496 -0.28898567
0002b0 bf ff db 3d 14 68 5c 3d d3 c0 0b 3e ed 94 d6 bd
       0.10742139 0.053810194 0.13647775 -0.10477624
0002c0 36 bd 4a 3e 44 9d d4 bd de b1 9e 3d b9 d2 55 be
       0.1979874 -0.103815585 0.07748769 -0.20881166
0002d0 30 cc 5e 3d 5c 5a cc bb 55 4b ea be 59 f0 98 3e
       0.054393947 -0.0062363576 -0.457606 0.2987087
0002e0 b6 06 21 bf 10 95 fc be c0 55 6e 3e 6f 3e 1c 3f
       -0.62900865 -0.49332476 0.23274899 0.61032766
0002f0 bc f6 5d be 1a e7 b1 3e 8d 99 9b 3e 0c 26 f2 be
       -0.21676153 0.3474663 0.30390587 -0.47294652
000300 75 27 2e be b3 cc 09 3f 6c 89 7e 3d 9a ce 06 bd
       -0.17007239 0.5382797 0.062142774 -0.032911874
000310 04 a2 03 3e d2 71 55 3e c0 a4 96 3e 88 c5 3e bd
       0.12854773 0.208442 0.2942257 -0.0465751
000320 13 35 fb be d4 73 a9 3e 37 6a 2f be d2 60 ad bd
       -0.4906393 0.33096182 -0.17130361 -0.08465733
000330 d8 19 ae 3c 3a f4 f3 bd 02 2d 9c bd d4 25 9a bd
       0.021252558 -0.11911817 -0.07625772 -0.075267464
000340 a6 17 2e 3c 9b 48 a8 3e 88 cd 23 3e 3a 2d fa bb
       0.010625755 0.32867894 0.15996373 -0.007634786
000350 ea 9d 2c 3e 05 9c 0f bf 0e 2f 0e 3e 26 17 d8 3e
       0.16857114 -0.5609744 0.13885137 0.4220516
000360 51 fd a4 be 8d e4 a7 3d 13 2e 74 3e 6a 11 9d be
       -0.32224515 0.081978895 0.23845701 -0.30677348
000370 84 49 64 3e 13 e0 a5 3e 47 b7 27 3e 09 97 09 3e
       0.22293669 0.32397518 0.16378509 0.13436522
000380 4e 2d e9 3d 72 3d 18 3e ce 43 02 3d fd 09 1d bf
       0.11385594 0.1486719 0.031802945 -0.61343366
000390 d0 43 10 bf c0 d1 56 bd 2c e0 ef 3e fb 1c c2 3c
       -0.56353474 -0.052446127 0.46850717 0.02369546
0003a0 08 b3 63 bd 56 3a f9 be a1 9a a1 3e 49 1c 84 bd
       -0.05559066 -0.4867732 0.31563285 -0.064507075
0003b0 3e 35 1b be 9b 46 cf 3e 26 e5 b2 be ae c8 60 3e
       -0.15157029 0.40483555 -0.3494045 0.21951553
0003c0 9c 9d 97 3e ae cb 99 be b0 51 c1 bd b2 f6 55 3e
       0.29612434 -0.30038208 -0.09439409 0.20894888
0003d0 2e 7b 53 be 9a fc 05 be 4c 4e 92 bd b4 0a ae 3e
       -0.20652458 -0.13084641 -0.0714384 0.3399254
0003e0 f5 af 0e be db 59 32 bf a6 2b 47 3e d0 fc 6a be
       -0.1393431 -0.6966836 0.19450244 -0.22948003
0003f0 b6 4b 18 bf 17 74 13 be 95 0c c4 3d c1 0c e2 3d
       -0.59490526 -0.14399754 0.09572712 0.11037589

network_body._body_endoder.seq_layers.0.bias f4 [128]
000000 05 20 c2 3b 4d 6e 21 3b 16 9f 93 bc 10 cf 50 3b
       0.005924227 0.0024632395 -0.018020194 0.00318617
000010 f6 c8 5e ba b6 b4 64 3b 18 4b b9 ba a9 99 15 bc
       -0.00084985734 0.0034897751 -0.001413676 -0.009130874
000020 1a 4a 71 3b 19 7e cb 3b 46 69 36 bc 7a 60 e6 39
       0.003681785 0.0062101004 -0.011133498 0.000439409
000030 26 16 28 3b 35 e2 ed 3b 1e 7c 17 3c 4b e2 91 3c
       0.0025647967 0.007259632 0.0092459 0.0178081
000040 ec 35 5f ba 25 a7 b1 3b b6 d2 46 3c f0 aa be b8
       -0.000851481 0.0054215365 0.012135198 -9.0917456e-05
000050 d1 6e 6a bb 76 f5 ac bb 1a e5 13 3c b3 95 19 3c
       -0.0035771618 -0.0052782847 0.00902679 0.00937407
000060 4f 9e 44 bc 27 5e 6d bc 25 b5 8b bb a6 b4 d3 3b
       -0.012000634 -0.01448778 -0.0042635375 0.006460744
000070 75 b0 99 3c cb 90 66 bc 66 21 89 3b e1 a0 a5 3b
       0.0187609 -0.014072607 0.0041848896 0.0050545787
000080 3e 14 76 3a 22 49 6e bc 26 46 b6 bb 83 9b 33 bb
       0.00093871716 -0.014543803 -0.0055625616 -0.0027405925
000090 00 55 80 3c 81 24 b6 3c 6c 19 82 3b 07 c7 d5 bb
       0.015665531 0.022234203 0.0039703157 -0.00652397
0000a0 e8 00 c9 3a b6 e4 80 bc 18 93 01 bb 94 28 6b 3c
       0.0015335353 -0.015734058 -0.0019771513 0.014352936
0000b0 a2 a0 da bb 15 b3 ac 3a 7e 86 8a 3c 22 8a 3f 3b
       -0.006671981 0.0013175929 0.016909834 0.002922662
0000c0 3b 5d fd bb a9 d8 11 bc c6 f1 bf bb be 2b 68 ba
       -0.007732061 -0.008901753 -0.005857679 -0.0008856616
0000d0 9e c6 24 3b 02 71 2a bc c0 e1 17 3c 81 86 c1 bb
       0.00251428 -0.01040292 0.009270132 -0.0059059267
0000e0 a4 e5 25 3c 87 3f 66 bb 42 37 0b 3c d5 da 52 3a
       0.010125551 -0.003513308 0.008497061 0.0008043473
0000f0 7a 26 25 bc 56 70 63 3c ec c7 f2 3b f5 e5 99 bb
       -0.010079974 0.013881763 0.0074090865 -0.0046966025
000100 58 0b a7 ba 90 ae 2b 3b ab 71 2e 3c 37 bf ae 3a
       -0.001274447 0.0026196577 0.010647218 0.0013332133
000110 b4 05 58 bc b9 6b 81 bc 50 49 31 3c d0 f8 00 bc
       -0.0131849535 -0.015798436 0.010820702 -0.0078718215
000120 f3 6d fb 3b 09 c5 01 bc ee 90 97 3b 42 72 53 3b
       0.007673019 -0.007920512 0.0046254313 0.0032264148
000130 be f6 8e bb 86 1c 35 bc 4c ae 03 ba b8 f0 b3 3b
       -0.00436291 -0.011054164 -0.00050232257 0.0054913424
000140 a6 fd 93 ba 03 19 c6 3b 77 85 48 3c 81 7b ee bb
       -0.0011290803 0.006045462 0.012238852 -0.0072779064
000150 fa 61 ab bb e6 1b 0a bc fc 3a b6 bb 1c fd c9 3b
       -0.0052301856 -0.008429503 -0.0055612307 0.006164206
000160 aa 6c 96 b9 65 43 1b bc 73 60 b9 bb 9b 90 53 3b
       -0.0002869119 -0.009476517 -0.0056572496 0.0032282236
000170 a2 79 bc 3b 27 41 f5 3b 8e 1e e1 bb a4 21 12 3c
       0.0057518044 0.0074845734 -0.0068700975 0.008919153
000180 44 7a 31 3c 32 11 71 39 b5 20 7e bb 94 73 4b 3b
       0.010832373 0.00022989957 -0.003877682 0.0031044232
000190 48 d2 e2 b9 c8 cc 0f ba fe fd ad bb 56 2d 0e bc
       -0.0004326275 -0.0005485532 -0.0053098192 -0.008677801
0001a0 4a 47 da 3a 34 ef 23 bc dc e1 f5 3b 05 1b 48 bc
       0.0016653326 -0.010005761 0.007503731 -0.012213473
0001b0 fe 94 db 3a dd 12 e6 3b 23 9e 15 3c 16 35 c1 3a
       0.0016752777 0.0070212916 0.009131941 0.0014740552
0001c0 b3 e4 06 3c 37 55 96 bc 2a bc b4 3b 5c dc e1 3b
       0.008233237 -0.01835118 0.005515595 0.006892724
0001d0 6f 8a 18 3b d5 4c fa bb 8b 1c ba 3b 17 c3 d8 3b
       0.0023275872 -0.0076385536 0.005679672 0.0066150534
0001e0 03 06 07 3b cd 3a 93 3b b7 48 d3 bb ef 97 18 ba
       0.0020602948 0.0044930936 -0.0064478773 -0.000582098
0001f0 37 56 0c 3c 4c ae df bb 30 d5 46 b9 d9 51 0b bc
       0.008565477 -0.0068261977 -0.0001896217 -0.008503401

network_body._body_endoder.seq_layers.2.weight f4 [128, 128]
000000 0d 55 9a 3d 08 cd 36 be 35 8a 93 3d c6 54 11 3d
       0.075357534 -0.1785165 0.07204095 0.035481237
000010 db 28 8b bc 75 b3 0b 3e a4 22 0f bd ad 5e 7c b9
       -0.016987255 0.13642676 -0.034945145 -0.00024067862
000020 5f d5 a9 bc 06 ad 90 bd c2 47 de 3c e9 e1 c0 bc
       -0.020731626 -0.070642516 0.027133826 -0.023545222
000030 30 ac 02 be ed 6f 02 bd 60 79 e5 3d 84 a1 05 bd
       -0.12760997 -0.031845022 0.11204791 -0.032624736
000040 4e 7f 91 3c 04 24 77 3d 44 8d 8a 3d 42 f5 d4 bc
       0.017760899 0.06033708 0.067652255 -0.025995854
000050 6c 18 a4 bc 78 2f 16 3d d5 54 07 bd 31 01 12 bd
       -0.020031177 0.036666363 -0.033039887 -0.035645667
000060 d2 fe 32 3e d6 09 13 3e 08 2c 3b 3d a1 e1 32 bc
       0.17480019 0.14359221 0.04569629 -0.010918052
000070 4b 9e dc 3d 95 7c 41 3d 39 86 47 3d 3b bc 96 bd
       0.107723795 0.04723795 0.04871199 -0.07360121
000080 b4 98 aa bd 7e 01 36 3d 37 7d b1 3c 69 8d 06 be
       -0.08329907 0.044435017 0.021666152 -0.13139881
000090 fc 6f 48 3d 64 9b de 3d d0 9c 81 3d 54 cb 16 bd
       0.04893492 0.10869482 0.06328738 -0.036815003
0000a0 fd ed d0 bd a4 dd 17 bd fb b4 c0 3d 4d 7a 60 bd
       -0.10201643 -0.037076607 0.09409519 -0.054804135
0000b0 e3 46 b6 bd c1 99 98 be fb 28 c8 3d 9d 19 c6 3c
       -0.08900239 -0.29804805 0.097734414 0.024182135
0000c0 4d 06 f4 3d e0 18 4e 3e e9 80 24 3e 85 d4 77 bd
       0.11915264 0.20126677 0.160648 -0.06050541
0000d0 27 6b 9a bd 74 4b 17 3c 5a 3d af 3d 61 e0 68 3c
       -0.07539969 0.009234298 0.08556624 0.014213652
0000e0 84 ea 00 3d ed 99 dc bc 33 6e d1 3b 04 96 a2 bd
       0.03147365 -0.026928866 0.0063913106 -0.079387695
0000f0 1f 38 35 3e dd de 55 bc 27 d1 86 3a fd 37 49 bd
       0.1769719 -0.013053623 0.0010285721 -0.04912566
000100 cf da a4 bd a1 9f 93 3d fe f0 06 3e 12 7c c2 3b
       -0.08049547 0.07208181 0.13177869 0.0059352005
000110 1b 52 a2 bd e8 a0 27 bc 69 46 6d 3e 2f e0 4e bd
       -0.079258166 -0.010231234 0.2317139 -0.050506767
000120 c0 6f 9c bd f6 e1 b7 bd c3 8d f3 bd 7b e6 4f 3d
       -0.07638502 -0.089786455 -0.11892273 0.050756913
000130 41 71 a7 bc 6d 64 f6 3d 6a 30 0b 3e 5e 36 64 bd
       -0.020439746 0.120308734 0.13592687 -0.05571591
000140 eb c7 40 3e 0e 97 70 bd 7f b8 ec bc 48 96 20 3e
       0.18826263 -0.058737807 -0.028896568 0.15682328
000150 8b d9 b2 bc e4 bf 99 bd c6 d1 2d bd 9f a1 aa 3d
       -0.021832248 -0.07507303 -0.042436384 0.08331608
000160 cc 06 4a bd 64 dd e0 bd 83 e5 f2 bd c8 27 45 3d
       -0.04932289 -0.10979727 -0.11860182 0.04813364
000170 c0 90 d2 bd fc b5 68 3d cd 6c af 3d 29 a7 cf 3d
       -0.10281515 0.05681418 0.08565674 0.10139305
000180 cd 8a ad 3c c3 26 af 3c b7 c5 73 bd d2 d5 db bd
       0.02118435 0.021380788 -0.059514727 -0.10734142
000190 e3 6f d5 bd 74 84 a0 3d 97 28 18 3e ab 9f 2c 3e
       -0.10421731 0.078377634 0.14859234 0.16857783
0001a0 b6 62 03 3e 2c 10 77 3d 52 58 26 bd b9 0b 4a 3d
       0.12830624 0.060318157 -0.040611573 0.049327586
0001b0 e3 d6 1c bd cf 68 07 3e 0d b3 f0 bc bc 77 b9 bd
       -0.03829087 0.13223575 -0.029382253 -0.09056041
0001c0 ff 3d 17 3d e1 1a 1e 3d 12 87 57 bc c6 cf 49 3c
       0.03692436 0.038599852 -0.013154762 0.012317603
0001d0 ae ce 86 3d 31 c8 93 bd c6 78 66 bd 7e 6b 13 3d
       0.0658239 -0.07215918 -0.056267522 0.035991184
0001e0 ef 31 06 bc 16 2f 83 3d e5 c3 fe bc 40 be 2d 3e
       -0.008190616 0.06405465 -0.03109927 0.16967106
0001f0 34 22 60 bc 5f 1f 93 bd a7 34 69 bd 4d ba 5c bd
       -0.01368003 -0.07183718 -0.05693498 -0.053888608
000200 77 f6 5b 3c 20 52 5f 3d a0 a1 03 bd d2 e6 f8 3d
       0.013425461 0.05452168 -0.03213656 0.121534005
000210 5d b3 46 3d 66 e8 c1 bc 80 45 77 bd 38 0f fd 3d
       0.048510898 -0.023670387 -0.060369015 0.12356418
000220 d9 b4 f5 bd 30 40 a3 3c 5e 31 b5 3c 9b 0a f5 3a
       -0.119973846 0.019928068 0.022118267 0.0018695177
000230 b7 c1 7a 3d 73 35 f5 bd 3d 8d 68 3c 88 f4 c3 bd
       0.061219897 -0.11973085 0.01419383 -0.09568125
000240 1b db 34 3c 84 ff 91 3d 55 e9 21 3e 7f b8 1d be
       0.011038567 0.07128814 0.15811665 -0.15402411
000250 4f 87 0a bc 1f 32 ae 3d ce 65 aa bd 70 a8 1f 3e
       -0.008455112 0.085056536 -0.08320199 0.15591598
000260 10 94 61 bc 27 7e 97 3d 61 ca 45 3e 22 d5 40 3e
       -0.013768211 0.073971085 0.19315483 0.18831304
000270 b9 95 79 bb 8d d2 c4 3b 8f d8 0f be 57 d8 c9 bd
       -0.0038083626 0.006006545 -0.14047454 -0.09855717
000280 8e db 21 bd 60 59 c4 bd 74 69 02 3e dd 78 1d bd
       -0.039516024 -0.095873594 0.1273554 -0.038445342
000290 12 b4 8a 3e 7c eb 05 be c7 8d 0f 3d ec 6c 09 3e
       0.27090508 -0.13078111 0.03504732 0.13420457
0002a0 4a d7 16 3e 7d 14 e0 bc 38 fc 2c 3d eb d3 8b 3d
       0.14730564 -0.02735352 0.042232722 0.068275295
0002b0 64 fd d9 bd c9 c6 f3 3d 9b 22 3c bd 9b 13 63 3d
       -0.106440336 0.1190315 -0.04593144 0.05543862
0002c0 0e b4 89 3d f0 fe ba 3c bf cc c7 bc d8 02 7a bb
       0.06723796 0.022826642 -0.024389623 -0.0038148668
0002d0 d5 f9 60 3d f1 62 8a bc 65 51 a3 3d 9c db 81 3d
       0.05492576 -0.016892882 0.07974509 0.06340715
0002e0 ab 2b ed bd 7d d6 e7 3d 85 bd 44 ba 0b ec 11 3e
       -0.11580595 0.11320207 -0.0007505047 0.142502
0002f0 13 1f 9a 3d 7c 6d 03 be 48 0e ba 3a f8 0c be 3c
       0.07525458 -0.12834734 0.001419493 0.023199543
000300 76 d8 f3 3c 53 89 eb bc 6f df 14 3e 8b d1 84 3d
       0.029766303 -0.028752005 0.14538358 0.0648528
000310 a4 37 0e 3e fa 58 4e 3e 46 d2 8b 3c 8a 24 36 be
       0.13888413 0.2015113 0.01706804 -0.17787376
000320 74 b0 9a bd d6 e9 6f bd 35 d3 c1 bd 36 1e f2 3c
       -0.07553187 -0.058572613 -0.09464113 0.029555421
000330 39 6d 77 3e 08 01 c1 3d c6 40 eb ba ee 4f 39 3d
       0.24162759 0.09424025 -0.0017948381 0.045242243
000340 4d ce 50 3c bc aa e8 3c 4c b5 1d bd 7f 24 03 3e
       0.012744498 0.028401725 -0.038502976 0.12806891
000350 64 59 66 bc 14 87 ef bc 14 73 45 3d 0b 4e 32 be
       -0.014059398 -0.029239215 0.04820545 -0.17412584
000360 44 25 b8 bc 64 91 24 be ae e3 97 3b 03 6f 9a bc
       -0.022478707 -0.16071087 0.004635296 -0.018851763
000370 de fc fc bd 24 eb 79 3c d2 2a a9 bd 29 ad 1c 3d
       -0.12352918 0.015253816 -0.082601205 0.038251076
000380 cd 86 5c 3d 49 4c f1 bc 26 41 27 bd aa 1a 4f 3d
       0.053839494 -0.02945532 -0.040833615 0.05056254
000390 86 75 a2 bd ad b4 9f 3b 9a a9 bf 3d 22 21 38 bd
       -0.07932572 0.004873833 0.09358521 -0.044953473
0003a0 72 2d 0f bd 49 df f6 bd 31 37 5e 3d 18 7d 93 3c
       -0.03495545 -0.12054307 0.054251853 0.018003985
0003b0 e6 44 ef 3c 80 bf a1 3d 4a a1 78 3c 9b f9 d3 bd
       0.029207658 0.07897854 0.015175173 -0.10350343
0003c0 ec 2b 26 bd f0 b0 1d bc e2 28 fb bd 92 b8 03 3e
       -0.04056923 -0.009624705 -0.12263657 0.12863377
0003d0 38 b2 bf 3d 51 5d ae 3d be 96 b8 bb 50 fb 6b 3d
       0.093601644 0.085138924 -0.0056332042 0.057612717
0003e0 a3 f3 87 bb 7b e2 d8 3d f1 c8 6a 3e 81 24 e9 bc
       -0.004148917 0.10590073 0.22928216 -0.02845979
0003f0 60 d8 61 bd 30 aa bb bb 46 ae 1d 3d a1 ed f6 3d
       -0.055137992 -0.005727075 0.03849628 0.12057043

network_body._body_endoder.seq_layers.2.bias f4 [128]
000000 ea 40 e0 3a 53 4b c9 3b 9d 4e af bb 77 3c c1 ba
       0.001710919 0.0061430125 -0.0053499476 -0.0014742751
000010 25 08 a0 bb a8 3b 89 3b c3 72 85 3b f0 fd 94 3b
       -0.0048837834 0.00418802 0.0040725186 0.0045468733
000020 fc d8 a9 b9 81 3e ef 3b d8 62 54 bc 37 68 4e bc
       -0.00032395858 0.007301152 -0.012963019 -0.012598089
000030 00 1c 22 3a 02 e1 19 3c b5 97 98 3b 8f 8a 5c 3c
       0.0006183982 0.009392025 0.0046567568 0.013460769
000040 fe 4e 28 bb 4a bf 15 3c fc 91 f7 3b fb 24 3c 3b
       -0.0025681849 0.009139845 0.0075552445 0.0028708566
000050 69 53 32 bc e9 74 bc 39 45 7e ca bb 1e 6e 61 ba
       -0.010884144 0.0003594526 -0.0061796033 -0.00085994776
000060 66 6b 31 3c 86 15 ac 3b f0 88 ec bb 09 ad fe 3b
       0.010828828 0.005251589 -0.0072184727 0.0077720922
000070 c4 c7 0c bc 55 6b d6 39 6f e7 b7 bb c5 9a f9 bb
       -0.00859255 0.0004089723 -0.005612306 -0.007617327
000080 6d 35 5d bb 98 e9 18 3c 05 be 23 3c 3c b7 a2 3b
       -0.0033753768 0.009333037 0.009994035 0.004965691
000090 8b b0 d9 3b 5e 96 e1 3b 44 09 b3 3b f2 db f1 bb
       0.00664336 0.0068843802 0.005463751 -0.007380956
0000a0 b6 82 3f 3c a8 87 96 bb 15 eb c7 bb 9e 11 d9 bb
       0.011688879 -0.004593808 -0.006101022 -0.0066244146
0000b0 c0 2c b2 bb 46 64 f2 3b 5e 1e ef bb 63 1a 03 3c
       -0.0054374635 0.0073972074 -0.007297321 0.008001897
0000c0 dc 85 81 3b 46 e8 e0 3b 07 39 25 3c 4e 08 1e 3c
       0.003952725 0.0068636267 0.010084397 0.009645535
0000d0 83 b2 b4 3b 6f 19 39 3c 8f 05 18 3c e6 2b f7 3b
       0.0055144443 0.011297568 0.009278669 0.007543075
0000e0 b4 75 a6 3a f5 32 91 bb ac 46 43 3c f7 82 c1 bc
       0.0012699873 -0.0044311234 0.011918705 -0.02362202
0000f0 d8 47 8a 3b 73 e1 17 bc fb 0a 27 3c 3f 50 f6 bb
       0.00421999 -0.00927006 0.010195489 -0.0075168903
000100 48 e0 73 bc 13 61 72 bb 5d e0 b2 bb f4 32 42 3c
       -0.014885016 -0.003698413 -0.005458875 0.0118529685
000110 dc cf 43 bb b6 b5 95 bc 79 13 e0 bb 18 c6 c5 39
       -0.0029878533 -0.018275123 -0.006838259 0.0003772236
000120 34 88 ac bb ca 05 c5 b9 ee 5e c4 3b ee 64 11 bb
       -0.00526526 -0.0003757908 0.005992762 -0.0022185403
000130 02 fd 22 3c c9 8a 7b bc c5 b4 00 3c 10 db 1b 3c
       0.009948017 -0.015352913 0.007855599 0.009512678
000140 2e 63 cc 3b 24 43 a9 3b d7 1e 37 bc e3 4f d4 3a
       0.006237409 0.0051654745 -0.011176786 0.0016198125
000150 dc 85 81 3b 48 eb 04 3c 8e b6 de 3b fa 9b 48 3c
       0.003952725 0.008112736 0.0067966646 0.012244219
000160 e3 6f ea 3b 61 bc 92 bb 58 65 43 bc aa 25 99 bb
       0.007154451 -0.004478023 -0.011926018 -0.0046736794
000170 da 34 b8 bb b9 b3 97 bb 1f 1d 38 3c 25 d1 91 bc
       -0.005621535 -0.004629579 0.011237412 -0.017799923
000180 71 57 79 3b 46 6c 5a ba 41 93 e1 3b e9 3f df 3b
       0.0038046504 -0.0008332174 0.006884009 0.0068130386
000190 d5 02 cd bb 97 f3 ba bb a5 df 94 bb f7 70 47 3b
       -0.006256441 -0.0057053077 -0.004543262 0.0030432323
0001a0 e0 c3 ef 3b 24 d3 60 bc c6 4a aa 3b 54 b2 b2 3b
       0.0073170513 -0.013722215 0.005196902 0.0054533873
0001b0 0d 42 a0 bc 0e 37 85 bc 16 87 cd bb a0 92 8b ba
       -0.019562745 -0.016261604 -0.006272207 -0.0010648556
0001c0 2f cb 8c 3a 6f 02 b4 3c 4f 5f 74 bb b5 c9 1f 3c
       0.0010741706 0.021973817 -0.0037288254 0.009752681
0001d0 81 8b 48 bb 3e fa 8e 3b 1e a3 b7 3b 2a 95 03 3c
       -0.003060073 0.0043633273 0.005604162 0.008031169
0001e0 17 98 e8 bb e6 b0 df 3b 9a f5 b3 bb be cd 0c 3c
       -0.0070982086 0.006826508 -0.0054919245 0.008593975
0001f0 38 30 8a bb ee 26 e3 3b cc 24 13 bc f4 a9 35 bc
       -0.004217174 0.006932131 -0.008980941 -0.011087883

action_model._continuous_distribution.log_sigma f4 [1, 2]
000000 4a f6 77 3b 64 77 63 bb
       0.0037836009 -0.0034708614

action_model._continuous_distribution.mu.weight f4 [2, 128]
000000 e6 94 7a 3c 4c 70 e2 3c 69 20 5f 3c 82 6b 96 bc
       0.015294289 0.027641438 0.013618567 -0.01836181
000010 2d da 04 bc 6d 70 d1 ba 75 e0 e6 3c 5c f4 b2 b9
       -0.008108658 -0.001597894 0.028183201 -0.00034132868
000020 08 86 ca ba 21 8d 08 3c 62 de c3 ba ca 73 3e bb
       -0.0015451321 0.008334429 -0.0014943595 -0.0029060715
000030 d5 d8 9b 3c c8 1d d9 3c e4 eb 04 bd 1f c1 05 3c
       0.019024292 0.026503459 -0.032451525 0.008163719
000040 ee b5 ac 3c fb 41 a4 3a a4 32 0f 3d 59 a4 98 3c
       0.021082845 0.0012531871 0.034960404 0.018633055
000050 06 85 8f b9 e8 86 27 bd d2 95 7f 3c 6d 60 1e bd
       -0.00027374196 -0.04090014 0.015599685 -0.038666178
000060 fc 1e f8 ba 63 36 9c 3c 5d 74 0c 3c 11 12 7e bb
       -0.0018930133 0.019068902 0.008572665 -0.0038768093
000070 4f 82 27 3b a1 86 04 bd b8 e2 a2 bb 3b 92 7a bc
       0.0025559848 -0.032354955 -0.0049708746 -0.015293653
000080 50 1f a2 bc 63 69 ba 3b 83 4d 9e bc 7d 53 2b 3b
       -0.019790322 0.0056888326 -0.01932407 0.0026142292
000090 fd 13 8e 3b e7 9f 3d 3c 82 54 15 3a 4b 6f 5d 3c
       0.004335879 0.011573768 0.00056964916 0.013515304
0000a0 75 55 0c 3b 99 03 be 3c f3 c3 6c 3c 06 8b a5 ba
       0.002141324 0.023195075 0.014451015 -0.0012629933
0000b0 0a 29 9a bc c4 f8 2a 3c 57 f0 02 3c 5c 60 76 39
       -0.018818397 0.010435287 0.007991872 0.00023496285
0000c0 3d 21 db bb a2 aa 57 39 47 3e 97 bc 48 65 a3 3c
       -0.006687312 0.00020567563 -0.018462313 0.019945756
0000d0 7d 11 91 bc ff 33 47 3d b8 40 95 3b 81 bc 8d 3b
       -0.017708534 0.04863357 0.004554834 0.00432545
0000e0 8e 80 0a 3d bc 02 4e 3b 73 6c d2 bc 6b ab 26 3b
       0.033814006 0.0031434735 -0.025686478 0.0025431763
0000f0 31 b9 a9 bc e5 76 5a bc e8 c9 31 bc 3d 1a 05 bd
       -0.020718189 -0.013334011 -0.010851361 -0.032495726
000100 87 34 9a ba 52 42 4e 3c f9 28 cf 3c eb 82 83 3b
       -0.0011764922 0.012589054 0.025288092 0.0040134094
000110 98 66 df bc 03 b8 1d 3c 3a d2 76 3c b1 b4 8c 3b
       -0.0272706 0.009626391 0.01506477 0.004294001
000120 2c 22 6f 3c ec 61 ac bc 73 76 17 3d a1 f0 d5 3c
       0.01459555 -0.021042787 0.036978196 0.026115717
000130 27 e1 11 3c 31 ea cb bb b8 15 1b 3d f5 bd 5e bc
       0.008903778 -0.006222986 0.03786251 -0.013595094
000140 d2 0c c6 3c 92 95 d0 3c c0 f1 ac 3b e8 88 e7 bc
       0.024176035 0.025461946 0.0052778423 -0.028263524
000150 05 48 75 bc 36 6b a4 3b 8f c5 07 3d db 7b 1d 3a
       -0.014970784 0.0050176634 0.03314739 0.00060075306
000160 18 a6 94 bc 58 ef aa 3c 59 a9 66 3c 1d f0 b6 bc
       -0.018145606 0.020866081 0.014078462 -0.022331292
000170 fb 4d 39 bd 2f 22 70 bc c8 59 a1 3c f4 d0 eb 3b
       -0.045240384 -0.0146565875 0.019696131 0.00719654
000180 30 04 05 bd d9 ec d0 bc 62 b3 28 ba c1 a7 76 3c
       -0.032474697 -0.025503563 -0.00064354215 0.015054644
000190 9f e8 86 bc bf 5a ad bc f8 3a d4 3c 94 c5 ec 3c
       -0.016468344 -0.021161435 0.025907025 0.028902806
0001a0 4c cb a7 3c 73 19 b6 bb a6 ca ea 3c 6a ff 0a bd
       0.020482682 -0.005557233 0.028661083 -0.033934988
0001b0 14 7c ec 3a 36 50 50 3c dc fb 93 bb 27 76 ba bb
       0.0018042349 0.012714436 -0.004516108 -0.0056903544
0001c0 f0 8b db bc 90 92 22 bc 8e 6c 00 bd 7d 75 6a 3c
       -0.026800126 -0.009922639 -0.031353526 0.014310238
0001d0 53 ac c9 3c 05 d8 46 3c dc 4f b9 bb 57 7b 6a 3c
       0.024618303 0.012136464 -0.005655272 0.014311633
0001e0 6c 86 66 bc 22 80 c4 3c af 57 bc 3c 61 bf d2 3c
       -0.014070135 0.02398688 0.02299103 0.025726022
0001f0 25 61 d6 ba 54 de 76 3c de 91 f9 39 93 cc 83 bb
       -0.0016355856 0.015067656 0.0004760166 -0.00402219
000200 49 63 28 bb 8d da 2b bb 34 0b f2 3c 17 bc 00 3c
       -0.0025693944 -0.0026222796 0.029546358 0.007857344
000210 92 22 a8 3c 42 ea 6b bc ef 59 14 3b 15 45 72 3b
       0.020524297 -0.014399113 0.0022636612 0.0036967446
000220 db c3 0f bc 59 3e f9 bc c2 ee f9 38 fb b7 ac 3b
       -0.008774723 -0.030425237 0.00011917717 0.0052709556
000230 c8 4c 06 3b 6a 6f 5b bc fc 3d 92 bb 6b c0 8b bc
       0.0020492543 -0.013393262 -0.0044629555 -0.017059525
000240 0d 8a c5 3c ed 51 e9 bc 5d 08 d9 ba de 82 23 bb
       0.02411368 -0.028481448 -0.0016558279 -0.002494983
000250 1f d3 7d 3c de b9 d4 3b e4 b8 02 3d 6b f9 26 3b
       0.01549223 0.0064918837 0.031914607 0.0025478255
000260 b1 d4 04 bd 79 14 50 39 77 53 21 3d 6c 74 9c ba
       -0.0324294 0.00019844052 0.03938624 -0.0011936552
000270 96 43 81 3b 96 01 87 bc 9f cc ac 3c 8f c1 78 3a
       0.0039448244 -0.016480248 0.021093665 0.00094892917
000280 2f b4 85 3b 25 02 1c bc a2 ab 2c bd e7 17 c7 bb
       0.0040803174 -0.009521996 -0.04215587 -0.0060758474
000290 74 bf b1 bc 51 11 1a bc d5 5c 28 bc 97 b4 b0 3c
       -0.021697737 -0.009403543 -0.010276039 0.021570487
0002a0 e4 84 d1 bb a9 4d 88 3c ec b5 e5 3c 4a 51 f7 b9
       -0.0063940156 0.016638594 0.028040849 -0.00047172076
0002b0 7d fc 8f 3c c7 a8 92 bb 23 1b ba 3c fd b3 02 bb
       0.01757645 -0.0044756862 0.022718018 -0.0019943707
0002c0 35 bf 0a bd 9c 1f cb bb 08 85 9f bc 75 22 2c 3b
       -0.033873755 -0.0061988365 -0.019472614 0.0026265655
0002d0 36 3a ba bc c7 a3 79 3b 3e e7 2f bc 77 7d d3 bc
       -0.022732835 0.0038092004 -0.010736285 -0.025816662
0002e0 35 6e 82 3b d9 49 08 3d da 48 d0 bc 7c bc 27 3c
       0.003980423 0.03327355 -0.025425363 0.010237809
0002f0 de 4f b5 bc 86 35 16 bb 75 af 5c bc c4 77 00 3d
       -0.02213281 -0.0022920086 -0.013469567 0.031364217
000300 70 d4 33 3c 75 e7 42 3c 80 96 17 3d b6 85 9c bc
       0.010975942 0.011896004 0.037008762 -0.019106727
000310 40 55 6f 3c 64 b0 8f 3b c9 d0 a6 3c 61 25 96 ba
       0.0146077275 0.004385041 0.020363228 -0.0011455232
000320 47 2e 9f 3c c9 a9 8b bc 1b d7 72 bc 2b a8 c4 3b
       0.019431246 -0.017048733 -0.014821793 0.0060014925
000330 2f d3 ff bc c9 fe 35 3c 57 90 1a 3a e3 72 0d bd
       -0.03122863 0.011108109 0.0005896142 -0.034533393
000340 ae 82 d6 bb 14 65 f7 b7 df 40 7d 3c 3b fe 0b bc
       -0.00654634 -2.9491763e-05 0.015457361 -0.0085445
000350 df 1b 54 bc ef 13 d2 bc cc 1d 1c bc a5 9a 40 bc
       -0.012946098 -0.02564427 -0.0095285885 -0.01175562
000360 e4 ba d4 bc b3 f5 40 3c a3 d8 ca 3c 44 c5 80 3b
       -0.025968023 0.011777329 0.024761504 0.003929766
000370 60 16 a2 3c 92 85 6b 3b 43 2a d8 bc 13 db c5 3c
       0.01978606 0.0035937768 -0.02638734 0.024152314
000380 86 57 e4 bb b7 82 4c 3a 60 88 82 bc 0e 16 86 bc
       -0.0069684414 0.00078014605 -0.01593417 -0.016367938
000390 ed fe 88 3c 90 1f 1a 3c dd e9 ca 3b 00 9b 30 3b
       0.01672312 0.009406939 0.0061924295 0.0026947856
0003a0 ee 7d 28 bb a8 20 aa 3c 67 9a 7a bc 5d 0a b3 bc
       -0.0025709826 0.020767525 -0.015295601 -0.021855528
0003b0 61 bf a8 3b 89 15 f6 3b d3 5a 85 3c 0e 69 c7 ba
       0.0051497673 0.0075098914 0.01627866 -0.0015213804
0003c0 27 d6 30 bc a6 7d e5 bc fe be 49 3b 2f 42 4b bc
       -0.010793245 -0.028014015 0.0030784006 -0.012405916
0003d0 63 3a 2a 3c b9 f5 ae bb 8b db 1b bb 39 88 fb bc
       0.010389897 -0.005339351 -0.002378198 -0.030704604
0003e0 d0 1b b3 3c fd 96 38 bc 1b ed 16 3d d9 67 10 bd
       0.021863848 -0.011266467 0.036847215 -0.035255287
0003f0 06 b6 43 3c 29 86 92 bc 31 b5 af 3c 16 d3 50 3c
       0.011945253 -0.017886238 0.021448703 0.012745639

action_model._continuous_distribution.mu.bias f4 [2]
000000 f4 fa 7c 3b f2 db 2f bc
       0.0038601728 -0.010733591

action_model._discrete_distribution.branches.0.weight f4 [1, 128]
000000 c3 46 96 3b 17 37 01 bc f7 1a 49 3c 2b 71 79 3b
       0.004586072 -0.00788667 0.012274495 0.0038061838
000010 d7 9f 68 3b c5 2c 18 bc 13 ce ba bb 75 04 b7 ba
       0.0035495663 -0.009288018 -0.0057008355 -0.001396312
000020 5b 33 94 bb 88 7e 92 bb 33 95 12 3c 47 02 de 3b
       -0.0045227236 -0.00447065 0.008946705 0.006775174
000030 8f 9a 89 3b 1f 4d d3 bb 4d 61 fe 3a 8f 14 24 bb
       0.004199333 -0.0064484025 0.001940766 -0.0025036668
000040 f5 fe 5a 3c 46 40 0c 3c 07 0b 69 3c d4 da 99 bb
       0.013366451 0.008560246 0.0142238205 -0.004695276
000050 5f e0 e3 bb 8c 15 32 bc cf b1 76 bc e1 95 10 3a
       -0.0069542374 -0.010869395 -0.015057041 0.0005515498
000060 f8 79 70 3c b9 5c 98 bb f6 76 33 3c d8 bf 49 bc
       0.014677517 -0.0046497253 0.0109536555 -0.0123138055
000070 42 d3 cf 3b f6 15 3f bb 54 40 9f 3b bb 80 ff 3b
       0.0063423226 -0.0029157377 0.0048599634 0.0077973283
000080 2b 46 0f 3c 5a 69 a6 3a 09 c3 22 3b ff c1 78 3c
       0.008744757 0.0012696192 0.0024835488 0.015182971
000090 c0 5b 05 3b 8e 9b 42 bb 93 9d 8b 3b 5d be 8e bc
       0.0020348877 -0.0029694769 0.0042607277 -0.017424757
0000a0 3b a0 86 3c 4e fc 82 3b 2a 26 6e bb a8 a3 52 bc
       0.016433826 0.003997362 -0.0036338666 -0.0128564015
0000b0 b9 de 1e bc 5f 03 41 3c e0 0b 60 3c 03 e4 6f 3c
       -0.009696656 0.011780589 0.013674706 0.014641765
0000c0 d5 a3 ac 3c 50 6b e2 3a 5b 58 78 3c c3 f1 11 3b
       0.021074215 0.0017274413 0.015157784 0.0022269345
0000d0 f3 05 18 bb a1 3d 2c bc 2e c8 90 bb 8b 72 17 3b
       -0.0023196905 -0.01051274 -0.0044183945 0.0023109044
0000e0 f2 9d 6e bc 2b e6 04 bc 64 36 1e bb f3 44 1a bb
       -0.014564024 -0.008111517 -0.0024141306 -0.0023539632
0000f0 32 b8 52 3b 76 72 b9 bb 89 22 90 bb 5b ef 18 3c
       0.0032153246 -0.0056593968 -0.004398648 0.009334411
000100 53 62 28 3c f5 9f f9 ba a0 55 ee 3b 1b 15 63 3a
       0.010277349 -0.0019044863 0.007273391 0.0008662508
000110 0e 94 a0 3b 4e ac 3a 3b 73 14 12 bb 34 41 a2 3b
       0.004900462 0.002848405 -0.002229002 0.0049516205
000120 ab fb f2 3b 87 3b da 38 0a 54 5a 3b 87 89 96 bb
       0.007415255 0.00010406138 0.0033314251 -0.0045940313
000130 7b 12 8b bb eb a6 b6 3b 28 84 5c bc 2a 93 bb 3b
       -0.0042441464 0.0055740974 -0.013459243 0.0057243304
000140 48 d3 7b bb aa 31 a1 ba bf 65 0b bc c9 83 09 bb
       -0.0038425494 -0.0012298126 -0.008508145 -0.002098309
000150 8a 6f cf 3b e3 8e ca 3b 25 14 93 bb e7 48 87 bb
       0.006330435 0.006181584 -0.0044884854 -0.0041285637
000160 2d c7 60 3a 2b a9 ee 3b 8d a2 16 3c 1f 8f 77 3a
       0.00085746014 0.00728335 0.009194029 0.0009443629
000170 48 f6 15 3c 5c 68 3e bc d6 0d b4 3c ff f8 63 bb
       0.009152956 -0.011621561 0.021979254 -0.0034785864
000180 13 b9 9a 3b c8 50 fe 3b 28 b3 26 bc ad 94 e0 3b
       0.0047217696 0.0077610947 -0.01017455 0.006853661
000190 9f 77 1d bc 11 de 00 3b 1f 73 b3 38 4f 20 fa 3b
       -0.009611039 0.0019663612 8.556828e-05 0.007633246
0001a0 54 e1 29 bb 5c a3 99 39 21 22 87 ba a9 4c 1b 3b
       -0.002592166 0.00029304146 -0.0010309854 0.0023696816
0001b0 b2 eb dc bb 1f bb 16 3a fa 6d d3 bb 51 be 2b bc
       -0.0067419643 0.0005749929 -0.006452319 -0.010482387
0001c0 43 82 39 bc d3 4e f1 3b e2 44 d7 3b a7 cc 80 bc
       -0.011322561 0.007364133 0.006569491 -0.015722586
0001d0 1a 9a 14 3a 0f 69 d3 bb 6d f4 39 bc c0 aa 69 3b
       0.0005668715 -0.006451733 -0.01134978 0.0035654753
0001e0 77 29 82 bb 37 21 01 bc 95 7b a2 3c 9a 09 71 ba
       -0.003972228 -0.007881454 0.01983432 -0.0009194851
0001f0 27 12 0a bc 58 8a de bb bf 72 68 3b 01 da 99 3b
       -0.008427179 -0.006791394 0.0035468785 0.0046951775

exp_avg f4 [128, 12]
000000 27 82 8e b8 32 79 bb b8 a0 fc 30 37 3e f7 f8 37
       -6.7953304e-05 -8.939429e-05 1.0549236e-05 2.9679035e-05
000010 55 42 2a 36 fa 54 ef 37 60 5c 1f 38 34 f7 43 b6
       2.5370584e-06 2.853059e-05 3.7994585e-05 -2.9201155e-06
000020 00 00 00 00 eb f8 c5 37 cb c1 bb 38 38 71 fb 38
       0.0 2.3600142e-05 8.9529516e-05 0.00011989701
000030 dc 10 8d 36 18 f1 af 36 82 b5 30 b5 04 18 0a b6
       4.20409e-06 5.2434734e-06 -6.582924e-07 -2.0577581e-06
000040 5e 40 ea 37 be 30 04 b6 66 1b 46 b6 af 18 ee 37
       2.7924947e-05 -1.9697904e-06 -2.9520247e-06 2.8383305e-05
000050 00 00 00 00 76 d5 12 b6 a4 70 f7 37 ca 4c 4d 37
       0.0 -2.1879946e-06 2.9497147e-05 1.2236831e-05
000060 2a 38 13 b6 e6 3a 49 b6 de 4e cb 34 ca c3 a7 35
       -2.1937399e-06 -2.9985617e-06 3.786908e-07 1.2499452e-06
000070 9c 88 98 b6 2a 60 a3 35 74 2d be 35 86 a6 a0 b6
       -4.5458564e-06 1.2172434e-06 1.4169332e-06 -4.7877575e-06
000080 00 00 00 00 8a 1a 68 35 00 00 44 33 ce f5 48 37
       0.0 8.6465354e-07 4.5634806e-08 1.197816e-05
000090 0d 22 40 b7 5e 74 33 b7 62 f6 a5 34 ec 89 a3 35
       -1.145202e-05 -1.0696325e-05 3.0912912e-07 1.2184587e-06
0000a0 1f 2e 8a 38 3a 52 a1 35 e8 0e e8 b4 5d 0b 8a 38
       6.5889435e-05 1.2019366e-06 -4.3224213e-07 6.582469e-05
0000b0 00 00 00 00 e4 7f 9f b5 b9 7f a8 38 6d 3b 36 38
       0.0 -1.1883644e-06 8.0346545e-05 4.3447526e-05
0000c0 21 97 59 b7 dc 91 ac b7 5e 2b 52 36 bf 20 10 37
       -1.2969395e-05 -2.0571919e-05 3.1317682e-06 8.590693e-06
0000d0 f1 bf 64 b8 60 c6 0b 37 69 ba 3a 37 66 01 6c b8
       -5.4538195e-05 8.331233e-06 1.1129866e-05 -5.6268087e-05
0000e0 00 00 00 00 c1 90 ee 36 f0 50 36 b8 51 f8 98 37
       0.0 7.1098043e-06 -4.346756e-05 1.8235443e-05
0000f0 18 31 d5 b6 4c fe 0e b7 90 5a 81 35 81 00 45 36
       -6.35361e-06 -8.523068e-06 9.637606e-07 2.935558e-06
000100 b2 0f fe 36 30 f8 3e 36 aa a8 6b 36 42 6c ec 36
       7.571617e-06 2.845667e-06 3.5115904e-06 7.045951e-06
000110 00 00 00 00 a0 8a c3 35 84 39 04 b7 76 4d 0c b7
       0.0 1.4568977e-06 -7.8812045e-06 -8.362686e-06
000120 d7 db 0e b8 bc aa 61 b8 c3 4c 08 37 9e f4 bb 37
       -3.406018e-05 -5.380319e-05 8.124104e-06 2.2406046e-05
000130 07 a9 e9 b8 60 38 b5 37 26 2f f8 37 a0 dd f2 b8
       -0.000111417896 2.1603133e-05 2.9585859e-05 -0.0001158074
000140 00 00 00 00 8e 2c 9d 37 72 cd ad b8 f0 b5 bf 34
       0.0 1.8736606e-05 -8.28755e-05 3.57089e-07
000150 80 1d 23 37 af 7b 6e 37 12 d3 e7 b5 4e 2b a5 b6
       9.722426e-06 1.4214703e-05 -1.7272271e-06 -4.9224245e-06
000160 ba 70 10 b8 e6 89 a0 b6 b3 1b f3 b6 c3 1f 0d b8
       -3.443726e-05 -4.784425e-06 -7.245189e-06 -3.36466e-05
000170 00 00 00 00 ba 36 95 b6 d2 23 85 b6 2d cd 8c 37
       0.0 -4.446917e-06 -3.967879e-06 1.6784843e-05
000180 4b 5e 8f 38 f2 d0 c4 38 08 ec 47 b7 80 78 0b b8
       6.836335e-05 9.3849274e-05 -1.191628e-05 -3.3252407e-05
000190 20 ce 74 38 ba 4b 06 b8 5e 58 31 b8 f9 9a 87 38
       5.8366102e-05 -3.2018615e-05 -4.2282387e-05 6.4661675e-05
0001a0 00 00 00 00 7e 66 e6 b7 e6 40 b1 37 41 99 cd b6
       0.0 -2.7465863e-05 2.1130265e-05 -6.127317e-06
0001b0 21 cf 82 b7 51 8d bd b7 51 3d 5a 36 6c 5a 0d 37
       -1.559366e-05 -2.2596361e-05 3.2520222e-06 8.425308e-06
0001c0 ea 46 1b b8 9f db 08 37 90 ec 65 37 c1 37 22 b8
       -3.7020924e-05 8.157366e-06 1.3704543e-05 -3.8675735e-05
0001d0 00 00 00 00 d2 ae 23 37 d6 fd 0e b7 6e 69 a1 37
       0.0 9.756261e-06 -8.52296e-06 1.924179e-05
0001e0 d6 61 33 b8 08 6b 82 b8 3e 90 0e 37 7c 3b c5 37
       -4.2768042e-05 -6.218819e-05 8.497444e-06 2.351193e-05
0001f0 4b 64 77 b8 65 91 be 37 17 29 fb 37 52 20 85 b8
       -5.8982794e-05 2.271747e-05 2.9940666e-05 -6.347954e-05
000200 00 00 00 00 47 53 a3 37 2d 2f 90 b8 08 d9 8d b7
       0.0 1.9469893e-05 -6.875242e-05 -1.6909573e-05
000210 a4 fc 5e b7 4a 87 84 b7 da ce ce 35 bf 48 84 36
       -1.3291054e-05 -1.5798625e-05 1.5408398e-06 3.9423753e-06
000220 91 78 10 38 66 1c 82 36 15 30 e1 36 b1 c3 0d 38
       3.444456e-05 3.877608e-06 6.71112e-06 3.379927e-05
000230 00 00 00 00 bd 42 92 36 d5 04 76 38 3a 65 36 38
       0.0 4.3589084e-06 5.865547e-05 4.3486456e-05
000240 4e 63 9c 37 86 09 df 37 e6 9a 75 b6 ae 83 28 b7
       1.8642892e-05 2.6588106e-05 -3.6598008e-06 -1.0044239e-05
000250 bc aa 24 38 47 5a 22 b7 2c dc 59 b7 e6 0f 2d 38
       3.9259656e-05 -9.676972e-06 -1.2985471e-05 4.126122e-05
000260 00 00 00 00 1a 7f 10 b7 29 31 2d 38 1e 14 cb 37
       0.0 -8.612662e-06 4.1292198e-05 2.4208854e-05
000270 90 87 1e b7 06 41 59 b7 7e 62 c0 35 7f 8e 8d 36
       -9.449097e-06 -1.2949347e-05 1.433378e-06 4.218716e-06
000280 01 3b 31 38 2c 00 85 36 76 81 d0 36 b3 9e 2e 38
       4.225504e-05 3.963729e-06 6.2139543e-06 4.1632633e-05
000290 00 00 00 00 aa 63 72 36 a3 ba 69 38 7d a2 2a 38
       0.0 3.6118822e-06 5.5725348e-05 4.0682487e-05
0002a0 c0 74 27 36 20 f6 6a 36 3c 58 54 b5 a8 86 fb b5
       2.4952897e-06 3.501198e-06 -7.910455e-07 -1.8740147e-06
0002b0 42 c0 b3 38 58 71 f9 b5 50 46 0b b5 e6 1e b5 38
       8.571196e-05 -1.8584933e-06 -5.1883853e-07 8.636508e-05
0002c0 00 00 00 00 40 69 f0 b4 c1 4b ac 38 e6 72 44 38
       0.0 -4.4780063e-07 8.2157094e-05 4.683705e-05
0002d0 c5 21 d2 37 ce e5 0a 38 43 7b 89 b6 53 10 3c b7
       2.5049676e-05 3.3115786e-05 -4.0972677e-06 -1.1209474e-05
0002e0 48 72 1d 38 fe 2e 36 b7 e8 a3 79 b7 17 8b 26 38
       3.753815e-05 -1.0858987e-05 -1.4879719e-05 3.970702e-05
0002f0 00 00 00 00 66 2f 25 b7 49 8d 28 38 20 8a 36 38
       0.0 -9.845802e-06 4.0185903e-05 4.352082e-05
000300 bc 8a ea b7 4e cf 2a b8 da 0f bb 36 af aa 81 37
       -2.7959577e-05 -4.0724226e-05 5.5748797e-06 1.545748e-05
000310 da d4 21 b8 c7 52 7a 37 56 ab a4 37 82 38 2e b8
       -3.8583625e-05 1.4920434e-05 1.9630108e-05 -4.153746e-05
000320 00 00 00 00 dc 37 56 37 f7 e0 90 b8 16 44 3c b8
       0.0 1.27684e-05 -6.908358e-05 -4.4886103e-05
000330 95 e4 e1 b8 3e 58 14 b9 4e a1 8c 37 96 ab 44 38
       -0.00010771413 -0.00014147253 1.6764414e-05 4.6889843e-05
000340 c9 eb a5 37 28 ea 3c 38 72 16 8d 38 1c 9a 3b 37
       1.9779329e-05 4.5040768e-05 6.727585e-05 1.118195e-05
000350 00 00 00 00 dd b8 3c 38 44 af ec 38 30 7c 2e 39
       0.0 4.499486e-05 0.00011286003 0.00016640197
000360 5a 60 f3 37 64 39 14 38 9e 3d 77 b6 58 0a 30 b7
       2.9012725e-05 3.53394e-05 -3.6841734e-06 -1.0492826e-05
000370 ac 25 1d b7 29 1e 29 b7 4f 59 66 b7 38 85 f9 b6
       -9.3667e-06 -1.0080207e-05 -1.3729862e-05 -7.436287e-06
000380 00 00 00 00 14 e8 18 b7 f8 f9 a9 35 71 af ce 37
       0.0 -9.113941e-06 1.2664232e-06 2.463881e-05
000390 7f 55 d4 38 08 9b 11 39 a4 87 92 b7 44 c1 4e b8
       0.00010124873 0.00013886031 -1.7467719e-05 -4.929422e-05
0003a0 d0 fc b5 38 a6 a7 46 b8 f9 3f 84 b8 a4 6b c9 38
       8.6778426e-05 -4.7363013e-05 -6.306166e-05 9.6044765e-05
0003b0 00 00 00 00 a1 15 2d b8 8d f1 3b 38 75 76 70 b8
       0.0 -4.1266558e-05 4.4809236e-05 -5.733078e-05
0003c0 f0 41 22 38 16 14 51 38 29 2d bc b6 9c 65 83 b7
       3.868522e-05 4.984819e-05 -5.608094e-06 -1.5663732e-05
0003d0 8c 0b 5c b8 b6 6d 7e b7 5a db bd b7 40 66 50 b8
       -5.246284e-05 -1.5165124e-05 -2.26327e-05 -4.9686292e-05
0003e0 00 00 00 00 a6 4d 77 b7 da 38 7a b8 ce 36 11 b8
       0.0 -1.4740426e-05 -5.9657592e-05 -3.4621735e-05
0003f0 22 5a 9a b8 02 6b c4 b8 fe 53 2e 37 06 d6 f5 37
       -7.360081e-05 -9.36594e-05 1.0390764e-05 2.9305938e-05

exp_avg_sq f4 [128, 12]
000000 fc f7 bc 33 f5 c3 5b 33 01 d7 48 2e f8 48 67 34
       8.79954e-08 5.1168133e-08 4.5665697e-11 2.1540097e-07
000010 b0 84 a5 32 23 d2 40 30 3b db 84 30 d5 c5 e1 32
       1.9268867e-08 7.0147815e-10 9.666573e-10 2.6283411e-08
000020 00 00 00 00 aa f6 b6 30 61 91 9a 32 10 f7 73 32
       0.0 1.3312349e-09 1.799407e-08 1.4200637e-08
000030 ed b8 1a 32 bf f2 21 32 95 17 8e 2d d5 19 de 30
       9.006027e-09 9.4266275e-09 1.6154003e-11 1.6159968e-09
000040 80 ae 1f 32 7f 10 12 31 90 3f 2d 33 14 ba e4 31
       9.294695e-09 2.1255173e-09 4.033751e-08 6.656828e-09
000050 00 00 00 00 0b 51 88 33 04 2f 18 32 ff d0 8a 31
       0.0 6.347735e-08 8.858255e-09 4.0400887e-09
000060 9c 20 83 31 05 82 80 31 fc 86 41 2d be c4 34 30
       3.816309e-09 3.740072e-09 1.1000752e-11 6.5763206e-10
000070 2a 0d 9e 31 1c db 3f 2f 98 6d 12 30 21 2e 90 31
       4.599902e-09 1.7449192e-10 5.327023e-10 4.196196e-09
000080 00 00 00 00 19 e3 07 30 6f 8f ba 31 3d 2e 71 31
       0.0 4.943544e-10 5.429619e-09 3.50964e-09
000090 62 ee ca 31 d1 d0 e6 31 48 c3 44 2d 98 d7 6d 33
       5.9060747e-09 6.7176207e-09 1.1184671e-11 5.5376944e-08
0000a0 3b 6a 1a 32 ac 8f 52 31 5b 6b 2b 33 d8 78 01 32
       8.988134e-09 3.064069e-09 3.991168e-08 7.536265e-09
0000b0 00 00 00 00 4b 9e 3b 33 ce 47 f9 31 3a 92 2a 31
       0.0 4.3683297e-08 7.255017e-09 2.4821376e-09
0000c0 8e a7 d1 30 70 94 83 31 b8 3b 80 2c 9c 56 0a 33
       1.5254373e-09 3.829477e-09 3.644609e-12 3.22094e-08
0000d0 d3 1f 8d 31 d5 03 df 2f e5 ea 3b 30 fa ee 0c 33
       4.107258e-09 4.0566187e-10 6.836401e-10 3.2813638e-08
0000e0 00 00 00 00 8d 7a aa 2f d5 87 f2 31 f9 6b d8 30
       0.0 3.1009897e-10 7.0585693e-09 1.5746756e-09
0000f0 27 44 91 31 f6 69 b9 31 8c a6 2a 2d f3 aa 73 32
       4.2278034e-09 5.396255e-09 9.700362e-12 1.4183331e-08
000100 b6 c4 89 31 88 84 3d 30 68 b7 33 33 12 6c 17 32
       4.009588e-09 6.894614e-10 4.1843492e-08 8.813929e-09
000110 00 00 00 00 1a 32 7f 33 bd 1f b5 31 46 d9 1f 31
       0.0 5.941738e-08 5.2714015e-09 2.326105e-09
000120 cf c7 5b 33 5f e4 08 33 f0 0f 06 2e c3 b3 19 34
       5.1171636e-08 3.187267e-08 3.0482228e-11 1.4314632e-07
000130 a6 d9 6e 32 f5 6e 46 30 78 22 84 32 31 7b 2a 33
       1.3902911e-08 7.218966e-10 1.5382497e-08 3.969325e-08
000140 00 00 00 00 ff d6 c4 32 a7 1d 45 32 ed f9 44 32
       0.0 2.2915172e-08 1.1473651e-08 1.1465528e-08
000150 bd 52 bf 32 b8 6b 6e 32 00 ff 73 2d 16 f1 3e 33
       2.2272951e-08 1.3877916e-08 1.3869572e-11 4.445709e-08
000160 5a 0c 0c 32 6b ca 7f 2f f0 be 05 32 8d ee dc 31
       8.151881e-09 2.3264028e-10 7.785033e-09 6.429963e-09
000170 00 00 00 00 cf da 5c 32 21 81 bb 31 83 0a c5 31
       0.0 1.2855437e-08 5.4570966e-09 5.7346496e-09
000180 5c 6b 31 33 f5 73 de 32 92 b1 18 2e 81 16 bb 33
       4.1308667e-08 2.5896933e-08 3.4718513e-11 8.7119595e-08
000190 17 6b 37 32 dc 84 61 30 e5 a2 3c 31 ed 0f 62 33
       1.0676351e-08 8.204333e-10 2.7450195e-09 5.263421e-08
0001a0 00 00 00 00 5e 61 36 31 8e 50 5d 32 11 74 42 32
       0.0 2.6539833e-09 1.2882209e-08 1.1318677e-08
0001b0 6c d2 15 30 d4 77 98 30 ac 0d 9a 2c 50 c0 9c 31
       5.450491e-10 1.1093513e-09 4.378461e-12 4.562061e-09
0001c0 83 26 5e 31 05 51 05 31 70 2a 0c 32 b6 dc e3 30
       3.2327143e-09 1.9400102e-09 8.158722e-09 1.6579154e-09
0001d0 00 00 00 00 5a 9e d6 31 f4 9a 0a 31 86 4b 4e 30
       0.0 6.246222e-09 2.0169724e-09 7.504969e-10
0001e0 31 16 a4 31 7c b5 90 31 ff 53 46 2d 4e 57 8f 32
       4.775551e-09 4.211584e-09 1.1273648e-11 1.6687093e-08
0001f0 70 15 02 32 31 1e a0 31 9b db ae 31 10 0e ac 31
       7.57187e-09 4.6600452e-09 5.0890328e-09 5.0074576e-09
000200 00 00 00 00 79 dc 0a 30 df 85 50 31 62 e8 90 31
       0.0 5.051742e-10 3.034408e-09 4.2173705e-09
000210 36 03 ae 31 b3 83 8d 31 53 52 49 2d 7d 81 27 32
       5.0644315e-09 4.1186126e-09 1.1443807e-11 9.750122e-09
000220 38 4e a3 31 eb 76 a2 2f b1 ef 1e 31 c9 de d8 31
       4.752817e-09 2.9552125e-10 2.3128275e-09 6.311755e-09
000230 00 00 00 00 7e 6c 1a 31 2c c8 f0 31 e9 82 53 31
       0.0 2.247162e-09 7.007676e-09 3.0778955e-09
000240 af ad b9 33 cb 94 57 33 cf a7 18 2e 90 98 95 34
       8.646327e-08 5.0193915e-08 3.4709843e-11 2.7864417e-07
000250 50 43 cd 32 3a ce 61 31 4d ad cd 31 6e 99 c6 32
       2.3895751e-08 3.2859035e-09 5.9859873e-09 2.3120005e-08
000260 00 00 00 00 43 91 65 31 84 78 44 32 e3 c0 57 32
       0.0 3.3406458e-09 1.1436104e-08 1.25585045e-08
000270 29 f1 c7 32 b7 58 7e 32 95 75 aa 2d 5b 33 0c 33
       2.3276316e-08 1.4804917e-08 1.937898e-11 3.2642998e-08
000280 61 61 19 32 f0 c6 97 2f c3 74 87 32 a5 b3 5e 32
       8.9279135e-09 2.7608094e-10 1.5769166e-08 1.2962947e-08
000290 00 00 00 00 ab 44 aa 32 42 c6 12 32 2d c6 01 32
       0.0 1.9821831e-08 8.543397e-09 7.553848e-09
0002a0 b4 2b 2c 34 c9 dd d0 33 bc 40 c0 2e 10 5e f7 34
       1.6034647e-07 9.726097e-08 8.742648e-11 4.6075775e-07
0002b0 d4 82 43 33 31 b2 d6 30 0a 22 d4 32 ae 84 a8 33
       4.5520963e-08 1.5621194e-09 2.4695527e-08 7.847244e-08
0002c0 00 00 00 00 b4 08 21 33 1f 44 0b 33 10 50 25 33
       0.0 3.749365e-08 3.2425415e-08 3.8489873e-08
0002d0 6e 3d 00 31 d8 57 0c 31 e0 89 18 2d eb e3 e9 30
       1.866137e-09 2.0422615e-09 8.670814e-12 1.7017759e-09
0002e0 53 9c b8 31 c3 77 72 31 1c 96 8d 31 2f 4b 0e 31
       5.372877e-09 3.5283712e-09 4.1207056e-09 2.0706457e-09
0002f0 00 00 00 00 73 08 47 30 90 c9 11 31 60 72 80 31
       0.0 7.2407785e-10 2.1214852e-09 3.7382932e-09
000300 52 e5 ea 31 3e f1 f4 31 36 67 2d 2d c0 a0 38 33
       6.836367e-09 7.1287607e-09 9.856829e-12 4.298704e-08
000310 0f 36 e6 31 82 bd f5 2f 30 ae 89 30 ee 6f b1 32
       6.7000268e-09 4.4699894e-10 1.0017569e-09 2.0656412e-08
000320 00 00 00 00 61 1f 60 30 b6 98 e5 31 14 ef bb 31
       0.0 8.153532e-10 6.6821384e-09 5.4695963e-09
000330 f4 c6 3c 34 97 3f f9 33 7c 52 1f 2f b2 e2 c3 34
       1.7581243e-07 1.1606533e-07 1.449027e-10 3.6486523e-07
000340 c4 f8 4e 33 96 e2 23 31 26 31 ac 34 ba 81 76 33
       4.8189364e-08 2.384842e-09 3.2073257e-07 5.7394324e-08
000350 00 00 00 00 87 13 f4 34 e7 38 84 33 d3 80 06 33
       0.0 4.546275e-07 6.1570795e-08 3.131647e-08
000360 e2 67 42 32 95 d3 00 32 90 74 79 2d e4 95 c8 32
       1.1315906e-08 7.498689e-09 1.4179893e-11 2.3351227e-08
000370 30 70 95 31 5b a9 3a 2f f3 6a 18 30 d5 7d 95 31
       4.349225e-09 1.6976769e-10 5.544926e-10 4.350776e-09
000380 00 00 00 00 5a 69 0f 30 49 a1 79 31 3e 87 da 31
       0.0 5.217281e-10 3.632595e-09 6.3600103e-09
000390 79 ec 38 34 84 02 d4 33 d7 3d cc 2e 51 47 eb 34
       1.7222364e-07 9.872477e-08 9.287831e-11 4.382405e-07
0003a0 a9 ad 16 33 35 bd 08 31 40 41 27 31 89 58 77 33
       3.508254e-08 1.9898156e-09 2.4338789e-09 5.758969e-08
0003b0 00 00 00 00 16 e8 fa 2f f7 ed d7 32 0d 9f de 32
       0.0 4.5639642e-10 2.5137508e-08 2.591653e-08
0003c0 b5 8e 97 31 1b a3 a7 31 4b a7 67 2d 3f ed b6 2f
       4.4109023e-09 4.8788826e-09 1.3167976e-11 3.327418e-10
0003d0 ee 57 c4 31 70 9e 85 30 24 a6 dd 32 02 0a 9c 31
       5.714347e-09 9.722054e-10 2.5803338e-08 4.5413353e-09
0003e0 00 00 00 00 28 45 1a 33 98 fc f9 31 57 ae 83 31
       0.0 3.5918816e-08 7.2755704e-09 3.832422e-09
0003f0 a8 bd ad 33 05 ba 6b 33 fe 41 86 2e c4 eb 17 34
       8.0904385e-08 5.4884385e-08 6.105337e-11 1.4148742e-07
