results/SlayRL_016/SlayTheSquire_RL/SlayTheSquire_RL-27022.onnx (onnx, 82288 bytes, 10 tensors)

network_body.observation_encoder.processors.0.normalizer.running_mean f4 [12]
00000000: fb52 783f 8716 76be 217c e83a c1c7 7e3f
00000010: 098c 1ebd 432b c7bc 9413 43bd 6e3e 9ebc
00000020: 0000 0000 1c96 b5bd 36a3 1dbd c26a 55bb
0.9700162 -0.24032031 0.0017737189 0.9952355 -0.038707767 -0.024312621 -0.047626093 -0.019316878
0.0 -0.08866522 -0.03848573 -0.0032564853

network_body._body_endoder.seq_layers.0.weight f4 [128, 12]
00000000: 6d73 2cbf 12e4 a63e bcf9 8b3e ec65 5cbe
00000010: 30ee 3bbe 4f8e 54be b4ec ff3e 99ce c2be
00000020: a89a 63be 6efd ebbd 9071 0a3e 4a13 283e
00000030: 4b54 05bf 891b af3d b7e7 07bf 8c91 27be
00000040: b226 3e3e eb02 803e 34ee 0dbd 92c5 593f
00000050: e447 a4bd 9cd9 e8bd fcab 093f 1db7 5cbe
00000060: 118f 063d 13a2 483e 9326 95be 5b4e 2f3c
00000070: 1bf9 15bf c9cb fc3e d990 cb3d f8e4 0a3e
00000080: 0f80 d0be ab8a 8e3e 83c8 cdbe 03c8 0a3f
00000090: 1dd0 b1be 289f da3d 604c 55be 188a 003e
000000a0: 20a0 16bf 9e59 d43d 9050 e93e 2c12 f1be
000000b0: f655 22bc a542 bfbc 983c 0cbe ae66 d5be
000000c0: 664b b43e 71df 843d 0665 673e 184f 973d
000000d0: e1de d4bd 7fc5 d93e 163a 0e3f d13c 93bd
000000e0: 39fb 693e 6305 783b b7fc 183e 6edb 133d
000000f0: a511 5e3b 4172 be3e 0856 563e a4af e43d
00000100: f77c 6cbe 994d a33d 8297 1e3e dbba b03e
00000110: 680e 45be 10bc 123e 2947 223f 394a 3d3e
00000120: 93e4 3e3e 58b6 17be d22d 6abe 6dfa 8bbe
00000130: 2a01 cb3e 19bd aebd f079 5a3d fc24 04bf
00000140: 20f3 153f 12ea bc3e 0d0d 933e e6f3 873e
00000150: 1900 01bf cf87 633d 1097 e8be db6b 29bf
00000160: affc aa3e e1d6 5bbe c800 66be 4e8b a53e
00000170: 2c8f 4ebd d47e b2be 39c2 aebd f79c b0be
00000180: 9b6a adbe 19eb 0fbe f7b9 ea3d f91b 9d3d
00000190: 580a 183c 3150 3e3e 5dcb 383d 4d16 50be
000001a0: c434 a23d 973f c9be ec99 173e 2ad6 a3bd
000001b0: 6d0e 83be ffd0 553e b3e7 61bd 2df5 da3d
000001c0: e59f cebe 7762 febd 8c7b bcbe a079 b93e
000001d0: 70b9 d93d 8070 093d a4e6 23bd a465 c3be
000001e0: 6220 723e 9296 b73c 4516 b83e 58d9 b2be
000001f0: 53c7 64be 23a2 823e 45af 173e 37b8 2bbe
00000200: 9614 2b3d 10c2 9a3e 3592 f6be 1cfa 1c3f
00000210: 2559 11bf f18b aebe e45c 2e3e 4976 c2bc
00000220: e4af 94be 6002 113f 5e29 3bbd c842 fb3c
00000230: 24b2 303e f399 dfbd c2bd 21bf 1d1a d7be
00000240: 693e f5bd 1802 b6bc a9b2 0bbd 2e39 07bf
00000250: 1fc5 e6be 35b0 abbe f2d7 e1bd d740 f63c
00000260: a6d1 9cbb ee5e a9bd 39e5 a73c 6872 053e
00000270: 9405 6b3e 90f1 53be 6414 72bd 28bc 41bb
00000280: 4e5f 8a3d 0c7c 94bc 89cf 5cbe 371a 87be
00000290: d75c ee3e f43d dcbe a19c 2fbd ffac 85bd
000002a0: c08f a3bd cbc6 fa3d 59be 1f3f e8b2 093f
000002b0: 7093 0fbd f523 973e 8546 26be 2a88 4dbe
000002c0: b32e 9a3e 3dcf 0f3c c87b cabc 21c1 38bf
000002d0: 33ce 52bd 24e2 07be dc26 42be bc3a 3d3c
000002e0: 81b5 1fbf d5c0 333e cee1 a93d c463 283e
000002f0: 33ae ebbd a33f c13e 43d4 133f 2692 f83e
00000300: 0ed9 d73e a811 00bd afd8 89bd 914b 08bf
00000310: 4445 ad3e ffdd bcbd d381 873d b3c2 983d
00000320: 0cbd 8dbd 9dc4 93be cacd 0d3d 66c8 4fbe
00000330: 8332 9ebe a8ef 95be e29a 513b 2c07 443e
00000340: 757a 8bbe 3b61 d1be 0cdc 80be 19fe c73d
00000350: f3fb eabd 39c0 b7be 489a 0b3e f9d5 e5bd
00000360: f4e8 d73d 6891 9abe ce0e 333e 66b5 89be
00000370: 45dc bb3d 5ae2 fe3c 2586 953e 0a6a 3dbe
00000380: 5d37 9a3e 6cbb 963c ca5c 6ebe b306 683e
00000390: 72c3 f23e ee61 833e bedd 533e 8a94 e0bd
000003a0: a655 1d3e 3ea1 89bd be7c 42bf a800 a63d
000003b0: a8e5 0cbf 2241 0abf 07a5 d3bd 7d26 d8be
000003c0: 905c 793e 9d98 81be 8dfe 24be ff33 b8bd
000003d0: 0bc2 633e 7372 ec3d 22e9 d8be cc91 babd
000003e0: 0aa1 193c f8af 923d 945e 57be 8f90 963d
000003f0: 893b 47bb fd76 d23e 2609 b43e 89e3 93bd
-0.67363626 0.3259588 0.2733897 -0.21523255 -0.1835258 -0.20757411 0.49985278 -0.38048247
-0.22226965 -0.11522947 0.13519883 0.16413608 -0.52081746 0.08550174 -0.53087944 -0.16364115
0.18569449 0.25002226 -0.034650996 0.85067093 -0.080215245 -0.11369631 0.5377805 -0.21554227
0.032851283 0.19593076 -0.29130992 0.010699834 -0.5858323 0.49374226 0.09939737 0.13563907
-0.407227 0.2784017 -0.4019204 0.54211444 -0.3472909 0.10674888 -0.20829916 0.12552679
-0.5883808 0.103686556 0.45569277 -0.47084177 -0.00990819 -0.023347208 -0.1369499 -0.416799
0.35213774 0.064879306 0.22597131 0.07388133 -0.10394073 0.4253349 0.5555738 -0.07189334
0.2284974 0.0037845008 0.14940153 0.036097936 0.0033885029 0.37196544 0.20931256 0.11166313
-0.23094545 0.07973785 0.15487483 0.3451756 -0.19243777 0.14329553 0.6338983 0.18485345
0.18641882 -0.14815652 -0.22869042 -0.27339497 0.39649326 -0.08532161 0.053338945 -0.51618934
0.58574104 0.3689733 0.28720894 0.26553267 -0.50390774 0.05554944 -0.45427752 -0.661802
0.33395907 -0.21468689 -0.22461236 0.32332844 -0.050429508 -0.34862387 -0.08533139 -0.34494755
-0.33870396 -0.14054526 0.11461251 0.07671351 0.00927981 0.18585278 0.045115817 -0.20321007
0.079202205 -0.39306328 0.1480481 -0.07999833 -0.25596943 0.20880507 -0.055152606 0.10691295
-0.40356365 -0.124211244 -0.3681301 0.36225605 0.106310725 0.033554554 -0.040014878 -0.38163483
0.23645166 0.022410665 0.3595449 -0.34931445 -0.22341661 0.25514325 0.14812954 -0.16769491
0.04176768 0.30226183 -0.48158422 0.61319137 -0.5677665 -0.34091142 0.17027622 -0.023738043
-0.29040444 0.5664425 -0.045693748 0.030671492 0.17255455 -0.10918035 -0.6318017 -0.4201211
-0.119747944 -0.022217795 -0.03410593 -0.52821624 -0.45072266 -0.33532873 -0.110275164 0.030060215
-0.004785734 -0.082700595 0.020495044 0.13031924 0.22951347 -0.20697618 -0.059101477 -0.0029561613
0.06756459 -0.018125556 -0.21563543 -0.26387188 0.46555206 -0.43016016 -0.042873982 -0.06527137
-0.079864025 0.12244948 0.6239982 0.53788614 -0.035052717 0.2951962 -0.16237839 -0.20071474
0.30113754 0.008777437 -0.024717227 -0.7216969 -0.05146618 -0.1326986 -0.18960136 0.011549648
-0.6238633 0.17554028 0.08295022 0.16444308 -0.11507835 0.37743863 0.5774576 0.48549002
0.42157787 -0.03126684 -0.06730782 -0.53240305 0.33841908 -0.0922203 0.06616559 0.07459011
-0.069208235 -0.28860942 0.034620084 -0.2029129 -0.30897912 -0.29284406 0.0031983186 0.19143361
-0.27241865 -0.40894493 -0.25167882 0.09765262 -0.11473837 -0.35888842 0.13633072 -0.11222453
0.10542479 -0.3018906 0.17486116 -0.2689621 0.091728725 0.031113792 0.29203907 -0.18497482
0.30120364 0.018399917 -0.23277584 0.22658806 0.47414738 0.25660652 0.20690057 -0.109658316
0.15364704 -0.06720208 -0.7597159 0.08105594 -0.5503793 -0.54005635 -0.10334211 -0.42216864
0.24351716 -0.25311747 -0.16112728 -0.089942925 0.2224199 0.11545267 -0.42365366 -0.0910984
0.009376774 0.071624696 -0.21032172 0.07351791 -0.0030400476 0.41106406 0.3516323 -0.07221133

network_body._body_endoder.seq_layers.0.bias f4 [128]
00000000: 1e0b 6138 9846 b138 9979 393b e1f0 053b
00000010: 4911 5d3c 35a3 8ebc c173 093c 9cf3 f5bb
00000020: 4ab3 71bc 2128 733a 0522 45bc 7b70 873c
00000030: d51b 2ebc 80ea 52bc c2a8 4338 37fe 47bc
00000040: 1340 29bb 51ff 3c3c ac7c 9dbb 6128 efbb
00000050: fcbc 37bc 5312 1bbb 07c3 b7ba 229d 833c
00000060: 3a14 3f3c cbdd 6ab8 ae22 123c 40e0 1239
00000070: 1e5f 413b ada4 cb3b e418 a238 de86 77ba
00000080: b49b 083b 436a 5e3b d874 3f3c 667e 80bc
00000090: 4338 493c de6f 68bb ecaa 793a b91d 6fbc
000000a0: 6a0d 093b 898c 863a b1b5 64bc 0f4f 563c
000000b0: 4abb 54bb 3fa4 41bc 1ead bdbb 7d84 893c
000000c0: 136c a93b 063a 773b d247 033b a9a0 1f3c
000000d0: d700 0fbc 8e20 503c 96b3 36b9 7e79 073c
000000e0: 7622 ff3b 2168 72bc 320b 86ba 2b34 1dbb
000000f0: e927 97bb 618d ae3c fba0 a5bb 9a52 463c
00000100: e2f1 2b3a c47c 863c 8ba0 103c b1bd 94bc
00000110: 9234 4d3a acfa 9f3b c33f 273c fbe2 093b
00000120: 03c1 a43b 6dba dfbb 5f9c ed3c 6b30 bb3c
00000130: 3bfe 21bb 9777 49ba 2c06 083c 9e96 43bc
00000140: 7ec9 43bb f4ea 1c3c 2105 053c 452e 8d3c
00000150: 6067 de3b 5eef 0cbc e286 1cbc d25d 11bc
00000160: fd1e ddbb 5eaa de3c dce7 a83c cdb9 273b
00000170: 10cf 013c d82d 6b3c ea5e ae3c 6c7e 103b
00000180: c529 73bc caca e0bb 29ab 40bc f993 0fbc
00000190: 36b3 af3c 727a 16bc fea5 b2bb e077 c23c
000001a0: 0e10 94bc 5f8a e33b f115 3abc ed27 7c3c
000001b0: e3e8 0bbc 8c7b 04bc 6fe8 be3b 075f b83a
000001c0: 28af 553b 57f5 413b 661b 003c b7e6 aabc
000001d0: a74e b93b ab07 c63c e932 143b 512c 3c3b
000001e0: afab ba3b ec11 adbc c563 f0bb e691 fcbb
000001f0: 2a7e a5bc fce9 25bb 4526 ec3b 7919 83bc
5.3654534e-05 8.453167e-05 0.0028301238 0.0020437764 0.013492891 -0.017411808 0.008389414 -0.007505847
-0.0147522185 0.0009275694 -0.012032037 0.016533127 -0.010626753 -0.012873292 4.664879e-05 -0.012206606
-0.0025825545 0.011535482 -0.004806122 -0.0072985147 -0.011214491 -0.0023662045 -0.0014019915 0.016066138
0.011662537 -5.599651e-05 0.008919401 0.00014007185 0.0029506157 0.0062146992 7.729398e-05 -0.0009442399
0.002084476 0.0033937849 0.011685573 -0.015685271 0.01228148 -0.0035467069 0.00095240655 -0.014594489
0.0020912536 0.0010265271 -0.013959334 0.0130803725 -0.0032460266 -0.0118189445 -0.0057884594 0.016786808
0.005170354 0.0037723794 0.0020031822 0.009742894 -0.008728228 0.012703074 -0.00017423774 0.008268712
0.0077860905 -0.014795334 -0.0010226725 -0.0023987393 -0.004612912 0.02130765 -0.0050545908 0.012104655
0.00065591757 0.016416915 0.008827339 -0.018156858 0.0007827963 0.0048821773 0.010208073 0.0021039832
0.0050278916 -0.0068276436 0.029005228 0.022850236 -0.0024718184 -0.0007685362 0.008302253 -0.011937765
-0.0029874737 0.009577502 0.008118899 0.017233977 0.0067872256 -0.008601991 -0.009553643 -0.008872466
-0.006748079 0.027180847 0.020618372 0.0025592924 0.007922903 0.014354192 0.021285493 0.002204801
-0.014841502 -0.006860112 -0.011759558 -0.008763307 0.02144776 -0.009184467 -0.0054519167 0.023738801
-0.018074062 0.0069439854 -0.01135777 0.015390378 -0.008539411 -0.0080860965 0.005826048 0.0014066406
0.0032605622 0.0029595697 0.007819032 -0.020861967 0.005655128 0.024173578 0.0022613353 0.0028712938
0.005696736 -0.02112671 -0.007336112 -0.007707822 -0.020201761 -0.0025316468 0.0072067105 -0.016003357

network_body._body_endoder.seq_layers.2.weight f4 [128, 128]
00000000: b36e 2f3d cb32 a33d 97e1 3c3d 36cc 4ebd
00000010: 3d2d 893d 5c42 0cbc ef79 41bd 6fef 17be
00000020: 5ea2 063d 2ed3 73bd 63b7 0abb b31e 51bc
00000030: f7d7 aa3d 3fc8 22be 3d4b 39bd c28f 9e3d
00000040: 129f 783c 638a 213d 61b8 c7bd c726 dd3d
00000050: b8e7 e1bd e774 00bd 7ea9 673d e9b9 c9bd
00000060: f7af 003e 93ba 88bd efa9 993c 45b4 493d
00000070: 45dd f0bb f42c 733d c1db 4fbc 0e0b 8bbd
00000080: bc0b 943d c4ba 3abd 431e 23bd c099 9bbe
00000090: 4e4b 2e3d c52a 89bd 939f 9b3d 55e0 493d
000000a0: db84 58bd c906 2e3c 487d a5bc 5a5e 273c
000000b0: 41d8 92bd 3252 28be 7dcb 9abd 727f be3d
000000c0: 8f46 993d 89d8 e4bd ae69 ec3d 622a 9c3d
000000d0: 743d 1c3d af60 d9bc ed30 693d d56d da3d
000000e0: b626 cfbd be59 c6bd af49 6abc 0911 203d
000000f0: 6d13 14bc 46d4 6d3d 1938 38be 6ee9 90bd
00000100: c519 4dbd 7e0a 09bd 5b93 e33d ff9f 253d
00000110: e853 a1bd e1a5 8cbd 9312 d9bd fe66 eebc
00000120: 7c2d f13b 6b9d 793c 86b7 993c efaf c5bc
00000130: 2d22 36bd 6ae7 cbbd e485 5a3d 45a4 1bbd
00000140: a2cb 91bd 1857 0dbd b4e5 07be 6289 89bd
00000150: 3514 86bd 6b3e 01bd 4772 bdbc e2df e0bd
00000160: a2a1 bdba 9827 943b ade5 aabd 464a 0ebe
00000170: 88e3 58bd 9e04 ffbc b645 e4bc 13e1 32bd
00000180: 593c 133d 29c5 1dbc 6373 aabd 8af8 b9bd
00000190: 6c2c 113e 1761 f8bd ddc1 42bd eb7f 143e
000001a0: 79db edbc ec22 19bd 1ab3 823d 6790 0c3e
000001b0: 463e edbd 236c 99bb e380 bc3d c61e 0e3e
000001c0: ab55 d73d 78c0 a13d 9dce 13bd d631 aa3d
000001d0: 7b61 4fbc 6e36 163e 237a c63d efff 8bbd
000001e0: 15e6 74bd d390 a63d 759d d8bc b5e6 62bd
000001f0: 4bac 223c 4cbf 2bbd c47b 943b ca00 a33c
00000200: 6e6a e43d 6b71 37be 4f0b 25bd 5131 8e3c
00000210: 7577 d4bd c62d 05bd f1da 0d3e 6173 693d
00000220: b6c5 09be b220 51bd ada3 7d3c 9518 ce3c
00000230: e503 0bbe 2c0e d33d c15d cebd 5d80 fd3b
00000240: b861 0fba c986 e8bd b13a a73b 442f 3a3b
00000250: 82e4 abbc c5b9 183e 6f79 e93d c613 ed3c
00000260: 7d3b b9bd 49b8 00bc ae01 d63d ec83 7abb
00000270: 36f7 0b3d 5836 ee3c 5a1c 4fbd 4b10 d23d
00000280: 2a21 05be cfa5 c23d 6c59 78be 4910 b7bd
00000290: 40a9 e03c 61b8 f0bd ce6f 85bc 6fd7 36be
000002a0: 1a33 6fbd d8eb 9a3d df16 89bd ce7e c93d
000002b0: c222 17bc 4478 4b3c d3e1 d9bc 8726 75bd
000002c0: acad 77bc ff1b 083e 6b54 fd3b 9af1 4e3d
000002d0: 8702 41bd 602e abbd 4582 0bbd 21ad 40bd
000002e0: 8828 d83c 888a 22be 9786 be3d dd22 efbb
000002f0: ec2c 3cbc 313c 473c 696b 0b3e cc9d 06bd
00000300: e164 80bc d126 18bd dbd1 51bd 7938 febc
00000310: 03a3 56bd a5b4 d9bd a49a 2b3d cf60 a9bc
00000320: e14b 30be ebc5 593d 004a 40bc 8467 1e3e
00000330: a5a2 b3bc a50d 94bd bfe5 2c3c ac8e 88bc
00000340: 153d 53bd fcea 0cbe 2acc 34bd 93c3 303d
00000350: 8928 813e a634 fabb 249d 4fbe 4fc3 883c
00000360: a78e 6f3d 0a8e 163d 8873 353e 4f51 363e
00000370: 6fd3 54bb 827d 613d 0d04 bf3c 6317 313d
00000380: 4992 c2bd 4635 c53c 194b 30bd 36cb 9abd
00000390: ba78 a2bd 1d46 cdbb 7565 803b cfd6 84bd
000003a0: 8a1a dd3c db4f 0f3e 8fcd 3cbd 1328 b6bb
000003b0: 58cb 8cbd 17d7 8a3d 02eb 993d d8dd 1b3e
000003c0: 0d08 56bc 0fec a5bd 04ac 0cbe 82a9 c0bd
000003d0: e3f3 8e3d 5da1 0e3b 9cc1 043e c4c4 e53d
000003e0: 2e5e 71bd 5e74 52bd 7a69 dcbd d8f3 5b3d
000003f0: 06c3 5f3d 13be b8bd a3a4 42bc 16f0 313d
0.04283018 0.07968672 0.046113577 -0.05048772 0.06698082 -0.008560743 -0.047235426 -0.1483743
0.03286969 -0.05952757 -0.0021166436 -0.012763667 0.08341973 -0.158967 -0.04523777 0.077422634
0.015174644 0.039438616 -0.09751964 0.10798412 -0.11030525 -0.031361487 0.056558125 -0.09849913
0.12567125 -0.06676211 0.018757788 0.049244184 -0.007350596 0.059369043 -0.012686671 -0.06789218
0.07228801 -0.04558827 -0.03982378 -0.3039074 0.042552285 -0.06697611 0.07598796 0.049286205
-0.052861076 0.010621735 -0.02020134 0.010215366 -0.071701534 -0.16437605 -0.075583436 0.09301652
0.07484161 -0.11174113 0.11543594 0.076252714 0.038144544 -0.02653536 0.056931425 0.1066548
-0.101148054 -0.09685086 -0.014299794 0.039078746 -0.009037835 0.058063768 -0.1799015 -0.07075773
-0.050073404 -0.03345727 0.1111209 0.040435787 -0.07877332 -0.068675764 -0.10599246 -0.029101845
0.0073601585 0.015235285 0.018764269 -0.024131743 -0.044466186 -0.09956248 0.053350344 -0.037998457
-0.07118918 -0.034506887 -0.13271219 -0.06715657 -0.06546823 -0.031553667 -0.02312578 -0.10980202
-0.0014467726 0.0045213215 -0.083445884 -0.1389552 -0.052951366 -0.031130131 -0.027865272 -0.04367168
0.035946224 -0.009629526 -0.083227895 -0.09080608 0.14177102 -0.121278934 -0.047548164 0.14501922
-0.029035317 -0.03738682 0.06381817 0.1372696 -0.11584143 -0.0046820804 0.09204271 0.13878927
0.10514387 0.078980386 -0.036085714 0.08310287 -0.0126575185 0.14669201 0.096912645 -0.06835925
-0.059789736 0.08133092 -0.026442269 -0.0553958 0.009928773 -0.04193048 0.0045313556 0.019897837
0.11153112 -0.1791436 -0.040293988 0.0173575 -0.10374347 -0.032514356 0.13853051 0.0569948
-0.13454327 -0.05105657 0.015480918 0.025158206 -0.13575704 0.103054374 -0.10076476 0.0077362494
-0.00054695783 -0.11353833 0.005103432 0.002840952 -0.020982984 0.14914615 0.11400115 0.028940093
-0.090445496 -0.007856437 0.10449539 -0.0038225604 0.034171306 0.029078647 -0.050564148 0.10257014
-0.13000932 0.09504282 -0.24252862 -0.08938653 0.027424455 -0.117539175 -0.016288664 -0.17855619
-0.058398344 0.07564515 -0.066938154 0.09838639 -0.0092245955 0.01241881 -0.02659694 -0.059851196
-0.01511709 0.1329193 0.0077310107 0.050523378 -0.04712155 -0.08358455 -0.03405978 -0.04704011
0.026386514 -0.15873158 0.09303015 -0.007297857 -0.01148532 0.012160347 0.13615192 -0.03286533
-0.015673103 -0.037146393 -0.051225524 -0.031032788 -0.052401554 -0.10630158 0.041895524 -0.020676045
-0.17216446 0.053167265 -0.011736393 0.15469176 -0.02192814 -0.07229165 0.010552823 -0.016669594
-0.051571924 -0.13761514 -0.04414002 0.043155264 0.25226238 -0.0076356707 -0.20274788 0.016694693
0.058485653 0.036756553 0.17719853 0.17804454 -0.0032474657 0.055051334 0.023317361 0.043235194
-0.09500558 0.024073254 -0.04304037 -0.07558291 -0.07933183 -0.0062644617 0.0039183446 -0.06486284
0.026990194 0.13995306 -0.046094473 -0.0055589764 -0.06874722 0.067793064 0.07515527 0.15221345
-0.013063443 -0.08101665 -0.13737494 -0.09407331 0.069801114 0.002176366 0.12964481 0.11219171
-0.058927707 -0.051380508 -0.107623056 0.053699344 0.05462935 -0.09020629 -0.011880073 0.043441854

network_body._body_endoder.seq_layers.2.bias f4 [128]
00000000: 3db3 db3c d6c0 d23b a7a8 89bc 83c4 1a3c
00000010: 1690 1d3c a36d 29ba 3cf2 e73b e7e7 de3c
00000020: 847e d53a 1373 97ba f91a a13b 2ba5 983c
00000030: 7c27 e03b 839f 07bc 75df 89bc eba5 9dbc
00000040: 6479 423c 3147 b33b 82d5 d038 51a3 afbc
00000050: 59a8 eebb 290e 633c 9723 10bc dee1 6fba
00000060: 97fb b03b ca0e 39bc d5f5 2ebc 2c4e 98bb
00000070: c293 ebba 8912 a13b a484 2f3c 5ba6 d73b
00000080: fc04 933b e324 cf3a c351 e6bb 2a1a 873c
00000090: f073 37bc ba50 953b 2258 e93c d084 713c
000000a0: af99 54bc 2056 65bc c8fd a9bc d3e3 79bc
000000b0: 0d0e 1cbc b165 abbc 0f6f 1f3b 074e a13c
000000c0: 43b6 90bc 7fc3 adbc 5038 7ebb d78b 89bc
000000d0: 6b52 543c ec6a 9ebc a5a4 223c 4195 5b3c
000000e0: 09b4 94bc 499e 923b 94b7 97ba 8ba0 2abc
000000f0: b2d3 1c3c 9e0e 5a3c b6ea c23c b684 79bb
00000100: 69d2 3d3b 4a8c bebc 33e4 02bc e028 13bb
00000110: 83ca 9bbb e320 8c3c c7bd 383c f2a5 803c
00000120: 76ac 35bc 34e9 1f3c fa16 343c 0d78 4bbc
00000130: 7e55 0c3d 3d5b 93bc 7b8b 85bc b764 d53b
00000140: a94c 89bb 3376 eebb 144a 473c 86dd d33b
00000150: 1130 983c 571f 77bc f843 62bc 02f2 0fbc
00000160: ea11 cf3b 78b0 453c 90b6 eebb 6c04 793c
00000170: c396 abbc 048b 3f3c 7552 fb3b 1714 b5bb
00000180: 1248 54bc 7c6a 64bc 1258 063c d034 0936
00000190: 33a3 593c f0af 5abc bc6b 483c 2174 cc3b
000001a0: 5c13 983b 037a 5abb fb90 63bb f03b 373c
000001b0: 3931 8dbc 21a1 69bc 1960 b13c 7467 74ba
000001c0: 2e16 38bc de9c 35bc 6135 123c 1e17 783c
000001d0: 00d4 7ebc 608d 92bc 03c6 46bc e893 acbb
000001e0: 461d 223c 9770 623c 4cd5 683c f951 173c
000001f0: 2a22 293c 9b35 3dbc 972f b13c e463 90bb
0.026818866 0.0064316792 -0.016804053 0.009446266 0.009616872 -0.00064631755 0.007078437 0.027210189
0.0016288315 -0.001155468 0.0049165455 0.018633446 0.0068406444 -0.008277777 -0.016830185 -0.019244155
0.011869762 0.005471133 9.957982e-05 -0.02144018 -0.007283252 0.0138583565 -0.008797548 -0.00091507833
0.0054010856 -0.01129503 -0.010678728 -0.0046479907 -0.0017973112 0.0049155396 0.010712776 0.0065811104
0.004486678 0.001580384 -0.0070287897 0.016491968 -0.011197075 0.0045567425 0.028484408 0.014741138
-0.012976094 -0.013997585 -0.020750895 -0.015252071 -0.009524834 -0.020922514 0.002432767 0.019690527
-0.017665034 -0.021211384 -0.003879089 -0.016790314 0.012959103 -0.019338094 0.00992695 0.013402284
-0.018152254 0.0044744355 -0.0011575096 -0.010414253 0.0095719565 0.013309149 0.02379356 -0.0038073487
0.0028964526 -0.023260254 -0.007988977 -0.0022454783 -0.004754366 0.017105525 0.011275715 0.015704129
-0.011088481 0.00976019 0.010991806 -0.012418759 0.03426122 -0.017987842 -0.016301861 0.0065122503
-0.004190047 -0.007277274 0.012163658 0.0064656166 0.018577607 -0.015083156 -0.01381015 -0.0087857265
0.006319274 0.012065999 -0.0072849467 0.015198808 -0.020945912 0.011690859 0.0076697418 -0.0055260765
-0.012956636 -0.0139414035 0.008199709 2.0445332e-06 0.013283539 -0.013347611 0.012232717 0.0062394296
0.0046409797 -0.0033336885 -0.0034723866 0.011183724 -0.017235385 -0.0142596075 0.021652268 -0.0009323277
-0.011235757 -0.011084763 0.008923859 0.01514223 -0.015553474 -0.017889678 -0.012132171 -0.0052666552
0.009894675 0.013820789 0.01421101 0.009235852 0.010323087 -0.011548425 0.021629138 -0.004406439

action_model._continuous_distribution.log_sigma f4 [1, 2]
00000000: 0dfb 8d3a 3a1b c83b
0.0010832265 0.0061067613

action_model._continuous_distribution.mu.weight f4 [2, 128]
00000000: d233 ac3c 8c25 ce3b 67f7 d6bb 06c5 283c
00000010: e0ca db3c af6d e4ba e49a e7b8 376b 263c
00000020: 7a3b e6ba 5c03 a33b 6b88 05bc 0a61 b63c
00000030: c8ed 463b 8493 89bc 8a3b bfbc cc78 05bd
00000040: b157 ea3b 8e76 ec3b 5079 843b 33d9 07bc
00000050: 90a0 87bc 77d0 693c d465 e5bc 8a14 513a
00000060: 845d 8f3a 032c 2fbc cdb0 12bc 8bdd cc39
00000070: dfe2 a93a ebc1 423a cba2 903c 2a7e ff3b
00000080: 25c3 d43a f3a6 213c abe0 c3ba 19fc 3b3c
00000090: f385 a8bc c629 103c 4abc 1c3d d2cf 0a3c
000000a0: ffe2 00bd 05dc d2bc 497c 47bc 5d0d 02bd
000000b0: b9ad 2fbb c85d c3bc 8c4f 313b ceb8 d23c
000000c0: 48b0 dfbc 41ad d9bc 2e27 19bc ef9d 55bc
000000d0: ba15 583c 2520 9fbc 3eb4 d13b 2117 a73c
000000e0: c710 dbbc 3e1c 5dbb 1479 81bb 13b6 80bc
000000f0: 5e7f 8a3c 5e58 8d3c 9364 b83c 4168 8e3b
00000100: 965f 5e3b cfc2 56bc a0ce 9cbb 7351 99bb
00000110: 780f 86bc a1d5 b93c 65eb b13c 6e26 173d
00000120: fbc2 8cbb 46e8 c83b 5a82 0a3d 2871 39bc
00000130: ce0a 583c 834e 6ebb 1d55 d8bc a7c2 ec3a
00000140: 77bd 21bc 3df4 ffbb f19d f53c 5449 c93b
00000150: 4ce8 1d3d abf5 3039 70b7 61bb 5952 82bc
00000160: 3d8f 1f3c c7e2 293d f577 16bb eacf 863c
00000170: 240f fbbc d39a 8f3c 3e0e 823c f821 6cb8
00000180: cc08 efbb 8ec0 cebc 8ac4 b73b db21 d2bb
00000190: 85dc 093a 53cb d3bc 9bb2 483d 5d0e 243c
000001a0: 3b20 773c fdcf 553b d38c 12bc 2e74 af3c
000001b0: d720 16bd 3265 24bd 983d ac3c 03f7 183c
000001c0: 8d4a 5fbd 46a8 4abc 0a79 fb3b 1589 eb3c
000001d0: 870e 21bd 9fea 8dbc e26a eebc 3329 aebb
000001e0: e34a 293c afbd c23c 0024 533c 856c d33c
000001f0: 19d5 673c 6d2f 6dbc c983 3e3d 72e5 f3bc
00000200: 60c1 66ba 039e ebbc 5d0d fb3b 9217 4f3c
00000210: c82b 1ebc ba77 193d 8f16 083c 315f ec3b
00000220: a49c ec3c 7968 20bd 7105 bd3b d70c c73c
00000230: 97f3 6cbc c9cc 9bbc 4614 4abc a16f 94bc
00000240: f1d5 073d 2979 ceba fcfc f2bb d550 cb3b
00000250: aa1c a9bc 9103 21bc fa31 963c 669e 823b
00000260: 03ae 98bc 2260 37bc 8789 a8bc 30f9 80bc
00000270: 16cd 58bc a4c5 a43b 118b 6fbb f627 283c
00000280: c789 803b f110 63bd aaee 76bc 86c4 db3b
00000290: 936d ef3b c6c7 3fbc cbc2 bb3c a59e a7bb
000002a0: 9967 fcbc 6d9e 3fbc 1852 ab38 9cd4 fabc
000002b0: 6dd5 5abc beff 033c c602 13bc 5ba9 06bc
000002c0: ecd0 9f3b 5069 613a 17c4 6d3c 490f e1bb
000002d0: 8aa6 f13c 1c13 0039 c92e 5e3c 2f6b 22ba
000002e0: 6e23 093b 84d6 b93c eadb 6a3c 1ee4 c3bc
000002f0: 80e7 d43c 86c8 3d3c f06e 253c 1b3a 12bc
00000300: c812 1bbb 6967 11bb 3db3 0bbd fd9c 083d
00000310: 1189 843c b45e 223c bd19 0bbd 245f c4bc
00000320: cefe 793c 719c 2abb 15d4 86bc 849c aebc
00000330: c158 7a3c 87cd bcba e371 303c 5da4 38bd
00000340: bea5 f23c 2c1e 583c f787 a3bc 351e 9c3c
00000350: 351d 1c3c 8fb7 a73a 766b 1a3b 5678 963b
00000360: f50a 1f3d f0ba 223c 63cf 8ebb a6f1 87bc
00000370: 37bb d83b 7aeb 57ba b965 72bc 8926 e63c
00000380: b37e 563c a58b 2c3c bd40 ab3c a84d cd3c
00000390: 5bab c83b e4f7 5e3c b7c4 613b cc80 81bc
000003a0: 1eae 12bd cd8b 0cbc d8c6 cc3c 8b93 8abc
000003b0: 9d23 04bc c54b fe39 f98b 9dbb 7791 b7bc
000003c0: b22d eaba f00b 9cbb c73f 163d 8e2e 9abc
000003d0: 6ce6 3d3c 4109 96bc bb5f 3e3a 2a63 c1bc
000003e0: 1c73 603d beb0 3a3b 209f e73a 688a d5bb
000003f0: db24 85bc ca7f c33b aa99 943b 73ef 183d
0.021020804 0.006291097 -0.0065602544 0.01030088 0.026830137 -0.0017427708 -0.00011043789 0.010157398
-0.0017565333 0.0049747657 -0.0081502 0.022263069 0.003035413 -0.016793974 -0.02334382 -0.032585904
0.007151567 0.0072162813 0.004042782 -0.00829153 -0.016556054 0.014270893 -0.028002657 0.0007975778
0.0010937904 -0.010691646 -0.008953285 0.00039074974 0.001296129 0.0007429409 0.01765575 0.0077970224
0.0016232474 0.009866464 -0.0014944276 0.011473679 -0.020571684 0.008799022 0.038265504 0.0084724
-0.03146648 -0.02573968 -0.012175628 -0.031751025 -0.0026806428 -0.02384843 0.002705547 0.025722887
-0.027305737 -0.026571872 -0.00934772 -0.013038143 0.013188774 -0.019424507 0.0063996604 0.02039677
-0.026741398 -0.0033738757 -0.003951201 -0.01571182 0.016906437 0.01725405 0.022508895 0.004345924
0.0033931485 -0.013107969 -0.004785374 -0.004678899 -0.016364798 0.022684874 0.02171869 0.036901884
-0.0042957044 0.006131205 0.03381572 -0.011318482 0.01318617 -0.0036362715 -0.026407773 0.0018063382
-0.009871832 -0.007811098 0.029982539 0.0061427746 0.038551614 0.00016876186 -0.0034441613 -0.015908407
0.0097387405 0.041476037 -0.0022959684 0.016456563 -0.030646868 0.01752988 0.015875932 -5.629842e-05
-0.00729475 -0.025238302 0.005608146 -0.0064127273 0.0005258995 -0.025853788 0.048998456 0.01001319
0.015083368 0.0032625191 -0.008944708 0.021417703 -0.036652412 -0.04013557 0.021025464 0.009336236
-0.054514457 -0.012369221 0.007674341 0.02875189 -0.039320495 -0.01732379 -0.0291037 -0.00531497
0.010332796 0.023772089 0.012887001 0.025808582 0.0141499275 -0.014476639 0.0465124 -0.029772494
-0.0008802619 -0.02876187 0.007661505 0.012639897 -0.009653993 0.037467696 0.00830616 0.007213496
0.028883286 -0.039162133 0.005768471 0.024298115 -0.014462373 -0.019018548 -0.012333935 -0.018119635
0.033163015 -0.0015752661 -0.007415412 0.0062047043 -0.02064355 -0.00982751 0.018334378 0.0039861677
-0.018637663 -0.011192353 -0.02057339 -0.015743822 -0.01323249 0.0050284434 -0.0036551396 0.010263434
0.0039226743 -0.05543608 -0.01507155 0.006706777 0.0073067634 -0.011705345 0.022920033 -0.0051153474
-0.030811118 -0.0116954865 8.1692066e-05 -0.030618958 -0.013356549 0.008056579 -0.008972829 -0.008219088
0.0048772004 0.00085987616 0.0145120835 -0.006868277 0.029498357 0.0001221415 0.013560959 -0.0006195781
0.0020925659 0.022685297 0.014334658 -0.023912486 0.025989294 0.011583453 0.01009725 -0.008924986
-0.0023662318 -0.0022186881 -0.03410648 0.03335284 0.01617864 0.009910274 -0.033960093 -0.023971148
0.015258504 -0.0026033188 -0.01645855 -0.021314867 0.01527995 -0.0014404514 0.01076934 -0.045078624
0.029620048 0.013190787 -0.019962294 0.019057373 0.009528448 0.0012795794 0.0023562587 0.004591982
0.03882881 0.009932265 -0.0043582185 -0.01659472 0.0066141146 -0.0008236688 -0.01479476 0.028094547
0.013091731 0.010531341 0.020904893 0.025061443 0.006123943 0.013608906 0.0034449527 -0.015808485
-0.035810582 -0.008578253 0.02499716 -0.016916057 -0.0080651315 0.00048503108 -0.004807946 -0.02240823
-0.0017866401 -0.0047621652 0.036681917 -0.018821027 0.011590581 -0.01831496 0.000726219 -0.023606855
0.054797277 0.0028486694 0.0017671324 -0.0065167435 -0.016252926 0.0059661614 0.0045349197 0.03733773

action_model._continuous_distribution.mu.bias f4 [2]
00000000: e89f 923c 9b53 603b
0.017898515 0.003422952

action_model._discrete_distribution.branches.0.weight f4 [1, 128]
00000000: 5fa9 78bb 0f4b 9c3a 9f32 593b 599a bbbb
00000010: 8a41 39bc 6d6e 4ebc f133 21bc 3286 cd3b
00000020: 5bda 643b 2467 983b f88c d93a 0aa1 583c
00000030: 8b70 a83b 3b8b 60bc cb02 363a 8bfc 623b
00000040: d749 663c 8804 6fbb 5bb2 9a3b c744 d83a
00000050: 4f0b 943b d240 b0bc 5183 82bb 0b07 8abc
00000060: dc74 1fbb 1e81 123c c30a e6bb d0f5 d13b
00000070: 734a 113b c8ef 42bc 5f7a 1cba 328b 2ebc
00000080: 4007 f13a 0de4 b73a 2e68 40bc 51cf 35bc
00000090: bd4a 903c e8d8 99bb f096 d53b b3bb 58bb
000000a0: d263 d43b e3ce a3bb 0038 a3bb 1326 06bb
000000b0: 1663 95bc a8fc 6dbc 176c 32bc 1508 ddbb
000000c0: cb2f 31bc 59d8 b53b 62bf e2ba 2ba1 3dbb
000000d0: 5fff d638 9bc0 82b9 e0ca 6e3b 9651 bb3b
000000e0: 2361 91b9 3a83 893b a0d0 773b 37ea f4bb
000000f0: 91d6 9b3b 5f64 0fbc 04d2 ca3a 8bcc 1abc
00000100: 0d39 93ba 681e 2a3b 8b83 1b3c b04d fd3a
00000110: afa0 1dbc cf36 2cbb b8cd 3f3c 00e4 5f3c
00000120: 1454 44bc 43d9 b2bb 1df1 2d3c da09 44bc
00000130: c79a b6bb 29f2 2bbc 1651 043b e5c2 81bc
00000140: c8ac 8ebb f763 6f3b 27d0 0fbc ffad f63a
00000150: 45c7 79b9 c1ea 25bc 23f9 18bb 6de3 d0bb
00000160: 152c 8fbb 10dd 7e3c 5eb0 2f3c 6d29 14bc
00000170: fa25 96bb 7b97 4cbb d338 933b c605 073b
00000180: ba6a ab3b 3f5a 2bbc 676d 8abc 0f90 f1bb
00000190: d402 00bb da1a 6ebc 62d0 b4ba 8d53 69bb
000001a0: c636 9bbb 411a bc3c 429a 22bb d053 e3bb
000001b0: 60ef 573c 36d1 cbbc c073 e6bb 4730 32bc
000001c0: 8394 15bb 73e0 0cbc b093 c5bb 0bfb 1cbc
000001d0: 4292 f6ba 481c d03b f89c 8abb 8450 8e3b
000001e0: f5bb f33b f031 5bbb 23be ae3b 3411 b8b9
000001f0: e868 d03b 136b 0bbb 8b3b 03bc 2d16 f83b
-0.003794275 0.0011924225 0.0033141745 -0.005725187 -0.01130713 -0.01259957 -0.009839044 0.006272101
0.003492019 0.004650967 0.0016597798 0.013221988 0.0051403693 -0.01370507 0.0006943165 0.003463539
0.014055691 -0.0036471207 0.0047209687 0.001649999 0.0045179497 -0.021515284 -0.0039829393 -0.016849061
-0.0024331128 0.008941917 -0.007020326 0.006407477 0.002216962 -0.011897989 -0.00059691624 -0.010653304
0.0018389001 0.0014029756 -0.011743588 -0.011096791 0.017613763 -0.0046950467 0.0065182373 -0.0033070862
0.006481626 -0.004999028 -0.004981041 -0.0020469471 -0.018235724 -0.01452557 -0.010890028 -0.006745348
-0.010814617 0.0055494723 -0.0017299468 -0.0028935175 0.00010251882 -0.00024939034 0.003643684 0.005716513
-0.00027728928 0.0041965516 0.003781356 -0.0074742096 0.004755803 -0.008751958 0.0015473966 -0.009448181
-0.0011232212 0.0025958065 0.0094918115 0.0019325521 -0.0096208295 -0.0026277786 0.011706762 0.013665199
-0.011982936 -0.0054580285 0.010616568 -0.011965239 -0.00557265 -0.010494747 0.0020189933 -0.015840003
-0.004354093 0.003652809 -0.008777655 0.0018820165 -0.00023820724 -0.0101267705 -0.0023341856 -0.0063747675
-0.0043692687 0.015555635 0.010723202 -0.00904308 -0.004582164 -0.003121822 0.004492858 0.0020602806
0.0052312287 -0.010458528 -0.01689787 -0.0073719095 -0.0019532936 -0.014532769 -0.0013795013 -0.0035602779
-0.004736754 0.022961738 -0.0024811183 -0.0069374815 0.01317963 -0.024880033 -0.0070328414 -0.010875768
-0.0022824116 -0.008598435 -0.0060295686 -0.009581338 -0.0018811899 0.0063510276 -0.004230138 0.0043430943
0.0074381777 -0.0033446513 0.0053327247 -0.00035108032 0.006360162 -0.0021273538 -0.008009802 0.007571003

onnx::Div_70 f4 [12]
00000000: 0d4d 2c3c ff1f 103d c856 c73b 8bce 643d
00000010: 15a0 453e 5bd6 1d3e 952c 5a3e be13 0d3e
00000020: b655 c73b 0b93 913e bc14 453e b6af 6a3d
0.010516417 0.035186764 0.006083343 0.055861037 0.19299348 0.15413801 0.21306069 0.13777062
0.0060832156 0.28432497 0.19246191 0.057296477
