results/SlayRL_011/SlayTheSquire_RL/SlayTheSquire_RL-0.onnx (onnx, 81835 bytes, 9 tensors)

network_body.observation_encoder.processors.0.normalizer.running_mean f4 [12]
0.0 0.0 0.0 0.0 0.0 0.0 0.0 0.0
0.0 0.0 0.0 0.0
00000000: 0000 0000 0000 0000 0000 0000 0000 0000
00000010: 0000 0000 0000 0000 0000 0000 0000 0000
00000020: 0000 0000 0000 0000 0000 0000 0000 0000

network_body._body_endoder.seq_layers.0.weight f4 [128, 12]
-0.10988231 0.10310156 -0.2255581 0.16565451 0.4942142 -0.7836581 0.019682877 -0.082468376
0.29877084 -0.05982463 -0.5139218 0.5196056 -0.044939984 -0.6663762 0.014626218 -0.003689975
0.018218262 -0.08635172 0.10661587 -0.32586062 0.19801617 0.3972473 -0.07363476 -0.3050842
-0.18656111 0.07782246 -0.11015616 -0.21756494 0.11202583 -0.065410085 -0.04822049 -0.093504004
0.17704111 -0.060539994 -0.3547209 0.37211257 -0.2987153 0.51179785 -0.04061216 -0.32386476
-0.29062584 -0.035939645 0.046234287 -0.4119013 0.28711095 0.31409052 -0.096826255 -0.115687296
0.04014131 -0.30752218 0.18446678 0.101593316 0.3485413 0.37866294 -0.5115775 -0.03717279
0.6084077 -0.4055763 -0.110615104 0.56378675 -0.050162718 0.29005897 -0.16837384 0.17760639
0.041302904 0.065663956 0.043743778 0.40530702 0.13782473 -0.2174303 0.29786494 -0.30366817
-0.028673064 0.16109289 0.2311678 -0.3806924 0.03513217 0.06370712 -0.2343224 0.5044821
0.27950847 0.5740862 -0.43961343 0.3468378 0.17547137 0.05316286 0.08053485 0.5161263
0.036658358 -0.49243894 -0.037209153 0.008939279 0.40643516 -0.20898482 0.24234462 0.22581062
0.011167086 0.16029339 -0.3735982 -0.03285905 -0.7555914 -0.07551661 -0.29766575 -0.6330953
-0.30172834 0.7355885 -0.20656683 0.07154934 0.093802586 0.014803498 -0.06583525 -0.32425642
0.8915653 -0.64871573 0.17998314 0.3716628 -0.1115872 0.20636627 0.24590272 -0.0680253
-0.046411637 0.29203156 -0.11799564 -0.52334815 0.0804645 -0.54009074 -0.24267004 0.04860655
0.116953194 0.4371259 0.11675884 -0.22351474 -0.1644263 -0.19511923 0.24035583 0.054725274
-0.06101345 -0.3436529 0.07876134 -0.016277485 0.049632303 -0.6934069 -0.4245417 0.06486887
-0.02340185 -0.09129727 -0.07719856 -0.16023208 0.25551623 -0.33568543 -0.227444 -0.1677868
0.018994614 0.28490195 0.11319787 0.27848142 -0.48781148 0.19717 -0.14543277 0.4015371
-0.036762297 0.26015916 0.22927362 -0.14451103 -0.6881054 0.5014772 0.004758525 -0.1988248
0.5694702 0.20072012 -0.18592721 0.33212098 -0.5354014 0.035384435 -0.3954686 -0.2515261
-0.28279498 0.52919656 -0.0685182 -0.08141731 0.0025609103 -0.4692817 0.016988784 -0.029192071
0.087474555 0.23286313 0.14279094 0.05413451 0.2934624 0.13378237 0.35520068 -0.48959386
0.119390555 0.17407948 -0.13708745 0.41036388 0.019204162 0.24900047 0.039326586 -0.16065869
-0.53037316 -0.2489611 0.005343911 -0.07544303 0.04372423 0.059241038 -0.031242901 -0.26035905
0.104467764 0.5723795 0.12527956 -0.31301248 -0.118790336 -0.23489855 0.60592484 -0.13958333
-0.04741089 -0.049914353 -0.016587274 -0.24145015 0.07742051 -0.16568801 0.026537223 -0.09849062
0.44599348 -0.15757182 -0.44252014 0.025499264 0.13040723 0.39007473 -0.14680754 0.3205479
0.6489281 0.023549771 0.18526869 -0.42951447 -0.1251408 0.10683207 -0.06692871 -0.12823689
0.5568098 -0.00045286084 -0.18852249 -0.04005112 -0.045008574 0.11735044 0.13624597 0.3345562
0.111600086 0.26587144 0.17755473 -0.039618332 0.0159045 -0.20315538 0.015182745 -0.18067166
00000000: fa09 e1bd e926 d33d b4f8 66be 56a1 293e
00000010: a509 fd3e d19d 48bf fc3d a13c 2ee5 a8bd
00000020: 7ef8 983e ac0a 75bd 6190 03bf df04 053f
00000030: fd12 38bd a197 2abf cea2 6f3c 82d3 71bb
00000040: 773e 953c 2cd9 b0bd 6c59 da3d 34d7 a6be
00000050: c0c4 4a3e 0064 cb3e d2cd 96bd ff33 9cbe
00000060: e009 3fbe 6261 9f3d 8e99 e1bd 58c9 5ebe
00000070: cc6d e53d b9f5 85bd d982 45bd 077f bfbd
00000080: 444a 353e c9f8 77bd fa9d b5be 8a85 be3e
00000090: 36f1 98be 2f05 033f f058 26bd 9ad1 a5be
000000a0: e9cc 94be 7335 13bd 2a60 3d3d bae4 d2be
000000b0: 3500 933e 79d0 a03e d84c c6bd 76ed ecbd
000000c0: 376b 243d 8c73 9dbe dce4 3c3e 2810 d03d
000000d0: 0174 b23e 1ce0 c13e bef6 02bf 7f42 18bd
000000e0: 9bc0 1b3f b2a7 cfbe 2c8a e2bd 5454 103f
000000f0: 6c77 4dbd 9c82 943e 316a 2cbe 73de 353e
00000100: 3c2d 293d d37a 863d ad2c 333d 6784 cf3e
00000110: ed21 0d3e 0ca6 5ebe c181 983e 657a 9bbe
00000120: c6e3 eabc 89f5 243e 40b7 6c3e 1dea c2be
00000130: c0e6 0f3d e178 823d 36f2 6fbe bd25 013f
00000140: bc1b 8f3e 50f7 123f 0315 e1be b994 b13e
00000150: c4ae 333e 4dc1 593d 75ef a43d da20 043f
00000160: 1327 163d f520 fcbe a068 18bd 0e76 123c
00000170: 4518 d03e 1e00 56be 3029 783e e63a 673e
00000180: 27f6 363c f323 243e 4348 bfbe 3697 06bd
00000190: 706e 41bf 74a8 9abd a567 98be 8912 22bf
000001a0: 237c 9abe 874f 3c3f 4186 53be 7688 923d
000001b0: 921b c03d 5f8a 723c a2d4 86bd f004 a6be
000001c0: a03d 643f 3c12 26bf 804d 383e 964a be3e
000001d0: d487 e4bd ae51 533e eccd 7b3e d950 8bbd
000001e0: 211a 3ebd 2985 953e b3a7 f1bd 25fa 05bf
000001f0: 92ca a43d 6343 0abf 7f7e 78be a917 473d
00000200: 2885 ef3d f7ce df3e 421f ef3d 0ce1 64be
00000210: 5e5f 28be 56cd 47be d71f 763e 9c27 603d
00000220: 3de9 79bd 46f3 afbe a04d a13d 5c58 85bc
00000230: 3e4b 4b3d 1d83 31bf 885d d9be f8d9 843d
00000240: 3db5 bfbc 10fa babd 471a 9ebd e113 24be
00000250: 06d3 823e f6de abbe 14e7 68be 4ed0 2bbe
00000260: 989a 9b3c abde 913e 49d4 e73d 1e95 8e3e
00000270: 6dc2 f9be efe6 493e 54ec 14be 4596 cd3e
00000280: 1094 16bd 9533 853e b4c6 6a3e b3fa 13be
00000290: ad27 30bf cf60 003f 67ed 9b3b ba98 4bbe
000002a0: cdc8 113f 9389 4d3e b463 3ebe c30b aa3e
000002b0: 1110 09bf 45ef 103d dc7a cabe 07c8 80be
000002c0: 81ca 90be 6d79 073f 4553 8cbd 1ebe a6bd
000002d0: f2d4 273b b145 f0be 102c 8b3c 3624 efbc
000002e0: dc25 b33d ac73 6e3e ca37 123e 26bc 5d3d
000002f0: b440 963e 3ffe 083e dddc b53e 0cac fabe
00000300: 0983 f43d e441 323e a760 0cbe 371b d23e
00000310: 0c52 9d3c fbf9 7e3e ea14 213d b683 24be
00000320: 89c6 07bf a9ef 7ebe f91b af3b e081 9abd
00000330: 2e18 333d bba6 723d 1df1 ffbc c84d 85be
00000340: 32f3 d53d 7787 123f 4949 003e 2c43 a0be
00000350: 5948 f3bd 3f89 70be e41d 1b3f efee 0ebe
00000360: ec31 42bd fe72 4cbd 09e2 87bc b53e 77be
00000370: a58e 9e3d 1eaa 29be 9764 d93c 73b5 c9bd
00000380: 4259 e43e 825a 21be 0092 e2be d5e3 d03c
00000390: 7989 053e e0b7 c73e b754 16be db1e a43e
000003a0: 2720 263f 73eb c03c 13b7 3d3e 52e9 dbbe
000003b0: e924 00be c6ca da3d eb11 89bd 8850 03be
000003c0: 168b 0e3f f46d edb9 0a0c 41be a50c 24bd
000003d0: e95a 38bd 6d55 f03d 1084 0b3e f34a ab3e
000003e0: 968e e43d 4d20 883e e8d0 353e d546 22bd
000003f0: 274a 823c f707 50be 0cc1 783c fe01 39be

network_body._body_endoder.seq_layers.0.bias f4 [128]
0.0 0.0 0.0 0.0 0.0 0.0 0.0 0.0
0.0 0.0 0.0 0.0 0.0 0.0 0.0 0.0
0.0 0.0 0.0 0.0 0.0 0.0 0.0 0.0
0.0 0.0 0.0 0.0 0.0 0.0 0.0 0.0
0.0 0.0 0.0 0.0 0.0 0.0 0.0 0.0
0.0 0.0 0.0 0.0 0.0 0.0 0.0 0.0
0.0 0.0 0.0 0.0 0.0 0.0 0.0 0.0
0.0 0.0 0.0 0.0 0.0 0.0 0.0 0.0
0.0 0.0 0.0 0.0 0.0 0.0 0.0 0.0
0.0 0.0 0.0 0.0 0.0 0.0 0.0 0.0
0.0 0.0 0.0 0.0 0.0 0.0 0.0 0.0
0.0 0.0 0.0 0.0 0.0 0.0 0.0 0.0
0.0 0.0 0.0 0.0 0.0 0.0 0.0 0.0
0.0 0.0 0.0 0.0 0.0 0.0 0.0 0.0
0.0 0.0 0.0 0.0 0.0 0.0 0.0 0.0
0.0 0.0 0.0 0.0 0.0 0.0 0.0 0.0
00000000: 0000 0000 0000 0000 0000 0000 0000 0000
00000010: 0000 0000 0000 0000 0000 0000 0000 0000
00000020: 0000 0000 0000 0000 0000 0000 0000 0000
00000030: 0000 0000 0000 0000 0000 0000 0000 0000
00000040: 0000 0000 0000 0000 0000 0000 0000 0000
00000050: 0000 0000 0000 0000 0000 0000 0000 0000
00000060: 0000 0000 0000 0000 0000 0000 0000 0000
00000070: 0000 0000 0000 0000 0000 0000 0000 0000
00000080: 0000 0000 0000 0000 0000 0000 0000 0000
00000090: 0000 0000 0000 0000 0000 0000 0000 0000
000000a0: 0000 0000 0000 0000 0000 0000 0000 0000
000000b0: 0000 0000 0000 0000 0000 0000 0000 0000
000000c0: 0000 0000 0000 0000 0000 0000 0000 0000
000000d0: 0000 0000 0000 0000 0000 0000 0000 0000
000000e0: 0000 0000 0000 0000 0000 0000 0000 0000
000000f0: 0000 0000 0000 0000 0000 0000 0000 0000
00000100: 0000 0000 0000 0000 0000 0000 0000 0000
00000110: 0000 0000 0000 0000 0000 0000 0000 0000
00000120: 0000 0000 0000 0000 0000 0000 0000 0000
00000130: 0000 0000 0000 0000 0000 0000 0000 0000
00000140: 0000 0000 0000 0000 0000 0000 0000 0000
00000150: 0000 0000 0000 0000 0000 0000 0000 0000
00000160: 0000 0000 0000 0000 0000 0000 0000 0000
00000170: 0000 0000 0000 0000 0000 0000 0000 0000
00000180: 0000 0000 0000 0000 0000 0000 0000 0000
00000190: 0000 0000 0000 0000 0000 0000 0000 0000
000001a0: 0000 0000 0000 0000 0000 0000 0000 0000
000001b0: 0000 0000 0000 0000 0000 0000 0000 0000
000001c0: 0000 0000 0000 0000 0000 0000 0000 0000
000001d0: 0000 0000 0000 0000 0000 0000 0000 0000
000001e0: 0000 0000 0000 0000 0000 0000 0000 0000
000001f0: 0000 0000 0000 0000 0000 0000 0000 0000

network_body._body_endoder.seq_layers.2.weight f4 [128, 128]
-0.15811871 0.05698968 0.0524312 -0.06869551 -0.05997433 0.08953055 -0.0719447 -0.055307943
-0.026477648 -0.0085014375 0.003883372 0.05799168 0.026810987 0.16024432 -0.007721261 0.0592757
0.060517237 0.046018466 0.11783286 -0.061931174 -0.050086297 0.020104226 -0.08087323 0.11953324
-0.02421245 0.17052102 -0.053170234 -0.07269513 -0.06132916 -0.0022985437 0.16555196 0.08342929
-0.15477103 0.055248734 0.05437894 0.02624865 -0.10500155 0.02431149 0.02297923 -0.06637888
0.0052612256 0.059245195 -0.09941455 -0.01863753 -0.017221278 0.0187992 -0.13099515 -0.013725062
-0.03399488 0.04111904 0.14076628 0.010983296 -0.012723659 0.03874118 0.0028508028 0.03891
0.2148202 -0.007365516 0.16898324 0.009959827 0.08615221 -0.006213849 0.02420598 -0.055346757
-0.032883596 0.02519823 -0.08871927 -0.024283683 0.06363533 0.061964106 0.08589975 -0.1391029
-0.060014695 0.010008368 -0.06455647 0.03370467 -0.080275826 0.007769747 0.0014821254 -0.03948338
0.07193553 0.017345099 -0.026793046 0.066432476 0.029796243 -0.041777115 0.121788755 0.025485108
-0.07341409 0.07804725 0.07125708 -0.01002447 -0.11424532 -0.068873726 0.03276651 -0.038949188
0.05888007 0.016296024 -0.021435246 0.08868991 0.09709085 -0.09159115 0.016344778 0.06661441
-0.14089282 0.0006149223 -0.15520793 0.15298292 -0.021470277 -0.048188403 -0.095864564 0.16464464
-0.0039304057 -0.058188193 0.1330016 0.08429201 0.034593064 -0.11829282 0.22371513 -0.058536377
0.0554071 -0.07569978 0.11980896 -0.054437485 0.02264467 0.037632775 -0.02787927 -0.020513644
0.006173745 0.071668774 -0.039195985 -0.08699119 -0.03447863 0.05624799 -0.03123436 -0.04002052
-0.026409797 0.029093022 0.032580405 0.033610016 0.17428108 0.064425126 -0.10772172 0.09068183
-0.035645667 -0.09959165 0.094680615 -0.05995457 0.023530891 0.01592345 0.09028683 0.044077516
-0.026341427 -0.0027446176 0.11574846 0.019246107 0.044026617 0.0061481963 0.15968798 0.017153567
-0.040307995 0.110391244 0.04974868 -0.10870732 0.06087975 -0.00500334 0.057826813 0.047675855
0.0874769 0.011175519 0.0043981466 -0.015082262 -0.07502401 -0.05030506 -0.153751 -0.018469153
0.0869782 -0.05519679 -0.014442108 -0.0440106 -0.029678393 0.047354184 0.087905906 -0.05863935
-0.06900149 -0.009983422 0.036319923 -0.074626796 0.17024581 -0.12748487 -0.1260345 -0.010638551
0.11325189 -0.10712402 0.030789297 0.10297087 -0.0045052515 -0.031146247 -0.087785795 -0.056035392
-0.005434821 -0.076017044 0.18518198 0.043623153 0.056470796 0.029705364 -0.14530222 -0.028369483
0.18209723 0.02701137 -0.11251926 -0.0053627733 0.08684174 0.009578197 -0.053963944 0.06350166
-0.023297321 0.0085974075 -0.09673836 -0.100527905 0.09443158 -0.0649894 -0.018324642 0.06305944
0.0026862167 0.03890139 -0.056852184 -0.058928527 -0.20561966 0.072483994 0.078447916 -0.038925584
-0.024094505 0.103087984 -0.065890186 -0.114542924 0.0004743347 -0.05407698 0.08588096 0.16429156
0.017990453 0.002019126 -0.008712609 0.015255685 -0.034713704 0.14630887 -0.047520414 -0.12244655
-0.019737123 -0.041108124 -0.12619744 -0.040379502 -0.12224475 -0.15206352 0.1877917 0.09828165
00000000: dfe9 21be 036e 693d 19c2 563d 3bb0 8cbd
00000010: a5a7 75bd cb5b b73d be57 93bd 958a 62bd
00000020: a7e7 d8bc 9d49 0bbc 2c80 7e3b af88 6d3d
00000030: b7a2 db3c 1617 243e a202 fdbb 14cb 723d
00000040: ece0 773d dc7d 3c3d 5b52 f13d 8bab 7dbd
00000050: 4a27 4dbd 9eb1 a43c dda0 a5bd d8cd f43d
00000060: 3059 c6bc 109d 2e3e 08c9 59bd 2fe1 94bd
00000070: 4934 7bbd 2aa3 16bb 7486 293e fadc aa3d
00000080: 4c7c 1ebe 7f4c 623d 74bc 5e3d 6907 d73c
00000090: 0d0b d7bd e428 c73c f03e bc3c a6f1 87bd
000000a0: 5c66 ac3b 17ab 723d db99 cbbd bcad 98bc
000000b0: a313 8dbc c800 9a3c 9823 06be 15df 60bc
000000c0: 373e 0bbd 706c 283d 0925 103e 48f3 333c
000000d0: e576 50bc 12af 1e3d 89d4 3a3b 1860 1f3d
000000e0: d4f9 5b3e 6d5a f1bb f109 2d3e 8b2e 233c
000000f0: 9270 b03d 8b9d cbbb 9f4b c63c 48b3 62bd
00000100: f3b0 06bd 856c ce3c 73b2 b5bd 93ee c6bc
00000110: 3d53 823d 13ce 7d3d 35ec af3d fe70 0ebe
00000120: f8d1 75bd 23fa 233c 2f36 84bd e80d 0a3d
00000130: a767 a4bd 5d99 fe3b e043 c23a 53b9 21bd
00000140: ef52 933d 4f17 8e3c 177d dbbc c00d 883d
00000150: 4017 f43c 7b1e 2bbd 626c f93d 25c6 d03c
00000160: 205a 96bd 3dd7 9f3d 3bef 913d ad3d 24bc
00000170: 73f9 e9bd ab0d 8dbd 2d36 063d 2f89 1fbd
00000180: 3a2c 713d 3d7f 853c f898 afbc 0ea3 b53d
00000190: 91d7 c63d 2494 bbbd 7ce5 853c 236d 883d
000001a0: 3546 10be bd32 213a d4ee 1ebe 8ea7 1c3e
000001b0: 6fe2 afbc 3461 45bd a454 c4bd 9b98 283e
000001c0: a2ca 80bb be56 6ebd 9231 083e 4aa1 ac3d
000001d0: 75b1 0d3d 8243 f2bd 9415 653e d7c3 6fbd
000001e0: 8ef2 623d 7c08 9bbd 665e f53d d7f9 5ebd
000001f0: 5181 b93c d324 1a3d 1163 e4bc 3b0c a8bc
00000200: 204d ca3b 14c7 923d f88b 20bd 7028 b2bd
00000210: 7739 0dbd 4b64 663d 33df ffbc 8fec 23bd
00000220: 5c59 d8bc 7d54 ee3c 0873 053d a8aa 093d
00000230: bd76 323e 52f1 833d 359d dcbd 65b7 b93d
00000240: 3101 12bd b5f6 cbbd e9e7 c13d ec92 75bd
00000250: dbc3 c03c e571 823c 4de8 b83d a08a 343d
00000260: fac9 d7bc 0bdf 33bb 870d ed3d 03aa 9d3c
00000270: 4155 343d cf76 c93b 3f85 233e a385 8c3c
00000280: ff19 25bd ce14 e23d 46c5 4b3d f2a1 debd
00000290: 0b5d 793d 0ff3 a3bb cfdb 6c3d c247 433d
000002a0: 1727 b33d 8619 373c 541e 903b 981b 77bc
000002b0: 30a6 99bd ae0c 4ebd e770 1dbe 9f4c 97bc
000002c0: a021 b23d 0716 62bd 979e 6cbc 7544 34bd
000002d0: 1a20 f3bc 76f6 413d 0308 b43d d12f 70bd
000002e0: a750 8dbd 8291 23bc 33c4 143d efd5 98bd
000002f0: eb54 2e3e 658b 02be 300f 01be 514d 2ebc
00000300: 9bf0 e73d d763 dbbd d639 fc3c 64e2 d23d
00000310: caa0 93bb 6a26 ffbc 0ac9 b3bd 5e85 65bd
00000320: 9516 b2bb d3ae 9bbd 58a0 3d3e 31ae 323d
00000330: ec4d 673d aa58 f33c 1bca 14be 1e67 e8bc
00000340: b277 3a3e f346 dd3c 7f70 e6bd 34ba afbb
00000350: 15da b13d dfed 1c3c 4c09 5dbd 290d 823d
00000360: 06da bebc 24dc 0c3c c31e c6bd 93e1 cdbd
00000370: 5865 c13d 2a19 85bd 8f1d 96bc 4f25 813d
00000380: 3d0b 303b 1057 1f3d d6dd 68bd 0a5f 71bd
00000390: f68d 52be 7d72 943d 4da9 a03d 6f70 1fbd
000003a0: d761 c5bc cb1f d33d 6ff1 86bd 7b95 eabd
000003b0: 20b0 f839 d37f 5dbd 5be2 af3d 0c3c 283e
000003c0: b760 933c 5053 043b 55bf 0ebc fbf2 793c
000003d0: f52f 0ebd fed1 153e c4a4 42bd 42c5 fabd
000003e0: bfaf a1bc fe60 28bd e739 01be fa64 25bd
000003f0: 755b fabd 8ab6 1bbe 784c 403e e447 c93d

action_model._continuous_distribution.log_sigma f4 [1, 2]
0.0 0.0
00000000: 0000 0000 0000 0000

action_model._continuous_distribution.mu.weight f4 [2, 128]
0.02060294 -0.036330044 0.0035628458 0.00020219431 0.015212397 0.041809317 -0.025200063 -0.014831737
0.00030409213 0.010468092 0.01469852 0.0016810592 0.014886706 -0.016140958 -0.0021211256 -0.004568555
0.010208731 -0.00825265 -0.016235556 -0.003308878 0.010567621 0.01818538 0.021343736 -0.01384935
-0.014181919 0.00057409785 0.006092654 -0.0030862417 0.006389029 -0.007031216 -0.0047443835 0.032542236
-0.011555015 0.014646905 0.021789238 0.027468324 -0.0035155688 -0.021606347 -0.006958706 0.006132561
-0.010437652 -0.025477117 -0.015987964 0.0005228011 -0.004828118 -0.0048490376 0.0053321715 0.028035937
-0.028192705 0.011627307 0.024592565 0.025713278 -0.025954155 0.016728124 0.027531017 0.004971729
-0.032456905 0.009754221 0.011497021 -0.021855958 -0.018452074 0.007774646 0.0018608094 -0.016134541
-0.017807174 0.01608904 0.0021285077 0.018246159 -0.014414007 0.0083921505 0.01263396 0.000604603
0.022216478 -0.014776696 0.028153747 -0.012913746 -0.006793545 0.015404557 -0.004980423 -0.03187568
0.0108415065 0.021193663 0.00890743 -0.02838015 -0.016087588 -0.012408298 0.014490688 0.0040628053
-0.025416514 0.032446 -0.013210224 -0.02456798 0.0017885875 -0.021028554 -0.014891929 0.010646564
0.02072565 0.016231563 0.0017637828 0.017437216 0.005880774 -0.011607836 0.043704007 -0.016166084
-0.021429135 -0.0109524345 0.008836656 -0.008324438 -0.02076335 0.017787367 -0.009266773 0.015808444
0.013463757 0.027566021 -0.0052856123 -0.015220567 -0.005860304 -0.017906098 -0.013059388 -0.014138904
0.015078761 0.025029156 -0.0123594655 -0.01738152 -0.016101127 -0.034766186 0.027617244 -0.005161875
-0.008097879 0.0162537 -0.0039537284 -0.0009029245 0.024060322 0.009268396 0.010700031 -0.007175069
-0.005746673 -0.039563175 0.0023511534 -0.008857735 0.016230088 -0.0074420394 -0.015703406 -0.03462447
0.010134907 -0.011659135 -0.007832475 0.022526247 0.014226054 -0.0029595902 -0.023230737 -0.026044348
0.020369021 -0.005301254 0.025436452 0.0040946472 0.002166973 -0.0026749403 0.02089486 0.017258862
-0.0035822433 -0.01312903 0.019333282 -0.0235123 0.032909032 0.015930753 0.0137901725 -0.010835759
-0.017168133 -0.015523426 -0.01362056 0.0114963865 -0.008004943 -0.016347772 -0.0077095367 -0.0062512415
-0.0061277268 0.015779965 -0.0002551616 0.003705941 -0.024006704 -0.025559535 -0.035370003 0.016190749
-0.025740156 0.033071212 0.006085021 0.035400137 0.005798846 0.01784477 0.021945179 0.006887135
0.006812274 -0.0047652773 0.001041002 0.0144996885 -0.0030341248 -0.017942144 -0.005572444 -0.00639525
0.014772317 0.029679546 -0.00058051967 0.031899687 -0.020527316 0.019766748 -0.038027387 0.019938419
0.0013702319 0.02098552 0.008176572 0.00037071374 0.024321033 -0.008425204 0.011788306 0.036270693
-0.004477516 0.0016456482 0.007969458 -0.006962571 0.0327246 0.006250302 -0.0050532557 0.009078998
0.008109932 0.017389573 -0.024271516 0.0104831215 -0.00030689195 0.024931086 0.0011271951 0.016598227
-0.0067837844 -0.027260516 0.035309028 -0.015216762 0.014764115 0.026794672 -0.03511848 -0.021872208
-0.0017101084 -0.008076952 0.0060254657 -0.0049567097 0.02617583 -0.002436549 -0.020000007 -0.039245266
-0.021361828 -0.015724588 0.003711395 0.005120465 -0.013163081 0.0016441675 0.00057315617 -0.0063382923
00000000: 7fc7 a83c d0ce 14bd a27e 693b 1f04 5439
00000010: 6b3d 793c 3f40 2b3d 5d70 cebc d000 73bc
00000020: 8e6e 9f39 5c82 2b3c 10d2 703c fd56 dc3a
00000030: 5fe7 733c 0b3a 84bc 9502 0bbb d1b3 95bb
00000040: 8542 273c 1f36 07bc 6e00 85bc c3d9 58bb
00000050: d123 2d3c 82f9 943c 0fd9 ae3c 62e8 62bc
00000060: 485b 68bc 0e7f 163a e3a4 c73b 8b42 4abb
00000070: 0f5b d13b 1d66 e6bb c676 9bbb 024b 053d
00000080: 3f51 3dbc 92f9 6f3c 587f b23c 4005 e13c
00000090: 7565 66bb cbff b0bc db05 e4bb a6f3 c83b
000000a0: af02 2bbc 63b5 d0bc 31f9 82bc 970c 093a
000000b0: 3035 9ebb ade4 9ebb 7fb9 ae3b 9fab e53c
000000c0: 63f4 e6bc 7680 3e3c 5976 c93c a7a4 d23c
000000d0: cf9d d4bc 6b09 893c ba88 e13c e3e9 a23b
000000e0: 88f1 04bd 2bd0 1f3c 005e 3c3c 440b b3bc
000000f0: ce28 97bc 75c2 fe3b 67e6 f33a 962c 84bc
00000100: 5ae0 91bc 2acd 833c 6f7e 0b3b f878 953c
00000110: ba28 6cbc 3b7f 093c abfe 4e3c 387e 1e3a
00000120: 55ff b53c f519 72bc b0a2 e63c 2d94 53bc
00000130: 639c debb 6563 7c3c d132 a3bb 1390 02bd
00000140: 93a0 313c 559e ad3c 78f0 113c 7d7d e8bc
00000150: 1eca 83bc 2d4c 4bbc 5a6a 6d3c 4821 853b
00000160: 4b36 d0bc 19e6 043d b26f 58bc ca42 c9bc
00000170: 0a6f ea3a 1344 acbc 47fd 73bc ed6e 2e3c
00000180: d7c8 a93c 0ef8 843c bb2e e73a 7ed8 8e3c
00000190: 82b3 c03b cb2e 3ebc f902 333d bc6e 84bc
000001a0: 278c afbc d771 33bc 9fc7 103c 3963 08bc
000001b0: e717 aabc d0b6 913c aad3 17bc b680 813c
000001c0: 1797 5c3c 23d2 e13c ee32 adbb af5f 79bc
000001d0: cb07 c0bb cfaf 92bc 0bf7 55bc dda6 67bc
000001e0: e80c 773c f209 cd3c 5b7f 4abc b063 8ebc
000001f0: 83e6 83bc fd66 0ebd 8f3d e23c f224 a9bb
00000200: f7ac 04bc 7b26 853c 478e 81bb 3db2 6cba
00000210: 271a c53c 78da 173c 2f4f 2f3c d71c ebbb
00000220: 964e bcbb ff0c 22bd cf15 1a3b 0920 11bc
00000230: f6f4 843c 5adc f3bb 6ea4 80bc 63d2 0dbd
00000240: e20c 263c f505 3fbc c853 00bc f788 b83c
00000250: 6514 693c aff5 41bb 634e bebc f55a d5bc
00000260: efdc a63c 24b6 adbb 1b60 d03c 642c 863b
00000270: c603 0e3b 0d4e 2fbb b32b ab3c 7562 8d3c
00000280: 12c4 6abb 251b 57bc d560 9e3c de9c c0bc
00000290: 9fcb 063d 3681 823c 2df0 613c 7888 31bc
000002a0: 2fa4 8cbc f855 7ebc c528 5fbc 575b 3c3c
000002b0: 2a27 03bc c3eb 85bc 48a0 fcbb 37d7 ccbb
000002c0: 19cb c8bb fc44 813c 36c7 85b9 5fdf 723b
000002d0: b5a9 c4bc 3b62 d1bc 23e0 10bd 76a2 843c
000002e0: 05dd d2bc ae75 073d db64 c73b bcff 103d
000002f0: 3f04 be3b 322f 923c 60c6 b33c 7aad e13b
00000300: 7f39 df3b 0b26 9cbb 3b72 883a 1a90 6d3c
00000310: 2bd8 46bb 67fb 92bc 0c99 b6bb 3f8f d1bb
00000320: 9707 723c 8522 f33c 042e 18ba 3fa9 023d
00000330: e728 a8bc e0ed a13c 9bc2 1bbd e555 a33c
00000340: 5a99 b33a d3e9 ab3c 07f7 053c 5b5c c239
00000350: e73c c73c de09 0abc bd23 413c 9490 143d
00000360: 20b8 92bb cab2 d73a 5492 023c 4726 e4bb
00000370: 3b0a 063d 55cf cc3b c895 a5bb 14c0 143c
00000380: 85df 043c 9474 8e3c 0fd5 c6bc 66c1 2b3c
00000390: 57e6 a0b9 473c cc3c 64be 933a 01f9 873c
000003a0: 824a debb 7251 dfbc 33a0 103d ba4f 79bc
000003b0: 30e5 713c 8080 db3c 65d8 0fbd 582d b3bc
000003c0: b725 e0ba 3155 04bc 4571 c53b e56b a2bb
000003d0: b26e d63c 82ae 1fbb 0ed7 a3bc a5bf 20bd
000003e0: 00ff aebc dad0 80bc e03a 733b 93c9 a73b
000003f0: f7a9 57bc 1b81 d73a dc3f 163a 73b1 cfbb

action_model._continuous_distribution.mu.bias f4 [2]
0.0 0.0
00000000: 0000 0000 0000 0000

action_model._discrete_distribution.branches.0.weight f4 [1, 128]
-0.00223157 0.011605354 0.0030899346 0.004999194 -0.010384711 0.0009910383 0.00017797871 0.006018411
-0.008454489 0.008697641 -0.014342989 0.00035505576 0.0053526144 -0.0032506213 0.0046542482 0.0025159603
0.008377727 0.017168092 -0.010840006 0.002883244 -0.011635269 0.007307045 -0.0014940747 -0.0030351698
0.009615149 0.013507167 0.013970554 -0.0114763845 0.017708903 0.009669731 0.013344175 0.0013685907
-0.00039240252 0.01441741 -0.00065935974 -0.0006706047 0.0030783988 0.0067357197 0.0034013812 0.008836548
0.0076730433 -0.0044402056 -0.0014256117 0.009718194 -0.00038481673 0.0024815735 0.0074692443 -0.003067375
0.0018284641 -0.0021719013 0.009189663 0.005272459 0.027116407 -0.009246041 -0.0033276107 -0.0053093075
-0.004856087 -0.006295778 0.005633074 -0.006476617 -0.0009310056 -0.003935903 0.012438255 0.0033238549
-0.0142341275 0.005988943 0.0013783197 0.006539368 0.000107603126 0.014432559 -0.009863011 -0.0030746579
-0.007380684 0.0015959789 0.010482129 -0.0015194307 0.010943976 0.0036968512 0.006225468 -0.009379627
0.004622474 -0.011288306 -0.00045931555 0.004285228 0.0020086386 -0.00236582 -0.005860286 0.0029679637
0.008966078 -0.007423571 0.00041498963 -0.018289154 0.0046037044 0.0020104898 -0.0017206622 -0.011188728
0.006814 -0.007696263 0.0024469558 -0.0068919803 -0.0034607896 -0.0033065088 0.01074665 0.0020413036
-0.00416612 0.0031270396 0.00018881592 0.0015566656 0.0045293765 0.006969381 -0.0047332533 -0.01409193
-0.0060763797 0.008914492 0.010817968 -0.018353565 0.007032762 0.0024687997 -0.0007959205 0.015184446
-0.0010501938 -0.02067556 0.01062074 -0.008421989 0.0077047558 -0.003865607 -0.011562179 0.0048064874
00000000: 883f 12bb 6224 3e3c 8080 4a3b 47d0 a33b
00000010: a324 2abc bae5 813a cc9f 3a39 1736 c53b
00000020: b284 0abc 8d80 0e3c dbfe 6abc c726 ba39
00000030: fc64 af3b 6008 55bb aa82 983b cfe2 243b
00000040: bc42 093c 19a4 8c3c 489a 31bc cff4 3c3b
00000050: dba1 3ebc f06f ef3b d4d4 c3ba b3e9 46bb
00000060: dc88 1d3c 2a4d 5d3c c0e4 643c 7207 3cbc
00000070: 4312 913c cb6d 1e3c 87a1 5a3c 4962 b33a
00000080: 60bb cdb9 0037 6c3c e2d8 2cba 85cb 2fba
00000090: f6be 493b 50b7 dc3b b5e9 5e3b 2bc7 103c
000000a0: 276e fb3b 257f 91bb 97db baba 0f39 1f3c
000000b0: 3ac1 c9b9 e5a1 223b 90c0 f43b 0306 49bb
000000c0: 13a9 ef3a 7556 0ebb 3e90 163c 97c4 ac3b
000000d0: 3a23 de3c b57c 17bc 0b14 5abb b3f9 adbb
000000e0: cf1f 9fbb d04c cebb a695 b83b cd39 d4bb
000000f0: ba0e 74ba bff8 80bb d3c9 4b3c 08d5 593b
00000100: 4236 69bc e53e c43b bca8 b43a 3248 d63b
00000110: fda8 e138 8a76 6c3c 7798 21bc 3380 49bb
00000120: aad9 f1bb 2a30 d13a 3cbd 2b3c a227 c7ba
00000130: 5d4e 333c df46 723b 03ff cb3b 02ad 19bc
00000140: 1f78 973b 96f2 38bc 4ad0 f0b9 196b 8c3b
00000150: 5da3 033b e00b 1bbb a407 c0bb 2b82 423b
00000160: 75e6 123c 6d41 f3bb f792 d939 23d3 95bc
00000170: acda 963b 6cc2 033b d887 e1ba ed50 37bc
00000180: fa47 df3b ef30 fcbb 1b5d 203b 1fd6 e1bb
00000190: 6ace 62bb 03b2 58bb b812 303c 64c7 053b
000001a0: f383 88bb 05ef 4c3b e3fc 4539 0809 cc3a
000001b0: 2a6b 943b 685f e43b 6819 9bbb d7e1 66bc
000001c0: 5e1c c7bb 170e 123c d93d 313c 375a 96bc
000001d0: 1573 e63b 96cb 213b 52a5 50ba 2fc8 783c
000001e0: a8a6 89ba cb5f a9bc 9d02 2e3c 62fc 09bc
000001f0: 2d78 fc3b 2056 7dbb 4b6f 3dbc bd7f 9d3b

onnx::Div_70 f4 [12]
1.0 1.0 1.0 1.0 1.0 1.0 1.0 1.0
1.0 1.0 1.0 1.0
00000000: 0000 803f 0000 803f 0000 803f 0000 803f
00000010: 0000 803f 0000 803f 0000 803f 0000 803f
00000020: 0000 803f 0000 803f 0000 803f 0000 803f
