results/SlayRL_1000/SlayTheSquire_RL/checkpoint.pt (torch, 466475 bytes, 47 tensors)

network_body.observation_encoder.processors.0.normalizer.running_mean f4 [12]
0	0x3f763128	0.96168756
1	0xbe8a2555	-0.26981607
2	0x3b054cd5	0.0020339985
3	0x3f7ff350	0.9998064
4	0xbefaa1d2	-0.48951584
5	0xbe284f4c	-0.164365
6	0xbee14142	-0.439951
7	0xbeaa85f4	-0.33305323
8	0xb6296087	-2.5239149e-06
9	0xbebb18a1	-0.36542228
10	0xbeab2b09	-0.3343127
11	0xbdbd0b81	-0.0923071

network_body.observation_encoder.processors.0.normalizer.running_variance f4 [12]
0	0x42871892	67.54799
1	0x445857d7	865.3725
2	0x3f873db0	1.05657
3	0x424eb0c9	51.67264
4	0x47c160f8	99009.94
5	0x47549415	54420.082
6	0x47beac6c	97624.84
7	0x47abe54e	88010.61
8	0x3fffffcf	1.9999942
9	0x47b372db	91877.71
10	0x47ac384d	88176.6
11	0x4701ae13	33198.074

network_body.processors.0.normalizer.running_mean f4 [12]
0	0x3f763128	0.96168756
1	0xbe8a2555	-0.26981607
2	0x3b054cd5	0.0020339985
3	0x3f7ff350	0.9998064
4	0xbefaa1d2	-0.48951584
5	0xbe284f4c	-0.164365
6	0xbee14142	-0.439951
7	0xbeaa85f4	-0.33305323
8	0xb6296087	-2.5239149e-06
9	0xbebb18a1	-0.36542228
10	0xbeab2b09	-0.3343127
11	0xbdbd0b81	-0.0923071

network_body.processors.0.normalizer.running_variance f4 [12]
0	0x42871892	67.54799
1	0x445857d7	865.3725
2	0x3f873db0	1.05657
3	0x424eb0c9	51.67264
4	0x47c160f8	99009.94
5	0x47549415	54420.082
6	0x47beac6c	97624.84
7	0x47abe54e	88010.61
8	0x3fffffcf	1.9999942
9	0x47b372db	91877.71
10	0x47ac384d	88176.6
11	0x4701ae13	33198.074

network_body._body_endoder.seq_layers.0.weight f4 [128, 12]
0	0xbd689c2f	-0.056789573
1	0x3db08b37	0.08620303
2	0x3ea75747	0.32683775
3	0xbe8380e1	-0.25684264
4	0xbdd5715c	-0.10422012
5	0xbb4230e5	-0.0029631194
6	0x3e86e0fe	0.2634353
7	0xbe6691cf	-0.22516559
8	0xbeedd752	-0.4645334
9	0x3f28a5ee	0.6587819
10	0x3e18e7c2	0.14932159
11	0x3e1f7c1b	0.15574686
12	0x3e4ffd47	0.20311461
13	0x3e0c2994	0.13687736
14	0x3f32902f	0.69751257
15	0xbc91e7bd	-0.017810697
16	0x3e91ee59	0.28502157
17	0x3e856a2b	0.26057562
18	0xbe6d7973	-0.2319086
19	0xbc7a8a01	-0.015291692
20	0x3da6b287	0.0813952
21	0xbf2049ab	-0.6261241
22	0x3ddda3b9	0.10822243
23	0xbf098c67	-0.5372986
24	0x3e43a39e	0.19105384
25	0xbe749742	-0.23885825
26	0x3d6f7154	0.058457687
27	0xbd93fce0	-0.072259665
28	0xbe0c8c49	-0.1372539
29	0xbe564f5f	-0.20928715
30	0xbe86b7d6	-0.2631213
31	0xbde010d1	-0.109407075
32	0x3e392a84	0.18082625
33	0xbd5a6033	-0.0533144
34	0xbdc2b264	-0.095066816
35	0xbf1c708b	-0.61109227
36	0xbed3c33d	-0.41359892
37	0x3e0cb424	0.13740593
38	0x3e3450b3	0.1760891
39	0xbe6cffe8	-0.23144495
40	0xbeb59f38	-0.35473037
41	0xbe16d0da	-0.14728108
42	0xbe14006d	-0.14453287
43	0xbd13de48	-0.036100656
44	0xbd710442	-0.05884195
45	0x3ee3b180	0.4447136
46	0xbe012095	-0.12610085
47	0x3ea11657	0.31462356
48	0x3e4fe57d	0.20302387
49	0x3d9ce713	0.076612614
50	0xbe160aa7	-0.14652501
51	0xbc0bd194	-0.008533854
52	0xbe1ae3d7	-0.15125977
53	0xbd9a7be7	-0.07543164
54	0x3e9e60ca	0.3093322
55	0xbc860673	-0.016360497
56	0x3edbde10	0.42942858
57	0xbdf82874	-0.12117091
58	0x3e82c0c8	0.25537705
59	0x3f203675	0.62583095
60	0xbe12541b	-0.14289896
61	0x3e3775d5	0.17916043
62	0xbf3b161c	-0.7308061
63	0xbdb7b99b	-0.08970948
64	0xbd0a5c92	-0.03377969
65	0xbdcb3357	-0.09921902
66	0x3d427d15	0.04748257
67	0x3e965b6d	0.29366627
68	0x3db0c7cc	0.08631858
69	0xbe0c5f2d	-0.13708182
70	0x3e1965a5	0.1498018
71	0xbd38fd8b	-0.045163672
72	0xbd3a4b40	-0.04548192
73	0xbe4ff182	-0.20306972
74	0x3e143d25	0.1447645
75	0xbedc83bf	-0.43069264
76	0xbe20e2e5	-0.15711553
77	0xbe397485	-0.18110855
78	0x3df927c3	0.12165787
79	0xbdeb8ce9	-0.11501486
80	0xbc6aad47	-0.014323539
81	0xbdfdbf46	-0.12389998
82	0x3d7e421b	0.06207476
83	0x3ec8b188	0.39197946
84	0xbdbbb10f	-0.091646306
85	0x3e28d11d	0.1648602
86	0xbe31c1e5	-0.17359121
87	0x3dbc7a80	0.092030525
88	0xbed4637c	-0.4148215
89	0xbecbf813	-0.39837703
90	0xbdd31b4a	-0.10307939
91	0xbd74d9d9	-0.05977807
92	0xbe594cef	-0.21220754
93	0x3ef3ddb4	0.47630084
94	0x3e0d6965	0.13809736
95	0xbd104724	-0.035224095
96	0xbe7e7305	-0.24848564
97	0xbe76d319	-0.24103965
98	0x3c6b102c	0.014347117
99	0x3ea58cdd	0.32334033
100	0x3ec25839	0.37957934
101	0x3d7c50ec	0.06160061
102	0xbdf95414	-0.1217424
103	0x3eec635a	0.4616955
104	0x3e0a932c	0.13532704
105	0x3e90e2aa	0.2829793
106	0x3d8ae3b4	0.06781712
107	0xbddc7b9a	-0.107657626
108	0x3df567a1	0.11982656
109	0xbe879be4	-0.26486123
110	0xbe4e02af	-0.20118211
111	0xbd616efe	-0.05503749
112	0xbe1af5f3	-0.15132885
113	0x3dd9414e	0.10608159
114	0xbe44bef8	-0.19213474
115	0x3e2b867a	0.16750517
116	0x3f17e966	0.5934051
117	0x3dddf512	0.10837759
118	0x3e4839a7	0.19553243
119	0x3e87bae1	0.26509765
120	0xbd36ed6a	-0.04466001
121	0x3dbbe082	0.09173681
122	0x3df6e150	0.12054694
123	0xbed3161a	-0.412278
124	0xbb406442	-0.0029356633
125	0xbd9460d4	-0.07245031
126	0xbe515aed	-0.20444842
127	0xbf034941	-0.5128365
128	0x3edd064d	0.4316887
129	0xbe777be4	-0.24168354
130	0x3eaab6d2	0.33342606
131	0x3d365ba6	0.044520997
132	0xbe80fc96	-0.25192708
133	0xbc60cc93	-0.013720649
134	0x3ea91160	0.3302107
135	0x3e7ceb73	0.24699192
136	0x3e4acab6	0.1980389
137	0xbe3c9b34	-0.1841858
138	0xbe114811	-0.14187647
139	0x3d6542c2	0.05597187
140	0x3eea2b39	0.457361
141	0xbed7e827	-0.42169306
142	0xbf05d8ce	-0.5228394
143	0xbd7d9eea	-0.06191913
144	0xbe9d71cf	-0.30750892
145	0xbed69583	-0.41910943
146	0xbeb87fc5	-0.3603498
147	0xbe1dc100	-0.15405655
148	0xbeb74d9b	-0.35801396
149	0xbd5a4ce0	-0.05329597
150	0xbe5a1c4e	-0.2129986
151	0x3e8bf83b	0.27337822
152	0xbe1b53e5	-0.15168722
153	0x3d8dc445	0.06922201
154	0x3dc12767	0.094313435
155	0xbde2ce4d	-0.11074505
156	0x3f2fd04a	0.686772
157	0xbececaa7	-0.40388986
158	0x3f02a626	0.5103477
159	0x3ce4a84f	0.027912287
160	0xbeb0254b	-0.34403452
161	0xbf0abf59	-0.54198223
162	0x3f177262	0.5915891
163	0x3e51104d	0.20416375
164	0x3e3b9f5e	0.18322513
165	0x3f04620c	0.5171211
166	0xbec78ed7	-0.38976166
167	0x3d0097ff	0.031394955
168	0xbe806167	-0.25074312
169	0x3f005ab8	0.50138426
170	0x3ece1955	0.40253702
171	0xbdd2c5f0	-0.1029166
172	0x3d6c391f	0.057671662
173	0x3ed42dd7	0.41441223
174	0xbdfdba44	-0.12389043
175	0x3e22a6b5	0.15883906
176	0xbc887154	-0.016655602
177	0xbf1be70d	-0.6089943
178	0x3d9d018e	0.07666312
179	0x3eaf4713	0.34233913
180	0x3e89a003	0.26879892
181	0x3ecb56a6	0.39714545
182	0xbdd8c9c2	-0.10585357
183	0xbe2cf772	-0.16891268
184	0xbe895085	-0.26819244
185	0xbdc97dea	-0.09838469
186	0xbe84a2d5	-0.2590548
187	0xbd6f280a	-0.058387794
188	0x3e2a225b	0.16614668
189	0xbe09b5d4	-0.13448268
190	0xbea7a9dd	-0.32746783
191	0xbf3acc8d	-0.7296837
192	0x3d02b007	0.031906154
193	0x3dc86a18	0.09785861
194	0xbdcd21a6	-0.100161836
195	0x3e71008b	0.23535363
196	0xbdcb7dd6	-0.09936111
197	0x3d046500	0.032322884
198	0xbeb59329	-0.35463837
199	0x3e64b452	0.22334412
200	0x3e769176	0.24078926
201	0xbdbf20d1	-0.09332431
202	0x3e12668c	0.14296931
203	0x3f1f0e5f	0.62131304
204	0x3d8cb777	0.06870931
205	0x3eb4bf89	0.3530238
206	0xbd67ad12	-0.056561537
207	0xbe454a03	-0.19266514
208	0x3cd94cf4	0.026525952
209	0xbe519a3a	-0.20468989
210	0x3e938434	0.288118
211	0x39fd655e	0.00048331445
212	0x3e651532	0.22371367
213	0x3f0af66e	0.5428227
214	0xbe7b40ae	-0.24536392
215	0x3e4c82d7	0.19971786
216	0x3edc711a	0.4305504
217	0x3e4867cd	0.19570847
218	0xbf39701b	-0.72436684
219	0xbe264497	-0.16237102
220	0xbe9e36ca	-0.30901176
221	0xbe064aba	-0.13114443
222	0x3ea808ba	0.32819158
223	0x3df68c30	0.120384574
224	0x3e3d6fa1	0.18499614
225	0x3e5d03de	0.21583506
226	0x3df4630f	0.119329564
227	0x3e6e90be	0.23297402
228	0xbecd1f2b	-0.40062842
229	0x3e8678f0	0.26264143
230	0x3dbeb20b	0.09311303
231	0x3dfa61a1	0.122256525
232	0xbc1460b1	-0.009056256
233	0xbe245eb3	-0.1605175
234	0xbebfcff3	-0.3746334
235	0xbe084925	-0.13309152
236	0x3e438b10	0.19096017
237	0xbeac963a	-0.33708364
238	0xbdff2634	-0.124584585
239	0x3e367d17	0.17821155
240	0xbe935c03	-0.28781137
241	0xbcccbba5	-0.02499182
242	0x3eb1d3eb	0.34731993
243	0xbf01a903	-0.50648516
244	0xbe1c58cb	-0.15268247
245	0x3c10167a	0.008794421
246	0x3e9f9a26	0.31172293
247	0xbe90a6f8	-0.28252387
248	0xbe2102a6	-0.15723667
249	0x3d04b663	0.0324005
250	0xbe0a227c	-0.13489717
251	0x3e8c9ba1	0.27462485
252	0x3ed95cbd	0.42453566
253	0xbeeb57ba	-0.45965368
254	0xbe52021a	-0.20508614
255	0xbea64d45	-0.32480827

network_body._body_endoder.seq_layers.0.bias f4 [128]
0	0x3dad641e	0.084663615
1	0xbc617d1f	-0.013762741
2	0xbcaf28bb	-0.021381726
3	0x3d2808ed	0.041024137
4	0x3daab3ce	0.08335076
5	0x3c4a6ca7	0.012355006
6	0x3d4216e8	0.047385126
7	0xbc357c15	-0.011076947
8	0xbd3f06e3	-0.046637427
9	0xbd872b6a	-0.066000775
10	0x3cb93827	0.022609783
11	0xbd580b05	-0.052744884
12	0x3d565fba	0.052337386
13	0x3d88ca05	0.06679157
14	0xbd1331a5	-0.035936017
15	0x3d0e4f6d	0.034743715
16	0x3d120b29	0.035655174
17	0x3dd1d35e	0.10245393
18	0x3c48152c	0.012212079
19	0x3d5e8d6a	0.05433408
20	0x3cc7aa7c	0.024373285
21	0xbd14626e	-0.036226682
22	0x3cfd4333	0.030915832
23	0xbca3272a	-0.019916136
24	0xbd5603d3	-0.05224974
25	0xbc42d0fa	-0.011890644
26	0x3d53f21c	0.051744565
27	0x3cc5df5b	0.024154356
28	0xbcb585d7	-0.022158546
29	0xbd4eaa85	-0.05045559
30	0x3c554023	0.01301578
31	0x3c161376	0.009159913
32	0xbcaa35bb	-0.020777574
33	0x3bb822b6	0.0056193722
34	0xbdae5f30	-0.08514249
35	0xbd227d25	-0.03967013
36	0x3c315ffe	0.010826109
37	0xbce52510	-0.027971774
38	0x3c359fbf	0.01108545
39	0x3c5ffb98	0.0136708245
40	0x3d91603c	0.070984334
41	0x3cec0a3b	0.028813472
42	0xbc66f39c	-0.014096167
43	0x3da6d856	0.081467316
44	0x3c9fce36	0.019507509
45	0x3cdb22d5	0.026750008
46	0x3d773266	0.060350798
47	0xba816f31	-0.0009875057
48	0x3c5387ce	0.012910796
49	0x3ce2fd2e	0.027708616
50	0xbd85f5d5	-0.06541029
51	0xbd3027bb	-0.04300664
52	0xbd37cc2e	-0.044872455
53	0x3cb1ef04	0.021720417
54	0xbd60d8d7	-0.054894295
55	0x3d333be8	0.043758303
56	0xbcd4701a	-0.02593236
57	0xbc6a91df	-0.014317005
58	0x3d145b6d	0.036220003
59	0xbc226726	-0.009912288
60	0x3c25415e	0.0100863855
61	0x3cd60a32	0.026127908
62	0x3c992c7b	0.018697968
63	0x3b8020ec	0.0039101746
64	0x3a4ad80b	0.00077378814
65	0xbd4f6439	-0.05063269
66	0xbcdb35be	-0.026759025
67	0x3d24ec11	0.040264193
68	0x3d00b8b0	0.03142613
69	0x3bcfc4f0	0.0063406155
70	0x3d976657	0.07392567
71	0x3cc6be5c	0.024260692
72	0x3da2b3bf	0.0794444
73	0xbc74a73c	-0.01493245
74	0x3b6c7854	0.0036082463
75	0x3bd20646	0.0064094393
76	0x3a5206f4	0.00080119004
77	0xbc693b97	-0.014235399
78	0x3d125b3a	0.03573153
79	0x3d14a912	0.03629405
80	0x3ca88978	0.020573363
81	0x3c9cc320	0.019136012
82	0x3cb364a4	0.021898575
83	0x3cdf4a82	0.027257208
84	0xbc85ea23	-0.016346997
85	0x3d180dd4	0.037122563
86	0x3cf0a8d3	0.029377377
87	0x3ce88f83	0.028388744
88	0xbda13985	-0.07872299
89	0x3c85300a	0.016258258
90	0x3bf51c3f	0.007480174
91	0x3cffe204	0.031235702
92	0x3bd11f02	0.0063818702
93	0x3c94d6b9	0.018168794
94	0x3d5f301a	0.054489233
95	0xbd4c745f	-0.049915668
96	0x3baa92d4	0.0052054916
97	0xbc19c3db	-0.0093850745
98	0x3c6e2b0e	0.014536632
99	0xbd3156e0	-0.04329574
100	0x3b105a34	0.0022026422
101	0x3c9f45ae	0.019442406
102	0xbd396efb	-0.045271855
103	0x3d1e5160	0.038651824
104	0xbc741cb7	-0.014899424
105	0x3ca942d3	0.020661747
106	0x3d153707	0.03642943
107	0x3ce7afd4	0.028282084
108	0x3db89918	0.09013575
109	0x3d08334b	0.03325204
110	0xbb4f3690	-0.0031618215
111	0x3dbf3211	0.09335721
112	0x3cd18454	0.025575794
113	0x3dacd7eb	0.084396206
114	0x3d82ad57	0.06380718
115	0x3c768a73	0.015047657
116	0xbd5d1066	-0.053970717
117	0x3b6ccca2	0.0036132713
118	0x3d92c50c	0.0716649
119	0x3d603762	0.054740317
120	0xbcd1553e	-0.025553342
121	0x3d1c3aa8	0.038141876
122	0x3c106304	0.00881267
123	0x3cbde4cd	0.02318039
124	0x3d9fcf80	0.07803249
125	0xbd32efbd	-0.043685663
126	0xbc731934	-0.014837552
127	0x3d402522	0.046910413

network_body._body_endoder.seq_layers.2.weight f4 [128, 128]
0	0x3e05a0e1	0.13049652
1	0x3d70ee6e	0.058821134
2	0xbe3e39d3	-0.18576746
3	0x3dab100c	0.0835267
4	0xbdb3d838	-0.08781475
5	0xbcec7c21	-0.028867783
6	0x3ccbe15f	0.024887739
7	0x3d8cb1fe	0.06869887
8	0x3d9b2dc9	0.07577092
9	0x3b0ff428	0.0021965597
10	0xbd87698e	-0.0661193
11	0xbe34348d	-0.17598172
12	0xbdd36320	-0.10321641
13	0x3ca7c7d3	0.020481026
14	0x3e19c72e	0.15017387
15	0xbdf4e3e4	-0.11957529
16	0x3b10504c	0.0022020517
17	0x3dd8b5fc	0.10581586
18	0xbd8c8fed	-0.06863389
19	0xbe4ff480	-0.20308113
20	0xbc9cb3a2	-0.019128624
21	0x3dd82592	0.10554041
22	0xbcddbe9e	-0.027068432
23	0x3caf6dfc	0.02141475
24	0x3e00f4c3	0.12593369
25	0x3d76179d	0.060081113
26	0x3d1ed1e2	0.03877438
27	0xbe69afbe	-0.22820947
28	0x3e316a32	0.17325667
29	0x3df0de2f	0.11761128
30	0x3c56e0a1	0.013115079
31	0x3da0807b	0.07837006
32	0x3c958dab	0.01825603
33	0xbd579e20	-0.052641034
34	0xbdc6aeb3	-0.0970129
35	0x3dead56d	0.11466489
36	0xbd4e3a2e	-0.050348453
37	0x3d990d2a	0.07473214
38	0xbd6c082a	-0.057624973
39	0xbdc261b1	-0.094912894
40	0xbb4cb1c6	-0.003123389
41	0xbe86284c	-0.2620262
42	0x3e09f054	0.13470584
43	0xbba6275f	-0.0050706114
44	0xbd6b14dd	-0.057392944
45	0xbe041ec9	-0.12902369
46	0xbdcc3791	-0.09971536
47	0x3d12bdc1	0.035825495
48	0x3d7dfe45	0.06201007
49	0xbe344ce3	-0.17607455
50	0xbd002ae7	-0.031290915
51	0x3d444c4f	0.047924336
52	0x3b37cf66	0.0028047203
53	0xbca7db0b	-0.02049019
54	0xbdb2edc6	-0.08736758
55	0x3de415f6	0.11137001
56	0x3d9a0b60	0.07521701
57	0x3e24c032	0.16088942
58	0xbddc1691	-0.10746492
59	0xbdb11e14	-0.08648315
60	0xbcedf1e1	-0.029046
61	0xbd0cb364	-0.034350768
62	0x3c083f99	0.008315944
63	0xbd82ca6c	-0.06386265
64	0xbe170ba4	-0.14750534
65	0xbd51c4de	-0.051213138
66	0xbd257b4c	-0.04040079
67	0x3ce3ab0c	0.027791522
68	0x3ca92996	0.020649713
69	0x3d302503	0.043004047
70	0x3e789c1b	0.242783
71	0xbe488006	-0.19580087
72	0x3bec8788	0.007218305
73	0xbcc6d589	-0.024271743
74	0xbc83350b	-0.016016504
75	0xbdb3e029	-0.087829895
76	0x3e0bed9c	0.1366486
77	0xbe04569c	-0.12923664
78	0xbaf309ac	-0.0018542311
79	0xbd466303	-0.04843427
80	0xba565664	-0.00081763254
81	0xbddba870	-0.10725486
82	0xbe22a82f	-0.1588447
83	0x3d7e60b6	0.06210395
84	0xbe1a3632	-0.15059736
85	0xbd8de02e	-0.069275245
86	0xbdacbbd3	-0.08434262
87	0xbe2584fb	-0.1616401
88	0x3cfd1488	0.03089358
89	0x3b6f0541	0.0036471637
90	0xbd1b48df	-0.037911292
91	0xbdd1e016	-0.10247819
92	0xbe40f7a4	-0.18844467
93	0x3ae298b7	0.0017287944
94	0xbd3dda10	-0.04635054
95	0x3c2a77b7	0.010404519
96	0x3d21235f	0.039340373
97	0x3c69ebf9	0.014277452
98	0xbc007174	-0.007839549
99	0x3def5ead	0.1168798
100	0xbc803a7e	-0.015652891
101	0xbc708a11	-0.014681355
102	0xbd9d1b11	-0.07671178
103	0xbda88189	-0.08227832
104	0xbbf13295	-0.007360766
105	0x3e1716d9	0.1475481
106	0x3e31692e	0.17325279
107	0xbe360726	-0.17776164
108	0xbdd66fd2	-0.10470547
109	0xbe16a6fa	-0.14712134
110	0x3cf7d59d	0.030253226
111	0x3d48f6bb	0.049063426
112	0xbde4421f	-0.11145424
113	0x3d733241	0.059374098
114	0x3d5647b5	0.05231448
115	0xbe5c713f	-0.21527575
116	0x3c86d9b2	0.016461227
117	0xbd059108	-0.032609016
118	0xbe637cfc	-0.22215647
119	0x3da6b32d	0.08139644
120	0x3dbedc89	0.093194075
121	0xbe0aa2a0	-0.13538599
122	0xbe39dc35	-0.18150409
123	0xbd4e4bdd	-0.050365318
124	0x3d0bf44a	0.03416852
125	0xbdc65f5b	-0.09686156
126	0x3d8a3fc4	0.067504436
127	0xbd893176	-0.06698887
128	0xbd203907	-0.039116886
129	0xbca678a3	-0.020321196
130	0xbcf492b4	-0.02985511
131	0x3d213faa	0.039367355
132	0x3ac9b3aa	0.0015388627
133	0xbd158d42	-0.036511667
134	0xbce1b357	-0.027551336
135	0x3e2fab50	0.17155194
136	0x3cb7d1c9	0.0224389
137	0x3d844050	0.06457579
138	0xbdd366f4	-0.10322371
139	0xbd87fc3f	-0.06639909
140	0x3e241f2f	0.1602752
141	0xbcc403d9	-0.023927616
142	0xbcd652c3	-0.02616251
143	0xbe1a853f	-0.15089892
144	0x3cdeebd3	0.02721206
145	0xbc6fdf9b	-0.014640714
146	0xbdaba991	-0.083819516
147	0xbca8e14c	-0.020615242
148	0x3de87946	0.11351256
149	0xbd13d9f3	-0.036096524
150	0x3d8fb66a	0.070172146
151	0x3e0e0e58	0.13872659
152	0x3ccd3a94	0.025052346
153	0x3e306118	0.17224538
154	0xbd15857e	-0.03650426
155	0x3c8f505f	0.017494379
156	0xbe889aaa	-0.266805
157	0xbd9870ae	-0.07443367
158	0x3dbd1509	0.09232528
159	0xbb8dec55	-0.0043311515
160	0x3e5c851c	0.21535152
161	0x3e4374a8	0.1908747
162	0x3d9e82cf	0.077397935
163	0xbdf8c680	-0.12147236
164	0xbccf7164	-0.025322624
165	0xbdb66693	-0.08906283
166	0x3de76e29	0.11300308
167	0xbdb56398	-0.088568866
168	0xbe07f8b2	-0.13278463
169	0x3b426d1d	0.0029667087
170	0xbd87c063	-0.06628492
171	0xbda31ea0	-0.07964826
172	0xbdd9f471	-0.106423266
173	0x3d8a637b	0.06757256
174	0x3d9b6686	0.07587914
175	0xbe09d9cb	-0.13461988
176	0xbdfcac3e	-0.1233754
177	0x3d6434d6	0.05571445
178	0xbc0240b6	-0.007949999
179	0x3d57bc57	0.05266985
180	0xbc7691da	-0.015049422
181	0x3dda5831	0.106613524
182	0x3e23c8ce	0.1599457
183	0xbdd9fe66	-0.10644226
184	0xbe548768	-0.20754778
185	0x3cad0fbc	0.021125667
186	0x3d84a95d	0.06477616
187	0x3d071725	0.032981057
188	0x3d96c57a	0.073618844
189	0x3d187148	0.03721741
190	0xbd4886fc	-0.048956856
191	0x3df7431d	0.12073348
192	0xbdc58a37	-0.09645503
193	0x3d919bc1	0.07109786
194	0x3c325dc4	0.010886613
195	0x3e18a035	0.14904864
196	0xbda3d8d7	-0.08000343
197	0x3da582c0	0.08081579
198	0xbdaea783	-0.08528044
199	0x3d275eab	0.040861767
200	0xbd8bb34e	-0.06821309
201	0xbe0d77d2	-0.13815239
202	0x3d38175a	0.044944145
203	0x39dd3932	0.0004219502
204	0xbdca0c28	-0.098656
205	0x3cedb6d1	0.029017838
206	0x3daac1c4	0.08337739
207	0x3dc74080	0.09729099
208	0xbe1032eb	-0.14081924
209	0xbd43bca5	-0.047787327
210	0xbdf761b1	-0.1207918
211	0xbd1f9601	-0.038961414
212	0xbdaf35fd	-0.08555219
213	0xbba1135d	-0.0049156384
214	0xbdeebd0d	-0.11657152
215	0x3d55cc85	0.052197
216	0x3d726ddb	0.059186798
217	0x3d8bf8bd	0.068345524
218	0xbd45dde1	-0.048307303
219	0xbadf4f8d	-0.0017037258
220	0x3da28aba	0.07936616
221	0xbd2e2671	-0.04251713
222	0x3c36a49d	0.011147645
223	0x3b8ca35c	0.004291935
224	0xbe08cca2	-0.13359311
225	0x3dad9b33	0.084768675
226	0x3daf68a0	0.085648775
227	0xbdb0a4af	-0.08625161
228	0xbc797302	-0.015225174
229	0xbdb0ea49	-0.08638436
230	0xbe11289d	-0.14175649
231	0x3d3756bc	0.04476045
232	0xbe8c918a	-0.27454787
233	0xbda1398c	-0.07872304
234	0x3d23f017	0.04002389
235	0xbd495257	-0.04915079
236	0xbb0051f9	-0.001958011
237	0xb8c2bbd2	-9.285625e-05
238	0xbd3f3b03	-0.046687137
239	0xbe246c64	-0.16056973
240	0x3b7e457d	0.0038798742
241	0xbe27a937	-0.16373144
242	0xbdd535b4	-0.10410634
243	0x3e3f12e0	0.18659544
244	0x3c8aabde	0.016927656
245	0xbd10e710	-0.03537661
246	0x3e0e2c8a	0.13884178
247	0x3e287b01	0.16453172
248	0xbd862286	-0.065495536
249	0x3cb36b2c	0.02190169
250	0xbc0eb076	-0.008709064
251	0x3c76af9e	0.015056519
252	0xbc4f4086	-0.012649661
253	0x3dbc70b9	0.09201188
254	0x3d67306e	0.05644267
255	0x3deeebef	0.116660945

network_body._body_endoder.seq_layers.2.bias f4 [128]
0	0xbd69c12c	-0.05706899
1	0x3d7f2698	0.062292665
2	0x3d548abb	0.051890116
3	0xbc023f95	-0.007949729
4	0xbd1227a3	-0.03568233
5	0xbcd45561	-0.025919618
6	0x3dbbafe5	0.091644086
7	0xbcb57e8b	-0.022155067
8	0x3d71963c	0.058981165
9	0xbc407503	-0.011746648
10	0x3d2f7567	0.042836573
11	0xbd16a8e0	-0.036782146
12	0x3d0db16c	0.03459303
13	0xbc964227	-0.01834209
14	0x3d688839	0.056770537
15	0x3bb782d5	0.005600313
16	0x3caa8944	0.020817406
17	0x3d071b95	0.03298529
18	0x3d075063	0.033035647
19	0xbcc1a44f	-0.023637919
20	0x3c6e5be8	0.014548279
21	0x3c192dff	0.009349345
22	0x3d00fa98	0.031488985
23	0x3caba93e	0.020954724
24	0x3da72d46	0.08162932
25	0x3d5fd38a	0.0546451
26	0xbd0a258d	-0.033727217
27	0x3d97f59e	0.07419895
28	0x3c9f28f1	0.019428702
29	0x3d343f57	0.044005718
30	0x3d98928b	0.07449826
31	0x3d6dba71	0.058039133
32	0xbce4bd37	-0.027922256
33	0x3cdffa0b	0.02734091
34	0x3be2bc28	0.0069194026
35	0x3d3b2683	0.045691025
36	0x3d16f474	0.036854222
37	0x3d4b05b2	0.04956598
38	0x3b3b19aa	0.0028549233
39	0xbc3aad35	-0.011393835
40	0xbc544188	-0.012955077
41	0x3d7e83c2	0.062137373
42	0xbc11637f	-0.008873819
43	0x3d6253f3	0.05525584
44	0x3c24349f	0.0100223115
45	0xbd04c9df	-0.03241908
46	0x3d35831e	0.044314496
47	0x3bd23ab7	0.0064156908
48	0x3af82416	0.0018931653
49	0xbc8e8a45	-0.017399916
50	0x3d9310f5	0.07180969
51	0x3d411654	0.047140434
52	0xbcee2ed4	-0.029075064
53	0x3cbc6d85	0.023001442
54	0x3d57f20e	0.052721076
55	0xbce7115e	-0.028206524
56	0x3d3e6b9c	0.046489343
57	0x3d910430	0.07080877
58	0xbbf14cca	-0.0073638903
59	0x3d1e7a5d	0.038690913
60	0x3d01b3a4	0.03166546
61	0x3d45ccb0	0.04829091
62	0x3d8e143a	0.06937452
63	0x3d6afd58	0.057370514
64	0x3d00badf	0.031428214
65	0xbcf4e067	-0.02989216
66	0x3d97329c	0.073827
67	0x3d7c2818	0.061561674
68	0x3d782b52	0.06058819
69	0x3ce72f80	0.028220892
70	0xbccaace9	-0.024740653
71	0x3c812ad9	0.015767502
72	0x3c611d6c	0.013739925
73	0x3d54408c	0.05181937
74	0x3d889edb	0.06670924
75	0x3d4877de	0.04894244
76	0xbcc5354b	-0.024073264
77	0xbd67ad73	-0.0565619
78	0x3d896827	0.067093186
79	0x3d7f4046	0.062317155
80	0x3cc8d1db	0.02451413
81	0x3d140cc2	0.03614498
82	0xbd0329ef	-0.032022413
83	0x3d85a801	0.06526185
84	0xbcb2b26a	-0.02181359
85	0xbd1bf42a	-0.03807465
86	0xbb2cd5cb	-0.0026372548
87	0x3dac93f6	0.08426659
88	0x3d02111e	0.031754605
89	0x3c87810f	0.016541032
90	0xba03d89c	-0.0005029531
91	0x3d377954	0.044793442
92	0xbd0cbfbf	-0.03436255
93	0xbcceecd5	-0.025259415
94	0x3d63a05e	0.05557286
95	0xbd2a8fee	-0.04164117
96	0xbd2388c8	-0.039925367
97	0x3cd3c0cd	0.02584877
98	0x3d68e24c	0.05685644
99	0x3da3d23a	0.07999082
100	0x3c84b9e9	0.01620193
101	0x3d8745ec	0.066051334
102	0x3c3b0d71	0.011416779
103	0x3c03e2b9	0.00804966
104	0xbbbfb432	-0.0058503384
105	0x3c610563	0.013734194
106	0x3d6e64a9	0.058201466
107	0xbd86fc65	-0.06591109
108	0x3cbf759e	0.023371514
109	0x3d42b475	0.04753538
110	0xbc395cf9	-0.01131367
111	0x3d2203b1	0.0395543
112	0xbc2d3d44	-0.010573689
113	0x3d3fb4f7	0.04680344
114	0x3c204430	0.009781882
115	0x3c362a93	0.011118549
116	0xbd21e1b9	-0.039521907
117	0xbccd9067	-0.02509327
118	0xbcfefeb7	-0.031127317
119	0x3d7d489e	0.06183683
120	0xb81ec208	-3.785084e-05
121	0x3d725a7f	0.059168335
122	0x3cc694e1	0.024240913
123	0x3d0686d5	0.03284343
124	0x3bde1950	0.00677792
125	0xbd7c6d09	-0.06162742
126	0x3d806631	0.062694915
127	0x3d30c6d4	0.043158367

action_model._continuous_distribution.log_sigma f4 [1, 2]
0	0x3d0d65dd	0.034520973
1	0xbda4149a	-0.08011742

action_model._continuous_distribution.mu.weight f4 [2, 128]
0	0x3d85d1cc	0.06534156
1	0xbd3bac46	-0.04581859
2	0xbd3f4c4a	-0.046703614
3	0x3bed2feb	0.0072383783
4	0xbd06a75d	-0.032874454
5	0x3d145a90	0.03621918
6	0xbc6f4354	-0.014603455
7	0x3b70bab7	0.0036732384
8	0x3bb25f32	0.005443477
9	0xbc26b61d	-0.010175255
10	0xbc9e3b1e	-0.019315299
11	0x3d499fff	0.04922485
12	0x3d845db6	0.064631864
13	0x3da0e87a	0.078568414
14	0x3d0b4753	0.034003567
15	0x3c168ee7	0.009189344
16	0x3aa35cab	0.001246353
17	0x3d4f2f98	0.0505825
18	0xbd24ccc5	-0.040234346
19	0x3d55f5a1	0.052236203
20	0x3b20342e	0.0024445164
21	0xbcb63598	-0.022242352
22	0xbc8d6793	-0.017261302
23	0xbbfbc3d0	-0.007683255
24	0xbdb78888	-0.08961588
25	0xbd8788a1	-0.06617857
26	0x3d0794ec	0.033101007
27	0xbd404082	-0.04693652
28	0x3d452b28	0.04813686
29	0xbd0d837e	-0.03454923
30	0xbda21a8e	-0.07915221
31	0xbd197724	-0.037467137
32	0x3d93c214	0.07214752
33	0x3cbf60dc	0.023361616
34	0x3d2443df	0.04010379
35	0xbd227a20	-0.03966725
36	0x3d0473cb	0.03233699
37	0xbc8b6853	-0.01701752
38	0x3cc58b31	0.024114223
39	0xbd5b04a9	-0.05347124
40	0x3d959feb	0.073058926
41	0xbd65a02d	-0.05606096
42	0x3ce0520a	0.02738287
43	0xbce0b30d	-0.027429128
44	0xbc1ee02b	-0.0096970005
45	0x3d2fbd5c	0.042905197
46	0x3b46225e	0.0030232887
47	0xba04b171	-0.0005061841
48	0xbcf857d7	-0.030315323
49	0x3d840abd	0.06447361
50	0xbd99ea02	-0.075153366
51	0xbcdc6051	-0.026901396
52	0x3d6fb465	0.058521647
53	0xbcb046ac	-0.021518074
54	0xbd257ccc	-0.04040222
55	0x3d9b2f47	0.07577377
56	0x3c375102	0.011188747
57	0xbd9bf55d	-0.07615159
58	0x3d157984	0.03649284
59	0xbd0f01d8	-0.034913868
60	0x3b875d63	0.0041310056
61	0xbcc2fdf8	-0.023802742
62	0xbd833d57	-0.06408184
63	0x3c4f276a	0.012643674
64	0xbd710c74	-0.058849767
65	0x3bfdc500	0.0077444315
66	0xbd87f3b1	-0.06638277
67	0x3c18a50b	0.009316693
68	0xbd4f9db4	-0.050687507
69	0xbcf2f2c3	-0.029656773
70	0xbc706aab	-0.014673869
71	0xbd2d128f	-0.042254027
72	0x3ccfbbac	0.025358044
73	0xbd17c149	-0.037049565
74	0xbc120fc7	-0.008914894
75	0xbcb42266	-0.021989059
76	0x3d7e4334	0.06207581
77	0x3c8b35ad	0.016993368
78	0x3c13e5fa	0.009026999
79	0xbda6299b	-0.08113404
80	0xbc3ac7a8	-0.011400141
81	0xbcf9b390	-0.03048113
82	0x3d898830	0.06715429
83	0xbd414b07	-0.047190692
84	0x3d809a5d	0.062794425
85	0x3d757c53	0.059933018
86	0x3d419167	0.047257807
87	0x3d27a2cc	0.04092674
88	0xbd103f1d	-0.03521644
89	0xbc89eb14	-0.016835727
90	0x3dc036e0	0.093854666
91	0xbd3726ca	-0.044714727
92	0x3d4badcf	0.049726304
93	0x3d02b53d	0.031911124
94	0xbd038783	-0.032111656
95	0x3d5656fb	0.052329045
96	0x3b28fbfa	0.0025784955
97	0xbc437030	-0.011928603
98	0xbd02801d	-0.03186046
99	0x3db0bfc7	0.086303286
100	0xbd0093a2	-0.031390794
101	0xbd74ead3	-0.05979426
102	0xbbf0d071	-0.007349067
103	0x3d02f974	0.03197618
104	0xbce42d76	-0.027853709
105	0xba96c16b	-0.0011501735
106	0xbd206184	-0.0391555
107	0x3c8362a3	0.016038245
108	0xbcbefa7c	-0.0233128
109	0xbd25cb2f	-0.040476974
110	0xbd2b7a18	-0.041864485
111	0xbca0788d	-0.019588733
112	0x3bc4c08e	0.0060043996
113	0x3c39ccef	0.011340364
114	0xbcca2c73	-0.024679398
115	0x3d044407	0.03229144
116	0x3c5e70d0	0.013576701
117	0x3d877131	0.066133864
118	0x3c3c95a1	0.011510284
119	0x3c11d283	0.008900288
120	0xbc5c01fb	-0.013428207
121	0xbd2b8e1a	-0.041883565
122	0xbcc97536	-0.024592023
123	0xbcd11d77	-0.025526745
124	0xbc248e93	-0.010043758
125	0x3cb5fdea	0.022215802
126	0xbcedcfa9	-0.029029684
127	0x3ca34441	0.019930007
128	0x3d439d1d	0.047757257
129	0xbd4aa2e9	-0.04947177
130	0xbd0c9ecb	-0.034331124
131	0xbd090a56	-0.033457123
132	0xbbc0f298	-0.0058882944
133	0x3ab6147e	0.0013891605
134	0x3d0d8832	0.034553714
135	0xbc59c4e4	-0.013291571
136	0x3d50a54f	0.0509389
137	0xbce8ea6d	-0.028432095
138	0x3b90018b	0.004394715
139	0x3bae02ba	0.0053103836
140	0x3cd383c4	0.025819667
141	0x3dc37028	0.095428765
142	0x3d225058	0.039627403
143	0x3c0d49b2	0.008623527
144	0xbca5fda7	-0.020262552
145	0x3d81c06d	0.063355304
146	0xbc9628b7	-0.018329961
147	0x3dc3495e	0.09535478
148	0xbd6c4ba2	-0.057689317
149	0xbcec49e4	-0.028843828
150	0xbce0fc45	-0.027464041
151	0xbd82453a	-0.0636086
152	0xbcc7c565	-0.024386117
153	0xbd51bd10	-0.051205695
154	0x3cb86a64	0.022511669
155	0xbc69df9c	-0.014274504
156	0x3d16e107	0.036835697
157	0xbc96c4f9	-0.01840447
158	0xbcb04f2f	-0.021522133
159	0xbc1bd7ad	-0.00951187
160	0xbd088b57	-0.03333601
161	0x3d85fabb	0.06541964
162	0xbd0dd38f	-0.034625586
163	0xbd20ea87	-0.039286163
164	0x3e024389	0.12721075
165	0xbc1009c3	-0.00879139
166	0xbc07d392	-0.008290188
167	0xbbd318c6	-0.006442162
168	0x3bada850	0.0052996054
169	0xbc34e529	-0.011040964
170	0x3ae1c70d	0.001722546
171	0x3ccc4422	0.024934832
172	0xba26d68e	-0.00063643686
173	0x3d57b32c	0.052661106
174	0xbb8eabc6	-0.004353973
175	0xbbf3cd82	-0.00744027
176	0x3c49d81e	0.012319593
177	0x3d7e0f15	0.062026102
178	0x3abb72bc	0.0014301161
179	0x3cb92d1d	0.02260452
180	0x3cbc3f9e	0.022979554
181	0xbd2be5a3	-0.041967046
182	0xbc4bf61d	-0.012448815
183	0xbd2ad838	-0.04171011
184	0x3d5b669e	0.05356466
185	0xbbe85db6	-0.0070912493
186	0x3cfe790a	0.031063575
187	0xbd0f228f	-0.034945067
188	0x3be3192f	0.0069304924
189	0xbd205fba	-0.039153792
190	0xbcb7b89b	-0.022426894
191	0x3cfdaa34	0.030964948
192	0x3abb00ef	0.0014267246
193	0x3ac999fb	0.0015380973
194	0xbb3c265a	-0.0028709383
195	0x3cf2da0f	0.029644994
196	0x3bebc7b6	0.0071954383
197	0xbc6c0e15	-0.014407654
198	0xbc6e7b1b	-0.014555718
199	0xbd08a75d	-0.033362735
200	0x3cc7dd83	0.024397617
201	0xbc7d412d	-0.015457434
202	0x3d8114a5	0.06302766
203	0xbca717de	-0.020397123
204	0x3ca9f362	0.020745937
205	0xbc338776	-0.010957589
206	0x3d497303	0.04918195
207	0x3ca9ff93	0.02075175
208	0xbcb96198	-0.022629544
209	0xbd1e93db	-0.038715225
210	0x3d0aa6f1	0.033850614
211	0xbb8a55e2	-0.004221664
212	0x3d910bcb	0.070823275
213	0x3b12f840	0.00224258
214	0x3c6ed338	0.014576726
215	0x3d8b3575	0.067973055
216	0xbd2605df	-0.040532943
217	0xbd2368ab	-0.03989474
218	0x3d5d0d55	0.053967793
219	0xbc9347ea	-0.017978627
220	0x3ca82cb9	0.020529138
221	0x3d33a40c	0.04385762
222	0x3b6087a9	0.0034260547
223	0xbd39b55f	-0.045338985
224	0x3bc34c7d	0.005960046
225	0x3ca1f6f5	0.019771079
226	0xbcd70eca	-0.02625217
227	0x3daf828a	0.0856982
228	0x3cc42d39	0.023947345
229	0xbc059e59	-0.008155429
230	0xbd82f350	-0.063940644
231	0xbcc17380	-0.023614645
232	0xbd4aa8e8	-0.049477488
233	0x3daf3b37	0.08556216
234	0xba8cdc5e	-0.0010746827
235	0xbbe3be3b	-0.0069501675
236	0xbceb2307	-0.028703226
237	0xbd2b5016	-0.041824423
238	0xbb294521	-0.0025828558
239	0xbcf5eaea	-0.030019242
240	0xbd1af8da	-0.03783498
241	0x3d275978	0.04085681
242	0xbc99c9d3	-0.018772995
243	0x3c9fa8f8	0.01948975
244	0xbcc7cf52	-0.02439085
245	0xbd0163c2	-0.031589277
246	0xbc282995	-0.01026382
247	0x3ca1a327	0.019731117
248	0xbd016f43	-0.031600248
249	0xbc306c93	-0.010768074
250	0xbc430f22	-0.011905463
251	0xbd3c41f6	-0.045961343
252	0xbcef51a4	-0.029213734
253	0xbcbdcc42	-0.023168687
254	0xbcc66f31	-0.024222942
255	0x3d286c5f	0.041118976

action_model._continuous_distribution.mu.bias f4 [2]
0	0xbd81a1ea	-0.06329711
1	0xbc2d848c	-0.010590684

action_model._discrete_distribution.branches.0.weight f4 [1, 128]
0	0x3adfa1f5	0.0017061817
1	0x3c32929e	0.010899214
2	0x3b17d267	0.002316618
3	0x3b7c0be5	0.0038459238
4	0xbac69ae5	-0.0015152363
5	0x3ada71b0	0.0016665962
6	0x3bdd5fb2	0.0067557925
7	0x3c865ea5	0.016402552
8	0xbb9d8868	-0.0048075207
9	0xbc8d2e03	-0.017233854
10	0xbb28302c	-0.0025663478
11	0xb988424a	-0.0002598933
12	0x3ac5bc8f	0.0015086102
13	0x3be52c05	0.006993773
14	0xbc540a53	-0.012941915
15	0x3be4cbfb	0.006982324
16	0xbbe07242	-0.006849558
17	0xbc0d0dcf	-0.008609249
18	0x39f28f63	0.00046264668
19	0x3c136d3f	0.008998214
20	0xbbc21b31	-0.0059236516
21	0x3b9c8552	0.004776635
22	0x3b35739e	0.0027687321
23	0x3c6d4e67	0.014484025
24	0x3c96187a	0.018322218
25	0x3b86ae53	0.0041101365
26	0x3bed93a5	0.0072502666
27	0x3c5e5d65	0.013572072
28	0x3c38093f	0.011232673
29	0xbac94167	-0.0015354574
30	0xbba79b2f	-0.005114935
31	0xbb888f1a	-0.0041674497
32	0x3c61fc45	0.013793056
33	0xbbb524df	-0.005528077
34	0xbb810a2e	-0.003937981
35	0xbc2b517d	-0.01045644
36	0x3b946412	0.004528531
37	0xbc72f5aa	-0.014829079
38	0x3c799c90	0.015235081
39	0xbaaa17b6	-0.0012977037
40	0x3ba08363	0.004898475
41	0xbb88300c	-0.0041561183
42	0xbc2450fb	-0.010029073
43	0x3b84ba3b	0.0040505207
44	0xbc01abfb	-0.0079145385
45	0x3c150edd	0.009097782
46	0xbb253d23	-0.0025213442
47	0xbbf13ee2	-0.0073622325
48	0x3c454026	0.01203922
49	0x3b9060b2	0.004406058
50	0x3a2997c7	0.0006469455
51	0xbc0bddcf	-0.00853677
52	0xbc08e8f3	-0.008356321
53	0x3b6e4045	0.0036354226
54	0xbc7c559a	-0.015401268
55	0x3be085f5	0.0068519064
56	0x3b5e81b2	0.0033951816
57	0x3c172edb	0.00922748
58	0x3c34f2a5	0.011044179
59	0x3c865c67	0.016401483
60	0x3c0ccec1	0.008594216
61	0xbaa73c90	-0.0012759138
62	0xbb563d67	-0.0032690407
63	0xbc15145e	-0.009099094
64	0xbc1f93cb	-0.009739826
65	0xbca50628	-0.020144537
66	0x3b1c33f7	0.0023834684
67	0xbb0eb0af	-0.0021772792
68	0xbaba1f4f	-0.0014200005
69	0x3bb50476	0.0055242134
70	0xbca42ea1	-0.020041766
71	0x3c43ba00	0.011946201
72	0xbc4cf517	-0.012509606
73	0xbb2a1516	-0.002595251
74	0x3c31974f	0.010839297
75	0xbc93016e	-0.017945018
76	0x3c0357a6	0.0080165025
77	0x3c75950b	0.014989148
78	0x3a5b6dd5	0.0008370553
79	0x3c9189e3	0.017765945
80	0x3b216e3d	0.0024632358
81	0x3a8a8e7f	0.0010571032
82	0xbc4c1dd4	-0.012458283
83	0x3ba2bfbb	0.0049667037
84	0xbbc19ab4	-0.0059083346
85	0xbc155772	-0.009115087
86	0xba9cdd31	-0.0011967776
87	0xbb9e8ae2	-0.0048383335
88	0x3c3cceda	0.011523927
89	0x3c00cca9	0.007861295
90	0xbc289192	-0.010288613
91	0xbc6f4888	-0.014604695
92	0x3aafea94	0.001342135
93	0xbadcd5bb	-0.0016848365
94	0xbb89a3d6	-0.004200439
95	0x3b542138	0.0032368433
96	0x3bdc2f6a	0.0067195194
97	0x3c57a81a	0.013162637
98	0xba849321	-0.0010114649
99	0x3bb2f147	0.0054608914
100	0xbc29ce3d	-0.010364112
101	0x3c5a6688	0.013330109
102	0x3b40055f	0.0029300076
103	0x3c1123e6	0.0088586565
104	0x3b86e88e	0.004117078
105	0xbcb64d7b	-0.022253742
106	0x3c2e8880	0.010652661
107	0xbb4dc03b	-0.0031395096
108	0x3af6bbf2	0.0018824323
109	0x3c19f394	0.009396452
110	0xbba1f606	-0.0049426584
111	0x3b6094aa	0.0034268298
112	0xbc2154a8	-0.009846844
113	0xbc96f784	-0.018428572
114	0x3b8a2fe3	0.0042171343
115	0x3c0c8f12	0.0085790325
116	0xbbf70be8	-0.007539261
117	0xbc198c89	-0.009371885
118	0xbc0419c3	-0.008062783
119	0xbab4cce6	-0.0013793975
120	0x3abc3e5f	0.001436185
121	0xbc0c0dbb	-0.0085481955
122	0xbbcc78fb	-0.006240008
123	0xbb1b6931	-0.0023713822
124	0xbc7d3437	-0.0154543435
125	0x3c43b30d	0.0119445445
126	0xbc37e6eb	-0.011224489
127	0xbc29069e	-0.010316519

exp_avg f4 [128, 12]
0	0x359bd2c0	1.1609736e-06
1	0xb7c10002	-2.3007397e-05
2	0xb8021dc8	-3.102215e-05
3	0x36849b20	3.9519655e-06
4	0x396f559b	0.00022824707
5	0x38d8d0df	0.00010338588
6	0x395788e8	0.00020555
7	0x392cb9b6	0.00016472381
8	0x348c98c6	2.618819e-07
9	0x38ac0942	8.2033235e-05
10	0x392d3722	0.00016519104
11	0x389be674	7.433901e-05
12	0xb718471d	-9.076463e-06
13	0x35ed3050	1.7671937e-06
14	0x3781fbc6	1.549524e-05
15	0xb5fa7b7a	-1.8662388e-06
16	0xb8e21238	-0.00010779913
17	0xb84cc7c2	-4.882343e-05
18	0xb8e779e6	-0.00011037644
19	0xb8a324c8	-7.779297e-05
20	0xb404c9ef	-1.2366921e-07
21	0x38b88379	8.7982924e-05
22	0xb8a39b42	-7.801365e-05
23	0xb8133e8c	-3.5105782e-05
24	0xb60c0140	-2.0862353e-06
25	0x368d5f2f	4.2132083e-06
26	0x370e0822	8.465753e-06
27	0xb58d6cd0	-1.0536987e-06
28	0xb87f472a	-6.0863014e-05
29	0xb7e73dae	-2.7566068e-05
30	0xb7b812da	-2.1943288e-05
31	0xb8383912	-4.392217e-05
32	0xb395f2a4	-6.982489e-08
33	0x38152207	3.555606e-05
34	0xb838bed1	-4.404673e-05
35	0xb7a64557	-1.9821031e-05
36	0x36cfe5a5	6.195815e-06
37	0x36c4185a	5.84409e-06
38	0xb5cba476	-1.5172543e-06
39	0x33f5d98c	1.1448273e-07
40	0x36ddc059	6.6087055e-06
41	0x3648f6eb	2.9946048e-06
42	0x36a44cbb	4.8965135e-06
43	0x36a012b0	4.770547e-06
44	0x320254ae	7.58625e-09
45	0x35bfe5d2	1.4297495e-06
46	0x36a086ee	4.7840795e-06
47	0x3610827e	2.1533629e-06
48	0xb85ee244	-5.313965e-05
49	0xb86e983b	-5.6885397e-05
50	0x368319f0	3.9071238e-06
51	0x33dacc30	1.01885576e-07
52	0x36c54550	5.8791265e-06
53	0x3632d550	2.6648231e-06
54	0xb644eba0	-2.9343428e-06
55	0x368e6d50	4.2446554e-06
56	0x31e7f800	6.751179e-09
57	0x38d6de8e	0.00010245769
58	0x368ed450	4.256646e-06
59	0x360098f0	1.9162508e-06
60	0x37875b2a	1.6135706e-05
61	0x3782cd59	1.559283e-05
62	0xb663c0f5	-3.3937952e-06
63	0x34820c23	2.4223218e-07
64	0x376ac0b2	1.3992352e-05
65	0x36d4a3e6	6.3371726e-06
66	0x368cdd00	4.198053e-06
67	0x37296818	1.0097421e-05
68	0x3289e297	1.605194e-08
69	0xb7f4f388	-2.920047e-05
70	0x3729e324	1.012607e-05
71	0x3698e54b	4.556646e-06
72	0xb600b773	-1.9180268e-06
73	0x35e12dda	1.6777151e-06
74	0x36aa9f59	5.0849453e-06
75	0xb5216398	-6.01221e-07
76	0xb811a820	-3.4727273e-05
77	0xb783f10f	-1.5728669e-05
78	0xb6349334	-2.6907774e-06
79	0xb7d23a6a	-2.5061152e-05
80	0xb32b1d60	-3.9840756e-08
81	0x3609d99c	2.0541256e-06
82	0xb7d2d310	-2.5132234e-05
83	0xb73dbdec	-1.13094975e-05
84	0x37a7ef89	2.0019494e-05
85	0x37b25161	2.1257149e-05
86	0xb60381d8	-1.95961e-06
87	0xb2c242e0	-2.2614984e-08
88	0xb5afe360	-1.3104691e-06
89	0xb51eef40	-5.920774e-07
90	0xb4009900	-1.197659e-07
91	0xb57d7b60	-9.442938e-07
92	0xb0cdfc60	-1.4987442e-09
93	0xb52e73e0	-6.498867e-07
94	0xb57e3400	-9.4698044e-07
95	0xb4e47da0	-4.2559714e-07
96	0xb724cc82	-9.822777e-06
97	0xb7972b6c	-1.8020823e-05
98	0xb71468be	-8.845875e-06
99	0x35a75041	1.2465827e-06
100	0x389702fd	7.200798e-05
101	0x3808c96c	3.2612515e-05
102	0x389f4607	7.5947544e-05
103	0x3859f39a	5.1963703e-05
104	0x33b1657c	8.260665e-08
105	0xb6ae8a88	-5.2017313e-06
106	0x385a91ee	5.2111158e-05
107	0x37c4b573	2.3449515e-05
108	0x37f3c455	2.9059282e-05
109	0x38081290	3.2442214e-05
110	0xb5028dc0	-4.863505e-07
111	0xb493341c	-2.7418798e-07
112	0xb784d5d2	-1.5835194e-05
113	0xb6f0ae48	-7.1728464e-06
114	0xb73c83dc	-1.1236374e-05
115	0xb73fbc2c	-1.1428299e-05
116	0xb29c12aa	-1.8169278e-08
117	0xb86dd61a	-5.67046e-05
118	0xb7404784	-1.1460743e-05
119	0xb6ad0fbc	-5.1576335e-06
120	0x370fd956	8.574067e-06
121	0x3793a9a2	1.7602757e-05
122	0x372d5ac5	1.03327375e-05
123	0xb5bbb2a4	-1.3984577e-06
124	0xb8a9677d	-8.077824e-05
125	0xb819736a	-3.658553e-05
126	0xb8361f30	-4.3421227e-05
127	0xb8748046	-5.8293597e-05
128	0xb3c7024c	-9.2670774e-08
129	0x3844cbff	4.6920028e-05
130	0xb87531b9	-5.845886e-05
131	0xb7dcac6a	-2.630633e-05
132	0xb6c907c3	-5.9911704e-06
133	0x35348fd8	6.7264546e-07
134	0x37266dd9	9.919947e-06
135	0xb598c110	-1.1381071e-06
136	0xb889ddb1	-6.573962e-05
137	0xb7f9c406	-2.9774394e-05
138	0xb83652f2	-4.346943e-05
139	0xb846fb70	-4.7441048e-05
140	0xb3a1f5b4	-7.54184e-08
141	0x38180f4c	3.625387e-05
142	0xb8478bde	-4.757556e-05
143	0xb7b3972f	-2.1408863e-05
144	0xb76a976c	-1.39827425e-05
145	0x371fb5ae	9.519439e-06
146	0x38096aab	3.2762688e-05
147	0xb684efd9	-3.9618285e-06
148	0xb96ff440	-0.00022883806
149	0xb8d95c9d	-0.00010364617
150	0xb8eafad9	-0.000112047135
151	0xb92d2a45	-0.00016514312
152	0xb48cf2ba	-2.625364e-07
153	0x37d4ce68	2.5368485e-05
154	0xb92da800	-0.0001656115
155	0xb89c4a8c	-7.452545e-05
156	0x37796056	1.48639865e-05
157	0x363aaed4	2.7817923e-06
158	0xb796bf5a	-1.7970498e-05
159	0x360d6de4	2.1074602e-06
160	0x38ff4032	0.00012171305
161	0x38673d9e	5.5132077e-05
162	0x3900e018	0.00012290513
163	0x38b8370c	8.784057e-05
164	0x3415f3a6	1.3965345e-07
165	0x3810f580	3.4560915e-05
166	0x38b8bcc6	8.8089655e-05
167	0x382645d4	3.9642517e-05
168	0xb7976c80	-1.8051127e-05
169	0xb6b2f293	-5.3330527e-06
170	0x37a1b247	1.9275712e-05
171	0xb617de71	-2.2630231e-06
172	0xb90911fa	-0.00013072035
173	0xb87851dc	-5.9204045e-05
174	0xb903163f	-0.00012501421
175	0xb8c5d4dc	-9.43334e-05
176	0xb4210574	-1.4996277e-07
177	0x38fa8b22	0.000119468445
178	0xb8c66481	-9.460096e-05
179	0xb8328cea	-4.2569744e-05
180	0x360a148a	2.0575558e-06
181	0x35d14140	1.5590704e-06
182	0xb5831c89	-9.768565e-07
183	0x33daa157	1.01807636e-07
184	0x36c5553e	5.880981e-06
185	0x3632bde2	2.6634593e-06
186	0xb591e5de	-1.0870242e-06
187	0x368e66cf	4.2438983e-06
188	0x31e7ce55	6.746442e-09
189	0xb6f21f04	-7.2157727e-06
190	0x368ece37	4.2559363e-06
191	0x3600855b	1.915111e-06
192	0x3805f1ac	3.1934745e-05
193	0x38007c09	3.0633095e-05
194	0xb6e6bea3	-6.876727e-06
195	0x350ca8c7	5.239967e-07
196	0x37fdecd6	3.0270236e-05
197	0x3765feac	1.3708759e-05
198	0x35c2f0c0	1.4524194e-06
199	0x37b73c93	2.1843507e-05
200	0x331522ed	3.472353e-08
201	0xb8a2f481	-7.7703044e-05
202	0x37b7c1a5	2.1905473e-05
203	0x37255f83	9.857004e-06
204	0xb726dfe0	-9.946496e-06
205	0xb816c689	-3.5947687e-05
206	0xb803ebbd	-3.1452382e-05
207	0x368b9ca6	4.160759e-06
208	0x397bfd62	0.00024031618
209	0x38e445f2	0.000108849155
210	0x395a7dad	0.00020836918
211	0x3935daed	0.00017343061
212	0x3494066e	2.7571826e-07
213	0x37b43c6c	2.1485808e-05
214	0x39365ef3	0.00017392244
215	0x38a4234e	7.8267054e-05
216	0xb851e4b1	-5.004247e-05
217	0xb885ef3e	-6.3864965e-05
218	0xb71aefb6	-9.234927e-06
219	0x35f0fcc8	1.7954962e-06
220	0x38d97dea	0.0001037082
221	0x384503fc	4.697217e-05
222	0x38ad1bac	8.254437e-05
223	0x389cf4af	7.4842355e-05
224	0x33ff829d	1.1898121e-07
225	0x38202f1c	3.8190847e-05
226	0x389d66a0	7.505459e-05
227	0x380da980	3.377488e-05
228	0xb448a380	-1.8685932e-07
229	0x36ec043f	7.0338424e-06
230	0x372256ae	9.676134e-06
231	0xb59e0164	-1.1772322e-06
232	0xb88e9982	-6.799681e-05
233	0xb8012cc3	-3.0797684e-05
234	0xb776a814	-1.4701876e-05
235	0xb84dd175	-4.907088e-05
236	0xb3a786f8	-7.801094e-08
237	0x38170f0c	3.601522e-05
238	0xb84e66ce	-4.920997e-05
239	0xb7b9c370	-2.2144726e-05
240	0xb57b5680	-9.363066e-07
241	0xb6fb82b4	-7.4955988e-06
242	0xb70a4f7e	-8.243949e-06
243	0x358ea6dd	1.0628388e-06
244	0x3880bd61	6.13879e-05
245	0x37e93e8a	2.7804886e-05
246	0x386998cd	5.5693836e-05
247	0x3839d0e8	4.4301996e-05
248	0x33973f92	7.043049e-08
249	0xb4c6b680	-3.701316e-07
250	0x383a57c8	4.442761e-05
251	0x37a7b64a	1.9992836e-05
252	0xb83fcb3e	-4.5727233e-05
253	0xb85c5bb8	-5.2537507e-05
254	0xb5aef670	-1.3035733e-06
255	0x3533795c	6.68593e-07

exp_avg_sq f4 [128, 12]
0	0x343252dd	1.6607687e-07
1	0x340024c7	1.1934308e-07
2	0x32f81bde	2.8883672e-08
3	0x30e314fb	1.6522387e-09
4	0x35b5d3c4	1.3547183e-06
5	0x3496c746	2.8084668e-07
6	0x356ddb34	8.860836e-07
7	0x35436281	7.2786503e-07
8	0x2fc8bdb4	3.651458e-10
9	0x3519cd60	5.72958e-07
10	0x35448174	7.320407e-07
11	0x34324b8f	1.660503e-07
12	0x3380335d	5.9698074e-08
13	0x3358b5f4	5.0456904e-08
14	0x31ac3a6b	5.0125e-09
15	0x300a85c8	5.039422e-10
16	0x348684c4	2.5056045e-07
17	0x337f29a0	5.9409672e-08
18	0x3466412b	2.1444127e-07
19	0x341a70a8	1.4383352e-07
20	0x3058d8bb	7.8888335e-10
21	0x34fc4a01	4.6992503e-07
22	0x341ae11f	1.4424266e-07
23	0x33bd62db	8.81898e-08
24	0x337ab638	5.8373388e-08
25	0x33415724	4.5015568e-08
26	0x31913d18	4.227001e-09
27	0x2f12ec31	1.3362535e-10
28	0x34491b18	1.872944e-07
29	0x33183b2a	3.5444067e-08
30	0x342ac008	1.5902344e-07
31	0x33cf0d07	9.641558e-08
32	0x2c478392	2.8352637e-12
33	0x3496b06f	2.806805e-07
34	0x33cb4331	9.465146e-08
35	0x33c05635	8.956378e-08
36	0x33fe0eb4	1.1830471e-07
37	0x33e566cc	1.0682342e-07
38	0x3199a4ae	4.471608e-09
39	0x308e1f44	1.0340746e-09
40	0x33a09e06	7.479325e-08
41	0x339c049a	7.265153e-08
42	0x33da0f2b	1.0154175e-07
43	0x3431f206	1.6572457e-07
44	0x2b841484	9.384858e-13
45	0x32a67b8d	1.9381128e-08
46	0x34308c8b	1.6442407e-07
47	0x3388d4dc	6.3717124e-08
48	0x3388b7f2	6.366453e-08
49	0x3327bf60	3.9056772e-08
50	0x32ad3d96	2.0167857e-08
51	0x301972c1	5.582415e-10
52	0x3588f068	1.0202757e-06
53	0x34590877	2.021278e-07
54	0x353a5847	6.941886e-07
55	0x3507eb6c	5.0634003e-07
56	0x2ca6c16c	4.739478e-12
57	0x35a90683	1.2593376e-06
58	0x3508ba67	5.09352e-07
59	0x33d6e1f4	1.0006252e-07
60	0x32394a98	1.0785378e-08
61	0x321eac55	9.235994e-09
62	0x311905e2	2.2267774e-09
63	0x3010f88b	5.2740096e-10
64	0x341f6c6f	1.4847477e-07
65	0x33076a56	3.152885e-08
66	0x33e07ce7	1.04535324e-07
67	0x338cf1e6	6.563259e-08
68	0x2dd8991a	2.4624348e-11
69	0x348fa205	2.675371e-07
70	0x338de303	6.607117e-08
71	0x327bb26c	1.4650691e-08
72	0x34bc4fdf	3.5075843e-07
73	0x34a36e26	3.044126e-07
74	0x3253b135	1.2322109e-08
75	0x30b989ee	1.3499724e-09
76	0x34e41165	4.2480966e-07
77	0x34350719	1.6859521e-07
78	0x34ad7522	3.2308986e-07
79	0x34d98a56	4.0520052e-07
80	0x2beb073f	1.6699765e-12
81	0x34c48389	3.660355e-07
82	0x34d8c6c8	4.0377768e-07
83	0x33f3de03	1.1355953e-07
84	0x328f5562	1.6686219e-08
85	0x327460e5	1.42247005e-08
86	0x30e3350a	1.6531498e-09
87	0x2ef836b1	1.12874494e-10
88	0x339058c9	6.7216725e-08
89	0x32d4b705	2.4763276e-08
90	0x336a3eb2	5.453939e-08
91	0x33596b0f	5.062162e-08
92	0x2f7a6571	2.2773407e-10
93	0x330b3e47	3.24201e-08
94	0x3359b8a1	5.069217e-08
95	0x325b8604	1.2777949e-08
96	0x349995ac	2.860737e-07
97	0x3478c967	2.317007e-07
98	0x322c6bb2	1.0036205e-08
99	0x2f12c8da	1.334998e-10
100	0x35222ddd	6.041644e-07
101	0x33c7766d	9.288201e-08
102	0x34794398	2.3214523e-07
103	0x347eb6ee	2.3722143e-07
104	0x2dbaf0e5	2.125273e-11
105	0x3491836e	2.7103982e-07
106	0x348048b6	2.3894762e-07
107	0x3384fa09	6.19221e-08
108	0x3391dc38	6.792146e-08
109	0x33540bd3	4.937085e-08
110	0x324b2016	1.1823451e-08
111	0x2f85072e	2.419766e-10
112	0x352732b7	6.228615e-07
113	0x34001e1e	1.1931886e-07
114	0x350aaf5d	5.1664193e-07
115	0x34a32b30	3.039254e-07
116	0x2c0816eb	1.9339484e-12
117	0x35581349	8.0494334e-07
118	0x34a40847	3.0553403e-07
119	0x3380ca2e	5.997241e-08
120	0x33486383	4.6656634e-08
121	0x330bf3ae	3.2585085e-08
122	0x323be67c	1.0937239e-08
123	0x303229ef	6.4815614e-10
124	0x3521aa70	6.0225193e-07
125	0x33f38ff0	1.13417514e-07
126	0x34eea3c4	4.445011e-07
127	0x349e5c67	2.9497025e-07
128	0x2cf8892c	7.063813e-12
129	0x3590c6f7	1.0786742e-06
130	0x349f3f11	2.9661945e-07
131	0x337c2dcf	5.8714985e-08
132	0x3348c2dc	4.6743352e-08
133	0x330ff401	3.3516702e-08
134	0x320fba69	8.36608e-09
135	0x2f057a21	1.2139668e-10
136	0x34f7c6be	4.615194e-07
137	0x33b130e7	8.2511e-08
138	0x349f3fe8	2.9662556e-07
139	0x3471ea9b	2.2530223e-07
140	0x2bed8470	1.6876622e-12
141	0x35779f24	9.224625e-07
142	0x34722b65	2.2553793e-07
143	0x33671d5b	5.3810577e-08
144	0x35bc229f	1.4017168e-06
145	0x359935c7	1.141504e-06
146	0x33812f76	6.015664e-08
147	0x3054f8d8	7.747878e-10
148	0x363efc6a	2.845913e-06
149	0x35114c6c	5.412792e-07
150	0x35fc6e6e	1.8807602e-06
151	0x35c183d3	1.4417986e-06
152	0x2db80e0b	2.0924614e-11
153	0x36362c8b	2.714604e-06
154	0x35bf9010	1.4272537e-06
155	0x350dfe0c	5.289628e-07
156	0x33ecffac	1.1036113e-07
157	0x33cb088e	9.45448e-08
158	0x3222a16e	9.466346e-09
159	0x2fbfba0f	3.48749e-10
160	0x34baf368	3.48223e-07
161	0x3415ed44	1.3963023e-07
162	0x34a86a6c	3.136987e-07
163	0x34a73193	3.1142244e-07
164	0x2d1de656	8.975562e-12
165	0x343d5bd7	1.7635408e-07
166	0x34a84ac6	3.1346843e-07
167	0x33ecb21b	1.10220036e-07
168	0x32e94e5c	2.7160404e-08
169	0x32b92f5b	2.155837e-08
170	0x318b72f7	4.0585024e-09
171	0x30009d25	4.6789445e-10
172	0x348edfa5	2.6612284e-07
173	0x334861f1	4.6655206e-08
174	0x3453eafd	1.9736395e-07
175	0x33fcec58	1.1777655e-07
176	0x2d7e29b5	1.4447489e-11
177	0x3512a33e	5.4626787e-07
178	0x33fe76f3	1.18494334e-07
179	0x32c6cdab	2.314376e-08
180	0x32c4bf82	2.290449e-08
181	0x32bb93f7	2.1836952e-08
182	0x303fee3d	6.982395e-10
183	0x31059e94	1.9444188e-09
184	0x324b6dff	1.1841165e-08
185	0x3278f89b	1.4492026e-08
186	0x32901e72	1.6777651e-08
187	0x32c1f4a0	2.25794e-08
188	0x306dd325	8.652015e-10
189	0x31a5ea2b	4.828754e-09
190	0x32c3a2d9	2.2775042e-08
191	0x331a6f38	3.5957072e-08
192	0x337ed7b2	5.9335157e-08
193	0x332700e6	3.8883535e-08
194	0x329f7a09	1.8565531e-08
195	0x2fdd3b33	4.024173e-10
196	0x3585e666	9.976327e-07
197	0x34558a64	1.9887517e-07
198	0x35817fdf	9.648464e-07
199	0x3503e5ab	4.9135514e-07
200	0x2c0f1277	2.0331772e-12
201	0x35edb55e	1.7710661e-06
202	0x3504b83d	4.9441934e-07
203	0x33d021c8	9.6918995e-08
204	0x33d08ecd	9.71173e-08
205	0x3381235a	6.013461e-08
206	0x32e3be67	2.6512863e-08
207	0x2fd6db89	3.9082362e-10
208	0x35a99737	1.263549e-06
209	0x34866091	2.5029706e-07
210	0x355ef50f	8.305805e-07
211	0x35303d10	6.5653967e-07
212	0x2e8b753c	6.341813e-11
213	0x35225395	6.047133e-07
214	0x3530e589	6.5899127e-07
215	0x340f0c57	1.3322402e-07
216	0x3367cb74	5.3968918e-08
217	0x32fee172	2.9672012e-08
218	0x32a2d2a1	1.8955065e-08
219	0x3054d6fb	7.7430656e-10
220	0x35732b5d	9.0587656e-07
221	0x344ab832	1.8879726e-07
222	0x352f1183	6.5218063e-07
223	0x35002f9b	4.775299e-07
224	0x2ca45c74	4.6714247e-12
225	0x354a5d9b	7.538708e-07
226	0x3500eafb	4.802566e-07
227	0x33ca59bd	9.422681e-08
228	0x344d31e9	1.911027e-07
229	0x341993d3	1.4303014e-07
230	0x32de8f00	2.590923e-08
231	0x302c02e4	6.2577343e-10
232	0x35b73f9a	1.3653073e-06
233	0x34896249	2.558975e-07
234	0x35a50f2f	1.2297877e-06
235	0x3536268b	6.785637e-07
236	0x2beb1c02	1.6705528e-12
237	0x362ba48a	2.557676e-06
238	0x3536cabb	6.8095295e-07
239	0x341a354e	1.436176e-07
240	0x343502dd	1.685798e-07
241	0x3420f586	1.4990482e-07
242	0x3204aed1	7.72316e-09
243	0x2f88d7b0	2.489151e-10
244	0x34328594	1.6626137e-07
245	0x33e026ec	1.0437893e-07
246	0x343b69ce	1.7454224e-07
247	0x3487d5ef	2.5301367e-07
248	0x30919ecf	1.0595275e-09
249	0x33d79c59	1.0040157e-07
250	0x3486f247	2.5135725e-07
251	0x3427fc74	1.5644929e-07
252	0x351a4fa9	5.748539e-07
253	0x34f1f620	4.5068828e-07
254	0x33139213	3.435896e-08
255	0x2feea4eb	4.340913e-10

exp_avg f4 [128]
0	0x39747c28	0.00023315905
1	0xb8e6e0c6	-0.00011009122
2	0xb8825bf0	-6.216008e-05
3	0x36e2bf0a	6.7575647e-06
4	0x36c9def0	6.01622e-06
5	0x376fbb7e	1.4289164e-05
6	0xb814c2d4	-3.5467398e-05
7	0xb5b280b0	-1.3299486e-06
8	0x389a36d0	7.353502e-05
9	0xb787b442	-1.6177193e-05
10	0xb8ad0213	-8.249669e-05
11	0xb88cccb4	-6.713849e-05
12	0xb97512ad	-0.00023371978
13	0x3902615c	0.00012434035
14	0xb90bfb0a	-0.00013349592
15	0x36c9823e	6.005429e-06
16	0x3801a381	3.090827e-05
17	0x3980b216	0.00024546747
18	0x38de229e	0.00010592233
19	0xb891a544	-6.944922e-05
20	0x38837f11	6.270235e-05
21	0x38256ecc	3.9442253e-05
22	0xb8383e2d	-4.3926924e-05
23	0xb868bc03	-5.548821e-05
24	0x3871af3a	5.762207e-05
25	0xb85c0b6e	-5.2462732e-05
26	0x39424cb0	0.0001852985
27	0xb880d148	-6.142497e-05
28	0x38952f43	7.113677e-05
29	0xb923e38d	-0.0001562966
30	0x393926ab	0.0001765738
31	0xb92c9321	-0.00016458008
32	0xb8e0052f	-0.00010682118
33	0x3917b13a	0.00014466504
34	0xb8fbc3b4	-0.00012005065
35	0x392c69b4	0.00016442576
36	0xb80f1b2f	-3.4119174e-05
37	0xb89434e6	-7.067043e-05
38	0xb8bafe6e	-8.9165624e-05
39	0xb89d271a	-7.4936266e-05
40	0x3a252a42	0.00063005474
41	0xb89e4af9	-7.547992e-05
42	0x37ef6f0e	2.8542734e-05
43	0x396a9ffc	0.00022375578
44	0x37dc7904	2.6282396e-05
45	0xb9978f64	-0.000289078
46	0xb7c8dc6a	-2.3944496e-05
47	0x38a3711c	7.793514e-05
48	0x39a87522	0.00032130728
49	0xb8e4095c	-0.000108736305
50	0xb8d59006	-0.00010183458
51	0xb902bca5	-0.00012468042
52	0x390b0053	0.00013256194
53	0xb96f4939	-0.00022820094
54	0xb8cbe114	-9.7217184e-05
55	0x39894759	0.00026183834
56	0x38cc7ece	9.751097e-05
57	0xb8bc4a7c	-8.9784124e-05
58	0xb7e23224	-2.6964648e-05
59	0x385c156c	5.2472038e-05
60	0x36d0ff90	6.2286344e-06
61	0x38f199c8	0.000115204195
62	0x38a6ac4e	7.947591e-05
63	0xb814893e	-3.5413766e-05
64	0xb5baecc0	-1.3926983e-06
65	0xb7ad1080	-2.063089e-05
66	0xb6f38c18	-7.2582734e-06
67	0xb81275eb	-3.4918932e-05
68	0x3925f0e1	0.0001582536
69	0xb927f4af	-0.00016017513
70	0x394b7a42	0.00019405133
71	0xb88cb068	-6.7085784e-05
72	0x399c7cca	0.00029847614
73	0xb8999de3	-7.325017e-05
74	0x38ff3dc2	0.00012170851
75	0xb5389178	-6.8757026e-07
76	0x3956c3a5	0.00020481514
77	0xb98ce27a	-0.0002687162
78	0xb8bfec98	-9.151659e-05
79	0xb81b973e	-3.7095735e-05
80	0xb951dec3	-0.00020014778
81	0xb7770d82	-1.4725492e-05
82	0x3831e27a	4.241101e-05
83	0xb8e38dd5	-0.00010850622
84	0x369c1d70	4.6525893e-06
85	0xb85a2bed	-5.201616e-05
86	0x389ea795	7.565242e-05
87	0x37c8246e	2.3858822e-05
88	0x37947cb8	1.7701052e-05
89	0xb80f2ce9	-3.4135683e-05
90	0x3800caba	3.0706382e-05
91	0xb72bb1f4	-1.0233827e-05
92	0xb94b6226	-0.00019396152
93	0xb7dba152	-2.6181955e-05
94	0x3935e6c2	0.00017347469
95	0x379bc4d8	1.8569102e-05
96	0xb7821d81	-1.5510946e-05
97	0xb8324cfc	-4.2510204e-05
98	0xb63ad4c0	-2.7839997e-06
99	0x3896415e	7.164733e-05
100	0xb897b926	-7.234728e-05
101	0x3785726c	1.5908117e-05
102	0xb8f4523f	-0.00011650146
103	0x38b4f5e3	8.628869e-05
104	0x39309ccb	0.00016843078
105	0x3885fd55	6.389121e-05
106	0x391a5ce2	0.00014721186
107	0xb9082c60	-0.00012986502
108	0x39a3b3af	0.00031223657
109	0xb884571e	-6.310477e-05
110	0x37753ae8	1.4616853e-05
111	0x39a5e64a	0.0003164283
112	0x3800e4e6	3.0730756e-05
113	0xb7e803e8	-2.7658374e-05
114	0x39ae72ce	0.00033273402
115	0xb8013fbe	-3.081536e-05
116	0xb841e9ac	-4.623241e-05
117	0xb94f4679	-0.00019767311
118	0x397b1d58	0.00023948157
119	0xb6cb3ce0	-6.0569582e-06
120	0x399c2732	0.00029783841
121	0x37a874eb	2.0081605e-05
122	0xb905b263	-0.00012750323
123	0x38816caf	6.171443e-05
124	0x387b0ab8	5.9853046e-05
125	0xb88e9fde	-6.800865e-05
126	0xb954b372	-0.00020284744
127	0xb815bd4a	-3.5700657e-05
