results/SlayRL_502/SlayTheSquire_RL.onnx (onnx, 82288 bytes, 10 tensors)

network_body.observation_encoder.processors.0.normalizer.running_mean f4 [12]
00000000: 2f3f 7c3f e173 2bbe 996f e13a c67a 463f
00000010: 17d7 70bf 4b2e 6fbf 4b2e 6fbf db0d 05bc
00000020: 0000 0000 0000 0000 65bd 10bc 7e35 83b9
0.9853391 -0.16743423 0.0017199396 0.7753109 -0.940782 -0.9343001 -0.9343001 -0.008120979
0.0 0.0 -0.008834218 -0.00025026122

network_body._body_endoder.seq_layers.0.weight f4 [128, 12]
00000000: 066f b3bd e651 043f 5047 533e c929 3cbd
00000010: 2096 b93c d456 9c3d c52d f73e 8692 b0bd
00000020: 99e0 b73e fb8e e03d 39c8 a1bd 91d8 bcbd
00000030: ed29 abbe d0b7 bcbc 4c75 8b3d 2b19 b23e
00000040: 8e9c 003f c5c9 20bd b432 56be 8e1a 56be
00000050: d071 66b8 91e5 94bd bed5 90be 30d3 cdbe
00000060: a77e acbd 7922 1bbf 6b16 783e 6493 7f3e
00000070: e3e5 c2bd e59a 2ebe 05c0 9a3e cc8e 823d
00000080: 2634 7fbd 67da 93bd 11d7 cabe 5f50 00bf
00000090: e851 813e 2e12 19bf f75e 4cbc 2b1d 643d
000000a0: a885 1e3f 1df0 39be d777 b33e 24c8 433e
000000b0: 078f 063e f9d5 50bc f1f0 1abd ecec 183e
000000c0: a174 b4bd 0566 debe b7c3 a6be 19d8 1f3e
000000d0: d8fc 27be a619 08bd 9289 b23e 9732 febe
000000e0: b052 ac3e f34c bb3d 2ed9 9ebe 69bd 9c3d
000000f0: 6943 d33e 8134 6d3e df56 59be a596 f6be
00000100: 4e54 a23d 6e62 ca3e 7160 053e 5ec3 54be
00000110: c0d6 aa3e 198a f8bd f8bf 7cbd 04b5 48be
00000120: 4000 f13e a85a 883e 18c3 c6bd 4125 9e3d
00000130: e405 813e 7496 b5bc be52 613e 244e 57be
00000140: 6701 553d 22f5 dbbb fd1e 9dbe c104 543e
00000150: 03fa 893c e460 50be cd25 483e f53c babd
00000160: dd2b a9bd 323b a53e 5583 23bd 0fdd 12bf
00000170: db15 00be 46d7 f6bb 2c78 503e 8529 093e
00000180: 7558 e7be b685 4fba 623d 54bc 9f2b f83e
00000190: 7b0c 783e 2528 0bbf 146b 40bd 9d51 d5be
000001a0: 88ce 813d 193f 2bbe 874d da3e 4543 adbd
000001b0: 59dc 39be 287a bf3e 1c97 c8be 0b7b 34be
000001c0: ccb0 913e c439 d6be 32c8 3dbe e76d f5bd
000001d0: 5889 1f3d 296c 19be f27b a83e fcbb fabd
000001e0: 9779 3e3f 9646 653e 1a05 df3d e526 123e
000001f0: 9d01 543d c404 4fbe 91e4 bbbc df2a 80bd
00000200: ae64 e43d ad3c c3bd 07f0 b13e c2b4 09bc
00000210: 82cc a6bd 09c7 903e 8f47 33be dafb b13e
00000220: f0f7 833e eb4c 283e 9d9d 3fbe 99df cdbe
00000230: 8f51 c43d a7d0 8e3e 74b6 263b 4b2a e53d
00000240: 60c0 95be b9cd de3e 8d1f ea3e b0f1 abbe
00000250: a5ad 8abd 41e6 833d 1b0c 18bd db9e 833e
00000260: ae07 7dbe 3039 233f 8379 dbbe 47a1 5c3e
00000270: 8256 08bf c798 953e 667a cb3e e2d3 b0bd
00000280: c207 c13e 515c 16be 982a ca3d faeb 8fbe
00000290: 92e0 673e 8c6b 4f3e 7d1b 1fbf e8ed a33e
000002a0: 0c64 04be 5a98 c7be 2d48 763d 44aa 6a3d
000002b0: 51bf 5dbe 7ef0 a23e 085e 5ebf 4624 7f3d
000002c0: f7c7 23bf 8f76 ebbd 3ff7 fbbc dd96 da3e
000002d0: fd5a 78bd 2126 923d f691 a8be 702f bcbe
000002e0: 5f4a 92be b625 3ebf a799 e63d 5029 003f
000002f0: e631 28be 3783 59be 185d 8cbe 5b9d 2ebe
00000300: 5373 e53d 08a1 1bbf 1ecf a63e 053c c0be
00000310: dc09 d4be 3569 ffbe 505f aebe d413 babe
00000320: 4735 9a3e 1e2e 513e bac2 0e3f d1c6 3fbe
00000330: dd57 1d3f 4941 05bf dd26 093d 0ac2 0c3d
00000340: ff21 07be e2ab 1b3e 19b7 073b 480f d4be
00000350: b26e 36be b353 b8be dc12 7bbe 4a7a 89be
00000360: 8bfe d1be 2c84 04be 5df6 273f 5feb 4d3c
00000370: 8021 303e afd8 0abf e800 4c3e 5506 f23e
00000380: e83d 8d3e 5316 333d 0a51 07bd 6d65 23be
00000390: 3dd7 903e 359c 8c3d ba27 3fbe 4285 07be
000003a0: 6966 5dbe 9517 053f 34b4 e0bd 79bb 60be
000003b0: f7a2 133e 5dc4 263f 7fd2 41bc 0a11 a83c
000003c0: 2cd3 833f 35d3 6b3e 8d0f 1c3e 88cb 9a3e
000003d0: a498 5abd 605e 563d df0a 343e bcca 44be
000003e0: 0923 753c 839b 793d 95e9 ce3e 02a0 48bf
000003f0: 71cb c93e 553b c6be 4620 d83c 860b b13d
-0.087614104 0.5168747 0.20632672 -0.045938287 0.022654593 0.07633749 0.48277107 -0.08621697
0.35913542 0.10964771 -0.078995176 -0.09220994 -0.33430424 -0.023036867 0.06809482 0.34784827
0.50238883 -0.039254922 -0.20917779 -0.20908567 -5.494227e-05 -0.07270349 -0.28288072 -0.40200186
-0.084225945 -0.60599476 0.24227302 0.24958569 -0.09516504 -0.17051275 0.30224624 0.063748926
-0.062305592 -0.07219391 -0.39617208 -0.50122637 0.25257802 -0.59793365 -0.012473813 0.05569188
0.61922693 -0.18158002 0.35052368 0.19119316 0.13140498 -0.012746328 -0.037827436 0.14934129
-0.08811308 -0.4343721 -0.32571194 0.15609778 -0.16405046 -0.033227585 0.34870583 -0.49647972
0.33656836 0.09145536 -0.3102507 0.076533146 0.41262367 0.2316456 -0.21224545 -0.48161808
0.07926236 0.3952822 0.1302507 -0.20777652 0.33366966 -0.12135715 -0.061706513 -0.19600302
0.47070503 0.26631665 -0.0970518 0.07721949 0.25199807 -0.022166468 0.2200422 -0.21025902
0.05200329 -0.0067125717 -0.30687705 0.20704938 0.016842848 -0.20349461 0.1954567 -0.09093658
-0.082603194 0.32271725 -0.03992017 -0.5736856 -0.12508337 -0.007532987 0.20358342 0.13394745
-0.45184675 -0.0007916348 -0.012954088 0.4847078 0.24223511 -0.5435813 -0.046977118 -0.41663828
0.06338221 -0.16723289 0.42637274 -0.08460096 -0.18150462 0.37397885 -0.39177787 -0.17625062
0.28455198 -0.41840947 -0.185334 -0.11983853 0.03894934 -0.14982666 0.32907063 -0.122428864
0.7440428 0.22390208 0.10889645 0.1427265 0.05175935 -0.20216662 -0.022936137 -0.06258177
0.111520156 -0.09533057 0.3475344 -0.008404912 -0.081444755 0.28276852 -0.17507766 0.3476246
0.257751 0.16435592 -0.18712468 -0.40209654 0.095858686 0.27893564 0.002543834 0.11189707
-0.29248333 0.4351633 0.45727196 -0.3358283 -0.06771401 0.06440402 -0.03712092 0.25707135
-0.24709961 0.63759136 -0.42866144 0.21545897 -0.53257 0.29218122 0.3974182 -0.086341634
0.3770123 -0.14683653 0.09871405 -0.28109723 0.2264426 0.2025587 -0.6215132 0.32017446
-0.1292879 -0.38983423 0.060127426 0.057291284 -0.21655013 0.31824106 -0.8686223 0.062290452
-0.63977 -0.11497223 -0.030757545 0.42693225 -0.06063365 0.07136179 -0.3292386 -0.36754942
-0.28572366 -0.7427629 0.112597756 0.5006304 -0.16425285 -0.2124146 -0.27414775 -0.17052214
0.11203637 -0.6079259 0.32579893 -0.3754579 -0.41413772 -0.49884954 -0.34057093 -0.36343253
0.30118772 0.20427749 0.5576588 -0.18728186 0.61462194 -0.5205274 0.03348433 0.034364738
-0.13196562 0.15202287 0.00207085 -0.4141791 -0.17815664 -0.36001357 -0.24518913 -0.26851112
-0.41014513 -0.12941045 0.65610296 0.012568324 0.17200279 -0.5423688 0.1992222 0.47270456
0.27586293 0.043722462 -0.03303627 -0.1595666 0.28289214 0.068657316 -0.18667498 -0.13234428
-0.21621098 0.5198911 -0.10971871 -0.21946515 0.14417635 0.65143377 -0.011829971 0.020515937
1.029882 0.23029788 0.15240307 0.30233407 -0.053368226 0.052336097 0.17582272 -0.19217962
0.014961966 0.060939323 0.40412584 -0.7836915 0.39413026 -0.38717142 0.026382577 0.08644776

network_body._body_endoder.seq_layers.0.bias f4 [128]
00000000: 324a 133d 3456 28bd 667e 84bc d875 303c
00000010: 6113 28bd c1d8 ce3c 5755 203c d280 62bd
00000020: cd59 27bd 06cf 653d c5ad 723d 6a7d 123c
00000030: 4ecf 54bd a5bc 81bd 574b 8a3d 444b 953c
00000040: 05a7 483d 7eaa 7abd a1b9 973d 6c2d 42bd
00000050: e33d 893d 3b33 193d feaa 53bc 9d24 f93c
00000060: 0e46 fa3c 7943 653d 36f7 6dbc 8212 383c
00000070: 8117 123d 03dd 68ba ea9d 2a3d 5568 a7bc
00000080: b4dd 7bbc a0e9 4e3d 69e6 f73c 0d14 8ebb
00000090: 2e63 4c3c c717 a13d ed3f ed3c e5e7 123d
000000a0: b63c 5d3d db41 173d 247a 173d bae8 043d
000000b0: fd6f 04bd 40b1 fbba 2855 8b3d 3b7c 60bd
000000c0: 66a7 273d e0f6 43bd 60f9 433d 721d ae3d
000000d0: d77b ad3d e9ad a83c 65b0 ea3c 8e28 03bd
000000e0: 1dc6 2d3d c020 8abd 1cba cabc d994 723d
000000f0: 730a e9bb b31b 803d cf0c 71bd 60ee 963d
00000100: 22b9 073d f263 e13c 75d1 f1bc 80c1 3bbd
00000110: 7482 ea3c 9cfa e73c 126f 12bc 77c9 993c
00000120: 24fa 8f3d b650 573d e0d7 68bc cf26 823d
00000130: fe8c 813c bc21 d6bc d0a3 223d 3612 263c
00000140: 3a1a 40bc b504 3bbd fb91 d03c 21d1 973d
00000150: 5e27 073d 074e 443d 52a2 9d3d b959 39bd
00000160: 9f18 ce3c ff5c 0abd 3f51 a63d 74e2 22bc
00000170: 2c04 043b 430a 113d cd57 3a3d f934 643d
00000180: adbb 493c ad9a 25bc 01f2 b7bc 8f00 01bc
00000190: d739 48bd 3dc8 233d f5a9 1dbb 56b3 87bd
000001a0: 4a1d 90bd a4cb bdbc 0909 423d 3f02 853d
000001b0: 5d96 f9bc 7a47 823c 9a18 1a3d 5043 433d
000001c0: 56ce a83d 9528 143d 434d 66bd 5792 8b3c
000001d0: 63e8 85bc 8dd4 0abd a895 5ebc 7867 ff3c
000001e0: 6df3 70bd 5a05 f63c 17d3 c73b 1d82 843c
000001f0: f0e1 b7bc 893e 433c c763 69bb 058f 7f3d
0.03595943 -0.041097835 -0.016173553 0.010770284 -0.041034106 0.02524984 0.009785972 -0.055298634
-0.040857125 0.056105636 0.05924775 0.008941034 -0.051955514 -0.06334809 0.06752651 0.018224366
0.048987407 -0.06119775 0.07408453 -0.0474066 0.06701257 0.037402373 -0.012919186 0.030412966
0.030550983 0.05597255 -0.014524272 0.011234881 0.035666946 -0.0008883031 0.041654505 -0.020435492
-0.015372682 0.05051577 0.030261235 -0.0043358863 0.012474818 0.07865863 0.028961146 0.035865683
0.054012977 0.03692804 0.036981717 0.032448508 -0.032333363 -0.0019202605 0.06803352 -0.054805975
0.040931128 -0.04784286 0.047845244 0.0850171 0.08470886 0.02059074 0.028648565 -0.032021098
0.042425264 -0.06744528 -0.024746947 0.059223983 -0.0071118413 0.06255283 -0.058850106 0.07369685
0.03313554 0.027513478 -0.029518822 -0.045838833 0.028626658 0.028317742 -0.008937614 0.018772824
0.070301324 0.052567206 -0.014211625 0.063550584 0.0158143 -0.026139133 0.039707005 0.010136178
-0.011725003 -0.045658786 0.025460234 0.07412935 0.032996528 0.047925975 0.07696976 -0.04525158
0.025158225 -0.033780094 0.08120965 -0.009941686 0.0020144088 0.035410177 0.04549389 0.05571458
0.012312812 -0.010107678 -0.022454264 -0.007873668 -0.048883285 0.039985884 -0.00240576 -0.066260025
-0.070368364 -0.023168392 0.047371898 0.06494569 -0.030467207 0.015903223 0.037621118 0.047671616
0.082424805 0.036171515 -0.056226026 0.017037554 -0.016346162 -0.03389411 -0.0135854855 0.031177267
-0.0588259 0.030031849 0.006098162 0.016175324 -0.022446603 0.011916765 -0.003561245 0.062392253

network_body._body_endoder.seq_layers.2.weight f4 [128, 128]
00000000: a4bd 10bc a423 29bc 3dea b23d 9716 9f3d
00000010: 4d19 01be 0d07 ff3b 7a3d efbc e396 50be
00000020: 0957 88bd 2b9a 0d3e 33da 9a3d b955 96bd
00000030: f8ba c43d 4d68 94bd 9c53 df3b a5fb 05bc
00000040: c639 80bc e2ea 1f3d 2638 4a3e 8f48 04be
00000050: 8681 f4bd e766 bf3d a046 293e 91ea f5bd
00000060: 4451 bd3d 7c53 cd3d caf4 01be c38a 83bb
00000070: 1fe5 663d ff38 143e 7c61 de3b 41ea 8ebd
00000080: 22aa 023e 643e 07be cdc7 0c3c d8f9 7e3c
00000090: 09c6 ffbc 4941 e63d f6f6 d33d 1b50 5d3d
000000a0: 945b 9ebd 3965 f43d 5bff b03c 318b b23b
000000b0: aa23 1e3c 20ae 84bd ca1a 193d 9657 2abe
000000c0: ec9a 3a3e 9eec 273e 24bc bbbd 51b8 f23c
000000d0: e858 90bd 6671 f83d fe19 1bbd 9656 a0bd
000000e0: e02e 6cbc 5c1a be3d 09c5 453d c4de cc3d
000000f0: 8bf2 153d d8a6 87bd 66c2 bdbd 44e0 7e3d
00000100: 32e9 f03d 9a01 1ebe c103 453d 4280 113e
00000110: 08fb 8cbd fde2 babd 2c33 b63d 075e 5a3d
00000120: dd54 873d 61b7 3bbe 08fc 983d 84f5 3c3d
00000130: d580 a03d 18ff 963d b21e e8bd fec9 51bd
00000140: 8453 623d 59e5 113d 05f9 7f3d d1ce a53d
00000150: 6406 d63c c33a 1a3d 0d8a 703b 9314 debd
00000160: 37bd a8bd 96cc 783c a6a0 433c 4a19 2f3e
00000170: c2d8 c6bd 5548 aabd 92c2 3cbd e3d9 7a3a
00000180: 21df a3bd 709e 56bd e8a7 05bb 1379 e23d
00000190: f152 b7bc d338 753d 8942 003d 4c54 13bc
000001a0: 1928 3cbb af30 fc3b 7849 cbbd 529f 49be
000001b0: 5188 283e bbdb 003c 4ae2 d83d 993e 02be
000001c0: 22d0 9e3d 664c 25bd 80ed 3bbc 275b 05be
000001d0: 07e8 8fbd a572 2cbd 69c2 623e 75d0 16bd
000001e0: 80bb 183d aa64 afbd c875 9ebc bf2b 633d
000001f0: 9d54 9ebd c222 bcbb 5242 61bc 3bf7 adbd
00000200: aee0 92bd 9be2 27bd d4db 983c 79cb 34be
00000210: 0d9c d53c 955d c13c d049 bebd 1cf9 b43d
00000220: cb84 413e 6655 1f3d 7bdf dbbd a5be b73d
00000230: b7c2 cc3d 286f 3d3e 7e87 8d3c eea8 08be
00000240: 7bcb 35be aada a1bd c768 503d 0c3e e23d
00000250: e333 a03c 32bf 5f3d 52cb ad3d aa44 9f3d
00000260: d81f 963d ca88 92bd ceed dcbc 39e7 de3d
00000270: 3e72 7bbd c932 f03d 2dcb d5bd 0784 13bd
00000280: 7787 8c3d 0209 19bd fe51 033e 6e59 353d
00000290: 05f5 83bd ffbd 803b 5f5c 083e 75eb f3bd
000002a0: 7b7b a43d 7e26 97bd 9721 8d3d 66e5 89bc
000002b0: db49 adbd fc27 8dbd 9d05 8abd 70ed 343c
000002c0: f7f7 78bd ddcd 35bc 6d9b dabd b3a2 44bd
000002d0: d3bc f4bc d58a 013d 5dca cabd 9b7b 373d
000002e0: f7db 8fbd 5d22 143c 745b c2bc 8f50 66be
000002f0: 262e 923d 22c7 1dbe 67f5 b33c 66ff 2f3d
00000300: 8d91 56bd 6d80 a4bd 60c2 6bbc 5317 083e
00000310: 2026 41be db31 80bd ea28 da3c fffa 87bd
00000320: 66f9 1d3a 9810 c1bd 849e 353d 9719 223e
00000330: 9da8 003d 0199 e73d 6d72 6fbe e649 d03d
00000340: cc2a 9d3d 00b7 f53d df22 b03c 5b13 5dbd
00000350: 6e01 cbbc 7371 a0bd 5c25 bebc 82d5 463d
00000360: e1c6 9dbd f5bd f53d 4753 f03b d33a 963d
00000370: 150b d33c 82ac 3d3d 053f e0bd 2528 d33c
00000380: f69b fa3d ab1a 973d 74a0 1a3d efab c1bd
00000390: f24f e33b 7e04 fb3d 75ce 04be 5414 14bd
000003a0: 1579 bf3d 3ce5 643b 7c2a 14bd 33bf 7bbd
000003b0: 5f7e d73d 108e dbbd a3e5 973c 5d3f 49be
000003c0: bf1a 24be b6af 94bc cf8b e13d 37ff 013d
000003d0: e53b 053d 0826 2fbd c897 d6bb 69f2 233d
000003e0: f0c9 28bd fc81 12be 33e5 0e3d fefe 63bd
000003f0: f3dc 423c b170 973d 89fd 82bc f6be 83bd
-0.008834276 -0.010323439 0.08736084 0.077679805 -0.12607308 0.007782823 -0.029204119 -0.20370059
-0.06657226 0.13828342 0.075611494 -0.07340569 0.09605974 -0.07246456 0.006815387 -0.0081776725
-0.015652549 0.03904236 0.19747981 -0.12918304 -0.11938767 0.09345799 0.16530848 -0.120076306
0.09244016 0.10025689 -0.12691036 -0.0040143444 0.05637085 0.14474867 0.0067865234 -0.06978274
0.12760213 -0.13207394 0.008592558 0.015562497 -0.03122236 0.11242921 0.103498384 0.054031473
-0.07732311 0.11933369 0.021606138 0.005448722 0.009652058 -0.06478524 0.037379064 -0.16634974
0.1822316 0.16398856 -0.09166744 0.029628905 -0.070482075 0.12131004 -0.037866585 -0.07829015
-0.014415473 0.092823714 0.04828361 0.10003427 0.03660826 -0.0662362 -0.09265594 0.062225595
0.117632285 -0.15430298 0.048099283 0.14209083 -0.06883818 -0.09125326 0.08896479 0.053312328
0.06607983 -0.18331672 0.07469946 0.04613258 0.07837073 0.07372874 -0.1133398 -0.051218025
0.055255428 0.035619114 0.062493343 0.08096088 0.026126094 0.037653696 0.0036703378 -0.10843768
-0.08239215 0.015185496 0.011940157 0.17099491 -0.09709312 -0.083145775 -0.046083994 0.0009569211
-0.08001543 -0.05239719 -0.002039427 0.11058249 -0.022378417 0.059868645 0.031313453 -0.008992266
-0.0028710424 0.007696233 -0.099261224 -0.19689682 0.1645825 0.007864888 0.10590036 -0.12719192
0.07754542 -0.040356062 -0.011470199 -0.13023053 -0.070266776 -0.04210152 0.22144474 -0.036819894
0.03728819 -0.08564122 -0.019343272 0.05546164 -0.077309825 -0.005741448 -0.013748722 -0.08494421
-0.071717605 -0.040987592 0.01865951 -0.17655744 0.026075387 0.023604194 -0.09291422 0.08836576
0.18898313 0.0388998 -0.10735985 0.089719094 0.099980764 0.18499434 0.017276522 -0.13345692
-0.17753403 -0.07903035 0.050881173 0.11046991 0.019555992 0.054625697 0.08486046 0.077767685
0.073302925 -0.07154997 -0.026968863 0.10883946 -0.061388247 0.117284365 -0.10439143 -0.036014583
0.06861775 -0.037362106 0.12824246 0.04427474 -0.06443218 0.0039288993 0.13316487 -0.11910144
0.080313645 -0.07380389 0.068911724 -0.016833019 -0.084613524 -0.06892392 -0.06739352 0.011042938
-0.060783353 -0.011096445 -0.10674176 -0.048006725 -0.029875195 0.03162654 -0.09901879 0.044795614
-0.07024377 0.009041396 -0.023725249 -0.22491668 0.07137708 -0.15407994 0.021967603 0.042968176
-0.0523849 -0.08032308 -0.014389604 0.13290147 -0.188622 -0.06259509 0.026630837 -0.066396706
0.0006026238 -0.09426993 0.044340625 0.15830074 0.031410802 0.1130848 -0.23383494 0.10170345
0.076741785 0.11997795 0.021501003 -0.053973537 -0.024780955 -0.07834139 -0.023211174 0.04854346
-0.07703949 0.11999122 0.007334146 0.073354386 0.02576212 0.046307094 -0.1094952 0.025775978
0.122367784 0.073781334 0.037750676 -0.09456622 0.0069370205 0.12256716 -0.12969382 -0.0361522
0.093492664 0.0034926673 -0.03617333 -0.06146164 0.1052215 -0.10720456 0.018542117 -0.19653077
-0.16025828 -0.018150192 0.110129945 0.031737532 0.032527823 -0.04276088 -0.0065488555 0.040026102
-0.041208208 -0.14307398 0.03488655 -0.0556631 0.011893499 0.07394541 -0.015990036 -0.06432907

network_body._body_endoder.seq_layers.2.bias f4 [128]
00000000: 77d0 5ebc f482 5bbd 31aa 863d 638b 3f3d
00000010: bd3a 513d cedd 3c3d e27a 83bc b098 06bd
00000020: db3d 2ebc 03dd 48bc c2ca 883d 3ed7 463d
00000030: 28a7 6b3d 28ad 4c3d 661f 103d 15d0 bcbc
00000040: 76c5 f3bb da7f 6f3d 004b 393d 6a33 003d
00000050: 136d cebc b64c 37bd 1dd4 8e3d 6d9f 313d
00000060: 66e4 1d3d 3939 7e3d 6412 1e3d 2b4c 71bd
00000070: 0acc 44bd 692a 88bb 4011 26bd 78e5 2d3d
00000080: 9cb2 c73c 643d 54bd b5ae ecbb 21d8 22bd
00000090: c4d1 3e3d 8325 5f3d f182 1cbc 51b1 66bd
000000a0: 54e0 f13c 99bc f43c f84e 493d 1f74 393d
000000b0: d1c3 72bd 4a5d d53c a845 253d ef1c 1c3d
000000c0: 1af6 16bd 390c f73c e72e 973c 456b 53bb
000000d0: 5dc8 8c3c 7b06 823d d784 213d f85e 163d
000000e0: c50f 013c c3bc 05bd b851 433d 839b 1d3d
000000f0: 5f5e 66bd 0a63 6b3d 6061 1fbd 3ac5 91bc
00000100: 0fbc 583d 647f 3ebd a57f 49bd bbcd ea3c
00000110: d0d1 6ebd c985 353d 985a 263d 142e 193c
00000120: 2da5 823d a2c4 41bd 23ca b1bc 171a f73c
00000130: 9855 053d 49dc 423d fa5c 3a3d a2c3 3cbd
00000140: faf4 5abd 272d cdbc 76d0 f2bb 424a 3e3d
00000150: ea1e 403d 1333 633d 0867 f13c cea5 95bc
00000160: ea20 0f3d 894f 53bd ea3f 943c cf5d 45bd
00000170: a200 5b3d 0b85 82bd 6de9 4d3d 588e 1ebd
00000180: 436c 81bd ed63 903c 8352 3c3d 2d3a f8bc
00000190: d1ed 95bb e21f 2e3d 34f2 e83c 778d 173d
000001a0: 8a16 613d 7d40 133d 443a 503c 6973 4e3d
000001b0: c4c7 50bc d3f4 b0bb 1ccf 373d c6a9 69bd
000001c0: 9a53 32bd f707 1a3d e094 1539 25b1 043d
000001d0: b39d 333c f827 333d b771 633d 919a ba3c
000001e0: 803f 39bd 1e78 3ebd 0484 6bbd 5f0d 393d
000001f0: 5a74 f0bc c019 8dbb 5a30 503d 9171 383d
-0.013599507 -0.053591684 0.0657543 0.04676379 0.051081408 0.046109967 -0.016049806 -0.032860458
-0.010634865 -0.012259725 0.06679298 0.048545115 0.05753246 0.049969822 0.035186194 -0.02304844
-0.0074393107 0.058471538 0.04523754 0.031299032 -0.025198495 -0.04475089 0.06974051 0.04336493
0.038547896 0.06206629 0.038591757 -0.05891053 -0.04804615 -0.0041554463 -0.040543795 0.042455167
0.02437716 -0.05181636 -0.007222975 -0.039756898 0.046586767 0.054479133 -0.009552703 -0.056321446
0.029525913 0.029875087 0.049147576 0.045276757 -0.059268776 0.02604546 0.040349633 0.03811353
-0.036855794 0.030157195 0.018454982 -0.0032259983 0.017185384 0.06348892 0.039433327 0.036711663
0.007877295 -0.03265072 0.047685355 0.038478386 -0.056242343 0.057467498 -0.038911223 -0.01779424
0.05291372 -0.046508208 -0.049193997 0.028662553 -0.05830556 0.04431704 0.04061374 0.009349365
0.06379161 -0.047306664 -0.021702832 0.030163808 0.03255233 0.04757336 0.045498826 -0.046085007
-0.053456284 -0.025045944 -0.0074101044 0.046457537 0.046904482 0.05546863 0.029468074 -0.018267538
0.0349435 -0.051589523 0.018096883 -0.048185166 0.0534674 -0.06373032 0.05027144 -0.03870997
-0.063194774 0.017625773 0.045977127 -0.030301178 -0.004575469 0.042510875 0.028435804 0.037000146
0.054953136 0.035950173 0.012709204 0.050403032 -0.01274294 -0.005400279 0.04487525 -0.057046674
-0.04353676 0.037605252 0.00014265208 0.0323955 0.010962891 0.04373929 0.05552837 0.022778781
-0.045226574 -0.04650127 -0.057498947 0.045178767 -0.029352356 -0.004306048 0.05082736 0.04503018

action_model._continuous_distribution.log_sigma f4 [1, 2]
00000000: daca 433b 5f2c 68bc
0.0029875548 -0.014170735

action_model._continuous_distribution.mu.weight f4 [2, 128]
00000000: c4df f93c 153d 753d 847f 123c 5bfa 103d
00000010: 2e78 60bd 70aa 52bd d8b8 253d 0ec8 f53b
00000020: 88f0 0b3d 6ce1 4fbc 7dd9 60bd 8fb8 08bd
00000030: ac7c e0bb abd6 85bd be08 12bd 44c9 a7ba
00000040: 0b41 763d 00ce 69bd fe9c d8ba 1a51 63bc
00000050: ebbe 023d 7fb0 9f3c d5a1 80bd 06f7 24bd
00000060: ee3f 1b3d 71a6 edbc 4b29 2abd 0b20 863d
00000070: 89d0 c93c e4a7 6a3d 5609 503d 00fa 14bd
00000080: f8dc 89bc 608e a93c 2036 773c dcaa 823d
00000090: 6249 26bd 9536 54bd 4f78 803d 3f45 823d
000000a0: d566 a5bc 729c 32bd d015 35bd db8b 2bbd
000000b0: 4182 3b3d 27b8 88bc eb35 89bd 1c29 01bd
000000c0: 3861 ef3c 429c 86bd 0658 f1bc ced6 393c
000000d0: c9dc 05bd 0b91 42bd 465a 69bd 9694 f7bc
000000e0: b941 c23c 2984 253d b8ec 3abd 42fe 5cbc
000000f0: 342a 663d f705 07bd acc7 573d fdc8 1e3d
00000100: 9d67 2dbd 8865 273d bc77 033d f82c 2d3d
00000110: 49ae 8b3d 71fc 67bc f251 90bc c36c a7bc
00000120: afdc 27bd e49a 9a3d 48e0 ae3d 7b76 543d
00000130: ab90 e7bc 2f4a 1fbd 9da0 39bd 8e68 843d
00000140: e4a2 4b3d 3d98 673d 9aa8 863d 6c2c 4dbd
00000150: 49ee 1c3b 554a 17bd 14e2 a2bc 69b8 473d
00000160: 408e 61bd 17af 923d b669 1bbd 7c23 623d
00000170: bff4 a6bc 75a4 4b3d c1a1 9aba 9f38 173d
00000180: 986a 6a3d 3764 613d 11e3 06bd b05f 1139
00000190: 4f7a 6abb ab9a 99bd 3178 56bc e9b1 a83c
000001a0: 1aff 84bd da56 873c 3b2a c9bc c836 85bd
000001b0: 15ec cc3c f309 c4bb df0c 783c fdcf 8d3d
000001c0: 8fa0 b43c f974 63bb 0c7f 303d 4f2a c6bc
000001d0: b020 ddbc fcc4 973b d31c 07bd 8287 1fbc
000001e0: 5ce1 143c d749 5b3d 2051 3e3d 75a2 1fbd
000001f0: f1ce 953a a01e 483c 8f86 37bd 0dad 8cbc
00000200: 2dab 57bd 5c57 433c 4e6a e4bd 66ea b2bd
00000210: 7228 a3bc f9ff 363d 7023 9cbc 8b6e 4a3d
00000220: 867e 10bd 97d9 bb3c 7403 633d 0e2a 4ebc
00000230: 93ef 9abd ebf8 2c3d f9ad 0dbd 05ff 00bb
00000240: 802c 75bd 2c6f fc3c 0378 bfbc 32b8 a2bc
00000250: c068 a0bc 6553 0b3c 3d6d 893d afa9 f1bb
00000260: ce44 f2bd 329f 47bd 1427 dd3d dc9c 4f3c
00000270: 1cf9 e13c e4cb 44bd 787e b5bb 2141 8bbb
00000280: 43c4 f53d bccb d63c afa4 b63d 0837 90bc
00000290: 703e d03c 2a95 53bd 9212 94bd 6ece 523b
000002a0: 2073 46bc 9ea2 ab3c 5ff5 00bc 3835 b13c
000002b0: 2f66 ab3c 50c9 35bc 1c94 c23d 7dd3 03bc
000002c0: b802 c33c 8633 e13c 91bd 913d 7866 85bc
000002d0: 3652 5e3d b955 8b3d 0f15 823c b1d8 12bd
000002e0: dccc 28bd 18fb 57bc b575 c43c 72fe 0739
000002f0: 2f86 c83c 6b50 dabc c376 86bc 4377 ffbc
00000300: aaca a3bc f5fd 943c 9f84 a13c 9866 00be
00000310: c81c fc3c 7a86 79bc f9a1 f43c 73c4 fd3c
00000320: b50d 0fbd 955b aebb e9c7 3cbd 1bdb e1bd
00000330: 3a85 e93b 5a3a 8b3b 6271 0c3c b1e8 09bc
00000340: c948 353d ad77 06bd 4082 99bd 8ff5 133c
00000350: 1478 3fbd e984 f6bc e1f2 59bc 34e7 17bd
00000360: 64bc 5dbc 6723 ef3b 83d5 243d 4ad0 f9bb
00000370: c4cf febc b337 a53c c9c7 acbd 8246 13bc
00000380: f8f7 b83b 3481 ebbd 8a7f 22bc 60e3 9c3c
00000390: 50a3 283b b750 cf3d 7e28 2ebd d5f4 c7bd
000003a0: 2716 0c3e 0a1b 9bbd 202a 253d 3f67 15bc
000003b0: 9571 3dbd b874 093d acf4 b1bd e49b b83b
000003c0: 063d bb3c ac05 32bd 3b0a 67bd 8865 76bc
000003d0: db4f f63d 0f12 b0bd ad38 97bb e1ba 8ebc
000003e0: ddd3 473d c4e1 0fbc 0019 f33c 0820 3aba
000003f0: 94f7 02bc a26f 003e 2ec0 febc d8e0 aebc
0.030502208 0.059872705 0.008941535 0.035395008 -0.054802112 -0.051432073 0.040459484 0.007500655
0.034164935 -0.012688022 -0.054894913 -0.033379134 -0.0068507995 -0.06535085 -0.03565287 -0.0012801071
0.060120624 -0.057081223 -0.001652628 -0.013874317 0.031920355 0.01949334 -0.06280867 -0.040274642
0.037902765 -0.02901003 -0.041543286 0.065490805 0.02463557 0.05728902 0.050790153 -0.03637123
-0.016828999 0.020697773 0.015088588 0.06380245 -0.040597327 -0.051809866 0.06272947 0.06360864
-0.020190636 -0.04360623 -0.044210255 -0.041881423 0.045778517 -0.016689373 -0.06699737 -0.031533346
0.029221162 -0.065727726 -0.029460918 0.011342717 -0.03268126 -0.047501605 -0.056970857 -0.030222218
0.02371298 0.04040924 -0.04563591 -0.013488354 0.05619259 -0.032964673 0.052680656 0.038765896
-0.04233514 0.040868312 0.03209661 0.042279214 0.06820352 -0.014159308 -0.0176172 -0.020437604
-0.040981945 0.07549074 0.08538872 0.051870804 -0.028267225 -0.038889106 -0.04531919 0.06465255
0.04971589 0.05654167 0.06575127 -0.050091192 0.002394574 -0.036936123 -0.019883193 0.04875985
-0.0550673 0.07162302 -0.03794261 0.05520962 -0.020380376 0.049717385 -0.0011797474 0.036919232
0.057230562 0.055027213 -0.03293139 0.00013863924 -0.0035778468 -0.07500204 -0.013090179 0.020592647
-0.06493969 0.016520906 -0.02455627 -0.06504589 0.025014916 -0.0059826314 0.015139787 0.06924436
0.022049217 -0.0034707172 0.04308991 -0.024190096 -0.026993126 0.0046316367 -0.032986473 -0.009736897
0.009086933 0.053537216 0.046464086 -0.03897329 0.0011429471 0.012214333 -0.04480606 -0.01717236
-0.05265348 0.011922684 -0.111530885 -0.08736114 -0.019916747 0.04467771 -0.019059867 0.04942183
-0.035276912 0.022930903 0.055423215 -0.012583269 -0.075652264 0.042229574 -0.03458974 -0.0019683253
-0.05985689 0.03081473 -0.023372656 -0.019863222 -0.019581199 0.0085037695 0.06710289 -0.007374964
-0.1182953 -0.048735805 0.10798469 0.0126716755 0.027584605 -0.048046008 -0.005538758 -0.0042497073
0.120003246 0.026220195 0.0891813 -0.017604366 0.025420398 -0.051655926 -0.072301045 0.0032166499
-0.012112409 0.020951565 -0.007871001 0.021631822 0.020922748 -0.01109536 0.09500906 -0.008046028
0.023805007 0.027490389 0.07116235 -0.016284212 0.05427762 0.0680346 0.015879182 -0.035851184
-0.041210994 -0.013182424 0.023981908 0.00012969392 0.024478046 -0.026649674 -0.016414052 -0.031184798
-0.019994099 0.018187502 0.019716559 -0.12539136 0.030775443 -0.015229816 0.02986239 0.030977463
-0.03492518 -0.005320976 -0.046089087 -0.11028119 0.0071264775 0.0042488994 0.008571954 -0.008417294
0.044258866 -0.032828975 -0.07495546 0.009030714 -0.046745375 -0.030092673 -0.013302536 -0.037085727
-0.013533685 0.0072979215 0.040242683 -0.007623707 -0.03110493 0.020168161 -0.084365435 -0.008988978
0.0056447946 -0.11499253 -0.009918103 0.01915139 0.0025732107 0.10122817 -0.042519085 -0.09763495
0.13680325 -0.07573517 0.040323377 -0.009118854 -0.0462509 0.033558577 -0.086892456 0.005633818
0.022856247 -0.04346244 -0.05640624 -0.015038855 0.1202695 -0.085971944 -0.0046149106 -0.017423095
0.048786033 -0.008781854 0.029675007 -0.000710011 -0.007993598 0.12542585 -0.031097498 -0.021347448

action_model._continuous_distribution.mu.bias f4 [2]
00000000: 6c87 42bd 6ab4 84bc
-0.04749243 -0.01619931

action_model._discrete_distribution.branches.0.weight f4 [1, 128]
00000000: ef33 353c eb0f 2c3b 1be0 88bb ca33 573b
00000010: f3eb 5f3b 30ea 203b c5fa 56bc da2f fa3b
00000020: 0e8e 953a baca 7dbc 7f39 663c a103 0ebc
00000030: 72c5 12bc 4a31 8a3b b36e 21bc 89be 3f3c
00000040: 5d56 33bb 64de be3a 059f 2bbb b598 803c
00000050: 4afd 503b 5695 2bbc e331 90bb 076b 58bc
00000060: 9bac 7bba ee94 853c 77ae 7cbb 96fb 98bc
00000070: bc3e 86bc cc77 8abb f99d 333b 10e6 ad3b
00000080: f032 00bc 0c8c 153b 5a04 5bbb 4190 9d3b
00000090: a614 3a3c 19af 073b 34c4 84bc a56a 87bb
000000a0: ec35 3f3c c49a c2bb 0323 aebb dd70 103b
000000b0: e67c 2bbc b705 823b e890 9b3b 0b19 863b
000000c0: dbcc a13a 0fd6 a4bc 49c0 213c b0a4 f5b9
000000d0: ef94 74bb b531 65bb 227d 9b3b 3d3e e839
000000e0: 207b dd3a 6f33 9d3c f58b d13b 1034 df3b
000000f0: 53d3 543c c8b7 193b 1b13 333c 72df 923b
00000100: 6608 93bc 5ece 97b9 19df 343c 1b3b 463a
00000110: 07dd a23b 3477 32bb 2cbf 273c ed61 d33b
00000120: 834d b8bb 270b 683c 301a 8e3c 77ff 7f3c
00000130: 1b0c 793b 2b90 26bc 23df c33b 22e6 5e3b
00000140: fbe2 5cbb 56b4 8938 b5c3 0fbb 41da 963b
00000150: db22 063c 2366 493a b531 893b 387f 48bc
00000160: 4fbf 31bb 6146 b43b bfc0 1d3b 508e 643c
00000170: a278 033c b072 d13b 865d bc3b 4744 1f3c
00000180: 9505 2c3c 41c8 84ba aaee 33bc 1f76 973b
00000190: 370e 30bb b781 2dbc e08d 1a3a af7b 0fbc
000001a0: f389 96bb 709d b43a f168 9e3b 1794 2ebb
000001b0: b774 d43a 1ac3 35ba fae3 e8ba 267c 0fbc
000001c0: 2981 483c dfa8 ecbb 1fd6 17bc 6bbb 213c
000001d0: d38b ab3b 2656 35bc 0d34 3038 16fe 343c
000001e0: 8b53 45bb 8d3f 783c 7dfb 6eba 2dad 9f3a
000001f0: e2a5 373b 02f8 a73b 5441 1a3b aa8d e63b
0.011059745 0.0026254605 -0.004177106 0.0032837265 0.0034167736 0.002455365 -0.013121312 0.007635099
0.0011410133 -0.015490228 0.014051794 -0.008667857 -0.008958207 0.0042173015 -0.009853053 0.011703142
-0.002736471 0.0014562127 -0.0026187312 0.015697816 0.0031889253 -0.010472616 -0.004400478 -0.013209111
-0.00096006104 0.016306367 -0.0038556138 -0.018674653 -0.016387336 -0.0042257067 0.0027407391 0.0053069666
-0.007824644 0.002281907 -0.0033419342 0.004808456 0.011357462 0.0020703732 -0.016206838 -0.004132586
0.011670571 -0.0059388597 -0.0053142323 0.0022039928 -0.01046679 0.0039679664 0.004747499 0.004092341
0.0012344377 -0.020121602 0.0098725045 -0.00046852743 -0.0037320217 -0.0034972255 0.0047451416 0.0004429686
0.0016897656 0.019189565 0.006394858 0.0068116263 0.012989837 0.002345549 0.010929848 0.004482203
-0.01794834 -0.0002895472 0.011039519 0.0007561908 0.004970196 -0.0027231695 0.01023845 0.0064508826
-0.0056244745 0.014162815 0.017346472 0.015624872 0.00380016 -0.010166208 0.0059775277 0.0034011682
-0.0033704627 6.566259e-05 -0.002193672 0.0046036546 0.008187021 0.0007682761 0.0041868337 -0.012237363
-0.0027122085 0.005501554 0.0024071184 0.013949946 0.008024367 0.0063918456 0.0057484536 0.009720868
0.010499378 -0.0010130481 -0.010982195 0.0046222354 -0.0026863941 -0.010590008 0.0005895775 -0.008757516
-0.0045940815 0.001377983 0.0048342873 -0.0026638561 0.00162091 -0.00069336744 -0.0017768138 -0.008757627
0.012237825 -0.0072222794 -0.009267359 0.009871344 0.005235174 -0.011067903 4.2010146e-05 0.011046907
-0.003010961 0.01515187 -0.0009116454 0.0012182348 0.0028022458 0.0051260004 0.0023537474 0.0070359306

onnx::Div_70 f4 [12]
00000000: 6d67 ca3b 85f3 033d 75ee 233b 1015 9c3d
00000010: f3b5 713e 3ab7 7d3e 3ab7 7d3e 02e1 b73d
00000020: f2ec 233b f2ec 233b 7cb5 bf3d 3f30 833c
0.00617688 0.03221466 0.0025013958 0.07621205 0.23604564 0.24776927 0.24776927 0.08978464
0.0025013057 0.0025013057 0.09360787 0.016014216
