results/SlayRL_024/SlayTheSquire_RL/checkpoint.pt (torch, 466475 bytes, 47 tensors)

network_body.observation_encoder.processors.0.normalizer.running_mean f4 [12]
00000000: 515c 773f 9261 82be af2f 073b 41ff 7f3f
00000010: 3896 2bbf 1e2e b9bb 9a40 7ebc bf8c 40bf
00000020: ddb2 b7b9 be53 64bc fe12 51bf c6f9 55bd
0.9662524 -0.25465065 0.0020627787 0.9999886 -0.6702609 -0.0056512496 -0.015518332 -0.7521476
-0.00035037744 -0.013935981 -0.81669605 -0.052240156

network_body.observation_encoder.processors.0.normalizer.running_variance f4 [12]
00000000: a252 4a41 d6f2 f242 42f9 843f 96ff ff3f
00000010: 62c6 9846 5616 f943 2a16 a944 addd 8046
00000020: c3e9 ff41 251a 9844 b5f8 4e46 5fec 8845
12.645174 121.47429 1.0388567 1.9999874 19555.191 498.1745 1352.6926 16494.838
31.989141 1216.817 13246.177 4381.5464

network_body.processors.0.normalizer.running_mean f4 [12]
00000000: 515c 773f 9261 82be af2f 073b 41ff 7f3f
00000010: 3896 2bbf 1e2e b9bb 9a40 7ebc bf8c 40bf
00000020: ddb2 b7b9 be53 64bc fe12 51bf c6f9 55bd
0.9662524 -0.25465065 0.0020627787 0.9999886 -0.6702609 -0.0056512496 -0.015518332 -0.7521476
-0.00035037744 -0.013935981 -0.81669605 -0.052240156

network_body.processors.0.normalizer.running_variance f4 [12]
00000000: a252 4a41 d6f2 f242 42f9 843f 96ff ff3f
00000010: 62c6 9846 5616 f943 2a16 a944 addd 8046
00000020: c3e9 ff41 251a 9844 b5f8 4e46 5fec 8845
12.645174 121.47429 1.0388567 1.9999874 19555.191 498.1745 1352.6926 16494.838
31.989141 1216.817 13246.177 4381.5464

network_body._body_endoder.seq_layers.0.weight f4 [128, 12]
00000000: d02e 6e3e 1abb aebe c3a8 63be b396 01bf
00000010: de76 cfbb ee29 4abe 341f afbd a139 b33d
00000020: a46b 50be 8889 2b3e c2a2 e33d dbe3 b0be
00000030: 42f3 4cbe fe26 ab3e 8bd0 603e 7446 b1bd
00000040: be88 a13e c174 df3e 3b2b d53c b161 043b
00000050: fbd1 ac3e 5014 313f 9bfd 2b3b 7b62 ebbe
00000060: 10cf cb3e 486e 1a3e 745b 84bd 0eb8 2d3e
00000070: 4e99 2c3e 9f90 443f 9cad 023e d8f8 0a3e
00000080: ffc6 ef3e ea4c 663e e897 47bd b428 093f
00000090: 86ed 883e af8f 5a3e cf1e 05bf e2a7 7bbe
000000a0: c71b 433e 1bf5 c4be d96a 38be 534c fdbb
000000b0: 44a2 a7bd 0163 b93e 47cb 4b3d 9510 c7be
000000c0: 9605 f3bd 705c 1d3e 9871 89be a6a1 d23c
000000d0: 3f44 023f b7dc 94be 5058 1ebd e97c 893d
000000e0: c46b 33be f845 c13e 8b27 b2be c31e fe3e
000000f0: 0d99 083e d67d a8bd 8406 e43d 9696 a8bd
00000100: 96c2 7abe d75d 0e3e 0868 23bb 1540 ad3d
00000110: 46f0 99be 3ac5 3b3f ccd4 f5bd 508e d23e
00000120: 11c5 073b 5485 e6be 6e13 b93e b0a9 58bc
00000130: ccda c33d a3d1 87be e848 413e 1f55 a5bd
00000140: b698 333e 7619 14be f311 77bf 4491 993e
00000150: d765 a6be d1ad 19be ec7f e13d 8bc2 ad3d
00000160: b473 703d 560b 1b3c e20e c5be 67eb a9be
00000170: 6989 ac3e e1ec a23e 379d 253e 37aa 283e
00000180: 7391 aebe e8e8 28bd 69ae 253e 2f8e 89be
00000190: fb97 f53d 06ed 883e ee10 87be 2f08 11bf
000001a0: fcdb aebe 0a60 053f 0cc5 a13e a728 03bf
000001b0: 0549 20be 2c8b 323f daf2 febe 21f2 0abf
000001c0: 256a abbe 12fe 92be 74a0 ebbe e25a f53e
000001d0: 3468 fcbd 2a1e 81bb 9ac9 c23d e0e2 183e
000001e0: b686 553e a160 ddbd 1227 a4be 45e8 32be
000001f0: 0b4c abbe 5f30 063e c607 873e 18b5 81be
00000200: b730 613e 519e 9abe 3224 b5be 0666 c9bd
00000210: 76f3 4c3f 3ab7 223e ef81 06be b501 b73c
00000220: 98aa dbbe 355d 2dbf 48df 00bf e6c6 8d3e
00000230: 0a75 c9be 7d40 1a3d ac46 49bd e3aa e93e
00000240: eb1d e1bd 5aa3 053e 0b27 f0be 3cf0 b03e
00000250: 2f23 af3d c387 1c3e 632e bdbe 990c 223e
00000260: 55cc 4b3e a09d 0d3f 6698 41bf db35 43be
00000270: 3c3c 4ebd 48de 00bc 226e d4be 8466 30bc
00000280: c7da d8bd bdc8 233e c5c4 aa3e d984 63bb
00000290: 5e33 b2bc ac7c c3be b04c bf3c be1c e5be
000002a0: 9156 693d 0483 c23e 6eb7 eebe ae81 87bc
000002b0: 6dcd 0b3d 6218 19be 8157 533e 61e4 403e
000002c0: b28d 7abd 5927 de3e 3f6c 39bd 2fd1 493f
000002d0: dd84 09be d415 b63e 86b8 04bf 0122 d83e
000002e0: 8ab5 8fbd 0cfa dd3e 7993 743d 6533 183e
000002f0: eec9 28be f33a 05be 3d20 58be cf0d 1a3f
00000300: e8c6 99bd fe72 bbbe 78d0 5d3e ac0e eb3c
00000310: 34bd 0d3e 9201 923d caf7 9bbe 1384 a5be
00000320: d58a bcbe b311 bd3e c25f 14be 046f ecbd
00000330: be91 a03e 960f 023f b999 78be f66d 7fbe
00000340: 95ac debd c110 31be 93cd 933e 41a2 37be
00000350: 455a 223e 624e 80bd 2851 b7be 7486 93bd
00000360: 7895 933e df62 113f 7ae2 293d fb2a 21bd
00000370: 42ed b23d 3e4e e1bd 043c 29be 8556 f13e
00000380: 7ce3 d03e e5b2 8f3d 5beb cd3d 0ce0 283e
00000390: 493f 05be f2a0 9c3e 31db 1dbf 01d7 00bf
000003a0: 96a4 953e e884 8abe fe0c e63e 775f 9f3e
000003b0: b3d2 95bd 469d 913e 044b 99be cbe6 5d3d
000003c0: 89ff 95be b642 63be f7e3 7dbe 6664 c93e
000003d0: dc96 123d 9056 593e 68d5 9dbd a99b 97bd
000003e0: 1330 5f3e d761 81be 05c8 de3d 06ba 94bd
000003f0: 7f42 48be 7293 52be 109f af3e da25 8bbe
0.23260045 -0.34127122 -0.22232346 -0.50620574 -0.0063313087 -0.19742557 -0.085508734 0.08751226
-0.20353562 0.16751683 0.11115028 -0.3454884 -0.2001467 0.33428186 0.21954553 -0.08656016
0.31549639 0.43643764 0.02602159 0.002019983 0.33753952 0.6917162 0.002624369 -0.45973572
0.39806414 0.15081131 -0.06462756 0.16964743 0.16855356 0.76783174 0.12761539 0.13571489
0.4683151 0.22490278 -0.048728853 0.53577733 0.26743716 0.21343873 -0.52000135 -0.24575761
0.19053565 -0.3846825 -0.18009509 -0.007730046 -0.081852466 0.36208346 0.049754407 -0.3887984
-0.118663 0.15367293 -0.26844478 0.025711846 0.50885385 -0.29074642 -0.03865844 0.06713278
-0.17521578 0.37748694 -0.34795794 0.49632844 0.13339634 -0.08227126 0.11134055 -0.08231847
-0.24488291 0.13902985 -0.0024933834 0.08459488 -0.30066127 0.7334782 -0.120034784 0.411242
0.0020716826 -0.45023596 0.36147636 -0.01322405 0.095632166 -0.26527128 0.18875468 -0.08072876
0.17538723 -0.14462838 -0.96511763 0.2999364 -0.32499573 -0.15007712 0.11010727 0.08484372
0.058704093 0.009463152 -0.38487917 -0.3318741 0.33698586 0.3182135 0.16173254 0.16471182
-0.34095344 -0.04123774 0.16179813 -0.2686629 0.119918786 0.26743335 -0.26380104 -0.5665311
-0.3415221 0.5209967 0.31595647 -0.51233906 -0.15652855 0.6974361 -0.49794656 -0.5427571
-0.3347942 -0.28709465 -0.46020854 0.479209 -0.12324563 -0.0039403634 0.09511109 0.14930296
0.2085217 -0.10809446 -0.32061058 -0.17471416 -0.33456454 0.1310439 0.26373118 -0.25333476
0.2199124 -0.3019891 -0.35379177 -0.098339126 0.8005899 0.15890208 -0.13135503 0.022339681
-0.4290359 -0.6772035 -0.503407 0.2769081 -0.39347106 0.037659157 -0.049139664 0.4563819
-0.109920345 0.13050595 -0.46904787 0.34558284 0.085516326 0.15286164 -0.36949453 0.15825118
0.19902165 0.5531864 -0.75623167 -0.19063513 -0.050350413 -0.007865496 -0.41490275 -0.010766629
-0.105886035 0.15994544 0.33353248 -0.0034716635 -0.02175301 -0.38181055 0.023351997 -0.4474849
0.05696732 0.37990582 -0.4662432 -0.016541328 0.034131456 -0.14950708 0.20638849 0.1883712
-0.061170287 0.43389395 -0.045269247 0.78834814 -0.1342959 0.3556353 -0.5184406 0.42213443
-0.07017048 0.43354833 0.059710953 0.14863355 -0.1648328 -0.13010769 -0.21106048 0.6017732
-0.075086415 -0.3661117 0.21661556 0.02869352 0.13841707 0.07129206 -0.30462486 -0.32327327
-0.3682467 0.36927566 -0.14489654 -0.11544612 0.31361192 0.5080503 -0.2427739 -0.2494429
-0.10872761 -0.17291547 0.28867778 -0.17932989 0.15854748 -0.0626495 -0.35804105 -0.07203379
0.28824973 0.5679149 0.04147575 -0.03934763 0.087366596 -0.11001252 -0.165268 0.47136322
0.40798557 0.07016543 0.10054656 0.16491717 -0.13012423 0.30591542 -0.61662585 -0.5032807
0.29227132 -0.27054524 0.44931787 0.3112752 -0.07315578 0.28440303 -0.29940045 0.05417518
-0.2929652 -0.22193417 -0.24793993 0.3933441 0.035788402 0.21224427 -0.0770672 -0.07402737
0.21795683 -0.25269958 0.108779944 -0.07262044 -0.19556616 -0.20564058 0.34301043 -0.27177316

network_body._body_endoder.seq_layers.0.bias f4 [128]
00000000: e4dd a6b9 99ad e1bb 7fb6 833d c3a8 31bd
00000010: a78c 3f3d 0058 263d 7cb7 b639 9bef 793d
00000020: 4555 25bb 5571 ca3c ff16 f1bc 4603 67bd
00000030: ef4e 55bc dc43 b5bc 5f8c 963d 3bfb 623d
00000040: e55e 9f3b fe81 9abb d170 0e3c 9a1f 383d
00000050: 14dc 23bd ca96 003d 72d9 febc b21e f3bc
00000060: a98c 003d 5a0c 77bc 950f eebc 277e 81bd
00000070: b3b6 ca3b 82fc 82bb 7e6c f53c 3c6b 2c3b
00000080: 7435 16bc b19b f4ba 9331 653c a320 09bd
00000090: 4747 e0bb 7b9f 20bc 8275 5fbd 3d3b b7ba
000000a0: 5b54 5b3d 7485 e73c d896 cd3c b8c4 f039
000000b0: 31bf 53bc becd ccb9 4001 493d dab8 903d
000000c0: d753 43bc 436f 2b3d 6c02 03bd 06ab 123d
000000d0: 5c9e 1ebd 4b62 ec3c c8ca c43c 806c 1ebd
000000e0: 83c3 993c cf2e 0abd a93b 1dbd 5971 4b3d
000000f0: 6528 72bc 97ad 06bd fbc0 3c3b 733f 263d
00000100: f08b 88bc 51df 12bd 9349 b7bc d41d 9d3d
00000110: f8f0 cbbb b7a6 3dbc 1112 8a3c 3d7b 463d
00000120: 6e32 253c 7361 a63b c5c2 2d3c 11c8 593d
00000130: 267b 31bc ff80 49bc ab32 843c 89c8 5c3d
00000140: 797a 133d 81d3 fdbb 5dab c1bc afe1 973d
00000150: a6bd 3d3c 6ad7 ccba 7838 0e3d 4402 983c
00000160: 6577 0bbc 32ee e83c bfa8 0a3d 6e9d 073b
00000170: c6df 15bd 910c a5bc 023e 1f3d 4843 79bb
00000180: b5ec 6d3d 1b80 643d 3c59 573b 61b2 2a3c
00000190: 67c1 dd3b 2aa4 0d3d 250a 8e3c 22da 5e3d
000001a0: d5f6 073c 79f1 313d 49cd 933c dcf6 d0bc
000001b0: 9fe1 203c a567 3bbc 7619 b23b a8fd a8bc
000001c0: 7bd5 173d 233c 35bd a2fd 78bd cb1b 21bc
000001d0: 4d46 863b 56c0 5b3c bda4 863a e86e 40bd
000001e0: 48bd e03c ea91 193d 6536 a63c 4d61 22bd
000001f0: d719 cb3c 24cf 223d 4488 fabc 65f2 3a3d
-0.0003182731 -0.0068871495 0.06431293 -0.043373834 0.046764996 0.040611267 0.00034850452 0.06101952
-0.0025227827 0.024712244 -0.02942991 -0.056399606 -0.0130193075 -0.022127084 0.073509924 0.055415373
0.004863607 -0.0047152033 0.00869389 0.044952013 -0.040004805 0.031393804 -0.031109545 -0.029677723
0.031384144 -0.015078628 -0.029060164 -0.0632289 0.00618633 -0.0039973864 0.02995896 0.0026309034
-0.009168018 -0.0018662122 0.01398887 -0.03347839 -0.0068444344 -0.009803648 -0.054555424 -0.0013979446
0.053547245 0.028261878 0.025096342 0.00045922934 -0.012924002 -0.00039063202 0.049073458 0.07066508
-0.011921844 0.041854154 -0.03198473 0.035807632 -0.038725242 0.028855463 0.024022475 -0.038677692
0.018769985 -0.033736046 -0.038386974 0.049668644 -0.014780139 -0.032880392 0.0028801549 0.040587854
-0.01666829 -0.035857502 -0.02237395 0.07671705 -0.006223794 -0.011575392 0.016854318 0.048457373
0.010082824 0.005077535 0.010605519 0.053169314 -0.0108325835 -0.0122988215 0.016137442 0.053902183
0.03600547 -0.0077461605 -0.023641283 0.074160926 0.01158086 -0.0015628163 0.03472182 0.018555768
-0.008512353 0.028433893 0.033852335 0.00206932 -0.03659036 -0.020147594 0.038877495 -0.0038034488
0.05808707 0.055786233 0.0032859584 0.010418505 0.00676744 0.034580387 0.017338822 0.054407246
0.008298595 0.043443177 0.018042224 -0.025508337 0.009819417 -0.011438285 0.005435164 -0.020628765
0.037068825 -0.044246804 -0.060788758 -0.0098332865 0.004097736 0.013412556 0.0010272485 -0.04698077
0.027434006 0.03749267 0.02028961 -0.039643575 0.024792595 0.039748326 -0.030582555 0.04564132

network_body._body_endoder.seq_layers.2.weight f4 [128, 128]
00000000: e090 54be 752b 23bd c93f 9d3d b5a0 54be
00000010: 2fb4 e43c 6ddf b2bd cb98 25bd a0de 113c
00000020: 00d1 b73c 5402 6abd dd14 b93c 161e be3d
00000030: fb18 e5bd 6a51 fabd e743 ac3b 9908 a5bd
00000040: 96f8 f2bd 5065 d8bc 5037 a13d 5cc7 173e
00000050: af5d eebd df18 3b3e 2b70 93bd 1c37 503e
00000060: f307 993c 4f0f 87be 7367 ddbd 8e5c 7a3d
00000070: bbbb 2d3e 6c0a a4bc 53da 313d 636d d1bc
00000080: b0aa a5be 2679 90bd dabc 05bd 3c1e 4a3b
00000090: ea68 543e dc6c 983c 92f7 c2bd 11c2 923d
000000a0: f29e 2abd 815b 153e 8750 603d d696 aabc
000000b0: 7197 28be c6c6 b2bd 9505 50be 1b2d 923c
000000c0: 573f 59bb 638e 51bd 006b c93c b991 77bd
000000d0: 3ebc b6bd 64c4 313d 052d 34bd 59ad 83be
000000e0: 3432 003d 8fed b0bc 275c 2b3c c381 b1bd
000000f0: 51fa 80bd 847b 143d 3e81 63bb c430 f5bc
00000100: ea69 b63c a840 5dbd 159a 87bd 68ab 29bd
00000110: aab4 c3bc 14a0 9abd 1234 443e 6579 3f3c
00000120: 3b7e 453e 487a dc38 860c d9bd 8aca a4bc
00000130: 9c09 8c3d 5232 29bd 852c bbbd e0d9 11be
00000140: b114 93bd 89bb 973d 10e7 6c3d 0c12 f1bd
00000150: f26f 183c 29a9 aabd 5d05 a1bc 40bf 123d
00000160: d98d 953d 3e26 cbbd 5dc8 073d b6c0 77bd
00000170: be57 b5bd ade1 acbd f76f 243d 1ab5 72ba
00000180: c952 cd3c 6fc6 e9bc 383e a33d 4bdd 0cbd
00000190: 0bb5 ba3d eb2a 323d ecb4 4a3b 1309 adbc
000001a0: 68f3 64bc af9e bb3d 47c0 c1bc 7d03 50bc
000001b0: 6f55 f4bc aa3f 80bc d343 843d fc8b 793d
000001c0: c24e 94bd 2c02 ccbd e5ef a63d e74d 39be
000001d0: 37b5 003c 5def 433d d4a6 7c3d 236b b3bd
000001e0: c743 3d3e 1056 f0bd 816d efbb af5d 0a3e
000001f0: 1327 693d f34d 103e 7997 c8bc 5d60 33bc
00000200: 9f29 45bc 4328 66bd 81db 4ebc a2bb d4bc
00000210: c821 093e 243d 613c bb0d 14bd 76d9 353d
00000220: c4d3 e2bd d62b 09bd dadd 3abe eeb9 513d
00000230: 4898 25be 4bf3 1d3e 093a e1bd e1cb a9bd
00000240: 690e 923d 8bdd 6e3e 667c 38bc 68c7 6cbc
00000250: 656e c33d 773b b33d c90c acbd 09f5 44bd
00000260: bb6e 693c 8c3d 03be 811b 00bd 42a7 003d
00000270: e4a4 a6bd 1aac e2bb 8195 233c a5f8 00be
00000280: 9939 593e e501 73bd 0d40 193d a3d7 0abc
00000290: 9f8b 213c 00ac a2bc 1f20 10be 9541 df3d
000002a0: 3127 98bd 58e4 e2b8 420b e03d 8840 03bd
000002b0: 1384 d73c 09af f93c 10b3 1e3e 0ec5 80ba
000002c0: 3d87 253d 7d80 17bd 3c23 fdbd e173 39bd
000002d0: 6cbd 33bd ae67 bb3c c29a 683c bb1b ea3d
000002e0: c1f8 f7bd 480c 0bbd a828 863d 4fef 243e
000002f0: cf95 16bc 9599 253d 9c1c 2f3d 60d6 1f3e
00000300: 1a25 34bc f42a 04bd 20b8 35bd b5e5 0d3e
00000310: 436c e93b 4e02 e1bb 66f2 603e f9a4 21bc
00000320: 0328 aa3d 74fb e4bd f9de e13d 220f 293e
00000330: 2569 80bd 3039 0ebd 9933 ca3d 0ce5 56bd
00000340: aa96 b83c c8ec 9ebc b634 ca3d 6adb 823d
00000350: 40ac ac3d 01b6 5f3d e7d4 97bc ba15 4ebe
00000360: 0f7a 963d 286c 5cbe d179 b9bd 7a74 493b
00000370: 7f99 063d 2991 04be 951d ca3d 1ac3 cdbd
00000380: e614 54bd 8ee1 963d 7dda fbbd b31d c3bd
00000390: 950b 5d3d 9845 103c a743 15bd 7195 0bbe
000003a0: cd59 063e 7a84 90bc 0703 21be 3120 263e
000003b0: 8051 cd3d a25b 33be 091d 7c3d c4cf b0bd
000003c0: d71f a83d a7c8 dcbc 04cb f03d 1ee7 50bd
000003d0: 4a80 c63d b166 5d3d 2073 92bd 73e8 35be
000003e0: 7033 b23d d8d0 5a3d 347d 093e 9fb6 193d
000003f0: 7764 243d ac98 303d 9ed9 473d e131 9abd
-0.2075839 -0.039836366 0.07678182 -0.2076443 0.02791795 -0.08734021 -0.040428918 0.008903176
0.022438526 -0.057131127 0.022592956 0.09283082 -0.11186405 -0.1222256 0.005257118 -0.080582805
-0.1186382 -0.026415497 0.07871878 0.14822143 -0.116389625 0.18271206 -0.07199129 0.20333523
0.018680548 -0.26378867 -0.10810747 0.061123423 0.16966145 -0.0200245 0.0434211 -0.025564855
-0.32356787 -0.07054357 -0.032650806 0.0030840775 0.20743147 0.018606596 -0.095198765 0.071659215
-0.04165549 0.14585687 0.054764297 -0.020823877 -0.1646402 -0.08729319 -0.2031463 0.017843774
-0.0033149326 -0.05116118 0.024587154 -0.060441706 -0.08922623 0.043400183 -0.043988246 -0.2571819
0.031297877 -0.021597652 0.010458983 -0.08667328 -0.06297744 0.036250606 -0.0034714486 -0.02993048
0.0222673 -0.05401674 -0.06621186 -0.04142323 -0.023889858 -0.07550064 0.19160488 0.011686658
0.19286434 0.00010513194 -0.10598092 -0.02011611 0.0683777 -0.041307755 -0.09139351 -0.14243269
-0.07181681 0.07408816 0.057837546 -0.1177102 0.009304034 -0.08333046 -0.019655878 0.03582692
0.07302446 -0.099194035 0.033150066 -0.060486518 -0.08854626 -0.08441482 0.04014584 -0.00092585536
0.02506389 -0.028537003 0.07970852 -0.03439073 0.091165625 0.04349796 0.0030930592 -0.021122491
-0.013974048 0.09161126 -0.023651255 -0.012696144 -0.029825894 -0.015655357 0.06458249 0.060924515
-0.07241584 -0.09961352 0.08151225 -0.18096124 0.007855705 0.047835696 0.061682537 -0.08760669
0.18482886 -0.11735165 -0.007306755 0.135123 0.05692203 0.14092235 -0.02448629 -0.010948268
-0.012033849 -0.05619074 -0.012625576 -0.025968377 0.13391793 0.013747487 -0.036145907 0.04439684
-0.11075547 -0.03348907 -0.18248692 0.051202707 -0.16171372 0.1542484 -0.109973975 -0.0829084
0.07131655 0.233267 -0.011260128 -0.014451839 0.095425405 0.087515764 -0.08400876 -0.048085246
0.014247592 -0.12816447 -0.03127623 0.03140951 -0.08136919 -0.0069174888 0.009984375 -0.1259485
0.21213378 -0.05932798 0.0374146 -0.008474263 0.009859948 -0.019857407 -0.14074753 0.10901181
-0.0742935 -0.00010819052 0.10939647 -0.032043964 0.026308095 0.030478971 0.15497994 -0.0009824352
0.040412176 -0.03698777 -0.12360236 -0.045276526 -0.04388182 0.022876587 0.014197053 0.114310704
-0.12107993 -0.03394726 0.06550723 0.16106914 -0.009190991 0.04042967 0.042751893 0.15609121
-0.010995174 -0.032267526 -0.04436505 0.13857158 0.0071235015 -0.00686673 0.21967468 -0.009865993
0.08308413 -0.111807734 0.11028857 0.16509679 -0.06270055 -0.034722507 0.09873123 -0.05246453
0.02253278 -0.019400015 0.09873335 0.06389506 0.084312916 0.05461693 -0.018534137 -0.20125476
0.073474996 -0.21525633 -0.09056438 0.0030739591 0.03286123 -0.12945999 0.098689236 -0.10046978
-0.051777743 0.0736724 -0.12297533 -0.09527149 0.053966124 0.008805655 -0.03644147 -0.13631226
0.13120194 -0.017641295 -0.15723811 0.16223218 0.100253105 -0.17515424 0.061551128 -0.08633378
0.08209198 -0.026951147 0.11757472 -0.05100166 0.09692438 0.054053012 -0.071508646 -0.17764454
0.08701217 0.053421825 0.13426667 0.037527677 0.040134873 0.04311435 0.04879152 -0.07529045

network_body._body_endoder.seq_layers.2.bias f4 [128]
00000000: 1aa4 2ebc 565c 2a3c c26e 173d d27e c33c
00000010: 59d4 47bd 8435 35bd f045 b43c 84a1 ddbc
00000020: 0b50 f2bb 44b0 ceba a418 6a3d 9af7 c53c
00000030: 2c99 3b3c aec5 cb3c 3279 88bc 8ee5 4abc
00000040: af11 67bc 3c95 cbb9 a12a 4b3b fa19 8b3c
00000050: 134d 37bc 590d 6e3d 0413 083d 378f dabc
00000060: a580 2cbc 19ee f73c 3b05 dabc f049 1fbc
00000070: b930 0cbd adee 3c3d 50cf 733d 8278 59bc
00000080: 976c 23bd 8eab 81bc fc34 393d eabf cf3c
00000090: b894 a83c 05ff 41bd 8950 14bd 8cc4 e4bc
000000a0: c34d 043d 8f3f 2fbc 4d7f 0abd 39fc 983c
000000b0: c5b3 e7bc 0c32 1b3d 6e08 c43c 7e29 d9bb
000000c0: 3c95 23bb cb48 243d 02fb 32bc c2a2 233c
000000d0: e367 07bc 9aea 22bc c9f5 693d 8801 e3bb
000000e0: bdb3 f23c 9b90 093d 3a93 753d ab8d 81bd
000000f0: ab89 10bc a96c aa3c f838 edbc eb2f 1bbc
00000100: 6f9f 3c3d 9734 d93c 231d b13c d836 163d
00000110: 7ca2 33bd d58a fa3c cc9b e03c dbf0 333d
00000120: a058 02bd c1e5 503b b5bd 69bd ab21 323c
00000130: a6d1 09bd 84c0 cabc 9166 783c 9ab8 05bd
00000140: 7ca2 d93c abee 8d3d e428 ba3b 1bcd 0ebb
00000150: 84ee e13c afae 23bd 152b 36bd e000 523d
00000160: c799 c23b 3048 dabc dc2c 9c3c 3585 29bb
00000170: ee57 24bd 8dc4 8ebc e094 abbc 7a00 56bd
00000180: d153 afbc daa1 ddbc 396e 43bc f3bd 983c
00000190: 8da7 2e39 a0d3 06bd 2e0f 9e3b 756d 043c
000001a0: fca6 4a3d ddd2 10bd 393b 433d 4934 d7bc
000001b0: 927b 14bc 13ef 2dbd 4129 d13c 5253 453d
000001c0: 332e 513d 76d8 a6bc 3b5a 24bd 0c9a 553d
000001d0: 56a2 43bd 6c5f 173c e181 36bd 5ecc 323d
000001e0: af22 67bd 431d fabc 5c5a b3bc 281a 45bd
000001f0: 5a13 f33c 411e 483c 97fd c1bc af71 e93c
-0.010659242 0.010397991 0.03697086 0.023864184 -0.048786495 -0.04424049 0.022006005 -0.027054556
-0.007394796 -0.0015769084 0.057152405 0.024165917 0.011450093 0.024874534 -0.016659353 -0.012383832
-0.014103337 -0.00038830366 0.003100075 0.01698016 -0.0111878095 0.058118198 0.03322126 -0.026679618
-0.010528718 0.030264901 -0.026613822 -0.009722218 -0.034226153 0.046126056 0.05952388 -0.01327336
-0.03989848 -0.015828874 0.045216545 0.025360066 0.020578727 -0.047362346 -0.036209617 -0.027925752
0.03230072 -0.010696306 -0.03381281 0.018674957 -0.028283963 0.037889525 0.0239298 -0.0066272607
-0.0024960777 0.040108483 -0.010924103 0.009987535 -0.008264515 -0.009943629 0.057119165 -0.006927673
0.029626722 0.033585172 0.05995486 -0.06325849 -0.008821885 0.020803766 -0.028957829 -0.009471874
0.046050485 0.026514335 0.021620339 0.036673397 -0.04385613 0.030583778 0.02741804 0.04393087
-0.0318228 0.0031875225 -0.057065684 0.010872285 -0.033647202 -0.024750002 0.0151611725 -0.032646753
0.026566736 0.06930288 0.005681144 -0.0021789733 0.027579553 -0.039961513 -0.04447468 0.051270366
0.005938742 -0.02664575 0.01906436 -0.002586675 -0.04012292 -0.017427707 -0.020945013 -0.05224655
-0.021402271 -0.027054716 -0.011928135 0.018645262 0.0001665635 -0.032916665 0.004823587 0.008082737
0.049475655 -0.035357345 0.0476639 -0.026270049 -0.009062665 -0.042464327 0.025532367 0.048175164
0.05106945 -0.020366888 -0.040125113 0.052148864 -0.047762237 0.009239059 -0.044557456 0.04365193
-0.05642956 -0.030531531 -0.021893673 -0.048120648 0.029672313 0.012214244 -0.023680491 0.028496591

action_model._continuous_distribution.log_sigma f4 [1, 2]
00000000: c850 a1bb e3da e1bb
-0.00492296 -0.0068925484

action_model._continuous_distribution.mu.weight f4 [2, 128]
00000000: 0e56 fd3c 1e42 01bc 89ce e53c 287b b83c
00000010: f8a5 84bc 1708 d93b 0d3f aa3b a5b5 333b
00000020: 5603 bbbc 5d1b 23bd addc 7b3d 5fc3 103c
00000030: 8038 e3bc fdd4 c8bb 2014 90bb e64f 0d3d
00000040: 51ba 37bb 6b40 ff3c babc f0bc 20e8 df3b
00000050: e693 a33c 550d 283c fc43 e43c 1f66 05bd
00000060: 3d6c 5dbc b757 c43c c664 abbc e4d8 e2bb
00000070: 606d e6bc bae5 aa3b f9ac 8b3c c5a3 45bd
00000080: 7f14 ccbb 84b6 1fbb 5e8c 263d dfd0 bd3c
00000090: 14ec c33c 1a3e debb 26f9 ed3b e96c c1bb
000000a0: 63cf 25bc b983 073d 6aca 8abc 91e2 87bc
000000b0: 64f8 08bd e8de 863d 614b e2bc 0dd6 3abd
000000c0: 886a 9bba 307a c03b 5e6c bdbc 4c7c 86bc
000000d0: d1c4 9e3c a88f 3e3d 8b2c 1c3d 65c2 233d
000000e0: dc2c d63c ea5f aebb 3e73 1f3d b7ce 3abc
000000f0: ae87 a9bc 38af 043d acc6 32bd 2cc3 efbc
00000100: 86e9 fb3c 6891 173c eda9 a33b 4416 cdb9
00000110: 0fa2 9fbc 8dae 8fbb cc2d 273d d6c4 a13b
00000120: d5b7 35bc 3917 5bbc 86c1 c43b 3e9f f33c
00000130: eca5 2b3b e16e 77bd 5a2e 0e3d bb61 973b
00000140: 4a17 07bd 1526 193d 98ef 363d 73d0 c139
00000150: 0352 233d 8b4b 1ebc 04be a4bb eefa a83c
00000160: 5f41 03bd fcd8 84bd b87c 86bc 9d79 0fbc
00000170: 6a3b 3dbc ef2b a03c 930f 0fbd c98f 30bb
00000180: b69d 97bc 4472 b8bc 65b1 e3bc 70d0 49bc
00000190: e3f3 8cbc c200 803c 9d66 b63c bff1 3b3d
000001a0: fe41 033d 723f f6bb ef12 063d 7d8f 1bbd
000001b0: 11e9 4abb 25b7 1d3a d3e2 673c 9a9e 883c
000001c0: de7e 253c e77a 01bc 1092 9fbb 4392 d23b
000001d0: 314b 62bc 0bc1 a3bc 5f58 0ebc 154b e13c
000001e0: 9bb7 f2bb 4cb5 2e3c 0658 9ebb 46a6 c5bc
000001f0: a81b 103d 37aa cf3c 9d32 963b 38e2 193d
00000200: 7118 b93c 3884 4dbc e8b6 1fbd 5976 78bb
00000210: 4ae5 f93c 06cf f73c 2c5c 9cba fa89 053c
00000220: 12f2 8f3b cab4 96ba 41ce 9ebc aa70 8dbc
00000230: e484 e5bc 6fd2 d1bc bd3c 853b 7872 233d
00000240: 8bac 853b ea84 8b3c cfd5 edbc ec05 81bc
00000250: 896e e43c 4eb2 27bd ddec 733b 3279 cf3c
00000260: 9366 5d3c 37fe 693a ffbc b23a e635 a3bb
00000270: 9e14 d63b c3f2 1ebd e4c6 31bd 98d3 12bc
00000280: 50e5 cc3c 4100 413b 5574 47bc b783 dfbb
00000290: 6127 59bc 91b8 363d 1f99 4c3d f648 20bb
000002a0: 00ea 2abd e0c4 063d e0b1 903c 8a15 06bd
000002b0: 6989 c23b 2135 d6ba 9250 22bd c8a2 e0bc
000002c0: 04a9 a83b ec22 34bd 61ce 70bc 7ca5 e4bc
000002d0: 9321 cb3c 7359 303d 9e2e c7bc 1d67 223d
000002e0: f28f 953b 23b5 4dbc c1e9 cfbc 79b4 093d
000002f0: 4012 03bc d07c cb3c b474 253c 4223 f5bb
00000300: d847 45bb b15f 233a bf51 1dbc 84bc a9bc
00000310: 9d5f 103d 9fca fcbc d2ed 163c 16f9 0ebd
00000320: 80cb eabb 2a0d 0bbc 6d0f 083d bac0 a93a
00000330: d0e1 443c 6890 733c bc1f 923c 3687 2f3d
00000340: 2dcc 80bd 151a 85bd 789c e63c e693 edbb
00000350: 68de 8e3c db9d c03b 5d24 6d3d 5e82 abbc
00000360: 8fe9 50bc 57a0 5abb e874 efbc 6113 dfb8
00000370: a78e 493d 2699 283d 457f 98bc 60ab d43c
00000380: 26b7 813b 6787 9f3c 4c5a 8cbc 3eae 0fbd
00000390: 2446 8dbc 6016 fc3c 56dc 863c c4af e33c
000003a0: 680e f8bc 2455 a23c fed1 2abd 9500 9e3c
000003b0: 576a 3d3b 4ea5 423d 5dec 3f3b a1a5 c6bc
000003c0: dcd8 00bd 3b24 bc3b 0fdc 103d dad4 16bd
000003d0: 2d08 4a3d 9c72 cabc 72ef a73d bec6 59bb
000003e0: 9661 fa3c 474a 413d f24f 963c 4c5f 0c3d
000003f0: 0bdf 8d3b 9662 ea3b 46a1 a53c 61e4 593c
0.030924823 -0.007889299 0.028052585 0.022519663 -0.016192421 0.006623279 0.0051955045 0.00274215
-0.02282874 -0.039821018 0.06148975 0.008835643 -0.027736902 -0.006128906 -0.0043969303 0.034500025
-0.0028034637 0.031158647 -0.029386867 0.0068330914 0.019967984 0.010257085 0.027864449 -0.032568093
-0.013514576 0.023967607 -0.020922076 -0.006922828 -0.028128326 0.005215374 0.017050253 -0.048251886
-0.0062280293 -0.0024370262 0.04066121 0.023170887 0.023916282 -0.0067823054 0.007262367 -0.0059028757
-0.010120246 0.033084605 -0.016942222 -0.016587527 -0.03344001 0.06585485 -0.027623834 -0.04561429
-0.001185731 0.005873941 -0.023122963 -0.016416691 0.019380959 0.04652372 0.038128417 0.03998031
0.026144437 -0.0053214924 0.038928263 -0.011401824 -0.02069458 0.032393664 -0.0436465 -0.02926787
0.030751001 0.009250976 0.004994622 -0.00039117236 -0.019486455 -0.0043848217 0.04081516 0.0049367948
-0.011091192 -0.013372236 0.006004515 0.029739019 0.0026191426 -0.060408477 0.034712173 0.0046198047
-0.032981195 0.037389833 0.04466209 0.00036967135 0.039873134 -0.009661566 -0.0050275344 0.020627465
-0.032044765 -0.06486699 -0.016416892 -0.008757022 -0.01154981 0.0195522 -0.034926962 -0.0026941171
-0.01850782 -0.022515424 -0.02779455 -0.012317762 -0.017206138 0.015625361 0.022265727 0.045884844
0.032045357 -0.0075148875 0.0327329 -0.037978638 -0.0030961672 0.00060163654 0.0141532 0.01667719
0.010101048 -0.007902837 -0.004869707 0.006426127 -0.013811872 -0.019989511 -0.0086880615 0.027501622
-0.0074071414 0.010663342 -0.0048322706 -0.024127137 0.035182625 0.02534972 0.0045836703 0.037569255
0.022594662 -0.01254373 -0.038992792 -0.0037912338 0.030504841 0.030250084 -0.0011929325 0.008150572
0.0043928707 -0.0011497971 -0.019385459 -0.017265636 -0.028017469 -0.025613038 0.0040660785 0.039904088
0.0040794066 0.017031152 -0.029032616 -0.015749894 0.027884739 -0.04094153 0.003722004 0.025326345
0.013513225 0.00089261256 0.0013636647 -0.0049807904 0.0065332195 -0.038805734 -0.043402568 -0.008961581
0.025011688 0.0029449614 -0.012173732 -0.0068211216 -0.013254018 0.04460961 0.049950715 -0.002445755
-0.041727066 0.0329026 0.017662942 -0.032735385 0.0059367907 -0.0016342738 -0.03962762 -0.02742137
0.0051471014 -0.043978617 -0.014697642 -0.02791094 0.024796283 0.043054055 -0.024314221 0.039649118
0.0045642788 -0.012555393 -0.025380017 0.033619378 -0.007999957 0.024839789 0.010098625 -0.0074810097
-0.0030102637 0.00062322157 -0.009602009 -0.020719774 0.035247434 -0.030858336 0.009211974 -0.034905516
-0.0071653724 -0.008487025 0.033217836 0.0012951114 0.0120167285 0.014865972 0.017837398 0.042853557
-0.062889434 -0.064991154 0.028150782 -0.007250297 0.017440036 0.005878193 0.057896007 -0.020936187
-0.012750997 -0.003335973 -0.02923055 -0.00010637078 0.04920831 0.04116168 -0.018615374 0.025960624
0.0039586006 0.019473745 -0.0171329 -0.03507828 -0.01724536 0.030772388 0.016462486 0.027793773
-0.030280307 0.019815989 -0.04170417 0.019287387 0.0028902495 0.047520928 0.002928517 -0.0242489
-0.031456813 0.0057416237 0.035366114 -0.036824085 0.049324203 -0.024712853 0.081999674 -0.0033230032
0.03056411 0.047189977 0.018348668 0.03427057 0.0043295673 0.0071528656 0.020218503 0.013299079

action_model._continuous_distribution.mu.bias f4 [2]
00000000: 3a58 a83c a165 24bd
0.020549882 -0.040135983

action_model._discrete_distribution.branches.0.weight f4 [1, 128]
00000000: 71e0 95bb f553 49bc 0478 263b 7fd0 0b3c
00000010: 2be6 98bb 7b31 0b3b c5dd 9db9 6abf 9f3b
00000020: 070d 9fbc c838 f33b d3f3 253c a516 5bbc
00000030: a586 d13a 7f53 bb3c 1e3a 073b 35d3 bbbb
00000040: eb88 163c ef56 3cbc 7fc3 8139 0013 c2bb
00000050: c038 d63b fcfe bc3a 60ae 79bb a313 f73b
00000060: d4fa ba3b 0e4f 463c 6fc2 8ebc 954f a4bb
00000070: ac4e 113b cb7b 76bb db66 b0bb 98ed ea3b
00000080: d6aa 263c e47d 8b3b 48b9 a2bb 7e35 353c
00000090: a92c 22ba cc52 cabb 5cc6 b23b c3d7 83bc
000000a0: 7cfc af3a d2f7 313a 7bd3 37bc 531f 013c
000000b0: 23c3 083b 7127 9ebc 8c49 153c 46b2 afbb
000000c0: bcd5 15ba 4e86 3d3b c374 1f3c a6c0 9eba
000000d0: 7f03 02b9 abc0 9c3b 535c ddbb 25df 213c
000000e0: c9ac a53b 979a a0bb 5777 213c dc01 9dbc
000000f0: 7b3b f33b 9c54 4abc 4b4c 46bc b82e 66b9
00000100: 0d3f acbb efa1 e8bb f88b 97b9 cbe9 6aba
00000110: ddcf d7bb c399 21bc ab9e 673b 7b18 093c
00000120: fa0f f7bb 0b17 203c 161c 3b3c b0ee da39
00000130: a788 873b 8444 213c df80 05bc cb7b 37bb
00000140: efbf 003c 9c65 923b 2d88 9e3b cfaa ccbb
00000150: 2d62 1dbc 6702 95ba a515 f13a 2829 f43b
00000160: 880b c7bc ed6d 243b c51d 01bc c698 37bc
00000170: 28a9 e43a dbd7 423c 9621 39bb 353d e33a
00000180: 654e edba 722b 5ab9 03f2 c63b dbb4 7eba
00000190: d22d 903c b7e7 353c 313a a4bb 3413 833c
000001a0: 2dbe b23b 9323 363c 35cf efbb abd5 a23c
000001b0: 707a 4dbc 1815 963c c320 b83b 98aa 95ba
000001c0: 3d76 dbbb 7767 e83b b8f2 9bbb fbe8 733b
000001d0: 5349 b3bb 83d8 2d3c 73f6 e5bb d645 01bb
000001e0: ea93 65bc e914 803c 942a 093c a541 283c
000001f0: da21 c43b 18c1 0cbc e5d2 1c3a 1341 fd3b
-0.0045738746 -0.012288083 0.0025401125 0.008533596 -0.00466611 0.002123921 -0.00030110605 0.0048751133
-0.019415392 0.0074225403 0.010128933 -0.013372098 0.0015985562 0.022866962 0.0020634006 -0.005731965
0.009187917 -0.011495336 0.00024750453 -0.005922675 0.006537527 0.0014419253 -0.003809832 0.0075401827
0.0057061706 0.012103809 -0.017426698 -0.0050143697 0.0022172136 -0.0037610407 -0.005383355 0.0071694367
0.010172566 0.0042569507 -0.004965935 0.011060117 -0.00061864645 -0.006174421 0.005455775 -0.016094094
0.0013426687 0.0006788942 -0.0112198545 0.007881003 0.0020868264 -0.019305917 0.009111773 -0.005361828
-0.0005715748 0.0028919163 0.009732428 -0.0012111857 -0.00012399069 0.00478371 -0.0067553907 0.009879862
0.005055998 -0.004901241 0.009855113 -0.019165926 0.007422862 -0.012349274 -0.012103151 -0.00021951913
-0.0052565397 -0.007099382 -0.0002890525 -0.00089612295 -0.0065860585 -0.00986332 0.0035342376 0.008367653
-0.0075397464 0.009771119 0.01142027 0.00041758036 0.0041361633 0.009842996 -0.008148401 -0.002799737
0.007858261 0.004467679 0.0048380108 -0.006245948 -0.009605926 -0.0011368514 0.0018393291 0.0074511953
-0.02429749 0.0025089935 -0.007880633 -0.011205858 0.0017445432 0.011892284 -0.0028248779 0.0017336967
-0.0018105028 -0.00020806285 0.0060713305 -0.00097162806 0.017599974 0.011102608 -0.00501182 0.016000368
0.0054547996 0.01111688 -0.007318402 0.019877275 -0.012541398 0.018320605 0.00561914 -0.0011418639
-0.0066974447 0.007092412 -0.004759159 0.0037217725 -0.0054713874 0.010610702 -0.0070179044 -0.0019725463
-0.014012316 0.01563497 0.008371968 0.010269557 0.0059854807 -0.008590959 0.00059823535 0.0077287047

exp_avg f4 [128, 12]
00000000: 5af5 6e36 b853 5c36 3063 65b4 3fb0 0e33
00000010: 10c4 0eb7 0045 8c35 cdc0 e935 58aa deb6
00000020: 4f47 8934 0054 dd35 b6dc aab6 ee9d 5a36
00000030: 98b7 84b7 4892 7eb7 c188 cd35 f8c3 0bb4
00000040: b7e3 1a38 9967 89b6 d0fa e4b6 8abf fa37
00000050: 8379 86b5 f6ce d8b6 f0b3 cb37 ac27 56b7
00000060: 7147 85b8 846a 82b8 b50a a636 8cb2 06b5
00000070: 58de 1539 2e69 84b7 30a8 dcb7 c1fb f238
00000080: 6d96 81b6 98ed d0b7 19d1 c538 3c5e 4eb8
00000090: 880a abb5 70be 9fb4 e907 1235 e6c9 fdb2
000000a0: f204 2f37 8783 79b5 40e7 cfb5 0728 1737
000000b0: 0f31 74b4 d1d9 c4b5 700a 0637 b071 42b6
000000c0: 03a5 acb7 d3ff acb7 e361 bc35 168e 23b4
000000d0: 16a0 3438 59c7 a0b6 27f7 05b7 bd0d 1238
000000e0: c159 9db5 6ab0 fdb6 45ee ec37 a694 7ab7
000000f0: 6c78 6eb6 421c 8fb6 a29a 08b5 10ed 68b2
00000100: 28de 3e36 e89d e4b4 a07a 3eb5 1080 0836
00000110: 6cc0 dfb3 545b 34b5 48d4 b235 a019 b2b5
00000120: db1f 2138 230c 1c38 478a 7bb6 441b a634
00000130: ecee bdb8 bc49 2337 6b0e 8837 1f60 9bb8
00000140: 6dce 1f36 02d3 8037 1b28 80b8 fd7d fe37
00000150: faca 77b7 c964 86b7 58bb f434 f920 b6b3
00000160: de51 c137 1004 33b6 1b29 95b6 ae2f 9a37
00000170: 0333 2fb5 5e3b 8db6 280c 7537 b47f 0bb7
00000180: 9da9 2bb7 c3bf 2eb7 05e6 6535 1d2b 98b3
00000190: cba4 ad37 b494 15b6 1645 79b6 d9f6 8d37
000001a0: 3e64 12b5 1f05 6cb6 16fc 6937 8220 e9b6
000001b0: 84d1 8cb7 427d 7fb7 1542 d635 8d3e 29b4
000001c0: 3c3d 4138 2a60 a6b6 10a1 0ab7 fcff 1d38
000001d0: eed3 a2b5 aa42 03b7 8c3a 0238 10a7 81b7
000001e0: 1952 7c37 a09a 7e37 2815 cbb5 c6ee e533
000001f0: 70b4 03b8 c60d 6236 f85a bc36 6494 d7b7
00000200: c43b 5d35 e057 b236 ecef b1b7 4c29 3037
00000210: 7e59 1bb7 c861 dab6 0055 b735 1ed1 09b4
00000220: 6403 1e38 f87b 87b6 68c7 e1b6 825e 0138
00000230: 7498 84b5 12c7 d5b6 11aa d537 f628 53b7
00000240: 4431 f937 426c f737 4850 2eb6 e0a5 7034
00000250: 0ac3 89b8 5890 ec36 9c1c 4537 617d 61b8
00000260: 0d85 e735 63a2 3a37 f219 3ab8 0159 b837
00000270: fb94 a836 dfe3 c536 d81f 73b3 5c1c a332
00000280: ef60 a6b6 204a 2035 548e 8535 3ace 82b6
00000290: 6cdf 1c34 fce9 7c35 5a4e 4bb6 34cd f935
000002a0: 26bc 49b8 d872 47b8 387b 6936 7cc9 c6b4
000002b0: 20b3 da38 3769 43b7 6dd2 a2b7 969c b038
000002c0: 923e 3fb6 cc2a 9ab7 a8fa 8e38 3247 18b8
000002d0: 7378 16b8 64f3 13b8 90a2 1c36 7414 97b4
000002e0: 10bf a938 9281 14b7 827a 77b7 ec12 8a38
000002f0: ff56 11b6 f452 6ab7 a8ea 6138 5473 e7b7
00000300: 7eeb d737 463d d137 4749 29b6 aa41 5e34
00000310: 8898 7eb8 137c da36 380c 3637 8565 50b8
00000320: 74d3 d535 fa5e 2c37 c508 2cb8 5742 aa37
00000330: 271d 93b7 3007 83b7 a258 fb35 1d32 38b4
00000340: ec52 5238 2112 b5b6 98df 16b7 14fa 2b38
00000350: b835 b1b5 97da 0eb7 ddc1 0d38 921a 8db7
00000360: e2c9 11b8 103e 04b8 c650 6b36 3609 aeb4
00000370: 9eb9 c538 fb18 2bb7 6690 8eb7 d262 a138
00000380: 0873 27b6 67fc 86b7 a5b1 8438 8955 05b8
00000390: f0c8 35b8 6eab 32b8 c2ac 6336 2853 b5b4
000003a0: b910 ca38 9640 32b7 6b86 94b7 74e2 a338
000003b0: 9473 2eb6 56a1 8cb7 5284 8538 64e8 0ab8
000003c0: 76b6 ad37 9ece a937 5b1a d8b5 d553 3034
000003d0: a43d 47b8 2154 ad36 126c 1037 4c5d 22b8
000003e0: 0ea2 a935 dabe 0837 7a2f 05b8 be11 8737
000003f0: 02e6 0a37 0dd3 0337 546a 43b5 7fb4 9633
3.5607577e-06 3.2831285e-06 -2.1363371e-07 3.3222246e-08 -8.509509e-06 1.0450894e-06 1.7415965e-06 -6.635946e-06
2.5570122e-07 1.649023e-06 -5.092089e-06 3.2576459e-06 -1.5821119e-05 -1.51736385e-05 1.5313491e-06 -1.3016677e-07
3.6928537e-05 -4.0949785e-06 -6.824128e-06 2.9891515e-05 -1.0019143e-06 -6.461395e-06 2.4283276e-05 -1.2764631e-05
-6.355241e-05 -6.218723e-05 4.948432e-06 -5.017871e-07 0.00014292577 -1.5784604e-05 -2.6304362e-05 0.00011586352
-3.8620115e-06 -2.490617e-05 9.4326395e-05 -4.920199e-05 -1.2743558e-06 -2.975462e-07 5.440075e-07 -2.954489e-08
1.0431964e-05 -9.2951126e-07 -1.5490004e-06 9.009621e-06 -2.2742118e-07 -1.4666531e-06 7.989453e-06 -2.8974428e-06
-2.0580837e-05 -2.0623125e-05 1.403558e-06 -1.5232249e-07 4.3064436e-05 -4.7915787e-06 -7.984962e-06 3.4821907e-05
-1.1723533e-06 -7.560525e-06 2.8244345e-05 -1.4935771e-05 -3.5534858e-06 -4.2650217e-06 -5.088897e-07 -1.3558079e-08
2.8441518e-06 -4.25832e-07 -7.095896e-07 2.0340121e-06 -1.0419248e-07 -6.7188125e-07 1.3323815e-06 -1.3269491e-06
3.841506e-05 3.72046e-05 -3.7482403e-06 3.0939748e-07 -9.056725e-05 9.732725e-06 1.6219177e-05 -7.40888e-05
2.3813002e-06 1.5357047e-05 -6.110986e-05 3.0337827e-05 -1.4769606e-05 -1.6020977e-05 4.5584852e-07 -8.481033e-08
2.3045515e-05 -2.6675443e-06 -4.4453313e-06 1.8380433e-05 -6.526681e-07 -4.2090387e-06 1.4605968e-05 -8.314779e-06
-1.0231885e-05 -1.0415856e-05 8.564387e-07 -7.085894e-08 2.0699945e-05 -2.2289287e-06 -3.7144105e-06 1.6923457e-05
-5.453511e-07 -3.5169721e-06 1.3946576e-05 -6.9477255e-06 -1.6786864e-05 -1.5228348e-05 1.5963475e-06 -1.5762107e-07
4.6071815e-05 -4.9583805e-06 -8.262941e-06 3.767012e-05 -1.213162e-06 -7.82373e-06 3.104894e-05 -1.5455793e-05
1.5039485e-05 1.5175581e-05 -1.5130836e-06 1.0707076e-07 -3.140088e-05 3.3684641e-06 5.6134268e-06 -2.5699097e-05
8.2415886e-07 5.3150434e-06 -2.1211767e-05 1.0500033e-05 -9.2595565e-06 -6.5082895e-06 1.3659301e-06 -1.2835196e-07
3.7673293e-05 -4.0377454e-06 -6.7287365e-06 3.0844014e-05 -9.879136e-07 -6.3710695e-06 2.5470772e-05 -1.2586117e-05
2.9706054e-05 2.9495106e-05 -2.597475e-06 2.2412087e-07 -6.568998e-05 7.050152e-06 1.1748776e-05 -5.376095e-05
1.7249564e-06 1.11242725e-05 -4.437002e-05 2.1975955e-05 5.0241338e-06 5.897585e-06 -5.6606808e-08 1.8988594e-08
-4.95847e-06 5.971251e-07 9.950695e-07 -3.89831e-06 1.4609913e-07 9.421781e-07 -3.0294964e-06 1.8611668e-06
-4.809736e-05 -4.7552254e-05 3.4791428e-06 -3.7026973e-07 0.00010428415 -1.1647403e-05 -1.9409892e-05 8.4215004e-05
-2.8497639e-06 -1.837816e-05 6.817776e-05 -3.630593e-05 -3.5874964e-05 -3.5274206e-05 2.3340435e-06 -2.8140823e-07
8.094136e-05 -8.851655e-06 -1.4750871e-05 6.583877e-05 -2.1657322e-06 -1.3966801e-05 5.386272e-05 -2.759105e-05
2.5739657e-05 2.4943274e-05 -2.5225615e-06 2.069925e-07 -6.0700375e-05 6.5113504e-06 1.085089e-05 -4.9685612e-05
1.5931278e-06 1.0274112e-05 -4.1016163e-05 2.0296471e-05 -1.753734e-05 -1.5619764e-05 1.8726753e-06 -1.7154566e-07
5.014513e-05 -5.396331e-06 -8.992756e-06 4.100248e-05 -1.3203162e-06 -8.514754e-06 3.379757e-05 -1.6820883e-05
-3.4758712e-05 -3.1529053e-05 3.5064745e-06 -3.2416727e-07 9.428266e-05 -1.01982105e-05 -1.699496e-05 7.695485e-05
-2.4951896e-06 -1.6091579e-05 6.327339e-05 -3.1789332e-05 -4.33409e-05 -4.2598163e-05 3.3926194e-06 -3.377438e-07
9.6352254e-05 -1.0624664e-05 -1.7705568e-05 7.814626e-05 -2.5995296e-06 -1.6764428e-05 6.366581e-05 -3.3118195e-05
2.0708172e-05 2.0242584e-05 -1.6100925e-06 1.6421775e-07 -4.7502705e-05 5.1655957e-06 8.608231e-06 -3.87107e-05
1.2638645e-06 8.150668e-06 -3.1753887e-05 1.6101516e-05 8.278994e-06 7.857348e-06 -7.279789e-07 7.0177514e-08

exp_avg_sq f4 [128, 12]
00000000: 01d2 0233 6413 1a33 7457 7e2f 4f18 9c2a
00000010: cb56 bd32 25b7 f22f 5d3f 5f30 dcce f532
00000020: a3c5 b730 f357 1430 bb34 5933 85c2 4733
00000030: 6312 a432 c143 1c33 4d94 bd32 0155 ca2a
00000040: c7c8 0133 f176 cf2f 3488 7230 4999 3333
00000050: 443a 2430 45ba 4130 8b58 7f33 cf8d 1833
00000060: 2e79 be33 aab6 4a34 db83 f733 cc38 8c2c
00000070: ee88 eb34 87cb 8a31 5edb 4232 1188 f234
00000080: 52fe 772f a0c0 2e32 03e3 f234 78b5 1133
00000090: aa92 2b33 e880 5d33 a1d6 d82f 3700 532b
000000a0: d58e 7333 8b27 a130 ebf6 1b31 31b0 bd33
000000b0: 1e0c 3731 8c15 d030 4659 0234 db03 cb33
000000c0: 4a0c a032 f497 ea32 fc08 bf30 fa33 052b
000000d0: 9b9b 2033 d2dc 0930 f3e5 bc30 ac5e 8133
000000e0: cb70 452f b513 a630 e14a 8233 6ee8 a331
000000f0: 9f34 b833 f419 0d34 dbe6 e032 b0e0 142c
00000100: 9774 a434 f831 1431 989b ce31 2d61 4734
00000110: b2e8 3830 9dc5 b831 f561 1834 29b5 9732
00000120: 1324 0f34 1250 4234 6b3b 8331 95bb 462c
00000130: 3185 3934 5666 4a31 809a 1a32 bcab c534
00000140: d082 0330 c779 2d32 6c0b ce34 9285 6134
00000150: 0883 2a35 acf7 4735 ecaf 2332 2493 4d2c
00000160: 800e a234 01df 6631 c560 5d32 115e a034
00000170: a193 2b2f b3c6 5532 feab 8134 a3e5 8934
00000180: e256 d434 8afb ee34 23f0 8031 a335 e62b
00000190: 92d0 dc33 ff5d e330 e0f0 9631 e175 8334
000001a0: 19a0 2d32 9e3c 7c31 b027 7634 a95f d034
000001b0: 99ff bb31 cd8b 3332 6804 2e31 d55f c22a
000001c0: 5b45 8133 acf5 7730 cccd c831 cf9a e432
000001d0: 033a 152e 836f dd31 d63e d332 8ae3 e231
000001e0: e1d2 c932 277c 1833 27e2 622f 997c 012b
000001f0: c52b 5433 7c56 0430 b68d c530 7330 4833
00000200: 6109 1931 77d7 d530 f960 2733 0323 8833
00000210: 5e81 fb31 cbbe 6932 0572 1c32 8ff4 902a
00000220: 075f 0633 4f61 902f e06d 6d30 356d ca32
00000230: a203 f12e c9f9 6230 ff79 c232 f033 1b31
00000240: a715 8233 2a99 e033 299f d62f 6fe0 382c
00000250: bcbe 1b34 b87f 3d31 a63e d631 4d44 d034
00000260: 3210 b531 4990 a431 7b5e d234 5302 5134
00000270: 72ba 6e34 0c91 8c34 1618 9630 f50c e32b
00000280: 19ae d933 50de ef30 d402 9731 cab4 d833
00000290: f2f5 3632 8a9d c931 2779 3d34 edc9 0035
000002a0: 1b40 5d33 7431 ba33 d213 5732 2697 2f2c
000002b0: 995c aa34 7460 2f31 cf51 f331 401b af34
000002c0: b644 1e2f e761 d831 60f2 c534 e75c bb32
000002d0: d004 6433 62d2 b833 0d16 e830 cf0b 172c
000002e0: 2b1f 9634 0a89 1531 69e7 ff31 bed2 5034
000002f0: 5f79 422f f8d9 f131 280b 1734 4bcc b732
00000300: 18c9 3a33 37f4 9333 0a91 eb30 2f15 f62b
00000310: 3873 bc33 4c95 f030 dd24 0132 530b 8834
00000320: 1c8a 1931 7e3b f531 3db9 6d34 e0db ba33
00000330: e133 2a32 9500 a832 eddf 6f2f ccdb 582b
00000340: 8005 bd33 3f3a 5f30 2781 f530 c729 9733
00000350: e21f 0930 113a ba30 b42a c333 9b0e 7333
00000360: 7322 7733 4700 0534 d90b cd33 71aa 042c
00000370: 70f9 8134 94c3 0b31 4e16 ca31 ff08 a634
00000380: 1ca3 1f2f ad02 b931 32d2 ec34 4b0e 1633
00000390: 52f6 8f33 321a f433 867f 1030 a432 292c
000003a0: 7480 e633 2aa4 3331 cdb4 d331 b461 6534
000003b0: ebbf 0f31 6b17 ac31 410f b134 eaf6 5e34
000003c0: a7f7 7b34 5bf6 8f34 39d8 b830 6e10 532b
000003d0: 8ba9 c333 72a5 5130 23de 5431 e5c9 ad33
000003e0: eab1 3c2e d63b 6d31 17f2 9e33 cb8f 0f34
000003f0: ea0f fd32 d0fe 3033 112a 8632 e3ed 512a
3.045898e-08 3.5873555e-08 2.3132235e-10 2.7728034e-13 2.2041965e-08 4.4149676e-10 8.121697e-10 2.8615823e-08
1.3371174e-09 5.396707e-10 5.0572208e-08 4.6510213e-08 1.9100474e-08 3.6383202e-08 2.2069935e-08 3.5941391e-13
3.021776e-08 3.7737594e-10 8.8232643e-10 4.1816097e-08 5.9745653e-10 7.0477696e-10 5.9452343e-08 3.5519232e-08
8.869607e-08 1.8879169e-07 1.1525818e-07 3.985345e-12 4.387179e-07 4.039467e-09 1.13421645e-08 4.5175014e-07
2.2554872e-10 1.0171931e-08 4.5241185e-07 3.3925488e-08 3.994743e-08 5.1572812e-08 3.9442674e-10 7.4962557e-13
5.670775e-08 1.172553e-09 2.2695825e-09 8.8330474e-08 2.6636893e-09 1.5140116e-09 1.2139671e-07 9.4536254e-08
1.863204e-08 2.7310286e-08 1.3899633e-09 4.7323224e-13 3.7394425e-08 5.0154114e-10 1.3744156e-09 6.024251e-08
1.7957118e-10 1.2083691e-09 6.067217e-08 4.7703486e-09 8.5777394e-08 1.314109e-07 2.6182013e-08 2.1156792e-12
3.063221e-07 2.1565238e-09 6.013078e-09 1.8568672e-07 6.726949e-10 5.377571e-09 1.419174e-07 1.7661096e-08
1.3331037e-07 1.8096787e-07 3.819357e-09 2.8241621e-12 1.7277922e-07 2.945304e-09 8.999109e-09 3.6819063e-07
4.784342e-10 1.0097614e-08 3.83788e-07 2.100335e-07 6.352061e-07 7.4493687e-07 9.527849e-09 2.9213932e-12
3.0185402e-07 3.3596168e-09 1.2885896e-08 2.9870765e-07 1.5604808e-10 1.2443411e-08 2.4153263e-07 2.568532e-07
3.9551293e-07 4.4513973e-07 3.7525907e-09 1.635737e-12 1.0282487e-07 1.6543139e-09 4.392959e-09 2.448642e-07
1.0106327e-08 3.6705283e-09 2.2924974e-07 3.881262e-07 5.4714744e-09 1.0450958e-08 2.5322837e-09 3.452782e-13
6.019646e-08 9.02072e-10 5.8441625e-09 2.6613092e-08 3.3930202e-11 6.444624e-09 2.4592207e-08 6.603334e-09
2.3495376e-08 3.5503174e-08 2.0634926e-10 4.600292e-13 4.9399905e-08 4.814422e-10 1.4373913e-09 4.6610193e-08
2.2269762e-09 1.5559029e-09 3.8970914e-08 6.339362e-08 7.319769e-09 1.3605766e-08 9.10632e-09 2.5749235e-13
3.1285733e-08 2.626259e-10 8.637624e-10 2.3565557e-08 1.09600565e-10 8.2573287e-10 2.264005e-08 2.2584992e-09
6.057535e-08 1.0458673e-07 3.9039463e-10 2.6272558e-12 1.4504889e-07 2.757572e-09 6.235342e-09 3.8792714e-07
5.2696345e-09 4.7894315e-09 3.9184292e-07 1.9465487e-07 2.2233306e-07 2.6182568e-07 1.0920782e-09 1.6132916e-12
1.0136518e-07 1.7452724e-09 4.395e-09 1.0091169e-07 1.0649716e-08 5.86778e-09 1.7646072e-07 4.7977557e-07
5.1513876e-08 8.6702954e-08 1.2519154e-08 2.49529e-12 3.173234e-07 2.552068e-09 7.0815314e-09 3.2616117e-07
1.4394427e-10 6.2975576e-09 3.687046e-07 2.1811912e-08 5.3089764e-08 8.606436e-08 1.6886489e-09 2.1464946e-12
2.7962355e-07 2.1760251e-09 7.447785e-09 1.9448177e-07 1.7687317e-10 7.0388033e-09 1.406703e-07 2.1396906e-08
4.3489393e-08 6.889643e-08 1.7139723e-09 1.7485231e-12 8.7753904e-08 1.7504731e-09 7.51717e-09 2.5340213e-07
2.2342936e-09 7.137202e-09 2.2139734e-07 8.701295e-08 9.907098e-09 1.9558039e-08 2.1816478e-10 7.7043645e-13
8.801999e-08 8.12097e-10 1.7862803e-09 7.039085e-08 4.988562e-10 1.3549785e-09 9.088163e-08 5.659113e-08
5.75405e-08 1.2386691e-07 9.5482115e-08 1.8852942e-12 2.4209612e-07 2.0338335e-09 5.8815095e-09 3.0926455e-07
1.4518914e-10 5.384513e-09 4.4111363e-07 3.4937596e-08 6.703762e-08 1.13669e-07 5.2568117e-10 2.4044456e-12
1.0733575e-07 2.6141245e-09 6.161463e-09 2.1362831e-07 2.0918332e-09 5.008521e-09 3.2979918e-07 2.0765188e-07
2.3466292e-07 2.6815073e-07 1.3449216e-09 7.498506e-13 9.111235e-08 7.626887e-10 3.097633e-09 8.092665e-08
4.290427e-11 3.4522052e-09 7.401484e-08 1.3370224e-07 2.9460313e-08 4.1209944e-08 1.5618783e-08 1.8645463e-13

exp_avg f4 [128]
00000000: b9aa 6837 35db 63b8 3da6 5bb9 16d7 4eb7
00000010: 795a 85b8 f8c8 beb6 1d6e 0739 cc8c 14b8
00000020: c028 f8b7 30fb 89b8 e769 3b38 04b4 60b8
00000030: 0e35 c438 911e 0537 6615 22b9 9068 f6b8
00000040: 5536 b538 7c2d 96b8 1bdc 0db9 23d4 13b9
00000050: f6c7 8f38 22c3 f537 c52b 8738 8d42 0ab8
00000060: d244 12b7 b248 a2b6 de7c 35b8 d0b1 bf36
00000070: d9c0 49b7 7570 2ab8 adf2 b338 a45d 53b7
00000080: 7629 f638 304d a136 1e23 75b8 b69d 2138
00000090: 8e5d a538 4704 ba38 2e25 3938 d8c4 1539
000000a0: e3bb 5638 84d8 06b9 dc60 d137 d34b 97b7
000000b0: 745d d037 8ca5 5137 c6a4 9db7 1979 4d36
000000c0: da19 1a37 f098 d9b8 7257 03b7 1eea 8736
000000d0: ef40 35b8 fc05 ffb6 8ead b836 c828 f538
000000e0: 668b 77b7 29c9 0037 4983 5f36 267f 05b8
000000f0: eaa7 c138 12c3 1137 2fc5 47b8 1dd9 9838
00000100: db83 fdb7 e553 af37 e2c1 3339 f837 c235
00000110: d13a 1139 7168 9e37 0a16 1db8 c883 34b8
00000120: a457 28b8 f22d 2a37 0a6d 4839 468f dbb8
00000130: 67ac 41b7 ce11 2838 da94 3638 ace4 2838
00000140: 57f4 75b7 c02a 5038 c344 9a38 cb4a d6b8
00000150: 460c 8bb8 7842 a6b7 fbf4 2838 707a 02b6
00000160: 144c b137 b12e 6db8 8d46 e6b8 b479 c936
00000170: 0e99 3837 91a2 49b7 fc57 5438 8a28 0938
00000180: c6e6 1fb9 ea92 88b8 6cba 88b8 a926 83b8
00000190: 68bf f3b8 720e 6bb8 d81e ee37 a883 08b9
000001a0: 327a 0837 55f7 fbb8 0deb d2b8 60e9 eb38
000001b0: 463c 0739 df20 0f38 d826 2bb8 3640 0a39
000001c0: d842 dc36 085c 9138 0485 08b8 b406 c237
000001d0: ff69 dcb8 f2e6 3038 0657 15b9 c003 f2b6
000001e0: f062 e5b8 ecc6 3db8 0a1b a238 122a 1038
000001f0: a9ba 6d38 7fe0 3638 7041 ae38 ba5d 5236
1.3868027e-05 -5.432517e-05 -0.00020947396 -1.2328635e-05 -6.358786e-05 -5.685837e-06 0.00012915624 -3.5417077e-05
-2.958288e-05 -6.5794564e-05 4.4682904e-05 -5.3573414e-05 9.3558905e-05 7.934535e-06 -0.00015457495 -0.000117496704
8.640873e-05 -7.1610295e-05 -0.00013528804 -0.0001409804 6.856017e-05 2.9297142e-05 6.445454e-05 -3.2963744e-05
-8.718302e-06 -4.836439e-06 -4.3270054e-05 5.7129437e-06 -1.2025434e-05 -4.0635892e-05 8.580587e-05 -1.2598382e-05
0.00011737917 4.8071597e-06 -5.8445257e-05 3.853227e-05 7.885239e-05 8.869968e-05 4.4142063e-05 0.00014283077
5.119656e-05 -0.00012859894 2.4959845e-05 -1.8035911e-05 2.483905e-05 1.2495915e-05 -1.8792587e-05 3.0617869e-06
9.185134e-06 -0.00010375853 -7.828568e-06 4.0505684e-06 -4.3214237e-05 -7.600289e-06 5.5038317e-06 0.000116901065
-1.47548035e-05 7.676231e-06 3.3306007e-06 -3.1828087e-05 9.2342336e-05 8.688092e-06 -4.762894e-05 7.288365e-05
-3.022135e-05 2.0900692e-05 0.00017142997 1.4470415e-06 0.00013850188 1.8883702e-05 -3.7452242e-05 -4.3038075e-05
-4.0135943e-05 1.0143487e-05 0.00019114107 -0.000104694205 -1.1543837e-05 4.0070903e-05 4.353081e-05 4.026729e-05
-1.4660028e-05 4.963088e-05 7.3561e-05 -0.000102182465 -6.6303226e-05 -1.9819694e-05 4.0282477e-05 -1.9442778e-06
2.113547e-05 -5.6548688e-05 -0.00010980396 6.004435e-06 1.10028905e-05 -1.2018384e-05 5.062668e-05 3.27011e-05
-0.00015249391 -6.51235e-05 -6.519709e-05 -6.253768e-05 -0.00011622795 -5.604182e-05 2.8386174e-05 -0.00013019016
8.1346825e-06 -0.00012014682 -0.00010057362 0.00011249143 0.00012897057 3.412447e-05 -4.0805753e-05 0.00013184626
6.5642926e-06 6.931281e-05 -3.2548807e-05 2.3129724e-05 -0.00010510161 4.2176755e-05 -0.00014242166 -7.2125986e-06
-0.000109379995 -4.5246372e-05 7.7297984e-05 3.4371456e-05 5.6679044e-05 4.360126e-05 8.309155e-05 3.1346995e-06

exp_avg_sq f4 [128]
00000000: b99a a832 ad07 0d33 9ae2 c834 23e3 8433
00000010: 2e84 3f33 a8af 7734 d6cd 6234 93de 9a34
00000020: ce03 d533 8880 e032 8d49 3833 9deb 1633
00000030: 4672 0134 510f a933 d239 8c34 82e5 5d34
00000040: aa20 ec33 2059 6233 77c1 6f34 05ea 1834
00000050: 46c8 b333 56da 6e32 bf49 a133 78ac 6b32
00000060: 9837 aa31 e8ed 8d33 fff3 c832 6a0e aa33
00000070: 9ca7 f032 5afe c733 57ec 9234 d94d 1133
00000080: d1cb 1234 23ef a332 dd63 4a33 6638 8533
00000090: e383 b433 1bd4 0034 f4ce 0e33 3e99 8334
000000a0: 0d81 5b34 2b40 d833 95b3 1d33 190a 2132
000000b0: e1e2 9633 7fbb a932 5542 7232 3f1c 4d33
000000c0: 8694 6432 909c 8933 8410 4d33 7e8d 1b32
000000d0: 7055 6c33 7047 ca33 91c5 ce33 7e87 9b33
000000e0: b06a 4b32 15c9 c832 583b 0b32 a341 9132
000000f0: 5136 ae33 4acd 5b33 a29f b332 0262 f834
00000100: c2b6 f732 8f6f 4733 2380 af34 1f4e 2134
00000110: 883c 6534 c3b3 c832 bd4f d732 dff5 7833
00000120: ab74 2e33 08f2 f331 b18b 2935 63e1 2734
00000130: 44c6 8732 1b54 1733 7b55 b333 abe8 f733
00000140: 68cc 3034 76b0 6833 e940 8833 bc53 8134
00000150: efa6 5f33 a8dd ca31 f8ed 3f33 8f8d 8933
00000160: 87da 9133 7f1e 0233 dbf3 b533 60aa 5132
00000170: 84b1 0333 70ac 9933 a00d 2e34 2a07 4033
00000180: c4b2 9134 a55f 7933 80f1 0433 62d5 3433
00000190: aaea d533 dfde 1833 b965 c932 bd09 8b34
000001a0: aa0a 9533 4410 0b34 8707 e033 62ab 3b34
000001b0: e0b6 fb34 bd2f 2e33 e600 9f33 c49c 4a34
000001c0: 7072 3734 fadd 9d33 72d8 b033 05af 7433
000001d0: 03ec 2c34 a942 8f33 b9ee 3834 4f88 9532
000001e0: fb3b b033 cb77 2433 5d92 2334 3cc3 6d32
000001f0: e6fe 5034 688b 7633 94f6 bd33 b869 0a32
1.9628134e-08 3.2836102e-08 3.7417777e-07 6.188045e-08 4.459087e-08 2.3067571e-07 2.1122773e-07 2.884668e-07
9.9192775e-08 2.6135481e-08 4.2907732e-08 3.5138886e-08 1.2055634e-07 7.872462e-08 2.6119102e-07 2.0665723e-07
1.0995548e-07 5.2700784e-08 2.2328992e-07 1.4241239e-07 8.3717666e-08 1.3903067e-08 7.510561e-08 1.3718015e-08
4.9539715e-09 6.609099e-08 2.3394021e-08 7.918864e-08 2.8015897e-08 9.312926e-08 2.736658e-07 3.3831245e-08
1.3671458e-07 1.9084444e-08 4.7122615e-08 6.203554e-08 8.405893e-08 1.1998092e-07 3.3250174e-08 2.451215e-07
2.0442913e-07 1.0069956e-07 3.671774e-08 9.373729e-09 7.026188e-08 1.9759453e-08 1.4101336e-08 4.775597e-08
1.3305117e-08 6.408038e-08 4.7745303e-08 9.054359e-09 5.5025737e-08 9.4193524e-08 9.6285596e-08 7.242396e-08
1.1840413e-08 2.3374506e-08 8.104358e-09 1.691007e-08 8.1123865e-08 5.117662e-08 2.0910935e-08 4.626491e-07
2.8837693e-08 4.643476e-08 3.2689522e-07 1.5022714e-07 2.1349308e-07 2.336481e-08 2.5065555e-08 5.7965618e-08
4.061864e-08 7.0997466e-09 6.3160684e-07 1.5635082e-07 1.580623e-08 3.523392e-08 8.350886e-08 1.1544156e-07
1.646564e-07 5.41772e-08 6.3448006e-08 2.4089047e-07 5.207306e-08 5.904173e-09 4.4687084e-08 6.405309e-08
6.7918386e-08 3.029572e-08 8.472826e-08 1.220414e-08 3.0662264e-08 7.155984e-08 1.620997e-07 4.471e-08
2.7138424e-07 5.806182e-08 3.0953288e-08 4.2103586e-08 9.9612706e-08 3.5592958e-08 2.3445738e-08 2.5897853e-07
6.940293e-08 1.2951301e-07 1.0432182e-07 1.7478081e-07 4.6885452e-07 4.055595e-08 7.404178e-08 1.8869747e-07
1.7084835e-07 7.3512595e-08 8.23501e-08 5.6969856e-08 1.6104609e-07 6.671082e-08 1.7223182e-07 1.7407869e-08
8.206549e-08 3.8293177e-08 1.5233805e-07 1.3839607e-08 1.9464241e-07 5.7403128e-08 8.8458506e-08 8.056695e-09
