results/SlayRL_502/SlayTheSquire_RL/checkpoint.pt (torch, 466475 bytes, 47 tensors)

network_body.observation_encoder.processors.0.normalizer.running_mean f4 [12]
000000 2f 3f 7c 3f e1 73 2b be 99 6f e1 3a c6 7a 46 3f
       0.9853391 -0.16743423 0.0017199396 0.7753109
000010 17 d7 70 bf 4b 2e 6f bf 4b 2e 6f bf db 0d 05 bc
       -0.940782 -0.9343001 -0.9343001 -0.008120979
000020 00 00 00 00 00 00 00 00 65 bd 10 bc 7e 35 83 b9
       0.0 0.0 -0.008834218 -0.00025026122

network_body.observation_encoder.processors.0.normalizer.running_variance f4 [12]
000000 cf 24 c3 40 49 df 25 43 5c 02 80 3f ac 16 68 44
       6.098243 165.87221 1.000072 928.35425
000010 02 26 0b 46 57 50 19 46 57 50 19 46 af 0e a1 44
       8905.502 9812.085 9812.085 1288.4589
000020 00 00 80 3f 00 00 80 3f d6 10 af 44 c0 f5 23 42
       1.0 1.0 1400.5261 40.98999

network_body.processors.0.normalizer.running_mean f4 [12]
000000 2f 3f 7c 3f e1 73 2b be 99 6f e1 3a c6 7a 46 3f
       0.9853391 -0.16743423 0.0017199396 0.7753109
000010 17 d7 70 bf 4b 2e 6f bf 4b 2e 6f bf db 0d 05 bc
       -0.940782 -0.9343001 -0.9343001 -0.008120979
000020 00 00 00 00 00 00 00 00 65 bd 10 bc 7e 35 83 b9
       0.0 0.0 -0.008834218 -0.00025026122

network_body.processors.0.normalizer.running_variance f4 [12]
000000 cf 24 c3 40 49 df 25 43 5c 02 80 3f ac 16 68 44
       6.098243 165.87221 1.000072 928.35425
000010 02 26 0b 46 57 50 19 46 57 50 19 46 af 0e a1 44
       8905.502 9812.085 9812.085 1288.4589
000020 00 00 80 3f 00 00 80 3f d6 10 af 44 c0 f5 23 42
       1.0 1.0 1400.5261 40.98999

network_body._body_endoder.seq_layers.0.weight f4 [128, 12]
000000 06 6f b3 bd e6 51 04 3f 50 47 53 3e c9 29 3c bd
       -0.087614104 0.5168747 0.20632672 -0.045938287
000010 20 96 b9 3c d4 56 9c 3d c5 2d f7 3e 86 92 b0 bd
       0.022654593 0.07633749 0.48277107 -0.08621697
000020 99 e0 b7 3e fb 8e e0 3d 39 c8 a1 bd 91 d8 bc bd
       0.35913542 0.10964771 -0.078995176 -0.09220994
000030 ed 29 ab be d0 b7 bc bc 4c 75 8b 3d 2b 19 b2 3e
       -0.33430424 -0.023036867 0.06809482 0.34784827
000040 8e 9c 00 3f c5 c9 20 bd b4 32 56 be 8e 1a 56 be
       0.50238883 -0.039254922 -0.20917779 -0.20908567
000050 d0 71 66 b8 91 e5 94 bd be d5 90 be 30 d3 cd be
       -5.494227e-05 -0.07270349 -0.28288072 -0.40200186
000060 a7 7e ac bd 79 22 1b bf 6b 16 78 3e 64 93 7f 3e
       -0.084225945 -0.60599476 0.24227302 0.24958569
000070 e3 e5 c2 bd e5 9a 2e be 05 c0 9a 3e cc 8e 82 3d
       -0.09516504 -0.17051275 0.30224624 0.063748926
000080 26 34 7f bd 67 da 93 bd 11 d7 ca be 5f 50 00 bf
       -0.062305592 -0.07219391 -0.39617208 -0.50122637
000090 e8 51 81 3e 2e 12 19 bf f7 5e 4c bc 2b 1d 64 3d
       0.25257802 -0.59793365 -0.012473813 0.05569188
0000a0 a8 85 1e 3f 1d f0 39 be d7 77 b3 3e 24 c8 43 3e
       0.61922693 -0.18158002 0.35052368 0.19119316
0000b0 07 8f 06 3e f9 d5 50 bc f1 f0 1a bd ec ec 18 3e
       0.13140498 -0.012746328 -0.037827436 0.14934129
0000c0 a1 74 b4 bd 05 66 de be b7 c3 a6 be 19 d8 1f 3e
       -0.08811308 -0.4343721 -0.32571194 0.15609778
0000d0 d8 fc 27 be a6 19 08 bd 92 89 b2 3e 97 32 fe be
       -0.16405046 -0.033227585 0.34870583 -0.49647972
0000e0 b0 52 ac 3e f3 4c bb 3d 2e d9 9e be 69 bd 9c 3d
       0.33656836 0.09145536 -0.3102507 0.076533146
0000f0 69 43 d3 3e 81 34 6d 3e df 56 59 be a5 96 f6 be
       0.41262367 0.2316456 -0.21224545 -0.48161808
000100 4e 54 a2 3d 6e 62 ca 3e 71 60 05 3e 5e c3 54 be
       0.07926236 0.3952822 0.1302507 -0.20777652
000110 c0 d6 aa 3e 19 8a f8 bd f8 bf 7c bd 04 b5 48 be
       0.33366966 -0.12135715 -0.061706513 -0.19600302
000120 40 00 f1 3e a8 5a 88 3e 18 c3 c6 bd 41 25 9e 3d
       0.47070503 0.26631665 -0.0970518 0.07721949
000130 e4 05 81 3e 74 96 b5 bc be 52 61 3e 24 4e 57 be
       0.25199807 -0.022166468 0.2200422 -0.21025902
000140 67 01 55 3d 22 f5 db bb fd 1e 9d be c1 04 54 3e
       0.05200329 -0.0067125717 -0.30687705 0.20704938
000150 03 fa 89 3c e4 60 50 be cd 25 48 3e f5 3c ba bd
       0.016842848 -0.20349461 0.1954567 -0.09093658
000160 dd 2b a9 bd 32 3b a5 3e 55 83 23 bd 0f dd 12 bf
       -0.082603194 0.32271725 -0.03992017 -0.5736856
000170 db 15 00 be 46 d7 f6 bb 2c 78 50 3e 85 29 09 3e
       -0.12508337 -0.007532987 0.20358342 0.13394745
000180 75 58 e7 be b6 85 4f ba 62 3d 54 bc 9f 2b f8 3e
       -0.45184675 -0.0007916348 -0.012954088 0.4847078
000190 7b 0c 78 3e 25 28 0b bf 14 6b 40 bd 9d 51 d5 be
       0.24223511 -0.5435813 -0.046977118 -0.41663828
0001a0 88 ce 81 3d 19 3f 2b be 87 4d da 3e 45 43 ad bd
       0.06338221 -0.16723289 0.42637274 -0.08460096
0001b0 59 dc 39 be 28 7a bf 3e 1c 97 c8 be 0b 7b 34 be
       -0.18150462 0.37397885 -0.39177787 -0.17625062
0001c0 cc b0 91 3e c4 39 d6 be 32 c8 3d be e7 6d f5 bd
       0.28455198 -0.41840947 -0.185334 -0.11983853
0001d0 58 89 1f 3d 29 6c 19 be f2 7b a8 3e fc bb fa bd
       0.03894934 -0.14982666 0.32907063 -0.122428864
0001e0 97 79 3e 3f 96 46 65 3e 1a 05 df 3d e5 26 12 3e
       0.7440428 0.22390208 0.10889645 0.1427265
0001f0 9d 01 54 3d c4 04 4f be 91 e4 bb bc df 2a 80 bd
       0.05175935 -0.20216662 -0.022936137 -0.06258177
000200 ae 64 e4 3d ad 3c c3 bd 07 f0 b1 3e c2 b4 09 bc
       0.111520156 -0.09533057 0.3475344 -0.008404912
000210 82 cc a6 bd 09 c7 90 3e 8f 47 33 be da fb b1 3e
       -0.081444755 0.28276852 -0.17507766 0.3476246
000220 f0 f7 83 3e eb 4c 28 3e 9d 9d 3f be 99 df cd be
       0.257751 0.16435592 -0.18712468 -0.40209654
000230 8f 51 c4 3d a7 d0 8e 3e 74 b6 26 3b 4b 2a e5 3d
       0.095858686 0.27893564 0.002543834 0.11189707
000240 60 c0 95 be b9 cd de 3e 8d 1f ea 3e b0 f1 ab be
       -0.29248333 0.4351633 0.45727196 -0.3358283
000250 a5 ad 8a bd 41 e6 83 3d 1b 0c 18 bd db 9e 83 3e
       -0.06771401 0.06440402 -0.03712092 0.25707135
000260 ae 07 7d be 30 39 23 3f 83 79 db be 47 a1 5c 3e
       -0.24709961 0.63759136 -0.42866144 0.21545897
000270 82 56 08 bf c7 98 95 3e 66 7a cb 3e e2 d3 b0 bd
       -0.53257 0.29218122 0.3974182 -0.086341634
000280 c2 07 c1 3e 51 5c 16 be 98 2a ca 3d fa eb 8f be
       0.3770123 -0.14683653 0.09871405 -0.28109723
000290 92 e0 67 3e 8c 6b 4f 3e 7d 1b 1f bf e8 ed a3 3e
       0.2264426 0.2025587 -0.6215132 0.32017446
0002a0 0c 64 04 be 5a 98 c7 be 2d 48 76 3d 44 aa 6a 3d
       -0.1292879 -0.38983423 0.060127426 0.057291284
0002b0 51 bf 5d be 7e f0 a2 3e 08 5e 5e bf 46 24 7f 3d
       -0.21655013 0.31824106 -0.8686223 0.062290452
0002c0 f7 c7 23 bf 8f 76 eb bd 3f f7 fb bc dd 96 da 3e
       -0.63977 -0.11497223 -0.030757545 0.42693225
0002d0 fd 5a 78 bd 21 26 92 3d f6 91 a8 be 70 2f bc be
       -0.06063365 0.07136179 -0.3292386 -0.36754942
0002e0 5f 4a 92 be b6 25 3e bf a7 99 e6 3d 50 29 00 3f
       -0.28572366 -0.7427629 0.112597756 0.5006304
0002f0 e6 31 28 be 37 83 59 be 18 5d 8c be 5b 9d 2e be
       -0.16425285 -0.2124146 -0.27414775 -0.17052214
000300 53 73 e5 3d 08 a1 1b bf 1e cf a6 3e 05 3c c0 be
       0.11203637 -0.6079259 0.32579893 -0.3754579
000310 dc 09 d4 be 35 69 ff be 50 5f ae be d4 13 ba be
       -0.41413772 -0.49884954 -0.34057093 -0.36343253
000320 47 35 9a 3e 1e 2e 51 3e ba c2 0e 3f d1 c6 3f be
       0.30118772 0.20427749 0.5576588 -0.18728186
000330 dd 57 1d 3f 49 41 05 bf dd 26 09 3d 0a c2 0c 3d
       0.61462194 -0.5205274 0.03348433 0.034364738
000340 ff 21 07 be e2 ab 1b 3e 19 b7 07 3b 48 0f d4 be
       -0.13196562 0.15202287 0.00207085 -0.4141791
000350 b2 6e 36 be b3 53 b8 be dc 12 7b be 4a 7a 89 be
       -0.17815664 -0.36001357 -0.24518913 -0.26851112
000360 8b fe d1 be 2c 84 04 be 5d f6 27 3f 5f eb 4d 3c
       -0.41014513 -0.12941045 0.65610296 0.012568324
000370 80 21 30 3e af d8 0a bf e8 00 4c 3e 55 06 f2 3e
       0.17200279 -0.5423688 0.1992222 0.47270456
000380 e8 3d 8d 3e 53 16 33 3d 0a 51 07 bd 6d 65 23 be
       0.27586293 0.043722462 -0.03303627 -0.1595666
000390 3d d7 90 3e 35 9c 8c 3d ba 27 3f be 42 85 07 be
       0.28289214 0.068657316 -0.18667498 -0.13234428
0003a0 69 66 5d be 95 17 05 3f 34 b4 e0 bd 79 bb 60 be
       -0.21621098 0.5198911 -0.10971871 -0.21946515
0003b0 f7 a2 13 3e 5d c4 26 3f 7f d2 41 bc 0a 11 a8 3c
       0.14417635 0.65143377 -0.011829971 0.020515937
0003c0 2c d3 83 3f 35 d3 6b 3e 8d 0f 1c 3e 88 cb 9a 3e
       1.029882 0.23029788 0.15240307 0.30233407
0003d0 a4 98 5a bd 60 5e 56 3d df 0a 34 3e bc ca 44 be
       -0.053368226 0.052336097 0.17582272 -0.19217962
0003e0 09 23 75 3c 83 9b 79 3d 95 e9 ce 3e 02 a0 48 bf
       0.014961966 0.060939323 0.40412584 -0.7836915
0003f0 71 cb c9 3e 55 3b c6 be 46 20 d8 3c 86 0b b1 3d
       0.39413026 -0.38717142 0.026382577 0.08644776

network_body._body_endoder.seq_layers.0.bias f4 [128]
000000 32 4a 13 3d 34 56 28 bd 66 7e 84 bc d8 75 30 3c
       0.03595943 -0.041097835 -0.016173553 0.010770284
000010 61 13 28 bd c1 d8 ce 3c 57 55 20 3c d2 80 62 bd
       -0.041034106 0.02524984 0.009785972 -0.055298634
000020 cd 59 27 bd 06 cf 65 3d c5 ad 72 3d 6a 7d 12 3c
       -0.040857125 0.056105636 0.05924775 0.008941034
000030 4e cf 54 bd a5 bc 81 bd 57 4b 8a 3d 44 4b 95 3c
       -0.051955514 -0.06334809 0.06752651 0.018224366
000040 05 a7 48 3d 7e aa 7a bd a1 b9 97 3d 6c 2d 42 bd
       0.048987407 -0.06119775 0.07408453 -0.0474066
000050 e3 3d 89 3d 3b 33 19 3d fe aa 53 bc 9d 24 f9 3c
       0.06701257 0.037402373 -0.012919186 0.030412966
000060 0e 46 fa 3c 79 43 65 3d 36 f7 6d bc 82 12 38 3c
       0.030550983 0.05597255 -0.014524272 0.011234881
000070 81 17 12 3d 03 dd 68 ba ea 9d 2a 3d 55 68 a7 bc
       0.035666946 -0.0008883031 0.041654505 -0.020435492
000080 b4 dd 7b bc a0 e9 4e 3d 69 e6 f7 3c 0d 14 8e bb
       -0.015372682 0.05051577 0.030261235 -0.0043358863
000090 2e 63 4c 3c c7 17 a1 3d ed 3f ed 3c e5 e7 12 3d
       0.012474818 0.07865863 0.028961146 0.035865683
0000a0 b6 3c 5d 3d db 41 17 3d 24 7a 17 3d ba e8 04 3d
       0.054012977 0.03692804 0.036981717 0.032448508
0000b0 fd 6f 04 bd 40 b1 fb ba 28 55 8b 3d 3b 7c 60 bd
       -0.032333363 -0.0019202605 0.06803352 -0.054805975
0000c0 66 a7 27 3d e0 f6 43 bd 60 f9 43 3d 72 1d ae 3d
       0.040931128 -0.04784286 0.047845244 0.0850171
0000d0 d7 7b ad 3d e9 ad a8 3c 65 b0 ea 3c 8e 28 03 bd
       0.08470886 0.02059074 0.028648565 -0.032021098
0000e0 1d c6 2d 3d c0 20 8a bd 1c ba ca bc d9 94 72 3d
       0.042425264 -0.06744528 -0.024746947 0.059223983
0000f0 73 0a e9 bb b3 1b 80 3d cf 0c 71 bd 60 ee 96 3d
       -0.0071118413 0.06255283 -0.058850106 0.07369685
000100 22 b9 07 3d f2 63 e1 3c 75 d1 f1 bc 80 c1 3b bd
       0.03313554 0.027513478 -0.029518822 -0.045838833
000110 74 82 ea 3c 9c fa e7 3c 12 6f 12 bc 77 c9 99 3c
       0.028626658 0.028317742 -0.008937614 0.018772824
000120 24 fa 8f 3d b6 50 57 3d e0 d7 68 bc cf 26 82 3d
       0.070301324 0.052567206 -0.014211625 0.063550584
000130 fe 8c 81 3c bc 21 d6 bc d0 a3 22 3d 36 12 26 3c
       0.0158143 -0.026139133 0.039707005 0.010136178
000140 3a 1a 40 bc b5 04 3b bd fb 91 d0 3c 21 d1 97 3d
       -0.011725003 -0.045658786 0.025460234 0.07412935
000150 5e 27 07 3d 07 4e 44 3d 52 a2 9d 3d b9 59 39 bd
       0.032996528 0.047925975 0.07696976 -0.04525158
000160 9f 18 ce 3c ff 5c 0a bd 3f 51 a6 3d 74 e2 22 bc
       0.025158225 -0.033780094 0.08120965 -0.009941686
000170 2c 04 04 3b 43 0a 11 3d cd 57 3a 3d f9 34 64 3d
       0.0020144088 0.035410177 0.04549389 0.05571458
000180 ad bb 49 3c ad 9a 25 bc 01 f2 b7 bc 8f 00 01 bc
       0.012312812 -0.010107678 -0.022454264 -0.007873668
000190 d7 39 48 bd 3d c8 23 3d f5 a9 1d bb 56 b3 87 bd
       -0.048883285 0.039985884 -0.00240576 -0.066260025
0001a0 4a 1d 90 bd a4 cb bd bc 09 09 42 3d 3f 02 85 3d
       -0.070368364 -0.023168392 0.047371898 0.06494569
0001b0 5d 96 f9 bc 7a 47 82 3c 9a 18 1a 3d 50 43 43 3d
       -0.030467207 0.015903223 0.037621118 0.047671616
0001c0 56 ce a8 3d 95 28 14 3d 43 4d 66 bd 57 92 8b 3c
       0.082424805 0.036171515 -0.056226026 0.017037554
0001d0 63 e8 85 bc 8d d4 0a bd a8 95 5e bc 78 67 ff 3c
       -0.016346162 -0.03389411 -0.0135854855 0.031177267
0001e0 6d f3 70 bd 5a 05 f6 3c 17 d3 c7 3b 1d 82 84 3c
       -0.0588259 0.030031849 0.006098162 0.016175324
0001f0 f0 e1 b7 bc 89 3e 43 3c c7 63 69 bb 05 8f 7f 3d
       -0.022446603 0.011916765 -0.003561245 0.062392253

network_body._body_endoder.seq_layers.2.weight f4 [128, 128]
000000 a4 bd 10 bc a4 23 29 bc 3d ea b2 3d 97 16 9f 3d
       -0.008834276 -0.010323439 0.08736084 0.077679805
000010 4d 19 01 be 0d 07 ff 3b 7a 3d ef bc e3 96 50 be
       -0.12607308 0.007782823 -0.029204119 -0.20370059
000020 09 57 88 bd 2b 9a 0d 3e 33 da 9a 3d b9 55 96 bd
       -0.06657226 0.13828342 0.075611494 -0.07340569
000030 f8 ba c4 3d 4d 68 94 bd 9c 53 df 3b a5 fb 05 bc
       0.09605974 -0.07246456 0.006815387 -0.0081776725
000040 c6 39 80 bc e2 ea 1f 3d 26 38 4a 3e 8f 48 04 be
       -0.015652549 0.03904236 0.19747981 -0.12918304
000050 86 81 f4 bd e7 66 bf 3d a0 46 29 3e 91 ea f5 bd
       -0.11938767 0.09345799 0.16530848 -0.120076306
000060 44 51 bd 3d 7c 53 cd 3d ca f4 01 be c3 8a 83 bb
       0.09244016 0.10025689 -0.12691036 -0.0040143444
000070 1f e5 66 3d ff 38 14 3e 7c 61 de 3b 41 ea 8e bd
       0.05637085 0.14474867 0.0067865234 -0.06978274
000080 22 aa 02 3e 64 3e 07 be cd c7 0c 3c d8 f9 7e 3c
       0.12760213 -0.13207394 0.008592558 0.015562497
000090 09 c6 ff bc 49 41 e6 3d f6 f6 d3 3d 1b 50 5d 3d
       -0.03122236 0.11242921 0.103498384 0.054031473
0000a0 94 5b 9e bd 39 65 f4 3d 5b ff b0 3c 31 8b b2 3b
       -0.07732311 0.11933369 0.021606138 0.005448722
0000b0 aa 23 1e 3c 20 ae 84 bd ca 1a 19 3d 96 57 2a be
       0.009652058 -0.06478524 0.037379064 -0.16634974
0000c0 ec 9a 3a 3e 9e ec 27 3e 24 bc bb bd 51 b8 f2 3c
       0.1822316 0.16398856 -0.09166744 0.029628905
0000d0 e8 58 90 bd 66 71 f8 3d fe 19 1b bd 96 56 a0 bd
       -0.070482075 0.12131004 -0.037866585 -0.07829015
0000e0 e0 2e 6c bc 5c 1a be 3d 09 c5 45 3d c4 de cc 3d
       -0.014415473 0.092823714 0.04828361 0.10003427
0000f0 8b f2 15 3d d8 a6 87 bd 66 c2 bd bd 44 e0 7e 3d
       0.03660826 -0.0662362 -0.09265594 0.062225595
000100 32 e9 f0 3d 9a 01 1e be c1 03 45 3d 42 80 11 3e
       0.117632285 -0.15430298 0.048099283 0.14209083
000110 08 fb 8c bd fd e2 ba bd 2c 33 b6 3d 07 5e 5a 3d
       -0.06883818 -0.09125326 0.08896479 0.053312328
000120 dd 54 87 3d 61 b7 3b be 08 fc 98 3d 84 f5 3c 3d
       0.06607983 -0.18331672 0.07469946 0.04613258
000130 d5 80 a0 3d 18 ff 96 3d b2 1e e8 bd fe c9 51 bd
       0.07837073 0.07372874 -0.1133398 -0.051218025
000140 84 53 62 3d 59 e5 11 3d 05 f9 7f 3d d1 ce a5 3d
       0.055255428 0.035619114 0.062493343 0.08096088
000150 64 06 d6 3c c3 3a 1a 3d 0d 8a 70 3b 93 14 de bd
       0.026126094 0.037653696 0.0036703378 -0.10843768
000160 37 bd a8 bd 96 cc 78 3c a6 a0 43 3c 4a 19 2f 3e
       -0.08239215 0.015185496 0.011940157 0.17099491
000170 c2 d8 c6 bd 55 48 aa bd 92 c2 3c bd e3 d9 7a 3a
       -0.09709312 -0.083145775 -0.046083994 0.0009569211
000180 21 df a3 bd 70 9e 56 bd e8 a7 05 bb 13 79 e2 3d
       -0.08001543 -0.05239719 -0.002039427 0.11058249
000190 f1 52 b7 bc d3 38 75 3d 89 42 00 3d 4c 54 13 bc
       -0.022378417 0.059868645 0.031313453 -0.008992266
0001a0 19 28 3c bb af 30 fc 3b 78 49 cb bd 52 9f 49 be
       -0.0028710424 0.007696233 -0.099261224 -0.19689682
0001b0 51 88 28 3e bb db 00 3c 4a e2 d8 3d 99 3e 02 be
       0.1645825 0.007864888 0.10590036 -0.12719192
0001c0 22 d0 9e 3d 66 4c 25 bd 80 ed 3b bc 27 5b 05 be
       0.07754542 -0.040356062 -0.011470199 -0.13023053
0001d0 07 e8 8f bd a5 72 2c bd 69 c2 62 3e 75 d0 16 bd
       -0.070266776 -0.04210152 0.22144474 -0.036819894
0001e0 80 bb 18 3d aa 64 af bd c8 75 9e bc bf 2b 63 3d
       0.03728819 -0.08564122 -0.019343272 0.05546164
0001f0 9d 54 9e bd c2 22 bc bb 52 42 61 bc 3b f7 ad bd
       -0.077309825 -0.005741448 -0.013748722 -0.08494421
000200 ae e0 92 bd 9b e2 27 bd d4 db 98 3c 79 cb 34 be
       -0.071717605 -0.040987592 0.01865951 -0.17655744
000210 0d 9c d5 3c 95 5d c1 3c d0 49 be bd 1c f9 b4 3d
       0.026075387 0.023604194 -0.09291422 0.08836576
000220 cb 84 41 3e 66 55 1f 3d 7b df db bd a5 be b7 3d
       0.18898313 0.0388998 -0.10735985 0.089719094
000230 b7 c2 cc 3d 28 6f 3d 3e 7e 87 8d 3c ee a8 08 be
       0.099980764 0.18499434 0.017276522 -0.13345692
000240 7b cb 35 be aa da a1 bd c7 68 50 3d 0c 3e e2 3d
       -0.17753403 -0.07903035 0.050881173 0.11046991
000250 e3 33 a0 3c 32 bf 5f 3d 52 cb ad 3d aa 44 9f 3d
       0.019555992 0.054625697 0.08486046 0.077767685
000260 d8 1f 96 3d ca 88 92 bd ce ed dc bc 39 e7 de 3d
       0.073302925 -0.07154997 -0.026968863 0.10883946
000270 3e 72 7b bd c9 32 f0 3d 2d cb d5 bd 07 84 13 bd
       -0.061388247 0.117284365 -0.10439143 -0.036014583
000280 77 87 8c 3d 02 09 19 bd fe 51 03 3e 6e 59 35 3d
       0.06861775 -0.037362106 0.12824246 0.04427474
000290 05 f5 83 bd ff bd 80 3b 5f 5c 08 3e 75 eb f3 bd
       -0.06443218 0.0039288993 0.13316487 -0.11910144
0002a0 7b 7b a4 3d 7e 26 97 bd 97 21 8d 3d 66 e5 89 bc
       0.080313645 -0.07380389 0.068911724 -0.016833019
0002b0 db 49 ad bd fc 27 8d bd 9d 05 8a bd 70 ed 34 3c
       -0.084613524 -0.06892392 -0.06739352 0.011042938
0002c0 f7 f7 78 bd dd cd 35 bc 6d 9b da bd b3 a2 44 bd
       -0.060783353 -0.011096445 -0.10674176 -0.048006725
0002d0 d3 bc f4 bc d5 8a 01 3d 5d ca ca bd 9b 7b 37 3d
       -0.029875195 0.03162654 -0.09901879 0.044795614
0002e0 f7 db 8f bd 5d 22 14 3c 74 5b c2 bc 8f 50 66 be
       -0.07024377 0.009041396 -0.023725249 -0.22491668
0002f0 26 2e 92 3d 22 c7 1d be 67 f5 b3 3c 66 ff 2f 3d
       0.07137708 -0.15407994 0.021967603 0.042968176
000300 8d 91 56 bd 6d 80 a4 bd 60 c2 6b bc 53 17 08 3e
       -0.0523849 -0.08032308 -0.014389604 0.13290147
000310 20 26 41 be db 31 80 bd ea 28 da 3c ff fa 87 bd
       -0.188622 -0.06259509 0.026630837 -0.066396706
000320 66 f9 1d 3a 98 10 c1 bd 84 9e 35 3d 97 19 22 3e
       0.0006026238 -0.09426993 0.044340625 0.15830074
000330 9d a8 00 3d 01 99 e7 3d 6d 72 6f be e6 49 d0 3d
       0.031410802 0.1130848 -0.23383494 0.10170345
000340 cc 2a 9d 3d 00 b7 f5 3d df 22 b0 3c 5b 13 5d bd
       0.076741785 0.11997795 0.021501003 -0.053973537
000350 6e 01 cb bc 73 71 a0 bd 5c 25 be bc 82 d5 46 3d
       -0.024780955 -0.07834139 -0.023211174 0.04854346
000360 e1 c6 9d bd f5 bd f5 3d 47 53 f0 3b d3 3a 96 3d
       -0.07703949 0.11999122 0.007334146 0.073354386
000370 15 0b d3 3c 82 ac 3d 3d 05 3f e0 bd 25 28 d3 3c
       0.02576212 0.046307094 -0.1094952 0.025775978
000380 f6 9b fa 3d ab 1a 97 3d 74 a0 1a 3d ef ab c1 bd
       0.122367784 0.073781334 0.037750676 -0.09456622
000390 f2 4f e3 3b 7e 04 fb 3d 75 ce 04 be 54 14 14 bd
       0.0069370205 0.12256716 -0.12969382 -0.0361522
0003a0 15 79 bf 3d 3c e5 64 3b 7c 2a 14 bd 33 bf 7b bd
       0.093492664 0.0034926673 -0.03617333 -0.06146164
0003b0 5f 7e d7 3d 10 8e db bd a3 e5 97 3c 5d 3f 49 be
       0.1052215 -0.10720456 0.018542117 -0.19653077
0003c0 bf 1a 24 be b6 af 94 bc cf 8b e1 3d 37 ff 01 3d
       -0.16025828 -0.018150192 0.110129945 0.031737532
0003d0 e5 3b 05 3d 08 26 2f bd c8 97 d6 bb 69 f2 23 3d
       0.032527823 -0.04276088 -0.0065488555 0.040026102
0003e0 f0 c9 28 bd fc 81 12 be 33 e5 0e 3d fe fe 63 bd
       -0.041208208 -0.14307398 0.03488655 -0.0556631
0003f0 f3 dc 42 3c b1 70 97 3d 89 fd 82 bc f6 be 83 bd
       0.011893499 0.07394541 -0.015990036 -0.06432907

network_body._body_endoder.seq_layers.2.bias f4 [128]
000000 77 d0 5e bc f4 82 5b bd 31 aa 86 3d 63 8b 3f 3d
       -0.013599507 -0.053591684 0.0657543 0.04676379
000010 bd 3a 51 3d ce dd 3c 3d e2 7a 83 bc b0 98 06 bd
       0.051081408 0.046109967 -0.016049806 -0.032860458
000020 db 3d 2e bc 03 dd 48 bc c2 ca 88 3d 3e d7 46 3d
       -0.010634865 -0.012259725 0.06679298 0.048545115
000030 28 a7 6b 3d 28 ad 4c 3d 66 1f 10 3d 15 d0 bc bc
       0.05753246 0.049969822 0.035186194 -0.02304844
000040 76 c5 f3 bb da 7f 6f 3d 00 4b 39 3d 6a 33 00 3d
       -0.0074393107 0.058471538 0.04523754 0.031299032
000050 13 6d ce bc b6 4c 37 bd 1d d4 8e 3d 6d 9f 31 3d
       -0.025198495 -0.04475089 0.06974051 0.04336493
000060 66 e4 1d 3d 39 39 7e 3d 64 12 1e 3d 2b 4c 71 bd
       0.038547896 0.06206629 0.038591757 -0.05891053
000070 0a cc 44 bd 69 2a 88 bb 40 11 26 bd 78 e5 2d 3d
       -0.04804615 -0.0041554463 -0.040543795 0.042455167
000080 9c b2 c7 3c 64 3d 54 bd b5 ae ec bb 21 d8 22 bd
       0.02437716 -0.05181636 -0.007222975 -0.039756898
000090 c4 d1 3e 3d 83 25 5f 3d f1 82 1c bc 51 b1 66 bd
       0.046586767 0.054479133 -0.009552703 -0.056321446
0000a0 54 e0 f1 3c 99 bc f4 3c f8 4e 49 3d 1f 74 39 3d
       0.029525913 0.029875087 0.049147576 0.045276757
0000b0 d1 c3 72 bd 4a 5d d5 3c a8 45 25 3d ef 1c 1c 3d
       -0.059268776 0.02604546 0.040349633 0.03811353
0000c0 1a f6 16 bd 39 0c f7 3c e7 2e 97 3c 45 6b 53 bb
       -0.036855794 0.030157195 0.018454982 -0.0032259983
0000d0 5d c8 8c 3c 7b 06 82 3d d7 84 21 3d f8 5e 16 3d
       0.017185384 0.06348892 0.039433327 0.036711663
0000e0 c5 0f 01 3c c3 bc 05 bd b8 51 43 3d 83 9b 1d 3d
       0.007877295 -0.03265072 0.047685355 0.038478386
0000f0 5f 5e 66 bd 0a 63 6b 3d 60 61 1f bd 3a c5 91 bc
       -0.056242343 0.057467498 -0.038911223 -0.01779424
000100 0f bc 58 3d 64 7f 3e bd a5 7f 49 bd bb cd ea 3c
       0.05291372 -0.046508208 -0.049193997 0.028662553
000110 d0 d1 6e bd c9 85 35 3d 98 5a 26 3d 14 2e 19 3c
       -0.05830556 0.04431704 0.04061374 0.009349365
000120 2d a5 82 3d a2 c4 41 bd 23 ca b1 bc 17 1a f7 3c
       0.06379161 -0.047306664 -0.021702832 0.030163808
000130 98 55 05 3d 49 dc 42 3d fa 5c 3a 3d a2 c3 3c bd
       0.03255233 0.04757336 0.045498826 -0.046085007
000140 fa f4 5a bd 27 2d cd bc 76 d0 f2 bb 42 4a 3e 3d
       -0.053456284 -0.025045944 -0.0074101044 0.046457537
000150 ea 1e 40 3d 13 33 63 3d 08 67 f1 3c ce a5 95 bc
       0.046904482 0.05546863 0.029468074 -0.018267538
000160 ea 20 0f 3d 89 4f 53 bd ea 3f 94 3c cf 5d 45 bd
       0.0349435 -0.051589523 0.018096883 -0.048185166
000170 a2 00 5b 3d 0b 85 82 bd 6d e9 4d 3d 58 8e 1e bd
       0.0534674 -0.06373032 0.05027144 -0.03870997
000180 43 6c 81 bd ed 63 90 3c 83 52 3c 3d 2d 3a f8 bc
       -0.063194774 0.017625773 0.045977127 -0.030301178
000190 d1 ed 95 bb e2 1f 2e 3d 34 f2 e8 3c 77 8d 17 3d
       -0.004575469 0.042510875 0.028435804 0.037000146
0001a0 8a 16 61 3d 7d 40 13 3d 44 3a 50 3c 69 73 4e 3d
       0.054953136 0.035950173 0.012709204 0.050403032
0001b0 c4 c7 50 bc d3 f4 b0 bb 1c cf 37 3d c6 a9 69 bd
       -0.01274294 -0.005400279 0.04487525 -0.057046674
0001c0 9a 53 32 bd f7 07 1a 3d e0 94 15 39 25 b1 04 3d
       -0.04353676 0.037605252 0.00014265208 0.0323955
0001d0 b3 9d 33 3c f8 27 33 3d b7 71 63 3d 91 9a ba 3c
       0.010962891 0.04373929 0.05552837 0.022778781
0001e0 80 3f 39 bd 1e 78 3e bd 04 84 6b bd 5f 0d 39 3d
       -0.045226574 -0.04650127 -0.057498947 0.045178767
0001f0 5a 74 f0 bc c0 19 8d bb 5a 30 50 3d 91 71 38 3d
       -0.029352356 -0.004306048 0.05082736 0.04503018

action_model._continuous_distribution.log_sigma f4 [1, 2]
000000 da ca 43 3b 5f 2c 68 bc
       0.0029875548 -0.014170735

action_model._continuous_distribution.mu.weight f4 [2, 128]
000000 c4 df f9 3c 15 3d 75 3d 84 7f 12 3c 5b fa 10 3d
       0.030502208 0.059872705 0.008941535 0.035395008
000010 2e 78 60 bd 70 aa 52 bd d8 b8 25 3d 0e c8 f5 3b
       -0.054802112 -0.051432073 0.040459484 0.007500655
000020 88 f0 0b 3d 6c e1 4f bc 7d d9 60 bd 8f b8 08 bd
       0.034164935 -0.012688022 -0.054894913 -0.033379134
000030 ac 7c e0 bb ab d6 85 bd be 08 12 bd 44 c9 a7 ba
       -0.0068507995 -0.06535085 -0.03565287 -0.0012801071
000040 0b 41 76 3d 00 ce 69 bd fe 9c d8 ba 1a 51 63 bc
       0.060120624 -0.057081223 -0.001652628 -0.013874317
000050 eb be 02 3d 7f b0 9f 3c d5 a1 80 bd 06 f7 24 bd
       0.031920355 0.01949334 -0.06280867 -0.040274642
000060 ee 3f 1b 3d 71 a6 ed bc 4b 29 2a bd 0b 20 86 3d
       0.037902765 -0.02901003 -0.041543286 0.065490805
000070 89 d0 c9 3c e4 a7 6a 3d 56 09 50 3d 00 fa 14 bd
       0.02463557 0.05728902 0.050790153 -0.03637123
000080 f8 dc 89 bc 60 8e a9 3c 20 36 77 3c dc aa 82 3d
       -0.016828999 0.020697773 0.015088588 0.06380245
000090 62 49 26 bd 95 36 54 bd 4f 78 80 3d 3f 45 82 3d
       -0.040597327 -0.051809866 0.06272947 0.06360864
0000a0 d5 66 a5 bc 72 9c 32 bd d0 15 35 bd db 8b 2b bd
       -0.020190636 -0.04360623 -0.044210255 -0.041881423
0000b0 41 82 3b 3d 27 b8 88 bc eb 35 89 bd 1c 29 01 bd
       0.045778517 -0.016689373 -0.06699737 -0.031533346
0000c0 38 61 ef 3c 42 9c 86 bd 06 58 f1 bc ce d6 39 3c
       0.029221162 -0.065727726 -0.029460918 0.011342717
0000d0 c9 dc 05 bd 0b 91 42 bd 46 5a 69 bd 96 94 f7 bc
       -0.03268126 -0.047501605 -0.056970857 -0.030222218
0000e0 b9 41 c2 3c 29 84 25 3d b8 ec 3a bd 42 fe 5c bc
       0.02371298 0.04040924 -0.04563591 -0.013488354
0000f0 34 2a 66 3d f7 05 07 bd ac c7 57 3d fd c8 1e 3d
       0.05619259 -0.032964673 0.052680656 0.038765896
000100 9d 67 2d bd 88 65 27 3d bc 77 03 3d f8 2c 2d 3d
       -0.04233514 0.040868312 0.03209661 0.042279214
000110 49 ae 8b 3d 71 fc 67 bc f2 51 90 bc c3 6c a7 bc
       0.06820352 -0.014159308 -0.0176172 -0.020437604
000120 af dc 27 bd e4 9a 9a 3d 48 e0 ae 3d 7b 76 54 3d
       -0.040981945 0.07549074 0.08538872 0.051870804
000130 ab 90 e7 bc 2f 4a 1f bd 9d a0 39 bd 8e 68 84 3d
       -0.028267225 -0.038889106 -0.04531919 0.06465255
000140 e4 a2 4b 3d 3d 98 67 3d 9a a8 86 3d 6c 2c 4d bd
       0.04971589 0.05654167 0.06575127 -0.050091192
000150 49 ee 1c 3b 55 4a 17 bd 14 e2 a2 bc 69 b8 47 3d
       0.002394574 -0.036936123 -0.019883193 0.04875985
000160 40 8e 61 bd 17 af 92 3d b6 69 1b bd 7c 23 62 3d
       -0.0550673 0.07162302 -0.03794261 0.05520962
000170 bf f4 a6 bc 75 a4 4b 3d c1 a1 9a ba 9f 38 17 3d
       -0.020380376 0.049717385 -0.0011797474 0.036919232
000180 98 6a 6a 3d 37 64 61 3d 11 e3 06 bd b0 5f 11 39
       0.057230562 0.055027213 -0.03293139 0.00013863924
000190 4f 7a 6a bb ab 9a 99 bd 31 78 56 bc e9 b1 a8 3c
       -0.0035778468 -0.07500204 -0.013090179 0.020592647
0001a0 1a ff 84 bd da 56 87 3c 3b 2a c9 bc c8 36 85 bd
       -0.06493969 0.016520906 -0.02455627 -0.06504589
0001b0 15 ec cc 3c f3 09 c4 bb df 0c 78 3c fd cf 8d 3d
       0.025014916 -0.0059826314 0.015139787 0.06924436
0001c0 8f a0 b4 3c f9 74 63 bb 0c 7f 30 3d 4f 2a c6 bc
       0.022049217 -0.0034707172 0.04308991 -0.024190096
0001d0 b0 20 dd bc fc c4 97 3b d3 1c 07 bd 82 87 1f bc
       -0.026993126 0.0046316367 -0.032986473 -0.009736897
0001e0 5c e1 14 3c d7 49 5b 3d 20 51 3e 3d 75 a2 1f bd
       0.009086933 0.053537216 0.046464086 -0.03897329
0001f0 f1 ce 95 3a a0 1e 48 3c 8f 86 37 bd 0d ad 8c bc
       0.0011429471 0.012214333 -0.04480606 -0.01717236
000200 2d ab 57 bd 5c 57 43 3c 4e 6a e4 bd 66 ea b2 bd
       -0.05265348 0.011922684 -0.111530885 -0.08736114
000210 72 28 a3 bc f9 ff 36 3d 70 23 9c bc 8b 6e 4a 3d
       -0.019916747 0.04467771 -0.019059867 0.04942183
000220 86 7e 10 bd 97 d9 bb 3c 74 03 63 3d 0e 2a 4e bc
       -0.035276912 0.022930903 0.055423215 -0.012583269
000230 93 ef 9a bd eb f8 2c 3d f9 ad 0d bd 05 ff 00 bb
       -0.075652264 0.042229574 -0.03458974 -0.0019683253
000240 80 2c 75 bd 2c 6f fc 3c 03 78 bf bc 32 b8 a2 bc
       -0.05985689 0.03081473 -0.023372656 -0.019863222
000250 c0 68 a0 bc 65 53 0b 3c 3d 6d 89 3d af a9 f1 bb
       -0.019581199 0.0085037695 0.06710289 -0.007374964
000260 ce 44 f2 bd 32 9f 47 bd 14 27 dd 3d dc 9c 4f 3c
       -0.1182953 -0.048735805 0.10798469 0.0126716755
000270 1c f9 e1 3c e4 cb 44 bd 78 7e b5 bb 21 41 8b bb
       0.027584605 -0.048046008 -0.005538758 -0.0042497073
000280 43 c4 f5 3d bc cb d6 3c af a4 b6 3d 08 37 90 bc
       0.120003246 0.026220195 0.0891813 -0.017604366
000290 70 3e d0 3c 2a 95 53 bd 92 12 94 bd 6e ce 52 3b
       0.025420398 -0.051655926 -0.072301045 0.0032166499
0002a0 20 73 46 bc 9e a2 ab 3c 5f f5 00 bc 38 35 b1 3c
       -0.012112409 0.020951565 -0.007871001 0.021631822
0002b0 2f 66 ab 3c 50 c9 35 bc 1c 94 c2 3d 7d d3 03 bc
       0.020922748 -0.01109536 0.09500906 -0.008046028
0002c0 b8 02 c3 3c 86 33 e1 3c 91 bd 91 3d 78 66 85 bc
       0.023805007 0.027490389 0.07116235 -0.016284212
0002d0 36 52 5e 3d b9 55 8b 3d 0f 15 82 3c b1 d8 12 bd
       0.05427762 0.0680346 0.015879182 -0.035851184
0002e0 dc cc 28 bd 18 fb 57 bc b5 75 c4 3c 72 fe 07 39
       -0.041210994 -0.013182424 0.023981908 0.00012969392
0002f0 2f 86 c8 3c 6b 50 da bc c3 76 86 bc 43 77 ff bc
       0.024478046 -0.026649674 -0.016414052 -0.031184798
000300 aa ca a3 bc f5 fd 94 3c 9f 84 a1 3c 98 66 00 be
       -0.019994099 0.018187502 0.019716559 -0.12539136
000310 c8 1c fc 3c 7a 86 79 bc f9 a1 f4 3c 73 c4 fd 3c
       0.030775443 -0.015229816 0.02986239 0.030977463
000320 b5 0d 0f bd 95 5b ae bb e9 c7 3c bd 1b db e1 bd
       -0.03492518 -0.005320976 -0.046089087 -0.11028119
000330 3a 85 e9 3b 5a 3a 8b 3b 62 71 0c 3c b1 e8 09 bc
       0.0071264775 0.0042488994 0.008571954 -0.008417294
000340 c9 48 35 3d ad 77 06 bd 40 82 99 bd 8f f5 13 3c
       0.044258866 -0.032828975 -0.07495546 0.009030714
000350 14 78 3f bd e9 84 f6 bc e1 f2 59 bc 34 e7 17 bd
       -0.046745375 -0.030092673 -0.013302536 -0.037085727
000360 64 bc 5d bc 67 23 ef 3b 83 d5 24 3d 4a d0 f9 bb
       -0.013533685 0.0072979215 0.040242683 -0.007623707
000370 c4 cf fe bc b3 37 a5 3c c9 c7 ac bd 82 46 13 bc
       -0.03110493 0.020168161 -0.084365435 -0.008988978
000380 f8 f7 b8 3b 34 81 eb bd 8a 7f 22 bc 60 e3 9c 3c
       0.0056447946 -0.11499253 -0.009918103 0.01915139
000390 50 a3 28 3b b7 50 cf 3d 7e 28 2e bd d5 f4 c7 bd
       0.0025732107 0.10122817 -0.042519085 -0.09763495
0003a0 27 16 0c 3e 0a 1b 9b bd 20 2a 25 3d 3f 67 15 bc
       0.13680325 -0.07573517 0.040323377 -0.009118854
0003b0 95 71 3d bd b8 74 09 3d ac f4 b1 bd e4 9b b8 3b
       -0.0462509 0.033558577 -0.086892456 0.005633818
0003c0 06 3d bb 3c ac 05 32 bd 3b 0a 67 bd 88 65 76 bc
       0.022856247 -0.04346244 -0.05640624 -0.015038855
0003d0 db 4f f6 3d 0f 12 b0 bd ad 38 97 bb e1 ba 8e bc
       0.1202695 -0.085971944 -0.0046149106 -0.017423095
0003e0 dd d3 47 3d c4 e1 0f bc 00 19 f3 3c 08 20 3a ba
       0.048786033 -0.008781854 0.029675007 -0.000710011
0003f0 94 f7 02 bc a2 6f 00 3e 2e c0 fe bc d8 e0 ae bc
       -0.007993598 0.12542585 -0.031097498 -0.021347448

action_model._continuous_distribution.mu.bias f4 [2]
000000 6c 87 42 bd 6a b4 84 bc
       -0.04749243 -0.01619931

action_model._discrete_distribution.branches.0.weight f4 [1, 128]
000000 ef 33 35 3c eb 0f 2c 3b 1b e0 88 bb ca 33 57 3b
       0.011059745 0.0026254605 -0.004177106 0.0032837265
000010 f3 eb 5f 3b 30 ea 20 3b c5 fa 56 bc da 2f fa 3b
       0.0034167736 0.002455365 -0.013121312 0.007635099
000020 0e 8e 95 3a ba ca 7d bc 7f 39 66 3c a1 03 0e bc
       0.0011410133 -0.015490228 0.014051794 -0.008667857
000030 72 c5 12 bc 4a 31 8a 3b b3 6e 21 bc 89 be 3f 3c
       -0.008958207 0.0042173015 -0.009853053 0.011703142
000040 5d 56 33 bb 64 de be 3a 05 9f 2b bb b5 98 80 3c
       -0.002736471 0.0014562127 -0.0026187312 0.015697816
000050 4a fd 50 3b 56 95 2b bc e3 31 90 bb 07 6b 58 bc
       0.0031889253 -0.010472616 -0.004400478 -0.013209111
000060 9b ac 7b ba ee 94 85 3c 77 ae 7c bb 96 fb 98 bc
       -0.00096006104 0.016306367 -0.0038556138 -0.018674653
000070 bc 3e 86 bc cc 77 8a bb f9 9d 33 3b 10 e6 ad 3b
       -0.016387336 -0.0042257067 0.0027407391 0.0053069666
000080 f0 32 00 bc 0c 8c 15 3b 5a 04 5b bb 41 90 9d 3b
       -0.007824644 0.002281907 -0.0033419342 0.004808456
000090 a6 14 3a 3c 19 af 07 3b 34 c4 84 bc a5 6a 87 bb
       0.011357462 0.0020703732 -0.016206838 -0.004132586
0000a0 ec 35 3f 3c c4 9a c2 bb 03 23 ae bb dd 70 10 3b
       0.011670571 -0.0059388597 -0.0053142323 0.0022039928
0000b0 e6 7c 2b bc b7 05 82 3b e8 90 9b 3b 0b 19 86 3b
       -0.01046679 0.0039679664 0.004747499 0.004092341
0000c0 db cc a1 3a 0f d6 a4 bc 49 c0 21 3c b0 a4 f5 b9
       0.0012344377 -0.020121602 0.0098725045 -0.00046852743
0000d0 ef 94 74 bb b5 31 65 bb 22 7d 9b 3b 3d 3e e8 39
       -0.0037320217 -0.0034972255 0.0047451416 0.0004429686
0000e0 20 7b dd 3a 6f 33 9d 3c f5 8b d1 3b 10 34 df 3b
       0.0016897656 0.019189565 0.006394858 0.0068116263
0000f0 53 d3 54 3c c8 b7 19 3b 1b 13 33 3c 72 df 92 3b
       0.012989837 0.002345549 0.010929848 0.004482203
000100 66 08 93 bc 5e ce 97 b9 19 df 34 3c 1b 3b 46 3a
       -0.01794834 -0.0002895472 0.011039519 0.0007561908
000110 07 dd a2 3b 34 77 32 bb 2c bf 27 3c ed 61 d3 3b
       0.004970196 -0.0027231695 0.01023845 0.0064508826
000120 83 4d b8 bb 27 0b 68 3c 30 1a 8e 3c 77 ff 7f 3c
       -0.0056244745 0.014162815 0.017346472 0.015624872
000130 1b 0c 79 3b 2b 90 26 bc 23 df c3 3b 22 e6 5e 3b
       0.00380016 -0.010166208 0.0059775277 0.0034011682
000140 fb e2 5c bb 56 b4 89 38 b5 c3 0f bb 41 da 96 3b
       -0.0033704627 6.566259e-05 -0.002193672 0.0046036546
000150 db 22 06 3c 23 66 49 3a b5 31 89 3b 38 7f 48 bc
       0.008187021 0.0007682761 0.0041868337 -0.012237363
000160 4f bf 31 bb 61 46 b4 3b bf c0 1d 3b 50 8e 64 3c
       -0.0027122085 0.005501554 0.0024071184 0.013949946
000170 a2 78 03 3c b0 72 d1 3b 86 5d bc 3b 47 44 1f 3c
       0.008024367 0.0063918456 0.0057484536 0.009720868
000180 95 05 2c 3c 41 c8 84 ba aa ee 33 bc 1f 76 97 3b
       0.010499378 -0.0010130481 -0.010982195 0.0046222354
000190 37 0e 30 bb b7 81 2d bc e0 8d 1a 3a af 7b 0f bc
       -0.0026863941 -0.010590008 0.0005895775 -0.008757516
0001a0 f3 89 96 bb 70 9d b4 3a f1 68 9e 3b 17 94 2e bb
       -0.0045940815 0.001377983 0.0048342873 -0.0026638561
0001b0 b7 74 d4 3a 1a c3 35 ba fa e3 e8 ba 26 7c 0f bc
       0.00162091 -0.00069336744 -0.0017768138 -0.008757627
0001c0 29 81 48 3c df a8 ec bb 1f d6 17 bc 6b bb 21 3c
       0.012237825 -0.0072222794 -0.009267359 0.009871344
0001d0 d3 8b ab 3b 26 56 35 bc 0d 34 30 38 16 fe 34 3c
       0.005235174 -0.011067903 4.2010146e-05 0.011046907
0001e0 8b 53 45 bb 8d 3f 78 3c 7d fb 6e ba 2d ad 9f 3a
       -0.003010961 0.01515187 -0.0009116454 0.0012182348
0001f0 e2 a5 37 3b 02 f8 a7 3b 54 41 1a 3b aa 8d e6 3b
       0.0028022458 0.0051260004 0.0023537474 0.0070359306

exp_avg f4 [128, 12]
000000 8e ae 3c b7 b4 c0 cd 36 62 22 4d b4 2c a1 82 38
       -1.1246315e-05 6.1319097e-06 -1.9104621e-07 6.228904e-05
000010 ea 28 86 b9 a8 7a 7a b9 a8 7a 7a b9 95 43 8e b7
       -0.00025588955 -0.00023887551 -0.00023887551 -1.695919e-05
000020 00 00 00 00 00 00 00 00 29 70 94 b7 0c a2 44 b6
       0.0 0.0 -1.7695203e-05 -2.93006e-06
000030 ac 34 2f 37 f3 10 c6 b6 e0 fb d6 33 2d 11 77 b8
       1.04430765e-05 -5.902833e-06 1.0010967e-07 -5.8905385e-05
000040 1d 03 33 39 3a ad 25 39 3a ad 25 39 c4 88 86 37
       0.0001707193 0.00015800158 0.00015800158 1.6037731e-05
000050 00 00 00 00 00 00 00 00 74 5f 8c 37 f5 f2 39 36
       0.0 0.0 1.673375e-05 2.7708568e-06
000060 84 18 2a 37 a1 82 53 b7 82 73 b1 33 8d c6 a6 b8
       1.0138498e-05 -1.26069945e-05 8.2632155e-08 -7.95248e-05
000070 60 b6 1d 38 18 f3 f7 37 18 f3 f7 37 0d a1 b5 37
       3.7601567e-05 2.9557894e-05 2.9557894e-05 2.1651877e-05
000080 00 00 00 00 00 00 00 00 f8 82 bd 37 d2 0a 7b 36
       0.0 0.0 2.2591543e-05 3.7408213e-06
000090 37 3c 85 b6 3c 5b e2 b6 35 be 57 32 ea 98 eb b6
       -3.970719e-06 -6.745946e-06 1.2557895e-08 -7.0213473e-06
0000a0 76 31 20 b8 0c ef 1a b8 0c ef 1a b8 a0 4c 00 36
       -3.8193037e-05 -3.693909e-05 -3.693909e-05 1.9118088e-06
0000b0 00 00 00 00 00 00 00 00 06 de 05 36 1e 55 b1 34
       0.0 0.0 1.994778e-06 3.303075e-07
0000c0 df 0a a5 37 f4 9f 12 b7 3d 07 6a 34 35 8f d7 b8
       1.9674595e-05 -8.73952e-06 2.1795582e-07 -0.00010278673
0000d0 0c 94 9e 39 81 d4 92 39 81 d4 92 39 b0 c1 ea 37
       0.00030246412 0.00028005618 0.00028005618 2.7985167e-05
0000e0 00 00 00 00 00 00 00 00 de f1 f4 37 94 3c a2 36
       0.0 0.0 2.9199695e-05 4.8350284e-06
0000f0 a7 d7 80 b7 96 63 d7 36 60 cc c0 b4 06 1e a4 38
       -1.535921e-05 6.4190926e-06 -3.591149e-07 7.825722e-05
000100 c7 e5 f3 b9 27 20 e5 b9 27 20 e5 b9 06 bc b2 b7
       -0.0004651977 -0.0004370224 -0.0004370224 -2.1306809e-05
000110 00 00 00 00 00 00 00 00 c6 7d ba b7 9e 0a 77 b6
       0.0 0.0 -2.2231496e-05 -3.6812048e-06
000120 9c 85 cd b6 0d bb 0a 37 b2 c4 ae b4 96 df 4e 38
       -6.1250303e-06 8.268992e-06 -3.255314e-07 4.9322458e-05
000130 bb 70 c4 b9 e2 1b b9 b9 e2 1b b9 b9 19 4d 61 b7
       -0.00037468024 -0.00035306724 -0.00035306724 -1.3428996e-05
000140 00 00 00 00 00 00 00 00 39 14 6b b7 d0 b3 1b b6
       0.0 0.0 -1.40118e-05 -2.3201465e-06
000150 46 26 1e 37 1c 0e b1 b6 58 81 18 34 be 42 5d b8
       9.426445e-06 -5.2766536e-06 1.4203158e-07 -5.2752664e-05
000160 7a 3b 4f 39 e4 11 41 39 e4 11 41 39 17 f7 70 37
       0.00019763215 0.00018412579 0.00018412579 1.4362645e-05
000170 00 00 00 00 00 00 00 00 3d 6c 7b 37 f7 86 26 36
       0.0 0.0 1.4985967e-05 2.4814487e-06
000180 b4 f2 c5 36 41 db 33 b7 f7 95 b8 b2 84 95 71 b8
       5.899312e-06 -1.072028e-05 -2.1488615e-08 -5.7598125e-05
000190 64 b2 b3 b8 c4 b5 b4 b8 c4 b5 b4 b8 d7 8c 83 37
       -8.568613e-05 -8.616925e-05 -8.616925e-05 1.5682e-05
0001a0 00 00 00 00 00 00 00 00 5b 42 89 37 17 d3 35 36
       0.0 0.0 1.6362572e-05 2.7093972e-06
0001b0 e4 2e 01 b7 8c eb 8e 37 ff c6 19 b3 f2 82 b2 38
       -7.699917e-06 1.7037404e-05 -3.5804074e-08 8.512092e-05
0001c0 0a a0 7d 37 b8 0f b1 37 b8 0f b1 37 ee 68 c2 b7
       1.5117237e-05 2.1107364e-05 2.1107364e-05 -2.3175464e-05
0001d0 00 00 00 00 00 00 00 00 d6 d8 ca b7 90 5a 86 b6
       0.0 0.0 -2.4181249e-05 -4.004054e-06
0001e0 81 e4 b1 37 8e f7 45 38 22 5b 8b b4 a0 65 9a 38
       2.120645e-05 4.7199013e-05 -2.5957075e-07 7.3622214e-05
0001f0 b0 55 b1 b6 c0 43 4d 35 c0 43 4d 35 40 27 a8 b7
       -5.2849864e-06 7.646704e-07 7.646704e-07 -2.0045438e-05
000200 00 00 00 00 00 00 00 00 73 73 af b7 c1 6a 68 b6
       0.0 0.0 -2.0915386e-05 -3.4632833e-06
000210 8e 30 2d 37 0b c0 c8 36 ea eb 7d 33 9a 14 a3 b7
       1.0322909e-05 5.982821e-06 5.9120715e-08 -1.9440708e-05
000220 57 eb 23 39 cf 8e 1a 39 cf 8e 1a 39 98 98 b1 36
       0.00015632562 0.00014739785 0.00014739785 5.2927753e-06
000230 00 00 00 00 00 00 00 00 b6 4d b9 36 86 77 75 35
       0.0 0.0 5.5224764e-06 9.144354e-07
000240 2f f5 17 37 cf c7 1f 37 3c 4a 2b b3 e0 e6 60 b6
       9.057388e-06 9.52366e-06 -3.9881556e-08 -3.3512988e-06
000250 e6 cf 64 38 f2 e0 58 38 f2 e0 58 38 10 dd 74 35
       5.4553057e-05 5.170791e-05 5.170791e-05 9.121877e-07
000260 00 00 00 00 00 00 00 00 b8 7d 7f 35 c0 37 29 34
       0.0 0.0 9.517785e-07 1.5759633e-07
000270 ea 34 89 36 dc 7c 4d b6 ba 74 ad 33 89 cb d5 b7
       4.089078e-06 -3.0620058e-06 8.077173e-08 -2.5486357e-05
000280 c0 2f 0e 39 98 5a 05 39 98 5a 05 39 05 d5 e8 36
       0.00013559964 0.00012717617 0.00012717617 6.9389375e-06
000290 00 00 00 00 00 00 00 00 d0 ef f2 36 0f e8 a0 35
       0.0 0.0 7.24008e-06 1.1988467e-06
0002a0 8e 32 9d b6 ee 53 cc b6 ea ad 08 34 d0 19 bd b5
       -4.68485e-06 -6.0894445e-06 1.2729257e-07 -1.408911e-06
0002b0 61 70 a4 37 54 ba 9b 37 54 ba 9b 37 e0 27 ce 34
       1.9602654e-05 1.8564206e-05 1.8564206e-05 3.8399503e-07
0002c0 00 00 00 00 00 00 00 00 f0 19 d7 34 b0 7b 8e 33
       0.0 0.0 4.0065743e-07 6.634889e-08
0002d0 6e 15 57 b7 00 71 9f 32 fe ce f7 33 ea aa 4e 38
       -1.2819988e-05 1.8561423e-08 1.15394855e-07 4.9273403e-05
0002e0 76 63 97 38 ab 5d 98 38 ab 5d 98 38 a2 11 61 b7
       7.218767e-05 7.265372e-05 7.265372e-05 -1.34151505e-05
0002f0 00 00 00 00 00 00 00 00 2d d6 6a b7 9a 8a 1b b6
       0.0 0.0 -1.3997354e-05 -2.3177477e-06
000300 25 f8 54 b7 4c 72 f0 b6 2a 3b 50 34 5c fd d8 37
       -1.269396e-05 -7.1658633e-06 1.9393033e-07 2.5867186e-05
000310 24 68 ef 37 5d 2c f5 37 5d 2c f5 37 b8 4a ec b6
       2.8539514e-05 2.9226934e-05 2.9226934e-05 -7.0420465e-06
000320 00 00 00 00 00 00 00 00 0e 8c f6 b6 e2 4b a3 b5
       0.0 0.0 -7.347676e-06 -1.2166531e-06
000330 5f 56 bc 37 ec 66 30 36 4e e2 ff 33 34 7b a0 b8
       2.2451566e-05 2.6285952e-06 1.19155274e-07 -7.652343e-05
000340 c4 37 9b 39 a3 b6 90 39 a3 b6 90 39 50 c5 ae 37
       0.00029605452 0.00027601895 0.00027601895 2.0834297e-05
000350 00 00 00 00 00 00 00 00 06 5b b6 37 01 90 71 36
       0.0 0.0 2.1738477e-05 3.599562e-06
000360 4e 5d 42 b7 7e 93 8f b7 ec b1 0b 34 84 4f 3d b7
       -1.1585025e-05 -1.711561e-05 1.3010111e-07 -1.12837915e-05
000370 8d 2b b8 b8 fd 51 b1 b8 fd 51 b1 b8 68 36 4e 36
       -8.781916e-05 -8.455289e-05 -8.455289e-05 3.072806e-06
000380 00 00 00 00 00 00 00 00 5c 29 57 36 44 83 0e 35
       0.0 0.0 3.206157e-06 5.309014e-07
000390 a8 1a 49 36 08 4e 0b 37 42 7b ea b3 93 96 80 37
       2.996685e-06 8.303214e-06 -1.09188946e-07 1.5328906e-05
0003a0 96 80 15 b8 2a 5d 09 b8 2a 5d 09 b8 9b 0c 8c b6
       -3.5644123e-05 -3.275011e-05 -3.275011e-05 -4.1737926e-06
0003b0 00 00 00 00 00 00 00 00 8d 20 92 b6 8e 92 41 b5
       0.0 0.0 -4.3549285e-06 -7.211137e-07
0003c0 04 27 2d b7 90 a3 0f 38 c2 3c 0f b5 a8 4b 1d 39
       -1.0320688e-05 3.4246186e-05 -5.3360066e-07 0.00015000871
0003d0 e2 03 0d ba d3 3e 03 ba d3 3e 03 ba 6a 4e 2b b8
       -0.0005379302 -0.0005006615 -0.0005006615 -4.0842606e-05
0003e0 00 00 00 00 00 00 00 00 a8 bd 32 b8 4a c6 ec b6
       0.0 0.0 -4.261514e-05 -7.056432e-06
0003f0 7d b8 9a b8 42 24 09 b8 70 66 2d b5 fb 85 33 39
       -7.377656e-05 -3.2697113e-05 -6.459659e-07 0.00017120682

exp_avg_sq f4 [128, 12]
000000 2b 61 82 32 d1 36 9b 32 39 97 a6 2b 6e ee 14 34
       1.5178179e-08 1.8069302e-08 1.1836982e-12 1.3870314e-07
000010 d2 58 a7 36 60 03 95 36 60 03 95 36 70 af 0d 32
       4.987328e-06 4.440939e-06 4.440939e-06 8.24717e-09
000020 00 00 00 00 00 00 00 00 5f 1d 1a 32 7f 71 3d 30
       0.0 0.0 8.970658e-09 6.8919087e-10
000030 c6 b5 65 31 2e ba 80 31 66 12 d5 2a c0 78 0a 33
       3.3427212e-09 3.7464565e-09 3.7849167e-13 3.224045e-08
000040 c9 07 a1 35 f8 89 8f 35 f8 89 8f 35 e7 63 16 31
       1.19977e-06 1.0694484e-06 1.0694484e-06 2.188466e-09
000050 00 00 00 00 00 00 00 00 0d 9a 23 31 6f c0 46 2f
       0.0 0.0 2.380719e-09 1.8076361e-10
000060 a3 5e 8c 31 ab bf b4 31 1d aa 60 2b 41 42 2d 33
       4.085295e-09 5.2604796e-09 7.9816866e-13 4.033996e-08
000070 73 6b dd 34 2c 08 c8 34 2c 08 c8 34 02 54 50 31
       4.1242637e-07 3.725885e-07 3.725885e-07 3.0315737e-09
000080 00 00 00 00 00 00 00 00 3f 5d 6f 31 bb 98 11 31
       0.0 0.0 3.4832082e-09 2.1187094e-09
000090 b6 e9 fe 30 06 58 1d 31 f3 26 a0 2a 16 1d aa 32
       1.8547357e-09 2.2896542e-09 2.8448736e-13 1.9803831e-08
0000a0 9d e6 84 35 9f 23 6d 35 9f 23 6d 35 58 93 e8 30
       9.901884e-07 8.8341216e-07 8.8341216e-07 1.6922099e-09
0000b0 00 00 00 00 00 00 00 00 0e af f5 30 0b 06 4b 2f
       0.0 0.0 1.787585e-09 1.846489e-10
0000c0 df 3f 32 32 99 68 4a 32 45 3e c2 2b 05 37 cf 33
       1.0375486e-08 1.178173e-08 1.3801812e-12 9.6491966e-08
0000d0 8e 0b 68 36 d1 26 4f 36 d1 26 4f 36 fd 6a dd 31
       3.457742e-06 3.0867998e-06 3.0867998e-06 6.4441097e-09
0000e0 00 00 00 00 00 00 00 00 6c 54 f1 31 25 a8 76 2f
       0.0 0.0 7.023621e-09 2.2433307e-10
0000f0 57 d2 86 32 18 65 89 32 f0 c6 db 2b ba 12 10 34
       1.5695305e-08 1.5994871e-08 1.5616102e-12 1.3417858e-07
000100 36 ec b0 36 5e da 9d 36 5e da 9d 36 18 da 14 32
       5.2727073e-06 4.704386e-06 4.704386e-06 8.664323e-09
000110 00 00 00 00 00 00 00 00 94 65 22 32 1c 79 d9 2f
       0.0 0.0 9.452737e-09 3.9558123e-10
000120 a3 d0 49 32 24 6d 3e 32 45 85 ab 2b 4b d9 df 33
       1.1747178e-08 1.1084271e-08 1.218727e-12 1.0423772e-07
000130 cd 0d 8d 36 41 a5 7b 36 41 a5 7b 36 05 ee f3 31
       4.203734e-06 3.7498105e-06 3.7498105e-06 7.0992905e-09
000140 00 00 00 00 00 00 00 00 19 53 04 32 10 97 62 2f
       0.0 0.0 7.7023055e-09 2.0608248e-10
000150 01 da a7 31 4a de d2 31 c9 c1 f3 2a ab 83 17 33
       4.885124e-09 6.1370757e-09 4.3299937e-13 3.527718e-08
000160 c7 96 51 35 ac 13 3b 35 ac 13 3b 35 8e 8b 08 31
       7.8077977e-07 6.9691555e-07 6.9691555e-07 1.9869932e-09
000170 00 00 00 00 00 00 00 00 08 9e 14 31 d8 0d 7e 2e
       0.0 0.0 2.1626665e-09 5.776521e-11
000180 af 7c 82 31 79 9c b9 31 70 59 0d 2b 2b 10 e1 32
       3.797673e-09 5.4019975e-09 5.021738e-13 2.62008e-08
000190 ad b2 f0 32 11 19 fb 32 11 19 fb 32 e2 74 1b 31
       2.802093e-08 2.9231645e-08 2.9231645e-08 2.2621909e-09
0001a0 00 00 00 00 00 00 00 00 39 cb 27 31 b2 67 ab 2e
       0.0 0.0 2.4417217e-09 7.7946e-11
0001b0 b6 9e 86 32 44 65 bf 32 21 84 ba 2b 05 e5 e5 33
       1.5671827e-08 2.2281377e-08 1.3252768e-12 1.0705302e-07
0001c0 41 9a 31 34 f9 81 26 34 f9 81 26 34 87 d1 b6 31
       1.6540527e-07 1.5507239e-07 1.5507239e-07 5.3207176e-09
0001d0 00 00 00 00 00 00 00 00 c0 67 c7 31 f9 6b 3a 2f
       0.0 0.0 5.8034573e-09 1.6954961e-10
0001e0 50 f4 94 32 db 19 5f 32 98 c6 25 2c 66 14 12 34
       1.7340568e-08 1.2986187e-08 2.3558152e-12 1.360473e-07
0001f0 b7 4e 88 35 8f 76 77 35 8f 76 77 35 c0 44 29 32
       1.0155699e-06 9.2187196e-07 9.2187196e-07 9.852727e-09
000200 00 00 00 00 00 00 00 00 43 3a 38 32 74 93 a0 2f
       0.0 0.0 1.0723457e-08 2.9208602e-10
000210 bf 17 01 31 44 85 13 31 ca 90 a9 2a 14 66 be 32
       1.8785469e-09 2.1467068e-09 3.0120898e-13 2.2165331e-08
000220 21 c6 d1 35 65 34 bb 35 65 34 bb 35 e4 75 d8 30
       1.5629377e-06 1.3947835e-06 1.3947835e-06 1.5749575e-09
000230 00 00 00 00 00 00 00 00 c9 ac eb 30 83 9f 83 2e
       0.0 0.0 1.7147609e-09 5.985525e-11
000240 85 c2 b4 31 e0 4a 12 32 ff 5c df 2a 02 34 1f 33
       5.260804e-09 8.515343e-09 3.9677287e-13 3.7067373e-08
000250 5e 33 ad 34 88 34 9b 34 88 34 9b 34 fd 8f e9 30
       3.2261136e-07 2.890922e-07 2.890922e-07 1.6993905e-09
000260 00 00 00 00 00 00 00 00 7e a7 f7 30 03 1c 6f 2e
       0.0 0.0 1.801922e-09 5.4367188e-11
000270 e3 59 b6 30 93 5a 23 31 51 f4 d0 29 32 10 64 32
       1.326779e-09 2.3771107e-09 9.279438e-14 1.3275029e-08
000280 cd cf 8b 34 a4 70 79 34 a4 70 79 34 61 18 08 30
       2.6041963e-07 2.323091e-07 2.323091e-07 4.9511156e-10
000290 00 00 00 00 00 00 00 00 14 c9 13 30 27 1b 88 2d
       0.0 0.0 5.376404e-10 1.5473468e-11
0002a0 fc f9 10 31 7f fa 26 31 9d ca 01 2b 3c 3a c9 32
       2.1096858e-09 2.429857e-09 4.611119e-13 2.3425962e-08
0002b0 8e 43 a3 32 d1 32 ab 32 d1 32 ab 32 ba e6 e3 30
       1.9006418e-08 1.9930129e-08 1.9930129e-08 1.6582e-09
0002c0 00 00 00 00 00 00 00 00 06 fb f7 30 80 10 5f 2e
       0.0 0.0 1.804296e-09 5.0718985e-11
0002d0 4c 7a 04 32 3d 9f 5c 32 81 4a 09 2b b3 03 86 33
       7.711218e-09 1.2841892e-08 4.877557e-13 6.240534e-08
0002e0 61 9d 44 33 86 36 46 33 86 36 46 33 8f e2 3a 31
       4.577794e-08 4.6150056e-08 4.6150056e-08 2.7195346e-09
0002f0 00 00 00 00 00 00 00 00 bf 95 4a 31 44 88 de 2f
       0.0 0.0 2.947999e-09 4.0478387e-10
000300 4f 50 14 32 f5 a7 32 32 ad db bb 2b 66 88 a4 33
       8.632994e-09 1.0399153e-08 1.3348121e-12 7.661656e-08
000310 fe 59 30 33 9c bc 44 33 9c bc 44 33 b2 52 aa 31
       4.106004e-08 4.5806345e-08 4.5806345e-08 4.9570525e-09
000320 00 00 00 00 00 00 00 00 84 54 b9 31 49 b7 32 2f
       0.0 0.0 5.393817e-09 1.6254122e-10
000330 f8 8e 2d 32 45 d6 48 32 38 12 57 2b dd 5b 9e 33
       1.0102433e-08 1.1690251e-08 7.640863e-13 7.374158e-08
000340 d6 17 f6 35 7e 48 db 35 7e 48 db 35 de 9b 9d 31
       1.8335365e-06 1.633787e-06 1.633787e-06 4.5870214e-09
000350 00 00 00 00 00 00 00 00 2c 39 aa 31 c8 33 77 2f
       0.0 0.0 4.954151e-09 2.2482916e-10
000360 7c fb 17 32 39 61 48 32 56 8d cc 2b 14 32 ab 33
       8.846538e-09 1.1663638e-08 1.45343e-12 7.971917e-08
000370 91 7c c9 34 de f1 b7 34 de f1 b7 34 7c ba b6 31
       3.7529801e-07 3.4262388e-07 3.4262388e-07 5.318098e-09
000380 00 00 00 00 00 00 00 00 09 a1 c7 31 9a cc a6 2f
       0.0 0.0 5.80997e-09 3.0340602e-10
000390 e5 38 2f 31 91 9e 40 31 b6 0e b8 2a 14 07 ab 32
       2.5498192e-09 2.8029812e-09 3.2695174e-13 1.9910239e-08
0003a0 7c 86 f9 33 78 2d e2 33 78 2d e2 33 98 63 b4 30
       1.16194286e-07 1.0532216e-07 1.0532216e-07 1.312503e-09
0003b0 00 00 00 00 00 00 00 00 de f2 c3 30 92 38 30 2e
       0.0 0.0 1.4257144e-09 4.006801e-11
0003c0 12 32 41 33 ee 08 28 33 d9 fb a6 2c 7a 43 bd 34
       4.4981853e-08 3.912367e-08 4.7459645e-12 3.525309e-07
0003d0 9d 10 31 37 6b 25 1e 37 6b 25 1e 37 5e 12 d8 32
       1.055389e-05 9.426246e-06 9.426246e-06 2.5154062e-08
0003e0 00 00 00 00 00 00 00 00 a6 78 ec 32 5f 5d 41 31
       0.0 0.0 2.752888e-08 2.8138272e-09
0003f0 df 5f b3 33 7e 9b db 33 e2 11 ed 2c d2 fc 40 35
       8.352776e-08 1.0226266e-07 6.7379305e-12 7.1893476e-07
