results/SlayRL_023/SlayTheSquire_RL/SlayTheSquire_RL-9216.onnx (onnx, 82288 bytes, 10 tensors)

network_body.observation_encoder.processors.0.normalizer.running_mean f4 [12]
00000000: c7e5 773f 015b 7ebe 2b70 f23a e4f8 7f3f
00000010: 40df 9abd ee34 0eba 324f 5dbd dcfb 14be
00000020: 0000 0000 5e16 5bbd 9edd 55be efa5 2abc
0.9683499 -0.24839403 0.0018496563 0.9998915 -0.07562113 -0.0005424757 -0.054030605 -0.14549202
0.0 -0.053488128 -0.20885321 -0.010415538

network_body._body_endoder.seq_layers.0.weight f4 [128, 12]
00000000: b117 a53e 8325 d93e 9fa0 adbe bec6 043e
00000010: 63e6 d4be 1976 be3e 7e82 653e 431f ccbe
00000020: 851f f4be 1820 4abf 576e 173e c3d1 693c
00000030: 9df6 bf3d b341 22bc 506f 53bc 1890 673e
00000040: 3fdf cfbd e2e9 81bc 165c 04bd c75d ef3d
00000050: c299 9cbc 6307 803e 4d2b fd3d a87a 26be
00000060: bee8 98be be61 c8be f0dc d4be 90a2 1a3e
00000070: 4d78 71be b26d b83e f453 083e 6293 823d
00000080: a5a4 78be f92e ee3e 49a0 9ebd 1d7b f23e
00000090: e187 ab3e f729 51be aa63 253f 4980 453e
000000a0: f736 5abd d3da 273c fdd4 e53c 129f b03e
000000b0: 9151 7fbd a3c4 583e e390 113e 3a45 833e
000000c0: abf0 38be 4c09 963d 19f7 923e b0ab b7be
000000d0: 37eb e7bd 0004 54bd 99e4 fe3c 1518 9ebd
000000e0: 666f c03d d659 da3c aa8a ae3e e8e6 ba3d
000000f0: 553b c43d 12c2 283e 3627 043e 74d3 663e
00000100: 30ce 8d3e d851 63be 680a c83d c92b 6a3e
00000110: 19f3 163c 4b07 823c ce59 813d 8a1d 3a3e
00000120: 57bf 0cbd ea79 39be 1b73 78bd 4101 82be
00000130: d08c cabe a030 1bbf 0614 40be 4050 bd3e
00000140: cb25 b13e 3b36 8cbe 3aa4 c7bd 08e0 c7be
00000150: d2f2 353c 9698 f9be 65a1 4abe 3b03 fa3d
00000160: 2770 55be 97af c93e 1e47 95be 07e6 ddbe
00000170: 411f 813e 88f0 b83e 7240 113f 3455 8fbd
00000180: 4bbf 11be bfea 45be 478b d6bd 0f96 cc3e
00000190: 1485 403e 123a 223e db5f f0bd cf04 673e
000001a0: 1687 92be 04bd 253e 3778 b43e d450 d23e
000001b0: 819c a73e 323a d43e ab2b 7d3e 3696 f13d
000001c0: 8152 083e 5235 023d e50d be3b a787 9f3e
000001d0: e696 613d b48a ce3e e095 d7be 32ac dfbe
000001e0: 928f 70be 9d48 92bd 0e3e b13e 6ada 0f3f
000001f0: 623f a33c 0ec3 d63e 49cb 6c3e 6a0a 95be
00000200: 8bf7 2b3d 5374 633d 1dea 883e 925e a43c
00000210: 1895 0a3f 3059 4fbe 1e11 8f3e 94dd 9abe
00000220: 437c adbe 9d69 d8be 64cd 47bd 61b5 c63e
00000230: 7c56 f5bc 727b 753c edf5 ffbc 3785 df3d
00000240: bcfb 05bf 370c 8c3e fa6a 9d3a f6cb ddbe
00000250: d009 023e 2650 1c3f ac11 fd3e 3c21 8abe
00000260: fe7e 413e 8005 713e 8121 f53e 1e8e 93bd
00000270: 49d1 ea3e a39f 0a3e 8c7a 473c dc39 4e3f
00000280: 7dc5 50bd cdc8 643e 0451 6b3e b743 dabe
00000290: cd29 c0bd 2355 87bc f312 7ebd 4876 b8bd
000002a0: 6e70 163d 447a 103f 7c9a 743e 53ab 19be
000002b0: ac64 c93d fab3 603e 6da6 1fbe a97a 6b3e
000002c0: 06c4 02be 728b ce3d 412f 78be 34f9 50be
000002d0: 68a6 a53d 4b3c 7fbe 5269 84be 83d2 b5bd
000002e0: f551 6bbe 72ac fa3d 212c 4a3e a2d6 d4be
000002f0: 6270 493e ef49 65bc 06ef d8be e64d 5c3e
00000300: 74ba 9f3d ccff 84bb ffad 5b3e 5ad4 3c3f
00000310: 858b 2bbd a417 b5be 3186 84be 9a9f 66be
00000320: 26ad 10bf 914a a03d d6ec 163e ce12 e1be
00000330: 6a66 e2be 3918 303e b145 a8be dd9f eebd
00000340: 76b2 2bbe ffe0 9f3e fdef ae3e 8952 2d3c
00000350: 880e 2f3e 06cb 423e a84c 10be cb8b 2ebd
00000360: ed5d f3bd 6d19 4cbe f08f 81be 8775 efbe
00000370: 4956 d73e 9818 b9be c0ab 02be 695c 843e
00000380: 1c96 aabc 91cc 11be aaa9 9cbd a9d8 8e3e
00000390: f6ee 89bd 0b0e 6a3e bc6b 3fbe 6bdc 043e
000003a0: 6a35 cbbd 88ab 0d3e bfaa 5bbe 8208 1ebe
000003b0: 2e3c 8439 d381 c8be 75ab 51be 2bbe 043e
000003c0: 61fc a73c 1d95 393e ddfc d73b d472 633e
000003d0: ae15 57bc 7ec2 bbbe 7c34 3ebe 433b da3d
000003e0: 58ea ae3e 7133 79be de0b bf3e 4d8a f83e
000003f0: 5642 1c3e ec5a 543e 12c5 06be 77ee a3be
0.32244638 0.42411432 -0.33911607 0.12966439 -0.4158202 0.37199476 0.2241306 -0.398676
-0.47680297 -0.7895522 0.14788185 0.0142712025 0.093732096 -0.009903359 -0.012904957 0.22613561
-0.10150003 -0.015858594 -0.032314382 0.116878085 -0.019116286 0.25005636 0.123617746 -0.16257727
-0.29865068 -0.3913707 -0.41574812 0.15101075 -0.23581047 0.3602119 0.13313276 0.06375767
-0.24281557 0.46520212 -0.07745416 0.47359553 0.33502105 -0.20426165 0.646052 0.19287218
-0.053275075 0.010245043 0.028055662 0.3449636 -0.062333647 0.21168761 0.14215426 0.25638753
-0.18060558 0.07325992 0.28704146 -0.35873175 -0.113241605 -0.051761627 0.031114863 -0.07719437
0.093962476 0.026654165 0.34090167 0.09126073 0.09581629 0.16480282 0.12905583 0.225416
0.2769637 -0.2219919 0.0976761 0.22868265 0.009213232 0.015872618 0.06315957 0.18175331
-0.034362163 -0.18112913 -0.060656648 -0.25391582 -0.39560556 -0.6062107 -0.18757638 0.36975288
0.34599146 -0.27385125 -0.097481206 -0.3903811 0.011105256 -0.48749226 -0.1978813 0.122076474
-0.20843564 0.39391777 -0.2915582 -0.4333956 0.25219157 0.3612101 0.5673896 -0.06998673
-0.14233129 -0.1932783 -0.10475784 0.39958236 0.18800765 0.15842465 -0.11737033 0.22560428
-0.28618687 0.16185385 0.35247967 0.41077292 0.3273659 0.4145065 0.2472369 0.117962286
0.13312723 0.03178913 0.005799996 0.31158182 0.05507555 0.40340197 -0.42106533 -0.43686062
-0.23492268 -0.07142756 0.34617656 0.5619265 0.019927684 0.4194569 0.23124422 -0.29109508
0.041984122 0.055530857 0.26741114 0.020064626 0.5413375 -0.20248866 0.27942747 -0.30247176
-0.33883867 -0.42268077 -0.04877986 0.38810256 -0.029948466 0.014983045 -0.031245196 0.109140806
-0.5233724 0.2735307 0.0012010031 -0.43319672 0.12699056 0.61059797 0.49427545 -0.2697848
0.188961 0.23537254 0.47877124 -0.07204841 0.45862797 0.13537459 0.012175214 0.80557036
-0.05096959 0.22342224 0.22980124 -0.42629787 -0.09382973 -0.016520089 -0.06202979 -0.09006935
0.036728315 0.5643656 0.23887056 -0.15006761 0.09833655 0.21943656 -0.1559083 0.2299601
-0.1277009 0.10085191 -0.24236776 -0.20407563 0.0808838 -0.24925344 -0.25861603 -0.088780425
-0.22980483 0.122399226 0.19743396 -0.41570002 0.19671777 -0.013994678 -0.4236986 0.21514091
0.07799235 -0.0040588137 0.21453093 0.7376152 -0.041881103 -0.353696 -0.2588363 -0.2252182
-0.56514204 0.078267224 0.14738783 -0.4395966 -0.4421876 0.1719674 -0.3286567 -0.11651585
-0.16767296 0.31226346 0.34167472 0.01057876 0.17095387 0.1902276 -0.14091742 -0.042613786
-0.11883149 -0.19931574 -0.25305128 -0.46769354 0.42058018 -0.36151576 -0.1276083 0.25851753
-0.02082353 -0.14238192 -0.07649548 0.27899674 -0.06735031 0.2285692 -0.18693441 0.12974708
-0.09922297 0.13834965 -0.21451853 -0.15432933 0.0002522184 -0.39161548 -0.20475562 0.12963168
0.020506086 0.18123288 0.006591423 0.22211772 -0.013127727 -0.36671823 -0.18574709 0.106558345
0.34163165 -0.2433603 0.3731374 0.48543015 0.1525968 0.20737809 -0.13161114 -0.32017872

network_body._body_endoder.seq_layers.0.bias f4 [128]
00000000: 9609 3fba d58e 8c3c 9cc0 adb8 988e afbb
00000010: 05eb a5bc 4bbe 70bb 120b 42bc 6987 c53b
00000020: 5584 773c 1ec2 903c 02a3 87bc f9b3 9d3c
00000030: 4585 a1bc d449 303a 2f31 db3c 7bdb 463c
00000040: 14e6 0d3c 9f3a 993c 0222 81bc c76a 293a
00000050: c9f0 6e3c 7b3f 8a3c 8ac6 b63c 7a01 d73c
00000060: c7fc 123b 5bae ac3b 1488 28bb 0280 883c
00000070: ef4f de3b 17fa e83c 33ac 363c d2ae 23bb
00000080: 4ef8 a2bc fe31 f6bb 2261 9cba 14a2 08bc
00000090: 2bc5 5abc 13d0 4dbb 3825 b3bb 0787 3cbc
000000a0: 16fe b43b 6c68 a73b 9653 893a e96c babb
000000b0: fe2b a63c 7b85 b6bb 2876 983c ee06 a83c
000000c0: d269 ecbb 8ca1 0a3c 13e6 403b a693 f03b
000000d0: b541 a0bb 5ed0 013c aba7 85bc b673 ab3c
000000e0: b963 d83c 32ad 41bc e514 99bc 4294 ce3c
000000f0: 999e 733b 09ad f93b 0cd0 c63c 7663 a9ba
00000100: d96d 103c 8221 d63c 7dab a8bc ffbb db3c
00000110: f24b 0fbc 04f9 05bc 7813 bf3a 6b87 d2bb
00000120: faca c63c 33b2 873b d819 7dbc 3c8e a03b
00000130: 3764 72bc 77c6 fabb daf2 dcba 55c7 2d3c
00000140: 5e68 22bc fcad 053c 2aa2 9a3c f5a5 303c
00000150: dd98 84bc 36f6 4b3a c0a7 3e38 0ea1 b9bc
00000160: bd92 7cbc 33f2 68b9 b3e4 1fbc 1aff ccbc
00000170: 3656 c43a 6a40 fabb ce60 d83a 1327 c23a
00000180: 46c5 9fbc 158f 1a3c 73d9 c33a b747 e43c
00000190: 274d 753c d8cb ff3b 4099 10bc 560d ce3b
000001a0: a01b 29bc 8e84 9dba 89fb 84bc f553 92bc
000001b0: 90b5 b5bb 026a 763c cf55 b5bb f433 3c3c
000001c0: 8cdc 8ebc 3cb4 86bc 4ba7 24bc a1ea 2f3c
000001d0: 4121 963b 12e2 f5bb 4e8d 8b3c be4d da3b
000001e0: ecfd 5a3c d85c 943c ddad a43c a53e 85bb
000001f0: c050 b93b 674e 9f3c 17ef 873c dbe0 4d3c
-0.00072875 0.017157951 -8.285159e-05 -0.0053575747 -0.020253668 -0.0036734517 -0.01184346 0.006028105
0.015107234 0.017670687 -0.01655722 0.019250857 -0.019716868 0.00067248684 0.026756851 0.012137289
0.008660812 0.01870471 -0.015763287 0.00064627494 0.014583775 0.016875973 0.022311468 0.026245821
0.00224285 0.005269808 -0.0025715875 0.016662601 0.006784431 0.028439565 0.011149454 -0.0024976027
-0.019893792 -0.0075132838 -0.0011930803 -0.008339424 -0.013352673 -0.003140454 -0.0054670833 -0.011506802
0.0055234535 0.0051088836 0.0010477181 -0.0056892526 0.020284649 -0.0055701113 0.018611029 0.020511117
-0.007214763 0.008461367 0.002943401 0.00734182 -0.0048906454 0.007923214 -0.016315302 0.020929199
0.026414739 -0.011821078 -0.018686721 0.02521718 0.003717339 0.0076195044 0.024269126 -0.0012923318
0.008815252 0.026139025 -0.020589584 0.026823042 -0.008746134 -0.008177046 0.0014577946 -0.0064248345
0.024266709 0.004141116 -0.015448056 0.004899768 -0.014794401 -0.0076530534 -0.0016857043 0.0106066065
-0.009912578 0.008159157 0.018876154 0.010781755 -0.016186172 0.0007780524 4.545576e-05 -0.022659805
-0.0154158445 -0.0002221547 -0.009759116 -0.025023986 0.0014979306 -0.0076370733 0.0016508342 0.001481267
-0.019503247 0.0094335275 0.0014942124 0.027866228 0.014972008 0.0078062825 -0.0088256 0.006288211
-0.010321528 -0.0012017654 -0.016233223 -0.0178623 -0.0055453256 0.015039923 -0.005533911 0.011486996
-0.01743915 -0.016443364 -0.010049651 0.010737092 0.004581601 -0.0075037563 0.017035153 0.0066620996
0.013366204 0.018110678 0.020102436 -0.0040663057 0.005655378 0.019446565 0.0165935 0.012565817

network_body._body_endoder.seq_layers.2.weight f4 [128, 128]
00000000: 73a2 203e bdc5 b9bd da35 e23d 40e0 133d
00000010: 8936 163e 345f bc3c 956e ee3d 4a97 15be
00000020: e55f 343c bcf6 38bd 9d63 44bd 9b9b 17bd
00000030: 749d e63d 6251 593d 353a 33bd 8bb3 123d
00000040: 2436 e5bc 43e1 46bc 0c7d 063d 125b 453c
00000050: a04b a2bd b40e 46bd 4cd9 a0bc 9f5f e3bc
00000060: 1f68 7c3d b677 a03d 238c 90bd 8ff3 4abb
00000070: 9eff 1cbe 3018 863d 4f61 353d 0e4a 44bb
00000080: 43dc 343d 5aa7 16be 539e 163e f651 623c
00000090: 2c6f 2e3d 7dd1 20bd 9079 bfbc a1d7 413d
000000a0: f933 1e3e c803 d8bc 9efe a13d 0be8 ab3c
000000b0: deb9 a23d 0fb3 113d 72c8 8cbd 13d0 08be
000000c0: 9267 cdbd 3238 263d be36 4abb bec0 823c
000000d0: 9d34 0fbb 088c 27be 2567 6b3d f262 303d
000000e0: 1748 94bd f053 e83d 7358 103e 52d6 26bd
000000f0: 0a47 a53d 721f ba3d b1c3 0e3b 4429 9abc
00000100: f0bd 88bd c59e 95be 248c 9c3d 3686 da3c
00000110: d7de 97bc 1ce7 6fbd 0bfd 7a3d 585b f03d
00000120: d555 0ebe a086 9cbc 7a80 b0bc ace2 823c
00000130: 0b75 ae3d 1147 b83d 227e 9e3d 2ffe a1bd
00000140: 83dc eabd 5c5c 3e3d f0c6 363c d3ca cb3d
00000150: b029 67bd f62e 9abc cd04 e13d 227c 0fbe
00000160: a310 093e 4f3b b23d 5e2d acbb 7b89 2ebe
00000170: 6cc1 2d3e a516 ba3d 2170 c1bd 3b77 ecbd
00000180: c230 a0bd bb3e cc3c c182 a4bd f904 8f3c
00000190: 458b c33c ef3d 123e a0e2 15bd bfa7 9bbd
000001a0: f212 313e a2cc b23c 5d32 393e 1512 3b3d
000001b0: 8585 0bbe e23c f1bd 42cc 1f3e f1d2 863a
000001c0: a272 233d 79b5 3f3e d1cf 453c 3d02 09be
000001d0: b10b 41be 6a51 163e fa10 b6bb fb8c 11be
000001e0: 9882 993d 736b 88bd 7381 e4bc fc00 c03d
000001f0: bb61 aebd e3e1 183e 7d94 1ebd 514f 1abe
00000200: 26cb 99bd bc36 143e 0146 9c3d 5338 023d
00000210: 0599 95bd 8e10 49bd 6df9 25be 8c79 7839
00000220: 443a 873c 2ac3 373e bcb3 39bc f77f f1bd
00000230: 5dbd 11bc b74a 993d 270d 133e 9f6a 8fbc
00000240: 3a54 cebc d1f1 cf3d b445 05be 0e9f bebd
00000250: 69d1 ce3d 10c6 00bd 725a 04bd 170e 913c
00000260: 57a1 ad3d 783c bebc a36f 8ebc 8e6b 9fbd
00000270: c6a1 603d 214c 233d 7727 9fbd 2b5d 543d
00000280: def2 ec3d 06cc f43d c214 8bbb 7fce fe3d
00000290: a1d0 b0bd cc41 6bbd fe58 0839 131a ac3d
000002a0: 6971 24be 3e8a 54bc c790 923d 6583 01be
000002b0: 969a 9a3c 329b a9bc 10b2 203d 3ea6 cf3d
000002c0: c192 72bc 4c5e ac3d 9584 38bd d6ed 39bd
000002d0: 31b5 613d 8b4d 6e3c 3c7f 3a3d f351 0d3e
000002e0: a846 773d 05bb 24be 3305 ba3d adca b5bd
000002f0: 4f80 be3d f38c 1d3d 4fcd 91bc bf5a 653d
00000300: 2fef 60bd 41fa a43d acda ebbc f484 933d
00000310: fd52 993d de15 db3c 76e5 90bc 5901 423e
00000320: fbfc 2bbe 71f3 033e 85e6 afbd 54d2 223e
00000330: 6701 febd 187d b33d 65f6 ea3c f866 6eba
00000340: 6872 d2bd c949 ff3d 3516 84bc 5cd5 2c3e
00000350: 59a5 af3c 9c77 673b 5621 34bd 5cd6 993d
00000360: ee08 8ebc 1096 36bc 6e62 f53d 8b31 113d
00000370: 0163 bbbd e2fe 97bc 7e06 b2bb 850e 2ebe
00000380: 013f 57bb 8d8b ecbb 12f9 84bd df6c 39be
00000390: 1130 95be d187 0abd a8c2 e13d a5d1 8cbd
000003a0: 772b 0c3d 3f99 9fbc a1dc 9c3d 535f 8a3d
000003b0: 066e b5bd 3289 40bd 3eda 993d a3a5 06be
000003c0: 9195 82bc 7bca 903c 04e6 8b3c 0076 00be
000003d0: 14fd a6bd 2a77 2bbe eded e6bb 59dc 073e
000003e0: 5228 1d3e 9d4b a7bc 2b96 b1bd 7cbb 06be
000003f0: 7706 1fbd 814f 87bd 6d6f b3bc bcb1 963d
0.1568697 -0.09070919 0.110454276 0.036102533 0.14669241 0.022994615 0.116421856 -0.14608493
0.011009191 -0.04515718 -0.04794656 -0.03701363 0.112605006 0.05305613 -0.043756682 0.035815757
-0.027979918 -0.0121386675 0.032834098 0.012045639 -0.079245806 -0.048353866 -0.019634865 -0.027755557
0.061622735 0.07835333 -0.07057979 -0.0030967926 -0.15331885 0.06547582 0.044282254 -0.0029951367
0.04415537 -0.14712277 0.14708833 0.013813486 0.04258649 -0.039262284 -0.023373395 0.04732478
0.15449513 -0.02636899 0.079098925 0.02098467 0.079456076 0.035571154 -0.068741694 -0.13360624
-0.1002952 0.040580936 -0.0030855383 0.015961047 -0.0021851428 -0.16362011 0.057471413 0.04306311
-0.072403125 0.11344135 0.1409624 -0.040731736 0.0807019 0.09088029 0.0021784122 -0.018818505
-0.06676853 -0.29222694 0.07643917 0.026675325 -0.018538876 -0.058570012 0.061276477 0.117361724
-0.1389993 -0.019107163 -0.021545637 0.015977226 0.08518418 0.0899793 0.07738902 -0.0790981
-0.114678405 0.0464748 0.011155829 0.09950795 -0.05643624 -0.01882122 0.10987244 -0.14012197
0.13385253 0.087027185 -0.0052544316 -0.17044632 0.16968316 0.0908635 -0.09445215 -0.11546179
-0.078218 0.024932256 -0.08032752 0.017458426 0.02387012 0.14281438 -0.03659308 -0.076003544
0.17292383 0.021826092 0.18085618 0.04567154 -0.13625152 -0.117791906 0.15605262 0.0010286254
0.039904244 0.1872157 0.012073473 -0.1337976 -0.18852116 0.14679495 -0.005556223 -0.14213936
0.07495612 -0.06661119 -0.027893757 0.09375188 -0.08514734 0.14929919 -0.03871583 -0.1506932
-0.075094506 0.14474005 0.0763054 0.031791996 -0.07304577 -0.049088053 -0.1620843 0.00023696403
0.016507275 0.17945543 -0.011334356 -0.117919855 -0.008895245 0.07484954 0.14360486 -0.017506896
-0.025186647 0.10153545 -0.13014871 -0.09307681 0.100985356 -0.031438887 -0.032312818 0.017706914
0.08478039 -0.023222193 -0.017387217 -0.07784186 0.05484178 0.039867524 -0.07771199 0.051846664
0.11569761 0.11952977 -0.004244418 0.1244173 -0.08633543 -0.057435796 0.00013003123 0.08403411
-0.16058888 -0.012972413 0.0715652 -0.1264778 0.01887254 -0.020703886 0.039232314 0.1013913
-0.014805497 0.08416423 -0.045048315 -0.045392834 0.05510444 0.014544855 0.045531496 0.13800792
0.060370117 -0.16086967 0.09083023 -0.08876548 0.09301817 0.038464498 -0.017798094 0.055994745
-0.054915603 0.08055545 -0.028790794 0.07203093 0.07486532 0.026743826 -0.01768754 0.18945827
-0.16795723 0.12885834 -0.0858889 0.15900546 -0.12402611 0.08764094 0.028681943 -0.0009094323
-0.102757275 0.12465245 -0.01612387 0.16878265 0.021441149 0.0035319095 -0.043977104 0.07511589
-0.017338242 -0.011144176 0.119816646 0.03544764 -0.09149743 -0.018554155 -0.005432903 -0.16997726
-0.003284395 -0.007218784 -0.06492819 -0.18107937 -0.29138234 -0.03382093 0.11023456 -0.06875924
0.03422114 -0.019482253 0.07659269 0.06756463 -0.08858876 -0.04700584 0.075123295 -0.13149123
-0.01594046 0.017674675 0.017077453 -0.12545013 -0.081537396 -0.16744676 -0.007047406 0.1326765
0.15347412 -0.020421797 -0.086712204 -0.13157457 -0.038824525 -0.06606961 -0.021903718 0.07358119

network_body._body_endoder.seq_layers.2.bias f4 [128]
00000000: 5e48 a6bc 3e10 81bb bf0a 983c e512 52bb
00000010: 2fba d1bb 50ec 963c 427d 993c 546e 9ebc
00000020: 23bd 3d3c c04b ad3c 38e6 ecbb da02 593b
00000030: d1fe 843c 3051 babc af63 693c 5a8d 3abc
00000040: 4b38 a2bb 581d 71bc 9693 4bbc a787 f63b
00000050: f57c 29bc d4ef 88bc 42cf 88bb 6e34 1a3c
00000060: 0ea0 a13c d9ff a2bc c554 47bb 1e16 a4bc
00000070: 2808 bdbc c8cf 403b 8a90 1d3c 1eca f13c
00000080: 0d55 eabb 9421 553c 3e10 86bc 8bd6 9f3c
00000090: 161b 11bc 3d52 bcbc 8ac0 053c 3e22 d73b
000000a0: 651b c6bc 41cd fa3b 1a4e 9f3c 42e1 b33b
000000b0: 91ac 8c3c 3001 c23b bf82 8ebc c173 44bc
000000c0: 0dba 953c 2c81 96bc 8bb9 8e3c 2b25 5d3c
000000d0: 941d 79bc 8711 b1bb d1fb b8bc fa8d a4bc
000000e0: 962c 3bbc 8613 543c 9e24 953c 4844 8bbc
000000f0: 8ea6 aebc 52b1 8ebc b03e 8cbb acc9 98bc
00000100: c351 8abc 2345 c23c 107b 793c 96bf 12bc
00000110: aece 6fbc 7413 be3b b168 9b3c 98cc acbc
00000120: 1627 a1bc fbe8 16bc 49b3 ceba edbc 30bc
00000130: 6587 9dbc 8918 263a 20e4 81ba 0090 10bc
00000140: 4cf3 91bc b999 8c3c 08ce b2bb 050d 2dbc
00000150: 01e4 c2bb f9dd 973c 55b0 1f3c 1f75 873c
00000160: 11b4 c5ba fafb 823b ae90 bd3c 8485 cd3c
00000170: 858e a93c a458 e63b 6f4a d23a 7d17 a33b
00000180: f31c 59bc 3670 a5bc 2a48 8b3c 5fcf a23b
00000190: b55a a4bb 8302 183c 705b 763c 8e9c 3d3c
000001a0: ec81 d3bb b42a 083c f418 e13c 9732 463c
000001b0: ff22 2bb9 a950 733c 82a5 80bc 178e 9d3c
000001c0: 2759 9fbc 1ce4 84bc 8f4f 97bc 22e9 513c
000001d0: 2c90 903c c6c2 4b3a 0c06 adbc d7ef d83a
000001e0: c6ed adbc 8bb7 9b3c 9ec4 253c 43d9 cd3c
000001f0: dd3b 6b3c 4d04 d4bb 3256 b9bc 4dd0 26bc
-0.02029818 -0.003938704 0.018559812 -0.003205472 -0.0064003686 0.01842323 0.018736485 -0.019339718
0.011580738 0.021154284 -0.0072295927 0.0033113272 0.016234787 -0.022743791 0.014244958 -0.01138624
-0.0049505583 -0.014716469 -0.012425324 0.0075234952 -0.0103447335 -0.016715921 -0.0041750977 0.009411914
0.01972964 -0.019897388 -0.0030415517 -0.020030078 -0.023075178 0.0029420722 0.00961698 0.029515322
-0.007151252 0.013008494 -0.016365167 0.019511482 -0.008856555 -0.022988433 0.008163581 0.0065653613
-0.024182985 0.0076538627 0.019446421 0.0054894993 0.01717213 0.0059205517 -0.017396329 -0.0119904885
0.018277192 -0.01837214 0.017422458 0.013497631 -0.015204806 -0.0054037008 -0.022581013 -0.020087231
-0.011424204 0.012944108 0.018205937 -0.017000332 -0.021319654 -0.017418537 -0.004279934 -0.018650852
-0.01688469 0.023714608 0.015227094 -0.00895681 -0.014636679 0.005800659 0.01897082 -0.021093652
-0.019671958 -0.00921082 -0.0015769984 -0.010787231 -0.0192296 0.00063360535 -0.0009909905 -0.008823395
-0.017816208 0.017163144 -0.0054566897 -0.010562186 -0.0059475903 0.018538462 0.009746631 0.01653534
-0.0015083571 0.003997323 0.023140278 0.02508808 0.020697841 0.0070296098 0.0016043911 0.0049771653
-0.013251531 -0.020195108 0.017002184 0.004968568 -0.005015696 0.009277943 0.015036449 0.01157297
-0.006454697 0.0083109625 0.027477719 0.0120970225 -0.00016320868 0.014850774 -0.01570392 0.019232793
-0.01945169 -0.016222052 -0.018470554 0.012811931 0.017646872 0.0007772859 -0.021121047 0.001655097
-0.021231543 0.019008419 0.010117678 0.025128013 0.014357534 -0.0064702393 -0.022624109 -0.010181499

action_model._continuous_distribution.log_sigma f4 [1, 2]
00000000: a922 67bb 6a7c 1cbc
-0.0035268462 -0.009551147

action_model._continuous_distribution.mu.weight f4 [2, 128]
00000000: d274 bf3a 69f6 d2bc 4254 b33a dbc9 1f3c
00000010: d644 a63c 778b a7ba 5abd 003c 4067 873b
00000020: 0f02 f53b c29a 433b fc30 afbc 6d86 a13b
00000030: b06c 8cbc 8855 8a3a f5bd 1bbc 6ace 093c
00000040: 0171 74bc e147 0b3c 5c71 003c f42f 1c3d
00000050: 4743 533b 1191 cb3b 20bc 80bc 4e54 c6bc
00000060: 6976 28bb 45a9 24bc 5b4a f43c 5881 d3bb
00000070: a84e 2bbc bdb7 babc 274a 53bc 05c2 263b
00000080: 2e95 bf3c 6d47 dfbb dd7d a2bb 0b5d 853c
00000090: 7546 063c 3936 823b a637 443c 3517 813c
000000a0: 43a8 98bb da55 983c 91ed 5bbb 967e e03c
000000b0: e03c 54bb 6a21 203d b0d7 9b3c 74d7 af3c
000000c0: de19 e13c faa2 b43b 551a c83b d12a 6bbc
000000d0: 06fd 0fbc 57d3 503d dd5d 52bc 6bce 3bbb
000000e0: 87d6 e63b 2168 a6bc 8bd0 82bb 43b7 67bc
000000f0: a7c8 43bc e3f2 4dbc 99da 61bc ef49 d3bb
00000100: 7ac5 8fbc a74a 73bc f28c 9dbb 41b2 3c3c
00000110: 696f 0a3c f1dc 153d 3217 3d3c 2e26 aabb
00000120: 7f67 00bc f030 243c b503 32bd 73cf 853c
00000130: dcdd 883b a33b b33c 0e92 31bc ad99 cfbc
00000140: 4fb8 b33c 8b13 043a 0256 bebc eff4 9b3c
00000150: c785 f4bc 70c8 883c be2b 1cbd 9e6e f93b
00000160: 8f72 eabc 940a c63c 45f8 71bc ee8d d4bb
00000170: 9714 423b fde4 49bc fd57 a8bc a165 f3bc
00000180: 52a2 aebc 57da 8fbc db17 923b 3004 f33c
00000190: e36e 5dbc a2ae 75bc f457 d1bc 3ea1 a1bc
000001a0: 5576 8f3b f4a8 f8bc d236 ec3a 0db6 09bc
000001b0: e2a3 a7bc 7c0e bf3a 96bd 80bc 1a24 f8ba
000001c0: 089c 03bc befe da3c 4159 68bb 8e17 d5bc
000001d0: 8e97 e73b e5c1 07bd fcbc 14bb b124 743c
000001e0: 5ce6 9aba 173c 78bb ef23 b33c ebdd 4f3c
000001f0: 2ef8 7abc 19f4 c6bc fe3f fbbb d26a ca3b
00000200: b698 09bd 473c fabb f75b a93c 805c 14b8
00000210: 0a35 85bb cd40 9e3c 7962 2a3d bcca 86bc
00000220: 8390 2f3b 8a42 443c 231a 46bc 2935 003c
00000230: a474 b43c 755e 27bc 1a6b 2b3c d522 14bb
00000240: 5359 d03b 173c 2fbc 4131 25bc a6fb 983c
00000250: dfed dd3a 9578 86bc d927 69bb 41a9 8d3c
00000260: f2e9 c13c 94bf f5bb c012 4ab7 7011 8ebc
00000270: 945e cebc 3148 273b 1980 3f3c 2b15 1b3d
00000280: 06c9 f5bb 7fed 423c f803 82bc 4074 d53c
00000290: 32aa 6038 701d e6bc ca2f 2639 98e4 bc3b
000002a0: e79d adbc a53d 6f3c 8aee 623c e4f6 7e3c
000002b0: 1cf8 c33b dc6e 9f3c 89c3 0bbd 9d3c 94bc
000002c0: 0f75 263d 8a94 09bd 4061 503c 5abd 783c
000002d0: 895e 50bc 4c38 42bc 9567 25bd 81b5 69bc
000002e0: cd8f 65bc 9dd5 233c f0d3 9c3c 42a6 f6bc
000002f0: deea 43bc 316f 14bd 566d 54bb dc31 fdbb
00000300: 7238 07bd c281 d93c 0004 3f3c 7ba9 0abc
00000310: ef35 a2bb 485b 743c 7a98 c93c c5f4 16bd
00000320: 886a 0ebc 4006 37bb c28c 29bc 756c b4bb
00000330: f567 ccbc 983c 193b 7c42 57bb d9ab a2bc
00000340: 4953 c2bc 785a c33b 9197 73bc 5fcd 28bc
00000350: 9d95 90bb 02b1 aa3c 9c47 b93c 4eca 8d3c
00000360: 29cf a6bb 90ab 013c c055 0a3d eef6 a23c
00000370: f878 b03c 646a 943a 9568 123b 9c29 f23b
00000380: 57cf 9fbc 1a69 e4bc 1438 9f3c d774 053c
00000390: 1fb9 e0ba 1d2e b23b 4d46 303d 34fa 6a3c
000003a0: f37e dcbb 7612 3c3c d091 0d3d 5e8e 3b3c
000003b0: 6d9d b1ba f96a a53c 172d c1bc d42c 443c
000003c0: dd2e 00bd f7f9 87bc bdd5 15bd d7f0 663c
000003d0: 074d 0b3d 53ed 15bc 5fef 87bc 4601 a038
000003e0: 9bb2 8ebc ae75 a63c ff14 9b3c 84f6 183d
000003f0: 7fa8 4f3d 3817 52bc 618b 65bd 57e6 dbbb
0.0014606959 -0.025752263 0.0013681727 0.009752716 0.020296495 -0.0012782653 0.007857645 0.0041321814
0.007477052 0.0029846882 -0.021385662 0.004929355 -0.01714167 0.0010554055 -0.0095057385 0.008411029
-0.01491952 0.008501024 0.007839527 0.03813167 0.0032236145 0.0062123616 -0.015714705 -0.024210121
-0.0025705344 -0.010050123 0.029820612 -0.006454628 -0.010455765 -0.022792691 -0.012896097 0.0025445234
0.023386564 -0.0068139345 -0.0049588517 0.016279718 0.008195509 0.003973749 0.011976158 0.015758136
-0.0046587302 0.018595625 -0.0033558349 0.02740411 -0.0032384917 0.039094366 0.019023746 0.02146504
0.027478155 0.0055125924 0.0061066546 -0.01435347 -0.008788353 0.0509828 -0.012839762 -0.002865697
0.0070446166 -0.020313324 -0.0039921454 -0.014142814 -0.011949695 -0.012570116 -0.013785028 -0.0064480226
-0.017550219 -0.0148493415 -0.0048080618 0.011517108 0.008449414 0.03658766 0.011541175 -0.0051925397
-0.007837175 0.010021433 -0.043460567 0.016334271 0.0041768383 0.021879023 -0.010838045 -0.025341833
0.021938471 0.00050383125 -0.023234371 0.019037692 -0.029848946 0.016697139 -0.038127653 0.0076120635
-0.028619079 0.024174966 -0.014768665 -0.006486646 0.0029614323 -0.0123226615 -0.020549769 -0.029711546
-0.021317635 -0.017560167 0.00445841 0.029665083 -0.013515207 -0.014995249 -0.025554635 -0.019730207
0.00437812 -0.030354 0.0018021709 -0.008405221 -0.020463888 0.001457646 -0.015715402 -0.0018931658
-0.008032806 0.026732799 -0.003545359 -0.026012208 0.0070676273 -0.033143897 -0.0022695651 0.014901326
-0.001181792 -0.0037877613 0.02186772 0.012687187 -0.01531796 -0.024286317 -0.0076675406 0.0061772848
-0.033592902 -0.00763658 0.020673735 -3.5372097e-05 -0.0040651606 0.019318009 0.041597817 -0.016454093
0.0026789017 0.011978755 -0.012091192 0.007825174 0.022028275 -0.010215391 0.010462547 -0.002260377
0.0063583045 -0.010695479 -0.010082544 0.018674683 0.0016931853 -0.01641492 -0.003557673 0.01729262
0.023671124 -0.0074996445 -1.2044504e-05 -0.0173423 -0.025191583 0.0025525207 0.011688256 0.037861984
-0.0075007705 0.011897444 -0.015871033 0.026056409 5.356427e-05 -0.028090209 0.00015848796 0.005764555
-0.021193458 0.0146021 0.013850817 0.015561793 0.0059805047 0.019462042 -0.034122024 -0.018095309
0.04063898 -0.033588924 0.012718499 0.015181864 -0.012717851 -0.0118542425 -0.040381987 -0.014264465
-0.014011336 0.00999966 0.019144028 -0.030108575 -0.011957852 -0.036238853 -0.0032413802 -0.007726891
-0.033012815 0.026551131 0.0116586685 -0.008463259 -0.004950277 0.014914341 0.02460884 -0.036854524
-0.008692391 -0.002792731 -0.010348501 -0.005506093 -0.024951914 0.0023382064 -0.0032846024 -0.019857334
-0.023721354 0.0059617124 -0.014867679 -0.010302871 -0.0044123665 0.020836357 0.022617154 0.01730838
-0.0050906134 0.007914439 0.033773184 0.019893136 0.021542057 0.0011323211 0.0022340168 0.007390214
-0.019508047 -0.027882148 0.01943592 0.008145533 -0.0017145014 0.005437626 0.043035794 0.01434188
-0.0067290007 0.011479011 0.034562886 0.011447517 -0.0013550945 0.02019261 -0.02358107 0.0119735785
-0.031294692 -0.016598685 -0.03658079 0.014095507 0.034009006 -0.009150821 -0.016593633 7.629632e-05
-0.01741915 0.020319786 0.01893091 0.03734447 0.0506978 -0.012822919 -0.056041125 -0.0067108083

action_model._continuous_distribution.mu.bias f4 [2]
00000000: eb70 2ebb b8f7 ac3c
-0.0026617597 0.021114215

action_model._discrete_distribution.branches.0.weight f4 [1, 128]
00000000: a0ae d2bb 1aa2 5bbb 675e 043a 477b b0ba
00000010: aa85 9f3a 502b 8c3a 903f d3bb 658f 49bb
00000020: 2376 923c 9e7a 1abc 633b ebbb af5a acbc
00000030: 339c 153c d3ba 2c3c d770 dcbb 7d9b 5fbb
00000040: 6848 f7bb 0c24 2cbb 97c1 d33b 1f8d 9bbb
00000050: b294 79bc 87a9 cabc 935f 85bc dbf0 ce3b
00000060: 1c0e 863a 5a7b 29bc b23f 643b eab4 0c3c
00000070: 6b68 11bc 3259 4f3c 7854 03bc 3c81 8abb
00000080: e562 87bc 9c5d 903b 71e7 333b 252f fe3b
00000090: 2e1a 483c 6d0d 87bc 4621 0e3b 504f 8c3b
000000a0: 6394 58bc d300 78bc 0a0e 9fbc 0d96 693b
000000b0: abdc e8b9 4a67 fe3b 7d46 4d3c 6753 15bc
000000c0: bd40 503b 97fd f5bb 574a 343c 5298 31bc
000000d0: 810f 0cbb 9c53 033c 66a8 4cba c528 3a3c
000000e0: 741d 29ba ab34 e9b8 cbae df3b a76b 18bc
000000f0: 330d 3b3c 3c2f 84bc aae0 223c aaf0 2fbb
00000100: 97e9 883b 0e9e 183c 3b5e 073c 5a00 ec3b
00000110: 5396 d93a ff12 a7ba e781 ea3b 852e 933b
00000120: 80fc 273c 3859 e1bb fa02 12bb 957f 613b
00000130: d347 64bc c713 4c3c ffbf 82bb 3822 feb7
00000140: 94bb 3e3c 07f1 b23b d7ce 2ebb 1b88 7f39
00000150: 8f9c 013b c09c 583b bd43 183a edfd 64bb
00000160: 3b90 d53b 886d 6fbc 8176 b33b 4109 313b
00000170: 4b57 8b3c 77a5 473a 7bf3 bb3b 91c3 383c
00000180: 3f66 b93b b5b7 05bc ff64 623b d0f8 b53b
00000190: 84c3 433c 36c5 483c 9067 d93b 16ec 4bbc
000001a0: cd14 d33b 888c 8b3b 1b83 ccbb e86a e0bb
000001b0: 3a59 143b 1f5c 03bc 37ba 79bc cbc9 34bc
000001c0: 3f80 aa3c ba61 6ebc 579c 68bb 254a d7bb
000001d0: b3ec 26bc 9e6a aebb 8b82 3fba c3f9 13bc
000001e0: 64d5 c6bb 7a53 f53b bd14 b93b 8f09 fcb9
000001f0: 7a3e d43a 6e4d 8d3a d379 e13b 6b58 babc
-0.0064295083 -0.0033513368 0.00050494674 -0.0013464474 0.0012170572 0.001069406 -0.006446786 -0.0030755636
0.017878598 -0.009428648 -0.0071787103 -0.021039335 0.009131479 0.010542589 -0.0067273187 -0.0034119778
-0.0075464733 -0.0026266603 0.0064622867 -0.0047470476 -0.015233206 -0.02473904 -0.016280925 0.0063153333
0.0010227594 -0.010344351 0.0034828004 0.008588055 -0.008874993 0.012655543 -0.008015744 -0.0042268317
-0.016526649 0.0044056904 0.0027451182 0.007757085 0.012213273 -0.016485894 0.0021687313 0.0042819157
-0.013218972 -0.015136915 -0.019415874 0.0035642416 -0.000444149 0.007763778 0.012529013 -0.009114123
0.0031776868 -0.007507037 0.011004052 -0.010839539 -0.0021371546 0.0080155395 -0.0007807076 0.011362259
-0.0006451227 -0.00011120116 0.006826257 -0.00930301 0.011416721 -0.016135804 0.009941259 -0.0026846328
0.0041782367 0.009315027 0.008262212 0.0072021903 0.0016600586 -0.001274675 0.007156599 0.0044916295
0.010253072 -0.006877091 -0.0022279606 0.003440832 -0.01393314 0.012455887 -0.003990173 -3.0295094e-05
0.011641402 0.0054608616 -0.002667358 0.00024369398 0.0019777154 0.0033052415 0.00058084336 -0.003494139
0.0065174378 -0.014613517 0.0054767733 0.0027013572 0.017009398 0.0007615904 0.0057358122 0.011277095
0.0056579406 -0.008161475 0.0034545062 0.0055533424 0.01194847 0.01225405 0.00663466 -0.012446424
0.0064416886 0.004258696 -0.006241215 -0.0068486817 0.002263619 -0.008017569 -0.015242151 -0.011034439
0.020813106 -0.014549667 -0.0035493576 -0.006570118 -0.010188269 -0.0053227684 -0.0007305524 -0.009031716
-0.0060679186 0.007486758 0.005648224 -0.00048072307 0.0016192936 0.0010780522 0.0068809777 -0.02274724

onnx::Div_70 f4 [12]
00000000: 5d1e 7a3c 13c5 b13c eca8 2a3c e456 713c
00000010: 2379 873e ecf6 d03c e1bf 673e a69b b43e
00000020: 4ca8 2a3c d1a6 663e da30 d03e 0d03 d13d
0.015266028 0.021700418 0.010416251 0.014730189 0.26459607 0.025508367 0.2263179 0.35275
0.010416102 0.22524573 0.4066227 0.1020566
