results/SlayRL_FINAL104/SlayTheSquire_RL/checkpoint.pt (torch, 466475 bytes, 47 tensors)

network_body.observation_encoder.processors.0.normalizer.running_mean f4 [12]
0.94211 -0.3327992 0.0027166016 1.231567 0.7688302 -0.91870385 -0.041666668 -0.042372875
-0.877784 0.0 -0.0007062147 -0.9113972
00000000: 1f2e 713f a864 aabe 0309 323b fda3 9d3f
00000010: 0ed2 443f 2d30 6bbf abaa 2abd 2e8f 2dbd
00000020: 74b6 60bf 0000 0000 4421 39ba 5451 69bf

network_body.observation_encoder.processors.0.normalizer.running_variance f4 [12]
11.525918 112.12863 1.0073678 3331.6013 322.26703 5500.3613 2941.1665 2988.797
7900.181 1.0 52.963295 5946.9546
00000000: 296a 3841 dc41 e042 6ef1 803f 9f39 5045
00000010: 2e22 a143 e4e2 ab45 aad2 3745 c1cc 3a45
00000020: 73e1 f645 0000 803f 6ada 5342 a3d7 b945

network_body.processors.0.normalizer.running_mean f4 [12]
0.94211 -0.3327992 0.0027166016 1.231567 0.7688302 -0.91870385 -0.041666668 -0.042372875
-0.877784 0.0 -0.0007062147 -0.9113972
00000000: 1f2e 713f a864 aabe 0309 323b fda3 9d3f
00000010: 0ed2 443f 2d30 6bbf abaa 2abd 2e8f 2dbd
00000020: 74b6 60bf 0000 0000 4421 39ba 5451 69bf

network_body.processors.0.normalizer.running_variance f4 [12]
11.525918 112.12863 1.0073678 3331.6013 322.26703 5500.3613 2941.1665 2988.797
7900.181 1.0 52.963295 5946.9546
00000000: 296a 3841 dc41 e042 6ef1 803f 9f39 5045
00000010: 2e22 a143 e4e2 ab45 aad2 3745 c1cc 3a45
00000020: 73e1 f645 0000 803f 6ada 5342 a3d7 b945

network_body._body_endoder.seq_layers.0.weight f4 [128, 12]
0.53057003 -0.012109348 -0.80055916 -0.03003605 0.016479842 0.43953937 -0.27103814 -0.1363151
-0.2866705 -0.32708204 -0.381652 0.33270392 -0.03844614 0.16934395 -0.07950825 -0.19213457
-0.054689765 -0.07900611 0.19900464 -0.43253154 0.4245728 0.19718678 0.16087459 0.001971977
0.03701253 0.44861957 0.06900414 -0.3782344 -0.3845259 0.041739948 0.49361768 -0.28168374
-0.048446815 0.12083271 -0.14899631 0.1138535 0.38249516 0.17479666 -0.32848072 -0.35403955
0.26682943 -0.16324642 -0.1386809 -0.3504383 -0.18826838 0.09601146 0.28669629 0.6806286
0.3017707 0.11488616 -0.44548675 0.47224435 0.14047036 0.39018437 0.06915385 0.34257466
-0.21921514 0.24566557 -0.73904157 -0.010878661 -0.15367028 -0.108788475 -0.29339343 0.41845062
0.33900535 -0.049567096 0.04831179 -0.5083253 -0.07915326 0.34391952 -0.02460836 -0.043112267
-0.21887514 0.030429613 -0.4010307 0.03476018 0.74650556 0.14872515 0.06776626 0.048813477
0.17674576 -0.30452323 0.075881355 -0.26980656 -0.5624333 -0.14655524 -0.30863118 -0.24315771
-0.02545141 0.29318625 0.18061633 -0.40399024 -0.12766856 -0.14090319 0.080199346 0.031807095
0.15061232 -0.032159932 0.16707605 -0.074450426 -0.37785184 -0.06563075 0.16102499 -0.034951635
-0.71581525 0.061926425 0.03280272 -0.0753308 -0.13248286 -0.10533666 -0.3540779 0.1156774
0.23286735 -0.11591007 -0.24464512 0.074020706 -0.68266445 0.185227 0.0074976482 0.1913644
0.2085892 -0.05682491 -0.27244896 -0.050656654 -0.2873472 -0.1756286 0.3750617 -0.35590348
0.41958532 -0.029498577 -0.542017 0.13878717 -0.15000829 0.0044572237 0.0270538 -0.31447357
0.4126666 0.6217272 0.61529124 -0.3616209 -0.07810827 0.12202452 0.13910978 -0.40550768
0.019447017 -0.13478649 0.46774697 -0.65092784 0.39401355 0.23241004 0.25278306 -0.29784074
0.7030347 -0.30800274 -0.29529423 -0.26284274 0.037232984 -0.08780282 0.15203173 0.5417667
-0.33484733 0.2767156 -0.57238984 -0.010469049 -0.32523423 0.18729323 0.10239122 -0.29758725
0.3606518 -0.07656943 -0.25195816 0.52338326 -0.08365657 0.3867186 -0.32292277 0.065236576
-0.22092666 -0.042919546 0.2784687 0.099112764 0.13675356 0.014535279 0.27591538 0.08907345
0.33771726 0.24418375 0.11405957 -0.03131007 -0.43313164 0.17382818 -0.110131726 -0.0024552727
-0.40945265 -0.13436887 0.04638529 -0.088749945 -0.22866555 -0.6896225 0.6630253 -0.34876585
-0.27979058 -0.05108985 -0.12473364 0.1478228 -0.54823804 0.626077 0.30841953 0.054291617
0.08673692 -0.07577355 -0.101107314 -0.08604376 -0.108164005 -0.11066188 0.035385154 -0.17222287
0.4082231 -0.04575015 -0.35995054 -0.47755635 0.57092595 0.035162058 0.41245842 0.16455013
-0.14716193 -0.02357378 0.04240488 -0.30511323 0.33587354 -0.5468806 -0.10403087 0.46704775
-0.30921343 0.12829192 -0.19024909 -0.4665335 -0.039785687 -0.5859484 -0.15101129 0.062111903
-0.27621612 -0.40411794 -0.31072828 -0.030117333 0.03757546 -0.20561187 -0.20761208 -0.2936255
0.026724275 -0.19050632 -0.17598356 -0.13081132 0.32370138 0.008572791 -0.18748371 0.2619653
00000000: 70d3 073f 4966 46bc 72f1 4cbf 2a0e f6bc
00000010: bc00 873c 4e0b e13e 83c5 8abe 3096 0bbe
00000020: 7ac6 92be 4c77 a7be e467 c3be 2b58 aa3e
00000030: b379 1dbd 8068 2d3e 39d5 a2bd edbe 44be
00000040: 6002 60bd f5cd a1bd dfc7 4b3e c674 ddbe
00000050: 9b61 d93e 55eb 493e 4fbc 243e 493c 013b
00000060: 739a 173d 77b1 e53e 0b52 8d3d f0a7 c1be
00000070: 94e0 c4be 82f7 2a3d 75bb fc3e da38 90be
00000080: 2b70 46bd 2477 f73d 7d92 18be 062c e93d
00000090: 68d6 c33e e5fd 323e a02e a8be ac44 b5be
000000a0: de9d 883e 122a 27be 5e02 0ebe a66c b3be
000000b0: 6dc9 40be a8a1 c43d dbc9 923e ad3d 2e3f
000000c0: b081 9a3e 6f49 eb3d d716 e4be 03ca f13e
000000d0: 76d7 0f3e 3fc6 c73e 89a0 8d3d f265 af3e
000000e0: ef79 60be c18f 7b3e d431 3dbf 693c 32bc
000000f0: be5b 1dbe 7ecc debd aa37 96be 293f d63e
00000100: 1c92 ad3e de06 4bbd 95e2 453d 9b21 02bf
00000110: 1b1b a2bd 3816 b03e 7997 c9bc 7d96 30bd
00000120: ce20 60be 8647 f93c e553 cdbe b160 0e3d
00000130: fd1a 3f3f 684b 183e 09c9 8a3d a4f0 473d
00000140: d7fc 343e 78ea 9bbe af67 9b3d 1624 8abe
00000150: a1fb 0fbf 9412 16be e804 9ebe 56fe 78be
00000160: 7a7f d0bc 821c 963e 7df3 383e cfd7 cebe
00000170: 8cbb 02be ed48 10be 8e3f a43d 2848 023d
00000180: 1e3a 1a3e 22ba 03bd fc15 2b3e 7779 98bd
00000190: cc75 c1be 6a69 86bd bce3 243e 7229 0fbd
000001a0: ab3f 37bf 90a6 7d3d 255c 063d 0947 9abd
000001b0: 96a9 07be bfba d7bd b349 b5be 46e8 ec3d
000001c0: c774 6e3e 4262 edbd 4084 7abe 2b98 973d
000001d0: 19c3 2ebf 26ac 3d3e d5ae f53b 07f5 433e
000001e0: 6898 553e 3dc1 68bd 6e7e 8bbe 5a7d 4fbd
000001f0: 2c1f 93be fcd7 33be 1608 c03e fb38 b6be
00000200: e3d3 d63e 00a7 f1bc a0c1 0abf 391e 0e3e
00000210: c69b 19be e70d 923b ee9f dd3c ae02 a1be
00000220: 0949 d33e 8429 1f3f ba83 1d3f 6026 b9be
00000230: 3bf7 9fbd fee7 f93d cb72 0e3e b49e cfbe
00000240: 5a4f 9f3c 7805 0abe 887c ef3e 35a3 26bf
00000250: 25bc c93e e6fc 6d3e c86c 813e 957e 98be
00000260: 15fa 333f 89b2 9dbe ce30 97be 5393 86be
00000270: 9d81 183d f7d1 b3bd 35ae 1b3e 39b1 0a3f
00000280: 1c71 abbe abad 8d3e 2488 12bf 6086 2bbc
00000290: 1a85 a6be ccc9 3f3e 7db2 d13d 5b5d 98be
000002a0: 5aa7 b83e 6fd0 9cbd a900 81be 72fc 053f
000002b0: 2354 abbd fbff c53e 2256 a5be c19a 853d
000002c0: 993a 62be 68cc 2fbd 7393 8e3e a2fb ca3d
000002d0: 2009 0c3e 6125 6e3c c844 8d3e 246c b63d
000002e0: 47e9 ac3e 4e0b 7a3e 1098 e93d fd3e 00bd
000002f0: 6ec3 ddbe 0400 323e be8c e1bd a4e8 20bb
00000300: c7a3 d1be fe97 09be 80fe 3d3d 88c2 b5bd
00000310: 4d27 6abe 1a8b 30bf 07bc 293f 7091 b2be
00000320: b640 8fbe 9743 51bd 5a74 ffbd dc5e 173e
00000330: 5459 0cbf 9546 203f 2ae9 9d3e e360 5e3d
00000340: 20a3 b13d 2a2f 9bbd 5a11 cfbd b637 b0bd
00000350: 1785 ddbd b2a2 e2bd 06f0 103d 315b 30be
00000360: 9e02 d13e 8264 3bbd 704b b8be 4482 f4be
00000370: 3428 123f 1706 103d c02d d33e d47f 283e
00000380: 9eb1 16be cd1d c1bc bdb0 2d3d cd37 9cbe
00000390: 9ef7 ab3e 5e00 0cbf 230e d5bd e220 ef3e
000003a0: 3951 9ebe f55e 033e a8d0 42be 7bdd eebe
000003b0: 51f6 22bd b700 16bf b4a2 1abe 0d69 7e3d
000003c0: 336c 8dbe 8ce8 cebe c717 9fbe a0b8 f6bc
000003d0: bae8 193d eb8b 52be 4398 54be 1556 96be
000003e0: deec da3c 1714 43be 0935 34be 67f3 05be
000003f0: 30bc a53e e474 0c3c bbfb 3fbe 5120 863e

network_body._body_endoder.seq_layers.0.bias f4 [128]
-0.019479822 -0.05851206 0.012569005 -0.019972505 -0.046849236 -0.052033782 0.021848882 0.036029596
0.060137276 0.0430326 -0.043860983 0.04314507 0.03148663 0.00031066328 -0.0022325986 0.03303628
0.05952254 0.039581824 0.056763098 -0.05299545 0.060511943 -0.055172358 -0.03131269 0.021192195
-0.04722828 0.058008987 0.016874226 -0.049008273 -3.773731e-05 -0.029492682 -0.060919575 0.047048204
0.0054630614 0.051114418 0.026850885 0.057670034 -0.004067086 0.050268434 0.04911734 -0.029099712
-0.030937742 0.06068519 -0.031063193 -0.035759937 -0.04580105 -0.035572633 -0.06057532 -0.04891282
-0.000255375 0.037709784 -0.04630103 0.05421609 0.02732486 0.029462641 0.005786116 -0.009681277
0.009504803 0.04604271 0.025214877 0.05277857 -0.034338746 0.05204413 0.043988463 -0.012874753
0.012634908 0.054599363 0.009240071 0.05019261 -0.04195581 -0.046471026 0.030161994 -0.0062405327
0.041843783 -0.05005932 -0.012136008 0.03760091 -0.011765428 0.052620478 0.03394258 -0.021368692
0.058191214 -0.02417274 0.03550283 0.037298728 0.0283905 -0.056389872 -0.039176594 -0.005688898
0.029214377 0.060168345 -0.00084090926 0.04313297 0.058706686 0.054805353 0.03934085 0.03497342
-0.05043057 -0.05341718 0.008000293 0.042129364 -0.016106838 0.008547175 0.03242752 0.055573337
-0.025311712 -0.02064809 0.031498246 0.020981843 -0.037956774 0.016443128 -0.048352834 -0.021488888
0.06347685 -0.036579423 0.040310748 0.05499945 0.059892602 -0.053293936 0.046080835 -0.04053624
-0.049428083 0.016451364 -0.04488696 0.055599336 0.044022877 0.004301526 -0.01750395 0.042946354
00000000: 2694 9fbc 58aa 6fbd 3aee 4d3c 619d a3bc
00000010: fce4 3fbd 6021 55bd 6dfc b23c c593 133d
00000020: 8152 763d f442 303d 93a7 33bd e3b8 303d
00000030: 20f8 003d 85e0 a239 ca50 12bb 0d51 073d
00000040: e8cd 733d 8d20 223d 6c80 683d c211 59bd
00000050: 5fdb 773d 69fc 61bd bc41 00bd 419b ad3c
00000060: 7172 41bd d59a 6d3d d13b 8a3c e6bc 48bd
00000070: 2148 1eb8 a39a f1bc ce86 79bd 9eb5 403d
00000080: 7b03 b33b 5a5d 513d 63f6 db3c 6a37 6c3d
00000090: 3145 85bb 46e6 4d3d 442f 493d 8562 eebc
000000a0: 2671 fdbc 0991 783d 3d78 febc 0379 12bd
000000b0: e299 3bbd 9cb4 11bd d41d 78bd cf58 48bd
000000c0: dae3 85b9 9375 1a3d 26a6 3dbd b111 5e3d
000000d0: 63d8 df3c a35b f13c 7599 bd3b 389e 1ebc
000000e0: 09ba 1b3c 4897 3c3d 6e8f ce3c 582e 583d
000000f0: c9a6 0cbd 3a2c 553d 3f2d 343d a1f0 52bc
00000100: a502 4f3c 95a3 5f3d ab63 173c c496 4d3d
00000110: dbd9 2bbd 6758 3ebd 4916 f73c 627d ccbb
00000120: 6364 2b3d 000b 4dbd 1bd6 46bc 6903 1a3d
00000130: c8c3 40bc 9288 573d 6007 0b3d 650d afbc
00000140: e959 6e3d e905 c6bc 6a6b 113d 8dc6 183d
00000150: 3293 e83c 11f9 66bd a377 20bd ef69 babb
00000160: fd52 ef3c 1573 763d 7770 5cba 32ac 303d
00000170: 6c76 703d 947b 603d df23 213d 4a40 0f3d
00000180: 4990 4ebd f9cb 5abd a913 033c d78f 2c3d
00000190: 7df2 83bc 7309 0c3c b8d2 043d dea0 633d
000001a0: 825a cfbc 2f26 a9bc 4e04 013d 1de2 ab3c
000001b0: 9078 1bbd bdb3 863c 9f0d 46bd 7709 b0bc
000001c0: 2700 823d 4ed4 15bd e21c 253d 1a47 613d
000001d0: f251 753d be4a 5abd 42bf 3c3d 5409 26bd
000001e0: 1a75 4abd 03c5 863c 64db 37bd 21bc 633d
000001f0: 5551 343d d1f3 8c3b 7264 8fbc 84e8 2f3d

network_body._body_endoder.seq_layers.2.weight f4 [128, 128]
-0.026788898 -0.037399825 -0.10030933 -0.03689863 -0.03248402 -0.030896945 0.037462816 0.03096387
-0.0029711078 0.028122606 -0.104070336 -0.027560012 -0.09756962 0.12746945 -0.21892503 0.060837902
-0.014405949 -0.00040930137 0.056881133 -0.0286552 0.110392645 0.0921617 0.050399322 0.10271602
0.0025795456 0.057108335 0.05955475 0.017402463 0.1372194 0.11205277 -0.1402709 0.10594398
-0.040784337 0.06958852 0.09773242 -0.13747084 -0.12935357 -0.009573465 0.05384486 0.024872653
0.084111124 0.05670988 -0.03011167 -0.082846284 -0.00437748 -0.03433905 -0.044427253 -0.048410624
-0.040213287 0.016686307 0.0064696893 -0.19191751 -0.013663936 -0.12439517 0.066549405 -0.06973228
-0.13393536 0.016397785 0.10428041 -0.057606682 -0.2417939 -0.04024694 -0.031541087 -0.20591949
-0.07035668 0.059095815 0.048206028 0.09988932 -0.0590525 -0.11985846 0.019774284 -0.12941931
0.14796023 -0.12345036 0.020792536 0.06710158 -0.008701149 -0.045246847 0.13967395 -0.12239858
0.06278033 -0.063258395 0.07342176 0.039059497 0.0038247562 -0.05868386 -0.03164069 0.04001408
-0.01731725 -0.073101215 -0.118805766 -0.013721348 -0.050758388 0.062475618 -0.06005085 0.05695368
0.021318944 -0.08017813 -0.13442762 -0.10476826 0.19210368 0.031173104 -0.09052688 -0.026076926
-0.1282076 0.03251818 0.118907765 -0.12518977 -0.08442317 0.14331026 -0.04023364 -0.0506382
0.052036855 0.18013322 -0.07095704 -0.064571574 0.010006956 0.044264894 -0.04727674 0.08313295
0.05881989 -0.0044621658 -0.22024985 -0.12902665 0.114809915 0.03658159 -0.1932432 -0.18202145
0.054437485 0.19838178 -0.04781318 0.14311658 0.01773024 -0.019632453 -0.12515552 0.022425616
-0.093358375 -0.16707066 0.02313364 0.01000971 -0.039601933 -0.01699277 0.08403415 0.10570286
-0.17408195 -0.10330853 -0.19794098 -0.16569827 0.144434 0.027636753 0.036928613 0.061919574
-0.044788834 0.062939875 -0.1164777 0.031136947 0.01917102 -0.057078194 0.25361142 0.04395317
0.029458689 -0.06274754 0.08029208 -0.0133087225 0.015001209 -0.13536192 0.017997649 0.048025202
0.021068001 -0.16503692 0.08649302 -0.039078504 0.07611815 0.101795554 -0.00026477297 -0.049946457
0.10420202 -0.08407039 0.12966047 -0.035143074 0.075179175 0.13416179 -0.016470823 -0.030107496
-0.03558211 -0.09225144 -0.06914576 -0.21889865 -0.022758426 -0.0532566 0.006651955 0.06305305
-0.16824424 -0.1241658 -0.018004416 -0.17903091 0.30316666 -0.11988586 -0.18407264 0.03317205
-0.044536587 0.03541162 -0.14014614 0.018525109 0.027017219 -0.05679723 -0.08967603 0.14292853
-0.12250712 -0.10644659 0.06392366 -0.04527084 -0.08066972 0.051825523 0.0015975924 0.024761112
-0.02754233 -0.10967133 -0.008633305 0.00016597612 0.03135942 -0.002479611 -0.11622854 -0.012121369
-0.037383866 -0.097995415 0.04277712 -0.13719806 -0.027686331 -0.015281247 -0.085627854 -0.11365618
-0.08778166 0.038492378 -0.12934054 -0.09687444 -0.031472843 -0.019358581 0.061028887 0.023124892
-0.21566944 -0.1355609 -0.013901175 -0.01647565 -0.04156092 -0.09263032 0.056918025 -0.084466025
0.09536838 0.034997962 0.0012637156 -0.10979756 -0.03667541 -0.06364261 0.029973548 -0.17627732
00000000: 6474 dbbc 8f30 19bd fa6e cdbd 0523 17bd
00000010: f70d 05bd 971b fdbc 9c72 193d f1a7 fd3c
00000020: ebb6 42bb 6161 e63c d422 d5bd 89c5 e1bc
00000030: 95d2 c7bd 5a87 023e e22d 60be 2a31 793d
00000040: ee06 6cbc 8097 d6b9 31fc 683d 4fbe eabc
00000050: 8a15 e23d 46bf bc3d 856f 4e3d c75c d23d
00000060: 980d 293b 6eea 693d aeef 733d 9c8f 8e3c
00000070: 3e83 0c3e ec7b e53d 2da3 0fbe 28f9 d83d
00000080: 7a0d 27bd 6d84 8e3d ef27 c83d 28c5 0cbe
00000090: 4375 04be 06da 1cbc 6e8c 5c3d bcc1 cb3c
000000a0: 7442 ac3d 9e48 683d c0ac f6bc 50ab a9bd
000000b0: f770 8fbb 1ba7 0cbd 5af9 35bd 384a 46bd
000000c0: b0b6 24bd b9b1 883c b0ff d33b 0686 44be
000000d0: b4de 5fbc e5c2 febd 0e4b 883d cccf 8ebd
000000e0: 5a26 09be a654 863c f890 d53d fcf4 6bbd
000000f0: d298 77be fad9 24bd 3a31 01bd 8fdc 52be
00000100: 2a17 90bd 740e 723d af73 453d c692 cc3d
00000110: 09e1 71bd 5a78 f5bd aefd a13c 7f86 04be
00000120: e382 173e 8bd3 fcbd 1c55 aa3c 8e6c 893d
00000130: 448f 0ebc c254 39bd b006 0f3e 1bac fabd
00000140: f992 803d 9e8d 81bd 265e 963d dafc 1f3d
00000150: c3a8 7a3b 7d5e 70bd ab99 01bd cee5 233d
00000160: e8dc 8dbc 17b6 95bd 7050 f3bd 81cf 60bc
00000170: 07e8 4fbd 6fe6 7f3d e1f7 75bd 4348 693d
00000180: 11a5 ae3c 6e34 a4bd 65a7 09be be90 d6bd
00000190: d4b6 443e bd5e ff3c 2866 b9bd 479f d5bc
000001a0: da48 03be c831 053d ea85 f33d bf31 00be
000001b0: 0ee6 acbd edbf 123e 07cc 24bd 006a 4fbd
000001c0: 9924 553d d874 383e ed51 91bd 1a3e 84bd
000001d0: 37f4 233c 1b4f 353d 41a5 41bd 9c41 aa3d
000001e0: 20ed 703d 5c37 92bb 2d89 61be 901f 04be
000001f0: 7621 eb3d 94d6 153d 8ce1 45be d563 3abe
00000200: d7f9 5e3d 9824 4b3e c1d7 43bd 278d 123e
00000210: 023f 913c 3dd4 a0bc c528 00be edb5 b73c
00000220: ad32 bfbd 9214 2bbe c282 bd3c c4ff 233c
00000230: a335 22bd 6c34 8bbc 191a ac3d be7a d83d
00000240: 8a42 32be 6c93 d3bd 0ab1 4abe cfac 29be
00000250: 82e6 133e 7966 e23c 7542 173d 619f 7d3d
00000260: 7f74 37bd 9fe6 803d dc8b eebd e912 ff3c
00000270: 8b0c 9d3c d3ca 69bd 5bd9 813e 3d08 343d
00000280: 5953 f13c c881 80bd 2d70 a43d d40c 5abc
00000290: a2c7 753c 519c 0abe ce6f 933c 13b6 443d
000002a0: cd96 ac3c 70ff 28be 4123 b13d c810 20bd
000002b0: d5e3 9b3d 307a d03d 3ad1 8ab9 a894 4cbd
000002c0: de67 d53d 192d acbd b7c5 043e 2ff2 0fbd
000002d0: 8af7 993d b561 093e d2ed 86bc ffa3 f6bc
000002e0: 8cbe 11bd 53ee bcbd 4b9c 8dbd f826 60be
000002f0: e16f babc 9823 5abd a5f8 d93b f521 813d
00000300: 3848 2cbe a44a febd ff7d 93bc e153 37be
00000310: a938 9b3e b886 f5bd 8a7d 3cbe 6adf 073d
00000320: ff6b 36bd c60b 113d 7882 0fbe f8c1 973c
00000330: 3753 dd3c 36a4 68bd 11a8 b7bd db5b 123e
00000340: 03e5 fabd ab00 dabd 68ea 823d eb6d 39bd
00000350: 2b36 a5bd 0047 543d 4e66 d13a d1d7 ca3c
00000360: 74a0 e1bc 5d9b e0bd b572 0dbc e009 2e39
00000370: bc72 003d f880 22bb 3b09 eebd b598 46bc
00000380: d31f 19bd d2b1 c8bd 1037 2f3d a67d 0cbe
00000390: 72ce e2bc 325e 7abc a85d afbd 92c4 e8bd
000003a0: dfc6 b3bd 2faa 1d3d d971 04be 1b66 c6bd
000003b0: abe9 00bd e395 9ebc 6df9 793d 6a70 bd3c
000003c0: 73d8 5cbe 7ad0 0abe c1c1 63bc f1f7 86bc
000003d0: c93b 2abd f7b4 bdbd e022 693d 86fc acbd
000003e0: 7f50 c33d 065a 0f3d 42a3 a53a 8bdd e0bd
000003f0: f438 16bd 0f57 82bd 168b f53c 0b82 34be

network_body._body_endoder.seq_layers.2.bias f4 [128]
0.008204967 -0.048876822 0.017166896 -0.04584959 -0.023749767 0.030211702 -0.04038801 -0.04579239
-0.029261418 -0.045796793 -0.06224692 0.021888698 -0.032422543 -0.040041465 0.012359647 -0.04388279
-0.033739354 0.056189995 -0.02564819 0.046627812 0.014118207 -0.022276152 0.030770952 0.011730779
0.04937612 0.019954305 -0.006041644 0.042830743 -0.04218582 -0.02819123 0.052796822 -0.056797065
-0.03790026 -0.025250984 0.04967586 -0.032108907 0.045509275 0.049073987 -0.037455786 -0.046977445
0.051784363 0.009230893 0.05353962 -0.026527207 0.04415132 0.054377213 -0.04472824 0.05388195
0.002574841 -0.050418764 0.024219645 -0.041755736 -0.03397727 -0.04477796 -0.04809004 0.05494572
-0.049292922 0.047727305 -0.05305751 -0.024560101 0.04702943 0.04992972 0.041664418 -0.057105552
0.05275641 0.052325893 0.04979587 -0.040853392 -0.054581568 0.051370867 0.04764763 -0.049043298
-0.041983288 0.054518264 0.058688406 0.060375698 -0.05339265 0.055651024 -0.03577508 0.04452067
-0.052754786 0.032359734 0.05674951 -0.044682626 -0.019717392 0.046308015 -0.047014315 -0.032943975
0.040446118 -0.051057808 0.020448893 0.05658228 0.050222717 -0.035147537 0.033467837 0.052112512
-0.036604144 0.048679993 -0.048902076 0.05297023 0.034025796 -0.05234819 0.0407673 0.03361597
-0.049727004 0.025671296 0.045238037 -0.04969301 -0.039820626 -0.026006628 -0.048040435 0.0060250903
0.005448586 -0.047443032 -0.051556014 -0.043952897 0.045633126 0.044617653 -0.050340123 0.049387522
-0.04928402 -0.03852734 -0.044143017 0.027263215 -0.032965727 -0.06664889 -0.036699485 0.03887827
00000000: 206e 063c 1033 48bd 97a1 8c3c c8cc 3bbd
00000010: df8e c2bc 887e f73c e66d 25bd cd90 3bbd
00000020: a4b5 efbc 6b95 3bbd a0f6 7ebd ed4f b33c
00000030: 80cd 04bd 8502 24bd 1e80 4a3c 71be 33bd
00000040: 4732 0abd 7b27 663d 271c d2bc cefc 3e3d
00000050: 0d50 673c 7a7c b6bc 5d13 fc3c 7432 403c
00000060: 9d3e 4a3d 3677 a33c fcf8 c5bb 4a6f 2f3d
00000070: 0acb 2cbd 4bf1 e6bc 7b41 583d 0aa4 68bd
00000080: 4e3d 1bbd 27db cebc ea78 4b3d a184 03bd
00000090: ef67 3a3d ce01 493d 3d6b 19bd 6c6b 40bd
000000a0: d71b 543d 2c3d 173c 5c4c 5b3d 964f d9bc
000000b0: 04d8 343d a4ba 5e3d f634 37bd 52b3 5c3d
000000c0: aabe 283b e883 4ebd 4768 c63c 1008 2bbd
000000d0: c02b 0bbd 1869 37bd 10fa 44bd c30e 613d
000000e0: 60e7 49bd b57d 433d d552 59bd 4432 c9bc
000000f0: eea1 403d 1b83 4c3d 4fa8 2a3d 83e7 69bd
00000100: 1b17 583d ad53 563d c1f6 4b3d e355 27bd
00000110: ec90 5fbd 426a 523d 292a 433d a0e1 48bd
00000120: abf6 2bbd 8b4e 5f3d 4163 703d 824c 773d
00000130: 40b2 5abd 54f2 633d e488 12bd 4e5b 363d
00000140: 6715 58bd a48b 043d 2d72 683d 2105 37bd
00000150: 5e86 a1bc 79ad 3d3d 1592 40bd 43f0 06bd
00000160: d4aa 253d fe21 51bd 7084 a73c d2c2 673d
00000170: 56b6 4d3d ddf6 0fbd 9215 093d ee73 553d
00000180: 3aee 15bd ac64 473d 8b4d 48bd 50f7 583d
00000190: a25e 0b3d 0e6b 56bd 9dfb 263d e6b0 093d
000001a0: 8bae 4bbd 9c4c d23c 854b 393d e68a 4bbd
000001b0: f41a 23bd da0b d5bc 0cc6 44bd 1f6e c53b
000001c0: 0d8a b23b a053 42bd 662c 53bd f407 34bd
000001d0: cde9 3a3d 00c1 363d 7231 4ebd 924a 4a3d
000001e0: 0ade 49bd d8ce 1dbd 4fcf 34bd 1b57 df3c
000001f0: 1207 07bd 377f 88bd 3352 16bd d23e 1f3d

action_model._continuous_distribution.log_sigma f4 [1, 2]
-0.04739476 -0.02589155
00000000: 0221 42bd 841a d4bc

action_model._continuous_distribution.mu.weight f4 [2, 128]
-0.0085491445 -0.059467424 0.03314785 -0.027459785 -0.02338929 -0.0099972235 -0.027874142 -0.029118247
-0.021051947 -0.032667387 -0.037829403 0.031045852 -0.039277494 -0.01457391 0.009455052 -0.04544506
0.005910562 0.039385613 -0.035726167 0.007938854 0.0046673478 -0.017634526 0.026579184 0.0061960034
0.07295275 0.012346903 -0.00053576403 0.055999305 -0.049138885 -0.06154987 0.041773766 -0.0433176
-0.025885876 -0.041441947 0.049387217 -0.0032840392 0.02786813 0.04377255 -0.08263353 -0.041079808
0.060440328 0.0020481085 0.03415597 -0.0030310585 0.03094501 0.02964165 -0.02325606 0.043134328
-0.030271435 -0.03306969 0.008315705 -0.01961728 -0.068697974 -0.019296462 -0.03836156 0.030115793
-0.050052118 0.03098326 -0.038594317 -0.05156374 0.018327747 0.03418354 0.010526339 -0.046115365
0.024534136 0.06275568 0.016673788 -0.013848905 -0.0473005 0.020149194 0.055694155 -0.04310668
-0.04837607 0.042576667 0.04460454 0.03673761 -0.023492886 0.048440434 -0.0038371799 0.07173279
-0.0440303 0.027590984 0.02106552 -0.042224165 -0.03146221 0.054921128 -0.04900926 -0.016427953
0.02418835 -0.033856176 0.0012026986 0.029234145 0.047704797 -0.02290849 0.037393074 0.05163132
-0.007966125 0.024619274 -0.062023934 0.028451867 0.04295067 -0.053552564 0.043684393 -0.00048149872
-0.05360309 0.05153453 0.019197913 -0.035941876 -0.041196898 -0.012086011 -0.032728214 0.009088857
-0.0016279456 -0.027206786 -0.030972676 -0.047282547 0.060353223 0.054556936 -0.06051521 0.04743336
-0.040892232 -0.062418275 -0.035522 0.012648456 -0.038023084 -0.03911896 -0.057279695 0.019114427
-0.057301134 0.06303015 0.0035102814 0.04870803 -0.009512467 -0.017579682 0.026456706 0.033994347
0.08665701 0.056825858 0.040777013 -0.008143803 0.007129653 0.03268719 -0.034661107 0.037785824
0.018475575 -0.035149477 0.015264816 -0.034850392 -0.035751786 0.062056527 -0.016692255 0.004598401
-0.051751636 0.008589191 -0.025434358 -0.02407802 0.041928552 0.014007839 -0.050086595 0.043876205
0.051747434 -0.007227743 -0.031327464 0.023403108 -0.04915108 -0.049858894 0.030516468 0.036780447
-0.04860408 0.022158543 -0.037684746 0.012858663 -0.027367068 -0.038944058 0.02909806 -0.0358098
-0.0140862595 0.047977842 -0.0518643 0.059188478 0.013823623 0.028362075 0.039933447 -0.04601764
0.047172043 -0.028137667 0.05209455 0.006493154 -0.052049004 -0.068404935 -0.02502384 0.05345268
-0.02550753 -0.06723492 -0.04293463 0.042574093 0.052085314 -0.044261362 -0.031117456 0.049400736
0.03346088 -0.041455206 -0.041820418 -0.03351434 0.03914364 -0.069580935 0.023156686 -0.0272307
0.046620294 -0.0024768964 -0.038544267 0.06878305 0.0028115248 -0.027969457 0.040749278 0.01823149
-0.08679017 0.04387712 0.014058783 -0.03950878 -0.031059135 0.0019873586 -0.006421224 -0.047589425
0.014846598 -0.03246183 0.05216295 -0.04539399 -0.010652782 0.04281307 -0.0203107 -0.022276454
0.03676369 0.004390256 -0.031654928 0.06098009 0.033176072 0.035574466 0.031228721 -0.026001155
0.028617995 0.051296514 0.025038654 0.02526399 -0.023474408 -0.020689838 0.06275678 -0.03694317
0.027331822 0.025022183 0.05115699 -0.044211093 0.024827251 0.03719219 0.02719972 -0.01334307
00000000: b611 0cbc 1d94 73bd 0ac6 073d 58f3 e0bc
00000010: e59a bfbc 65cb 23bc 5058 e4bc 6489 eebc
00000020: 2275 acbc 3dce 05bd 01f3 1abd df53 fe3c
00000030: 70e1 20bd 69c7 6ebc 5de9 1a3c 9924 3abd
00000040: 63ad c13b cf52 213d 9a55 12bd f811 023c
00000050: 8df0 983b 4876 90bc 97bc d93c d807 cb3b
00000060: 4068 953d aa4a 4a3c 8472 0cba 875f 653d
00000070: db45 49bd b71b 7cbd f81a 2b3d cc6d 31bd
00000080: 9e0e d4bc 08bf 29bd 404a 4a3d 0939 57bb
00000090: b44b e43c d84a 333d c53b a9bd 4d43 28bd
000000a0: 4790 773d 8f39 063b 21e7 0b3d b9a4 46bb
000000b0: 6480 fd3c 0cd3 f23c 7e83 bebc 9fad 303d
000000c0: cdfb f7bc 1574 07bd 983e 083c 6bb4 a0bc
000000d0: 86b1 8cbd 9d13 9ebc 0321 1dbd 65b5 f63c
000000e0: 7303 4dbd 9bd0 fd3c 1315 1ebd 8034 53bd
000000f0: 1224 963c 0a04 0c3d aa76 2c3c 77e3 3cbd
00000100: d0fb c83c 0d86 803d 7897 883c 85e6 62bc
00000110: 2bbe 41bd ec0f a53c 8e1f 643d a190 30bd
00000120: fc25 46bd df64 2e3d 40b3 363d 2d7a 163d
00000130: 2774 c0bc 7a69 463d 3279 7bbb a4e8 923d
00000140: 1e59 34bd 7d06 e23c 9991 ac3c 3ff3 2cbd
00000150: 85de 00bd faf4 603d efbd 48bd ea93 86bc
00000160: a626 c63c c6ac 0abd dea3 9d3a 727c ef3c
00000170: 1b66 433d 96aa bbbc 7b29 193d 5d7b 533d
00000180: 5a84 02bc 5cae c93c cf0c 7ebd e413 e93c
00000190: 0bed 2f3d ef59 5bbd 68ee 323d aa71 fcb9
000001a0: ea8e 5bbd df15 533d f144 9d3c ca37 13bd
000001b0: 14be 28bd 6704 46bc 050e 06bd 6ee9 143c
000001c0: ca60 d5ba c4e0 debc 69ba fdbc 58ab 41bd
000001d0: f134 773d 1877 5f3d ccde 77bd 7c49 423d
000001e0: 9d7e 27bd 4eaa 7fbd 847f 11bd 783b 4f3c
000001f0: 18be 1bbd 343b 20bd 1d9e 6abd dc95 9c3c
00000200: 98b4 6abd f415 813d c00c 663b 1282 473d
00000210: 2eda 1bbc 4403 90bc bcbb d83c a83d 0b3d
00000220: 3b79 b13d 3bc2 683d cc05 273d 966d 05bc
00000230: dd9f e93b 01e3 053d cef8 0dbd 4fc5 1a3d
00000240: 175a 973c e6f8 0fbd 4719 7a3c 49bf 0ebd
00000250: 7770 12bd fc2e 7e3d 32be 88bc 2fae 963b
00000260: 86f9 53bd aeb9 0c3c b75b d0bc 453f c5bc
00000270: 46bd 2b3d 2381 653c 9a27 4dbd 89b7 333d
00000280: 1ef5 533d b4d6 ecbb 3a51 00bd e0b7 bf3c
00000290: a552 49bd d738 4cbd acfd f93c 18a7 163d
000002a0: 1215 47bd d585 b53c 525b 1abd 24ad 523c
000002b0: e730 e0bc ce83 1fbd 0e5f ee3c 4cad 12bd
000002c0: 0eca 66bc 6a84 443d a96f 54bd 9e6f 723d
000002d0: 7a7c 623c 9557 e83c 4191 233d fe7c 3cbd
000002e0: 7937 413d f780 e6bc 1861 553d 86c4 d43b
000002f0: 5631 55bd e317 8cbd ccfe ccbc 33f1 5a3d
00000300: 2bf5 d0bc 76b2 89bd 39dc 2fbd 2c62 2e3d
00000310: 6957 553d 674b 35bd 09ea febc 6d58 4a3d
00000320: 470e 093d efcc 29bd e34b 2bbd 5546 09bd
00000330: 1555 203d 7380 8ebd 17b3 bd3c eb12 dfbc
00000340: ecf4 3e3d 6d53 22bb 98e0 1dbd 21de 8c3d
00000350: 8f41 383b 3420 e5bc b7e8 263d 355a 953c
00000360: 0bbf b1bd 7fb8 333d cf56 663c f5d3 21bd
00000370: ba6f febc 583e 023b 2269 d2bb 21ed 42bd
00000380: 253f 733c b2f6 04bd d1a8 553d 0cef 39bd
00000390: 0289 2ebc c25c 2f3d a062 a6bc 1c7d b6bc
000003a0: 8695 163d 23dc 8f3b 99a8 01bd 42c6 793d
000003b0: a2e3 073d 88b6 113d 60d3 ff3c 6000 d5bc
000003c0: 4970 ea3c 4b1c 523d dd1d cd3c 6df6 ce3c
000003d0: 674d c0bc bc7d a9bc a086 803d b951 17bd
000003e0: fce6 df3c 52fb cc3c fe89 513d b116 35bd
000003f0: 8562 cb3c d656 183d f2d1 de3c e49c 5abc

action_model._continuous_distribution.mu.bias f4 [2]
0.035175443 -0.03522232
00000000: 2014 103d 4845 10bd

action_model._discrete_distribution.branches.0.weight f4 [1, 128]
0.007963734 0.0033279497 -0.0012968823 0.010276444 -0.0076540895 -0.0058250674 -0.0029310498 -0.015098992
0.0033398115 -0.010359942 0.010977721 0.0016260693 -0.006792828 -0.0040769945 0.0061702686 0.018916694
-0.003976953 -0.0097282855 0.0050842715 -9.832033e-05 -0.02615434 -0.0127986 0.0021909878 -0.006314188
0.0011826479 -0.0006306 -0.0025965602 -0.0074866014 0.0038157345 -0.013199898 0.014110274 0.014912884
-0.00645507 -0.008243543 -0.0021530504 0.0112509 -0.0075094583 0.020308236 0.008720968 0.0029374785
0.005055798 0.0059587895 -0.0010423794 -0.01687572 -0.006693928 -0.0036820385 -0.009155176 -0.0032991827
0.0019516032 -0.00054767163 0.022749906 -0.0041811224 -0.00038778238 -0.0074919574 0.010069344 0.0067926124
-0.0077517442 0.0011073061 -0.016442979 -0.012004915 0.007613001 0.0020535002 -0.0030388704 -0.0019125817
-0.0042109727 0.0010976598 0.0030977365 -0.00994056 -0.012114266 -0.0042411387 -0.011933409 -0.0037621756
0.0016808035 -0.0013436511 0.0045744535 -0.023035552 -0.008724003 -0.0029433193 -0.001173033 0.011074618
0.0044237925 -0.007452396 0.0033731055 -0.0075065005 0.005336344 -0.0039283405 0.0004010574 0.0024220184
0.007057763 0.0040900526 -0.003830657 0.011711837 0.010793015 0.0013617022 0.008593536 0.0074925395
0.00040215906 0.0008833591 -0.0026644843 -0.0032351376 -0.0018369263 -0.0094997985 0.010855761 0.01438649
0.004496602 -0.0074558444 -0.0030479764 0.011017053 0.004665402 -0.005917832 0.0035729078 -0.01666945
0.0035289691 0.009332205 -0.005792044 0.00035273397 0.010111192 -0.0043979087 -0.0076017254 -0.0025976696
-0.0036011252 -0.0018612033 -0.003421301 -0.0035048425 0.02284285 0.006856186 0.00031207822 0.006098749
00000000: 527a 023c bb19 5a3b 26fc a9ba 885e 283c
00000010: 28cf fabb 35e0 bebb db16 40bb c361 77bc
00000020: bde0 5a3b bfbc 29bc e6db 333c d521 d53a
00000030: 5f96 debb 4f98 85bb f72f ca3b 2ff7 9a3c
00000040: 1a51 82bb 6363 1fbc f699 a63b 5331 ceb8
00000050: a041 d6bc 38b1 51bc ad96 0f3b 3fe7 cebb
00000060: 1403 9b3a da4e 25ba 0d2b 2abb 2a52 f5bb
00000070: 6711 7a3b 6344 58bc c72e 673c 2b55 743c
00000080: 0d85 d3bb ed0f 07bc 311a 0dbb b255 383c
00000090: e711 f6bb 755d a63c 64e2 0e3c b682 403b
000000a0: 1cab a53b f341 c33b 73a0 88ba f33e 8abc
000000b0: bd58 dbbb 5b4e 71bb 97ff 15bc 1a37 58bb
000000c0: f0cc ff3a 9f91 0fba 035e ba3c cc01 89bb
000000d0: 454f cbb9 187f f5bb e4f9 243c 9094 de3b
000000e0: 5802 febb 0723 913a 6db3 86bc 43b0 44bc
000000f0: 7b76 f93b 0494 063b c927 47bb 98af faba
00000100: 33fc 89bb 5adf 8f3a 6503 4b3b bbdd 22bc
00000110: ea7a 46bc 40f9 8abb 5884 43bc d58e 76bb
00000120: 684e dc3a 731d b0ba 4ce5 953b 0eb5 bcbc
00000130: 1fef 0ebc b4e4 40bb 75c0 99ba 5172 353c
00000140: 76f5 903b 3b33 f4bb 520f 5d3b 17f9 f5bb
00000150: 7fdc ae3b 4fb9 80bb 0345 d239 baba 1e3b
00000160: cf44 e73b d905 863b c30b 7bbb 01e3 3f3c
00000170: 30d5 303c 257b b23a e7cb 0c3c fa83 f53b
00000180: e0d8 d239 3a91 673a a19e 2ebb 9a04 54bb
00000190: 05c5 f0ba 0ba5 1bbc 5ddc 313c 50b5 6b3c
000001a0: 3b58 933b 2850 f4bb 8fc0 47bb df80 343c
000001b0: 3be0 983b 5fea c1bb 7227 6a3b 5f8e 88bc
000001c0: 4746 673b 1be6 183c 30cb bdbb 27ef b839
000001d0: 6aa9 253c 551c 90bb e517 f9bb aa3d 2abb
000001e0: db00 6cbb 9ff3 f3ba e837 60bb 80b1 65bb
000001f0: ee20 bb3c dba9 e03b 6e9e a339 04d8 c73b

exp_avg f4 [128, 12]
-0.00018643172 -0.00018755716 2.5922e-05 -0.0003312301 -0.00034473784 -0.0004729803 -0.00024653412 -0.00024679885
-0.00025856262 0.0 -2.172551e-06 -0.00031345116 -0.00049393 -0.00049970456 6.6484565e-05 -0.00084953743
-0.00088641443 -0.00031571926 0.00063838693 0.00063818996 -0.0006628437 0.0 -5.938876e-06 -0.000805308
-2.4279609e-05 -2.4088924e-05 3.1741042e-06 -4.0752544e-05 -4.3919412e-05 -1.1189695e-07 4.997119e-05 4.9943992e-05
-3.077452e-05 0.0 -6.605389e-07 -3.921515e-05 -0.00020348436 -0.00020489468 2.8082952e-05 -0.00035938018
-0.0003735255 -0.00042743766 -0.0001485995 -0.0001488541 -0.00027903565 0.0 -2.552066e-06 -0.00033925517
-0.00016527908 -0.00016730215 2.2644554e-05 -0.00028980582 -0.00029946526 -0.0002517092 1.3567042e-05 1.3443641e-05
-0.00022586007 0.0 -1.6651468e-06 -0.0002727028 -0.00019011766 -0.00019097046 2.6533631e-05 -0.00033870165
-0.00035358686 -0.00056665804 -0.0003689573 -0.00036927836 -0.00026487943 0.0 -2.2849304e-06 -0.00032139028
-0.00025000132 -0.00025445095 3.29594e-05 -0.0004234589 -0.00043556732 0.00026079954 0.0009036287 0.00090377184
-0.0003260515 0.0 -2.8574896e-06 -0.0003958274 -1.172197e-05 -1.1313152e-05 1.5376118e-06 -2.0124644e-05
-2.1636144e-05 -1.3802208e-05 3.4635887e-06 3.4312761e-06 -1.4218149e-05 0.0 -4.923477e-07 -1.9006533e-05
-2.35378e-05 -2.2618264e-05 2.95075e-06 -3.8667058e-05 -4.150741e-05 -2.0749825e-05 1.446563e-05 1.4407313e-05
-2.7119102e-05 0.0 -9.723806e-07 -3.6411482e-05 4.064641e-07 4.1135354e-07 -3.893074e-07 3.8882717e-06
5.3760014e-06 7.5680444e-05 9.816571e-05 9.8194054e-05 5.4071133e-06 0.0 -2.0966536e-07 5.342299e-06
0.00010794801 0.00010964805 -1.3966925e-05 0.00017938286 0.00018629339 -0.00014294173 -0.00042806688 -0.0004281261
0.00013781889 0.0 1.5116623e-06 0.00016875517 0.00023145665 0.00023415046 -3.1444324e-05 0.00040292044
0.00041643452 0.00037797875 2.3271838e-05 2.3474997e-05 0.00031265966 0.0 2.5671363e-06 0.00037874928
0.00011522927 0.00011697077 -1.5552616e-05 0.00019890399 0.00020556405 0.000120158715 -8.517984e-05 -8.5137726e-05
0.00015578927 0.0 1.010047e-06 0.00018744379 -4.36689e-05 -4.3875945e-05 5.939044e-06 -7.505558e-05
-8.048606e-05 -5.8507976e-05 1.5669852e-05 1.5635043e-05 -6.0178107e-05 0.0 -5.4059547e-07 -7.311901e-05
-0.0003162667 -0.00031898427 4.3214022e-05 -0.0005530179 -0.00057491387 -0.00047255875 3.4024706e-05 3.3741235e-05
-0.00042957146 0.0 -3.911698e-06 -0.00052219763 -0.00020562878 -0.00020788822 2.7892993e-05 -0.00035950658
-0.00036772626 -9.073288e-05 0.00032015855 0.00032008835 -0.0002740267 0.0 -2.6322798e-06 -0.00033376476
-1.8930754e-05 -1.781628e-05 2.3019666e-06 -3.0377596e-05 -3.3485165e-05 -6.8159243e-06 2.3208617e-05 2.3149274e-05
-2.0455205e-05 0.0 -1.0364258e-06 -2.890241e-05 4.4010376e-06 4.573667e-06 -5.4897646e-07 7.1004324e-06
7.1488903e-06 -1.24857925e-05 -2.6152717e-05 -2.615567e-05 5.172813e-06 0.0 7.85526e-08 6.436647e-06
0.00020089326 0.00020389695 -2.7754977e-05 0.00035624788 0.00036431904 0.00034225147 3.2999975e-05 3.3163917e-05
0.00027562858 0.0 1.8744015e-06 0.0003320433 -2.5086396e-05 -2.4629757e-05 4.0677223e-06 -5.1388837e-05
-5.395885e-05 -0.00028307879 -0.00033308478 -0.00033323315 -4.1425257e-05 0.0 -1.7095954e-07 -4.937753e-05
0.0002602794 0.0002639325 -3.4376768e-05 0.00043700042 0.000462542 -7.6550234e-05 -0.0006733191 -0.0006733354
0.00034490926 0.0 3.2711087e-06 0.00041989732 -0.00050486805 -0.0005090973 6.9128655e-05 -0.0008840134
00000000: e27c 43b9 feaa 44b9 1273 d937 f4a8 adb9
00000010: eebd b4b9 57fa f7b9 4041 81b9 c864 81b9
00000020: b08f 87b9 0000 0000 24cc 11b6 b456 a4b9
00000030: 157b 01ba 9bfe 02ba a16d 8b38 7eb3 5eba
00000040: 445e 68ba 1f87 a5b9 6c59 273a 344c 273a
00000050: b0c2 2dba 0000 0000 8e46 c7b6 4e1b 53ba
00000060: 10ac cbb7 9212 cab7 b202 5536 b6ed 2ab8
00000070: 1c36 38b8 004c f0b3 2898 5138 f47a 5138
00000080: e413 01b8 0000 0000 e34f 31b5 f27a 24b8
00000090: 6b5e 55b9 ffd8 56b9 ae93 eb37 316b bcb9
000000a0: bed5 c3b9 b619 e0b9 60d1 1bb9 b815 1cb9
000000b0: 884b 92b9 0000 0000 2944 2bb6 0fde b1b9
000000c0: c44e 2db9 d46d 2fb9 cff4 bd37 14f1 97b9
000000d0: 8c01 9db9 d6f7 83b9 009e 6337 008c 6137
000000e0: dad4 6cb9 0000 0000 027e dfb5 8df9 8eb9
000000f0: 525a 47b9 3e3f 48b9 8a94 de37 c493 b1b9
00000100: a061 b9b9 c78b 14ba 9c70 c1b9 b49b c1b9
00000110: 84df 8ab9 0000 0000 ce56 19b6 4680 a8b9
00000120: 9c12 83b9 d467 85b9 e33d 0a38 b103 deb9
00000130: db5c e4b9 ecbb 8839 7fe1 6c3a 1aeb 6c3a
00000140: e4f1 aab9 0000 0000 4cc3 3fb6 0e87 cfb9
00000150: 7aa9 44b7 9ecd 3db7 f05f ce35 58d1 a8b7
00000160: 447f b5b7 0890 67b7 0070 6836 e044 6636
00000170: 7c8a 6eb7 0000 0000 e029 04b5 3870 9fb7
00000180: 0a73 c5b7 5abc bdb7 8005 4636 702e 22b8
00000190: 3e18 2eb8 e90f aeb7 68b1 7237 f0b6 7137
000001a0: d47d e3b7 0000 0000 be82 82b5 88b8 18b8
000001b0: 0038 da34 00d8 dc34 0002 d1b4 0078 8236
000001c0: 8063 b436 a1b6 9e38 50de cd38 88ed cd38
000001d0: c06e b536 0000 0000 6020 61b4 0042 b336
000001e0: 2662 e238 d9f2 e538 7c53 6ab7 b818 3c39
000001f0: c057 4339 a1e2 15b9 2a6e e0b9 1d76 e0b9
00000200: 7a83 1039 0000 0000 52e4 ca35 dff3 3039
00000210: 2cb3 7239 4986 7539 16e3 03b8 113f d339
00000220: e554 da39 732b c639 e437 c337 2cec c437
00000230: 78ec a339 0000 0000 1147 2c36 de92 c639
00000240: 3ea7 f138 344e f538 fd76 82b7 e290 5039
00000250: ae8c 5739 b8fd fb38 94a2 b2b8 f88b b2b8
00000260: 5d5b 2339 0000 0000 f390 8735 8f8c 4439
00000270: 2029 37b8 7007 38b8 0048 c736 2867 9db8
00000280: a0ca a8b8 7666 75b8 c072 8337 0028 8337
00000290: c067 7cb8 0000 0000 701d 11b5 7857 99b8
000002a0: 99d0 a5b9 583d a7b9 b440 3538 67f8 10ba
000002b0: d1b5 16ba c3c1 f7b9 c0b5 0e38 6085 0d38
000002c0: 1b38 e1b9 0000 0000 3b41 83b6 17e4 08ba
000002d0: 0e9e 57b9 92fc 59b9 bffb e937 287c bcb9
000002e0: 62cb c0b9 d847 beb8 f4da a739 88d1 a739
000002f0: 3eab 8fb9 0000 0000 39a6 30b6 26fd aeb9
00000300: 7ccd 9eb7 2c74 95b7 7c7b 1a36 64d3 feb7
00000310: 6c72 0cb8 58b4 e4b6 20b0 c237 b030 c237
00000320: 3897 abb7 0000 0000 521b 8bb5 7473 f2b7
00000330: a0ac 9336 8077 9936 605d 13b5 4040 ee36
00000340: 80e0 ef36 127a 51b7 8862 dbb7 e068 dbb7
00000350: 2092 ad36 0000 0000 c0b0 a833 60fa d736
00000360: e0a6 5239 2ccd 5539 5cd3 e8b7 c8c6 ba39
00000370: 1302 bf39 3770 b339 7469 0a38 7c19 0b38
00000380: 3e82 9039 0000 0000 f293 fb35 1916 ae39
00000390: a070 d2b7 009c ceb7 787d 8836 588a 57b8
000003a0: e051 62b8 316a 94b9 e2a1 aeb9 ccb5 aeb9
000003b0: 08c0 2db8 0000 0000 0091 37b4 b81a 4fb8
000003c0: 1c76 8839 6c60 8a39 c62f 10b8 341d e539
000003d0: 5681 f239 9889 a0b8 ae81 30ba c682 30ba
000003e0: f0d4 b439 0000 0000 3885 5b36 aa25 dc39
000003f0: 1f59 04ba f174 05ba 2af9 9038 23bd 67ba

exp_avg_sq f4 [128, 12]
2.0564717e-06 2.119979e-06 3.5513985e-08 5.7763505e-06 6.380069e-06 1.7694899e-07 8.810134e-06 8.809539e-06
3.5678765e-06 0.0 1.4998714e-09 5.264154e-06 4.505494e-06 4.6476184e-06 7.783524e-08 1.2677804e-05
1.3960351e-05 2.120613e-07 2.0690672e-05 2.0689733e-05 7.813636e-06 0.0 3.1707366e-09 1.152058e-05
1.857669e-08 2.3433005e-08 3.1308156e-10 5.4610325e-08 5.0710742e-08 2.4163372e-08 6.94203e-08 6.9663486e-08
5.1188852e-08 0.0 3.8337739e-10 4.8690275e-08 1.1514677e-06 1.1881855e-06 1.986732e-08 3.2284963e-06
3.5732285e-06 1.6449796e-07 4.494723e-06 4.494337e-06 2.0067337e-06 0.0 3.404496e-10 2.9507623e-06
4.304413e-07 4.5011498e-07 7.4117623e-09 1.2085985e-06 1.3263707e-06 1.1069994e-07 1.5512265e-06 1.5517388e-06
7.789511e-07 0.0 2.3545912e-09 1.105153e-06 2.2502113e-06 2.3200014e-06 3.8855173e-08 6.319829e-06
6.9817215e-06 2.0943834e-07 9.596648e-06 9.595969e-06 3.9036827e-06 0.0 8.262889e-10 5.7602883e-06
4.9149058e-08 5.4464383e-08 8.1574614e-10 1.3557715e-07 1.4672388e-07 3.9789796e-08 1.8955174e-07 1.8963328e-07
8.7668774e-08 0.0 9.1050355e-11 1.2426159e-07 1.6062085e-08 2.3441695e-08 2.3046681e-10 4.6131305e-08
3.414452e-08 3.708351e-08 2.3640293e-08 2.4602745e-08 5.393927e-08 0.0 2.9734355e-09 3.8709878e-08
8.5950006e-08 1.3400438e-07 1.3785575e-09 2.7092864e-07 1.8466285e-07 2.812624e-07 8.387776e-08 8.6122185e-08
3.7710439e-07 0.0 2.2635016e-09 2.3313883e-07 5.6865974e-07 5.964912e-07 9.818868e-09 1.611446e-06
1.7417938e-06 7.800436e-08 2.9047578e-06 2.9052342e-06 1.0352228e-06 0.0 6.0401956e-10 1.4548815e-06
6.618179e-08 7.1332416e-08 1.1380534e-09 1.8806264e-07 1.995886e-07 2.2258341e-08 3.1972368e-07 3.1988333e-07
1.2757539e-07 0.0 2.1500327e-10 1.6953193e-07 5.2709304e-08 6.154998e-08 7.4826706e-10 1.3622957e-07
1.397714e-07 1.5939051e-07 7.8929524e-08 7.913482e-08 9.372913e-08 0.0 2.1612538e-09 1.2152432e-07
1.2004799e-07 1.3581769e-07 1.741518e-09 3.1261956e-07 3.2099464e-07 3.899663e-08 3.4987931e-07 3.5042157e-07
1.8455742e-07 0.0 1.5473864e-08 2.663612e-07 5.610386e-07 5.7779954e-07 9.710933e-09 1.5836222e-06
1.7380852e-06 8.3293585e-09 2.9504358e-06 2.9503883e-06 9.672317e-07 0.0 9.057944e-11 1.4326974e-06
2.5933318e-06 2.6714285e-06 4.4774932e-08 7.2785324e-06 8.051687e-06 2.3241554e-07 1.0784021e-05 1.078305e-05
4.4931508e-06 0.0 6.1671834e-10 6.6403873e-06 3.8030694e-07 3.9185213e-07 6.5372276e-09 1.0591913e-06
1.1841449e-06 1.08598165e-07 1.1258137e-06 1.1255948e-06 6.6305967e-07 0.0 6.247321e-10 9.771553e-07
9.976087e-08 1.5429363e-07 1.6026415e-09 3.1364436e-07 2.1629158e-07 3.1911952e-07 1.1321545e-07 1.1594201e-07
4.3128725e-07 0.0 4.317066e-09 2.690148e-07 4.375968e-08 4.6125443e-08 7.547613e-10 1.238557e-07
1.3444271e-07 5.675365e-09 2.2289822e-07 2.2293568e-07 8.026697e-08 0.0 6.011674e-11 1.1217495e-07
1.4860157e-07 2.1209296e-07 2.325281e-09 4.423188e-07 3.5053975e-07 5.1648254e-07 2.3652362e-07 2.3919992e-07
5.2825425e-07 0.0 2.8423526e-09 3.925495e-07 8.4132887e-07 8.69816e-07 1.4531955e-08 2.3679106e-06
2.6039086e-06 6.356154e-08 3.8189396e-06 3.8190183e-06 1.4695329e-06 0.0 1.3391782e-09 2.1523836e-06
1.4693697e-06 1.5216773e-06 2.5439366e-08 4.159577e-06 4.5336637e-06 9.653562e-08 8.273642e-06 8.274385e-06
2.5694308e-06 0.0 2.4560576e-09 3.7507878e-06 6.7221354e-06 6.9258813e-06 1.1605101e-07 1.8865552e-05
00000000: ea01 0a36 f644 0e36 0a88 1833 79d2 c136
00000010: 6014 d636 5eff 3d34 3dcf 1337 afcc 1337
00000020: a76f 6f36 0000 0000 0924 ce30 bda2 b036
00000030: e62d 9736 bdf2 9b36 6026 a733 c1b2 5437
00000040: 4037 6a37 f7b2 6334 e190 ad37 dd8e ad37
00000050: 5017 0337 0000 0000 30e4 5931 8448 4137
00000060: 9392 9f32 b949 c932 501e ac2f b08c 6a33
00000070: 0dcd 5933 d18f cf32 3714 9533 e899 9533
00000080: bdda 5b33 0000 0000 92c3 d22f 861f 5133
00000090: 218c 9a35 be79 9f35 b3a8 aa32 25a9 5836
000000a0: 99cb 6f36 dba0 3034 60d1 9636 10ce 9636
000000b0: 6cab 0636 0000 0000 062a bb2f b605 4636
000000c0: 6717 e734 55a7 f134 8daa fe31 2137 a235
000000d0: c005 b235 f0b9 ed33 bd33 d035 5745 d035
000000e0: 1d19 5135 0000 0000 68ce 2131 c554 9435
000000f0: 5602 1736 52b1 1b36 b7e1 2633 eb0e d436
00000100: 8844 ea36 f9e1 6034 4a01 2137 5ffe 2037
00000110: 61fc 8236 0000 0000 ea20 6330 8048 c136
00000120: f617 5333 39ec 6933 083b 6030 2a93 1134
00000130: 278b 1d34 58e5 2a33 9687 4b34 009e 4b34
00000140: 6b44 bc33 0000 0000 cb38 c82e c46c 0534
00000150: e6f8 8932 d55c c932 a466 7d2f e821 4633
00000160: 4ca6 1233 c045 1f33 8e11 cb32 0256 d332
00000170: dbaa 6733 0000 0000 3b55 4c31 f641 2633
00000180: 8493 b833 d8e2 0f34 ae77 bd30 2674 9134
00000190: bd47 4634 6900 9734 4920 b433 2cf2 b833
000001a0: d574 ca34 0000 0000 f18b 1b31 b754 7a34
000001b0: 00a6 1835 901e 2035 d7af 2832 dd48 d835
000001c0: 94c7 e935 5a83 a733 5cef 4236 8bf7 4236
000001d0: fcf1 8a35 0000 0000 1908 2630 5945 c335
000001e0: d31f 8e33 692f 9933 b269 9c30 44ee 4934
000001f0: 7f4e 5634 9c32 bf32 7da6 ab34 6ebc ab34
00000200: a8fb 0834 0000 0000 0a66 6c2f 9508 3634
00000210: 7e62 6233 762d 8433 9dae 4d30 8046 1234
00000220: 1214 1634 ee24 2b34 f77f a933 d4f0 a933
00000230: 2248 c933 0000 0000 2e85 1431 5a7c 0234
00000240: 8ae6 0034 48d5 1134 385a ef30 1bd6 a734
00000250: 2b55 ac34 407d 2733 0cd7 bb34 9321 bc34
00000260: c22a 4634 0000 0000 63eb 8432 6800 8f34
00000270: 479a 1635 151a 1b35 23d5 2632 d88c d435
00000280: 2748 e935 e818 0f32 1a00 4636 49ff 4536
00000290: d4d1 8135 0000 0000 b12f c72e 1c4b c035
000002a0: 1a09 2e36 cb46 3336 8f4e 4033 1e3a f436
000002b0: bb15 0737 e68d 7934 04ed 3437 d9e8 3437
000002c0: dfc3 9636 0000 0000 b285 2930 7ed0 de36
000002d0: fd2c cc34 bf5f d234 109e e031 8929 8e35
000002e0: e9ee 9e35 7936 e933 aa1a 9735 2513 9735
000002f0: 1dfd 3135 0000 0000 9db9 2b30 cd26 8335
00000300: 1e3c d633 e9ab 2534 ef43 dc30 f462 a834
00000310: c73d 6834 7453 ab34 da20 f333 cbfb f833
00000320: ab8b e734 0000 0000 5055 9431 1d6d 9034
00000330: 47f2 3b33 761b 4633 9b77 4f30 32fd 0434
00000340: 555b 1034 0a01 c331 cc55 6f34 1860 6f34
00000350: 3c5f ac33 0000 0000 b732 842e d5e4 f033
00000360: 4a8f 1f34 abbb 6334 c7ca 1f31 d577 ed34
00000370: d131 bc34 69a4 0a35 1ef7 7d34 636b 8034
00000380: 5bcd 0d35 0000 0000 3253 4331 98bf d234
00000390: aed7 6135 4d7d 6935 37a8 7932 65e8 1e36
000003a0: cfbe 2e36 537f 8833 7124 8036 1e25 8036
000003b0: c43c c535 0000 0000 250e b830 ab71 1036
000003c0: 2937 c535 6f3c cc35 c285 da32 7f92 8b36
000003d0: e01f 9836 054f cf33 06cf 0a37 37d2 0a37
000003e0: 7c6e 2c36 0000 0000 6cc7 2831 0bb6 7b36
000003f0: b48e e136 de64 e836 b837 f933 7741 9e37

exp_avg f4 [128]
-8.20268e-05 -0.00022431611 -2.5016236e-05 -9.635923e-05 -6.284166e-05 -8.627384e-05 -0.000107946595 -1.8675659e-05
-3.69333e-05 -8.030111e-06 5.717763e-05 9.697439e-05 3.8167167e-05 -2.0421037e-05 -0.00014774887 -9.947097e-05
-3.9358318e-05 2.9359671e-06 7.061298e-05 -6.3964253e-06 0.00012348845 -0.00022941435 -0.00014567729 -1.9232299e-05
4.4543143e-05 -2.533944e-05 -5.3253025e-06 -0.00020108306 6.3616346e-05 -0.00011845943 -8.998411e-05 -2.442368e-05
0.00010662874 -7.637325e-06 -3.9720388e-05 -3.726455e-05 0.00025160247 -4.528887e-05 -3.6847065e-05 5.270227e-05
-9.4171744e-05 -1.3504374e-05 2.9705952e-05 -0.00013653227 -0.00010638057 -3.8991253e-05 -2.119207e-05 -0.0002615871
-2.9732275e-05 -3.0516487e-05 -0.00027044635 -3.208041e-05 -1.3537079e-05 -1.3767931e-06 -2.9129962e-05 -5.3891446e-05
-8.989657e-06 -1.7406692e-05 3.0441824e-05 -2.3300367e-05 6.862587e-05 -4.818791e-05 0.00011100194 -4.859711e-05
-2.7393915e-05 -2.6548005e-06 1.755706e-05 0.00014127675 -0.00014777528 -4.415884e-05 -2.1305517e-05 7.5659555e-05
-1.5514204e-05 -6.9510585e-05 -1.0391337e-05 -1.10193505e-05 4.9037917e-06 -5.1019524e-05 -2.8892711e-05 -7.0896785e-05
2.3085864e-05 -4.944321e-05 -2.3263958e-05 1.6736874e-05 -3.0639014e-05 -7.9874924e-05 -7.562759e-05 8.024162e-05
-3.3807228e-05 -3.6216617e-05 -6.597086e-05 4.151756e-06 1.5271042e-05 -5.1768235e-05 4.322712e-05 7.087561e-05
-0.00016239015 -0.0002451163 -2.7358628e-05 5.080828e-06 -3.7307436e-05 0.00012923518 -6.324626e-06 3.973877e-05
-5.3735086e-05 -5.5228753e-05 -1.5116166e-05 1.0138379e-05 -0.00018691146 -1.1114109e-05 -0.00016591864 2.0384217e-05
-4.7464273e-05 6.5054905e-05 1.8879451e-05 -3.5860285e-07 -4.2528423e-05 -0.00019729347 -5.032638e-06 -8.4845306e-05
-0.00022785433 -2.3316872e-05 -0.00023123667 -1.8323422e-05 -3.1386175e-05 -8.658564e-06 -0.0001111616 3.1885615e-05
00000000: ce05 acb8 6636 6bb9 f5d9 d1b7 7814 cab8
00000010: dcc9 83b8 eaed b4b8 6361 e2b8 aca9 9cb7
00000020: d4e8 1ab8 10b9 06b7 03d2 6f38 bb5e cb38
00000030: af15 2038 d84d abb7 09ed 1ab9 129b d0b8
00000040: ac14 25b8 8807 4536 0e16 9438 e0a0 d6b6
00000050: ae7c 0139 f28e 70b9 f3c0 18b9 0c55 a1b7
00000060: d6d3 3a38 0890 d4b7 00b0 b2b6 d3d9 52b9
00000070: c469 8538 6c6d f8b8 dab5 bcb8 74e1 ccb7
00000080: de9d df38 1022 00b7 7199 26b8 824c 1cb8
00000090: 83e9 8339 8ef4 3db8 3c8c 1ab8 a20c 5d38
000000a0: 127e c5b8 d890 62b7 0c31 f937 1a2a 0fb9
000000b0: a218 dfb8 8a8a 23b8 a0c5 b1b7 a025 89b9
000000c0: 9369 f9b7 a8fd ffb7 b2ca 8db9 148e 06b8
000000d0: 501d 63b7 40ca b8b5 1e5c f4b7 8009 62b8
000000e0: 48d2 16b7 9604 92b7 525d ff37 2875 c3b7
000000f0: 3ceb 8f38 601d 4ab8 b6c9 e838 c0d4 4bb8
00000100: fccb e5b7 2029 32b6 8047 9337 b023 1439
00000110: 20f4 1ab9 3237 39b8 40b9 b2b7 6aab 9e38
00000120: 8024 82b7 36c6 91b8 7456 2eb7 c0df 38b7
00000130: 408b a436 ccfd 55b8 a05e f2b7 6cae 94b8
00000140: 84a8 c137 3e61 4fb8 f826 c3b7 2a66 8c37
00000150: 6482 00b8 8682 a7b8 419a 9eb8 6447 a838
00000160: 3ccc 0db8 4ce7 17b8 d659 8ab8 504f 8b36
00000170: 501a 8037 b821 59b8 c44e 3538 0ea3 9438
00000180: 4647 2ab9 f482 80b9 3580 e5b7 fb7b aa36
00000190: 8e7a 1cb8 4e83 0739 2038 d4b6 2ead 2638
000001a0: 9c61 61b8 6ca5 67b8 709b 7db7 0218 2a37
000001b0: aafd 43b9 bc76 3ab7 72fa 2db9 c6fe aa37
000001c0: 6014 47b8 166e 8838 505f 9e37 0086 c0b4
000001d0: 8c60 32b8 90e0 4eb9 08de a8b6 faee b1b8
000001e0: 2eec 6eb9 9a98 c3b7 1f78 72b9 40b5 99b7
000001f0: a6a4 03b8 4044 11b7 6e1f e9b8 ebbc 0538

exp_avg_sq f4 [128]
6.3316014e-07 1.4051351e-06 1.7790228e-07 4.3136026e-07 4.170512e-07 6.71395e-07 6.099952e-08 2.4135576e-07
1.844914e-06 6.172822e-07 1.4461054e-07 1.13255304e-07 9.4974425e-08 1.2580439e-07 7.062791e-07 9.080898e-08
2.0649793e-06 3.8485382e-08 2.2486824e-06 3.4956622e-07 7.5419183e-07 1.8631298e-06 4.271897e-07 3.1030237e-07
2.5957226e-07 1.7446038e-06 8.475837e-08 7.600474e-07 1.2943255e-07 4.4444334e-07 8.034716e-07 6.375646e-07
4.80161e-08 4.119926e-07 4.998607e-07 1.4597506e-06 1.1468052e-07 1.4504972e-06 2.102178e-06 1.7497712e-07
7.6326825e-07 1.0820016e-06 3.7791236e-07 5.5277434e-07 6.4449506e-07 2.3412942e-07 4.077122e-07 1.2319922e-06
5.2329746e-08 1.4585805e-06 9.756859e-07 1.8094761e-06 3.896956e-07 3.9835757e-07 3.2678823e-08 1.7419421e-07
4.388224e-07 9.309624e-08 3.5099593e-08 9.898979e-07 5.123853e-08 1.8670154e-06 3.6787077e-07 4.8811023e-07
4.228695e-07 1.0037567e-06 1.3876397e-08 7.613459e-07 9.765571e-07 1.7873695e-07 6.7322986e-07 1.2153977e-07
1.0590014e-06 5.5525567e-07 1.3968352e-07 4.1453836e-07 2.581052e-07 1.3367625e-06 4.3600917e-07 4.077179e-07
4.7478508e-07 3.3427972e-07 1.3574628e-06 1.9402961e-08 7.363082e-07 5.124686e-07 7.562575e-08 1.3396172e-07
6.568858e-07 2.0650248e-06 3.1519602e-07 3.9589597e-07 8.4894793e-07 2.2458507e-06 1.8295684e-07 1.8852539e-07
7.034093e-07 1.839937e-06 1.9021092e-08 2.6043226e-08 7.5028694e-08 6.869193e-08 6.8387845e-07 2.5722198e-07
1.7355946e-07 5.3292644e-07 5.071673e-07 6.183633e-08 4.5285452e-07 2.6331992e-07 8.0821263e-07 1.8866626e-07
4.2988713e-06 2.429599e-08 1.8818033e-08 9.66343e-07 1.7538417e-06 1.1465428e-06 6.275319e-07 5.0463063e-07
1.3038778e-06 1.0919353e-08 7.564965e-07 2.3434097e-06 1.3132797e-06 1.816959e-07 2.2097353e-07 9.354404e-08
00000000: 6ff6 2935 1398 bc35 6805 3f34 b495 e734
00000010: 15e7 df34 ea39 3435 d7fe 8233 af93 8134
00000020: c39e f735 4fb3 2535 3e46 1b34 c336 f333
00000030: bef4 cb33 d914 0734 2197 3d35 c402 c333
00000040: 1394 0a36 204b 2533 12e8 1636 04ac bb34
00000050: ab73 4a35 a710 fa35 8158 e534 a297 a634
00000060: 575b 8b34 2128 ea35 6804 b633 0f06 4c35
00000070: 26fa 0a34 d49b ee34 26ae 5735 1b25 2b35
00000080: 433a 4e33 d52f dd34 2a2e 0635 a6ec c335
00000090: 4846 f633 b4ae c235 2513 0d36 58e1 3b34
000000a0: 65e3 4c35 4b39 9135 e1e3 ca34 5d62 1435
000000b0: 5d01 2d35 0165 7b34 8ae3 da34 ee5a a535
000000c0: 2ac1 6033 72c4 c335 50f4 8235 20dd f235
000000d0: 5b37 d134 d9dd d534 bf5a 0c33 240a 3b34
000000e0: 4b97 eb34 33ec c733 69c0 1633 a2dc 8435
000000f0: 5c11 5c33 2996 fa35 c67f c534 ae06 0335
00000100: be06 e334 d1b8 8635 0a65 6e32 4b5f 4c35
00000110: 3f12 8335 d7ea 3f34 01b8 3435 9980 0234
00000120: 0323 8e35 e10c 1535 eafb 1534 b88d de34
00000130: b591 8a34 cf6a b335 a514 ea34 52e4 da34
00000140: f7e5 fe34 0e77 b334 1132 b635 90ab a632
00000150: b7a6 4535 9390 0935 b267 a233 1ed7 0f34
00000160: d954 3035 db94 0a36 3638 a934 878b d434
00000170: 42e3 6335 6cb7 1636 cb72 4434 776d 4a34
00000180: ebd1 3c35 c1f3 f635 d363 a332 a9b5 df32
00000190: 761f a133 ca83 9333 c593 3735 5218 8a34
000001a0: a95b 3a34 6d0e 0f35 4524 0835 e2ca 8433
000001b0: da1f f334 6a5e 8d34 f3f3 5835 3094 4a34
000001c0: 063f 9036 72b3 d032 4ba5 a132 4bb3 8135
000001d0: 8b65 eb35 e9e2 9935 aa73 2835 f475 0735
000001e0: e600 af35 d397 3b32 0b12 4b35 7943 1d36
000001f0: f243 b035 3018 4334 be44 6d34 61e2 c833
