results/SlayRL_FINAL101/SlayTheSquire_RL/SlayTheSquire_RL-250880.pt (torch, 467706 bytes, 47 tensors)

network_body.observation_encoder.processors.0.normalizer.running_mean f4 [12]
0.96486926 -0.26127693 0.0020683429 0.7628838 -0.66661507 0.0 -0.011766536 -0.67580235
-2.3915725e-05 -0.011766536 -0.6842965 -0.04554349
00000000: ac01 773f 17c6 85be 098d 073b 5a4c 433f
00000010: 49a7 2abf 0000 0000 6ec8 40bc 6201 2dbf
00000020: a19e c8b7 6ec8 40bc 0e2e 2fbf d08b 3abd

network_body.observation_encoder.processors.0.normalizer.running_variance f4 [12]
18.455076 172.72598 1.0103338 768.17053 55756.668 1.0 2918.266 54967.387
6.9998555 2918.266 54200.016 10906.615
00000000: ffa3 9341 dab9 2c43 9e52 813f ea0a 4044
00000010: abcc 5947 0000 803f 4264 3645 63b7 5647
00000020: d1fe df40 4264 3645 04b8 5347 766a 2a46

network_body.processors.0.normalizer.running_mean f4 [12]
0.96486926 -0.26127693 0.0020683429 0.7628838 -0.66661507 0.0 -0.011766536 -0.67580235
-2.3915725e-05 -0.011766536 -0.6842965 -0.04554349
00000000: ac01 773f 17c6 85be 098d 073b 5a4c 433f
00000010: 49a7 2abf 0000 0000 6ec8 40bc 6201 2dbf
00000020: a19e c8b7 6ec8 40bc 0e2e 2fbf d08b 3abd

network_body.processors.0.normalizer.running_variance f4 [12]
18.455076 172.72598 1.0103338 768.17053 55756.668 1.0 2918.266 54967.387
6.9998555 2918.266 54200.016 10906.615
00000000: ffa3 9341 dab9 2c43 9e52 813f ea0a 4044
00000010: abcc 5947 0000 803f 4264 3645 63b7 5647
00000020: d1fe df40 4264 3645 04b8 5347 766a 2a46

network_body._body_endoder.seq_layers.0.weight f4 [128, 12]
0.4613171 0.026703265 0.72040653 0.05007267 0.088577606 -0.007910478 0.32577947 -0.022360472
0.23824489 -0.65628606 -0.020189947 0.22777951 0.21991615 -0.45271114 0.52775174 -0.5602243
0.323343 0.039741844 -0.15597843 0.38934845 -0.048473123 0.0012484494 -0.29443824 -0.26119494
-0.5055084 -0.3325336 0.11362475 0.06970419 0.011986692 0.02229831 0.013854777 -0.12434013
0.24764182 0.12297374 -0.4956511 -0.043532547 0.05851032 0.43664706 -0.15526243 -0.2774851
0.07004611 -0.36867112 -0.08032628 0.34923488 -0.06262697 0.124968424 0.074038096 -0.3259455
-0.08931349 -0.068142824 -0.029714348 0.09073873 0.120759204 0.35262117 -0.23142989 0.0329181
0.54900974 0.14103116 0.29657885 0.10886892 -0.21869378 0.27925235 -0.3413002 -0.082301386
0.08693117 -0.40626976 0.49861303 -0.25460535 0.53354293 0.180815 -0.44392008 -0.15045853
-0.06715844 0.37478834 -0.32473677 0.26758772 -0.011468518 -0.07026422 -0.51616377 -0.105063014
0.43337986 -0.05586162 -0.24922147 -0.20078906 -0.72057956 -0.14606205 0.255522 -0.36989972
-0.016804628 -0.24125142 -0.27909595 -0.18270889 -0.34226772 -0.27232996 0.20143865 0.058782976
0.037434995 0.64580804 -0.0077710603 -0.25060204 0.17829046 0.0033270167 -0.0739746 -0.15930027
0.09962002 0.13218229 -0.2868259 -0.4124008 0.05268522 -0.2645388 0.37010553 0.054334432
0.16074301 0.536953 -0.46799445 0.0657461 0.084361434 0.3009497 -0.13641223 0.18638606
-0.5441818 -0.103666455 0.65898633 0.5614534 -0.359093 -0.29659218 0.109370396 -0.038262486
0.03568999 0.15004839 0.37278306 -0.6580257 0.23367119 -0.1587131 0.255433 -0.83234245
-0.27319735 0.33439857 0.014573635 -0.0063974606 -0.18499842 -0.08534693 -0.042227514 -0.011482676
-0.16451193 -0.18903548 0.4401663 -0.4999897 0.09125057 0.0385394 -0.23155086 0.12760995
0.39292476 0.03777769 0.20946732 -0.18575893 -0.24419153 0.56587946 0.27093884 0.094712585
-0.476827 0.5380819 -0.014988678 -0.05663318 0.17817025 0.74688107 -0.053984515 0.42096964
-0.37559447 0.5522584 -0.05981453 0.1983934 -0.06086845 0.004276928 -0.09953472 0.2048955
0.11075009 0.36578837 -0.03617737 -0.023287158 0.118419014 0.33475763 0.04374053 0.42375782
0.47467926 -0.23405683 0.1570491 0.26301005 -0.25313556 0.27827314 -0.05673977 0.13187543
-0.023609452 -0.2006747 0.41736856 -0.47565785 0.22781812 -0.10915015 0.11801152 -0.1001033
-0.49811602 0.19326395 0.17970756 0.07096751 0.45793697 0.21380727 -0.41786405 0.053843565
-0.1657864 -0.089811735 -0.29190204 0.41334015 0.1032559 -0.12489882 0.46124423 0.50933015
-0.0075107105 0.13762112 0.53052616 -0.5552306 0.4676792 0.3021378 0.08654706 0.3765244
0.10842921 0.20819047 -0.4978606 0.060586393 0.25033757 -0.09863696 -0.12797306 -0.26574156
0.3573518 0.06674557 -0.006251394 -0.13882662 0.20313524 -0.058016486 0.09297116 -0.57971376
0.039413825 0.04142474 0.37798312 -0.31055346 -0.1341258 0.31054065 0.37109965 0.29520473
-0.019945456 -0.07383225 0.12012125 0.20386824 -0.104598805 -0.26423854 0.46553522 0.1565602
00000000: c131 ec3e cec0 da3c 906c 383f 0019 4d3d
00000010: 2d68 b53d f39a 01bc 91cc a63e 4f2d b7bc
00000020: 78f6 733e 5d02 28bf 6365 a5bc 083f 693e
00000030: b331 613e c1c9 e7be bd1a 073f dc6a 0fbf
00000040: 378d a53e 58c8 223d cfb8 1fbe ae58 c73e
00000050: c18b 46bd 03a3 a33a 9cc0 96be 58bb 85be
00000060: 0069 01bf d841 aabe 18b4 e83d 12c1 8e3d
00000070: d563 443c f2aa b63c 26ff 623c 0aa6 febd
00000080: d195 7d3e a8d9 fb3d fbc5 fdbe 2f4f 32bd
00000090: 84a8 6f3d 3490 df3e 1dfd 1ebe 8712 8ebe
000000a0: 5674 8f3d 76c2 bcbe 1b82 a4bd eace b23e
000000b0: 9242 80bd 72ef ff3d 49a1 973d 54e2 a6be
000000c0: fee9 b6bd 778e 8bbd 816b f3bc 3ad5 b93d
000000d0: 9a50 f73d c38a b43e f5fb 6cbe 21d5 063d
000000e0: e78b 0c3f 796a 103e 2fd9 973e abf6 de3d
000000f0: 43f1 5fbe 2afa 8e3e e6be aebe a18d a8bd
00000100: f808 b23d 9702 d0be 354a ff3e a25b 82be
00000110: 4596 083f 9127 393e 7e49 e3be cd11 1abe
00000120: 5d8a 89bd 42e4 bf3e e643 a6be 4201 893e
00000130: 73e6 3bbc b0e6 8fbd 4f23 04bf 472b d7bd
00000140: f7e3 dd3e 27cf 64bd ea33 7fbe a69b 4dbe
00000150: e777 38bf 4a91 15be c8d3 823e 7f63 bdbe
00000160: dca9 89bc 9d0a 77be aae5 8ebe 0a18 3bbe
00000170: b73d afbe d56e 8bbe ef45 4e3e 6bc6 703d
00000180: 7055 193d ad53 253f 61a4 febb e94e 80be
00000190: c691 363e 140a 5a3b ff7f 97bd 9c1f 23be
000001a0: 9505 cc3d cb5a 073e d8da 92be 3326 d3be
000001b0: 75cc 573d a171 87be 797e bd3e c88d 5e3d
000001c0: d199 243e c075 093f f89c efbe e4a5 863d
000001d0: b0c5 ac3d 1416 9a3e a6af 0bbe fddb 3e3e
000001e0: 804f 0bbf 144f d4bd 54b3 283f 69bb 0f3f
000001f0: 0adb b7be eeda 97be 96fd df3d 20b9 1cbd
00000200: ab2f 123d 49a6 193e 6cdd be3e 5f74 28bf
00000210: 8047 6f3e b085 22be 1dc8 823e 6514 55bf
00000220: 86e0 8bbe 4a36 ab3e 41c6 6e3c caa1 d1bb
00000230: 3a70 3dbe 5fca aebd c2f6 2cbd d521 3cbc
00000240: d175 28be 8492 41be 7a5d e13e a6fe ffbe
00000250: 94e1 ba3d 7ddb 1d3d ab1b 6dbe 2fac 023e
00000260: 6f2d c93e c7bc 1a3d 9a7e 563e 9737 3ebe
00000270: 580d 7abe 7add 103f 7fb8 8a3e acf8 c13d
00000280: ab22 f4be bcbf 093f 1293 75bc 31f8 67bd
00000290: 4372 363e 9933 3f3f de1e 5dbd 5589 d73e
000002a0: eb4d c0be ce60 0d3f 1500 75bd a427 4b3e
000002b0: 3251 79bd 7925 8c3b dcd8 cbbd 20d0 513e
000002c0: f1d0 e23d 9d48 bb3e b92e 14bd b6c4 bebc
000002d0: ab85 f23d 5a65 ab3e 4529 333d c9f6 d83e
000002e0: 2909 f33e 98ac 6fbe 7bd1 203e 41a9 863e
000002f0: fc9a 81be d179 8e3e f667 68bd 5a0a 073e
00000300: 9c68 c1bc ab7d 4dbe 55b1 d53e 6d89 f3be
00000310: 2749 693e 1d8a dfbd 06b0 f13d f502 cdbd
00000320: 1009 ffbe fce6 453e 4205 383e 6a57 913d
00000330: b776 ea3e 4bf0 5a3e 47f2 d5be 128b 5c3d
00000340: e9c3 29be 37ef b7bd 2f74 95be 52a1 d33e
00000350: d477 d33d f4ca ffbd 3428 ec3e 7663 023f
00000360: 681c f6bb 8dec 0c3e 90d0 073f 9823 0ebf
00000370: a673 ef3e ceb1 9a3e 963f b13d cec7 c03e
00000380: 2210 de3d e22f 553e 96e7 febe 7029 783d
00000390: 3f2c 803e 2d02 cabd 5f0b 03be 470f 88be
000003a0: d1f6 b63e e7b1 883d 7ed8 ccbb 9128 0ebe
000003b0: af02 503e b2a2 6dbd aa67 be3d 1f68 14bf
000003c0: 6470 213d fdac 293d 0187 c13e dd00 9fbe
000003d0: 4658 09be 2fff 9e3e c600 be3e 1325 973e
000003e0: a764 a3bc 5d35 97bd 2102 f63d d6c2 503e
000003f0: e637 d6bd 464a 87be a25a ee3e 5151 203e

network_body._body_endoder.seq_layers.0.bias f4 [128]
0.016533503 -0.012401257 -0.019632613 -0.021010239 -0.022624666 0.049174663 0.033409923 -0.0295542
0.06733643 -0.035297476 -0.06274208 0.009590574 -0.0057006916 0.01672722 -0.0086639635 -0.013263368
0.011229228 0.0058908435 -0.02831166 -0.0036851086 0.0030906172 -0.024201954 -0.035793003 -0.01583075
-0.060549613 0.017021598 0.03928577 0.010402855 -0.020570058 0.037832804 0.02045568 0.01997951
-0.027075935 0.062335778 -0.004476518 0.022420654 0.00955678 -0.035140675 -0.0016430002 -0.040425982
0.021997761 -0.06521562 -0.038233355 0.011688726 -0.059566427 -0.019387241 -0.05748257 -0.013506924
-0.0026827108 0.0050448696 -0.011362127 0.028230667 0.038821343 -0.00038877007 -0.00011748284 -0.01899429
-0.036421865 -0.005606958 0.013162613 -0.041092537 0.05641165 -0.03872927 0.04480941 0.05485136
0.04112466 -0.0040970813 -0.020152697 0.0054471693 -0.046465065 -0.00030916312 -0.048560005 -0.0279496
0.011292343 -0.038011353 0.07558698 0.002997689 0.05588692 0.017927134 -0.01661961 0.026954284
0.06072269 0.034562886 -0.044394955 0.00908682 0.026131896 0.044838235 -0.026742443 0.049841926
-0.016280552 0.024200914 -0.004040864 0.0615982 0.018756542 0.0017818732 -0.063865736 -0.019625835
-0.019784546 0.049717974 -0.0420372 0.021391964 -0.016818268 -0.026886389 0.057415027 -0.02286462
-0.02540914 0.02396856 0.03418109 -0.06723733 -0.01631144 -0.022366375 -0.015615048 -0.036903538
-0.025642646 -0.007590928 -0.022198865 -0.04371255 0.029245116 -0.00515252 0.04152734 -0.023548463
-0.054860417 -0.026311893 -0.0022683425 -0.021753192 -0.03404856 0.005197808 0.06063277 -0.0188313
00000000: 4571 873c a42e 4bbc 93d4 a0bc aa1d acbc
00000010: 5d57 b9bc 5f6b 493d d8d8 083d a61b f2bc
00000020: afe7 893d 1694 10bd eb7e 80bd c821 1d3c
00000030: decc babb 8607 893c 4cf3 0dbc 994e 59bc
00000040: ccfa 373c fa07 c13b dbed e7bc dd81 71bb
00000050: f48b 4a3b 2d43 c6bc af9b 12bd 7daf 81bc
00000060: df02 78bd e170 8b3c 1eea 203d bd70 2a3c
00000070: 8a82 a8bc 92f6 1a3d ac92 a73c 12ac a33c
00000080: 5ace ddbc cd53 7f3d c1af 92bb 85ab b73c
00000090: 0a94 1c3c abef 0fbd f059 d7ba b795 25bd
000000a0: a634 b43c c48f 85bd 949a 1cbd 1282 3f3c
000000b0: edfb 73bd fed1 9ebc d872 6bbd 254c 5dbc
000000c0: 6bd0 2fbb 6f4f a53b 3728 3abc 0044 e73c
000000d0: 2103 1f3d d6d3 cbb9 1f61 f6b8 ea99 9bbc
000000e0: 182f 15bd 93ba b7bb 00a8 573c a650 28bd
000000f0: e70f 673d 95a2 1ebd 128a 373d d2ab 603d
00000100: 5572 283d cf40 86bb 4517 a5bc 2b7e b23b
00000110: 2752 3ebd 2c17 a2b9 dbe6 46bd 8ff6 e4bc
00000120: 8503 393c cbb1 1bbd 59cd 9a3d e074 443b
00000130: afe9 643d eddb 923c d925 88bc 3bcf dc3c
00000140: 5bb8 783d d091 0d3d 7cd7 35bd e3e0 143c
00000150: 8f12 d63c 4ca8 373d f812 dbbc 0c27 4c3d
00000160: cb5e 85bc ff40 c63c 3969 84bb 654e 7c3d
00000170: 52a7 993c be8d e93a 0acc 82bd 5cc6 a0bc
00000180: 3313 a2bc 13a5 4b3d 332f 2cbd 333e af3c
00000190: 77c6 89bc d840 dcbc 052c 6b3d 954e bbbc
000001a0: d426 d0bc b759 c43c 7801 0c3d bab3 89bd
000001b0: 929f 85bc b039 b7bc 42d6 7fbc 2a28 17bd
000001c0: 8710 d2bc 52bd f8bb 65da b5bc ee0b 33bd
000001d0: 7493 ef3c 78d6 a8bb 9218 2a3d b5e8 c0bc
000001e0: 51b5 60bd 0a8c d7bc 79a8 14bb c033 b2bc
000001f0: 8176 0bbd 6052 aa3b 115a 783d 1944 9abc

network_body._body_endoder.seq_layers.2.weight f4 [128, 128]
-0.14744829 0.0477505 0.011095088 0.011772142 -0.022180336 -0.16394849 -0.011888704 -0.048692327
-0.15713486 -0.09352419 0.08756213 0.10118646 0.13121006 0.0014963029 0.15700085 -0.020834457
-0.004820074 0.05702182 0.028962456 0.16616556 -0.09372401 0.10063705 -0.06320698 0.08033318
-0.052753758 -0.23762815 -0.019240484 0.107298315 0.025160808 0.024949402 0.03860445 0.10098699
-0.0566089 0.06559687 0.04656746 0.13310467 -0.015032932 0.10837444 0.0555656 -0.018045181
0.00896573 -0.120772995 -0.09641073 -0.002580078 0.0020856846 0.03960447 -0.020894896 0.12375083
0.1128957 -0.09191865 -0.027737556 -0.16374055 -0.12513769 -0.13350205 0.058194675 -0.04205215
0.003886592 -0.11740463 0.09911374 -0.045141615 -0.021350134 0.009835737 0.09210269 0.048614785
0.029950058 -0.0835546 -0.040934592 0.09230178 -0.07523454 0.077078626 -0.007951464 -0.055759035
-0.079132766 -0.065169506 -0.10276086 -0.063453875 -0.08526681 0.11278205 -0.0002806256 0.03786997
-0.10330012 0.02662461 0.07205573 0.18846656 0.048792537 -0.04138176 -0.06487246 -0.1073887
-0.016855339 0.03710851 -0.13592444 0.12338673 -0.07198351 -0.030492617 0.038435686 -0.039291527
0.07576442 0.1856823 -0.046792075 -0.00061983493 -0.21310513 0.0432048 0.015546781 -0.16200598
0.0934078 -0.29622537 -0.06956869 -0.28104195 -0.0039707515 -0.07498206 0.049275048 -0.017765693
0.020229518 -0.018734867 0.20647547 -0.17125142 0.16462766 0.07845238 0.041189477 0.009706085
-0.050619837 -0.09160089 -0.18206105 -0.04838556 -0.023133846 0.12738559 0.016366003 0.1655167
-0.12331413 0.116870865 0.014999391 -0.042122275 0.019552523 0.020260032 -0.057699375 0.055360854
-0.07294387 -0.077169724 0.011188395 0.15249619 -0.12518232 0.03599756 0.1205414 -0.0659232
0.037655763 -0.0075855977 -0.15672761 0.023469433 -0.17065556 -0.0041857082 -0.019748444 0.020342063
0.017013451 -0.031944484 0.11430401 0.004155574 0.14851718 0.12716258 0.08481093 0.0021015967
0.07539009 0.052792482 0.13513814 0.045713913 -0.053467326 0.01559262 0.12389357 -0.03375072
0.00091408606 -0.087125935 0.09022277 0.064243175 -0.07323051 0.118542194 0.12152523 -0.07409329
-0.12747566 -0.117864564 0.024064843 0.26878616 0.059841298 0.07363362 -0.039849985 -0.10339533
0.10393901 0.02191249 0.020588966 0.059011634 0.029638872 0.018494902 -0.0001490219 0.03146359
0.10585834 0.05561076 -0.059200373 -0.07713222 0.031928245 0.06861745 -0.049243413 0.0705258
-0.07980441 0.09760158 0.029094664 0.13582547 -0.09452739 0.044391338 0.05453668 0.018555015
0.122786954 0.03224386 0.030798959 0.032866 -0.022843985 -0.13943744 0.08274806 -0.027573865
-0.05088796 -0.11738594 -0.024025729 -0.06520127 -0.05486429 -0.07628008 0.08543657 0.10152975
-0.021036534 -0.0065211854 -0.11885814 -0.061775725 0.039523646 0.077954315 0.06829236 -0.09802376
0.110559486 -0.05269784 0.0044356566 0.11917639 -0.13900606 0.080573566 -0.0057785506 0.005791499
0.026177421 -0.060595255 -0.17380938 0.05591462 -0.063971035 -0.079391584 -0.116833255 0.05598547
0.036115326 0.0691287 0.011353449 0.11803675 0.057610996 -0.0049610073 -0.02012518 -0.14979506
00000000: affc 16be 0796 433d 2cc8 353c f1df 403c
00000010: 89b3 b5bc 1de2 27be d7c8 42bc 9b71 47bd
00000020: f6e7 20be 9c89 bfbd c653 b33d d93a cf3d
00000030: ee5b 063e 981f c43a d5c4 203e 06ad aabc
00000040: b6f1 9dbb b68f 693d ac42 ed3c 4e27 2a3e
00000050: 60f2 bfbd cc1a ce3d a972 81bd b985 a43d
00000060: 5314 58bd cb54 73be 389e 9dbc 38bf db3d
00000070: 0a1e ce3c b062 cc3c b31f 1e3d 44d2 ce3d
00000080: bcde 67bd a757 863d 85bd 3e3d 974c 083e
00000090: b04c 76bc 6bf3 dd3d c198 633d 7dd3 93bc
000000a0: ffe4 123c d557 f7bd fd72 c5bd 8716 29bb
000000b0: fbaf 083b 4c38 223d c62b abbc 1371 fd3d
000000c0: dc35 e73d d83f bcbd df39 e3bc 9aab 27be
000000d0: 1824 00be c3b4 08be 8a5d 6e3d e03e 2cbd
000000e0: 32b6 7e3b d771 f0bd 25fc ca3d 6ae6 38bd
000000f0: 7ae6 aebc 1226 213c 56a0 bc3d 4c20 473d
00000100: d359 f53c ad1e abbd 08ab 27bd b708 bd3d
00000110: 9114 9abd 66db 9d3d db46 02bc 9663 64bd
00000120: 5c10 a2bd 9777 85bd 4974 d2bd 1bf4 81bd
00000130: 5ea0 aebd 47fa e63d ee20 93b9 8b1d 1b3d
00000140: 038f d3bd db1b da3c f491 933d 61fd 403e
00000150: afda 473d ec7f 29bd dadb 84bd 9bee dbbd
00000160: 3514 8abc 18ff 173d c72f 0bbe 2fb2 fc3d
00000170: 176c 93bd a7cb f9bc bd6e 1d3d 27f0 20bd
00000180: 602a 9b3d 8023 3e3e 0ca9 3fbd 6b7c 22ba
00000190: 3b38 5abe 84f7 303d edb7 7e3c e5e4 25be
000001a0: 974c bf3d daaa 97be 087a 8ebd bbe4 8fbe
000001b0: 141d 82bb 3290 99bd a2d4 493d 5c89 91bc
000001c0: 60b8 a53c dd79 99bc 4e6e 533e 885c 2fbe
000001d0: 2794 283e a4ab a03d 4cb6 283d 4506 1f3c
000001e0: bf56 4fbd 3f99 bbbd 366e 3abe f02f 46bd
000001f0: 3183 bdbc 5e71 023e ff11 863c 367d 293e
00000200: 1e8c fcbd fe59 ef3d 01c0 753c 6888 2cbd
00000210: 9d2c a03c 5ef8 a53c 2e56 6cbd 10c2 623d
00000220: 9963 95bd 290b 9ebd 884f 373c f627 1c3e
00000230: cb2f 00be 2d72 133d 69de f63d be02 87bd
00000240: ee3c 1a3d 9b90 f8bb 347d 20be f842 c03c
00000250: 55c0 2ebe 4428 89bb 7dc7 a1bc 66a4 a63c
00000260: cb5f 8b3c 38d8 02bd 3918 ea3d 7b2b 883b
00000270: e314 183e e836 023e 5ab1 ad3d f1ba 093b
00000280: 1f66 9a3d ee3c 583d a761 0a3e 833e 3b3d
00000290: 8e00 5bbd 3078 7f3c e9bb fd3d 323e 0abd
000002a0: 479f 6f3a 156f b2bd b7c6 b83d ed91 833d
000002b0: e1f9 95bd 40c6 f23d 38e2 f83d 39be 97bd
000002c0: fb88 02be fa62 f1bd a223 c53c 579e 893e
000002d0: 261c 753d 39cd 963d bd39 23bd eec0 d3bd
000002e0: fadd d43d d281 b33c 31aa a83c 2fb6 713d
000002f0: 38cd f23c 9f82 973c c342 1cb9 f7df 003d
00000300: 42cc d83d 1cc8 633d 177c 72bd 7ff7 9dbd
00000310: 31c7 023d 4e87 8c3d 76b3 49bd d56f 903d
00000320: 7f70 a3bd 56e3 c73d ef57 ee3c d515 0b3e
00000330: 9497 c1bd b1d3 353d db61 5f3d b000 983c
00000340: ba77 fb3d 2312 043d 194e fc3c 809e 063d
00000350: 4f23 bbbc b0c8 0ebe d177 a93d 96e2 e1bc
00000360: e56f 50bd 0a68 f0bd 9bd1 c4bc 3e88 85bd
00000370: 61b9 60bd bb38 9cbd 5ef9 ae3d d4ee cf3d
00000380: cf54 acbc abaf d5bb e66b f3bd 8b08 7dbd
00000390: 8ce3 213d 83a6 9f3d dddc 8b3d aec0 c8bd
000003a0: 036d e23d b1d9 57bd fc58 913b c012 f43d
000003b0: 9b57 0ebe c103 a53d ff59 bdbb 9dc6 bd3b
000003c0: 0872 d63c bb32 78bd 16fb 31be bb06 653d
000003d0: 3f03 83bd 0e98 a2bd 4646 efbd 0551 653d
000003e0: aaed 133d 5993 8d3d d103 3a3c 40bd f13d
000003f0: 82f9 6b3d f28f a2bb 90dd a4bc e063 19be

network_body._body_endoder.seq_layers.2.bias f4 [128]
0.022347769 -0.00888302 -0.030038344 0.044499118 -0.0024506268 -0.00068793236 -0.0136484075 0.04046993
-0.025042834 0.049464315 0.0072656726 0.03791353 0.04622704 -0.0050883195 -0.016398614 0.03498209
0.03620596 0.0063395873 -0.008706946 -0.0060900063 0.028854793 0.0030725468 0.023713175 0.05098832
0.04518472 0.044442054 -0.0040054657 0.0009256326 -0.012008872 0.0420407 -0.012899553 0.032853168
-0.0067668557 0.008499962 -0.0014511683 0.04496974 0.0029803314 0.065882765 0.05739442 -0.019830255
-0.005388126 0.021994967 -0.003363202 -0.013506126 0.014902371 0.04525732 0.043129873 0.028652031
0.020128096 0.02844832 -0.024089577 0.042117096 0.046531454 0.0007871361 -0.02335286 -0.04201669
-0.023089387 -0.007279613 -0.0025544548 -0.038087457 -0.012402668 0.049543504 0.027466472 0.018009966
-0.0037549892 -0.025998138 -0.0048173717 -0.012309551 0.03505078 -0.025113408 -0.0121476855 0.03512514
-0.0016525455 -0.015310024 -0.00076772517 -0.021014225 -0.012575709 -0.013273655 -0.010062027 -0.008196299
0.042043082 -0.024439376 0.03463035 -0.03258599 -0.0061731176 -0.00663076 0.02554531 -0.00842908
-0.013168536 -0.014697749 0.050316785 0.00034735253 0.034565907 0.033674065 -0.0039352067 -0.013141958
0.038673833 0.001622684 -0.008665029 -0.0012379508 0.040162973 0.03877032 0.006631203 0.040255044
0.008641405 0.0006424092 0.06191312 -0.0066866763 -0.017146816 -0.0013664943 -0.0020474263 0.01499283
0.03332789 0.042829923 0.027716337 -0.016164375 -0.015251434 0.034832332 -0.018115127 -0.0027695808
-0.0711137 -0.0049867486 -0.0008206623 0.009525374 0.03865166 -0.013981555 0.08617545 0.04365217
00000000: ab12 b73c 168a 11bc f912 f6bc b544 363d
00000010: b29a 20bb 5c56 34ba 929d 5fbc ccc3 253d
00000020: a126 cdbc 189b 4a3d e114 ee3b 384b 1b3d
00000030: 9158 3d3d ebbb a6bb 6356 86bc 6149 0f3d
00000040: b34c 143d 50bc cf3b 94a7 0ebc ad8e c7bb
00000050: e360 ec3c c85c 493b 2242 c23c 21d9 503d
00000060: 9d13 393d df08 363d 4840 83bb 27a6 723a
00000070: dcc0 44bc de32 2c3d a658 53bc 0b91 063d
00000080: 80bc ddbb 6d43 0b3c 2135 beba 3132 383d
00000090: aa51 433b 8bed 863d 6916 6b3d 0f73 a2bc
000000a0: e08e b0bb ca2e b43c 2b69 5cbb cc48 5dbc
000000b0: 1329 743c bd5f 393d f3a8 303d aab7 ea3c
000000c0: ade3 a43c 740c e93c 8157 c5bc fa82 2c3d
000000d0: c497 3e3d cf57 4e3a 7f4e bfbc b119 2cbd
000000e0: f425 bdbc d289 eebb a468 27bb 9801 1cbd
000000f0: 8f34 4bbc 21ee 4a3d 5e01 e13c a389 933c
00000100: 4416 76bb 0cfa d4bc 0bdb 9dbb 00ae 49bc
00000110: 6891 0f3d a2ba cdbc 1607 47bc 61df 0f3d
00000120: 3a9a d8ba e5d6 7abc 2a41 49ba 0626 acbc
00000130: 590a 4ebc bf79 59bc 33db 24bc c549 06bc
00000140: 5e35 2c3d 1635 c8bc 8ed8 0d3d e378 05bd
00000150: dd47 cabb d946 d9bb 6644 d13c 201a 0abc
00000160: d8c0 57bc d4ce 70bc f918 4e3d de1c b639
00000170: fb94 0d3d d1ed 093d e8f2 80bb 5e51 57bc
00000180: 7468 1e3d 3db0 d43a c4f7 0dbc bc42 a2ba
00000190: ee81 243d a1cd 1e3d 904a d93b 79e2 243d
000001a0: ae94 0d3c 5a67 283a 9d98 7d3d e81b dbbb
000001b0: 7b77 8cbc f11b b3ba 1d2e 06bb 7da4 753c
000001c0: d382 083d 6e6e 2f3d 5f0d e33c 276b 84bc
000001d0: 27e1 79bc 59ac 0e3d 2d66 94bc db81 35bb
000001e0: 0fa4 91bd e167 a3bb b721 57ba 5010 1c3c
000001f0: 3451 1e3d e412 65bc c17c b03d 9ecc 323d

action_model._continuous_distribution.log_sigma f4 [1, 2]
0.006546283 -0.015016737
00000000: 3482 d63b c308 76bc

action_model._continuous_distribution.mu.weight f4 [2, 128]
-0.023396278 0.01325136 0.02109335 -0.016042113 -0.0021901743 -0.010848276 -0.009289021 -0.021847771
0.016563717 -0.05069898 -0.029305732 -0.012647914 -0.013989685 -0.0134224715 -0.013493352 -0.017445952
-0.016192405 0.017486593 0.02001697 0.010198608 0.0026088613 0.018505253 -0.006995215 -0.038460366
-0.029998232 -0.021486625 0.010866588 -0.009936407 0.015846046 -0.014757348 0.0029614095 -0.028770996
-0.0121953115 -0.026880544 0.01945503 -0.039965328 -0.015164056 -0.02788284 -0.015289939 0.010442549
0.008466685 -0.008376426 -0.012576333 -0.0111341635 -0.026938621 -0.014807439 -0.031620402 0.018305207
-0.04712214 -0.029479833 0.011517893 -0.011098406 -0.010017046 0.03242949 -0.0055584945 0.012690543
0.017741848 -0.005595394 -0.007409595 0.038726922 0.010336415 -0.018980995 -0.028854357 -0.0005632286
-0.007638674 0.010418373 -0.008797926 0.017765379 -0.024617417 0.016970495 0.01963483 -0.020502448
-0.020229371 0.021226097 -0.0212687 0.015914505 0.008862082 -0.0091034565 0.00233839 0.011938881
-0.011676022 0.009455615 -0.014210013 0.013826133 0.00025129868 -0.0036171153 -0.009819636 -0.0046610297
-0.001436693 0.008305466 -0.04303236 -0.017493283 0.003856118 -0.015998268 0.0013892691 -0.016766978
-0.032687746 0.0029842674 0.0073658843 -0.0074610533 0.0018174333 -0.027927252 0.026630158 -0.0038121683
-0.0292508 -0.015530197 -0.027387803 -0.014889908 0.021435559 0.016801128 -0.0033164993 0.011628122
-0.0310192 -0.025586493 -0.016804587 0.0059746457 0.032390583 -0.019384548 -0.01812131 -0.0027337074
0.017377082 0.026717307 0.025061559 -0.010950642 -0.010055048 -0.0041577946 -0.02821559 -0.033227976
-0.024198346 -0.019022703 -0.013008899 0.073126405 -0.008456119 -0.029017244 -0.004548453 0.063525654
-0.006384409 0.03586506 -0.04321696 0.023193447 0.030375937 -0.008022668 -0.013447252 0.020407965
0.03477605 0.023297576 -0.045177024 -0.035314284 0.02116265 0.0097617265 0.00021429431 0.034176145
0.03342285 0.022424808 -0.028501755 -0.012580621 -0.029256823 0.042115908 -0.01520899 0.025963156
-0.060537126 -0.0045724167 0.02354237 0.038501665 -0.038246945 0.073987216 0.072614804 -0.028635666
-0.024225539 0.048754618 -0.046222415 -0.01923406 -0.028606836 0.01694225 0.07125142 0.028907353
-0.036167003 0.008273996 0.0007934219 0.03255809 0.022807289 0.03569646 -0.017195972 -0.021371674
-0.0018108473 -0.03755236 -0.027574046 -0.021436442 -0.07783641 0.06397398 -0.018589955 0.06376375
-0.016476247 0.0069623413 -0.022400437 0.011894648 0.05144045 -0.038168292 -0.038029004 0.07664894
-0.03363246 -0.021909313 -0.016643817 -0.038596433 0.00051768136 -0.013443909 -0.06330171 -0.034678258
0.048711315 -0.055934284 0.06411985 -0.012225693 -0.011848312 -0.01871788 -0.0074170465 -0.032601796
-0.024063168 -0.011218337 0.05141317 -0.030896852 0.048914958 0.023759225 -0.031481925 -0.054075055
0.049256485 0.010539641 0.012577571 -0.024698721 0.0597688 0.027704708 0.06361303 0.05817851
-0.034893975 -0.032704182 0.031254385 -0.024303656 -0.0075470796 0.027792959 -0.025749857 0.025274256
0.038963217 0.07155642 0.037487846 -0.010478378 -0.01845385 0.022420997 -0.029568307 -0.03763781
-0.03346404 0.025132917 0.024188578 -0.05119887 0.019701675 -0.013411629 0.04002574 0.04739297
00000000: 8da9 bfbc 3b1c 593c f6cb ac3c c06a 83bc
00000010: 0789 0fbb f8bc 31bc fa30 18bc 19fa b2bc
00000020: a2b0 873c bca9 4fbd 9312 f0bc 3239 4fbc
00000030: fe34 65bc ede9 5bbc 3813 5dbc d0ea 8ebc
00000040: efa5 84bc 0b40 8f3c a1fa a33c 1018 273c
00000050: 6ef9 2a3b 5498 973c 1e38 e5bb 9e88 1dbd
00000060: dabe f5bc b804 b0bc c609 323c 50cc 22bc
00000070: 91cf 813c cec8 71bc 3514 423b 27b1 ebbc
00000080: d8ce 47bc 9634 dcbc 2860 9f3c afb2 23bd
00000090: a972 78bc 8e6a e4bc a782 7abc 3a17 2b3c
000000a0: dab7 0a3c 473d 09bc f70c 4ebc 116c 36bc
000000b0: 62ae dcbc e79a 72bc 6584 01bd cdf4 953c
000000c0: 2503 41bd b17f f1bc 8bb5 3c3c 17d6 35bc
000000d0: 891e 24bc c9d4 043d 0824 b6bb ffeb 4f3c
000000e0: 5a57 913c 9159 b7bb 30cc f2bb 1fa0 1e3d
000000f0: 115a 293c 087e 9bbc f95f ecbc a2a5 13ba
00000100: d84d fabb d3b1 2a3c 2d25 10bc b388 913c
00000110: 77aa c9bc b505 8b3c 39d9 a03c c0f4 a7bc
00000120: 11b8 a5bc 5ae2 ad3c b23b aebc 235f 823c
00000130: 4432 113c aa26 15bc ad3f 193b 4c9b 433c
00000140: c94c 3fbc b9eb 1a3c 1dd1 68bc 0187 623c
00000150: bdc0 8339 200d 6dbb 8ae2 20bc 8dbb 98bb
00000160: 6b4f bcba a613 083c b342 30bd 134e 8fbc
00000170: edb6 7c3b cd0e 83bc 2318 b63a e75a 89bc
00000180: 96e3 05bd b393 433b 845d f13b da7b f4bb
00000190: f136 ee3a b1c7 e4bc 7d27 da3c 92d5 79bb
000001a0: 609f efbc 5e72 7ebc 635c e0bc cdf4 73bc
000001b0: a099 af3c 85a2 893c a059 59bb e183 3e3c
000001c0: fa1b febc c49a d1bc c6a9 89bc f6c6 c33b
000001d0: fdab 043d 58cc 9ebc 2473 94bc 0028 33bb
000001e0: 625a 8e3c 41de da3c e64d cd3c 526a 33bc
000001f0: eebd 24bc 1c3e 88bb 6224 e7bc 0f1a 08bd
00000200: 9c3b c6bc 80d5 9bbc 4723 55bc 4cc3 953d
00000210: 898b 0abc 92b5 edbc 300b 95bb bd19 823d
00000220: 4e34 d1bb 3ee7 123d 4404 31bd 2f00 be3c
00000230: f5d6 f83c 8271 03bc dd51 5cbc 9b2e a73c
00000240: 5571 0e3d 8fda be3c 8b0b 39bd b6a5 10bd
00000250: 4b5d ad3c a6ef 1f3c 31b4 6039 49fc 0b3d
00000260: 66e6 083d 3bb4 b73c 837c e9bc f31e 4ebc
00000270: 01ac efbc bb81 2c3d 212f 79bc afb0 d43c
00000280: c7f5 77bd 36d4 95bb eedb c03c ecb3 1d3d
00000290: d4a8 1cbd 9c86 973d 12b7 943d 5895 eabc
000002a0: a374 c6bc ecb2 473d b753 3dbd bf90 9dbc
000002b0: e258 eabc 79ca 8a3c 44ec 913d 1dcf ec3c
000002c0: da23 14bd a88f 073c a4fd 4f3a a25b 053d
000002d0: 5ad6 ba3c 7436 123d 91de 8cbc a613 afbc
000002e0: f459 edba 81d0 19bd f7e2 e1bc 7a9b afbc
000002f0: b268 9fbd ca04 833d f649 98bc 9296 823d
00000300: 32f9 86bc 5a24 e43b 1f81 b7bc c5e1 423c
00000310: 39b3 523d 5b56 1cbd 4dc4 1bbd 1ffa 9c3d
00000320: 31c2 09bd 297b b3bc 9d58 88bc 4b17 1ebd
00000330: 02b5 073a d743 5cbc 54a4 81bd ca0a 0ebd
00000340: 8485 473d 591b 65bd 4551 833d 464e 48bc
00000350: 6c1f 42bc 3d56 99bc b20a f3bb 7689 05bd
00000360: 1f20 c5bc 1ecd 37bc 9e96 523d 651b fdbc
00000370: 0d5b 483d b5a2 c23c 31f3 00bd ce7d 5dbd
00000380: 2bc1 493d 75ae 2c3c 2812 4e3c f954 cabc
00000390: 21d0 743d fcf4 e23c 8c47 823d 974c 6e3d
000003a0: fcec 0ebd d2f4 05bd 9904 003d 7618 c7bc
000003b0: 7e4d f7bb 0fae e33c 5df1 d2bc f50b cf3c
000003c0: e597 1f3d 2c8c 923d db8c 193d 81ad 2bbc
000003d0: 872c 97bc 3dac b73c 3c39 f2bc 1b2a 1abd
000003e0: 9711 09bd 8ce3 cd3c 2027 c63c e8b5 51bd
000003f0: 6865 a13c 73bc 5bbc 08f2 233d 221f 423d

action_model._continuous_distribution.mu.bias f4 [2]
-0.019618463 0.018096335
00000000: e6b6 a0bc c43e 943c

action_model._discrete_distribution.branches.0.weight f4 [1, 128]
0.013317267 -0.0031414942 -0.0030831033 -0.003591962 -0.0041497755 0.00022113141 0.010656554 0.008958883
-0.00772896 0.000992637 0.002502207 -0.004340661 0.004335513 -0.003629004 -0.009684466 0.0025845715
-0.007375033 -0.01793005 0.0076611987 0.00018526544 0.0020058432 -0.0023144842 0.0021623082 0.0017607078
0.0034087256 -0.004388138 0.0003852151 -0.032897957 0.006415146 -0.0018094499 0.007840303 0.0048304372
0.006135507 0.0032510736 0.0037156015 0.0046379953 0.011237814 0.0015008451 0.01034792 -0.004024209
-0.013816516 -0.00024448865 0.0043180534 -0.013367402 -0.010496041 0.019597033 0.0030365428 0.00052789546
-0.006226747 0.004177216 0.003806483 0.0053029116 0.0034769718 -0.0030420758 0.013171257 0.005919176
-0.002454073 -0.019120948 0.010051654 0.0036840488 -0.008464109 -0.002661593 0.012505322 0.004206164
0.0026869832 0.007285467 -0.0067864954 0.0037015087 0.018269522 -0.008537394 -0.0027670073 -0.009920229
0.015583296 -0.0063791634 0.004147958 -0.011321946 -0.01592433 -0.0036087674 0.0035990302 -0.011198542
-0.009827766 0.009165617 0.0021897038 -0.013153138 0.00011210032 0.004052669 -0.0017733697 -0.0063615725
-0.0016775363 -0.008640295 0.008659188 -0.0059365514 -0.0023546263 0.0031685454 -0.010384969 -0.008916504
-0.010730245 -0.0065411227 -0.011984982 -0.005384856 0.011147342 -0.013605711 0.006511374 -0.0018728375
-0.0040398235 -0.005309347 0.0116632255 0.017470261 -0.014702248 0.014656271 0.0068456787 -0.0023994918
0.0020737327 -0.0021714156 0.012881609 -0.018054444 -0.0032530369 -0.0016562842 0.014124259 -0.009435075
-0.008663114 -0.003351595 0.001959812 0.0035716381 -0.020318946 -0.003823068 0.0024886075 0.0036916535
00000000: ab30 5a3c 87e1 4dbb e40d 4abb 1f67 6bbb
00000010: d7fa 87bb 83df 6739 d498 2e3c 47c8 123c
00000020: 3743 fdbb 5f1b 823a 11fc 233b 1b3c 8ebb
00000030: eb10 8e3b 95d4 6dbb 98ab 1ebc ea61 293b
00000040: 43aa f1bb 0ae2 92bc cb0a fb3b d043 4239
00000050: 7774 033b 9aae 17bb 83b5 0d3b 8dc7 e63a
00000060: ed64 5f3b 5fca 8fbb b2f6 c939 02c0 06bd
00000070: 2536 d23b 102b edba 9d74 003c a548 9e3b
00000080: 5d0c c93b f70f 553b 7381 733b 53fa 973b
00000090: cf1e 383c 01b8 c43a 528a 293c 83dd 83bb
000000a0: ab5e 62bc b62e 80b9 757e 8d3b f302 5bbc
000000b0: 96f7 2bbc f589 a03c bc00 473b 7762 0a3a
000000c0: bd09 ccbb 07e1 883b 3076 793b 0cc4 ad3b
000000d0: e8dd 633b 905d 47bb 42cc 573c a6f5 c13b
000000e0: 83d4 20bb 89a3 9cbc b1af 243c 1570 713b
000000f0: 0cad 0abc 1f6e 2ebb 1fe3 4c3c dcd3 893b
00000100: 1918 303b edba ee3b 4061 debb 0395 723b
00000110: f7a9 953c 6de0 0bbc ae56 35bb 7588 22bc
00000120: 1551 7f3c 4d08 d1bb 98eb 873b af7f 39bc
00000130: be73 82bc 1281 6cbb b5dd 6b3b 177a 37bc
00000140: a304 21bc 622b 163c 2281 0f3b 4280 57bc
00000150: 6717 eb38 40cc 843b 6a70 e8ba bd74 d0bb
00000160: c7e0 dbba 0690 0dbc 44df 0d3c 6787 c2bb
00000170: 1350 1abb 5fa7 4f3b b825 2abc 8716 12bc
00000180: e9cd 2fbc ea56 d6bb a85c 44bc 7273 b0bb
00000190: 57a3 363c 7dea 5ebc 5d5d d53b 007a f5ba
000001a0: 7f60 84bb 08fa adbb 1d17 3f3c cb1d 8f3c
000001b0: b3e1 70bc db20 703c b751 e03b cb40 1dbb
000001c0: 76e7 073b 4f4e 0ebb 620d 533c eae6 93bc
000001d0: e730 55bb ad17 d9ba 7069 673c 9395 1abc
000001e0: bcef 0dbc 6fa6 5bbb 3070 003b 2512 6a3b
000001f0: eb73 a6bc 708c 7abb e817 233b abef 713b

exp_avg f4 [128, 12]
2.9349681e-05 3.9598475e-05 -4.246416e-06 2.2161112e-05 -0.00018017294 0.0 -1.0381045e-05 -0.00018338629
-4.307846e-07 -1.0381047e-05 -0.00018647537 -2.078927e-05 -1.6928814e-05 -2.1500073e-05 3.2296068e-06 -6.6224047e-06
-2.6891466e-05 0.0 3.1018803e-06 -2.6529335e-05 1.2871584e-07 3.1018812e-06 -2.6200323e-05 6.212368e-06
-1.6012987e-06 -5.888178e-07 6.492968e-07 4.5926818e-06 6.0894432e-05 0.0 -2.1520577e-06 6.095457e-05
-8.9312266e-08 -2.152051e-06 6.103577e-05 -4.3086e-06 2.1758817e-05 3.214146e-05 -1.5116938e-06 2.7194998e-05
-0.00017431028 0.0 -1.2740256e-05 -0.00017790956 -5.286982e-07 -1.2740256e-05 -0.00018135848 -2.5511916e-05
-8.015638e-06 -9.387831e-06 1.4207736e-06 -3.0358024e-08 -6.5471395e-05 0.0 1.3942326e-08 -6.595438e-05
5.7521277e-10 1.39393705e-08 -6.643419e-05 2.8379873e-08 1.4396239e-05 1.7413302e-05 -2.7183132e-06 2.5763893e-06
2.2150281e-05 0.0 -1.2063492e-06 2.2096992e-05 -5.00537e-08 -1.2063465e-06 2.2055909e-05 -2.4167384e-06
6.278438e-06 7.34893e-06 -1.3028738e-06 2.677789e-07 -8.207893e-06 0.0 -1.250728e-07 -8.290628e-06
-5.1857256e-09 -1.2507235e-07 -8.371599e-06 -2.5108147e-07 -2.172853e-05 -2.8195656e-05 3.446232e-06 -1.1385062e-05
7.805824e-05 0.0 5.3329004e-06 7.9601276e-05 2.212974e-07 5.332912e-06 8.108125e-05 1.0680193e-05
1.33348985e-05 1.5942725e-05 -2.788952e-06 2.0479656e-06 -2.9305957e-06 0.0 -9.586565e-07 -3.1244635e-06
-3.9774022e-08 -9.586493e-07 -3.3076285e-06 -1.9209601e-06 -8.116967e-06 -9.984029e-06 1.5785527e-06 -2.1382803e-06
1.8606243e-05 0.0 1.0013314e-06 1.8924922e-05 4.1548873e-08 1.0013337e-06 1.9231531e-05 2.005805e-06
-2.9323317e-05 -3.9256953e-05 3.7408033e-06 -1.985619e-05 2.1370402e-05 0.0 9.301718e-06 2.3213215e-05
3.8599953e-07 9.301719e-06 2.4951561e-05 1.8627165e-05 1.5092531e-05 2.003811e-05 -1.9490935e-06 8.683564e-06
0.0001463221 0.0 -4.068167e-06 0.00014666816 -1.6882323e-07 -4.0681675e-06 0.00014705225 -8.146182e-06
-2.170653e-05 -2.920923e-05 3.1739999e-06 -1.544558e-05 8.29609e-05 0.0 7.235375e-06 8.4885585e-05
3.0024896e-07 7.235374e-06 8.6725704e-05 1.4489475e-05 1.6630727e-05 2.0836585e-05 -2.8671113e-06 6.0052607e-06
-1.3679997e-05 0.0 -2.8126706e-06 -1.4289639e-05 -1.1671236e-07 -2.812666e-06 -1.4867299e-05 -5.633401e-06
7.785443e-06 1.2005932e-05 -5.167696e-07 1.2109132e-05 -0.00015270198 0.0 -5.6727445e-06 -0.0001548605
-2.3540748e-07 -5.67274e-06 -0.00015694839 -1.13596725e-05 7.656314e-06 1.2691631e-05 -3.9087573e-07 1.5156945e-05
-0.0001544932 0.0 -7.100763e-06 -0.00015692446 -2.9466986e-07 -7.1007635e-06 -0.0001592691 -1.4218914e-05
5.644383e-06 1.01878195e-05 6.097051e-07 1.4387606e-05 -4.8187692e-05 0.0 -6.74074e-06 -4.9766233e-05
-2.7973402e-07 -6.7407345e-06 -5.1267365e-05 -1.3497328e-05 3.326737e-05 4.959891e-05 -2.8266816e-06 4.3521355e-05
-0.00032088417 0.0 -2.0388648e-05 -0.0003269549 -8.4609144e-07 -2.0388645e-05 -0.00033278298 -4.082779e-05
7.995086e-06 1.1895803e-05 -3.182418e-07 1.033833e-05 -9.984422e-05 0.0 -4.843298e-06 -0.000101461635
-2.0098875e-07 -4.843299e-06 -0.00010302024 -9.698504e-06 -9.5526875e-06 -1.241561e-05 1.6690384e-06 -5.116118e-06
1.9317904e-05 0.0 2.3964521e-06 1.9894742e-05 9.9444904e-08 2.3964535e-06 2.0443982e-05 4.7993817e-06
1.0109555e-05 1.42570225e-05 -7.798991e-07 9.8965575e-06 -8.224764e-06 0.0 -4.6363234e-06 -9.12523e-06
-1.9239914e-07 -4.636323e-06 -9.973672e-06 -9.284063e-06 -4.2291256e-05 -5.822447e-05 4.905549e-06 -3.5425877e-05
00000000: f633 f637 8a16 2638 707c 8eb6 a0e6 b937
00000010: ceec 3cb9 0000 0000 402a 2eb7 624b 40b9
00000020: 9646 e7b4 422a 2eb7 9a88 43b9 9e64 aeb7
00000030: 5a02 8eb7 0e5b b4b7 39bc 5836 0636 deb6
00000040: fc94 e1b7 0000 0000 e629 5036 508b deb7
00000050: 2435 0a34 ea29 5036 c4c8 dbb7 d673 d036
00000060: 34ec d6b5 400f 1eb5 564b 2e35 d61a 9a36
00000070: e668 7f38 0000 0000 126c 10b6 79a9 7f38
00000080: f0cb bfb3 f46b 10b6 5400 8038 9892 90b6
00000090: b486 b637 a1cf 0638 67e5 cab5 d020 e437
000000a0: 0fc7 36b9 0000 0000 fcbe 55b7 3c8d 3ab9
000000b0: ddeb 0db5 fcbe 55b7 0c2b 3eb9 6c02 d6b7
000000c0: e77a 06b7 6d80 1db7 69b1 be35 0063 02b3
000000d0: b04d 89b8 0000 0000 0087 6f32 fd50 8ab8
000000e0: 001d 1e30 007a 6f32 9652 8bb8 00c8 f332
000000f0: 6087 7137 c812 9237 446c 36b6 08e6 2c36
00000100: 5ecf b937 0000 0000 d8e9 a1b5 ee5c b937
00000110: a0fa 56b3 c0e9 a1b5 b404 b937 402f 22b6
00000120: 5fab d236 d496 f636 67de aeb5 40c3 8f34
00000130: a2b4 09b7 0000 0000 c04b 06b4 fa17 0bb7
00000140: 202e b2b1 a04b 06b4 be73 0cb7 60cc 86b4
00000150: aa45 b6b7 b685 ecb7 d145 6736 7802 3fb7
00000160: 33b3 a338 0000 0000 44f1 b236 9cef a638
00000170: c49d 6d34 5ef1 b236 2a0a aa38 142f 3337
00000180: f4b8 5f37 bebc 8537 d529 3bb6 c86f 0936
00000190: 40ab 44b6 0000 0000 30ab 80b5 e0ad 51b6
000001a0: 00d4 2ab3 f0aa 80b5 a0f8 5db6 d8e9 00b6
000001b0: 1c2e 08b7 1481 27b7 a8de d335 607f 0fb6
000001c0: 9a14 9c37 0000 0000 7c65 8635 f6c0 9e37
000001d0: 7873 3233 9065 8635 6653 a137 789b 0636
000001e0: 58fb f5b7 d5a7 24b8 830a 7b36 d890 a6b7
000001f0: 9744 b337 0000 0000 930e 1c37 00ba c237
00000200: 5f3b cf34 940e 1c37 124f d137 8841 9c37
00000210: ed35 7d37 8317 a837 2ccd 02b6 a0af 1137
00000220: 0a6e 1939 0000 0000 4a81 88b6 efca 1939
00000230: c745 35b4 4b81 88b6 0a32 1a39 96ab 08b7
00000240: 6b16 b6b7 5806 f5b7 e700 5536 2191 81b7
00000250: 4bfb ad38 0000 0000 66c7 f236 9a04 b238
00000260: e731 a134 64c7 f236 82e0 b538 d217 7337
00000270: 3782 8b37 3aca ae37 9968 40b6 cc80 c936
00000280: 2483 65b7 0000 0000 50c1 3cb6 88bd 6fb7
00000290: 4ca3 fab3 3cc1 3cb6 906e 79b7 8c06 bdb6
000002a0: 399e 0237 166d 4937 23b8 0ab5 5328 4b37
000002b0: a01e 20b9 0000 0000 8158 beb6 0d62 22b9
000002c0: 51c4 7cb4 7758 beb6 8392 24b9 6c95 3eb7
000002d0: 9e73 0037 24ee 5437 8dd9 d1b4 954a 7e37
000002e0: 74ff 21b9 0000 0000 1743 eeb6 178c 24b9
000002f0: 1e33 9eb4 1843 eeb6 7901 27b9 c58d 6eb7
00000300: e164 bd36 5aec 2a37 9eaa 2335 4c62 7137
00000310: 241d 4ab8 0000 0000 842e e2b6 16bc 50b8
00000320: 5a2e 96b4 782e e2b6 ea07 57b8 9572 62b7
00000330: 9188 0b38 6d08 5038 05b2 3db6 b38a 3638
00000340: 583c a8b9 0000 0000 4a08 abb7 256b abb9
00000350: f61e 63b5 4808 abb7 6079 aeb9 813e 2bb8
00000360: a222 0637 1694 4737 d2da aab4 ca72 2d37
00000370: 7563 d1b8 0000 0000 9d83 a2b6 cdc7 d4b8
00000380: 5ecf 57b4 9f83 a2b6 920c d8b8 c2b6 22b7
00000390: 7b44 20b7 a44c 50b7 b903 e035 1eab abb6
000003a0: e20c a237 0000 0000 bcd2 2036 a2e3 a637
000003b0: 6a8e d533 c2d2 2036 1e7f ab37 600a a136
000003c0: 359c 2937 7231 6f37 425a 51b5 6409 2637
000003d0: 18fd 09b7 0000 0000 b791 9bb6 9018 19b7
000003e0: 4696 4eb4 b691 9bb6 9854 27b7 bfc2 1bb7
000003f0: e461 31b8 0c36 74b8 589a a436 3f96 14b8

exp_avg_sq f4 [128, 12]
6.921166e-08 8.894227e-08 1.2767277e-09 9.829938e-08 9.830097e-07 0.0 3.222562e-08 1.024292e-06
3.7811584e-11 3.2225625e-08 1.0896358e-06 8.6258915e-08 4.7813856e-08 5.935225e-08 8.7541696e-10 6.452316e-08
1.1911534e-06 0.0 1.705652e-08 1.3172097e-06 3.350267e-10 1.705652e-08 1.474037e-06 5.9301144e-08
9.132092e-09 1.2251341e-08 1.5956819e-10 1.4907263e-08 8.204757e-08 0.0 3.3911756e-09 7.9195075e-08
5.528167e-12 3.3911758e-09 7.6463834e-08 1.3577979e-08 2.3007234e-09 4.0680455e-09 1.7525308e-11 3.3851324e-09
1.1182465e-07 0.0 7.522811e-10 1.1982684e-07 3.542485e-12 7.5228107e-10 1.2877395e-07 3.0271505e-09
1.2050238e-08 1.5492294e-08 2.1632869e-10 1.736077e-08 2.6942357e-07 0.0 5.3428546e-09 2.8286047e-07
8.962784e-12 5.342855e-09 3.2631795e-07 1.5269137e-08 1.7021272e-08 2.3047539e-08 3.013169e-10 3.1272705e-08
1.8997687e-07 0.0 6.7213364e-09 1.795429e-07 1.1454118e-11 6.7213364e-09 1.7094689e-07 2.7971605e-08
1.0727746e-08 1.4036876e-08 1.7247362e-10 1.3672468e-08 8.084878e-08 0.0 3.6084111e-09 8.401398e-08
5.026811e-12 3.6084113e-09 7.948467e-08 1.7405277e-08 2.0827462e-08 3.0004745e-08 3.4666872e-10 4.0824315e-08
3.2313454e-07 0.0 1.2315792e-08 3.2309828e-07 4.7838632e-11 1.2315792e-08 3.3206672e-07 3.73937e-08
4.9154607e-08 5.978242e-08 9.545075e-10 6.430775e-08 3.7149968e-07 0.0 1.395219e-08 3.5351448e-07
5.0839326e-11 1.395219e-08 3.467831e-07 5.7243376e-08 1.2166505e-08 1.5521644e-08 2.448403e-10 1.8783325e-08
3.2713442e-07 0.0 5.915619e-09 3.5780806e-07 6.9346282e-12 5.91562e-09 3.956331e-07 1.6475592e-08
8.020928e-09 1.3172135e-08 1.07122554e-10 1.7251754e-08 1.1288589e-07 0.0 3.8589785e-09 1.0707855e-07
6.436616e-12 3.8589776e-09 1.0557668e-07 1.803258e-08 3.476163e-08 4.4809113e-08 3.8872333e-10 4.0043865e-08
2.2378542e-07 0.0 2.058728e-08 2.2563852e-07 7.352794e-10 2.0587288e-08 2.312621e-07 3.5024e-08
3.970899e-08 4.986485e-08 7.643505e-10 5.4142802e-08 1.2146127e-06 0.0 1.4382418e-08 1.3450253e-06
2.0730626e-11 1.438242e-08 1.5118195e-06 4.7887863e-08 1.7800794e-08 2.4339897e-08 3.2194186e-10 3.4060687e-08
1.9684806e-07 0.0 7.371601e-09 1.8712419e-07 1.2586798e-11 7.371601e-09 1.782365e-07 2.9751035e-08
1.0375806e-08 1.33166145e-08 1.9293658e-10 1.1647499e-08 3.1461735e-07 0.0 2.4928277e-09 3.4379002e-07
1.566645e-11 2.492828e-09 3.7668588e-07 1.0358122e-08 2.816589e-08 3.654867e-08 4.2061088e-10 2.8419631e-08
6.620053e-07 0.0 5.8789364e-09 7.1834296e-07 9.65522e-10 5.8789364e-09 8.2449645e-07 2.6958514e-08
3.0027245e-08 3.6929592e-08 5.559802e-10 3.9330313e-08 8.6725754e-07 0.0 8.465159e-09 9.644644e-07
6.5772006e-11 8.465161e-09 1.0958171e-06 3.443905e-08 2.3930623e-08 3.5768565e-08 3.0340472e-10 3.2145643e-08
8.917055e-07 0.0 1.7329826e-08 9.677271e-07 1.1160862e-11 1.7329828e-08 1.0683086e-06 2.795726e-08
1.5050006e-08 1.8624455e-08 2.05266e-10 1.3840159e-08 2.2727453e-07 0.0 3.0753253e-09 2.5438524e-07
1.0087468e-10 3.0753247e-09 2.884519e-07 1.21569474e-08 4.5547083e-08 5.5308316e-08 8.229647e-10 5.0245358e-08
1.2819337e-06 0.0 1.341746e-08 1.4283446e-06 4.0230014e-10 1.341746e-08 1.6514797e-06 4.674668e-08
1.6878435e-08 2.0576163e-08 3.2256456e-10 1.9320698e-08 6.761355e-07 0.0 4.1879917e-09 7.6625366e-07
4.3793302e-11 4.1879926e-09 8.7511415e-07 1.6832946e-08 2.7694586e-08 3.8290953e-08 4.3513423e-10 4.4931355e-08
00000000: 83a1 9433 8800 bf33 dd78 af30 a818 d333
00000010: f5ef 8335 0000 0000 7268 0a33 687a 8935
00000020: 0f4c 262e 7368 0a33 9a3f 9235 573d b933
00000030: e45b 4d33 7dea 7e33 fea1 7030 fb8f 8a33
00000040: b8df 9f35 0000 0000 af83 9232 fbca b035
00000050: d12e b82f af83 9232 87d7 c535 4cb2 7e33
00000060: 5ee3 1c32 f879 5232 7472 2f2f 6b0d 8032
00000070: 2132 b033 0000 0000 310a 6931 f411 aa33
00000080: 4d81 c22c 320a 6931 7034 a433 9544 6932
00000090: c11a 1e31 e8c6 8b31 7c27 9a2d e19f 6831
000000a0: 4024 f033 0000 0000 14c9 4e30 c0a9 0034
000000b0: bd47 792c 13c9 4e30 1d45 0a34 3206 5031
000000c0: 8205 4f32 ea13 8532 1ddb 6d2f bd20 9532
000000d0: 4ba5 9034 0000 0000 3f94 b731 0cdc 9734
000000e0: caac 1d2d 4094 b731 cc30 af34 3029 8332
000000f0: 2c36 9232 13fa c532 95a6 a52f b450 0633
00000100: 72fc 4b34 0000 0000 80f1 e631 60c8 4034
00000110: c380 492d 80f1 e631 868d 3734 3646 f032
00000120: 204d 3832 d526 7132 02a3 3d2f 26e4 6a32
00000130: 169f ad33 0000 0000 d7f7 7731 2d6b b433
00000140: 7ddd b02c d8f7 7731 29b1 aa33 9c82 9532
00000150: 13e8 b232 91de 0033 4995 be2f cf56 2f33
00000160: 467b ad34 0000 0000 6d95 5332 4a76 ad34
00000170: 8365 522e 6d95 5332 e746 b234 cf9a 2033
00000180: 101e 5333 bc61 8033 bf2f 8330 8f19 8a33
00000190: 8772 c734 0000 0000 61b2 6f32 a9ca bd34
000001a0: fe97 5f2e 61b2 6f32 822d ba34 c2db 7533
000001b0: db04 5132 7554 8532 359a 862f f858 a132
000001c0: 03a1 af34 0000 0000 5642 cb31 c418 c034
000001d0: 94fd f32c 5842 cb31 6667 d434 3686 8d32
000001e0: 6acc 0932 aa4b 6232 a390 eb2e 0231 9432
000001f0: ad6b f233 0000 0000 ef97 8431 0ef3 e533
00000200: e277 e22c ed97 8431 65b9 e233 10e6 9a32
00000210: d14c 1533 2474 4033 f2b3 d52f b2fc 2b33
00000220: ab49 7034 0000 0000 e8d7 b032 0b47 7234
00000230: b01c 4a30 edd7 b032 d850 7834 4c6d 1633
00000240: 7f8c 2a33 fb2a 5633 631a 5230 a48a 6833
00000250: c605 a335 0000 0000 8b16 7732 b886 b435
00000260: 3859 b62d 8d16 7732 b9e9 ca35 43ad 4d33
00000270: 5ce8 9832 0014 d132 4afd b02f 1f4a 1233
00000280: 2f5d 5334 0000 0000 4a49 fd31 4eec 4834
00000290: e66d 5d2d 4a49 fd31 4761 3f34 388f ff32
000002a0: 4741 3232 17c7 6432 d222 542f 3e1a 4832
000002b0: aee8 a834 0000 0000 4a4e 2b31 2492 b834
000002c0: b6cd 892d 4b4e 2b31 503b ca34 81f3 3132
000002d0: 72f1 f132 b0f9 1c33 b83b e72f 6e1f f432
000002e0: a8b4 3135 0000 0000 acff c931 27d4 4035
000002f0: 49b3 8430 acff c931 f752 5d35 6692 e732
00000300: 4ef7 0033 849c 1e33 a1d3 1830 23ec 2833
00000310: 7ccd 6835 0000 0000 2a6e 1132 bf72 8135
00000320: 59a2 902e 2c6e 1132 fd13 9335 23ea 1333
00000330: ff8f cd32 f49f 1933 6bcc a62f 8210 0a33
00000340: 895d 6f35 0000 0000 b1dc 9432 dae2 8135
00000350: 0e58 442d b2dc 9432 ce62 8f35 aa26 f032
00000360: 5047 8132 9cfb 9f32 3eb1 612f aac5 6d32
00000370: bf08 7434 0000 0000 b255 5331 7192 8834
00000380: 65d3 dd2e af55 5331 87dc 9a34 d2da 5032
00000390: 8c9f 4333 238c 6d33 fe36 6230 5bcd 5733
000003a0: e80e ac35 0000 0000 9d82 6632 8cb5 bf35
000003b0: b62a dd2f 9d82 6632 69a8 dd35 85c6 4833
000003c0: 12fc 9032 76bf b032 ed54 b12f aaf6 a532
000003d0: ae7f 3535 0000 0000 f7e5 8f31 8db0 4d35
000003e0: e09a 402e f9e5 8f31 63e9 6a35 0a98 9032
000003f0: 0ae5 ed32 5975 2433 b337 ef2f 8cfa 4033

exp_avg f4 [128]
-9.452268e-05 2.8181883e-05 -1.9739357e-05 -0.00011625154 6.780101e-08 -1.0873242e-05 -1.0607582e-06 4.8504146e-05
-8.585412e-06 9.050371e-06 8.477469e-05 -3.714405e-05 6.5906985e-05 -2.5521556e-05 -5.1736843e-05 -6.4806314e-05
-6.160495e-05 -0.00018601023 -4.4197946e-05 2.1795524e-05 -4.2305648e-05 0.00015130614 5.8209334e-06 3.5128578e-05
6.285708e-05 -1.3931542e-05 -9.308097e-05 -0.00011664147 3.5533412e-05 -0.00016671202 -7.6346216e-05 -2.273362e-06
0.00012710072 -6.6132125e-05 6.366004e-05 -2.871969e-05 -2.5629926e-05 0.00012379487 0.00017577194 -5.0792813e-05
-9.017697e-05 0.00012834671 4.2989115e-05 -7.8000885e-06 -0.000101334765 -1.8133513e-05 7.6757555e-05 0.00010883312
-2.05732e-05 -0.00017900227 3.6013957e-05 -8.920263e-05 -3.9074635e-05 0.00014334687 -0.00023091934 9.726023e-05
7.358215e-05 1.6972474e-05 0.00010576454 2.6227248e-05 -6.3769694e-06 0.00013973363 -6.373034e-05 -8.4278836e-05
-2.5851736e-05 6.539229e-05 -8.9960835e-05 -3.2675183e-05 -5.2168172e-05 4.144833e-05 5.262558e-05 7.376808e-05
-0.00014227402 -0.00010822655 -3.873252e-05 -7.195089e-06 -1.8801657e-06 7.749819e-06 6.402026e-05 -0.00011456599
-9.065795e-05 -3.4392782e-05 3.2167998e-05 -3.5187222e-05 -2.3853223e-05 -3.71879e-05 9.0748836e-07 -0.0001396761
2.5384046e-05 -2.6644913e-05 9.030908e-06 -0.000118725446 4.229477e-05 7.6161996e-07 7.363111e-05 6.647369e-05
-2.517142e-05 -6.362855e-05 2.9324889e-05 -8.9174035e-05 -2.2979799e-05 -2.7297052e-05 -2.9194634e-06 -9.300203e-05
-6.1505685e-05 -0.00017515129 -5.6786754e-05 3.984372e-05 -3.763191e-05 6.610257e-05 1.0227526e-05 -2.8699184e-05
0.000102032616 -2.4782403e-05 4.2402302e-05 -2.336587e-05 -0.00011815308 5.6710283e-05 3.0288858e-05 1.6362643e-05
0.00012667954 -0.00017719103 5.7510275e-05 -2.8242306e-05 -6.788043e-06 -6.777562e-05 -1.825035e-05 0.00012242633
00000000: 7a3a c6b8 2268 ec37 f295 a5b7 12cc f3b8
00000010: 009a 9133 386c 36b7 605f 8eb5 ee70 4b38
00000020: 100a 10b7 0cd7 1737 11c9 b138 1fcb 1bb8
00000030: 8b37 8a38 2017 d6b7 0300 59b8 a0e8 87b8
00000040: e831 81b8 be0b 43b9 2f61 39b8 88d5 b637
00000050: 5871 31b8 efa7 1e39 7051 c336 0657 1338
00000060: 23d2 8338 84bb 69b7 7734 c3b8 6a9d f4b8
00000070: b609 1538 6bcf 2eb9 101c a0b8 1090 18b6
00000080: 5746 0539 6ab0 8ab8 3981 8538 11eb f0b7
00000090: d9ff d6b7 efce 0139 6c4f 3839 5e0a 55b8
000000a0: 641d bdb8 cf94 0639 364f 3438 20dd 02b7
000000b0: b083 d4b8 6c1d 98b7 e6f8 a038 563d e438
000000c0: 9c94 acb7 8eb2 3bb9 b10d 1738 4c12 bbb8
000000d0: 12e4 23b8 624f 1639 f022 72b9 30f8 cb38
000000e0: 1e50 9a38 1c60 8e37 e8cd dd38 9602 dc37
000000f0: c0f9 d5b6 7685 1239 f7a6 85b8 dbbe b0b8
00000100: 2edc d8b7 3823 8938 5ba9 bcb8 b60c 09b8
00000110: 26cf 5ab8 ced8 2d38 49ba 5c38 f0b3 9a38
00000120: 642f 15b9 b0f7 e2b8 ba74 22b8 586d f1b6
00000130: 005a fcb5 3805 0237 9e42 8638 2643 f0b8
00000140: 9e1f beb8 f840 10b8 20ec 0638 fe95 13b8
00000150: 6818 c8b7 34fa 1bb8 209a 7335 0576 12b9
00000160: d3ef d437 8483 dfb7 7483 1737 3dfc f8b8
00000170: aa65 3138 2072 4c35 676a 9a38 ca67 8b38
00000180: 3627 d3b7 5170 85b8 b8fe f537 f202 bbb8
00000190: bec4 c0b7 f9fb e4b7 00ec 43b6 160a c3b8
000001a0: 9dfc 80b8 d1a8 37b9 502e 6eb8 de1d 2738
000001b0: f5d6 1db8 8ca0 8a38 e496 2b37 07bf f0b7
000001c0: 58fa d538 cee3 cfb7 20d9 3138 d301 c4b7
000001d0: f4c8 f7b8 34dc 6d38 d414 fe37 8242 8937
000001e0: 48d5 0439 5bcc 39b9 3037 7138 e4e9 ecb7
000001f0: d8c4 e3b6 c222 8eb8 5418 99b7 915f 0039

exp_avg_sq f4 [128]
1.3752034e-06 7.5822084e-07 2.205537e-07 4.4586105e-08 2.1268097e-07 4.730065e-07 1.8701539e-07 6.144621e-07
9.411347e-07 2.5350002e-07 2.767525e-07 3.1061464e-07 6.512288e-07 5.170225e-07 1.5017633e-07 2.6783792e-07
4.1573094e-07 3.676114e-07 1.05290205e-07 4.812702e-07 1.7217441e-07 6.208969e-07 4.0659913e-08 1.0830007e-06
1.5259313e-07 1.5865852e-07 4.6262977e-07 2.6584456e-07 4.6351371e-07 2.9508935e-06 4.2734894e-07 1.6406611e-07
3.850039e-07 1.4146505e-06 4.620792e-07 1.4087237e-07 2.1216894e-07 8.232324e-07 1.23933e-06 2.8777973e-07
1.6330506e-07 2.8372423e-07 6.821226e-07 8.496953e-07 1.2493514e-07 1.5986028e-07 2.9284044e-07 1.1307793e-06
9.4832853e-07 3.982134e-07 3.529379e-07 1.8635699e-06 1.1262474e-06 1.6048461e-06 4.9483276e-07 6.8053646e-07
3.0241378e-07 5.46733e-07 9.060911e-07 5.7055956e-08 4.5826897e-07 1.5591504e-06 1.1902152e-06 1.0414477e-06
5.210294e-07 1.4615576e-06 2.6643042e-07 2.0918341e-07 2.4809074e-07 1.3361958e-07 2.3033199e-07 1.3535735e-06
2.8838272e-07 8.15076e-08 1.3986984e-07 1.9058808e-07 1.7311482e-06 3.420424e-08 5.8486783e-08 1.747551e-06
3.2498727e-07 1.4829814e-07 3.9487142e-07 1.7067917e-07 9.117318e-07 7.349061e-08 1.0251394e-07 1.46067e-06
1.4256688e-07 2.48928e-07 7.537905e-08 1.4522892e-06 2.2217725e-07 2.3533627e-07 2.6200365e-07 6.4233194e-07
3.4136983e-07 2.637115e-07 3.5746683e-07 1.1036032e-06 1.4082079e-07 8.961633e-08 1.0454659e-06 9.8820074e-08
1.2736271e-07 1.0046595e-06 1.0653698e-06 1.6193678e-07 4.6449397e-08 1.3716193e-06 2.7668452e-07 6.107236e-08
6.1680663e-07 1.5909278e-07 8.567666e-07 1.5613121e-07 5.8071953e-07 1.1553678e-06 9.295754e-07 3.7829196e-07
4.9942156e-07 2.7067742e-07 3.4006245e-08 1.8075444e-07 1.1587067e-07 4.455701e-07 8.606821e-07 1.1286935e-06
00000000: a193 b835 8a88 4b35 57d1 6c34 f17e 3f33
00000010: 4d5d 6434 85f1 fd34 66ce 4834 84f1 2435
00000020: 49a2 7c35 c718 8834 9394 9434 8dc2 a634
00000030: 1ad0 2e35 84c9 0a35 2840 2134 5dcb 8f34
00000040: a031 df34 205c c534 e71b e233 a330 0135
00000050: f1de 3834 b6ab 2635 0ca2 2e33 9f5b 9135
00000060: 7bd8 2334 b95b 2a34 5a5f f834 66b9 8e34
00000070: d7d8 f834 f707 4636 646e e534 262a 3034
00000080: 88b2 ce34 05df bd35 af13 f834 b442 1734
00000090: 8ed0 6334 1afc 5c35 0e57 a635 2580 9a34
000000a0: f458 2f34 c352 9834 1c1b 3735 9e16 6435
000000b0: e925 0634 0fa6 2b34 af37 9d34 48c5 9735
000000c0: a490 7e35 08ca d534 6a7b bd34 c61f fa35
000000d0: 9129 9735 1866 d735 a6d4 0435 1cae 3635
000000e0: 6f5b a234 35c3 1235 1b3a 7335 b00d 7533
000000f0: 0208 f634 0044 d135 7cbf 9f35 dfc7 8b35
00000100: dedc 0b35 bd2a c435 eb09 8f34 e69b 6034
00000110: 5531 8534 1279 0f34 2d51 7734 6eac b535
00000120: 05d3 9a34 4709 af33 212f 1634 74a4 4c34
00000130: cd59 e835 f6e7 1233 e632 7b33 658d ea35
00000140: e979 ae34 e23b 1f34 b7fe d334 ef43 3734
00000150: bbbd 7435 e4d1 9d33 a225 dc33 3d0c c435
00000160: 7c14 1934 67a4 8534 12e0 a133 47ec c235
00000170: 9e8f 6e34 beb0 7c34 82a9 8c34 b76c 2c35
00000180: 8345 b734 3c94 8d34 dee9 bf34 841f 9435
00000190: 8634 1734 1973 c033 ef51 8c35 e936 d433
000001a0: 32c1 0834 d6d7 8635 d4fd 8e35 d8e0 2d34
000001b0: a77f 4733 7b18 b835 3b8b 9434 e326 8333
000001c0: a192 2535 17d3 2a34 8dfc 6535 05a5 2734
000001d0: bee2 1b35 2312 9b35 ef87 7935 0d18 cb34
000001e0: fd0f 0635 9f51 9134 430e 1233 6715 4234
000001f0: 93d4 f833 b036 ef34 a009 6735 9d7d 9735
