results/SlayRL_012/SlayTheSquire_RL/SlayTheSquire_RL-94212.onnx (onnx, 82288 bytes, 10 tensors)

network_body.observation_encoder.processors.0.normalizer.running_mean f4 [12]
0.2195566 -0.7568999 0.009006425 0.46041423 -0.04610828 -0.0035451583 -0.20932354 -0.046246268
0.0 -0.204908 -0.573318 -0.5357859
00000000: 72d3 603e 31c4 41bf af8f 133c 6abb eb3e
00000010: 09dc 3cbd e355 68bb e958 56be ba6c 3dbd
00000020: 0000 0000 67d3 51be f8c4 12bf 4429 09bf

network_body._body_endoder.seq_layers.0.weight f4 [128, 12]
0.04274679 0.015929345 -0.029473932 -0.24924558 0.39038166 0.06055798 -0.1557998 0.24591514
-0.21373914 0.4518229 -0.006086673 -0.1404687 -0.47829443 -0.1631891 -0.023514017 -0.38248828
-0.060149066 0.411016 0.05600811 -0.76675487 -0.08750092 -0.1624912 0.006472136 0.14989528
-0.009765632 0.32586366 0.22542936 0.21652551 0.07196356 -0.28201193 0.46194673 0.37792048
-0.24625158 -0.05718317 0.12992841 1.0189047 0.35629684 -0.026934663 -0.46028015 -0.17922662
0.102508314 0.04861405 -0.031252164 0.030054096 -0.1053851 -0.03774201 0.25063056 0.108792014
0.3209899 -0.12905434 -0.0953969 0.009284093 -0.044911694 0.33868408 -0.15103391 0.10332431
0.20323226 0.16256551 0.19646616 0.12532717 -0.23465371 0.06811533 0.2868924 -0.24382783
0.100661226 0.3175393 0.16049336 0.14693527 -0.36638626 0.10205306 0.22225241 0.34271547
-0.39326146 -0.107253276 -0.1167513 -0.36307916 -0.3645157 -0.025603749 -0.30021697 0.23102736
-0.20500234 -0.41128987 0.2090302 -0.19470522 0.007301022 0.20115712 0.42961377 -0.25974977
-0.13660365 0.28306645 -0.36116964 -0.12430993 0.086710565 0.15439537 -0.14295796 -0.26388118
0.5030649 -0.39223498 -0.07281441 0.42660165 0.0019059619 -0.47521788 -0.33513227 -0.35124
-0.120170675 -0.28085402 0.44006303 0.7000286 -0.4860127 0.2619938 -0.40857485 -0.039385986
0.6435848 -0.20105773 -0.18440671 -0.37060663 0.21717212 0.27266163 -0.10759323 0.4433372
-0.6760162 0.1991339 -0.12176074 -0.091405354 0.30314964 0.12991002 -0.036730085 -0.19480447
0.19128256 -0.21463935 0.15619346 -0.34477288 0.032666624 0.11086748 -0.03124401 0.03056766
-0.008410866 0.36934683 -0.002290064 0.36616632 -0.16476683 0.15086609 -0.05836837 -0.06667077
-0.41224167 -0.016510779 0.032682776 0.2674235 -0.18981016 0.18459438 0.11957655 0.24268687
0.05924716 -0.08912813 -0.14846867 -0.11262724 0.6932525 0.3645042 -0.50827384 -0.3081787
-0.16980197 0.28059703 0.25908726 -0.40985474 0.09774978 0.009075434 0.048306122 0.19873172
-0.06799579 -0.4986333 -0.43677413 0.1124136 -0.35169327 -0.41895348 -0.7214037 -0.12553635
0.12472535 -0.23278709 0.050065987 -0.17081062 -0.007667168 0.2490798 -0.28248957 0.17190985
0.37215877 0.060923744 0.04473797 -0.11612986 0.23975575 -0.37020615 -0.236444 0.31207728
-0.56800705 -0.6101479 -0.13694705 0.1645008 0.44268557 0.47822055 -0.29696882 0.15568551
-0.10002483 -0.023904392 0.2796704 -0.5469735 0.07377092 0.4120592 0.12193985 -0.19587408
-0.0342271 0.46953827 -0.15534776 -0.07348663 0.1383819 0.14507775 -0.019714085 0.21486957
-0.097115695 0.083008155 0.2516597 -0.13353086 0.300672 0.0866674 -0.004161337 0.18559912
-0.03130665 -0.03919362 -0.10407549 -0.052128673 0.18575518 -0.015517273 0.22515641 0.1327265
-0.092629656 0.14461873 0.073702395 -0.21598764 -0.049158756 -0.21184549 -0.020115957 0.19287746
-0.045577932 -0.35608783 0.34725803 0.023169141 -0.08112207 -0.32898676 -0.31051567 -0.07828523
-0.3879226 -0.10246626 -0.61110365 0.1242781 0.55083084 0.26613298 -0.33756498 0.3044745
00000000: 4217 2f3d 427e 823c 5173 f1bc 3c3a 7fbe
00000010: 1be0 c73e a50b 783d fc89 1fbe 2ed1 7b3e
00000020: 6fde 5abe 5555 e73e b772 c7bb 07d7 0fbe
00000030: 02e3 f4be 0b1b 27be 78a0 c0bc 81d5 c3be
00000040: de5e 76bd b070 d23e c368 653d 0c4a 44bf
00000050: af33 b3bd 1864 26be 3614 d43b 267e 193e
00000060: 0800 20bc 9ad7 a63e f4d6 663e ddb8 5d3e
00000070: a261 933d de63 90be 4884 ec3e cb7e c13e
00000080: 6029 7cbe e638 6abd f40b 053e 786b 823f
00000090: 8a6c b63e 15a6 dcbc d7a9 ebbe 2f87 37be
000000a0: e1ef d13d 871f 473d 4502 00bd 0234 f63c
000000b0: 25d4 d7bd 5e97 1abd a652 803e 59ce de3d
000000c0: ca58 a43e d226 04be 735f c3bd 4f1c 183c
000000d0: 53f5 37bd 0068 ad3e a2a8 1abe b29b d33d
000000e0: 1e1c 503e 9377 263e 6d2e 493e c455 003e
000000f0: 1049 70be 0d80 8b3d 90e3 923e 01ae 79be
00000100: 7927 ce3d 8394 a23e 5f58 243e 3376 163e
00000110: fb96 bbbe 3201 d13d 2396 633e 6778 af3e
00000120: 9159 c9be 9ba7 dbbd 4e1b efbd 83e5 b9be
00000130: cda1 babe f4be d1bc 0ab6 99be 7092 6c3e
00000140: 22ec 51be 9694 d2be 030c 563e ce60 47be
00000150: 693d ef3b 22fc 4d3e 56f6 db3e ecfd 84be
00000160: d4e1 0bbe 16ee 903e 3aeb b8be 3496 febd
00000170: 4f95 b13d d219 1e3e 9263 12be 6f1b 87be
00000180: dcc8 003f 06d3 c8be b91f 95bd 886b da3e
00000190: 78d1 f93a c24f f3be 7596 abbe bbd5 b3be
000001a0: 0b1c f6bd 19cc 8fbe f14f e13e 1335 333f
000001b0: a8d6 f8be 0d24 863e b930 d1be 3353 21bd
000001c0: f9c1 243f 14e2 4dbe 1dd5 3cbe 27c0 bdbe
000001d0: 5e62 5e3e 4e9a 8b3e d759 dcbd 18fd e23e
000001e0: 660f 2dbf c2e9 4b3e b25d f9bd bb32 bbbd
000001f0: 6e36 9b3e 2207 053e 4972 16bd d37a 47be
00000200: 93df 433e 6bca 5bbe 2ef1 1f3e 1286 b0be
00000210: 70cd 053d 7d0e e33d 70f3 ffbc 0869 fa3c
00000220: bbcd 09bc 071b bd3e e614 16bb 277a bb3e
00000230: a3b8 28be a47c 1a3e ac13 6fbd af8a 88bd
00000240: 5711 d3be 9d41 87bc 60de 053d bceb 883e
00000250: 985d 42be 4f06 3d3e 8de4 f43d e882 783e
00000260: 26ad 723d cf88 b6bd 2c08 18be 1ca9 e6bd
00000270: ff78 313f 4ba0 ba3e 3c1e 02bf 99c9 9dbe
00000280: 91e0 2dbe 6aaa 8f3e 16a7 843e 7bd8 d1be
00000290: 0931 c83d 21b1 143c a4dc 453d 5480 4b3e
000002a0: 6041 8bbd dd4c ffbe dca0 dfbe 1a39 e63d
000002b0: 2411 b4be 1281 d6be eaad 38bf 9a8c 00be
000002c0: 0170 ff3d bd5f 6ebe fe11 4d3d fbe8 2ebe
000002d0: de3c fbbb c60e 7f3e 79a2 90be 2309 303e
000002e0: 988b be3e 2d8b 793d 293f 373d 7ed5 edbd
000002f0: 8882 753e a98b bdbe 601e 72be 98c8 9f3e
00000300: e968 11bf a732 1cbf d93b 0cbe e672 283e
00000310: afa7 e23e 53d9 f43e 4c0c 98be 066c 1f3e
00000320: d1d9 ccbd 25d3 c3bc f530 8f3e 7506 0cbf
00000330: 3515 973d 6cf9 d23e 9abb f93d 3793 48be
00000340: b731 0cbd 5267 f03e 7c13 1fbe 2980 96bd
00000350: fcb3 0d3e 438f 143e 6f7f a1bc c506 5c3e
00000360: 98e4 c6bd 2e00 aa3d 8ad9 803e 50bc 08be
00000370: aef1 993e ae7e b13d d35b 88bb b20d 3e3e
00000380: 673b 00bd 7d89 20bd 8825 d5bd e084 55bd
00000390: 9b36 3e3e 293c 7ebc 678f 663e 75e9 073e
000003a0: 9eb4 bdbd ef16 143e 48f1 963d dd2b 5dbe
000003b0: b15a 49bd 06ee 58be 38ca a4bc ab81 453e
000003c0: edaf 3abd 2551 b6be cecb b13e 36cd bd3c
000003d0: 5423 a6bd f470 a8be e9fb 9ebe 0254 a0bd
000003e0: cb9d c6be d5d9 d1bd 4a71 1cbf 8485 fe3d
000003f0: 4003 0d3f 9542 883e 51d5 acbe 15e4 9b3e

network_body._body_endoder.seq_layers.0.bias f4 [128]
0.012966581 0.0067231385 0.001820045 -0.027101856 -0.0116275605 -0.030277902 0.0048683477 0.009669196
0.019361943 -0.0065626833 0.011105604 -0.005925337 0.011842458 0.0038419222 0.0069815377 -0.052781384
0.0013563219 -0.05764646 -0.005026282 -0.0013278406 0.010113718 0.019376809 0.010780113 -0.031425495
0.0025532984 0.0044052904 -0.009876057 0.01564483 -0.0032417434 0.015587067 0.024040166 0.010786709
-0.0027631468 -0.053131614 -0.045403697 -0.022118552 -0.031899396 -0.040315527 -0.00090087176 -0.029213289
-0.0044847513 -0.0016154908 -0.062275935 -0.014211433 -0.0012506049 0.014137268 -0.030885978 -0.012591007
-0.037894037 0.034270573 0.025905764 -0.031301547 -0.02106159 -0.0027511383 -0.03527246 0.009672233
-0.024299653 -0.0014326072 -0.008987613 0.014895929 -0.0054519717 0.024412826 0.01963571 0.017479392
-0.059441436 -0.02536879 0.03691485 -0.003544144 0.01421211 0.022088306 -0.04851 -0.054278914
0.03157992 0.025718471 0.011003389 0.016863875 -0.0011614301 -0.0037013623 0.026096405 -0.0006106742
0.0073387423 0.0064953077 0.031840455 0.0038089666 0.019567093 0.005092944 -0.030480817 -0.01405098
0.010603657 0.004375096 -0.035182167 0.0037537212 0.061003085 -0.016762778 0.031598695 -0.04824998
-0.004592272 -0.018472588 -0.018246854 -0.004597574 0.03132325 -0.015279919 -0.006482297 0.019481782
0.004820581 -0.039422832 -0.014176554 0.046698507 0.0013917091 0.0008588152 -0.01185322 0.003982251
0.0100236805 0.0027401617 -0.0006547468 0.005037646 -0.054178864 0.006137159 0.004602915 0.008059782
0.016684063 0.016842587 0.013153452 0.016052576 0.03155743 -0.0077573834 0.029847044 -0.04441257
00000000: c871 543c c64d dc3b 948e ee3a b604 debc
00000010: 8681 3ebc 5d09 f8bc a986 9f3b 8c6b 1e3c
00000020: f09c 9e3c c70b d7bb 47f4 353c 5429 c2bb
00000030: de06 423c c2c8 7b3b 62c5 e43b 4b31 58bd
00000040: 9cc6 b13a b21e 6cbd 82b3 a4bb f00a aeba
00000050: 02b4 253c 1dbc 9e3c 129f 303c 05b8 00bd
00000060: 3d55 273b 415a 903b 2fcf 21bc 9629 803c
00000070: 6e73 54bb e660 7f3c e2ef c43c bdba 303c
00000080: e915 35bb 89a0 59bd 3af9 39bd f731 b5bc
00000090: f1a8 02bd e521 25bd 7b28 6cba b550 efbc
000000a0: d2f4 92bb e0be d3ba 0d15 7fbd 12d7 68bc
000000b0: 56eb a3ba 00a0 673c 9704 fdbc 834a 4ebc
000000c0: c736 1bbd 4d5f 0c3d 5338 d43c 0d36 00bd
000000d0: 5b89 acbc 714c 34bb db79 10bd 4978 1e3c
000000e0: 1110 c7bc 52c6 bbba c840 13bc 0e0e 743c
000000f0: 74a6 b2bb 68fd c73c 12db a03c f130 8f3c
00000100: dd78 73bd 35d2 cfbc 0734 173d df44 68bb
00000110: e9d9 683c 89f2 b43c 6cb2 46bd 9153 5ebd
00000120: f259 013d 8baf d23c 8f47 343c 1c26 8a3c
00000130: 213b 98ba 8e92 72bb 21c8 d53c a715 20ba
00000140: d579 f03b 97d6 d43b 236b 023d db9f 793b
00000150: 2b4b a03c b6e2 a63b e8b2 f9bc 1536 66bc
00000160: f6ba 2d3c f75c 8f3b 2d1b 10bd fe00 763b
00000170: 5fde 793d 1852 89bc a26d 013d c5a1 45bd
00000180: c57a 96bb d353 97bc 6d7a 95bc 3fa7 96bb
00000190: cf4c 003d a058 7abc 7369 d4bb 4298 9f3c
000001a0: f7f5 9d3b d679 21bd c744 68bc ef46 3f3d
000001b0: 026a b63a 1d22 613a 0234 42bc 8b7d 823b
000001c0: 5d3a 243c 4994 333b 50a3 2bba d612 a53b
000001d0: a8ea 5dbd 391a c93b 0dd4 963b 2d0d 043c
000001e0: 04ad 883c 77f9 893c 9481 573c b180 833c
000001f0: 5d42 013d a631 febb ca81 f43c f4e9 35bd

network_body._body_endoder.seq_layers.2.weight f4 [128, 128]
-0.08041524 -0.06820709 0.053765573 -0.10859828 0.04456619 -0.0057866615 0.0058785165 0.27424642
-0.1278079 -0.018681344 -0.08949161 0.02102083 0.044316076 0.02793752 0.042967632 0.10456252
0.11697562 0.052058205 0.03584121 -0.024001535 0.14704624 -0.09246026 0.15501803 0.027333843
0.0970342 0.07025715 -0.12963568 -0.060212128 0.04928508 -0.0044055325 -0.023544816 -0.06365476
-0.10226148 -0.07328974 -0.07754598 0.064236015 0.034837715 0.005867937 -0.032444183 0.002665311
-0.009584874 -0.02964887 -0.13079917 -0.022844875 0.014771006 -0.057689518 0.13460977 0.03895727
-0.07984846 0.14921595 -0.14530979 -0.12134554 -0.32252607 0.10827395 -0.08920607 -0.014335178
-0.023695832 0.030850329 -0.030183647 -0.032599054 -0.097855456 -0.007632894 -0.20270817 -0.16606571
0.06472849 -0.15848845 -0.20750968 0.062479533 0.021995185 0.06665944 0.08121129 0.048239492
-0.026660893 -0.031173555 0.08338346 0.053541772 0.03420481 -0.18123344 -0.09699605 0.14211985
-0.011332002 -0.022386026 0.11080793 0.011332684 0.03726436 -0.10429649 0.071116254 -0.030558445
0.12822409 -0.3604533 -0.13191554 -0.08405308 -0.06446964 -0.005032029 -0.19160114 -0.2985963
0.06934919 0.048346307 -0.0034041249 0.048806928 -0.08828363 0.1489985 0.028085653 0.18295313
0.00533713 -0.08123362 -0.10327325 -0.052198194 -0.17940341 -0.13435474 0.11765001 0.11071303
0.07121237 -0.081356555 0.039765958 -0.047205452 -0.020328699 -0.015654804 -0.09837974 -0.05556008
-0.073749825 0.01713529 0.12629293 -0.15232152 0.116068445 -0.05130553 0.0074561196 -0.060755286
0.05587413 0.08867736 0.028802628 0.046230134 -0.0026964901 0.0218639 0.1320621 -0.00065302383
-0.07420125 -0.06436784 -0.016016833 0.07809256 -0.1463 0.08989315 -0.11524382 0.047995638
0.02011453 -0.14370362 0.16423258 -0.0782853 0.12627313 -0.15652771 0.074876904 0.044345763
-0.020026369 0.052188538 -0.08699492 0.024631266 -0.018078065 -0.06790336 -0.049940735 -0.053082943
0.24741824 -0.06621311 0.060012482 0.13672574 0.06319789 0.0021435465 -0.04753189 -0.03998511
-0.1617732 0.015106 -0.05477869 0.09274453 -0.042554792 0.053439543 -0.080625795 0.048688646
-0.061538488 0.06655317 0.108244024 -0.130659 -0.07284085 0.16873321 -0.23752621 -0.03217884
-0.022024453 0.058165763 0.07167222 -0.058398772 0.15514553 0.008656955 0.075929984 0.22229731
0.10754307 0.038163733 -0.11177429 -0.068231955 -0.06900453 -0.026903642 -0.0074282414 -0.12200467
0.0033301455 0.022595394 0.028251193 0.06816219 -0.12365765 -0.14983869 -0.13230205 0.011146711
-0.14111172 -0.03986107 0.03831979 -0.015157391 0.06851226 0.0016828069 0.11211142 0.12855095
-0.08949713 -0.09117686 0.025430605 0.043006595 -0.15721934 0.22349468 -0.008759186 0.044076655
0.012689561 0.027769625 -0.09823526 0.11999351 0.073710464 0.13301384 0.072837025 -0.09324248
0.099341124 0.0661716 0.14602399 -0.15894423 -0.056831293 -0.021556886 0.068812065 0.04072257
4.3875927e-05 0.056369968 -0.0621875 0.1032446 0.015314524 -0.07867785 -0.1865613 0.14279023
-0.008776173 -0.047112085 -0.09302553 -0.017784277 -0.08259528 -0.0420574 0.056583606 -0.017694427
00000000: bfb0 a4bd 29b0 8bbd 4a39 5c3d c668 debd
00000010: 0a8b 363d 099e bdbb 92a0 c03b 076a 8c3e
00000020: 13e0 02be 9e09 99bc 6147 b7bd e033 ac3c
00000030: c684 353d 3add e43c d4fe 2f3d e024 d63d
00000040: ea90 ef3d fc3a 553d 3cce 123d de9e c4bc
00000050: 4a93 163e ce5b bdbd 0cbd 1e3e 39eb df3c
00000060: deb9 c63d fbe2 8f3d 37bf 04be fea0 76bd
00000070: 27df 493d 495c 90bb 0fe1 c0bc 6d5d 82bd
00000080: 786e d1bd ee18 96bd 6dd0 9ebd 2c8e 833d
00000090: feb1 0e3d d347 c03b 31e4 04bd 80ac 2e3b
000000a0: e009 1dbc 30e2 f2bc 38f0 05be 2d25 bbbc
000000b0: 1702 723c d84b 6cbd 25d7 093e a991 1f3d
000000c0: 9787 a3bd 11cc 183e 17cc 14be 0384 f8bd
000000d0: 2322 a5be bcbe dd3d acb1 b6bd 18de 6abc
000000e0: c31d c2bc d4b9 fc3c b243 f7bc 9686 05bd
000000f0: 7168 c8bd 5b1d fabb bb92 4fbe 210d 2abe
00000100: 5f90 843d cc4a 22be 6b7d 54be 8aea 7f3d
00000110: 3f2f b43c bf84 883d 1b52 a63d c696 453d
00000120: f267 dabc af5f ffbc f3c4 aa3d 9e4e 5b3d
00000130: 581a 0c3d 4295 39be dda5 c6bd de87 113e
00000140: dca9 39bc e662 b7bc 45ef e23d b9ac 393c
00000150: 83a2 183d 6699 d5bd 66a5 913d b455 fabc
00000160: 2d4d 033e 568d b8be de14 07be 0524 acbd
00000170: a908 84bd b8e3 a4bb 1733 44be 9de1 98be
00000180: f306 8e3d c706 463d bd17 5fbb c6e9 473d
00000190: 0cce b4bd 1093 183e e213 e63c 1158 3b3e
000001a0: 17e3 ae3b d05d a6bd ed80 d3bd c6cd 55bd
000001b0: 87b5 37be 4a94 09be 7df2 f03d 83bd e23d
000001c0: cbd7 913d 449e a6bd a1e1 223d 815a 41bd
000001d0: 5f88 a6bc 813e 80bc 517b c9bd f792 63bd
000001e0: 260a 97bd 4f5f 8c3c ef52 013e 2cfa 1bbe
000001f0: 4bb5 ed3d bf25 52bd 7752 f43b 89da 78bd
00000200: 46dc 643d 7a9c b53d 7df3 eb3c cf5b 3d3d
00000210: 99b7 30bb ec1b b33c 4a3b 073e b02f 2bba
00000220: d3f6 97bd 49d3 83bd bc35 83bc feee 9f3d
00000230: abcf 15be e619 b83d f404 ecbd 1397 443d
00000240: 3ac7 a43c 0b27 13be 962c 283e 0b54 a0bd
00000250: be4d 013e cd48 20be 1059 993d e7a3 353d
00000260: 570e a4bc a6c3 553d 652a b2bd 82c7 c93c
00000270: 7318 94bc eb10 8bbd a88e 4cbd 806d 59bd
00000280: 355b 7d3e bd9a 87bd a6cf 753d d501 0c3e
00000290: e56d 813d be7a 0c3b cdb0 42bd 6dc7 23bd
000002a0: e0a7 25be 287f 773c 9f5f 60bd d8f0 bd3d
000002b0: ef4d 2ebd 6ce3 5a3d 231f a5bd bf6d 473d
000002c0: c80f 7cbd 074d 883d 0baf dd3d 79cb 05be
000002d0: 952d 95bd 66c8 2c3e 123a 73be f6cd 03bd
000002e0: a06c b4bc 393f 6e3d e3c8 923d 8d33 6fbd
000002f0: 78de 1e3e e7d5 0d3c 2e81 9b3d e8a1 633e
00000300: 8b3f dc3d 9351 1c3d ebe9 e4bd 32bd 8bbd
00000310: 3f52 8dbd 0765 dcbc 9b68 f3bb 96dd f9bd
00000320: 923e 5a3b fa19 b93c 0c6f e73c 9e98 8b3d
00000330: 3940 fdbd 506f 19be 307a 07be b2a0 363c
00000340: 977f 10be 5d45 23bd 36f5 1c3d b556 78bc
00000350: 2850 8c3d a191 dc3a ac9a e53d dca2 033e
00000360: 454a b7bd efba babd d853 d03c af27 303d
00000370: 1bfe 20be cadb 643e b082 0fbc b989 343d
00000380: e0e7 4f3c 207d e33c 912f c9bd 28bf f53d
00000390: 83f5 963d c834 083e 942b 953d eaf5 bebd
000003a0: 5c73 cb3d fa84 873d 5087 153e 47c2 22be
000003b0: eec7 68bd 1198 b0bc 57ed 8c3d b6cc 263d
000003c0: 6b07 3838 32e4 663d 52b8 7ebd e871 d33d
000003d0: c5e9 7a3c da21 a1bd ed09 3fbe 9a37 123e
000003e0: f0c9 0fbc 9af8 40bd 2b84 bebd 55b0 91bc
000003f0: b727 a9bd 6144 2cbd 36c4 673d e7f3 90bc

network_body._body_endoder.seq_layers.2.bias f4 [128]
0.0039665867 -0.022963656 0.0053245425 0.003910318 0.0058306847 -0.024229439 0.020580247 -0.029977828
-0.009714357 0.009559464 0.007623781 -0.011439949 0.022061447 0.009795208 0.013664752 -0.007404319
0.00900638 -0.0022402555 -0.009459754 0.004581298 -0.038778745 0.009430062 0.007382046 0.0022835108
-0.0007856702 -0.01945303 -0.04082398 -0.015285549 -0.019528886 -0.007019738 -0.008258102 -0.006820387
-0.022772552 0.0010222225 -0.03687732 0.025411604 0.0057681925 0.021825705 -0.022368282 0.019128596
0.01785847 -0.0058697886 0.0020299656 -0.024683427 -0.026434435 -0.0031613142 0.0036101814 -0.021957798
-0.025578685 -0.008736076 0.007504248 0.015617473 -0.010048561 -0.012905703 0.009313743 -0.005795281
0.010805715 -0.004801462 -0.026546702 0.006018625 0.012429972 0.0028201584 0.0020069003 0.00838609
-0.0017439345 -0.011608044 -0.0014315989 -0.010616926 0.016128644 -0.0018219942 0.003434149 -0.010832222
-0.00028172808 0.014908484 -0.025343267 0.0141895525 -0.020492405 -0.018129388 0.0003430557 0.0028787244
0.0041492484 0.02174126 -0.0037635597 -0.07342815 0.01505717 0.010932059 0.010654552 -0.057330344
0.037818268 0.004675763 -0.032443468 -0.004178008 0.007853702 0.0027816219 -0.009627545 0.0055809305
0.008897747 0.011390195 0.015784143 0.006286533 0.004828632 0.010489345 0.011978975 -0.01832879
0.004143793 0.008853537 -0.012281644 0.019359065 -0.0076986607 0.01124142 -0.039167754 -0.006330877
0.019471329 -0.004641328 -0.0038917358 0.009067497 -0.013516977 -0.004293689 -0.009111966 -0.006323655
-0.038938917 0.014286895 0.001171109 0.0038577984 0.0074008917 -0.014030778 0.0036091143 0.0044414676
00000000: 24fa 813b 471e bcbc 8079 ae3b 2022 803b
00000010: 540f bf3b d17c c6bc e897 a83c 1094 f5bc
00000020: f728 1fbc 4c9f 1c3c e9d0 f93b a06e 3bbc
00000030: 35ba b43c 157c 203c 20e2 5f3c ee9f f2bb
00000040: 7f8f 133c 40d1 12bb 16fd 1abc b71e 963b
00000050: 76d6 1ebd 8c80 1a3c 17e5 f13b f4a6 153b
00000060: 6ff5 4dba f65b 9fbc 0c37 27bd 3d70 7abc
00000070: 0bfb 9fbc d505 e6bb fe4c 07bc 8e7d dfbb
00000080: 818d babc 18fc 853a ac0c 17bd ff2b d03c
00000090: 1b03 bd3b d2cb b23c b03d b7bc 93b3 9c3c
000000a0: ed4b 923c 5b57 c0bb 2c09 053b e634 cabc
000000b0: 078d d8bc 0d2e 4fbb cb98 6c3b d7e0 b3bc
000000c0: 648a d1bc c221 0fbc 32e6 f53b 6ee0 7f3c
000000d0: b8a2 24bc 7172 53bc ab98 183c 57e6 bdbb
000000e0: 740a 313c 9555 9dbb 7878 d9bc e337 c53b
000000f0: 15a7 4b3c 68d2 383b 3386 033b d065 093c
00000100: bb94 e4ba aa2f 3ebc 7da4 bbba 9df2 2dbc
00000110: 3820 843c fbcf eeba 760f 613b a279 31bc
00000120: e7b4 93b9 b742 743c af9c cfbc 4c7b 683c
00000130: b0df a7bc 1584 94bc 28dc b339 fba8 3c3b
00000140: 6bf6 873b ba1a b23c 0ea6 76bb 7f61 96bd
00000150: 59b2 763c 611c 333c 6e90 2e3c 39d3 6abd
00000160: 54e7 1a3d 2537 993b 71e3 04bd ace7 88bb
00000170: d0ac 003c df4b 363b dabc 1dbc 3de0 b63b
00000180: dbc7 113c f19d 3a3c bf4d 813c 43ff cd3b
00000190: 8039 9e3b 80db 2b3c 7643 443c 4226 96bc
000001a0: a8c8 873b 6d0e 113c f338 49bc e796 9e3c
000001b0: 0c45 fcbb ef2d 383c 5e6e 20bd 3f73 cfbb
000001c0: 5682 9f3c 4816 98bb 7e0c 7fbb d78f 143c
000001d0: 5076 5dbc 13b2 8cbb 5b4a 15bc aa36 cfbb
000001e0: 6a7e 1fbd 9513 6a3c e67f 993a 1ed3 7c3b
000001f0: 2e83 f23b 59e1 65bc e486 6c3b bb89 913b

action_model._continuous_distribution.log_sigma f4 [1, 2]
-0.0022675178 0.00959721
00000000: a39a 14bb 9e3d 1d3c

action_model._continuous_distribution.mu.weight f4 [2, 128]
0.0034987086 0.01384612 0.044930886 0.026229197 -0.014327394 -0.007300984 0.005061048 -0.00088460033
-0.031003589 0.010734009 -0.0077106645 0.026410194 -0.0013698211 0.010255777 0.04012831 -0.001593483
0.03266826 0.008864709 0.025491135 0.043765698 0.007852366 0.00882348 -0.06334886 0.05470057
-0.008215447 -0.010996722 0.008711095 -0.016811864 -0.03429855 -0.010990059 0.0071693505 0.0043925564
0.010930012 0.016415529 0.010153892 -0.03866588 0.016687464 -0.041852742 -0.0027911423 0.031112818
-0.008035993 -0.021494487 0.016652802 0.01063736 0.018663216 0.02444199 0.031107575 0.00516607
0.01746014 0.022542309 0.01990006 0.00078849675 0.03596075 0.0032063075 -0.08049064 -0.004050682
0.015654936 -0.0001792963 -0.001986863 -0.04262505 0.074409544 -0.041701715 0.017494954 0.04007803
-0.03217693 -0.012824668 -0.011910235 -0.010149631 0.046571016 0.002658419 -0.022340003 -0.013464283
-0.016229203 0.006736253 0.03604533 0.027848955 0.010049559 0.0016605054 0.0065861293 -0.03957513
0.0098876655 -0.044965606 -0.028935215 0.030043757 -0.0068301638 0.04226736 -0.0340759 0.02503067
0.0004672933 -0.027826013 0.010519703 -0.042688757 0.008949681 0.04897917 -0.03111968 -0.013208655
0.022529935 0.022252865 -0.02872659 -0.01976151 0.019375497 0.031786177 0.013222419 0.032366507
0.018639835 0.014505555 -0.01903801 -0.005913637 -0.026423555 0.0010938566 0.0067654494 -0.015851945
-0.00090640516 0.030972747 0.034647282 0.032073423 -0.03408285 -0.05080662 0.019719273 -0.017038384
0.0056137615 -0.00086250243 -0.02238019 0.037409358 0.025134826 0.005145503 -0.02675888 -0.027026039
0.03515573 0.003127872 -0.010577697 -0.018584676 0.006517457 0.014290359 0.00018912005 0.006496247
0.028832834 -0.006920833 -0.034390204 0.00816618 0.0067591923 0.00086273014 -0.0077576335 0.050789874
0.015966399 0.0020697112 0.033238452 -0.010820718 0.006461553 -0.00421464 -0.02710806 0.004525432
0.00095437875 0.020233167 0.0069792815 0.011028895 0.021638323 -0.0007668343 -0.0025494462 -0.007893436
0.010402555 0.0312082 0.017074559 -0.01757624 0.017510703 -0.028892247 0.004902177 -0.025456466
-0.045661967 -0.0047703004 0.008069337 0.019929742 -0.004125109 0.017419761 -0.0072841253 0.023358824
0.002518091 -0.02659796 0.0048747035 -0.014847013 0.022435697 0.010942204 0.006137863 0.017116359
-0.021017278 0.029016785 0.01488259 0.018809829 -0.022966994 -0.0063643884 0.010352899 0.005347201
-0.00958257 0.034928847 -0.0006932786 0.010686025 -0.012593026 0.017637195 -0.017646832 0.00020366174
0.00035590588 -0.036565885 -0.009541583 -0.0029588991 -0.0007790377 0.004507317 -0.023033211 0.005403615
-0.0058999 -0.014485138 0.02876197 0.023695849 -0.011529746 0.010004328 0.013125228 0.0029500558
-0.00067090394 0.023768386 0.011398812 0.024121521 0.0016602046 -0.016724665 0.0106593445 0.043838106
0.002039567 -0.012795361 -0.017000288 0.014941401 -0.0034789005 0.009198482 0.0087360265 0.0050802664
0.01376617 0.011237846 0.0047264006 -0.008703082 0.017761637 -0.04892301 0.004806988 -0.0012523744
-0.009058041 -0.038442712 0.015571636 0.01662283 0.029568015 0.023777274 -0.00451932 -0.02263046
0.017546184 -0.0038768898 0.015575969 0.019822918 0.017785048 -0.010884817 0.0055113533 0.04661527
00000000: 974a 653b d6da 623c 7309 383d 9dde d63c
00000010: 72bd 6abc 183d efbb 26d7 a53b 86e4 67ba
00000020: 3dfb fdbc b2dd 2f3c bea9 fcbb 315a d83c
00000030: 928b b3ba d907 283c 955d 243d 6bdc d0ba
00000040: 27cf 053d 493d 113c c9d2 d03c a943 333d
00000050: 36a7 003c 5c90 103c 0cbd 81bd b40d 603d
00000060: 159a 06bc 982b 34bc fbb8 0e3c 09b9 89bc
00000070: a37c 0cbd a60f 34bc dfec ea3b 6fef 8f3b
00000080: cb13 333c dc79 863c 835c 263c 1d60 1ebd
00000090: 26b4 883c c86d 2bbd 99eb 36bb 4fe0 fe3c
000000a0: 66a9 03bc 3515 b0bc 756b 883c 5248 2e3c
000000b0: 9ae3 983c 913a c83c 50d5 fe3c 2348 a93b
000000c0: 9108 8f3c a6aa b83c 7305 a33c 1fb3 4e3a
000000d0: 944b 133d ea20 523b 47d8 a4bd 95bb 84bb
000000e0: c83e 803c 7c01 3cb9 0836 02bb 9b97 2ebd
000000f0: 0864 983d 6bcf 2abd 9451 8f3c dc28 243d
00000100: f5cb 03bd 8e1e 52bc 2523 43bc a34a 26bc
00000110: 40c1 3e3d df38 2e3b 6202 b7bc 4c99 5cbc
00000120: 1bf3 84bc c9bb dc3b 45a4 133d 7e23 e43c
00000130: e8a6 243c 51a5 d93a 75d0 d73b 8819 22bd
00000140: e0ff 213c db2d 38bd 8b09 edbc 531e f63c
00000150: 91cf dfbb 8a20 2d3d 2c93 0bbd 1f0d cd3c
00000160: 0cff f439 61f3 e3bc d55a 2c3c 68da 2ebd
00000170: afa1 123c 629e 483d b3ee febc 1d69 58bc
00000180: b390 b83c a44b b63c 0754 ebbc e4e2 a1bc
00000190: 5db9 9e3c 3932 023d d8a2 583c be92 043d
000001a0: 91b2 983c b5a8 6d3c 9af5 9bbc 2fc7 c1bb
000001b0: 3676 d8bc bd5f 8f3a b4b0 dd3b f0db 81bc
000001c0: d29b 6dba 8fba fd3c 4fea 0d3d 6c5f 033d
000001d0: 759a 0bbd 9a1a 50bd 508a a13c 1594 8bbc
000001e0: a5f3 b73b 8f19 62ba a956 b7bc 8e3a 193d
000001f0: 8de7 cd3c 9c9b a83b 7035 dbbc b665 ddbc
00000200: 74ff 0f3d fcfc 4c3b 144e 2dbc e43e 98bc
00000210: 6490 d53b 1c22 6a3c 874e 4639 78de d43b
00000220: d632 ec3c 28c8 e2bb bedc 0cbd 71cb 053c
00000230: 377c dd3b d728 623a bf33 febb 0b09 503d
00000240: f7cb 823c fea3 073b 0b25 083d 6149 31bc
00000250: 6fbb d33b f61a 8abb b911 debc 134a 943b
00000260: 462f 7a3a 07c0 a53c 75b2 e43b 8ab2 343c
00000270: da42 b13c 6105 49ba 9c14 27bb 7853 01bc
00000280: 7a6f 2a3c 57a8 ff3c f2df 8b3c 0cfc 8fbc
00000290: 9b72 8f3c 6faf ecbc 71a2 a03b 148a d0bc
000002a0: 0b08 3bbd 2e50 9cbb 4135 043c b343 a33c
000002b0: ec2b 87bb e3b3 8e3c acaf eebb 015b bf3c
000002c0: 8e06 253b f7e3 d9bc fabb 9f3b e340 73bc
000002d0: 11cb b73c ee46 333c 2020 c93b 9b37 8c3c
000002e0: 6d2c acbc 9cb4 ed3c 1bd6 733c 1217 9a3c
000002f0: 4725 bcbc 5c8c d0bb 359f 293c 9337 af3b
00000300: 3600 1dbc 8d11 0f3d 24bd 35ba 7014 2f3c
00000310: fb52 4ebc e17b 903c 1790 90bc 088e 5539
00000320: e198 ba39 1cc6 15bd 4d54 1cbc 17ea 41bb
00000330: 5638 4cba 1eb2 933b 25b0 bcbc cf10 b13b
00000340: f353 c1bb 1253 6dbc 399e eb3c cc1d c23c
00000350: 43e7 3cbc 31e9 233c 320b 573c b955 413b
00000360: 9adf 2fba ebb5 c23c 15c2 3a3c 7f9a c53c
00000370: 399b d93a 2a02 89bc 88a4 2e3c 968f 333d
00000380: 42aa 053b a2a3 51bc 3044 8bbc c7cc 743c
00000390: 44fe 63bb 3bb5 163c 8d21 0f3c 5d78 a63b
000003a0: 808b 613c f11e 383c ecdf 9a3b 5f97 0ebc
000003b0: da80 913c 7e63 48bd f083 9d3b b626 a4ba
000003c0: 2d68 14bc 1b76 1dbd 2d20 7f3c 9a2c 883c
000003d0: 9f38 f23c 8fc8 c23c ce16 94bb 8463 b9bc
000003e0: 04bd 8f3c 6b13 7ebb 5932 7f3c ac63 a23c
000003f0: f3b1 913c 3b56 32bc 9598 b43b a7ef 3e3d

action_model._continuous_distribution.mu.bias f4 [2]
0.005980476 -0.006149258
00000000: def7 c33b b77f c9bb

action_model._discrete_distribution.branches.0.weight f4 [1, 128]
-0.011894652 -0.004548441 0.017521676 -0.008217146 -0.0029324635 -0.0040262234 -0.008985151 -0.022594811
0.0071078963 0.0077506765 0.008613685 -0.010301701 -0.0036942784 -0.015983872 0.011575927 -0.010521899
-0.009583155 -0.013866546 0.017050426 0.00026084896 -0.00969763 0.004808359 -0.0034644608 0.00056498667
0.0055419346 0.0042757667 0.025099609 -0.004920974 0.011242996 0.017181942 0.0025525128 -0.020705981
0.0015099064 0.0040295105 0.010361002 0.0030915914 -0.0076999143 -0.014348823 -0.002679103 0.005012897
-0.010433126 -0.019220453 -0.018316863 0.0082013635 0.00027676657 -0.01290255 -0.008553393 -0.00032811213
-0.0044894735 -0.00053153344 -0.00010105182 -0.01315857 0.016526164 0.020038472 -0.0114433 0.0022537522
0.0032795935 0.009342426 0.00057124504 -0.0016382382 0.0051107244 -0.0107614985 -0.021649655 -0.0015273652
0.0098300325 0.008478051 -0.008045979 -0.01037676 0.021214573 -0.009903652 -0.0007167332 0.012312654
0.004869369 -0.0036115216 0.0041922326 -0.00027187043 -0.012889761 -0.00074178 -0.003046281 0.008355791
-0.006047889 0.0030268915 0.002168003 0.00022040606 0.017427322 0.0028791788 -0.0126277795 -0.009548553
-0.0055116764 0.009706597 -0.0007756699 0.009923076 0.0015827625 -0.0025449533 -0.007044408 0.0054882406
0.009888874 -0.0059378548 0.0067435442 -0.011965221 -0.008922211 0.015788741 -0.0055472283 0.007387863
-0.001933212 0.015689548 0.01756991 0.008694627 -0.0013890597 0.007257107 0.00089553156 0.008045821
-0.0075598136 -0.0065473393 0.0027378693 0.0101785185 0.0013124838 0.0002568111 0.005154455 -0.008340412
0.0023618964 0.014673461 -0.0012082307 -0.008767157 0.0027264473 -0.0010854563 0.01267626 0.0015105607
00000000: c9e1 42bc 170b 95bb 9e89 8f3c 35a1 06bc
00000010: 932e 40bb 69ee 83bb 7436 13bc c118 b9bc
00000020: 5be9 e83b 63f9 fd3b 6a20 0d3c 77c8 28bc
00000030: b51b 72bb 9cf0 82bc f5a8 3d3c 0b64 2cbc
00000040: aa02 1dbc 8230 63bc 56ad 8b3c 8ec2 8839
00000050: cfe2 1ebc 708f 9d3b 020c 63bb 9d1b 143a
00000060: 1e99 b53b bb1b 8c3b b29d cd3c 1f40 a1bb
00000070: 8b34 383c 25c1 8c3c 0f48 273b 979f a9bc
00000080: 0de8 c53a fc09 843b 31c1 293c 4c9c 4a3b
00000090: 904f fcbb 5317 6bbc e493 2fbb 3a43 a43b
000000a0: b4ef 2abc 3674 9dbc 3f0d 96bc 035f 063c
000000b0: fb1a 9139 3865 53bc 8823 0cbc 7706 acb9
000000c0: 6f1c 93bb 9b56 0bba c8eb d3b8 0b97 57bc
000000d0: e161 873c b927 a43c ae7c 3bbc b0b3 133b
000000e0: 73ee 563b fa10 193c 9bbf 153a 27ba d6ba
000000f0: dd77 a73b ff50 30bc 9e5a b1bc df31 c8ba
00000100: 250e 213c 86e7 0a3c 48d3 03bc 4903 2abc
00000110: 2fca ad3c ed42 22bc 27e3 3bba 04bb 493c
00000120: 3a8f 9f3b 47af 6cbb ff5e 893b d589 8eb9
00000130: 932f 53bc 0374 42ba 1da4 47bb bae6 083c
00000140: 5f2d c6bb d05e 463b 0e15 0e3b cd1c 6739
00000150: bec3 8e3c 9bb0 3c3b bfe4 4ebc 8971 1cbc
00000160: 4b9b b4bb 6b08 1f3c 5356 4bba 6694 223c
00000170: b274 cf3a 3bc9 26bb c7d4 e6bb b3d6 b33b
00000180: f204 223c 5692 c2bb f3f8 dc3b c609 44bc
00000190: 772e 12bc 6457 813c 86c5 b5bb e315 f23b
000001a0: d563 fdba 5e87 803c c6ee 8f3c e973 0e3c
000001b0: 1c11 b6ba 07cd ed3b 1bc2 6a3a 9fd2 033c
000001c0: 50b8 f7bb 108b d6bb d36d 333b cdc3 263c
000001d0: a607 ac3a 9aa4 8639 b4e6 a83b 39a6 08bc
000001e0: 0cca 1a3b f568 703c 7f5d 9eba 1fa4 0fbc
000001f0: 32ae 323b df45 8eba 17b0 4f3c 02fe c53a

onnx::Div_70 f4 [12]
0.525229 0.3207207 0.0105082905 0.32519373 0.20974492 0.059524823 0.40683883 0.21004325
0.0032579512 0.4036475 0.49460593 0.49872833
00000000: 6875 063f 8135 a43e f72a 2c3c cb7f a63e
00000010: 5fc7 563e 4dd0 733d 2e4d d03e 9415 573e
00000020: 5a83 553b e3aa ce3e fd3c fd3e 5259 ff3e
