results/SlayRL_007/SlayTheSquire_RL/checkpoint.pt (torch, 466475 bytes, 47 tensors)

network_body.observation_encoder.processors.0.normalizer.running_mean f4 [12]
0.8964789 -0.3888311 0.0021479125 0.86407286 -0.04086652 -0.021983588 -0.3255576 -0.022004263
0.0 -0.30719143 -0.057392977 -0.030830769
00000000: a47f 653f df14 c7be fec3 0c3b e133 5d3f
00000010: a763 27bd ed16 b4bc 7caf a6be 4942 b4bc
00000020: 0000 0000 3248 9dbe e614 6bbd cf90 fcbc

network_body.observation_encoder.processors.0.normalizer.running_variance f4 [12]
994.3786 3373.243 1.0101811 5421.1045 3793.4143 2081.2402 21245.266 2083.153
1.0 20592.654 5235.2964 2892.0315
00000000: 3b98 7844 e3d3 5245 9d4d 813f d668 a945
00000010: a116 6d45 d813 0245 88fa a546 7332 0245
00000020: 0000 803f 4fe1 a046 5f9a a345 81c0 3445

network_body.processors.0.normalizer.running_mean f4 [12]
0.8964789 -0.3888311 0.0021479125 0.86407286 -0.04086652 -0.021983588 -0.3255576 -0.022004263
0.0 -0.30719143 -0.057392977 -0.030830769
00000000: a47f 653f df14 c7be fec3 0c3b e133 5d3f
00000010: a763 27bd ed16 b4bc 7caf a6be 4942 b4bc
00000020: 0000 0000 3248 9dbe e614 6bbd cf90 fcbc

network_body.processors.0.normalizer.running_variance f4 [12]
994.3786 3373.243 1.0101811 5421.1045 3793.4143 2081.2402 21245.266 2083.153
1.0 20592.654 5235.2964 2892.0315
00000000: 3b98 7844 e3d3 5245 9d4d 813f d668 a945
00000010: a116 6d45 d813 0245 88fa a546 7332 0245
00000020: 0000 803f 4fe1 a046 5f9a a345 81c0 3445

network_body._body_endoder.seq_layers.0.weight f4 [128, 12]
0.3688947 0.46386573 0.036672097 0.47346923 0.40220797 -0.72247344 0.026882764 -0.006776401
-0.059303142 -0.09202531 0.07389992 0.09731744 0.2637418 0.4705161 -0.27957 -0.38987777
0.31422523 -0.30135491 0.052454684 -0.42437118 0.3709247 0.09824832 0.44886795 0.08356784
-0.099740125 -0.22607824 0.26309246 0.14519122 0.20612843 0.13500454 0.13274114 -0.050788682
0.054710645 -0.16528063 0.4148928 0.43097764 0.0680842 0.506119 0.045785297 0.011361526
-0.10405392 -0.1351996 0.20124501 -0.20058872 0.14717528 -0.33434314 0.18417518 0.4693457
0.017416082 -0.017132707 0.12169125 -0.24145867 -0.2900879 0.06665386 0.014993851 0.06055927
0.40991136 -0.7069465 -0.2814482 -0.43644348 0.16968225 -0.08624094 0.37269676 -0.2454629
-0.07803267 -0.26866588 0.026642196 -0.29156858 0.009705333 -0.043003693 -0.20099795 0.0797347
-0.109340556 0.04095162 0.30633843 0.15674058 -0.21672188 0.25399584 0.30351278 0.15556937
-0.26137462 -0.2542677 0.5366737 -0.4998531 0.10669048 0.086332306 0.30783027 -0.2294712
0.6426089 0.30381224 -0.42922652 -0.3987175 -0.020542573 0.33644786 0.33559862 -0.032102972
0.07109818 -0.02441018 0.9304359 -0.18300396 0.10930125 0.16387744 -0.3125061 0.32366487
-0.11869531 0.0105553465 -0.04992175 0.46957225 -0.12453451 -0.44463953 -0.019867908 0.21612285
-0.21413018 -0.26140308 0.25645924 0.15379106 0.21935542 0.19138493 -0.07498826 0.13916028
-0.06465499 0.10132819 0.061158814 0.08620096 0.29506794 -0.16456068 0.15384425 -0.17235899
-0.09588072 -0.47999635 -0.19958556 -0.30275702 -0.40620822 -0.19397092 -0.61121637 -0.20355046
0.12594621 -0.75318253 0.71301514 0.19639708 0.02991511 0.22973752 0.18351845 -0.013404245
0.34271196 0.1110789 0.051734935 -0.09899074 -0.0072392696 -0.080300175 -0.13112052 0.21255688
-0.16214305 0.24044713 -0.1965978 0.4214988 0.020093665 -0.40492854 -0.06824262 -0.49286062
-0.05022733 0.02004623 0.00918157 0.3537192 0.3692937 -0.012043913 -0.16016613 0.2734054
-0.13478446 0.44511232 0.26495433 -0.30129024 -0.3338413 -0.0109668 0.2910051 0.07982804
-0.067042135 -0.23062956 -0.5844201 -0.27367517 0.3678408 -0.046477735 -0.29673702 -0.31108165
-0.21327181 -0.13849802 0.32222283 -0.33882248 0.28287405 -0.065347284 0.20849201 -0.0876469
0.04465406 -0.36341095 -0.23962975 -0.26840174 -0.44850856 0.037102934 0.3549181 0.54616505
0.3091286 -0.0804449 -0.40589678 -0.41357017 -0.26043618 -0.03157115 -0.06056949 -0.2796233
0.18999858 -0.007471637 -0.25827232 -0.34732792 -0.43341663 0.15515088 -0.12255585 0.19905108
-0.04890764 -0.71317166 -0.20045596 0.07510618 0.23765296 -0.7831329 0.34710997 0.2774091
0.040337842 0.48403633 0.05600788 -0.009733471 -0.4255206 0.06593264 0.29904962 0.30344614
0.07172183 -0.08082905 -0.19938348 -0.24412198 0.25489038 -0.309086 -0.13699904 -0.059466332
-0.13266045 -0.32481942 -0.5124773 -0.062592894 0.5817623 0.06253687 0.02450906 0.30318552
0.027152976 -0.54962474 0.03796589 0.09465319 -0.041024875 -0.32252988 0.013673771 -0.050289523
00000000: c4df bc3e cf7f ed3e 7b35 163d 8f6a f23e
00000010: 34ee cd3e 05f4 38bf 3e39 dc3c 920c debb
00000020: dae7 72bd c477 bcbd d758 973d 5e4e c73d
00000030: 2a09 873e 7ce7 f03e cd23 8fbe 0f9e c7be
00000040: 21e2 a03e 314b 9abe b9da 563d 2e47 d9be
00000050: d8e9 bd3e 6a36 c93d 05d2 e53e 9e25 ab3d
00000060: 8d44 ccbd 0e81 67be 0eb4 863e 02ad 143e
00000070: 5513 533e a13e 0a3e 4bed 073e cb07 50bd
00000080: 4518 603d 533f 29be d46c d43e 1aa9 dc3e
00000090: bb6f 8b3d 0491 013f 5d89 3b3d b225 3a3c
000000a0: 391a d5bd c471 0abe 2c13 4e3e 2167 4dbe
000000b0: 1eb5 163e 062f abbe 6b98 3c3e 144e f03e
000000c0: 2cac 8e3c e459 8cbc 4339 f93d f140 77be
000000d0: 6786 94be d281 883d c5a8 753c ff0c 783d
000000e0: e7df d13e 72fa 34bf fa19 90be 8575 dfbe
000000f0: 2fc1 2d3e 179f b0bd 1cd2 be3e a05a 7bbe
00000100: 98cf 9fbd 938e 89be bc40 da3c 7a48 95be
00000110: 1e03 1f3c a424 30bd 68d2 4dbe f24b a33d
00000120: f1ed dfbd e3bc 273d 64d8 9c3e 9a80 203e
00000130: 57ec 5dbe be0b 823e 0766 9b3e 944d 1f3e
00000140: e5d2 85be 602f 82be 7363 093f bfec ffbe
00000150: 8a80 da3d fece b03d ee9b 9d3e 80fa 6abe
00000160: 0482 243f 478d 9b3e 94c3 dbbe b324 ccbe
00000170: e648 a8bc e542 ac3e 95d3 ab3e 687e 03bd
00000180: ec9b 913d dcf7 c7bc 0c31 6e3f 6465 3bbe
00000190: 55d9 df3d 7dcf 273e cd00 a0be 67b7 a53e
000001a0: 8716 f3bd 55f0 2c3c c07a 4cbd c66b f03e
000001b0: f30b ffbd cba7 e3be 06c2 a2bc 4f4f 5d3e
000001c0: f144 5bbe a0d6 85be a04e 833e 677b 1d3e
000001d0: b59e 603e 69fa 433e 7293 99bd 0880 0e3e
000001e0: d669 84bd 2785 cf3d aa81 7a3d 218a b03d
000001f0: 2513 973e 9882 28be 5989 1d3e e07e 30be
00000200: 1c5d c4bd 15c2 f5be 2860 4cbe f802 9bbe
00000210: 86fa cfbe 50a0 46be ad78 1cbf 886f 50be
00000220: 0bf8 003e 92d0 40bf 2988 363f 511c 493e
00000230: 8810 f53c 5040 6b3e 43ec 3b3e 7a9d 5bbc
00000240: f177 af3e 567d e33d 03e8 533d a8bb cabd
00000250: 6537 edbb 6b74 a4bd 7544 06be 83a8 593e
00000260: d408 26be c637 763e ef50 49be b1ce d73e
00000270: 789b a43c cb52 cfbe c9c2 8bbd 3a58 fcbe
00000280: 2cbb 4dbd fe37 a43c 4c6e 163c af1a b53e
00000290: 1014 bd3e d553 45bc 9702 24be cbfb 8b3e
000002a0: f004 0abe c3e5 e33e 18a8 873e b742 9abe
000002b0: 3fed aabe 18ae 33bc 9ffe 943e e27c a33d
000002c0: 634d 89bd 282a 6cbe 8e9c 15bf 271f 8cbe
000002d0: a155 bc3e 705f 3ebd eaed 97be 1846 9fbe
000002e0: ed63 5abe 6dd2 0dbe 64fa a43e 247a adbe
000002f0: ded4 903e ccd4 85bd ee7e 553e 3880 b3bd
00000300: 2de7 363d 0011 babe 8061 75be f46b 89be
00000310: eaa2 e5be 3ff9 173d d3b7 b53e 79d1 0b3f
00000320: 1b46 9e3e 4cc0 a4bd b4d1 cfbe 78bf d3be
00000330: e457 85be c050 01bd b717 78bd c92a 8fbe
00000340: fd8e 423e a2d4 f4bb 453c 84be f7d4 b1be
00000350: c9e8 ddbe dfdf 1e3e 90fe fabd 0cd4 4b3e
00000360: 6153 48bd 6b92 36bf 5444 4dbe 45d1 993d
00000370: 4c5b 733e 667b 48bf 66b8 b13e 9108 8e3e
00000380: 4b39 253d 9cd3 f73e 8568 653d 2379 1fbc
00000390: d6dd d9be b107 873d 081d 993e 4b5d 9b3e
000003a0: e5e2 923d b389 a5bd 2f2b 4cbe 1dfb 79be
000003b0: fe80 823e 8540 9ebe 7a49 0cbe f892 73bd
000003c0: 24d8 07be bb4e a6be b631 03bf b430 80bd
000003d0: 60ee 143f 5513 803d 39c7 c83c 223b 9b3e
000003e0: eb6f de3c 35b4 0cbf 1f82 1b3d 88d9 c13d
000003f0: b309 28bd a322 a5be f407 603c 63fc 4dbd

network_body._body_endoder.seq_layers.0.bias f4 [128]
0.103857026 -0.044871476 0.07021332 0.038204487 0.0100160735 -0.038341355 0.0030798642 -0.029783746
0.054435875 0.00032479523 -0.03275245 0.013837675 -0.023697034 -0.03038618 -0.054301783 -0.09449073
-0.024311464 -0.021932058 0.047354173 0.04305464 0.012124233 0.022165429 -0.009114605 0.0049050706
0.13539134 0.042749066 0.040465117 0.018363545 0.024341024 -0.029932361 0.022881802 0.062409543
-0.008476038 0.08727859 0.08002296 0.012980447 -0.013345481 0.098394714 -0.0507513 -0.015514196
-0.002439214 -0.05839965 -0.08902621 0.045172185 0.0755578 0.045243736 0.008180986 0.038360033
0.06460704 -0.024969725 -0.033623762 -0.018569672 -0.020106366 0.07743329 0.11902901 -0.003945698
0.033699058 -0.015070364 0.040783882 0.02103609 -0.015551937 -0.048326995 -0.04512013 0.08471182
0.16632472 0.044849288 0.012004397 -0.022914767 0.025368087 -0.0016607456 -0.0007184466 -0.018023778
0.10815517 -0.046978712 -0.0019888482 0.026618484 0.02024696 0.09153405 0.035740666 -0.04665712
-0.07222337 -0.009757541 -0.0015140951 0.059685018 0.09566662 0.03608455 0.09061476 0.06008483
0.027565643 0.034058254 0.007817262 0.028188778 -0.01481697 0.058214244 0.0074865855 0.014426385
0.04333146 0.020879408 0.03906181 0.05758477 0.049527787 0.07862085 -0.03947555 -0.026874121
0.03780475 -0.07546104 0.06488902 0.12458973 -0.032531336 0.028112503 0.049879868 0.024075307
-0.018777505 -0.010144852 0.071196795 0.110356815 0.023900269 -0.0403346 0.016756713 0.07986624
0.038485777 0.03617423 0.0062287995 -0.051318713 -0.043962188 0.083717294 -0.025201702 0.0032499458
00000000: feb2 d43d 27cb 37bd 00cc 8f3d 4f7c 1c3d
00000010: 751a 243c d30b 1dbd 8cd7 493b 0bfd f3bc
00000020: 27f8 5e3d 4749 aa39 6f27 06bd 6ab7 623c
00000030: 4820 c2bc 70ec f8bc 8c6b 5ebd 5b84 c1bd
00000040: d628 c7bc dcaa b3bc 73f6 413d 105a 303d
00000050: b8a4 463c 4694 b53c 6d55 15bc b7ba a03b
00000060: 07a4 0a3e a519 2f3d c0be 253d 256f 963c
00000070: d466 c73c b634 f5bc 9e72 bb3c 26a1 7f3d
00000080: 15df 0abc 1ebf b23d 14e3 a33d f1ab 543c
00000090: 01a7 5abc 2b83 c93d 98e0 4fbd 412f 7ebc
000000a0: 38db 1fbb 7934 6fbd 6053 b6bd 7806 393d
000000b0: 0cbe 9a3d 7f51 393d 8b09 063c 691f 1d3d
000000c0: b250 843d 4f8d ccbc 12b9 09bd 6d1f 98bc
000000d0: 1bb6 a4bc 5895 9e3d 7bc5 f33d ea4a 81bb
000000e0: 0608 0a3d b0e9 76bc 000d 273d e153 ac3c
000000f0: 8dcd 7ebc 87f2 45bd e3cf 38bd 647d ad3d
00000100: 0751 2a3e e3b3 373d 17ae 443c c0b7 bbbc
00000110: bcd0 cf3c 60ad d9ba 2356 3cba 9aa6 93bc
00000120: 7580 dd3d c06c 40bd 5657 02bb 020f da3c
00000130: f4dc a53c 3476 bb3d ce64 123d 891b 3fbd
00000140: d9e9 93bd 18de 1fbc 9a74 c6ba 4778 743d
00000150: dcec c33d 65cd 133d 3b94 b93d 831b 763d
00000160: 58d1 e13c ab80 0b3d f913 003c 27ec e63c
00000170: e0c2 72bc 0f72 6e3d 0852 f53b a55c 6c3c
00000180: 547c 313d 4b0b ab3c 47ff 1f3d 02de 6b3d
00000190: a6dd 4a3d f803 a13d 1db1 21bd 1e27 dcbc
000001a0: 27d9 1a3d 518b 9abd 89e4 843d e628 ff3d
000001b0: 943f 05bd 314c e63c d54e 4c3d 9439 c53c
000001c0: 48d3 99bc 9836 26bc a0cf 913d c102 e23d
000001d0: 7fca c33c e535 25bd 6045 893c e990 a33d
000001e0: 43a3 1d3d 6e2b 143d f51a cc3b 9233 52bd
000001f0: b211 34bd f973 ab3d cd73 cebc 0bfd 543b

network_body._body_endoder.seq_layers.2.weight f4 [128, 128]
0.15092058 -0.12429647 0.09834027 -0.11356775 2.189694e-06 0.02338401 -0.07281523 -0.009535317
-0.013795905 -0.07540679 0.03289508 0.018416159 -0.22145568 0.009690081 -0.005983873 0.10783909
0.1205689 0.07039077 -0.16108267 0.05270392 0.007366085 0.04171472 -0.1259445 0.106972836
0.0046255044 0.016086532 0.010955357 0.08468387 -0.0006596134 -0.15046275 0.029470157 0.085904814
0.03226205 0.009794036 0.0793066 -0.085799225 -0.0199578 -0.11468245 -0.029120559 -0.02021706
-0.17529269 0.021796219 0.11339324 -0.020805005 -0.059980784 -0.007375861 0.030146014 0.05412802
-0.12577192 0.048736088 0.058058765 0.015895715 0.105375715 0.0019749566 -0.07549987 0.038986973
-0.001416698 -0.01070086 -0.102313265 0.08519957 0.09896014 0.07118638 -0.043726124 -0.0391536
-0.025945831 0.005051281 0.00027275743 -0.09789361 -0.06259319 0.08562846 -0.0206234 0.04975416
-0.04680087 -0.124911785 -0.15596594 -0.008838993 -0.02457909 0.12032897 0.09348783 -0.091412544
0.032672826 -0.027351663 0.024756586 -0.12742119 -0.13117985 -0.013557491 -0.024687314 0.07731146
0.08247481 0.08442202 0.032018386 0.0012119254 -0.084668696 -0.0777357 -0.012403342 -0.07774325
-0.15721953 0.0051643937 -0.00349524 -0.07909352 -0.11630756 0.034548998 -0.041491132 0.07830306
-0.041135322 -0.10034289 -0.0456244 0.1175578 0.010267514 -0.15314437 -0.14239754 -0.1154343
-0.11095933 -0.091893636 -0.060583703 -0.06106816 0.03665458 -0.082510084 -0.03871525 0.08183094
-0.14254434 0.12967578 -0.20357236 0.0076048933 -0.112679996 0.051923428 0.0075304536 0.038997386
-0.15748763 0.053572603 -0.093441516 -0.053841602 0.11742563 0.077714905 0.0011081725 0.055467963
0.104408465 -0.20474643 -0.108933866 -0.038655873 0.13254283 0.01907756 0.07230622 -0.054246634
0.07443176 0.010370094 0.030562108 -0.08551987 0.026834987 -0.12188936 -0.05319844 -0.017505199
-0.16522743 0.11141566 -0.014377771 0.0698007 0.0006540308 0.0075146286 -0.004788946 -0.014980691
0.10978957 0.13197242 -0.13462517 -0.035875987 -0.038782742 0.13089322 -0.028527407 -0.16193943
0.04382502 0.13304526 0.06281708 0.060158003 -0.014432062 -0.06042843 0.0016946471 -0.029852014
0.07555301 0.11119623 -0.06812444 0.061231676 -0.06988365 -0.10557045 -0.08496145 0.051624212
0.029977454 -0.074901074 0.08798988 0.06928513 0.14841963 -0.046990372 -0.05350019 -0.028562956
0.0007224532 -0.167929 -0.048971426 -0.023437457 -0.06051776 0.015333245 -0.02437228 -0.050873034
-0.06997344 0.046370737 -0.06494482 0.14208274 0.030116405 -0.026082939 0.025826225 0.037560813
-0.002470486 0.10421639 0.014623161 0.059942916 0.10328877 0.0022507533 0.041265458 -0.07484475
0.022722995 0.021214195 0.045374207 -0.26416966 -0.007510677 -0.07498322 0.081489325 0.034504045
0.09915515 -0.19415131 -0.03825155 0.0817154 0.0111423265 -0.06562795 0.0124270255 -0.011326607
-0.1372098 -0.02259602 -0.118941486 0.076019324 0.13875519 0.037055094 0.20422733 0.1358447
0.028000055 0.16325147 -0.03696092 0.07583468 -0.063316815 -0.028532205 0.040024176 0.01478596
-0.11660409 0.13925867 -0.041327417 0.09667258 -0.10179118 0.024421543 -0.09752028 -0.03870092
00000000: ed8a 1a3e 268f febd a066 c93d 3596 e8bd
00000010: a8f2 1236 d38f bf3c 2720 95bd 053a 1cbc
00000020: 3808 62bc e06e 9abd febc 063d 7cdd 963c
00000030: 47c5 62be 25c3 1e3c 5d14 c4bb beda dc3d
00000040: d4ec f63d 0929 903d dbf2 24be 11e0 573d
00000050: 335f f13b 0edd 2a3d 98f7 00be 9314 db3d
00000060: 8b91 973b e7c7 833c 197e 333c bd6e ad3d
00000070: e8e9 2cba e812 1abe 666b f13c ddee af3d
00000080: 3625 043d 2a77 203c 806b a23d 81b7 afbd
00000090: 8a7e a3bc a2de eabd 3d8e eebc 3f9e a5bc
000000a0: ed7f 33be fc8d b23c b73a e83d 426f aabc
000000b0: 69ae 75bd 35b1 f1bb c6f4 f63c 58b5 5d3d
000000c0: 5bca 00be 7e9f 473d 07cf 6d3d bb37 823c
000000d0: 39cf d73d 466e 013b ad9f 9abd ceb0 1f3d
000000e0: 7fb0 b9ba a952 2fbc 9e89 d1bd 1d7d ae3d
000000f0: 9dab ca3d 2aca 913d 2a1a 33bd 865f 20bd
00000100: 5a8c d4bc 3785 a53b e200 8f39 727c c8bd
00000110: dc30 80bd f95d af3d 68f2 a8bc 05cb 4b3d
00000120: 45b2 3fbd c0d1 ffbd 89b5 1fbe 6cd1 10bc
00000130: 165a c9bc 096f f63d 8c76 bf3d 8036 bbbd
00000140: f1d3 053d 9810 e0bc 53ce ca3c b37a 02be
00000150: 0354 06be 3d20 5ebc 0d3d cabc 7955 9e3d
00000160: 8ee8 a83d 74e5 ac3d b625 033d 78d9 9e3a
00000170: c866 adbd e533 9fbd 6337 4bbc da37 9fbd
00000180: 28fe 20be 133a a93b 6510 65bb c9fb a1bd
00000190: a832 eebd 4083 0d3d 9bf2 29bd 5b5d a03d
000001a0: 837d 28bd 9380 cdbd a7e0 3abd 25c2 f03d
000001b0: 1339 283c e1d1 1cbe a9d0 11be d168 ecbd
000001c0: a53e e3bd bb32 bcbd 9e26 78bd 9b22 7abd
000001d0: 1d23 163d 0cfb a8bd e293 1ebd fb96 a73d
000001e0: 25f7 11be bac9 043e 4675 50be 7832 f93b
000001f0: c5c4 e6bd a9ad 543d 06c2 f63b b9bb 1f3d
00000200: 7044 21be f26e 5b3d 445e bfbd 0389 5cbd
00000210: d97c f03d fe28 9f3d 1940 913a 6032 633d
00000220: 1bd4 d53d 0ca9 51be b818 dfbd 9f55 1ebd
00000230: 4fb9 073e 8b48 9c3c 4915 943d b831 5ebd
00000240: ae6f 983d 54e7 293c 635d fa3c 0b25 afbd
00000250: 0cd5 db3c 21a1 f9bd 9be6 59bd 1067 8fbc
00000260: 6131 29be e52d e43d be90 6bbc abf3 8e3d
00000270: 4473 2b3a 463d f63b 97ec 9cbb 9271 75bc
00000280: 5bd9 e03d c723 073e 2edb 09be b3f2 12bd
00000290: a7da 1ebd df08 063e 4fb2 e9bc 73d3 25be
000002a0: dd81 333d 043d 083e 3ea6 803d 3d68 763d
000002b0: 7574 6cbc cd83 77bd ec1e de3a 368c f4bc
000002c0: 89bb 9a3d d9ba e33d d484 8bbd 11ce 7a3d
000002d0: 291f 8fbd 5235 d8bd 4500 aebd e973 533d
000002e0: 4793 f53c bc65 99bd 0a34 b43d 5de5 8d3d
000002f0: 51fb 173e fa78 40bd 0423 5bbd dcfc e9bc
00000300: 0363 3d3a 94f5 2bbe 4396 48bd e9ff bfbc
00000310: 79e1 77bd 4a38 7b3c 60a8 c7bc 3e60 50bd
00000320: 3c4e 8fbd 3eef 3d3d ca01 85bd 237e 113e
00000330: aeb6 f63c e3ab d5bc 8591 d33c 5ed9 193d
00000340: e1e7 21bb 676f d53d fc95 6f3c b486 753d
00000350: 1089 d33d 6081 133b f805 293d 3448 99bd
00000360: 9325 ba3c 64c9 ad3c 4eda 393d 3f41 87be
00000370: 201c f6bb cd90 99bd e0e3 a63d 1d54 0d3d
00000380: db11 cb3d 9acf 46be a8ad 1cbd 675a a73d
00000390: 4e8e 363c f267 86bd b99a 4b3c 3c93 39bc
000003a0: ba80 0cbe 4a1b b9bc 9897 f3bd 05b0 9b3d
000003b0: d715 0e3e 15c7 173d f820 513e df1a 0b3e
000003c0: 5f60 e53c 652b 273e 5564 17bd 364f 9b3d
000003d0: 3fac 81bd 5fbc e9bc 64f0 233d d040 723c
000003e0: 20ce eebd d399 0e3e f046 29bd 46fc c53d
000003f0: e577 d0bd b00f c83c b6b8 c7bd db84 1ebd

network_body._body_endoder.seq_layers.2.bias f4 [128]
-0.0063281166 -0.0065788105 -0.083433926 -0.121044844 0.034636647 -0.072767496 -0.012256014 -0.027710821
0.026631467 0.004611908 -0.06642511 -0.025776878 0.025743894 0.009728889 0.06700888 0.03283621
-0.0100209 0.08207691 0.07130909 0.0059918053 0.004663217 -0.0031233772 0.061155643 0.07966581
0.011204152 0.019714478 -0.1214359 -0.020249773 -0.026780473 0.021444796 -0.050840765 0.06108137
-0.0076021575 0.056006197 0.04797239 0.03743927 -0.043127 -0.03329602 0.01636329 -0.034926295
0.004721005 0.022640372 0.06054132 -0.021347772 -0.018275274 -0.052467257 -0.021334792 -0.03359476
-0.005669421 0.029059973 -0.023605054 0.017989453 0.013305151 0.047484115 0.04527426 -0.033501
-0.044954874 -0.025249338 0.027265863 0.020121546 -0.03318889 -0.03863929 -0.010605731 -0.039132696
-0.01844849 -0.03503304 0.06874804 0.07786029 0.066189386 0.10490136 0.041938297 -0.018776633
0.054453168 -0.06508972 0.0509212 0.06814531 0.0026956599 0.04702538 0.014289787 -0.009151689
0.021938 -0.059078127 0.07132637 0.07433861 0.032207493 0.056245558 0.015411599 0.02644174
0.052863747 0.005577682 -0.006331073 -0.027099978 -0.015822303 0.05435777 -0.008456886 -0.020572232
0.075290754 -0.028312288 -0.010087174 0.027722564 -0.003745215 -0.04201809 -0.03001465 -0.082139835
-0.025799941 -0.048096668 0.008069074 -0.007346844 0.11191059 0.06331715 -0.00033184842 -0.010660558
0.015364815 0.0019266898 -0.0036318458 -0.041430812 -0.015700521 0.02163329 0.04417323 -0.024029417
0.0067452556 0.0043345857 0.016164968 -0.08996697 0.054461475 0.05240847 0.06534522 0.039872676
00000000: 175c cfbb 1093 d7bb 68df aabd 5ce6 f7bd
00000010: 28df 0d3d 2007 95bd 73cd 48bc ce01 e3bc
00000020: 3c2a da3c 7d1f 973b e309 88bd 082a d3bc
00000030: dce4 d23c eb65 1f3c f43b 893d 437f 063d
00000040: b32e 24bc f017 a83d 800a 923d e856 c43b
00000050: e6cd 983b 93b1 4cbb 577e 7a3d d427 a33d
00000060: 9f91 373c 4280 a13c 63b3 f8bd dae2 a5bc
00000070: b962 dbbc ffac af3c 683e 50bd 7530 7a3d
00000080: 851b f9bb c166 653d b27e 443d ec59 193d
00000090: f0a5 30bd 6861 08bd 4e0c 863c e00e 0fbd
000000a0: a9b2 9a3b 4d78 b93c 2dfa 773d 86e1 aebc
000000b0: 07b6 95bc e8e7 56bd 4dc6 aebc a99a 09bd
000000c0: 8dc6 b9bb 2e0f ee3c 635f c1bc 9e5e 933c
000000d0: d9fd 593c b47e 423d 8171 393d 5838 09bd
000000e0: 9a22 38bd b3d7 cebc a95c df3c f1d5 a43c
000000f0: 13f1 07bd 3b44 1ebd a9c3 2dbc 9b49 20bd
00000100: 4a21 97bc ce7e 0fbd c6cb 8c3d 3775 9f3d
00000110: 4d8e 873d 86d6 d63d 7ec7 2b3d 74d1 99bc
00000120: 490a 5f3d c24d 85bd c092 503d c58f 8b3d
00000130: aba9 303b af9d 403d b61f 6a3c f7f0 15bc
00000140: 52b7 b33c e8fb 71bd 8f13 923d d73e 983d
00000150: 01ec 033d be61 663d ee80 7c3c 599c d83c
00000160: a887 583d fdc4 b63b e474 cfbb c600 debc
00000170: c69d 81bc 41a6 5e3d c08e 0abc 1987 a8bc
00000180: 0a32 9a3d 2cef e7bc ad44 25bc 6e1a e33c
00000190: 4872 75bb 291b 2cbd 49e1 f5bc ee38 a8bd
000001a0: 665a d3bc 0301 45bd 2634 043c cbbd f0bb
000001b0: 6131 e53d 6cac 813d f1fb adb9 9fa9 2ebc
000001c0: b4bc 7b3c fb88 fc3a 4304 6ebb 5bb3 29bd
000001d0: 619e 80bc 4c38 b13c fdee 343d 57d9 c4bc
000001e0: 4e07 dd3b 2409 8e3b 656c 843c 9a40 b8bd
000001f0: ff12 5f3d 44aa 563d b7d3 853d 8851 233d

action_model._continuous_distribution.log_sigma f4 [1, 2]
0.01101067 0.02212688
00000000: 1966 343c 6e43 b53c

action_model._continuous_distribution.mu.weight f4 [2, 128]
-0.02281494 -0.011947494 -0.07345773 -0.062353093 0.015502423 -0.06005339 -0.014464231 -0.05610348
0.06855593 -0.009642393 -0.038401492 -0.03237356 0.03956178 -0.00749419 0.030892357 0.014619539
-0.015954847 0.0772474 0.04263253 0.00029341126 -0.0010145038 -0.023022031 0.06889142 0.05811936
-0.002330962 0.020197298 -0.06531952 -0.031740464 -0.015038266 0.007034269 -0.015988475 0.042285606
-5.688853e-05 0.012619605 0.019571522 0.012594662 -0.07634567 -0.016100062 0.006925592 -0.021945663
-0.027342616 0.0128528485 0.032319173 -0.0056429557 0.003994378 -0.0276973 -0.041254863 -0.047457762
-0.026864802 0.018484892 -0.0316448 0.013168877 -0.007940014 0.053639147 0.008451853 -0.04393582
-0.033844292 -0.033059202 0.04103309 0.026704885 -0.04517301 -0.039638218 -0.00915449 -0.03351887
-0.0236146 -0.03965719 0.08981756 0.031481914 0.075499244 0.114676684 0.016611628 -0.032084964
0.027008055 -0.030053938 0.030980863 0.04379413 0.00580506 0.0106326295 0.01638526 -0.019563409
-0.0003433272 -0.042026095 0.037065417 0.027536152 0.018058373 0.043683432 0.030425034 0.016214345
0.053741757 -0.012727455 -0.024744747 -0.0103065595 -0.054344106 0.04373265 -0.0072124833 -0.032907225
0.04861371 -0.02767419 -0.007348333 0.02110339 -0.0098707015 -0.057016622 -0.036585268 -0.078970954
-0.028852481 -0.0113507155 -0.010759257 -0.009840694 0.12141715 0.024886033 0.021088379 -0.015391299
0.0025375204 0.00070027896 -0.02186507 -0.043879017 -0.040566154 0.022468546 0.020493519 -0.024934884
-0.003169438 -0.0026589097 0.02019336 -0.035183225 0.03357975 0.032245323 0.07175352 0.0031268338
-0.030821769 0.02928975 0.031788085 0.016844891 8.325947e-05 -0.013873045 0.025438668 0.018737158
0.055948984 0.06322177 0.007499119 0.012685571 0.03487509 -0.019858351 -0.04714999 0.03709452
-0.043393396 -0.01486818 -0.013868752 0.019539077 0.012294233 -0.011767861 0.014974985 0.0061914283
-0.046260476 0.057238895 0.006116438 0.041266285 0.008747888 -0.042871483 0.011985131 -0.068074256
0.022325385 -0.009524801 -0.028386634 -0.03686771 0.0020600995 0.012028755 0.015081135 -0.01027529
-0.031775992 -0.013263942 -0.051574934 0.056251843 -0.0014807027 0.010449522 -0.020495128 0.01200755
-0.024209118 -0.0021262493 0.010921903 0.042952474 -0.02521374 0.029785477 -0.023455575 0.014856564
0.01809867 0.0247863 0.01075487 0.050772462 0.05319847 -0.01799431 -0.0074399984 -0.01725697
-0.016421333 -0.011041641 0.023532836 -0.037568435 -0.029780323 -0.06699152 -0.049781483 -0.0065810224
-0.036768164 0.005035844 -0.028081344 -0.022506906 -0.009635146 -0.009650069 -0.05251325 -0.028285444
0.032652114 -0.017795373 -0.033175502 -0.029132739 0.012951239 0.017761318 0.027438197 -0.0011821265
-0.003609712 -0.017248474 -0.012681624 -0.007046292 0.038028467 -0.050054498 0.02697711 0.024564369
-0.024289792 0.0063812067 0.05182352 0.012714018 -0.041585516 0.011849704 -0.010145089 -0.0022178732
0.006004619 -0.0036026686 -0.017073562 -0.012044111 -0.034296688 -0.024956385 0.020926243 0.03412795
-0.039760794 0.025023034 -0.036216 -0.00028076867 0.025828192 0.05475759 0.0070691165 -0.00053122314
0.04071427 0.00851897 0.03162091 0.0125494115 -0.0090845255 -0.065708764 0.003778324 -0.023181321
00000000: 66e6 babc 6cbf 43bc 0271 96bd f565 7fbd
00000010: e0fd 7d3c 8bfa 75bd 62fb 6cbc c3cc 65bd
00000020: 0d67 8c3d 21fb 1dbc e24a 1dbd 239a 04bd
00000030: 880b 223d d291 f5bb f811 fd3c ca86 6f3c
00000040: bdb3 82bc e333 9e3d 739f 2e3d fed4 9939
00000050: 19f9 84ba b398 bcbc f216 8d3d 910e 6e3d
00000060: 0ec3 18bb ce74 a53c 3ec6 85bd 4a02 02bd
00000070: 0f63 76bc ba7f e63b 43fa 82bc ac33 2d3d
00000080: 989b 6eb8 76c2 4e3c 7554 a03c d759 4e3c
00000090: 1e5b 9cbd 47e4 83bc 14f0 e23b 64c7 b3bc
000000a0: 9ffd dfbc c194 523c 1c61 043d 8be8 b8bb
000000b0: 45e3 823b 73e5 e2bc dcfa 28bd 1263 42bd
000000c0: 9313 dcbc a16d 973c fa9d 01bd 46c2 573c
000000d0: d516 02bc b9b4 5b3d a479 0a3c 0cf6 33bd
000000e0: 50a0 0abd 1669 07bd 5012 283d 34c4 da3c
000000f0: 5607 39bd af5b 22bd b7fc 15bc 154b 09bd
00000100: 6873 c1bc 946f 22bd 45f2 b73d 2ef3 003d
00000110: 599f 9a3d 9cdb ea3d 1c15 883c 866b 03bd
00000120: ff3f dd3c ad33 f6bc 94cb fd3c 7961 333d
00000130: 5f38 be3b 7b34 2e3c 613a 863c 7143 a0bc
00000140: 9900 b4b9 8e23 2cbd e8d1 173d 7f93 e13c
00000150: 27ef 933c 66ed 323d ec3d f93c f2d3 843c
00000160: 5120 5c3d d186 50bc 7fb5 cabc d8dc 28bc
00000170: ed97 5ebd 0221 333d b256 ecbb bac9 06bd
00000180: 2b1f 473d fcb4 e2bc 49ca f0bb 04e1 ac3c
00000190: b9b8 21bc 438a 69bd 6fda 15bd 86bb a1bd
000001a0: 0a5c ecbc 5af8 39bc 9847 30bc dd3a 21bc
000001b0: 8ea9 f83d cbdd cb3c 89c1 ac3c c92b 7cbc
000001c0: 874c 263b ed92 373a 601e b3bc 7cba 33bd
000001d0: b228 26bd f50f b83c 06e2 a73c 3e44 ccbc
000001e0: 59b6 4fbb 1a41 2ebb 8c6c a53c 491c 10bd
000001f0: ec8a 093d ac13 043d 82f3 923d 91eb 4c3b
00000200: ef7d fcbc 0ff1 ef3c 3934 023d 4cfe 893c
00000210: 969b ae38 c54b 63bc c164 d03c ab7e 993c
00000220: c32a 653d 6a7a 813d 2bbb f53b 24d7 4f3c
00000230: 2fd9 0e3d fbad a2bc 5920 41bd 6cf0 173d
00000240: 46bd 31bd ab99 73bc c339 63bc 6a10 a03c
00000250: c06d 493c fdcd 40bc a459 753c 77e1 ca3b
00000260: a07b 3dbd 5573 6a3d 676c c83b d606 293d
00000270: 4d53 0f3c 029a 2fbd 485d 443c 846a 8bbd
00000280: bae3 b63c e90d 1cbc 168b e8bc 9902 17bd
00000290: bc02 073b 4114 453c dd16 773c b159 28bc
000002a0: 8b27 02bd 0151 59bc 3d40 53bd 5568 663d
000002b0: 2314 c2ba 7934 2b3c 66e5 a7bc 51bb 443c
000002c0: 3352 c6bc 8b58 0bbb c8f1 323c efee 2f3d
000002d0: 0c8d cebc ac00 f43c e825 c0bc f268 733c
000002e0: a943 943c a30c cb3c 3235 303c c9f6 4f3d
000002f0: a4e6 593d ce68 93bc 3bcb f3bb 7d5e 8dbc
00000300: 0886 86bc 00e8 34bc efc7 c03c 5ce1 19bd
00000310: ddf5 f3bc da32 89bd abe7 4bbd 9ea5 d7bb
00000320: 379a 16bd b903 a53b d90a e6bc 6760 b8bc
00000330: bbdc 1dbc 531b 1ebc 2218 57bd e0b6 e7bc
00000340: 39be 053d 9ac7 91bc 09e3 07bd c8a7 eebc
00000350: 6f31 543c 2f80 913c 12c6 e03c 95f1 9aba
00000360: eb90 6cbb ac4c 8dbc 96c6 4fbc 95e4 e6bb
00000370: bdc3 1b3d f205 4dbd 1aff dc3c 373b c93c
00000380: 63fb c6bc 7119 d13b e644 543d 754e 503c
00000390: 9355 2abd 4325 423c 9637 26bc bd59 11bb
000003a0: 65c2 c43b c01a 6cbb dbdd 8bbc aa54 45bc
000003b0: af7a 0cbd 5571 ccbc 836d ab3c c0c9 0b3d
000003c0: 37dc 22bd 1bfd cc3c 3a57 14bd 2234 93b9
000003d0: a595 d33c 7f49 603d 0ca4 e73b c841 0bba
000003e0: 02c4 263d 2693 0b3c ed84 013d 0c9c 4d3c
000003f0: 43d7 14bc 5192 86bd c29d 773b c1e6 bdbc

action_model._continuous_distribution.mu.bias f4 [2]
0.05228056 -0.013642965
00000000: 2424 563d be86 5fbc

action_model._discrete_distribution.branches.0.weight f4 [1, 128]
0.00080897316 0.014317579 0.0146863265 -0.012125027 0.0011015871 -0.007677648 -0.010872357 -0.0067082914
-0.007510987 -0.006905187 -0.0017228321 0.00089552207 0.004433631 0.014165952 -0.013223529 -0.00056586904
-0.0036932041 -0.015586509 -0.0070041525 -0.0015232082 0.0067641097 2.6214571e-05 -0.0029562938 -3.519312e-05
-0.010236007 8.385906e-06 -0.012318449 0.00053569366 0.011252021 0.022559695 -0.004944518 -0.002210879
0.0033338852 0.0032217395 -0.011186392 -0.005681105 0.012771393 -0.018404989 0.0052832523 -0.011387137
-0.006633144 -0.0012591517 -0.0056704017 -0.00047661812 -0.015651572 0.0076603093 -0.0005382869 -0.0005683407
-0.008241081 -0.0005927498 0.005258605 -0.0060625947 0.0016021237 -0.0032266637 0.0033429272 -0.0073397434
0.0035602134 -0.0058555873 -0.022786079 0.0045811427 0.0015344706 -0.018290957 -0.0005338866 -0.0045210593
-0.002807645 -0.0019323565 0.0093363365 0.007928304 -0.01964795 0.0008823629 0.0010937814 -0.0020235463
0.005443313 0.003622121 -0.011359238 0.00071271474 0.0015896596 -0.003453614 0.0048208334 0.0079009235
-0.00845658 0.00043738136 -0.020422783 -0.012118784 0.01404152 0.0063724928 -0.00095527637 -0.0057198904
0.004863339 -0.0019480635 -0.0029799026 0.0059618964 0.0025263734 0.012001781 -0.004627921 0.008297363
0.0007135779 -0.005179408 0.00045059016 -0.0027917821 0.0073193647 0.021660205 0.001951543 0.009960643
-0.0016528886 0.0038420346 -0.0038191527 0.0068045445 0.0055902703 -0.0045183008 0.008373915 -0.0004959766
0.006530234 0.022514181 0.007930792 -0.000867547 -0.004881439 0.011676781 -0.018241687 -0.009521517
-0.009217088 -0.0065633655 -0.00323574 0.010125127 0.0054787467 0.008231276 -0.013592099 -0.011175573
00000000: 4511 543a 4794 6a3c eb9e 703c 0da8 46bc
00000010: 2163 903a c894 fbbb f821 32bc 3ad1 dbbb
00000020: ba1e f6bb e844 e2bb a7d0 e1ba 78c1 6a3a
00000030: fe47 913b 4f18 683c 80a7 58bc d456 14ba
00000040: af09 72bb 8f5e 7fbc 1783 e5bb 63a6 c7ba
00000050: 77a5 dd3b 5de7 db37 61be 41bb 539c 13b8
00000060: edb4 27bc 31b1 0c37 52d3 49bc cb6d 0c3a
00000070: 665a 383c 1ccf b83c a005 a2bb 65e4 10bb
00000080: 507d 5a3b d223 533b 2147 37bc 9028 babb
00000090: 1b3f 513c 0fc6 96bc 221f ad3b 1d91 3abc
000000a0: d85a d9bb 1f0a a5ba c7ce b9bb 9ae2 f9b9
000000b0: ba37 80bc 5503 fb3b d31b 0dba b3fc 14ba
000000c0: 9905 07bc c462 1bba 6050 ac3b bba8 c6bb
000000d0: 5afe d13a 6f76 53bb 0315 5b3b 3b82 f0bb
000000e0: 7852 693b 3ae0 bfbb dfa9 babc 691d 963b
000000f0: 4a20 c93a ebd6 95bc 86f4 0bba 6525 94bb
00000100: 7700 38bb 2047 fdba 6ff7 183c b8e5 013c
00000110: bdf4 a0bc 5f4e 673a 375d 8f3a 799d 04bb
00000120: d25d b23b 1b61 6d3b 191c 3abc 7ad5 3a3a
00000130: 205c d03a 0756 62bb 15f8 9d3b e072 013c
00000140: 788d 0abc 5550 e539 ae4d a7bc dd8d 46bc
00000150: 670e 663c 58d0 d03b 836b 7aba eb6d bbbb
00000160: a55c 9f3b 2a56 ffba 784a 43bb 035c c33b
00000170: 8391 253b 1ea3 443c d1a5 97bb aaf1 073c
00000180: 670f 3b3a 06b8 a9bb 303d ec39 55f6 36bb
00000190: 48d7 ef3b be70 b13c ebca ff3a f731 233c
000001a0: bda5 d8ba a5ca 7b3b c04a 7abb a8f8 de3b
000001b0: 962e b73b 410e 94bb bf32 093c 6d04 02ba
000001c0: 93fb d53b a96f b83c 27f0 013c 186c 63ba
000001d0: 7af4 9fbb f84f 3f3c 976f 95bc 2300 1cbc
000001e0: 4503 17bc 8011 d7bb b50e 54bb dce3 253c
000001f0: 0f87 b33b 79dc 063c 65b1 5ebc c019 37bc

exp_avg f4 [128, 12]
6.253816e-06 2.3224457e-05 -1.8697105e-05 -5.19982e-05 -6.361511e-06 -3.9255624e-06 -3.0812753e-05 -6.2844933e-06
0.0 3.9317645e-05 -3.2664495e-05 4.8715094e-05 4.1967316e-05 5.84772e-05 -4.4499775e-06 0.000107934364
-9.794982e-06 -4.331766e-06 -2.651954e-05 -1.3771592e-05 0.0 -8.104688e-05 -2.8039281e-05 -3.7124704e-05
3.636267e-05 3.6525555e-05 -4.395477e-06 -3.1881616e-05 -5.119651e-06 -3.737513e-06 -3.3449878e-06 -3.6727192e-06
0.0 5.746798e-05 -1.0246973e-05 -1.01048145e-05 1.624736e-05 3.309045e-05 -6.401194e-06 2.2734923e-05
-1.1770957e-05 -7.4932013e-06 4.6448717e-05 -1.1089265e-05 0.0 3.1134252e-05 -3.5052406e-05 -1.4527981e-05
1.4079975e-05 4.2290427e-05 -9.592892e-06 0.00010080995 -2.0919647e-06 2.6197513e-06 2.0484316e-05 -1.1363592e-05
0.0 -3.854078e-05 4.0685583e-05 8.9423585e-05 -2.434681e-06 3.8220896e-06 9.869467e-08 0.00011110512
-3.8639473e-06 -2.8299505e-06 -5.891474e-05 -2.7053486e-06 0.0 -7.680728e-05 5.4591295e-05 -9.84661e-06
2.2745247e-05 1.8360515e-06 8.348158e-06 -1.4446414e-07 5.6698177e-06 2.428007e-06 2.316869e-05 8.124269e-06
0.0 6.846675e-05 -3.0811298e-05 -6.779191e-05 8.302053e-06 3.0263867e-05 -1.3212582e-06 5.3134678e-05
-1.3027911e-05 -9.537046e-06 0.00016839891 -9.278078e-06 0.0 0.00014208158 -1.6241402e-05 -4.14705e-05
2.6193884e-05 6.595948e-05 -3.6455285e-06 0.00011648844 -1.9778767e-05 -1.3029743e-05 0.00026342476 -1.7564937e-05
0.0 0.00024784773 -0.00012791756 -1.7935821e-05 -4.4676417e-06 -3.8897342e-05 1.6394159e-05 1.3453609e-06
5.8339688e-06 -9.5213613e-07 5.3538435e-05 1.6579577e-05 0.0 7.8388286e-05 0.00011966497 -5.984355e-05
5.5574856e-06 2.1765973e-05 -4.7374447e-06 2.3061435e-05 -9.210388e-06 -6.4521064e-06 2.9572231e-05 -7.2454086e-06
0.0 -2.904313e-05 8.311919e-06 8.406458e-05 -7.152012e-05 -9.287275e-05 7.2514636e-06 -7.402064e-05
-9.500741e-06 -1.7002123e-05 4.4929016e-05 1.7232094e-05 0.0 6.109975e-05 5.456117e-05 -8.361979e-05
-3.14225e-06 -1.2422033e-05 1.31246e-06 -6.211425e-05 1.2915232e-05 1.1854187e-05 5.468709e-05 3.4379e-06
0.0 5.135159e-05 -7.452493e-05 7.082264e-06 -1.3989327e-05 -1.43263205e-05 3.1820076e-07 1.3852945e-05
4.0251734e-07 1.8136234e-08 -4.4726818e-05 9.612747e-07 0.0 -4.364922e-05 5.2523166e-05 2.530281e-06
4.831072e-05 5.3271084e-05 -1.7800016e-06 9.505698e-05 -3.404497e-06 -3.9871293e-07 -6.0558436e-05 -7.406563e-06
0.0 -0.00011054214 4.788291e-05 1.8847386e-05 -1.181917e-05 -1.2161955e-05 2.1696267e-06 3.0623753e-05
7.3123674e-06 6.776323e-06 -3.9305844e-05 1.8155004e-06 0.0 -6.1808096e-05 -4.681799e-06 -1.4883124e-05
3.1146315e-05 2.9342957e-05 -3.6381948e-06 7.327451e-05 1.5263413e-07 2.2676547e-06 -0.000128014 -4.999234e-06
0.0 -0.00014657991 3.305903e-05 0.0001889769 -4.0883788e-05 -3.8821247e-05 -1.4318715e-07 5.3556032e-05
-2.4632104e-06 -2.5259642e-06 -0.000117487645 -1.4550778e-08 0.0 -0.00012249898 7.4023446e-05 2.5397847e-05
-3.0907453e-05 -5.7869882e-05 6.8332433e-06 -9.3366434e-05 9.608548e-06 1.0272813e-06 8.354664e-05 2.1151998e-05
0.0 0.00011103489 -3.9869037e-06 -0.00017273675 -8.3350504e-05 -8.155321e-05 -4.12889e-06 -8.707103e-05
1.9331881e-05 1.7813132e-05 -3.5502515e-05 5.0789567e-06 0.0 -5.7435635e-05 5.933717e-05 3.5990834e-05
-4.309278e-05 -3.186585e-05 -1.8522029e-06 6.4100765e-05 -3.0395724e-06 -2.0758255e-06 -6.4521546e-06 -2.5244783e-06
0.0 -4.6290024e-06 6.523219e-06 -2.7442695e-05 -1.1676668e-05 1.1598582e-05 -9.283547e-06 3.972136e-05
00000000: dfd7 d136 24d2 c237 bad7 9cb7 a418 5ab8
00000010: f774 d5b6 53b8 83b6 f13c 01b8 63df d2b6
00000020: 0000 0000 00e9 2438 3c01 09b8 6f53 4c38
00000030: 1006 3038 6a45 7538 0451 95b6 d25a e238
00000040: 2155 24b7 9659 91b6 4776 deb7 8a0c 67b7
00000050: 0000 0000 b6f7 a9b8 e635 ebb7 59b6 1bb8
00000060: 1f84 1838 0433 1938 dc7c 93b6 a0b8 05b8
00000070: 78c9 abb6 fcd1 7ab6 747a 60b6 d678 76b6
00000080: 0000 0000 c609 7138 6aea 2bb7 d987 29b7
00000090: f14a 8837 9aca 0a38 d6c9 d6b6 e0b6 be37
000000a0: e07b 45b7 1c6e fbb6 eed1 4238 080c 3ab7
000000b0: 0000 0000 2696 0238 3c05 13b8 34bd 73b7
000000c0: 0839 6c37 0061 3138 28f1 20b7 ee69 d338
000000d0: ae63 0cb6 fcce 2f36 bcd5 ab37 42a6 3eb7
000000e0: 0000 0000 d9a6 21b8 d0a5 2a38 ec88 bb38
000000f0: 8063 23b6 803f 8036 f8f1 d333 1b01 e938
00000100: 0ea7 81b6 2eea 3db6 381b 77b8 898d 35b6
00000110: 0000 0000 9813 a1b8 f5f8 6438 de32 25b7
00000120: 0ccd be37 406e f635 110f 0c37 001e 1bb4
00000130: 5d3f be36 d8f0 2236 625a c237 784d 0837
00000140: 0000 0000 ce95 8f38 613b 01b8 812b 8eb8
00000150: 0c49 0b37 29df fd37 1656 b1b5 eddc 5e38
00000160: 7492 5ab7 4d01 20b7 3d94 3039 0ba9 1bb7
00000170: 0000 0000 bcfb 1439 253e 88b7 9cf0 2db8
00000180: f0ba db37 ba53 8a38 b4a5 74b6 414b f438
00000190: 94ea a5b7 529a 5ab7 461c 8a39 6a58 93b7
000001a0: 0000 0000 8ff1 8139 9c21 06b9 e274 96b7
000001b0: c0e8 95b6 b425 23b8 3086 8937 4092 b435
000001c0: 69c1 c336 4c96 7fb5 758e 6038 5f14 8b37
000001d0: 0000 0000 6464 a438 a4f4 fa38 8600 7bb8
000001e0: 707a ba36 1296 b637 57f6 9eb6 0e74 c137
000001f0: 5186 1ab7 2c7f d8b6 e211 f837 961d f3b6
00000200: 0000 0000 a6a1 f3b7 6c73 0b37 d44b b038
00000210: 12fd 95b8 aec4 c2b8 9951 f336 873b 9bb8
00000220: 5f65 1fb7 c89f 8eb7 2a72 3c38 a48d 9037
00000230: 0000 0000 ae22 8038 9cd8 6438 085d afb8
00000240: 72df 52b6 3a68 50b7 c827 b035 5643 82b8
00000250: 80ae 5837 58e1 4637 d15f 6538 acb6 6636
00000260: 0000 0000 5a62 5738 444a 9cb8 2fa4 ed36
00000270: b4b3 6ab7 145b 70b7 2ed5 aa34 f269 6837
00000280: 9019 d834 00ca 9b32 0e99 3bb8 2605 8135
00000290: 0000 0000 fe13 37b8 524c 5c38 e6cd 2936
000002a0: 3ea1 4a38 646f 5f38 64e8 eeb5 5459 c738
000002b0: d078 64b6 b00e d6b4 2000 7eb8 e485 f8b6
000002c0: 0000 0000 dcd2 e7b8 e2d5 4838 741a 9e37
000002d0: f34a 46b7 330b 4cb7 e799 1136 0172 0038
000002e0: c25c f536 2c60 e336 54dc 24b8 1eac f335
000002f0: 0000 0000 f89e 81b8 5918 9db6 88b2 79b7
00000300: 1aa3 0238 8525 f637 b627 74b6 f4aa 9938
00000310: c0e3 2334 032e 1836 7f3b 06b9 18bf a7b6
00000320: 0000 0000 3fb3 19b9 dda8 0a38 1a28 4639
00000330: a27a 2bb8 ffd3 22b8 fcbe 19b4 5aa1 6038
00000340: a24d 25b6 bc83 29b6 b363 f6b8 00fb 79b2
00000350: 0000 0000 1273 00b9 093d 9b38 760d d537
00000360: a0a2 01b8 50b9 72b8 1d49 e536 b9cd c3b8
00000370: 6634 2137 1ee1 8935 c335 af38 926f b137
00000380: 0000 0000 67db e838 3ec7 85b6 ab20 35b9
00000390: 76cc aeb8 8c07 abb8 e58a 8ab6 e799 b6b8
000003a0: e62a a237 696d 9537 89e8 14b8 e86b aa36
000003b0: 0000 0000 0be7 70b8 cde0 7838 ddf4 1638
000003c0: 85be 34b8 b2a7 05b8 3599 f8b5 d66d 8638
000003d0: 75fb 4bb6 694e 0bb6 967f d8b6 356a 29b6
000003e0: 0000 0000 d452 9bb6 06e2 da36 bd34 e6b7
000003f0: e8e6 43b7 8897 4237 88c0 1bb7 7c9a 2638

exp_avg_sq f4 [128, 12]
4.2954394e-08 4.6908184e-08 9.943756e-10 6.8777936e-08 1.6813098e-08 3.4359275e-08 9.334428e-08 4.3668673e-09
0.0 9.532514e-08 1.1104276e-08 1.000464e-08 1.4175244e-07 2.0440514e-07 4.2315532e-10 4.564115e-07
6.898173e-08 1.4035052e-07 1.5206547e-07 4.0328896e-08 0.0 7.5536846e-08 3.277431e-08 1.1608761e-08
4.7023477e-07 3.835244e-07 1.4602641e-09 2.8846256e-07 1.3287333e-08 8.132866e-09 1.4202034e-07 6.600836e-09
0.0 2.2115621e-07 1.1477177e-08 8.570575e-09 1.8026835e-08 2.0858538e-08 1.0295654e-10 4.6324708e-08
1.0679992e-08 1.177805e-08 2.4721839e-08 1.0461893e-08 0.0 4.078022e-08 8.341154e-09 1.415564e-09
9.589324e-07 7.5961134e-07 6.567175e-10 9.226134e-07 2.2891511e-08 2.3337982e-08 3.112447e-07 1.6092205e-08
0.0 3.93706e-07 7.0502026e-08 9.613595e-08 2.2994298e-07 2.2911289e-07 4.5505089e-10 3.8343453e-07
3.7448874e-08 5.724446e-08 1.0675293e-07 4.2480988e-08 0.0 8.036445e-08 9.1359986e-08 9.473624e-08
5.038378e-07 3.8703212e-07 6.798564e-10 2.9851242e-07 9.822572e-09 5.350945e-09 1.340353e-07 4.8432978e-09
0.0 2.6296718e-07 4.793706e-08 2.2728837e-07 3.1270042e-07 2.79093e-07 1.9968761e-10 5.6777566e-07
6.0602763e-09 5.0411835e-09 1.5368414e-07 7.999332e-09 0.0 1.6826627e-07 9.542279e-09 2.7624274e-08
1.8352537e-06 1.5978163e-06 1.9090958e-09 2.8996435e-06 5.0895228e-08 6.68295e-08 8.65894e-07 1.7053575e-08
0.0 9.615306e-07 5.0729227e-08 1.8441632e-08 5.718001e-07 4.7659904e-07 1.4885008e-09 3.5117063e-07
3.274183e-08 4.3286477e-08 1.1682148e-07 1.0573704e-08 0.0 1.1703013e-07 4.7110458e-08 5.5607888e-08
1.4237882e-07 1.1115058e-07 3.2293768e-10 1.0105865e-07 3.525939e-09 1.8379918e-09 4.9678505e-08 1.1416887e-08
0.0 7.994807e-08 3.841514e-08 9.1341896e-08 2.1837407e-06 1.7280081e-06 2.6282263e-09 1.9669299e-06
5.3452638e-08 7.6094075e-08 4.0181428e-07 1.3289496e-08 0.0 4.2910457e-07 9.685859e-08 3.4119637e-07
2.1862817e-08 3.8608885e-08 7.546472e-11 6.295717e-08 2.0172525e-08 3.9509736e-08 3.6505014e-08 7.886557e-09
0.0 9.75718e-09 1.9397092e-08 1.8340105e-09 2.5475876e-07 2.1782638e-07 3.291459e-10 3.401214e-07
5.079333e-09 5.4594826e-09 8.980236e-08 2.1041884e-09 0.0 9.85301e-08 1.3825824e-08 1.0351791e-08
1.4421482e-07 1.2579224e-07 4.445483e-10 1.7158386e-07 2.0966851e-08 1.9170093e-08 4.339147e-08 3.3826776e-08
0.0 4.251477e-08 1.1337573e-07 1.3386828e-07 1.6438731e-08 1.8674887e-08 7.7196624e-11 4.9901825e-08
5.195947e-09 7.318947e-09 1.267358e-08 5.6469607e-09 0.0 1.2646168e-08 5.5084595e-09 8.9312255e-09
7.754785e-07 6.4696076e-07 1.0825719e-09 8.862718e-07 3.4091762e-08 2.8706808e-08 2.1441718e-07 9.199896e-09
0.0 2.409839e-07 8.0514496e-08 2.602173e-07 1.1621545e-06 9.899318e-07 1.4165722e-09 1.5079187e-06
2.3019993e-08 1.2917942e-08 3.9278794e-07 5.957106e-08 0.0 4.347461e-07 8.019031e-08 2.0424618e-08
1.9558654e-06 1.5609997e-06 3.9400256e-09 1.3179307e-06 5.3948238e-08 6.80927e-08 3.1726816e-07 1.5252217e-08
0.0 3.204894e-07 1.5431787e-07 3.9798138e-07 3.3713695e-07 2.8233734e-07 2.818387e-10 4.0900275e-07
9.940945e-09 6.527683e-09 1.413997e-07 1.2069076e-08 0.0 1.6956332e-07 3.2595917e-08 6.0820966e-08
5.351303e-07 4.3766485e-07 4.528536e-10 5.948896e-07 6.5180807e-09 3.856014e-09 1.7238816e-07 3.562316e-09
0.0 1.9644155e-07 2.4312692e-08 9.589396e-08 2.9471508e-07 2.7514784e-07 5.167952e-10 3.5194086e-07
00000000: db7c 3833 1878 4933 7baa 8830 12b3 9333
00000010: 656c 9032 6c92 1333 9074 c833 5f0b 9631
00000020: 0000 0000 8db5 cc33 1fc5 3e32 dfe0 2b32
00000030: 9d34 1834 757a 5b34 d1a1 e82f b808 f534
00000040: 1b23 9433 42b3 1634 7047 2334 1736 2d33
00000050: 0000 0000 d236 a233 bcc3 0c33 df6f 4732
00000060: 9374 fc34 31e7 cd34 7ab2 c830 fedd 9a34
00000070: 4f46 6432 b9b8 0b32 417e 1834 91cd e231
00000080: 0000 0000 f576 6d34 292d 4532 ca3d 1332
00000090: 6ed9 9a32 692c b332 6167 e22e 8ef6 4633
000000a0: 1a7b 3732 6958 4a32 e65b d432 e4bb 3332
000000b0: 0000 0000 5326 2f33 c94c 0f32 bb8d c230
000000c0: abb4 8035 18e8 4b35 6384 3430 83a9 7735
000000d0: f7a2 c432 c478 c832 2519 a734 223b 8a32
000000e0: 0000 0000 8a5e d334 e666 9733 4c73 ce33
000000f0: 3fe6 7634 1202 7634 b82a fa2f d7da cd34
00000100: 79d7 2033 f3dc 7533 0b40 e533 5774 3633
00000110: 0000 0000 d394 ac33 af31 c433 cc71 cb33
00000120: 783f 0735 4ac9 cf34 a4e0 3a30 3c43 a034
00000130: 21c0 2832 69db b731 58eb 0f34 196a a631
00000140: 0000 0000 ef2d 8d34 5be3 4d33 8d0c 7434
00000150: 38e1 a734 40d6 9534 118f 5b2f 3f69 1835
00000160: c13a d031 b836 ad31 6004 2534 6f6d 0932
00000170: 0000 0000 aeac 3434 63ef 2332 6c4a ed32
00000180: d652 f635 8d74 d635 2b31 0331 7f97 4236
00000190: e597 5a33 e883 8f33 c86f 6835 357d 9232
000001a0: 0000 0000 f10d 8135 60e1 5933 9469 9e32
000001b0: ce7d 1935 46df ff34 f793 cc30 8688 bc34
000001c0: 06a0 0c33 fce9 3933 4adf fa33 a4a7 3532
000001d0: 0000 0000 ff51 fb33 7f56 4a33 85d5 6e33
000001e0: cbe0 1834 adb1 ee33 7089 b12f 9505 d933
000001f0: fa4c 7231 969c fc30 185e 5533 0024 4432
00000200: 0000 0000 ebaf ab33 e5fd 2433 bd27 c433
00000210: 618c 1236 e8ed e735 3f9c 3431 99ff 0336
00000220: cc93 6533 2969 a333 efb8 d734 d24f 6432
00000230: 0000 0000 af5f e634 9300 d033 ac2d b734
00000240: d8cc bb32 ebd2 2533 dcf2 a52e 1233 8733
00000250: da47 ad32 6ab1 2933 b0c9 1c33 727d 0732
00000260: 0000 0000 88a0 2732 a89e a632 8210 fc30
00000270: c7c5 8834 a9e3 6934 2bf3 b42f ee99 b634
00000280: 4986 ae31 1e96 bb31 5fd9 c033 4699 1031
00000290: 0000 0000 7f97 d333 9e86 6d32 a9d7 3132
000002a0: 78d9 1a34 8211 0734 9c64 f42f 9d3c 3834
000002b0: 981a b432 7bab a432 6d5d 3a33 ef48 1133
000002c0: 0000 0000 7c99 3633 f778 f333 6fbd 0f34
000002d0: 2735 8d32 836a a032 d6c1 a92e a353 5633
000002e0: 0888 b231 237a fb31 ffba 5932 3107 c231
000002f0: 0000 0000 6f42 5932 ec44 bd31 f26f 1932
00000300: 7a2a 5035 ceaa 2d35 9dc9 9430 22e8 6d35
00000310: 4a6c 1233 f096 f632 8c3a 6634 920d 1e32
00000320: 0000 0000 9360 8134 50e7 ac33 feb3 8b34
00000330: 53fb 9b35 ccdd 8435 34b1 c230 b163 ca35
00000340: 80bd c532 b6ed 5d32 5de0 d234 13db 7f33
00000350: 0000 0000 0d67 e934 1735 ac33 3672 af32
00000360: 8341 0336 8b83 d135 d560 8731 c1e3 b035
00000370: b7b4 6733 5c3a 9233 0155 aa34 fb03 8332
00000380: 0000 0000 ba0f ac34 93b2 2534 25aa d534
00000390: c0ff b434 2694 9734 45f1 9a2f e994 db34
000003a0: bdc8 2a32 1b4a e031 a7d3 1734 5c58 4f32
000003b0: 0000 0000 3611 3634 97ff 0b33 ae9c 8233
000003c0: e0a5 0f35 33f8 ea34 7af5 f82f 81b0 1f35
000003d0: a5f5 df31 dc7d 8431 b219 3934 edcc 7431
000003e0: 0000 0000 71ed 5234 2dd8 d032 43ee cd33
000003f0: 5539 9e34 08b8 9334 3b0e 0e30 62f2 bc34

exp_avg f4 [128]
-4.1510604e-05 -9.092591e-05 -2.4282106e-05 -7.317747e-05 -7.496993e-05 -1.786808e-05 5.357534e-05 -6.121389e-05
-0.00011594636 0.000109379434 -4.7768008e-05 0.000113720766 2.269456e-05 6.3505086e-06 -4.887507e-05 1.1966275e-05
-3.3000397e-05 -8.945608e-08 0.00013955745 3.3547993e-05 -1.668002e-05 -8.5106614e-05 -2.4739247e-05 8.480239e-05
-3.0936608e-05 0.00018392358 0.00013398245 1.9670988e-05 -1.4583381e-05 1.3151644e-05 -5.843611e-05 -8.699506e-05
6.059525e-05 1.6896483e-05 1.9899193e-05 -2.5869107e-05 5.8340556e-05 -6.405689e-05 1.1945014e-05 -9.847556e-05
-6.0712686e-05 1.077973e-05 -1.7977873e-05 3.7452526e-05 -0.00015218023 0.00016924698 7.116774e-05 0.0001421677
-2.3864317e-05 1.3790861e-05 -3.1426353e-06 3.0614843e-05 8.201402e-05 -0.00011672908 -8.504452e-05 -2.9914589e-05
-5.060068e-05 4.8160564e-06 -0.00011974175 4.1552757e-05 0.0001830069 -1.809315e-05 -0.000118092845 6.779724e-05
-0.00011190473 -5.066408e-05 2.538151e-05 7.693536e-05 0.000118710144 -8.635631e-06 -8.430716e-06 5.2728483e-05
2.7528413e-06 7.826001e-06 6.0651004e-05 -2.397344e-05 0.00014057435 0.00014230926 4.3196305e-06 2.3732442e-05
7.1616814e-06 -8.272928e-05 0.000112945374 0.00017975338 -7.419751e-05 2.1994958e-05 7.466586e-05 -6.646225e-05
7.056613e-05 -0.00010630721 0.00015219889 0.00010407362 1.9683666e-05 -3.5602038e-06 0.00016412523 2.078242e-05
1.2037641e-05 0.00011048056 -1.841192e-05 -2.8320996e-05 1.7236514e-05 -0.00014196121 2.3492985e-05 -1.9860525e-05
-8.524593e-05 -1.9738414e-05 0.00011154512 -8.56478e-05 -3.524562e-05 9.314381e-05 0.00022509949 0.000103587765
-6.914815e-05 9.9769735e-05 0.00014271127 -4.726849e-05 -3.0106308e-05 4.001528e-05 6.2539315e-05 5.7026744e-05
0.00018984458 -2.091549e-05 0.000112129725 2.5041963e-05 4.6074078e-05 0.0001014187 6.3601256e-05 -3.7033977e-05
00000000: ac1b 2eb8 7aaf beb8 6db1 cbb7 db76 99b8
00000010: 2d39 9db8 69e3 95b7 15b6 6038 f55f 80b8
00000020: 3a28 f3b8 a362 e538 825a 48b8 5f7d ee38
00000030: 3260 be37 7416 d536 35ff 4cb8 c3c2 4837
00000040: e869 0ab8 001b c0b3 2b56 1239 e2b5 0c38
00000050: 12ec 8bb7 447b b2b8 2187 cfb7 f0d7 b138
00000060: eec1 01b8 9cdb 4039 a47d 0c39 2003 a537
00000070: 25ab 74b7 e2a5 5c37 4c19 75b8 1e71 b6b8
00000080: a727 7e38 ecbc 8d37 31ed a637 7c01 d9b7
00000090: b2b2 7438 4856 86b8 7267 4837 aa84 ceb8
000000a0: c0a5 7eb8 96da 3437 30cf 96b7 5816 1d38
000000b0: 9292 1fb9 e477 3139 e43f 9538 da12 1539
000000c0: 3b30 c8b7 4c5f 6737 10e6 52b6 7068 0038
000000d0: f1fe ab38 73cc f4b8 ee59 b2b8 17f1 fab7
000000e0: 113c 54b8 9c99 a136 dd1d fbb8 ef48 2e38
000000f0: 8ae5 3f39 bec6 97b7 9da8 f7b8 5e2e 8e38
00000100: 65ae eab8 2480 54b8 61ea d437 5b58 a138
00000110: 06f4 f838 c1e1 10b7 a671 0db7 c728 5d38
00000120: 74bd 3836 6b4c 0337 8563 7e38 921a c9b7
00000130: 2467 1339 da38 1539 58f1 9036 0815 c737
00000140: 604e f036 f27e adb8 16dd ec38 2e7c 3c39
00000150: 7c9a 9bb8 d081 b837 ee95 9c38 a661 8bb8
00000160: e7fc 9338 40f1 deb8 9497 1f39 1942 da38
00000170: 5a1e a537 d6eb 6eb6 0819 2c39 e855 ae37
00000180: 46f5 4937 cdb1 e738 4c73 9ab7 e092 edb7
00000190: 2297 9037 6cdb 14b9 cd12 c537 279a a6b7
000001a0: 0fc6 b2b8 ec93 a5b7 55ed e938 d09d b3b8
000001b0: b2d4 13b8 3456 c338 af08 6c39 423d d938
000001c0: a103 91b8 783b d138 c4a4 1539 2842 46b8
000001d0: ce8c fcb7 14d6 2738 8a27 8338 0030 6f38
000001e0: 0411 4739 ac73 afb7 3027 eb38 3511 d237
000001f0: aa3f 4138 c0b0 d438 aa61 8538 ee54 1bb8

exp_avg_sq f4 [128]
1.09847434e-07 1.1513622e-07 1.5613023e-07 2.2239309e-08 1.5811132e-07 8.025347e-08 8.5595815e-08 8.942345e-08
5.501907e-07 1.403433e-07 3.4434635e-08 3.3759017e-07 1.676315e-08 6.2794165e-08 5.4982294e-08 1.4662816e-08
1.7827684e-07 2.8844815e-07 3.532843e-07 7.831376e-08 1.023067e-07 8.373791e-08 3.338563e-08 9.787311e-08
4.182391e-08 5.0525455e-07 1.3102581e-07 1.6426792e-07 6.0982295e-08 2.445794e-07 1.8735603e-08 1.245545e-07
2.4723488e-07 4.733318e-07 4.9597112e-08 3.6617624e-08 1.7577324e-08 5.65334e-07 7.772037e-09 9.977494e-08
4.6613437e-08 1.19874075e-08 2.752292e-08 1.6165014e-08 5.498722e-07 2.8162853e-07 2.5055246e-07 4.6404077e-07
7.016581e-08 2.7428638e-07 3.2896736e-08 2.007761e-07 1.2812411e-07 4.4610223e-07 1.00649e-07 1.5345515e-07
8.722478e-08 1.0725016e-08 8.5486825e-08 7.886315e-08 1.4146575e-07 2.0671045e-08 4.5397474e-08 1.8245453e-07
4.463741e-07 3.9746325e-08 5.7326233e-08 5.1024937e-08 3.219511e-07 1.4320547e-07 7.1229245e-08 6.331695e-08
8.1249806e-07 3.9883773e-08 2.3611507e-07 2.293726e-08 1.7749177e-07 7.54403e-07 1.12933364e-07 4.9098272e-08
2.5654513e-08 2.6715404e-07 3.8463378e-07 1.9949697e-07 5.1015235e-08 2.7767951e-08 1.3471573e-07 2.7743216e-08
1.1494335e-07 4.866379e-07 1.0300836e-06 8.387887e-08 1.1323297e-08 3.739824e-07 7.7671893e-07 2.9151249e-08
2.131173e-08 7.7263365e-08 7.052647e-08 1.3180728e-07 1.6751594e-07 1.9479025e-07 6.3468e-08 9.044873e-08
3.3995196e-08 7.236045e-09 1.079017e-07 1.574428e-07 3.9268166e-08 3.4754237e-07 6.6736715e-07 1.3829951e-07
2.759556e-08 5.3418916e-08 4.4823832e-07 5.5031478e-08 1.0650692e-07 1.6637217e-07 8.621017e-08 7.125296e-08
4.6317822e-07 7.0433046e-08 4.6444566e-08 1.9048393e-08 1.7424584e-08 2.3677464e-07 1.7867396e-08 1.7381127e-07
00000000: 44e5 eb33 ce40 f733 c0a4 2734 c208 bf32
00000010: 4fc5 2934 d057 ac33 ccd0 b733 1009 c033
00000020: d1b0 1335 46b1 1634 48e5 1333 0a3e b534
00000030: 8ffe 8f32 75d9 8633 ac25 6c33 bfe7 7b32
00000040: 5d6c 3f34 03dc 9a34 06ab bd34 722d a833
00000050: b4b3 db33 67d3 b333 e363 0f33 502e d233
00000060: e0a1 3333 d4a0 0735 1ab0 0c34 9f61 3034
00000070: 5ff5 8233 bd4e 8334 07f0 a032 48bd 0534
00000080: b4bb 8434 3a1e fe34 9a04 5533 8145 1d33
00000090: f2fc 9632 75c1 1735 c885 0532 da43 d633
000000a0: 0434 4833 2df1 4d32 8b6b ec32 3edb 8a32
000000b0: ee9a 1335 bb32 9734 ab83 8634 4721 f934
000000c0: 10ae 9633 a241 9334 584a 0d33 ea94 5734
000000d0: 7d92 0934 d37f ef34 5f24 d833 6ec5 2434
000000e0: 5450 bb33 1f41 3832 e194 b733 7a5b a933
000000f0: cfe5 1734 1c90 b132 0dfb 4233 b8e8 4334
00000100: 30a5 ef34 8cb5 2a33 dc36 7633 8326 5b33
00000110: 9fd8 ac34 05c4 1934 b1f6 9833 ddf8 8733
00000120: 711a 5a35 ac4c 2b33 d186 7d34 9107 c532
00000130: 9194 3e34 2e82 4a35 c685 f233 1fe0 5233
00000140: df5e dc32 5f6d 8f34 aa7f ce34 4f35 5634
00000150: d81b 5b33 5f86 ee32 61a6 1034 fa4f ee32
00000160: c6d6 f633 80a1 0235 6741 8a35 e520 b433
00000170: 6388 4232 c0c7 c834 b87f 5035 4668 fa32
00000180: fd10 b732 fceb a533 5674 9733 e986 0d34
00000190: 6ede 3334 8927 5134 e74b 8833 b73c c233
000001a0: 1d02 1233 eda0 f831 96b7 e733 8c0d 2934
000001b0: cea7 2833 dc95 ba34 1f25 3335 7b7f 1434
000001c0: 470b ed32 b86e 6533 68a5 f034 c05b 6c33
000001d0: ccb8 e433 09a4 3234 8b22 b933 bb03 9933
000001e0: bbaa f834 fa40 9733 577a 4733 dc9f a332
000001f0: 11ad 9532 1e3c 7e34 d27a 9932 e1a0 3a34
