results/SlayRL_022/SlayTheSquire_RL/checkpoint.pt (torch, 466475 bytes, 47 tensors)

network_body.observation_encoder.processors.0.normalizer.running_mean f4 [12]
000000 3b 26 70 3f 89 bb ad be f8 f6 21 3b ec 7f 76 3f
       0.93808335 -0.3393214 0.0024713855 0.96288943
000010 bb 75 f7 be bc b0 09 bd ac 5f f9 bd dd 39 ec be
       -0.4833201 -0.033615813 -0.12176451 -0.46137896
000020 00 00 00 00 22 49 93 bd 20 ba 01 bf c2 19 82 be
       0.0 -0.07191683 -0.5067463 -0.25410277

network_body.observation_encoder.processors.0.normalizer.running_variance f4 [12]
000000 b5 c1 08 42 c9 6a 1c 43 3e 8d 80 3f a9 7a fd 43
       34.189167 156.41713 1.0043104 506.95828
000010 89 6b 18 46 9a bb 9e 44 1b 8f 82 45 f7 ad 17 46
       9754.884 1269.8625 4177.888 9707.491
000020 00 00 80 3f c4 ff 22 45 e4 8f 18 46 3b 60 e7 45
       1.0 2607.9854 9763.973 7404.029

network_body.processors.0.normalizer.running_mean f4 [12]
000000 3b 26 70 3f 89 bb ad be f8 f6 21 3b ec 7f 76 3f
       0.93808335 -0.3393214 0.0024713855 0.96288943
000010 bb 75 f7 be bc b0 09 bd ac 5f f9 bd dd 39 ec be
       -0.4833201 -0.033615813 -0.12176451 -0.46137896
000020 00 00 00 00 22 49 93 bd 20 ba 01 bf c2 19 82 be
       0.0 -0.07191683 -0.5067463 -0.25410277

network_body.processors.0.normalizer.running_variance f4 [12]
000000 b5 c1 08 42 c9 6a 1c 43 3e 8d 80 3f a9 7a fd 43
       34.189167 156.41713 1.0043104 506.95828
000010 89 6b 18 46 9a bb 9e 44 1b 8f 82 45 f7 ad 17 46
       9754.884 1269.8625 4177.888 9707.491
000020 00 00 80 3f c4 ff 22 45 e4 8f 18 46 3b 60 e7 45
       1.0 2607.9854 9763.973 7404.029

network_body._body_endoder.seq_layers.0.weight f4 [128, 12]
000000 33 52 57 3e 08 c4 e0 be b2 a8 0c be f9 fc 52 bd
       0.2102745 -0.4389956 -0.13736227 -0.051510785
000010 88 46 3f 3e 79 d9 f4 b9 f0 49 b6 bd 83 73 3c bc
       0.1867925 -0.00046701336 -0.08900821 -0.0115021495
000020 8f d2 22 3d 79 d7 d8 be 17 94 12 3d a2 aa cb 3e
       0.039751586 -0.42351893 0.03578576 0.3977862
000030 85 63 72 be bd b9 9f 3a 8c 77 00 bd ce bf 74 3d
       -0.23670776 0.0012186092 -0.03136401 0.05975323
000040 5f 8d d2 bd 15 01 7a be c1 6b af 3d 7d a2 a4 3e
       -0.10280871 -0.24414475 0.08565474 0.3215522
000050 b8 cb aa 3d 43 c1 87 3e b3 49 b8 3d 82 b0 8c be
       0.083396375 0.26514634 0.08998432 -0.27478415
000060 11 c0 c1 bd 89 da c9 3e c4 43 4d bd c7 1e 0b bd
       -0.09460462 0.39424542 -0.050113454 -0.0339649
000070 37 e1 99 3c 26 a5 a1 be eb 4f 8e bd 75 24 d7 bd
       0.018784149 -0.3157131 -0.06948837 -0.105050005
000080 1a 8e 8e be f7 c0 9c 3b 54 d4 29 be 74 18 6b 3e
       -0.2784279 0.0047837454 -0.16584903 0.22958547
000090 fe 0d 87 bd 1d ed 78 3d db 16 9d be 40 d3 b8 3d
       -0.06594466 0.060773004 -0.306815 0.09024668
0000a0 b7 40 14 be 0b b2 42 3f 07 66 04 be 12 e5 c6 be
       -0.14477812 0.7605292 -0.12929545 -0.38846642
0000b0 e0 79 9d 3d d2 70 b6 3c 2f 88 d1 3e 9c ff 86 3e
       0.076892614 0.022270594 0.40924212 0.2636689
0000c0 43 dc 33 bc 21 cf 98 bd 3f 27 8b 3c 26 2f a4 be
       -0.010977807 -0.07461382 0.016986487 -0.3206722
0000d0 60 b6 40 3e e4 6e 34 be 84 52 d7 3d e8 39 1d be
       0.1881957 -0.17620426 0.105137855 -0.1535412
0000e0 16 86 fd be f6 30 c1 bb ea fd bd 3e 56 b0 2e bd
       -0.49516362 -0.005895729 0.37107784 -0.042648636
0000f0 2c 81 f5 be 57 4b 41 bd 84 bc 08 be f7 78 84 be
       -0.47950113 -0.04719099 -0.13353163 -0.2587354
000100 f2 83 82 be de bd fd 3e 7e dd eb bd 05 ab 7f 3e
       -0.2549129 0.4955892 -0.11516856 0.24967583
000110 c6 cb 0a be 0b 5c 03 be 4a 3c aa 3e be 49 41 3e
       -0.13554296 -0.1282808 0.33249122 0.18875787
000120 f5 0c 67 3e be 7e 8c be 39 70 3e 3c 1a 7e a1 3e
       0.22563536 -0.27440447 0.011623436 0.3154152
000130 16 5f d6 bd 36 e3 c6 bd 5b 65 78 3e 06 06 14 be
       -0.10467355 -0.09711306 0.24257414 -0.14455423
000140 81 58 d5 3d 72 7d 86 3c f4 fe e5 be e0 a4 1c bf
       0.104172714 0.016417239 -0.44921076 -0.6118908
000150 19 94 d5 3d cd af 9f 3e bf 8b 5a 3e e4 e3 c6 be
       0.10428638 0.31188813 0.21342371 -0.38845742
000160 63 3b ee 39 c5 42 b1 3d e6 d4 54 3e e5 c6 bc be
       0.00045439144 0.086553134 0.2078434 -0.36870494
000170 d4 4e 39 3d fe ac 70 be 2e 86 d2 3e f7 fe 9a be
       0.045241192 -0.23503491 0.41117996 -0.30272648
000180 07 ed 37 be ac 8d ac be ba 7f d1 3c 5f b7 2a 3e
       -0.17961513 -0.33701837 0.0255736 0.16671513
000190 91 3c 09 bd d1 e5 2f be 2c 10 ab be 37 1f 2a 3c
       -0.033505026 -0.17177512 -0.33410776 0.010383419
0001a0 2b 74 d7 bc d2 39 fc 3e b5 81 8f be b5 ac 09 3f
       -0.02630051 0.49262863 -0.28028646 0.53779155
0001b0 25 29 9c bd 38 2f 9e bd cb a3 92 bc b6 7d ef 3d
       -0.07625035 -0.0772385 -0.017900368 0.11693899
0001c0 78 9e 47 be 12 97 9d be a6 87 ca 3d c4 06 06 3d
       -0.19494045 -0.3077932 0.09889154 0.032721296
0001d0 45 79 e1 bd 9b a9 31 be 79 89 ef be 81 7a a5 3e
       -0.110094585 -0.17349856 -0.4678457 0.32320026
0001e0 1d 88 43 bd a5 46 de 3d 5f ec cb bd 62 32 4f bd
       -0.04773723 0.10853318 -0.099571936 -0.05058516
0001f0 ce 2d 0f be 06 78 e1 3e da 41 10 3e 69 ae be 3e
       -0.13982317 0.44036883 0.1408762 0.3724244
000200 b0 ce 3e 3d 79 b0 b8 be 57 4e e2 3e de 6e 8f bd
       0.04658383 -0.36072138 0.44200394 -0.07003568
000210 5b 9e b2 bd 0d 54 7f be 3c 2f aa 3e 94 fe a8 bd
       -0.0872161 -0.24934407 0.33239162 -0.08251682
000220 b1 a5 44 be e1 60 44 3e dd 21 80 3b 29 d2 41 3e
       -0.19203831 0.19177581 0.003910287 0.18927826
000230 6d b8 05 be ef ad 4d 3e 9a 37 c5 be ca d2 32 bd
       -0.13058634 0.20085882 -0.38518983 -0.043658055
000240 26 03 30 3f 6c 5a 97 be 37 32 ca 3d e1 36 0e be
       0.68754804 -0.29561174 0.09872859 -0.13888122
000250 4d 74 90 be b1 88 8d bd 1d 2f 7a 3d 71 a0 41 be
       -0.2821373 -0.069108374 0.061080087 -0.1890886
000260 9d f0 42 bc ec 34 14 3e d2 17 b9 bd e1 9b 9e bd
       -0.011898187 0.14473313 -0.090377465 -0.07744575
000270 aa b7 b6 be 8a 1e 0f 3f 68 22 bf bd 82 a3 57 3e
       -0.35687 0.55905974 -0.09332734 0.21058467
000280 59 05 19 3e e3 4d 55 3e 69 7d 54 be f6 d8 9d bd
       0.14943446 0.20830493 -0.20750965 -0.07707398
000290 13 8e be bb 1d 8e cf 3d 24 14 db be 3b 65 00 be
       -0.0058152764 0.10134528 -0.42788804 -0.12538616
0002a0 3e 69 c7 be 34 66 84 bd a8 09 5f be 86 91 a6 be
       -0.3894748 -0.06464806 -0.21781027 -0.325329
0002b0 bd d5 99 3b 71 c4 05 3f bd c5 56 be 34 b4 22 3e
       0.004694669 0.5225287 -0.20973869 0.15889055
0002c0 e0 c5 4e be 8d b4 71 be 7d a9 44 3e d6 c8 00 be
       -0.20192671 -0.23604031 0.1920528 -0.12576613
0002d0 db ab b5 3e ed 03 13 bc 7c 4c 73 be 8c 11 5a be
       0.35482678 -0.008973104 -0.23759645 -0.21295756
0002e0 79 63 6a 3e ff c2 2d 3e ed 15 0b bf 25 15 22 bd
       0.22889508 0.16968916 -0.5433033 -0.039570946
0002f0 d2 d0 99 3d c1 e4 5a be 5f 0e 36 be c2 28 03 be
       0.075105324 -0.21376325 -0.1777892 -0.12808517
000300 75 d5 83 bd 6f 29 a1 3d 65 24 57 be 54 40 a0 3d
       -0.06437198 0.07869231 -0.21009977 0.078247696
000310 17 44 36 be f7 92 2c be 8d ac b3 3e 03 f9 6f 3e
       -0.17799412 -0.16852938 0.35092583 0.23434834
000320 c2 87 5a 3e 78 74 e5 be da ae 72 3e 66 92 24 bf
       0.2134085 -0.4481542 0.23699513 -0.64285886
000330 10 3b 03 be 6f 9f 48 be a7 f0 48 3e 58 5d c8 be
       -0.128155 -0.19592069 0.19623052 -0.39133716
000340 a0 55 bc be e4 ed cf be f5 12 28 be e0 24 b1 bd
       -0.36784077 -0.40611184 -0.16413482 -0.086496115
000350 3a e4 0b 3f c5 11 bc be fa 38 fa 3e cd c0 e0 bd
       0.5464512 -0.36732307 0.48871595 -0.10974274
000360 df f9 86 3d 01 fc 4d 3e e7 5a d2 be 6b 8a 83 3b
       0.06590628 0.20115663 -0.41084978 0.0040143034
000370 26 4f da be a1 0a 32 be cd 0d f0 be 4a 50 14 3e
       -0.4263851 -0.17386867 -0.4688553 0.14483753
000380 e9 f8 d6 be 93 10 4d be a6 21 48 be a4 73 f0 be
       -0.41986778 -0.20025854 -0.19544086 -0.46963227
000390 d3 37 45 3c 5d de 81 be 80 9d b9 3e 75 96 9c 3e
       0.012037235 -0.25364962 0.36252975 0.3058354
0003a0 e8 72 e4 be 15 50 40 bb f7 b8 e4 3c f5 56 a1 be
       -0.44618917 -0.0029344608 0.02792023 -0.31511655
0003b0 17 bb 08 bf 1c be 1d 3e 09 cd 17 3f 80 20 f7 be
       -0.53410476 0.15404552 0.59297234 -0.48266983
0003c0 05 09 92 be 27 d9 12 be 34 a3 b6 3d 90 76 8f 3e
       -0.28522506 -0.1434065 0.08917847 0.28020144
0003d0 b1 74 95 bd 7d cf 8d 3e 17 6d 5f be fc 18 a1 3d
       -0.07297648 0.27697363 -0.21818958 0.078660935
0003e0 3f d7 20 3b cd 54 04 bf 4c 90 f7 3d b8 0a 1a bd
       0.002454236 -0.51691896 0.12088069 -0.03760788
0003f0 fe 53 fd be a3 7c 6b bd 0d fa ea bd 37 07 e0 bd
       -0.49478143 -0.05749191 -0.11473475 -0.10938876

network_body._body_endoder.seq_layers.0.bias f4 [128]
000000 d6 01 92 b9 0d 14 de bb cf 07 88 ba f4 d6 5f bb
       -0.00027848658 -0.0067772926 -0.0010378304 -0.0034155222
000010 67 57 ce b9 e8 88 7a b9 d8 cd 03 3c df 66 d7 3b
       -0.00039356502 -0.0002389286 0.008044682 0.0065735425
000020 fe 27 9c 3c 61 58 90 3a 82 4e e6 39 db 1d 79 bb
       0.019062039 0.0011012667 0.0004392751 -0.003801218
000030 a0 76 98 bb 15 a0 9d 3b aa fb 65 bc 42 e5 38 bc
       -0.004652813 0.004810343 -0.014037052 -0.011285128
000040 b2 f3 be bb d3 56 84 bc 62 a4 e9 3b ba e0 ad 3b
       -0.0058273906 -0.016154682 0.0071301917 0.0053063305
000050 63 01 8c bc ed b6 2b 3c 94 d8 36 3c 71 1c 83 bb
       -0.017090505 0.010480625 0.011160035 -0.004001193
000060 32 77 5b 3c 96 25 45 3c 33 33 90 bb 1f ef 3a 3c
       0.013395118 0.012032887 -0.0044006347 0.01140955
000070 20 97 5d 3a 2f 07 56 3b fd b6 f1 3b 03 50 03 3d
       0.00084530003 0.003265809 0.00737655 0.032058727
000080 f5 28 32 3c 26 67 05 bc 46 65 d8 bb 85 6d 2d bc
       0.010874023 -0.008142268 -0.0066038696 -0.0105851935
000090 c3 ca 5a bc 9c 33 87 bb 22 17 1b 3c 0e 98 78 3c
       -0.013354006 -0.0041260254 0.0094659645 0.015172971
0000a0 f6 f8 a9 3c 4d 1a 06 3c 11 84 dc 3b 3c 30 b4 3c
       0.020748597 0.0081849815 0.0067296107 0.021995656
0000b0 78 79 13 bb cb a9 83 3b 2e fc c2 b9 3a e0 ee 3b
       -0.002250282 0.0040180436 -0.00037190452 0.0072899135
0000c0 e3 f4 d8 3b 96 4f 38 39 d8 a6 b5 3c bb cf 95 3c
       0.0066209896 0.00017577255 0.022174284 0.01828753
0000d0 ca b7 e0 bb 98 4d bb bc 7a 4a d6 3b fb 6d f9 3b
       -0.006857847 -0.022864148 0.00653964 0.0076119876
0000e0 3b 4d 02 3c ca 39 25 bb f9 28 d2 bb 8d 0a 4a bc
       0.0079529835 -0.0025211447 -0.0064135757 -0.012331617
0000f0 0f 82 62 3b e4 09 fd ba 3d dd e2 bb 29 ff 96 3b
       0.0034562384 -0.0019305316 -0.0069233463 0.004608054
000100 f5 af d0 ba 65 44 cc 3b 46 23 84 bc 47 7f 0f ba
       -0.001592158 0.006233739 -0.016130101 -0.0005473983
000110 9c 33 a1 bb 2a 4e a8 ba 79 96 0d 3c 75 e3 14 bb
       -0.0049194824 -0.0012840678 0.0086418325 -0.0022718583
000120 e5 7b 9f 3b 77 e7 98 3c 6a 45 cd 39 09 06 08 3c
       0.0048670643 0.018665059 0.00039152364 0.00830222
000130 54 29 d6 3b 47 3a 1d 3b d2 61 3a 3c bc 13 a5 3b
       0.0065356884 0.0023991035 0.011375861 0.005037753
000140 2b 09 c0 bc 24 21 04 bc 6c 87 df 3b 62 87 30 3c
       -0.023441872 -0.008064542 0.0068215635 0.010774465
000150 2a bd 27 3b 16 13 7c 3c df c7 24 3c a6 96 bb 3b
       0.0025594928 0.01538541 0.010057419 0.005724746
000160 71 0a 9b bb 79 7f 03 bb 7a a5 b0 ba 50 f7 ce ba
       -0.0047314693 -0.0020064993 -0.001347705 -0.0015790258
000170 9d 4e f7 bb 3f 7d 92 3c 7d 81 8a bb bc 2f d3 bc
       -0.007547213 0.017881988 -0.004226862 -0.025779597
000180 0a c8 90 3c be b9 8a 3a dc b3 14 3c 7a d4 be ba
       0.017673511 0.001058392 0.009076085 -0.0014559173
000190 61 d8 39 bb 3a 43 5c bc ff c9 66 bb 9f c5 4f 3c
       -0.0028357732 -0.013443762 -0.0035215614 0.012681394
0001a0 2d 70 3b 3c 80 2b 87 bb c2 86 fe 3a 96 22 28 bb
       0.011440319 -0.0041250587 0.0019418823 -0.002565538
0001b0 58 3c 24 3b 7b 34 dc 3c 24 21 11 bd 43 46 1d bc
       0.0025060382 0.026880493 -0.035431996 -0.009599271
0001c0 94 44 b6 3b f3 2f ed bb 02 a5 6c 3c 9a bf 72 3b
       0.0055623744 -0.007238382 0.014443638 0.0037040473
0001d0 b4 b3 3a b8 f7 33 79 bb 82 32 fd bb 00 a9 58 3c
       -4.4513217e-05 -0.0038025358 -0.0077269683 0.0132238865
0001e0 0d d4 93 bb 6a 1c 2f bb 13 18 ab 3a 4b 40 90 3c
       -0.0045113624 -0.0026719817 0.0013053439 0.017608782
0001f0 c5 a7 b1 ba ef ac 56 3b 0c 20 d9 3a 87 26 f6 ba
       -0.0013554028 0.0032756885 0.0016565337 -0.0018779793

network_body._body_endoder.seq_layers.2.weight f4 [128, 128]
000000 21 70 74 bd 64 80 34 bd 80 ca 66 be 1b 54 3a bc
       -0.059677247 -0.044067755 -0.22538185 -0.011372591
000010 96 1f 8d bd f7 b1 0c bd fe d1 59 bc 2b 04 eb 3d
       -0.0689079 -0.034349408 -0.013294695 0.11475404
000020 02 d6 30 bc a6 cb 82 be 04 3b 06 3d 25 5b 63 3d
       -0.010793211 -0.25545996 0.032771125 0.055506844
000030 13 b4 14 bc 03 90 df bd 1b 08 09 bd 8f 29 8d bd
       -0.009076136 -0.1091614 -0.033454996 -0.06892692
000040 79 ff bc bd 8c 91 d1 bd ed fe 86 bd c6 d7 4d 3d
       -0.09228415 -0.10232839 -0.06591592 0.050254606
000050 2f 9e 0a 3c 5f d9 45 bc 2a 3c 37 3e 23 35 d6 bd
       0.0084605655 -0.012075751 0.17894045 -0.10459354
000060 90 8a 3d be 0e 85 a9 bd 5d 00 19 be 8a 73 92 3d
       -0.18509889 -0.08277331 -0.14941545 0.071509436
000070 ff 85 fe bc 4d 6d a0 3b b3 c7 9f 3d 31 77 c5 3d
       -0.031069754 0.004895842 0.078017615 0.096418746
000080 9c 13 47 3d 0c 8a 74 bd 82 13 26 bc 14 a2 b7 3c
       0.048602685 -0.059701964 -0.010136487 0.022416152
000090 b1 82 25 be b6 5a 9e bd 88 e4 70 3c 94 03 94 bd
       -0.16163136 -0.077321455 0.014702924 -0.07227245
0000a0 99 a7 27 be 07 55 5b bc 0a 8c ec bd d0 16 8d bd
       -0.16372527 -0.013386971 -0.11550148 -0.06889117
0000b0 d2 4f 01 3e 11 32 89 3d e0 d2 0e 3e 98 e9 85 bd
       0.12628105 0.066990025 0.1394763 -0.06538695
0000c0 f5 89 fd bc 91 2e 84 bd 58 d6 2f bd 81 45 c5 bc
       -0.030949572 -0.06454194 -0.042929024 -0.024080994
0000d0 ea 2e ba bc ac 99 88 3d e4 04 83 3b 55 4f 3e 3c
       -0.022727448 0.066699356 0.0039983857 0.011615594
0000e0 4a 80 15 3c 5e bc 4f bd c7 b4 71 3d f2 8e 96 3d
       0.009124825 -0.05071675 0.059010293 0.073514834
0000f0 9b b6 2a 3e 6c cc 25 bd 92 ed 17 3d f8 3f e1 3a
       0.16671221 -0.040478155 0.0370918 0.0017185202
000100 be 1d 47 be b8 2f 82 3d 2b 8f 9b 3a 80 c9 a2 3d
       -0.1944494 0.06356758 0.0011868229 0.07948589
000110 42 0d 35 bd 9c f0 05 3e b5 39 c1 bc ab 15 2f bd
       -0.044202097 0.13080066 -0.023587087 -0.042745274
000120 7e 12 3a 3d d2 5a d9 3d 6d 22 7a 3d 9b 34 12 bd
       0.04542779 0.10613026 0.061067987 -0.0356947
000130 98 5c 03 be c6 fb 96 3d af e8 3f 3e db 4a 82 3d
       -0.1282829 0.07372241 0.18741105 0.06361934
000140 45 b2 d6 3d b7 96 a9 3d 8f d5 1d be 4d 5a 21 bd
       0.10483221 0.082807 -0.15413497 -0.03939276
000150 d3 5e 7a bd c4 ce f6 bd ef 74 b7 3c 5f 64 0b be
       -0.061125588 -0.12051156 0.022394625 -0.13612507
000160 0d 53 dd 3d 0f e2 04 bd 1c 72 06 be 90 cf 5f 3d
       0.10806856 -0.03244215 -0.13129467 0.054641306
000170 d2 d2 2d be ea 0f 58 be 3f e7 2e bd 70 aa 18 3e
       -0.16974953 -0.2109982 -0.042701002 0.14908767
000180 8c 8a 5c 3e 31 45 84 3d 04 98 9c 3d 39 52 09 3e
       0.21537226 0.0645851 0.07646182 0.13410272
000190 46 70 a8 3d 5c f3 a4 bd 32 8a 82 3c b8 98 12 3c
       0.082245395 -0.080542296 0.015935037 0.008947544
0001a0 c9 6c 6d 3c fa 89 ae bd 7c 28 0a bd c9 d7 38 3d
       0.014491268 -0.08522411 -0.033730015 0.045127664
0001b0 e6 93 25 bd 31 f6 b5 bd 61 ec 47 3c a7 2d 34 3d
       -0.04042425 -0.08884848 0.012202353 0.04398885
0001c0 32 bf 3c 3c 54 39 45 3d 28 d9 cf bd 7f 21 bd bc
       0.011520194 0.048150375 -0.10148841 -0.023087261
0001d0 e7 27 a9 3c 71 b9 2d be c3 9c c9 3d f5 b2 10 3d
       0.02064891 -0.16965272 0.09844353 0.035326917
0001e0 2c 19 b6 bd 9e b8 43 3d 7b c6 af bd 95 9a 94 3b
       -0.0889152 0.047783487 -0.08582779 0.004535029
0001f0 3c 5e 24 bc 81 5c 93 bc b3 06 90 3d d5 da 64 bc
       -0.010032233 -0.017988445 0.07032528 -0.013968189
000200 78 3e aa 3a a6 e1 39 bd 89 60 dc 3d 1b 46 24 3c
       0.0012988588 -0.04538121 0.107606 0.01002648
000210 44 c4 72 bd 3b 05 15 3e 72 05 b2 bd 09 f9 ff bc
       -0.059269205 0.14552777 -0.08692445 -0.031246679
000220 43 76 b5 bc 12 da 09 bd 19 59 c9 3c 8c d9 43 be
       -0.022151118 -0.033655234 0.024578618 -0.19125956
000230 1c 6a 99 bd cd 59 ff bb 56 10 ea bd cc 3e 01 be
       -0.07490942 -0.0077926875 -0.11428897 -0.12621611
000240 17 f8 05 3e 7a 18 23 bc 3b 6b c7 3c 4a 64 50 be
       0.1308292 -0.009954566 0.024343124 -0.20350757
000250 2d 58 06 be ed 08 a5 3d 4b ce e9 bd 9b 43 8c bd
       -0.13119574 0.08058343 -0.114163004 -0.06848832
000260 75 c2 37 bd 44 39 38 bd 36 ce 42 3c 5e 89 26 bd
       -0.044863183 -0.044976488 0.011889985 -0.040658347
000270 87 84 48 bc 80 39 85 bd 81 63 18 ba 27 39 9a bd
       -0.012238628 -0.06505108 -0.0005813167 -0.07530432
000280 bf 5e 48 3c 1a 37 88 3d 96 c6 64 3a 24 c3 4b 3d
       0.0122296205 0.06651135 0.00087271014 0.049746647
000290 45 86 6e 3d ce 93 bc bc df 9c 30 bc 16 fa da 3a
       0.05823352 -0.023019698 -0.0107795885 0.0016706611
0002a0 b1 06 f0 3d 2c 55 2f bd b6 3b c5 3d a7 47 e2 3d
       0.11720026 -0.042805836 0.096305296 0.11048823
0002b0 5f 4c 30 3d 2a b5 db 3d d1 1f 33 3e 1a 79 0a 3e
       0.043041583 0.10727914 0.17492606 0.13522759
0002c0 8a 45 b4 3d 07 e1 13 bc 61 19 10 be ff d7 05 3e
       0.08802326 -0.009025819 -0.14072181 0.13070677
0002d0 f1 e2 7f bd 9d c8 e6 3c a7 34 2b bd 9e 1b f4 3d
       -0.062472288 0.028171832 -0.04179826 0.1191933
0002e0 0c 8d b0 bd 66 d4 e1 bc 28 30 f1 bd a4 ee 44 bc
       -0.086206526 -0.0275671 -0.11776763 -0.012019787
0002f0 02 4d cd 3c 4d 5b 78 bd 5c 88 27 3d 15 8a 33 3e
       0.025061134 -0.060633946 0.040901527 0.17533143
000300 a2 ca 6e 3c cd 87 65 be 0b 18 f8 bb ce 9b 46 be
       0.014574679 -0.22415085 -0.0075712255 -0.19395372
000310 bb a5 e3 bd 07 af 34 3d 62 fe a6 3c 19 e8 b4 3d
       -0.11115595 0.04411223 0.020384971 0.088333316
000320 e4 91 05 3e 27 03 70 3c 41 94 b6 3c fd 28 33 bc
       0.13043934 0.014649189 0.02228749 -0.010935065
000330 e0 0f 82 3d fa 6a da bd 49 a0 41 bd ab f8 18 be
       0.06350684 -0.106649354 -0.047272 -0.1493861
000340 3c f7 82 be 49 0d d1 bd 5e fd a9 3c e8 8e 41 3e
       -0.2557925 -0.10207612 0.020750698 0.1890217
000350 f6 59 e7 3d 39 00 e5 3d 78 b0 e1 3d e2 1f 08 3e
       0.112964556 0.11181683 0.11019987 0.13293412
000360 85 d7 d8 bd bd fe ab bd 4c 4f f5 3d 83 47 11 be
       -0.10587982 -0.08398197 0.11978015 -0.14187436
000370 a1 a2 1f be df 2c d5 bd 46 93 3a 3e 67 77 85 bd
       -0.15589382 -0.10408949 0.18220243 -0.06516915
000380 8e 6f a7 3c f8 36 b9 3d 82 17 67 3d a1 ce 91 bd
       0.020438936 0.090436876 0.056418903 -0.071194895
000390 be 5d 8d bd 49 7e 92 3d df 1d 0c be ac c7 af bd
       -0.069026455 0.07152993 -0.1368327 -0.08583006
0003a0 fd 67 d3 3d 32 6a d3 bd b7 55 d5 bc 18 95 2a 3b
       0.103225686 -0.103229895 -0.026041849 0.0026028808
0003b0 33 23 c5 bc 62 71 a9 bd ce e9 44 be 10 71 3c 3d
       -0.024064636 -0.08273579 -0.19229814 0.046006262
0003c0 92 67 39 3d 64 d2 ea bd 82 86 fa 3c 6d d0 c9 3d
       0.045264788 -0.1146591 0.030581716 0.09854207
0003d0 56 7f 8c bd 1e 4f b6 3d f1 7e 9a 3d 1a cb 2d 3e
       -0.06860225 0.08901809 0.075437434 0.16972008
0003e0 30 12 8c 3d 82 33 3c 3e 50 35 7c bd 35 f4 30 bd
       0.068394065 0.18379024 -0.06157428 -0.043201644
0003f0 9d ce a0 3b 55 79 09 3c 7c 07 bd bd 9b ad 95 3b
       0.0049074427 0.008390744 -0.09229943 0.0045678145

network_body._body_endoder.seq_layers.2.bias f4 [128]
000000 4b 48 d7 3b 48 ab 6a 3a 22 19 14 bb a2 d3 b7 ba
       0.0065698973 0.00089519145 -0.0022597988 -0.0014024863
000010 91 6e c8 ba 90 3e 6d ba 58 93 a0 3b d7 f2 18 3a
       -0.001529174 -0.0009050155 0.0049003772 0.0005834526
000020 5e 28 56 3c cd f9 1b bb d5 d7 8f 3c 4a ff 0f 3c
       0.013071148 -0.0023800016 0.017558971 0.008788893
000030 5e 62 83 3c 08 86 30 3b c4 82 c2 bb 57 20 d1 3b
       0.016038116 0.0026935358 -0.0059359986 0.006382029
000040 7e 8b 0b bc 6b 0e 96 3c 7f 63 0b 3c 7b db 35 ba
       -0.008517144 0.018317422 0.008507608 -0.0006937307
000050 77 83 9e 3b 3c ed ff 3b 41 0c 1c bb 0d 1d 49 3b
       0.004837449 0.007810263 -0.0023811015 0.0030687482
000060 d2 8f 00 3c 07 2d 18 bb e8 61 07 3c d0 f4 5e bb
       0.007846789 -0.0023220198 0.008263089 -0.0034020431
000070 3b 20 09 bc 33 28 7f 3b 54 21 2f 3a 7a c5 e0 ba
       -0.008369501 0.0038933873 0.00066806865 -0.0017148696
000080 04 75 02 bc ce 09 49 bb 6e a1 44 bb c0 10 d2 3b
       -0.007962469 -0.003067601 -0.0030003446 0.006410688
000090 b1 6d 23 bc 8a c7 a5 3b 25 95 97 3a d6 c6 20 3b
       -0.009974883 0.0050591873 0.0011564834 0.0024532578
0000a0 82 ff 82 3b 4d 41 ac 39 43 cf e6 3b a9 55 de ba
       0.003997744 0.0003285505 0.0070437505 -0.0016962785
0000b0 a3 52 02 bb 02 b6 7b 39 c1 3a 66 3c 7c 9d 9d 39
       -0.001988568 0.00024005029 0.014052094 0.00030062709
0000c0 42 39 40 3c 14 57 04 bc a2 48 d7 bb 13 50 0d 3a
       0.011732401 -0.008077402 -0.006569938 0.0005390655
0000d0 1a 07 81 3b 7f 68 76 bb 81 0c 0d 3c 70 6e 48 bb
       0.003937614 -0.0037598906 0.008608938 -0.0030583404
0000e0 5e 91 22 ba 07 75 5f 3b 34 ae 37 bb 21 f6 99 3a
       -0.0006201471 0.0034096853 -0.0028027417 0.0011746326
0000f0 7b 76 14 3c 22 60 79 3b 7b 0a f0 3b 37 66 ae b9
       0.009061451 0.0038051684 0.007325468 -0.00033264022
000100 00 3b 02 3c a9 7a e1 3a bc c5 40 3b bb 9f a1 3c
       0.007948637 0.0017202693 0.0029414734 0.019729486
000110 9f 16 67 3c 14 33 0d bc d1 d9 29 3a 76 33 5b 3a
       0.014104514 -0.008618135 0.00064792956 0.0008361855
000120 52 c7 27 ba f5 13 16 bc a1 c6 59 bb 15 bb c6 3b
       -0.00064002455 -0.009160032 -0.0033229964 0.0060647824
000130 1e da c4 3b b3 22 ce bb aa a0 3c 3b 0f 32 85 3b
       0.006007447 -0.0062907576 0.0028782287 0.0040648053
000140 dc 7f 26 3b 5a bc 1b bc 0d e8 87 3b d4 fe dd 3b
       0.00254058 -0.009505356 0.0041475357 0.0067747626
000150 73 bb 00 bb 8c 1a a8 3b f2 85 2e 3b ed b6 21 3c
       -0.0019642978 0.0051301178 0.002663013 0.009870273
000160 99 ee f3 3b 34 a2 24 3b 43 59 a4 3a ba 34 dd 3b
       0.0074442145 0.0025121095 0.0012538809 0.0067506703
000170 36 bd 67 bb 41 9a 59 3a b2 6f 2c 3b d6 55 2b 3a
       -0.0035360581 0.00083008787 0.0026311693 0.0006535923
000180 d8 06 c8 3b 65 41 e4 3a 94 2f a6 3b 41 14 ff 3b
       0.0061043315 0.0017414509 0.0050715897 0.007784397
000190 d4 c2 c7 ba 9f f0 83 bb 6b 9d d9 3b 20 8a ca 39
       -0.0015240558 -0.004026487 0.00664108 0.00038631354
0001a0 28 f5 52 ba 4b be 96 3b 98 8b 2e bc b2 2d 38 bb
       -0.00080473954 0.0046003214 -0.010653399 -0.0028103408
0001b0 9b 16 f9 39 33 b2 2e 3c 1e 3d 0f 3a f1 aa 8b bc
       0.00047509823 0.010662603 0.0005464124 -0.017049285
0001c0 ec 8d 69 3a fd da 2e b9 8d ef 85 bb 54 de 2a 3c
       0.00089093926 -0.00016675513 -0.0040873946 0.010428984
0001d0 b6 34 89 3a a8 62 72 3b 9a 79 b6 3b d3 1e a9 3b
       0.001046798 0.0036985073 0.0055686953 0.0051611452
0001e0 d8 d6 07 3b 1d 5e 78 3b 63 02 95 3b 50 42 b0 bb
       0.0020727422 0.0037897893 0.0045474037 -0.005378999
0001f0 b7 9c af 3b 71 58 57 3b fe 6b 9f bb 81 0e 05 3c
       0.005359258 0.0032859112 -0.0048651686 0.008121134

action_model._continuous_distribution.log_sigma f4 [1, 2]
000000 bd 2f 8f bc 5b 63 8f bb
       -0.017478818 -0.0043758578

action_model._continuous_distribution.mu.weight f4 [2, 128]
000000 98 82 f5 bc 00 2a 50 3c c8 b8 d0 bb fd c0 73 3b
       -0.029969499 0.012705326 -0.006369684 0.0037193887
000010 2b 87 50 bd bc 98 6d 3c e1 5f df 3b b1 81 40 bc
       -0.050910156 0.014501747 0.0068168496 -0.011749671
000020 0a 14 89 bc 73 78 ce bc ac 9a 22 3d 6d 72 9a 3b
       -0.016733188 -0.025203919 0.039698288 0.0047133476
000030 1e 71 20 3d 0b 70 90 bb 08 c1 a2 bc 3f c6 e3 3c
       0.039170377 -0.004407888 -0.019867435 0.027804492
000040 32 23 0e bc 46 8b cc 3c a0 5f 89 3b bb b6 a8 bc
       -0.008675383 0.024968755 0.0041923076 -0.020594945
000050 07 8e b1 bc 59 22 49 bb e0 be e5 bc 91 01 57 3c
       -0.02167417 -0.0030690639 -0.028045118 0.013122932
000060 c5 33 29 3d d4 44 3f 3c 64 93 e1 3c ac c9 fa bc
       0.041309137 0.011674125 0.027536102 -0.030613743
000070 c7 f7 9a 3b c1 16 54 bc 5a 27 03 bd e6 29 ae bb
       0.0047292444 -0.012944878 -0.03201995 -0.0053150533
000080 4c 7a ad ba a0 32 bd bc 1a a3 8a 3c 5d 64 d6 bb
       -0.00132353 -0.023095429 0.016923476 -0.006542726
000090 7c 3e 29 3b 6e 2e 17 3d 01 ee 5c bb 58 01 b7 bb
       0.0025824597 0.036909513 -0.0033711197 -0.005584877
0000a0 48 c3 79 3c 1d 20 24 bc 7e 92 1d bd 75 51 0d 3c
       0.015244313 -0.010017422 -0.038469784 0.008625378
0000b0 3d 3e b5 bc 1c de 83 3c b7 c8 0c 3d e6 9b da 3b
       -0.022124404 0.016097121 0.034371104 0.0066714166
0000c0 9b e7 1b 3d 93 81 9d bb e5 93 e3 3b 2d 83 e3 bb
       0.038062673 -0.004806706 0.0069451206 -0.0069431276
0000d0 d0 58 46 bc 9f 95 d1 bc 2c a0 b2 bc 63 c3 d5 bc
       -0.0121061355 -0.02558404 -0.021804892 -0.026094144
0000e0 7c 7c da 3c 51 9b 01 3d a9 e4 9d 3c 9d 6c 80 bb
       0.026670687 0.031642262 0.019274073 -0.0039191977
0000f0 a6 7e ba 3b 69 9b 06 3d bd 5d 50 3d f6 6f ae 3c
       0.005691367 0.032863054 0.050870646 0.021293622
000100 65 74 27 3d d3 0f d5 bc 5a 40 7a bc bb 10 13 3d
       0.040882487 -0.026008522 -0.015274132 0.035904627
000110 07 2b 64 bb f4 16 7b bc eb fb a2 3b a0 33 54 3c
       -0.0034815685 -0.015325297 0.0049738786 0.0129517615
000120 45 d5 0b bd 74 7d 81 3c e6 64 36 bc f4 0c 1f bc
       -0.034138937 0.015806891 -0.0111324545 -0.009707678
000130 64 07 6d 3b e2 1e 27 3c f0 64 13 bd b9 33 21 3c
       0.0036167735 0.010200234 -0.035984933 0.009838992
000140 87 2d 25 3d ba 93 c1 bb d8 ab 00 3d 7d 7d 02 3d
       0.04032662 -0.005907503 0.031413883 0.031857956
000150 b9 7c 29 bb 25 40 1a 3d 3b 1d 7e 3b 2e a5 82 bb
       -0.0025861694 0.03765883 0.0038774747 -0.003986976
000160 5e ee 0f 3c 74 84 fd bc 27 4b aa bb e5 c4 e5 3c
       0.0087848585 -0.030946948 -0.005196947 0.028047988
000170 23 48 8a 3c 9d fb 12 bc ff 04 d7 bc c5 fc a7 3c
       0.0168801 -0.008971122 -0.0262475 0.020506272
000180 8a 64 f9 bc 13 15 46 3c 27 ec 25 3b 9c 90 dd 3c
       -0.030443449 0.012089985 0.002531776 0.027046494
000190 ef de 3c 3c 78 70 30 3c 15 bc 0d bb cf a8 94 3c
       0.011527761 0.010769002 -0.0021626998 0.0181469
0001a0 61 6e 8e bc 5b 58 1e 3c 37 7f 64 3b f6 a3 8a bb
       -0.017386617 0.00966462 0.0034865865 -0.0042309714
0001b0 f2 83 72 3b aa 02 36 3c a5 67 c9 ba 09 3e 1f 3c
       0.0037004915 0.011109034 -0.0015365971 0.00971938
0001c0 93 d7 b9 3c db 76 81 bc d1 59 e0 bb d2 0d ab 3c
       0.022685802 -0.015803745 -0.0068466444 0.020880613
0001d0 f3 55 a0 bb 2e 28 14 bc d5 bb 09 bc 5a 07 da 3b
       -0.0048930584 -0.009042783 -0.008406599 0.0066537084
0001e0 33 71 ac bb 76 13 a7 bc 29 2c 3e bb 22 0e 96 bc
       -0.005262518 -0.020395022 -0.002901802 -0.018317286
0001f0 85 75 9c 3b 01 b7 09 bd dd 24 35 3c 49 da 1b 3d
       0.0047747516 -0.03362179 0.011056152 0.03804997
000200 21 57 3d bd 4a 05 cf bb 75 65 bf 3b 0d ce 28 3c
       -0.04622567 -0.006317769 0.005840952 0.010303033
000210 14 9e b6 bb 5b 2f 14 3d e0 f8 a3 bc 16 d3 46 bd
       -0.0055730436 0.036177974 -0.020016134 -0.04854115
000220 db dc 59 3d f7 41 e0 bc f8 f1 17 3c 14 df 4b bc
       0.05318914 -0.027375204 0.009273998 -0.012443323
000230 ee 4a 95 bc a1 00 94 bc 09 79 af 3c a3 9c bd 3c
       -0.018224206 -0.018066706 0.021420019 0.02314598
000240 38 5c 29 3d 6d 92 7f 3c 0a 99 0c bd 71 11 be bb
       0.041347712 0.0155988755 -0.034325637 -0.005800419
000250 d1 88 99 bc 96 9b 29 3d 34 8d 4f 3c 4d f6 f0 3c
       -0.018741997 0.041408144 0.012667943 0.02941432
000260 16 95 ce bc 21 8b 38 bc cb 60 f7 bb 3f 4e 5c 3c
       -0.025217574 -0.01126364 -0.0075493804 0.01344639
000270 a5 1a d6 3b 3c 57 10 bd 45 4e c0 bb b8 ef 4d bc
       0.006533938 -0.035239443 -0.0058687055 -0.01256936
000280 7b f2 a9 bc 9f d2 60 3c 98 f0 64 3c 69 62 3e 3d
       -0.020745507 0.013722091 0.013973378 0.04648057
000290 f9 c0 c0 3a 95 31 86 3a d4 22 81 3d c8 a9 1c 3c
       0.0014705948 0.0010238165 0.06305471 0.009561963
0002a0 d2 14 3c bb 9e 15 9e bc 7e 1c 34 bd 1d 25 ad bc
       -0.0028698933 -0.019297417 -0.043972485 -0.021135861
0002b0 2f 2d cc 3b 2e 10 87 bc 3d fb ec 3b e3 b6 ac bc
       0.0062309722 -0.016487207 0.0072320984 -0.021083301
0002c0 59 2a c1 bc de 36 30 bc 4e 26 52 3c 2a 6e 9e 3c
       -0.023579763 -0.010755269 0.012826515 0.01933964
0002d0 b7 9f 20 bd 85 53 a9 3c e1 dd 59 bd 2c 37 a9 3b
       -0.039214816 0.020669708 -0.053190116 0.0051640477
0002e0 a5 1c c8 bc 0a 80 ee 3c 8e c0 71 bc 6f cd ae 3c
       -0.024427721 0.029113788 -0.014755381 0.021338193
0002f0 9d 16 63 3b 6d a0 dc ba 08 62 f3 bc f6 2f 9b 3c
       0.003465093 -0.0016832479 -0.02970983 0.018943768
000300 de 28 92 3c c3 ba 45 3a bb bf 88 bc f2 97 06 bb
       0.017841753 0.0007542783 -0.016692987 -0.0020537344
000310 f1 bc e5 3b f2 7e 53 3b 61 97 fc 3c f9 3b 02 3b
       0.007011049 0.003227171 0.030833902 0.0019872172
000320 38 e5 c1 bc d7 40 bd 3c 11 25 6e 3c 2e f4 b6 3c
       -0.02366887 0.023102207 0.0145352045 0.02233323
000330 3c 45 0e 3d ba f2 04 3a ff f9 7f 3c eb b5 92 bc
       0.034733996 0.00050715695 0.015623569 -0.01790901
000340 55 b9 b7 bc c2 99 4e bb 4f bd d5 bb 68 53 e1 bb
       -0.02242724 -0.0031524752 -0.0065228115 -0.006876398
000350 43 fa 61 3b 59 cb e8 bb fa 84 b4 3c f6 f8 38 3c
       0.0034481443 -0.007104319 0.022036064 0.011289826
000360 5d 52 2e 3c 35 ca 9a bb 76 8b 02 bd 60 2f c7 bb
       0.010639754 -0.004723812 -0.03187128 -0.0060786456
000370 3f e8 05 3c ba 1b 03 3c 57 b8 80 3b eb 52 94 bc
       0.008173048 0.008002216 0.003928225 -0.018105945
000380 5d 0f 13 3d b4 d6 d4 bc d3 e2 ce 3c 83 04 b7 3c
       0.035903323 -0.025981285 0.025254643 0.022341019
000390 fe a8 93 bc bb a2 17 bb 70 7a 55 3d d2 6a 03 3b
       -0.018024918 -0.0023137766 0.05211872 0.0020052684
0003a0 2f 3b 35 bc fb ca d1 bb f1 81 37 3c 47 ec 3c bc
       -0.011061474 -0.006402371 0.011200414 -0.011530942
0003b0 57 f8 ce bc 08 eb 82 3d 05 bd 9e bb 98 7f 0d bc
       -0.025264902 0.06392485 -0.00484431 -0.008636378
0003c0 7d b6 2f bc bb 33 80 bc 23 5d 95 3c 61 c2 33 bc
       -0.010724661 -0.015649667 0.018232888 -0.0109716365
0003d0 17 db ce bb 9d 9e 37 3c ed 4d 1e 3c bf 9e 3a 3d
       -0.0063127386 0.01120725 0.009662134 0.04556155
0003e0 f6 9c e0 3c 10 f9 12 bd f5 cb 95 3c f1 11 2b bc
       0.027418595 -0.035882056 0.01828573 -0.010441289
0003f0 fb fe d3 3c 67 95 9f bc 94 03 ad 3c 42 3d 0a bb
       0.02587842 -0.01948042 0.02111987 -0.0021093641

action_model._continuous_distribution.mu.bias f4 [2]
000000 ef 31 a9 3b b6 22 07 3a
       0.0051634233 0.00051550136

action_model._discrete_distribution.branches.0.weight f4 [1, 128]
000000 ea c3 eb 3b 2b 7e 1f 3c 0b 33 44 3a e8 fe 80 bc
       0.0071949856 0.009734671 0.00074844126 -0.015746549
000010 5c 15 49 3c f0 72 ef bb 53 4e 6c 3b 9d ce ab bb
       0.012273159 -0.007307403 0.0036057427 -0.005243136
000020 f6 97 a7 3b fb f4 b8 bb 03 d6 b0 bc b8 94 a7 3b
       0.0051145507 -0.0056444383 -0.021586424 0.005114164
000030 bf 34 18 3c c2 4f 6c 3b 9e d1 08 bc 2c 05 9e 3b
       0.009289919 0.0036058282 -0.008350758 0.004822394
000040 34 92 0e 3c 93 9d 12 3b da b9 ba bb 9f 45 39 bb
       0.00870185 0.0022371754 -0.0056984248 -0.0028270257
000050 ea f3 e4 3b e7 80 7e 3b 23 97 b0 3b 63 0d a2 3a
       0.0069870846 0.0038834156 0.0053891107 0.0012363609
000060 5d 20 5c bc 99 89 ad bc 7a 7f 17 bc 5e e7 98 b9
       -0.01343545 -0.021183776 -0.009246701 -0.0002916408
000070 4b 9b 0c 3c ed 24 07 bc 9f c6 6a bc 25 03 5c bc
       0.008581947 -0.00824855 -0.0143295815 -0.013428484
000080 fb 48 c5 ba f5 05 5b 3b 8b 0c d2 bb 93 69 85 3c
       -0.0015051657 0.0033420299 -0.0064101866 0.016285693
000090 9b 4e 49 3b 73 d8 3e 3b ff 9a 98 3b 09 ad 12 bb
       0.0030717019 0.0029120713 0.004657149 -0.002238097
0000a0 f0 b2 00 bc c2 ca 89 3c aa ae 72 bc ea bd b8 bb
       -0.007855162 0.016820315 -0.014812151 -0.005637874
0000b0 ba 3e ad 3c 42 1b 88 3b ad 21 bf 39 1b e9 25 bc
       0.021148074 0.00415364 0.0003645545 -0.010126377
0000c0 0b 05 28 3c 07 ec 9e 3b d7 c3 31 3c d3 2a 2e bc
       0.010255109 0.004849914 0.0108499145 -0.010630327
0000d0 01 3f 34 3c 16 99 14 3b fa 64 4d 3c 11 e4 12 ba
       0.011001349 0.0022674254 0.012536282 -0.00056034426
0000e0 ba 1b c6 3b 55 eb 61 bb bd 76 5a 3c bd bb 0d bb
       0.0060457857 -0.0034472544 0.0133339735 -0.0021626793
0000f0 ca 12 8d ba d5 ef da 3b 56 0c 8d 3a f3 7c 10 3b
       -0.0010763046 0.0066814222 0.0010761123 0.0022047132
000100 2a 97 fb 3a fa 0d f8 bb 59 ad 05 3c 2f 77 74 3a
       0.0019194831 -0.0075700255 0.008159005 0.0009325621
000110 06 3e 16 bc c2 c5 5b 3b 6a 7a 07 3c fb 42 66 3a
       -0.009170061 0.003353462 0.008268932 0.00087837846
000120 5a 31 ee b8 00 54 bd bb 18 44 d0 3c 65 a1 6a bb
       -0.00011357917 -0.005777836 0.025423095 -0.0035801765
000130 3b 18 d8 3a c3 14 79 3b 7f 39 cf bc e8 5e 2b 3c
       0.0016486713 0.003800676 -0.025295971 0.010459639
000140 ee f3 42 3b 50 ea 5f 3c 00 72 02 3c 48 95 3b 3c
       0.0029747444 0.013666704 0.00796175 0.011449166
000150 1f 18 0e 3b 32 c6 78 3b cd fa e0 bb 0d 22 3d bc
       0.0021681858 0.003795993 -0.0068658353 -0.011543763
000160 1a 1b dd bb 42 89 03 3b ad 8a bb bb 23 2e 79 bc
       -0.0067476155 0.0020070826 -0.0057233186 -0.015208754
000170 0e ab 24 bc b7 fa 4b 3b 6b 83 81 bc b8 6b 55 3b
       -0.010050548 0.003112478 -0.015809735 0.0032565426
000180 07 46 11 3b 6f 15 c6 3b cb 12 b0 bb d9 27 14 3c
       0.0022166984 0.0060450356 -0.005373334 0.009042704
000190 ca dd a6 3a 8b 9c 39 bc 0c e7 8e bb 80 03 3b 3b
       0.0012730893 -0.011328827 -0.004361039 0.0028536022
0001a0 47 ee b1 3b 95 fb 85 3b 58 9e 03 3c dd e0 d7 ba
       0.005430016 0.004088829 0.008033358 -0.0016470213
0001b0 ad b1 e5 ba 87 a0 88 ba 44 c4 c9 3b bc 69 90 3b
       -0.0017524265 -0.0010423817 0.00615743 0.004407136
0001c0 1d 42 5b 39 f2 1d 60 bb cf ab bc 3c bf fb 1f bc
       0.00020910097 -0.0034197536 0.023031143 -0.009764611
0001d0 2f 73 03 bc 4b ba 12 bc bb 80 06 bc 05 3a f4 3b
       -0.008023067 -0.0089555485 -0.008209403 0.0074532055
0001e0 dd 8c 6c 3b 9f ce bd bb cb 06 92 3b 08 50 45 bc
       0.0036094703 -0.0057924534 0.004456376 -0.012043007
0001f0 c2 b0 b1 3b db 67 78 3c dd 82 c0 3a 58 ef fe bb
       0.0054226825 0.01516148 0.0014687438 -0.007779997

exp_avg f4 [128, 12]
000000 e0 fe 83 b3 67 fb 4c 36 24 9f 61 b5 ca 1e 34 b7
       -6.1465244e-08 3.0544704e-06 -8.405061e-07 -1.0736005e-05
000010 18 33 09 b8 ec 28 60 b6 c7 93 26 b7 64 7a 06 b8
       -3.271093e-05 -3.340242e-06 -9.928778e-06 -3.2062075e-05
000020 00 00 00 00 c5 38 28 b7 93 fa 0e b8 9e b7 03 b7
       0.0 -1.0026798e-05 -3.4088804e-05 -7.85096e-06
000030 8c dc de 36 4c 82 8a 37 de 1b 95 b6 58 2c bb b7
       6.6417906e-06 1.6511556e-05 -4.44379e-06 -2.2312786e-05
000040 df d8 fd b7 8a 3c 7d b7 cf 29 fd b7 52 b6 df b7
       -3.0260939e-05 -1.50940705e-05 -3.0179419e-05 -2.6668571e-05
000050 00 00 00 00 48 e7 b3 b7 1e c5 ad b6 73 6f 03 b8
       0.0 -2.1446162e-05 -5.1787492e-06 -3.133663e-05
000060 47 ce c8 36 ad 54 27 b7 18 42 0f 37 02 96 5b 38
       5.9844783e-06 -9.973691e-06 8.538853e-06 5.2353374e-05
000070 a7 bc 9a b8 f5 34 fa 37 b4 32 71 38 4d f0 a9 b8
       -7.3784315e-05 2.9826982e-05 5.75061e-05 -8.1033075e-05
000080 00 00 00 00 f6 91 2c 38 8d a5 90 b8 fb d5 e5 38
       0.0 4.1143932e-05 -6.897291e-05 0.00010959428
000090 fd 60 f4 b6 c3 7c ed b7 f5 ea 20 37 a3 37 6f 38
       -7.2830576e-06 -2.8310698e-05 9.591448e-06 5.7033856e-05
0000a0 e0 7e f4 b5 ae a7 10 38 2e cc 8b 38 ae 0c 27 b7
       -1.8216342e-06 3.448844e-05 6.666068e-05 -9.956928e-06
0000b0 00 00 00 00 34 4b 46 38 1d 1c e7 36 4c 0f e1 38
       0.0 4.7276917e-05 6.8876093e-06 0.00010731685
0000c0 03 64 45 37 53 a2 b2 37 73 07 78 b6 93 e4 99 b7
       1.1765401e-05 2.1294842e-05 -3.6959216e-06 -1.834546e-05
0000d0 f0 25 46 b8 28 8e 61 b7 79 70 c2 b7 57 c3 38 b8
       -4.724221e-05 -1.3444143e-05 -2.3178976e-05 -4.4050943e-05
0000e0 00 00 00 00 79 98 69 b7 3e 72 cf b7 53 0f 48 b8
       0.0 -1.39233825e-05 -2.4729521e-05 -4.7697988e-05
0000f0 6f df 97 37 36 ac ff 37 18 16 93 b6 3e 56 99 b7
       1.8104647e-05 3.047856e-05 -4.3835134e-06 -1.8279181e-05
000100 9c fc 0f b8 63 52 8c b7 3e 30 e7 b7 32 97 ff b7
       -3.4329118e-05 -1.6727665e-05 -2.755981e-05 -3.0468775e-05
000110 00 00 00 00 06 3f 71 b7 30 e4 88 b6 53 bc 07 b8
       0.0 -1.4379393e-05 -4.0796804e-06 -3.23619e-05
000120 f6 00 5b b7 56 ef b4 b7 f6 17 0b 36 2f b6 66 37
       -1.3053641e-05 -2.1569122e-05 2.0726561e-06 1.3751486e-05
000130 81 d0 67 38 5a 35 fa 36 c2 38 7d 37 8c e7 60 38
       5.5268876e-05 7.4567915e-06 1.509319e-05 5.3621407e-05
000140 00 00 00 00 0c ee 3f 37 82 94 4e b8 f8 ea ab b8
       0.0 1.1439912e-05 -4.9252536e-05 -8.197682e-05
000150 99 2b 0e b7 4b 6b b8 b7 d8 e6 b0 36 ea 9b 0b 38
       -8.47401e-06 -2.1984471e-05 5.2720825e-06 3.328539e-05
000160 2c 0b 86 38 87 7d ab 37 a4 dd 0f 38 06 82 78 38
       6.391699e-05 2.0443242e-05 3.4300276e-05 5.92489e-05
000170 00 00 00 00 cc 15 b4 37 1b 2e a9 36 7a ba ef 38
       0.0 2.1467822e-05 5.04196e-06 0.00011431142
000180 c2 aa 36 37 9d 5b 0e 38 19 02 29 b7 32 3e 77 b8
       1.0887803e-05 3.394076e-05 -1.0073673e-05 -5.8947313e-05
000190 88 4b f2 37 24 6d 16 b8 8c 56 99 b8 6b c2 1d 38
       2.888382e-05 -3.5864432e-05 -7.311729e-05 3.7612783e-05
0001a0 00 00 00 00 40 98 56 b8 b8 a3 37 38 e2 18 e5 b8
       0.0 -5.116337e-05 4.3783075e-05 -0.00010924206
0001b0 1b 61 66 b6 43 31 3b 36 1c 08 51 b6 b9 1d be b7
       -3.4329194e-06 2.7893846e-06 -3.1148147e-06 -2.2663606e-05
0001c0 28 88 45 38 35 9f 50 b7 5d 2a ca b7 fa c8 51 38
       4.7095265e-05 -1.2434834e-05 -2.4100003e-05 5.0016657e-05
0001d0 00 00 00 00 98 31 97 b7 8c 67 29 38 be 98 b2 b8
       0.0 -1.8023697e-05 4.0389175e-05 -8.516152e-05
0001e0 be e4 9d b7 46 31 2d b8 37 bd 08 37 0a 03 66 38
       -1.8822375e-05 -4.1292304e-05 8.150287e-06 5.4839104e-05
0001f0 ac 4e 13 39 91 09 07 38 f4 c1 6c 38 23 b6 0b 39
       0.0001404832 3.2195418e-05 5.6447418e-05 0.00013323924
000200 00 00 00 00 f9 a4 1a 38 3a bf 0e 39 bf b4 c4 38
       0.0 3.6870104e-05 0.00013613413 9.379675e-05
000210 00 1e 36 36 db b3 10 38 b7 e8 7f b7 73 f8 c1 b8
       2.7137576e-06 3.449978e-05 -1.5253368e-05 -9.2492344e-05
000220 2a f5 ab 37 c3 8b 62 b8 dc e9 e0 b8 2f ae 0b 38
       2.0498952e-05 -5.4012762e-05 -0.00010724712 3.3302404e-05
000230 00 00 00 00 75 4c a5 b8 98 ba e7 38 f3 8f 5b b9
       0.0 -7.882054e-05 0.00011049694 -0.00020939093
000240 5d fc 16 b7 52 9c 90 37 b7 f5 62 b7 8d ae b1 b8
       -8.999455e-06 1.723893e-05 -1.352786e-05 -8.47253e-05
000250 b5 48 e7 38 fc b6 49 b8 09 e2 c9 b8 2b ae ff 38
       0.00011028481 -4.8092552e-05 -9.626529e-05 0.00012191789
000260 00 00 00 00 93 ef 95 b8 e4 74 15 39 84 fe 7c b9
       0.0 -7.149498e-05 0.00014253292 -0.00024127407
000270 a6 6d a7 35 91 a8 bd b7 a4 8c 42 37 8d 7b 94 38
       1.2474381e-06 -2.260905e-05 1.15960465e-05 7.080203e-05
000280 58 cb 55 b8 66 a3 27 38 47 e7 a6 38 92 dc 7d b8
       -5.0972536e-05 3.996808e-05 7.9585756e-05 -6.0525323e-05
000290 00 00 00 00 85 38 71 38 12 94 09 b9 62 b6 ba 38
       0.0 5.7511515e-05 -0.00013120499 8.9031426e-05
0002a0 62 4f 69 b6 65 11 1c b7 12 6e 13 36 54 e2 79 37
       -3.4765912e-06 -9.302375e-06 2.1968776e-06 1.4894253e-05
0002b0 e0 0d c2 37 59 33 18 37 e4 01 58 37 6a 90 b0 37
       2.3133063e-05 9.071861e-06 1.28750435e-05 2.1048083e-05
0002c0 00 00 00 00 d4 5f c4 36 36 8f 4c 37 db 2c d5 37
       0.0 5.852411e-06 1.2192691e-05 2.5412466e-05
0002d0 60 dd 08 37 15 76 62 37 76 f6 0d b6 87 2e 13 b7
       8.157775e-06 1.3498143e-05 -2.1154096e-06 -8.772716e-06
0002e0 6d 26 84 b8 04 f9 e9 b6 72 9a 13 b7 70 f6 80 b8
       -6.301408e-05 -6.9729304e-06 -8.797842e-06 -6.149418e-05
0002f0 00 00 00 00 d0 77 15 b6 b8 a9 48 37 77 03 98 37
       0.0 -2.227247e-06 1.1960445e-05 1.8121425e-05
000300 26 c7 4e b7 2c d0 c2 b7 40 f5 88 36 c2 45 bc 37
       -1.2324925e-05 -2.322354e-05 4.0816667e-06 2.244383e-05
000310 b9 bd d4 38 0d 3c 85 37 72 69 b9 37 2d 4a cd 38
       0.00010144286 1.5882799e-05 2.210282e-05 9.788978e-05
000320 00 00 00 00 38 72 36 37 b8 4b 18 38 66 fd 96 38
       0.0 1.0874639e-05 3.6310143e-05 7.1997565e-05
000330 65 22 a0 35 7b f8 bf 35 02 fd 23 34 98 59 56 b5
       1.1930939e-06 1.4302926e-06 1.5272602e-07 -7.985159e-07
000340 7c 62 be b7 24 bd a0 33 d6 cf 95 b4 2c 62 bf b7
       -2.2695625e-05 7.484985e-08 -2.7904633e-07 -2.281469e-05
000350 00 00 00 00 ae ab 09 b5 67 51 a2 b7 cf 91 12 b7
       0.0 -5.1286304e-07 -1.934981e-05 -8.736227e-06
000360 2a 20 12 b7 87 1b 95 b7 64 54 51 36 29 61 a0 37
       -8.709767e-06 -1.7775003e-05 3.1192549e-06 1.911873e-05
000370 fb a9 81 37 5d 31 3e 37 28 d5 a1 37 e2 2d 55 37
       1.5457152e-05 1.1336376e-05 1.9291954e-05 1.2706472e-05
000380 00 00 00 00 d2 1e 2f 37 30 d4 6c b8 ef 06 9a 37
       0.0 1.0437989e-05 -5.64644e-05 1.836146e-05
000390 16 54 57 b6 02 8e 35 37 00 40 f6 b6 60 57 43 b8
       -3.208644e-06 1.08215045e-05 -7.338822e-06 -4.6572997e-05
0003a0 84 8d 71 37 8b 2b de b7 96 22 5e b8 0a 78 ad 37
       1.4397669e-05 -2.6484739e-05 -5.2961135e-05 2.0679105e-05
0003b0 00 00 00 00 49 31 25 b8 bc 05 a5 b7 22 42 18 b9
       0.0 -3.9384966e-05 -1.9672203e-05 -0.00014520486
0003c0 a8 dc 14 b6 be 67 56 b6 23 cd 8c 34 e2 ae 96 35
       -2.2182157e-06 -3.194887e-06 2.622629e-07 1.1226768e-06
0003d0 10 34 5d b7 4a ca 01 36 88 91 f2 35 ba 78 65 b7
       -1.3184748e-05 1.9340246e-06 1.807276e-06 -1.36775725e-05
0003e0 00 00 00 00 46 4b 4f b5 72 a6 96 36 ec 33 2c 38
       0.0 -7.7223046e-07 4.489725e-06 4.105635e-05
0003f0 0b 19 e6 35 2e ef 3b 36 5b a9 1b b5 fd 25 dc b5
       1.7143624e-06 2.8004392e-06 -5.7988444e-07 -1.6402333e-06

exp_avg_sq f4 [128, 12]
000000 a3 34 a2 33 e0 5c a4 33 b1 f1 ad 2d 54 72 02 34
       7.5532874e-08 7.653739e-08 1.9775155e-11 1.2148786e-07
000010 39 43 6b 32 57 fb 0b 33 00 cd 8a 33 a4 da 95 32
       1.3694085e-08 3.259205e-08 6.463415e-08 1.744531e-08
000020 00 00 00 00 23 a3 ba 33 c2 96 b2 32 3c 66 d0 31
       0.0 8.690974e-08 2.0790484e-08 6.0652194e-09
000030 d4 1b 0e 34 62 d5 07 34 0a 7f bf 2d 78 08 83 34
       1.3234904e-07 1.2650483e-07 2.1770603e-11 2.4406813e-07
000040 21 98 b4 32 d6 c8 bc 33 87 ed 2d 33 7a ab fb 32
       2.1023938e-08 8.790964e-08 4.049573e-08 2.9298224e-08
000050 00 00 00 00 f5 34 33 31 f5 e6 0f 33 b3 d3 a2 32
       0.0 2.607803e-09 3.3504836e-08 1.8955552e-08
000060 e4 2c fc 32 36 d0 11 33 d3 d5 55 2e c7 1a a5 32
       2.9357075e-08 3.394981e-08 4.8620507e-11 1.9220705e-08
000070 b2 3d a0 32 a7 f2 12 34 db 2c dc 33 6e b7 ba 32
       1.8654507e-08 1.3685586e-07 1.02527075e-07 2.1736664e-08
000080 00 00 00 00 01 31 f6 32 c1 f8 d7 32 5c bc 0d 32
       0.0 2.8660454e-08 2.5142414e-08 8.250108e-09
000090 5b 4a 35 33 a0 19 42 33 b1 f6 1a 2e a8 70 28 33
       4.2209972e-08 4.519245e-08 3.5234652e-11 3.921801e-08
0000a0 bd 94 c1 32 bc 79 87 30 b8 91 ab 32 88 3a bf 32
       2.2535795e-08 9.857142e-10 1.9973285e-08 2.2261943e-08
0000b0 00 00 00 00 67 44 9d 32 ec f6 e2 32 cd 73 0d 32
       0.0 1.8308311e-08 2.642215e-08 8.23361e-09
0000c0 b0 a9 31 34 48 15 2d 34 fb 05 33 2e 4f e0 67 34
       1.6546142e-07 1.6119623e-07 4.07052e-11 2.1595154e-07
0000d0 3c fb 0b 33 28 22 32 34 63 d1 01 34 96 ab 27 33
       3.2591956e-08 1.6589968e-07 1.2090236e-07 3.9038774e-08
0000e0 00 00 00 00 67 1e 4b 33 18 8e 47 33 d9 59 97 32
       0.0 4.729227e-08 4.646253e-08 1.7619572e-08
0000f0 70 73 9f 34 fc 0b 9e 34 fb a1 a1 2e 64 ed 12 35
       2.970005e-07 2.9438513e-07 7.350206e-11 5.473469e-07
000100 c9 ab 5e 33 79 06 57 33 51 2b ba 33 1c 4c 95 33
       5.184464e-08 5.0064475e-08 8.669179e-08 6.9521974e-08
000110 00 00 00 00 d3 dc e3 33 e2 fb ab 33 4d a4 24 33
       0.0 1.0610679e-07 8.008625e-08 3.8333656e-08
000120 e9 cf aa 32 02 68 1f 33 37 03 93 2e e6 79 1c 32
       1.9885151e-08 3.7114667e-08 6.685357e-11 9.108112e-09
000130 6f aa d0 32 a5 8f 28 31 a0 01 70 31 df 8d d3 32
       2.4291891e-08 2.452887e-09 3.492552e-09 2.4628148e-08
000140 00 00 00 00 1f 30 20 31 c0 01 99 32 6a c8 b6 33
       0.0 2.3310418e-09 1.781234e-08 8.5114905e-08
000150 08 b1 b5 32 a3 7c ef 32 b1 08 d7 2e 7e 8e f6 32
       2.1151678e-08 2.787994e-08 9.778612e-11 2.8702967e-08
000160 2c b6 90 32 bc 5e b0 31 6c 23 60 33 51 df 91 32
       1.6846649e-08 5.133044e-09 5.218628e-08 1.6981774e-08
000170 00 00 00 00 f4 5b 06 34 c2 3a a1 32 6a 76 b3 32
       0.0 1.2513175e-07 1.8769587e-08 2.0892191e-08
000180 38 6c d6 33 ad 9f cf 33 a1 2a e5 2d ac 1d e7 33
       9.9848364e-08 9.6682335e-08 2.6053217e-11 1.0762173e-07
000190 89 58 a6 32 f6 fb e8 33 3e 5e ac 33 10 87 bc 32
       1.9365205e-08 1.0849173e-07 8.026517e-08 2.19475e-08
0001a0 00 00 00 00 1a c0 7f 32 c5 20 e2 32 b0 99 09 32
       0.0 1.4886632e-08 2.6324765e-08 8.009394e-09
0001b0 47 d8 e5 33 bd ff e6 33 d1 37 de 2d a2 1d e1 33
       1.0702984e-07 1.0756728e-07 2.5263265e-11 1.0482769e-07
0001c0 1b 96 ba 32 17 81 53 34 d2 b4 d6 33 f6 1b be 32
       2.172151e-08 1.9697869e-07 9.9980426e-08 2.2131626e-08
0001d0 00 00 00 00 ef 02 0f 33 2c 47 d5 32 03 d0 27 32
       0.0 3.329745e-08 2.4828829e-08 9.767976e-09
0001e0 fa 7d 1a 34 6f 83 1b 34 8a 8b 17 2f db d4 9c 34
       1.4388198e-07 1.4483315e-07 1.3782944e-10 2.9212137e-07
0001f0 e9 6d 84 33 d2 a2 5a 31 8c 59 f9 33 ac 30 92 33
       6.1667215e-08 3.1815728e-09 1.16112545e-07 6.807508e-08
000200 00 00 00 00 5c 12 61 34 3b 47 ab 33 f8 2f da 32
       0.0 2.0961437e-07 7.975765e-08 2.5400354e-08
000210 8f 48 47 34 5a d2 40 34 f9 ad ba 2e 2f f7 ba 34
       1.8559716e-07 1.7957919e-07 8.4892045e-11 3.482505e-07
000220 5d 5f 0a 33 dc 25 41 33 9d 6c 0c 33 21 68 42 33
       3.221736e-08 4.4970747e-08 3.2695073e-08 4.526385e-08
000230 00 00 00 00 c3 73 b1 32 62 23 62 33 df 35 39 33
       0.0 2.0658154e-08 5.2651906e-08 4.3122665e-08
000240 f9 3d fa 31 95 38 53 32 6a c4 7e 2e 8c 93 5c 32
       7.283003e-09 1.2294682e-08 5.7927364e-11 1.2839234e-08
000250 a5 2d 34 32 1b 04 6f 31 f9 ac 96 31 4f 1d 4a 32
       1.0487757e-08 3.478141e-09 4.3852393e-09 1.17646115e-08
000260 00 00 00 00 6f 0c 35 31 18 e8 5c 32 8c 9f 10 32
       0.0 2.6346034e-09 1.2858457e-08 8.41818e-09
000270 44 7f 80 32 8c 21 db 32 f0 0e d4 2e bd 2a 20 32
       1.4959035e-08 2.551021e-08 9.643297e-11 9.322943e-09
000280 1d 54 ad 32 6a 02 1c 31 27 17 72 32 4d 90 bf 32
       2.0178101e-08 2.270236e-09 1.4091518e-08 2.2300947e-08
000290 00 00 00 00 81 ad 6b 32 9c 64 cb 32 40 5f f5 32
       0.0 1.37182505e-08 2.3678062e-08 2.8565069e-08
0002a0 c9 3c 3d 34 97 24 37 34 6a 7b 6f 2e c1 7e b7 34
       1.762411e-07 1.7056514e-07 5.4451922e-11 3.4178632e-07
0002b0 f0 be 1b 33 2d fa 1d 33 05 69 e9 33 ac b1 42 33
       3.6262406e-08 3.6781945e-08 1.0869011e-07 4.5330736e-08
0002c0 00 00 00 00 55 f1 3d 34 20 58 69 33 2f a2 d5 32
       0.0 1.7689793e-07 5.432969e-08 2.4870216e-08
0002d0 8f 3b 46 33 82 64 82 33 46 48 b7 2e 6f 13 3d 33
       4.6154636e-08 6.071879e-08 8.334715e-11 4.4022666e-08
0002e0 22 88 05 33 e5 58 70 33 c4 ae 39 34 1e 3c 00 33
       3.1090288e-08 5.5960204e-08 1.7293047e-07 2.9857e-08
0002f0 00 00 00 00 65 02 73 34 9c 8a 0c 33 d9 14 24 33
       0.0 2.263201e-07 3.2722355e-08 3.8203186e-08
000300 6b 8f 8e 33 2d cc aa 33 a2 98 d6 2e 57 11 91 33
       6.638478e-08 7.953381e-08 9.758706e-11 6.755243e-08
000310 d1 44 f8 32 a7 72 ae 32 f8 e1 e8 33 9e 17 f2 32
       2.8902294e-08 2.0308404e-08 1.0844445e-07 2.8183248e-08
000320 00 00 00 00 dc 28 82 34 2c 17 03 33 61 4e 1b 33
       0.0 2.4244116e-07 3.052189e-08 3.6160035e-08
000330 c1 5f 3f 33 8e 2f 34 33 b8 17 24 2d 89 5c 52 33
       4.455774e-08 4.1952767e-08 9.327587e-12 4.8978595e-08
000340 fd 98 df 31 b6 9c 2d 33 66 2d f3 32 0d eb c4 31
       6.507547e-09 4.042223e-08 2.8309568e-08 5.731073e-09
000350 00 00 00 00 c2 0b aa 32 9b c1 e6 31 c1 ba b0 31
       0.0 1.9795952e-08 6.7158914e-09 5.1435056e-09
000360 2c f6 28 33 47 19 3f 33 eb 92 ab 2e 53 59 d9 32
       3.933944e-08 4.4493643e-08 7.8022776e-11 2.5302745e-08
000370 f1 c5 c3 32 22 75 76 33 7a fe 0a 34 15 7c c8 32
       2.2791001e-08 5.738287e-08 1.294483e-07 2.333949e-08
000380 00 00 00 00 34 2d 34 34 1c 6d d8 32 b0 46 a9 32
       0.0 1.6780251e-07 2.5195327e-08 1.9706334e-08
000390 ee b3 90 33 07 f9 90 33 0c 41 51 2e 54 95 ba 33
       6.7382516e-08 6.75082e-08 4.757887e-11 8.6884626e-08
0003a0 4f b7 e8 32 87 07 5e 33 6f a5 1e 33 47 8f f9 32
       2.7091714e-08 5.169525e-08 3.6937703e-08 2.905257e-08
0003b0 00 00 00 00 de 45 c8 31 34 68 09 33 0f 52 05 33
       0.0 5.828709e-09 3.199257e-08 3.1041107e-08
0003c0 2b 74 b8 32 02 e6 fa 32 6e f9 92 2d 2d 03 54 32
       2.1473246e-08 2.9208426e-08 1.6709047e-11 1.2340746e-08
0003d0 0a c9 00 32 4a b1 23 32 53 f9 ed 32 c3 4b f4 31
       7.496292e-09 9.52816e-09 2.770381e-08 7.1099477e-09
0003e0 00 00 00 00 11 91 5f 33 89 34 00 32 e3 de a3 32
       0.0 5.205317e-08 7.462526e-09 1.9077055e-08
0003f0 84 94 8c 33 77 be a9 33 b9 0e 25 2e 22 3e 81 33
       6.546273e-08 7.904321e-08 3.7529733e-11 6.0183325e-08
