results/SlayRL_FINAL108/SlayTheSquire_RL/SlayTheSquire_RL-250882.pt (torch, 467706 bytes, 47 tensors)

network_body.observation_encoder.processors.0.normalizer.running_mean f4 [12]
0.98939323 -0.12825947 0.0017299467 0.9852242 -0.8195094 -0.81925446 -0.81925446 -0.021209104
0.0 -7.971841e-06 -0.023580706 -0.0020726786
00000000: e048 7d3f 7356 03be 61bf e23a a737 7c3f
00000010: 5ecb 51bf a9ba 51bf a9ba 51bf b7be adbc
00000020: 0000 0000 ccbe 05b7 532c c1bc c7d5 07bb

network_body.observation_encoder.processors.0.normalizer.running_variance f4 [12]
24.538471 1142.5393 1.0001028 1701.6022 37110.01 37150.92 37150.92 5209.1436
1.0 2.9999795 5777.493 519.9223
00000000: ca4e c441 42d1 8e44 5e03 803f 45b3 d444
00000010: 03f6 1047 ec1e 1147 ec1e 1147 26c9 a245
00000020: 0000 803f aaff 3f40 f28b b445 07fb 0144

network_body.processors.0.normalizer.running_mean f4 [12]
0.98939323 -0.12825947 0.0017299467 0.9852242 -0.8195094 -0.81925446 -0.81925446 -0.021209104
0.0 -7.971841e-06 -0.023580706 -0.0020726786
00000000: e048 7d3f 7356 03be 61bf e23a a737 7c3f
00000010: 5ecb 51bf a9ba 51bf a9ba 51bf b7be adbc
00000020: 0000 0000 ccbe 05b7 532c c1bc c7d5 07bb

network_body.processors.0.normalizer.running_variance f4 [12]
24.538471 1142.5393 1.0001028 1701.6022 37110.01 37150.92 37150.92 5209.1436
1.0 2.9999795 5777.493 519.9223
00000000: ca4e c441 42d1 8e44 5e03 803f 45b3 d444
00000010: 03f6 1047 ec1e 1147 ec1e 1147 26c9 a245
00000020: 0000 803f aaff 3f40 f28b b445 07fb 0144

network_body._body_endoder.seq_layers.0.weight f4 [128, 12]
-0.42008647 0.15015692 0.033149168 0.12289725 0.6257069 0.08865931 -0.010549641 0.2696806
0.33173773 -0.08662754 0.19891581 0.14359379 0.14427488 -0.28893852 -0.17227983 -0.069168486
0.47932565 0.16007487 -0.07984692 0.19329508 -0.30375862 -0.04716156 0.116752215 -0.08622209
0.12613669 -0.1541488 -0.43954855 0.09438283 -0.23871027 0.72331804 0.10817183 -0.49509516
0.17614287 -0.15288353 -0.041274283 -0.3417889 0.13744102 -0.043329235 -0.22359516 0.1374102
0.15457255 -0.19094113 0.62830925 -0.063666396 -0.061658707 0.047685932 0.020036327 -0.16567077
0.24594913 0.001941244 -0.20059174 0.28628153 0.0073628803 0.14981884 0.2242147 -0.3143939
0.5683412 0.1548592 -0.30360574 -0.45223525 0.28038138 -0.38734362 0.19768913 -0.2422634
-0.06372101 0.0928511 -0.4686988 0.22736233 -0.056269675 0.12295848 -0.012595634 -0.24338374
0.27756163 -0.18027864 0.19377093 -0.140613 -0.03353971 -1.0863268 0.009194773 -0.31492287
-0.30073205 -0.27851453 0.30980274 -0.4330004 -0.007440829 0.6546692 0.022336762 0.5014391
-0.22779801 0.26307383 -0.5659618 0.37800565 0.020365426 -0.21495436 0.2750357 -0.02110781
0.015077071 0.17254168 -0.7296014 -0.4104757 -0.53091955 0.030552099 0.44507056 0.0044521955
0.23320973 0.10730189 0.14971925 -0.41009536 -0.076055445 -0.5369646 0.3226671 0.06922278
0.15611786 -0.38864875 0.08748424 0.20666252 -0.02085527 -0.113230735 0.4384589 -0.09574406
0.33510667 0.24786513 -0.3033938 0.72754943 -0.5809394 0.2858173 0.14497633 0.10130822
-0.020326866 -0.093965314 -0.14937058 0.33499324 -0.14565471 0.11601301 0.23164439 0.059013326
0.3252521 0.16983192 -0.4517123 -0.13383871 0.27684104 0.29713193 0.19767569 -0.4408828
-0.13912949 0.62529033 -0.04154646 0.12199005 0.22763512 -0.024842177 0.0967904 0.1254323
-0.046092868 0.53851366 -0.084057055 0.16973299 0.3151858 0.2801007 -0.15353215 0.13754268
-0.056782868 0.9260691 -0.4517015 -0.5386914 0.117327124 -0.2910988 0.33721218 -0.15669376
-0.17399538 0.32735282 0.09508069 0.11669649 -0.27330023 0.38389266 0.1267248 0.30351624
-0.07189925 -0.24746436 0.18031447 0.33328456 -0.15783678 0.12618242 0.296251 -0.010387676
-0.06566788 -0.29222184 -0.42757517 0.38535345 0.10391951 0.16443382 -0.11942156 0.02303941
0.2694922 -0.13515496 -0.0033848775 -0.17639689 0.022096781 0.32898623 -0.060668554 0.27748334
-0.50452244 0.57725626 0.032245733 -0.70323676 0.017879682 0.18771479 0.054832324 0.15211625
-0.5168491 0.30101115 -0.32689235 0.10146504 0.31296182 0.4031239 -0.40833357 -0.027508989
0.1986511 0.3053608 -0.5020539 -0.25993064 -0.61523443 -0.069157586 0.024385592 -0.14541876
-0.36988413 -0.11143918 -0.31715646 0.27459428 0.28730753 0.12057657 -0.36190075 -0.079316534
0.36616996 -0.13874876 0.23724085 0.20037577 0.29504108 -0.23035075 -0.16475354 0.14851597
-0.25088313 0.10110037 0.06232071 0.4802216 0.28366944 -0.09544395 0.47056985 0.22913362
0.051824275 0.35332805 -0.17382267 -0.121211745 0.5983563 0.24979272 -0.049081475 -0.112461306
00000000: 9315 d7be bcc2 193e 6cc7 073d 8eb1 fb3d
00000010: 542e 203f 0393 b53d 67d8 2cbc 9313 8a3e
00000020: 87d9 a93e c869 b1bd 96b0 4b3e 400a 133e
00000030: cbbc 133e c0ef 93be 206a 30be 35a8 8dbd
00000040: 2c6a f53e abea 233e c886 a3bd 25ef 453e
00000050: 4086 9bbe 7b2c 41bd c91b ef3d 3595 b0bd
00000060: fa29 013e 2fd9 1dbe 820c e1be c94b c13d
00000070: 7770 74be 5f2b 393f 3189 dd3d 1d7d fdbe
00000080: cc5e 343e 808d 1cbe 390f 29bd f4fe aebe
00000090: 57bd 0c3e ff79 31bd 21f6 64be 42b5 0c3e
000000a0: 4448 1e3e 1286 43be e0d8 203f 8763 82bd
000000b0: d78d 7cbd 5352 433d 3923 a43c 99a5 29be
000000c0: 17da 7b3e 5771 fe3a ec67 4dbe 7e93 923e
000000d0: 5144 f13b 1c6a 193e 8a98 653e 3df8 a0be
000000e0: cf7e 113f 6993 1e3e 3672 9bbe 618b e7be
000000f0: 268e 8f3e e751 c6be 056f 4a3e e613 78be
00000100: 2980 82bd b828 be3d 4af9 efbe acd1 683e
00000110: 087b 66bd a8d1 fb3d eb5d 4ebc 9639 79be
00000120: 8f1c 8e3e f79a 38be e36b 463e dbfc 0fbe
00000130: ef60 09bd c20c 8bbf aca5 163c 923d a1be
00000140: 8df9 99be 7599 8ebe 779e 9e3e 3ab2 ddbe
00000150: 33d2 f3bb 6798 273f 96fb b63c 505e 003f
00000160: e243 69be 9db1 863e dfe2 10bf f589 c13e
00000170: 65d5 a63c ff1c 5cbe 7bd1 8c3e 49ea acbc
00000180: d205 773c c4ae 303e 28c7 3abf df29 d2be
00000190: 58ea 07bf 6548 fa3c 4ae0 e33e b9e3 913b
000001a0: 88ce 6e3e 18c1 db3d 0150 193e 05f8 d1be
000001b0: f5c2 9bbd 8376 09bf 9f34 a53e acc4 8d3d
000001c0: 5cdd 1f3e f8fc c6be f02a b33d 579f 533e
000001d0: acd8 aabc 84e5 e7bd af7d e03e 7615 c4bd
000001e0: 1a93 ab3e 5bd0 7d3e 6f56 9bbe ae40 3a3f
000001f0: 72b8 14bf a556 923e ad74 143e af7a cf3d
00000200: 8784 a6bc e370 c0bd 9af4 18be 3c84 ab3e
00000210: 8226 15be 3b98 ed3d 3034 6d3e f5b7 713d
00000220: 7187 a63e 6be8 2d3e d646 e7be 040d 09be
00000230: 1cbe 8d3e ad21 983e 7f6b 4a3e 64bb e1be
00000240: f677 0ebe 0713 203f 9f2c 2abd ebd5 f93d
00000250: 2e19 693e d281 cbbc 0c3a c63d 5371 003e
00000260: e0cb 3cbd 08dc 093f 1b26 acbd 7cce 2d3e
00000270: 0860 a13e 5c69 8f3e 8837 1dbe fdd7 0c3e
00000280: 2795 68bd dd12 6d3f 6b45 e7be aee7 09bf
00000290: 3449 f03d e70a 95be 13a7 ac3e 5474 20be
000002a0: d82b 32be ca9a a73e aab9 c23d 92fe ee3d
000002b0: 02ee 8bbe 948d c43e 25c4 013e 7b66 9b3e
000002c0: ea3f 93bd 4c67 7dbe 5ba4 383e 46a4 aa3e
000002d0: f79f 21be f735 013e 36ae 973e 1231 2abc
000002e0: e27c 86bd 1a9e 95be 22eb dabe 0c4d c53e
000002f0: c1d3 d43d 5761 283e 4a93 f4bd 25bd bc3c
00000300: e2fa 893e 1066 0abe d2d4 5dbb 63a1 34be
00000310: 4f04 b53c e270 a83e 977f 78bd 4c12 8e3e
00000320: 6228 01bf 11c7 133f 1a14 043d 5307 34bf
00000330: 6978 923c 4e38 403e dc97 603d 5dc4 1b3e
00000340: 3950 04bf 221e 9a3e 6f5e a7be e7cc cf3d
00000350: 883c a03e 4166 ce3e 1911 d1be 885a e1bc
00000360: 326b 4b3e 4058 9c3e 9b86 00bf a115 85be
00000370: 0180 1dbf 7ea2 8dbd 4bc4 c73c a8e8 14be
00000380: 7461 bdbe 3a3a e4bd 5562 a2be 9f97 8c3e
00000390: f919 933e d9f0 f63d 0e4b b9be b570 a2bd
000003a0: a17a bb3e 2814 0ebe 44ef 723e 4e2f 4d3e
000003b0: a00f 973e 11e1 6bbe 27b5 28be 9214 183e
000003c0: c173 80be b60d cf3d 0044 7f3d 9bdf f53e
000003d0: 1f3d 913e 1e78 c3bd 88ee f03e 01a2 6a3e
000003e0: b145 543d 6ae7 b43e 92fe 31be dd3d f8bd
000003f0: e12d 193f aac9 7f3e a809 49bd 1d52 e6bd

network_body._body_endoder.seq_layers.0.bias f4 [128]
0.074053645 -0.033386324 0.016936416 -0.05821974 0.02518083 -0.0183007 0.025666837 0.032230128
0.06343023 0.020447955 -0.030329952 0.057740126 0.03657957 -0.039273486 0.052864585 -0.0019088399
0.04012169 0.034873467 0.017255 -0.03883944 0.039788723 0.06376192 -0.072257616 0.012907261
-0.0025973811 0.041922294 0.068594635 -0.028916763 0.04422329 0.030513618 0.026008815 -0.01728856
0.0036065541 0.011452311 0.051358514 0.07326781 -0.009533626 -0.013086271 0.05340981 -0.004283833
-0.019598763 -0.027108775 0.06816385 -0.016219813 0.0646606 -0.025146311 0.050368838 0.07015951
0.031920113 -0.0372327 0.008782688 0.026035441 0.08707208 0.04736198 0.057229552 0.042839784
0.06778803 -0.0405525 -0.045421712 0.007260024 0.041629776 0.052008074 0.022969035 -0.07134175
-0.024438497 0.04943798 0.06662557 0.04632233 -0.022792412 -0.0035838017 0.0019673256 -0.0007465501
0.07727327 0.0007475924 0.036137924 0.06035154 -0.0012878191 0.03970215 0.005994595 0.0052300454
-0.021060701 0.030741248 -0.050124273 0.04864952 0.004564915 -0.01434804 0.057699442 0.014100586
0.06391568 -0.02474426 0.07848717 0.052882947 0.021182435 -0.004455494 -0.02815971 -0.00037602222
0.028218623 0.0034832137 0.044143155 0.073950194 0.026390867 0.024221841 0.023563439 0.08918133
0.03236414 0.070447974 0.018814132 0.001811062 0.02989592 0.018440528 0.04663111 0.075265214
0.057827767 0.088219486 0.05912137 -0.06022183 0.06626072 0.05171775 0.041657433 0.08023081
0.06844013 -0.008017012 0.028951334 0.026897535 0.02082335 0.040907938 0.03301895 0.051027775
00000000: 70a9 973d 19c0 08bd 3dbe 8a3c d277 6ebd
00000010: 0748 ce3c 59eb 95bc 4243 d23c bd03 043d
00000020: b5e7 813d 7882 a73c 8576 f8bc e980 6c3d
00000030: 76d4 153d 3cdd 20bd 8988 583d 0a32 faba
00000040: a456 243d 7bd7 0e3d 5c5a 8d3c 1b16 1fbd
00000050: 80f9 223d 9c95 823d cdfb 93bd fa78 533c
00000060: d338 2abb b6b6 2b3d 587b 8c3d d9e2 ecbc
00000070: 7b23 353d b2f7 f93c 7010 d53c bda0 8dbc
00000080: f05b 6c3b 79a2 3b3c 4e5d 523d 6f0d 963d
00000090: ed32 1cbc cc67 56bc 3fc4 5a3d 655f 8cbb
000000a0: 968d a0bc 3913 debc 7d99 8b3d 6adf 84bc
000000b0: c76c 843d a3ff cdbc 8e4f 4e3d caaf 8f3d
000000c0: aabe 023d 5181 18bd 43e5 0f3c 4748 d53c
000000d0: d952 b23d a3fe 413d 8969 6a3d c578 2f3d
000000e0: 73d4 8a3d 611a 26bd 1e0c 3abd 7fe5 ed3b
000000f0: fc83 2a3d 6b06 553d 8f29 bc3c a01b 92bd
00000100: 3e33 c8bc 7b7f 4a3d fd72 883d 7cbc 3d3d
00000110: 27b7 babc 37de 6abb 3fee 003b 21b4 43ba
00000120: 7341 9e3d 14fa 433a 5c05 143d 2d33 773d
00000130: 0acc a8ba b99e 223d 4f6e c43b cd60 ab3b
00000140: 7e87 acbc 12d5 fb3c 1c4f 4dbd b844 473d
00000150: 4895 953b 0b14 6bbc 4056 6c3d 2506 673c
00000160: 39e6 823d 79b4 cabc e2bd a03d ca9b 583d
00000170: c986 ad3c 65ff 91bb 31af e6bc d924 c5b9
00000180: be2a e73c a146 643b 74cf 343d 3373 973d
00000190: a931 d83c e26c c63c 1d08 c13c b3a4 b63d
000001a0: 4390 043d 0747 903d 1820 9a3c 2861 ed3a
000001b0: 4ae8 f43c 9710 973c 4300 3f3d a624 9a3d
000001c0: cfdc 6c3d 6bac b43d 4029 723d 2aab 76bd
000001d0: b3b3 873d fed5 533d fca0 2a3d 0d50 a43d
000001e0: 572a 8c3d c959 03bc 592b ed3c 3858 dc3c
000001f0: bb95 aa3c 158f 273d e13e 073d 8002 513d

network_body._body_endoder.seq_layers.2.weight f4 [128, 128]
0.015133215 0.044106185 -0.0679062 0.06101221 -0.01107483 -0.025661595 -0.010574989 0.043037873
-0.04046693 -0.04789796 0.006524371 0.17001216 -0.09221667 -0.009891704 0.13733123 -0.002662421
-0.013177222 0.029250987 -0.06168045 -0.07780617 0.18587229 -0.07392877 -0.035367526 0.0031919912
-0.13304904 -0.010404378 0.043034904 -0.02504274 -0.26686725 0.024763571 -0.07485302 0.005631628
0.07388337 0.03761381 -0.07073679 -0.08945181 0.054209363 -0.0074097062 0.050826315 0.015394615
0.12736857 0.16916732 0.07190546 -0.012768956 -0.07178929 -0.055627964 -0.17972556 0.04963571
0.17284128 0.04250033 0.13923876 -0.004316698 -0.04054425 0.090366796 -0.013777901 -0.020433826
-0.030772239 -0.023745272 0.022326544 -0.01899595 -0.0042741527 -0.058554213 0.038958225 -0.104385816
-0.12507115 0.09664973 -0.09507775 0.058422584 -0.08064337 -0.022652596 -0.0500802 -0.05159418
0.024582932 -0.17285584 0.019209815 0.067306824 0.15159523 -0.047965165 0.10717182 0.11629005
-0.079383016 0.0661093 0.05205766 -0.06569332 -0.05877069 -0.11361499 0.09295687 0.071356066
0.015440686 -0.040057257 -0.06889777 0.007285869 -0.025309402 -0.003818822 -0.06918047 0.09938999
-0.054268043 0.057644174 -0.034103893 0.026121011 -0.0025993325 0.028799023 0.008466121 0.08458479
-0.08110534 0.10377122 -0.03613041 0.13529058 -0.08136845 0.01663647 0.12854591 0.05695253
0.053161882 0.14614631 0.09100001 -0.10978849 0.20261188 0.0053751413 -0.055020716 0.047881592
0.014585054 -0.20996079 -0.22955297 0.044958 0.14514026 0.009694697 -0.056281816 0.0042277607
0.0025895466 -0.15648657 -0.042598724 0.041633084 -0.09993315 -0.00674082 0.07683335 0.018516997
0.070276484 -0.15461516 0.0075065577 0.062232252 -0.15786375 -0.02297072 -0.03957617 -0.026382834
0.08940487 -0.044869393 -0.051510613 -0.0074217473 -0.026029734 -0.0014579805 -0.20200458 0.076301605
-0.029847419 0.055378236 0.13362402 0.024554083 0.18990666 0.071359724 -0.06474783 -0.17030951
-0.054243147 -0.08038446 0.0027421825 0.12066519 0.09434344 0.0063368096 0.013156023 -0.15013722
0.2001599 0.073544554 0.045669615 -0.063263655 -0.044402283 0.15867709 -0.1338024 0.2075072
0.07062911 -0.10976557 -0.033495072 -0.04678468 0.08190933 -0.018060302 -0.013053467 0.09807269
0.077189185 0.025365425 -0.0416491 0.004618216 0.08110182 -0.16924956 -0.01746196 0.029932333
0.12556364 0.012597443 -0.1948852 0.10742193 -0.14218737 -0.003660239 0.017685816 -0.011325985
0.077195846 -0.0351379 0.10638034 0.11488819 -0.112670645 -0.123813264 -0.03661023 -0.2854664
-0.021963857 0.014425951 -0.043111283 0.069063865 0.046912383 0.029748315 0.13787329 0.06144125
0.099011116 0.040207434 -0.040727325 0.06531319 0.18128519 -0.050799154 -0.00041696624 -0.0032891242
-0.15737087 -0.055407986 -0.16994911 -0.06594569 0.122021385 0.060409386 -0.0022163866 -0.121733196
-0.1398446 0.07913738 -0.03163438 0.10417456 -0.04909517 -0.047696825 -0.053413168 0.04993211
0.092521876 -0.092717715 0.02950345 0.18384555 -0.117956 0.03217341 -0.03482182 -0.025912324
0.023778748 0.007841997 -0.004334465 -0.04217552 0.12119699 -0.05144351 0.028119162 0.022313992
00000000: 4ef1 773c b0a8 343d 6812 8bbd f0e7 793d
00000010: 3473 35bc 4438 d2bc b842 2dbc 7b48 303d
00000020: a7c0 25bd a730 44bd 64ca d53b ab17 2e3e
00000030: 18dc bcbd d010 22bc 8fa0 0c3e 037c 2ebb
00000040: 46e5 57bc c49f ef3c a4a4 7cbd d758 9fbd
00000050: 4e55 3e3e f867 97bd 8add 10bd ba30 513b
00000060: 023e 08be 2077 2abc 5e45 303d 6f26 cdbc
00000070: d3a2 88be f9dc ca3c 8a4c 99bd 8589 b83b
00000080: 2a50 973d f010 1a3d 73de 90bd 8332 b7bd
00000090: a30a 5e3d 1fcd f2bb 412f 503d b239 7c3c
000000a0: e86c 023e 333a 2d3e 2b43 933d e234 51bc
000000b0: 4306 93bd 26da 63bd fa09 38be d04e 4b3d
000000c0: 4efd 303e d314 2e3d 9b94 0e3e 1673 8dbb
000000d0: ba11 26bd 3a12 b93d b5bc 61bc d764 a7bc
000000e0: 1016 fcbc 7285 c2bc 28e6 b63c 659d 9bbc
000000f0: 310e 8cbb 8bd6 6fbd a992 1f3d 3bc8 d5bd
00000100: a712 00be 4bf0 c53d 20b8 c2bd 854c 6f3d
00000110: 5a28 a5bd f091 b9bc e520 4dbd 6b54 53bd
00000120: 2562 c93c 1f01 31be e75d 9d3c 29d8 893d
00000130: c83b 1b3e 1f77 44bd e67c db3d 7a29 ee3d
00000140: 9093 a2bd 5064 873d 6a3a 553d 388a 86bd
00000150: 89b9 70bd faae e8bd 2c60 be3d 2123 923d
00000160: eefa 7c3c 1413 24bd 461a 8dbd 4dbe ee3b
00000170: aa55 cfbc 3445 7abb 7eae 8dbd fb8c cb3d
00000180: 2b48 5ebd 4c1c 6c3d 86b0 0bbd bbfb d53c
00000190: 9059 2abb eeeb eb3c 7cb5 0a3c ca3a ad3d
000001a0: 8e1a a6bd 0186 d43d 7bfd 13bd 9d89 0a3e
000001b0: 80a4 a6bd 3549 883c 8aa1 033e 0e47 693d
000001c0: 46c0 593d 61a7 153e 375e ba3d cad8 e0bd
000001d0: 7d79 4f3e f421 b03b 675d 61bd 7d1f 443d
000001e0: 26f6 6e3c f6ff 56be ef0f 6bbe e125 383d
000001f0: a69f 143e 82d6 1e3c c387 66bd 0789 8a3b
00000200: 62b5 293b 043e 20be 007c 2ebd 7487 2a3d
00000210: c0a9 ccbd 19e2 dcbb ce5a 9d3d f5b0 973c
00000220: 1eed 8f3d 7053 1ebe 92f9 f53b 3fe7 7e3d
00000230: 09a7 21be 172d bcbc 9f1a 22bd d020 d8bc
00000240: e719 b73d f8c8 37bd cbfc 52bd 2132 f3bb
00000250: 4f3c d5bc b519 bfba 4ada 4ebe 0444 9c3d
00000260: 9382 f4bc 4ad4 623d bcd4 083e a525 c93c
00000270: e476 423e 0c25 923d 839a 84bd 9e65 2ebe
00000280: 102e 5ebd 9ca0 a4bd 30b6 333b 501f f73d
00000290: 2237 c13d 03a5 cf3b 5c8c 573c 92bd 19be
000002a0: b8f6 4c3e 879e 963d 1010 3b3d 6090 81bd
000002b0: 2bdf 35bd 3f7c 223e 7f03 09be c47c 543e
000002c0: ffa5 903d c5cc e0bd 2132 09bd 4ba1 3fbd
000002d0: 14c0 a73d 33f3 93bc 35de 55bc 56da c83d
000002e0: 5d15 9e3d 27cb cf3c 3f98 2abd 6754 973b
000002f0: b618 a63d c24f 2dbe 620c 8fbc a734 f53c
00000300: c193 003e 8165 4e3c fc8f 47be 0700 dc3d
00000310: 9199 11be 9fe0 6fbb d8e1 903c a090 39bc
00000320: db18 9e3d c2ec 0fbd f0dd d93d 804a eb3d
00000330: debf e6bd cf91 fdbd 9cf4 15bd a728 92be
00000340: 8ced b3bc d35a 6c3c 7595 30bd 5b71 8d3d
00000350: 3327 403d bdb2 f33c a82e 0d3e d2a9 7b3d
00000360: 57c6 ca3d 8db0 243d b2d1 26bd ecc2 853d
00000370: d3a2 393e c612 50bd 439c dab9 598e 57bb
00000380: d425 21be 7cf3 62bd 2407 2ebe 890e 87bd
00000390: 59e6 f93d d56f 773d cc40 11bb 414f f9bd
000003a0: 6c33 0fbe c712 a23d 0d93 01bd 7959 d53d
000003b0: 0418 49bd bf5d 43bd c4c7 5abd 9d85 4c3d
000003c0: 1c7c bd3d c9e2 bdbd 38b1 f13c 0242 3c3e
000003d0: ea92 f1bd 44c8 033d 53a1 0ebd 1546 d4bc
000003e0: a6cb c23c b87b 003c 2108 8ebb 3dc0 2cbd
000003f0: 2136 f83d 6eb6 52bd 285a e63c d5cb b63c

network_body._body_endoder.seq_layers.2.bias f4 [128]
0.047163155 0.0287551 -0.002126954 0.001480963 -0.010086166 0.05515648 0.004629678 0.051445715
0.060990747 0.037251648 -0.025710838 -0.02627837 -0.004083792 -0.050247848 -0.010262178 0.0512509
0.020128075 0.03670434 0.022204531 0.047681704 0.06443544 0.04789913 0.034863617 0.036414992
0.013170686 0.021998152 -0.038308036 0.0042413105 0.036295045 0.041598573 0.049244087 0.067194425
0.06600934 0.01981497 -0.029152216 0.0031827332 0.018763786 0.03285169 -0.030338066 0.048759654
0.0173466 -0.032346554 -0.035079617 0.02386776 0.03424378 -0.020769998 0.024734482 -0.02075027
0.05942594 0.004868758 0.0416011 0.038949624 0.035155773 0.047934603 0.009824903 -0.014604774
0.016283607 0.030299721 0.027318833 0.037573896 -0.01588397 -0.024028245 0.004603047 0.023957934
0.04409639 -0.05243746 -0.00510186 0.0628707 0.012014282 0.022376465 -0.0023973293 0.013994268
-0.020509975 0.035707995 0.05418702 0.0270456 0.018331705 -0.03196039 0.017415384 0.057346098
-0.023525607 0.034366477 0.007758461 0.04131288 0.06226594 0.00012982693 -0.0055566747 -0.0458873
-0.017629959 0.015114902 0.025265183 -0.015183637 0.015268362 -0.023044925 -0.022509301 0.05251375
0.012276842 -0.019701784 0.05596121 0.044405404 0.00039568022 0.00019934557 0.006356147 0.002698392
-0.03282607 0.0077442196 0.03458231 0.041158553 0.054215662 0.059445657 -0.0074644065 0.044380795
-0.0041480456 0.03523646 0.028215349 0.011452686 0.019628506 -0.01710531 0.015119576 -0.0056437803
0.007957617 0.008988877 -0.010787343 0.014365257 0.016597625 0.04444441 -0.0029007576 0.038369443
00000000: 272e 413d d18f eb3c 5e64 0bbb df1c c23a
00000010: 7240 25bc c3eb 613d 8eb4 973b beb8 523d
00000020: 6fd1 793d 2f95 183d 899f d2bc bc45 d7bc
00000030: 55d1 85bb b0d0 4dbd b222 28bc 77ec 513d
00000040: a2e3 a43c 4a57 163d 47e6 b53c e44d 433d
00000050: baf6 833d e131 443d 27cd 0e3d e327 153d
00000060: dcc9 573c 7835 b43c e3e8 1cbd b1fa 8a3b
00000070: 1daa 143d 4463 2a3d 2bb4 493d 3b9d 893d
00000080: e82f 873d 0153 a23c a1d0 eebc 6795 503b
00000090: 83b6 993c 7e8f 063d 8987 f8bc 34b8 473d
000000a0: 751a 8e3c d27d 04bd a5af 0fbd 5286 c33c
000000b0: 3543 0c3d d825 aabc f89f ca3c 78fc a9bc
000000c0: 9d68 733d 1a8a 9f3b ea65 2a3d a489 1f3d
000000d0: 80ff 0f3d 1357 443d a1f8 203c dd48 6fbc
000000e0: 3365 853c 1f37 f83c bfcb df3c 16e7 193d
000000f0: 191f 82bc e2d6 c4bc 28d5 963b 6e43 c43c
00000100: 6b9e 343d a9c8 56bd 812d a7bb 5bc2 803d
00000110: 8dd7 443c d94e b73c 831c 1dbb 3748 653c
00000120: 8904 a8bc 8c42 123d 35f3 5d3d bc8e dd3c
00000130: 5f2c 963c e6e8 02bd b5aa 8e3c bee3 6a3d
00000140: c6b8 c0bc ddc3 0c3d b03a fe3b b237 293d
00000150: 920a 7f3d 2722 0839 c414 b6bb 52f4 3bbd
00000160: b46c 90bc 7ea4 773c eef8 ce3c cac4 78bc
00000170: 2728 7a3c b6c8 bcbc 6d65 b8bc a818 573d
00000180: cf24 493c a365 a1bc 9537 653d 71e2 353d
00000190: 4d73 cf39 6b07 5139 3a47 d03b 81d7 303b
000001a0: a174 06bd 39c3 fd3b 2ea6 0d3d df95 283d
000001b0: 3e11 5e3d 4a7d 733d fb97 f4bb a3c8 353d
000001c0: 54ec 87bb 1b54 103d e023 e73c 0ca4 3b3c
000001d0: f6cb a03c 6f20 8cbc 19b8 773c 76ef b8bb
000001e0: aa60 023c 1546 133c 65bd 30bc 415c 6b3c
000001f0: bef7 873c 570b 363d a31a 3ebb 4729 1d3d

action_model._continuous_distribution.log_sigma f4 [1, 2]
0.015893409 0.017168967
00000000: e532 823c efa5 8c3c

action_model._continuous_distribution.mu.weight f4 [2, 128]
-0.022126507 -0.070626244 0.0024472412 0.035849255 -0.012231343 0.00448036 0.03896063 -0.032645267
-0.058724664 0.083331145 0.029725986 -0.009832316 0.035138585 0.028209593 0.021533338 0.07289736
-0.017792482 0.0053736786 -0.02478051 -0.035858553 -0.030949136 -0.06359162 -0.041983023 0.098813236
-0.04832036 -0.053520788 0.03570333 -0.027569093 0.058824293 -0.023473985 -0.031688962 -0.0640103
-0.0227645 -0.015436595 0.025948616 -0.01161469 0.04207808 -0.011152224 -0.0025803975 -0.043259505
0.08342005 0.056302775 0.025004955 -0.031131595 -0.019052258 0.004337395 0.031741608 -0.0015969797
0.01683323 0.051200867 -0.021662148 0.03796093 -0.032471705 -0.022085242 -0.030598221 -0.0075924746
0.06961038 -0.043326825 -0.038241856 -0.028605994 0.035965107 0.0035083527 0.067435 -0.030102093
-0.02263931 -0.013155277 0.036028236 0.029539455 0.0025283843 0.04494463 0.013606987 -0.013776362
0.043430068 0.010292022 -0.054913558 -0.006313265 -0.026037218 0.043072466 -0.028232895 0.07325501
0.034072537 0.0264324 0.07795285 0.024667004 0.004166781 -0.032425154 -0.015502813 0.008818123
0.03570542 0.014694365 0.024066735 0.028491983 -0.053258665 0.038711544 0.064523935 -0.06440078
0.04693198 0.0024429595 0.08201736 -0.037902817 -0.03306491 -0.02348903 0.060495026 -0.01776955
0.02488104 0.056256834 0.016859708 -0.027706262 -0.029045839 0.008709443 0.026620667 0.029475555
0.017413195 -0.04356721 -0.020716539 -0.018703118 0.053939667 0.054033022 -0.029415287 0.023975661
-0.022604465 -0.026017413 0.02478691 0.061926894 -0.022748651 -0.024997447 0.052310966 -0.06497934
-0.019930234 0.030964328 0.03394144 0.029025909 0.053188726 -0.06011354 0.010786765 -0.023650842
-0.0021503062 0.0018116416 -0.0028350616 0.029464994 -0.015238907 0.03270372 0.0010859726 -0.00885899
0.0076100198 -0.026504623 0.011764648 -0.0009248537 -0.055855446 0.006854568 -0.014570766 0.008773769
0.045035616 0.030969044 0.036686763 0.052287634 -0.03078958 0.012858441 -0.02175474 -0.017599847
0.008057814 0.0065606125 0.023251217 0.034785826 -0.011747607 -0.019996181 0.028599793 -0.0019963912
-0.015855098 0.008178316 0.025822982 0.021657526 0.022193167 0.014137123 -0.022760902 0.013313041
-0.038958516 0.0018990018 -0.005343703 -0.06330554 0.012956741 -0.01783987 0.033605315 0.03857938
0.023381071 0.020161776 0.01636821 -0.013532616 0.028976453 0.024309458 0.021682627 0.022794284
0.0022963611 0.013505318 -0.015976585 -0.057799134 -0.012333366 -0.020236606 -0.026981995 0.01042389
-0.003209997 -0.019920835 -0.010665458 0.037009668 0.022490274 0.021956975 0.033469923 -0.0041660285
0.033557456 -0.04748586 0.026944485 -0.03459367 -0.050026387 0.05525706 0.01721737 0.014708396
-0.008316955 -0.03382468 -0.0050906204 -0.009705415 0.051728573 -0.008489101 0.0018843956 -0.00653478
-0.037287954 0.064637095 -0.040123317 -0.009954961 0.056898795 0.027325295 0.006947461 0.033408646
0.012976018 0.019080825 -0.0287365 0.003812637 0.008575602 -0.06638638 0.008942263 -0.04885732
-0.028315676 0.013795697 -0.048296444 0.040446565 0.011938004 0.023904912 0.01423967 -0.0026663586
0.048463535 0.048521888 -0.02469247 -0.0027451743 0.009571979 -0.0035554036 0.015807182 0.00017115606
00000000: a642 b5bc 7ea4 90bd e561 203b abd6 123d
00000010: f965 48bc fccf 923b 2e95 1f3d 0bb7 05bd
00000020: 4689 70bd 85a9 aa3d e983 f33c b917 21bc
00000030: 7aed 0f3d ce17 e73c af66 b03c 364b 953d
00000040: 8ac1 91bc af15 b03b 7f00 cbbc 6be0 12bd
00000050: 0b89 fdbc 533c 82bd 64f6 2bbd 985e ca3d
00000060: 92eb 45bd 9d38 5bbd a83d 123d 94d8 e1bc
00000070: bef1 703d 844c c0bc 49cc 01bd d517 83bd
00000080: 9e7c babc c6e9 7cbc 3192 d43c 8a4b 3ebc
00000090: 115a 2c3d d1b7 36bc e31b 29bb e130 31bd
000000a0: 22d8 aa3d bd9d 663d 31d7 cc3c b007 ffbc
000000b0: 7b13 9cbc b520 8e3b 7d03 023d bf51 d1ba
000000c0: d8e5 893c 00b8 513d d174 b1bc ec7c 1b3d
000000d0: 0d01 05bd 1cec b4bc 1fa9 fabc 4bca f8bb
000000e0: e38f 8e3d 7877 31bd 7ea3 1cbd 1e57 eabc
000000f0: 2650 133d 64ec 653b 5c1b 8a3d aa98 f6bc
00000100: 1376 b9bc 3b89 57bc 5892 133d bafc f13c
00000110: 40b3 253b dc17 383d d7ef 5e3c 40b6 61bc
00000120: bae3 313d de9f 283c 0aed 60bd 81df cebb
00000130: 014c d5bc c16c 303d ac48 e7bc b906 963d
00000140: a58f 0b3d c388 d83c bea5 9f3d 7512 ca3c
00000150: 7e89 883b 3dd0 04bd 83ff 7dbc e379 103c
00000160: d93f 123d a2c0 703c 9a27 c53c 0568 e93c
00000170: c225 5abd ff8f 1e3d 2025 843d 8ee4 83bd
00000180: bf3b 403d 0f1a 203b b8f8 a73d fc3f 1bbd
00000190: 126f 07bd 116c c0bc a2c9 773d 7391 91bc
000001a0: 53d3 cb3c 916d 663d 5f1d 8a3c 3ef8 e2bc
000001b0: 8af1 edbc 0db2 0e3c 9613 da3c b876 f13c
000001c0: 1ea6 8e3c 8873 32bd bbb5 a9bc 4837 99bc
000001d0: d7ef 5c3d bb51 5d3d 54f8 f0bc 9b68 c43c
000001e0: 002d b9bc 7822 d5bc eb0d cb3c 0ea7 7d3d
000001f0: 615b babc 72c7 ccbc 0644 563d e313 85bd
00000200: bb44 a3bc e7a8 fd3c 2e06 0b3d bec7 ed3c
00000210: 6cdc 593d 9e39 76bd f9ba 303c 69bf c1bc
00000220: 27ec 0cbb 9b74 ed3a 71cc 39bb 9260 f13c
00000230: 9cac 79bc 56f4 053d 3257 8e3a 4c25 11bc
00000240: 795d f93b 3920 d9bc 83c0 403c e271 72ba
00000250: aec8 64bd 499c e03b 39ba 6ebc dbbf 0f3c
00000260: 4477 383d cbb2 fd3c dc44 163d 8f2b 563d
00000270: 6e3a fcbc 36ac 523c ff36 b2bc 8e2d 90bc
00000280: ec04 043c 68fa d63b 5679 be3c 957b 0e3d
00000290: 0979 40bc 08cf a3bc 1d4a ea3c e3d5 02bb
000002a0: 8de2 81bc 58fe 053c b88a d33c 206b b13c
000002b0: 72ce b53c 649f 673c 1275 babc f11e 5a3c
000002c0: f792 1fbd ede7 f83a 3b1a afbb 56a6 81bd
000002d0: 8348 543c eb24 92bc baa5 093d 6905 1e3d
000002e0: a989 bf3c 4f2a a53c a016 863c e8b7 5dbc
000002f0: 0760 ed3c a124 c73c c49f b13c 14bb ba3c
00000300: 8c7e 163b 6945 5d3c 54e1 82bc c9be 6cbd
00000310: e311 4abc 3dc7 a5bc 5809 ddbc f7c8 2a3c
00000320: d05e 52bb 0531 a3bc 2cbe 2ebc 7397 173d
00000330: 863d b83c 1ddf b33c c217 093d 2e83 88bb
00000340: 8b73 093d 8880 42bd aeba dc3c 18b2 0dbd
00000350: 78e8 4cbd 3a55 623d 710b 8d3c 7cfb 703c
00000360: d643 08bc bf8b 0abd 38cf a6bb 7603 1fbc
00000370: 57e1 533d df15 0bbc d3fd f63a b521 d6bb
00000380: 41bb 18bd 7460 843d 5958 24bd 221a 23bc
00000390: b60e 693d 4cd9 df3c 87a7 e33b 81d7 083d
000003a0: 5d99 543c 644f 9c3c cf68 ebbc 6fdd 793b
000003b0: af80 0c3c 95f5 87bd 9282 123c 9d1e 48bd
000003c0: 47f6 e7bc 5907 623c 7ed2 45bd 4cab 253d
000003d0: 9e97 433c 3cd4 c33c 814d 693c 13be 2ebb
000003e0: b381 463d e3be 463d dd47 cabc 62e8 33bb
000003f0: cad3 1c3c c601 69bb 107e 813c 5b78 3339

action_model._continuous_distribution.mu.bias f4 [2]
-0.024718981 -0.033771213
00000000: 767f cabc af53 0abd

action_model._discrete_distribution.branches.0.weight f4 [1, 128]
0.009983557 0.015632035 0.013494928 -0.0073802248 -0.0069235647 -0.006593087 -0.007305946 -0.012862009
0.01457191 -0.009600542 0.0021734782 0.006381073 0.008220375 0.0196348 -0.00960394 -0.014846933
0.013968864 -0.020113422 -0.0027480815 -0.023195837 0.012837171 -0.022582144 -0.014483109 0.012038334
-0.00872116 0.009055369 0.0018918673 -0.023729153 -0.014539701 0.014323882 0.0029298787 0.014230541
-0.0035286646 -0.0025108145 0.0048082764 0.013857821 -0.00097597763 0.00017821544 -0.009306386 -0.009896307
-0.0048336494 0.008744124 -0.009653402 -0.003466724 0.012927661 0.0012390687 0.0007779564 0.001202328
0.0025312535 0.021014271 0.005487965 0.0050084684 -0.002934019 -0.0051618568 -0.0089765405 -0.0038324248
0.0044551287 0.005434619 -0.001187172 -0.0071718963 0.0022866311 0.012053836 -0.005871195 0.010415507
-0.0066057346 -0.0032818974 0.007968268 -0.001613937 0.00854662 0.014703045 -0.0027398174 -0.010450468
-0.010101719 0.0048801573 0.0011258138 -0.0067310124 -0.0091381045 0.0018746129 0.0062295194 -0.000869936
0.0062254886 -0.0049707047 -0.0023017023 0.003548883 0.009484461 -0.0046580867 -0.0018119399 0.008441641
0.0042324956 0.006435142 0.0026228046 -0.0057220208 -0.001364869 -0.010738451 -0.0105786715 -0.0022626752
-0.007308957 -0.004681415 -0.013234364 0.003976323 -0.009031722 0.003366565 -0.010216858 -0.011243327
0.0064106486 -0.007666234 0.00084360543 0.00419721 0.008224531 -0.0045256624 0.0018102983 -0.007973654
0.009061354 -0.006989956 0.00075228524 0.0027653011 0.0022131675 0.011151242 0.0030846254 -0.0041169296
-0.00018646684 -0.0015560229 -0.012249592 -0.005482068 -0.0016364119 -0.0011701795 -0.0074410895 -0.010695968
00000000: 1392 233c c10e 803c d519 5d3c d0d5 f1bb
00000010: 12df e2bb d30a d8bb b866 efbb 2dbb 52bc
00000020: 05bf 6e3c 974b 1dbc ea70 0e3b 5218 d13b
00000030: c0ae 063c 29d9 a03c d859 1dbc 8d40 73bc
00000040: aadd 643c e7c4 a4bc 2819 34bb 3205 bebc
00000050: ff52 523c 30fe b8bc 904a 6dbc 6f3c 453c
00000060: 32e3 0ebc f85c 143c 88f8 f73a a463 c2bc
00000070: ed37 6ebc b7ae 6a3c 3503 403b 3727 693c
00000080: 2b41 67bb 7a8c 24bb bf8e 9d3b ea0b 633c
00000090: c0d8 7fba 58df 3a39 d079 18bc 1f24 22bc
000000a0: 9763 9ebb 8443 0f3c 4d29 1ebc fa31 63bb
000000b0: 8ace 533c 3f68 a23a c5ef 4b3a 6f97 9d3a
000000c0: 63e3 253b 1f26 ac3c 63d4 b33b 141e a43b
000000d0: ac48 40bb cb24 a9bb 5712 13bc 6b29 7bbb
000000e0: 54fc 913b e314 b23b e29a 9bba 3a02 ebbb
000000f0: 4edb 153b 747d 453c 2763 c0bb cda5 2a3c
00000100: eb74 d8bb 1a15 57bb 578d 023c bd8a d3ba
00000110: 1f07 0c3c 0ae5 703c 828e 33bb 7138 2bbc
00000120: ae81 25bc bae9 9f3b 0b90 933a d38f dcbb
00000130: fdb7 15bc 92b5 f53a ff20 cc3b 6b0c 64ba
00000140: 2fff cb3b 4be1 a2bb 28d8 16bb 6094 683b
00000150: b664 1b3c dda2 98bb 9d7e edba cf4e 0a3c
00000160: bfb0 8a3b e2dd d23b 5ce3 2b3b ca7f bbbb
00000170: 67e5 b2ba 54f0 2fbc 2a52 2dbc 6449 14bb
00000180: fa7f efbb 8e66 99bb f2d4 58bc d14b 823b
00000190: caf9 13bc 97a1 5c3b 9c64 27bc ee35 38bc
000001a0: 6b10 d23b 0835 fbbb 6725 5d3a c088 893b
000001b0: 2fc0 063c 024c 94bb 8847 ed3a eea3 02bc
000001c0: 1376 143c 000c e5bb 0235 453a 0e3a 353b
000001d0: ca0a 113b b3b3 363c 6d27 4a3b 4fe7 86bb
000001e0: 5086 43b9 77f3 cbba 83b2 48bc eba2 b3bb
000001f0: df7c d6ba b560 99ba 62d4 f3bb 243e 2fbc

exp_avg f4 [128, 12]
9.2482995e-05 0.00011320575 -1.2827859e-05 -4.0833736e-05 -0.00062938174 -0.0006288813 -0.0006288813 -3.3498272e-05
0.0 -5.246325e-07 -4.9050606e-05 -0.00012913634 0.00013533534 0.00028233408 -1.5166546e-05 -4.8502654e-05
-0.00059583096 -0.00059532037 -0.00059532037 -3.978939e-05 0.0 -6.2315746e-07 -4.308809e-05 -6.985227e-05
4.758513e-05 2.958148e-05 -1.0097164e-06 6.3734396e-06 -4.271271e-06 -4.292291e-06 -4.292291e-06 5.228555e-06
0.0 8.188892e-08 -1.0996018e-05 -7.146524e-05 0.00010188988 0.00020113983 -3.4017917e-06 2.9347193e-06
-1.2189223e-05 -1.2193181e-05 -1.2193181e-05 2.4076762e-06 0.0 3.771261e-08 2.0798965e-05 4.191256e-05
-1.902366e-05 -5.5219374e-05 4.5015872e-07 4.5020897e-08 -3.3875673e-05 -3.3857134e-05 -3.3857134e-05 3.6818165e-08
0.0 5.7285376e-10 -8.719585e-06 -2.6085556e-05 6.4527608e-06 2.0660558e-05 3.475497e-07 -5.063787e-06
2.9742278e-05 2.974453e-05 2.974453e-05 -4.1540247e-06 0.0 -6.5054884e-08 -3.4548877e-06 1.9016376e-05
-7.191018e-06 -3.004239e-06 9.7767916e-08 -3.6512954e-06 2.0357296e-05 2.0359523e-05 2.0359523e-05 -2.9953485e-06
0.0 -4.691087e-08 -2.962404e-06 -9.786118e-06 -0.00018421143 -0.00024174432 -4.942319e-07 -3.8069433e-05
-0.00015425832 -0.00015403226 -0.00015403226 -3.1231026e-05 0.0 -4.891402e-07 -3.224873e-05 -9.372723e-06
-0.00010470633 -0.00020104591 3.3330411e-07 -2.3560701e-06 -0.00012823317 -0.00012815357 -0.00012815357 -1.9330605e-06
0.0 -3.028235e-08 -1.5867106e-05 -8.3635365e-05 -3.380692e-05 -4.4076323e-06 -2.0640312e-07 -6.493051e-06
2.2671687e-05 2.2683103e-05 2.2683103e-05 -5.326424e-06 0.0 -8.341347e-08 -5.861999e-06 5.8097055e-05
-4.0653067e-05 -9.196119e-06 2.4939163e-06 -8.4654675e-06 0.0001670512 0.00016698983 0.00016698983 -6.944829e-06
0.0 -1.08770124e-07 -8.643381e-06 -1.1218913e-05 -4.1379197e-05 -6.6718836e-05 -1.0198067e-06 -7.2302996e-06
-0.000105648694 -0.00010556338 -0.00010556338 -5.9315e-06 0.0 -9.2898375e-08 -2.831755e-05 -7.4231895e-05
-0.00028673105 -0.00051536015 7.4577383e-06 -5.6876997e-06 -3.754662e-05 -3.75057e-05 -3.75057e-05 -4.6665464e-06
0.0 -7.310442e-08 -1.2782286e-05 -1.4654266e-05 -1.8279312e-05 -2.8801558e-05 2.9037835e-08 -5.3784925e-06
1.18473e-05 1.1860644e-05 1.1860644e-05 -4.412415e-06 0.0 -6.910924e-08 -2.7759277e-06 8.894626e-06
-3.944676e-05 -0.0001127505 -1.8736002e-06 -1.1093758e-05 -0.00021914253 -0.00021898007 -0.00021898007 -9.100992e-06
0.0 -1.4254027e-07 -7.207318e-06 -2.5541672e-06 -8.567094e-06 -3.4842242e-06 -2.7501952e-07 -6.5649924e-06
1.0346226e-05 1.0364799e-05 1.0364799e-05 -5.385682e-06 0.0 -8.4349296e-08 -5.494984e-06 -3.171137e-06
-2.3118235e-05 -0.00011174791 -6.8889613e-06 -2.4529681e-05 -0.00048350886 -0.00048314995 -0.00048314995 -2.0123236e-05
0.0 -3.151639e-07 -6.329824e-05 -0.00017902933 -3.591681e-05 -4.771843e-05 -1.18019926e-07 -6.9076004e-06
-7.6235115e-06 -7.5937405e-06 -7.5937405e-06 -5.6668164e-06 0.0 -8.875467e-08 -1.4972754e-05 -1.06852485e-05
-2.3288894e-05 -2.7122207e-05 -5.541165e-07 -7.0037404e-06 -4.312326e-05 -4.3073454e-05 -4.3073454e-05 -5.7456873e-06
0.0 -8.9989875e-08 -5.7514026e-06 -3.736545e-06 3.0368488e-05 3.0349678e-05 -2.57195e-06 -3.9366905e-06
-0.00011278654 -0.00011270931 -0.00011270931 -3.2295343e-06 0.0 -5.0580567e-08 -1.2120982e-05 -2.7646938e-05
0.000133333 0.00023462923 -1.3721212e-05 -4.198948e-05 -0.00055377267 -0.00055330957 -0.00055330957 -3.4446333e-05
0.0 -5.3947906e-07 -5.4402866e-05 -0.0001304277 -0.00015993131 -0.00025941597 3.2657613e-06 -7.0037936e-06
00000000: 6ef3 c138 e068 ed38 3c37 57b7 e444 2bb8
00000010: 18fd 24ba 82db 24ba 82db 24ba 7f80 0cb8
00000020: 0000 0000 79d4 0cb5 b0bb 4db8 c668 07b9
00000030: cee8 0d39 3d06 9439 d273 7eb7 546f 4bb8
00000040: 8a31 1cba 460f 1cba 460f 1cba 88e3 26b8
00000050: 0000 0000 0e47 27b5 7cb9 34b8 a77d 92b8
00000060: 2596 4738 bf25 f837 9785 87b5 6edb d536
00000070: f051 8fb6 8006 90b6 8006 90b6 f270 af36
00000080: 0000 0000 e9da af33 8a7b 38b7 9cdf 95b8
00000090: b6ad d538 10e9 5239 564a 64b6 18f2 4436
000000a0: 5080 4cb7 5091 4cb7 5091 4cb7 9093 2136
000000b0: 0000 0000 74f9 2133 7079 ae37 45cb 2f38
000000c0: 0095 9fb7 5a9b 67b8 58ad f134 005d 4133
000000d0: ba15 0eb8 d201 0eb8 d201 0eb8 0022 1e33
000000e0: 0000 0000 0077 1d30 554a 12b7 4ed2 dab7
000000f0: cb84 d836 3650 ad37 de96 ba34 99e9 a9b6
00000100: 0e7f f937 e483 f937 e483 f937 cd62 8bb6
00000110: 0000 0000 4db4 8bb3 85da 67b6 5b85 9f37
00000120: 604a f1b6 6f9c 49b6 7bf4 d133 c708 75b6
00000130: f6c4 aa37 bec9 aa37 bec9 aa37 b203 49b6
00000140: 0000 0000 0c7b 49b3 b7cd 46b6 0f2f 24b7
00000150: e128 41b9 bf7c 7db9 5cab 04b5 beac 1fb8
00000160: 67c0 21b9 b883 21b9 b883 21b9 0ffe 02b8
00000170: 0000 0000 754d 03b5 cf42 07b8 8a3f 1db7
00000180: c895 dbb8 dacf 52b9 f8f0 b234 fa1c 1eb6
00000190: 5476 06b9 f660 06b9 f660 06b9 bab9 01b6
000001a0: 0000 0000 cc0f 02b3 5a1a 85b7 6565 afb8
000001b0: e7cb 0db8 46e5 93b6 a89f 5db4 e2de d9b6
000001c0: 142f be37 9847 be37 9847 be37 a2b9 b2b6
000001d0: 0000 0000 0a21 b3b3 30b2 c4b6 3dad 7338
000001e0: e682 2ab8 0849 1ab7 285d 2736 e806 0eb7
000001f0: 772a 2f39 fe19 2f39 fe19 2f39 a007 e9b6
00000200: 0000 0000 0295 e9b3 0a03 11b7 dd38 3cb7
00000210: 938e 2db8 67eb 8bb8 4be0 88b5 cd9b f2b6
00000220: b68f ddb8 e861 ddb8 e861 ddb8 3207 c7b6
00000230: 0000 0000 6c7f c7b3 7a8b edb7 f2ac 9bb8
00000240: 6454 96b9 3c19 07ba 7c3d fa36 f8d8 beb6
00000250: 607b 1db8 704f 1db8 704f 1db8 5495 9cb6
00000260: 0000 0000 94fd 9cb3 8073 56b7 98db 75b7
00000270: 8656 99b7 e09a f1b7 e06e f932 e678 b4b6
00000280: c4c3 4637 14fd 4637 14fd 4637 5b0e 94b6
00000290: 0000 0000 3569 94b3 134a 3ab6 213a 1537
000002a0: a373 25b8 7774 ecb8 6a78 fbb5 541f 3ab7
000002b0: a0c9 65b9 049e 65b9 049e 65b9 77b0 18b7
000002c0: 0000 0000 2c0d 19b4 64d6 f1b6 4268 2bb6
000002d0: 63bb 0fb7 84d2 69b6 65a6 93b4 db48 dcb6
000002e0: b494 2d37 79e4 2d37 79e4 2d37 a8b6 b4b6
000002f0: 0000 0000 8423 b5b3 8e61 b8b6 b8cf 54b6
00000300: 08ee c1b7 345a eab8 ba27 e7b6 17c5 cdb7
00000310: 767f fdb9 4a4f fdb9 4a4f fdb9 52ce a8b7
00000320: 0000 0000 cc33 a9b4 fcbe 84b8 d2b9 3bb9
00000330: 62a5 16b8 4625 48b8 2472 fdb3 d6c7 e7b6
00000340: 77cd ffb6 bccd feb6 bccd feb6 9525 beb6
00000350: 0000 0000 6599 beb3 7d33 7bb7 cb44 33b7
00000360: 855c c3b7 7f84 e3b7 99be 14b5 ac01 ebb6
00000370: 3fdf 34b8 c5a9 34b8 c5a9 34b8 14cb c0b6
00000380: 0000 0000 7540 c1b3 2cfc c0b6 5bc1 7ab6
00000390: d5bf fe37 7097 fe37 c499 2cb6 ea17 84b6
000003a0: d087 ecb8 5a5e ecb8 5a5e ecb8 faba 58b6
000003b0: 0000 0000 ec3d 59b3 395b 4bb7 59eb e7b7
000003c0: 4ecf 0b39 ce06 7639 2834 66b7 dc1d 30b8
000003d0: 0e2b 11ba fa0b 11ba fa0b 11ba 787a 10b8
000003e0: 0000 0000 b8d0 10b5 a22e 64b8 6bc3 08b9
000003f0: 3cb3 27b9 3902 88b9 5a29 5b36 2102 ebb6

exp_avg_sq f4 [128, 12]
4.6843198e-07 6.2378814e-07 5.111339e-10 8.06243e-08 7.3201777e-06 7.3023043e-06 7.3023043e-06 4.467989e-08
0.0 1.1455034e-11 1.1930287e-07 1.10382715e-07 4.1697442e-07 5.303363e-07 5.4361804e-10 1.0663014e-07
6.8588397e-06 6.842323e-06 6.842323e-06 4.3035826e-08 0.0 2.0977343e-11 2.5231395e-07 3.1065278e-07
6.6046226e-08 8.703977e-08 5.6638933e-11 1.2800859e-08 9.214214e-07 9.191244e-07 9.191244e-07 1.6630949e-08
0.0 9.371297e-12 6.431203e-08 6.215426e-08 1.5681816e-07 2.4011177e-07 1.1903523e-10 2.8164232e-08
1.683255e-06 1.6782083e-06 1.6782083e-06 1.9234129e-08 0.0 4.605208e-12 1.7286094e-07 2.061499e-07
3.504655e-08 4.3275136e-08 2.420925e-11 1.0998509e-08 3.6292695e-07 3.615723e-07 3.615723e-07 1.7221883e-08
0.0 1.4798504e-12 6.1209185e-08 5.1474203e-08 1.1849629e-08 1.1383115e-08 1.7218095e-12 1.0201934e-08
3.076518e-08 3.075122e-08 3.075122e-08 2.9306448e-09 0.0 1.1961061e-12 4.4276128e-08 5.999385e-08
9.514873e-08 1.484762e-07 2.028866e-12 1.4433266e-07 2.9016928e-08 2.9215876e-08 2.9215876e-08 1.8076834e-08
0.0 4.1452987e-12 1.8023632e-08 2.2763367e-09 7.425462e-07 1.2974891e-06 2.9030785e-11 1.989949e-07
6.092034e-07 6.093286e-07 6.093286e-07 3.2514677e-08 0.0 1.0828386e-11 3.6643478e-08 3.8797565e-09
4.050141e-07 8.1839113e-07 4.166682e-11 6.411852e-07 6.4414405e-07 6.4325724e-07 6.4325724e-07 4.3572054e-08
0.0 5.1964414e-12 6.8171715e-08 6.05758e-08 5.4290858e-08 3.4455223e-08 3.545366e-11 1.7673349e-08
5.023365e-07 5.0139437e-07 5.0139437e-07 1.1091461e-08 0.0 2.8690704e-12 1.21807995e-08 1.0997132e-08
2.0574623e-07 3.4749354e-07 5.2962353e-11 1.802377e-08 8.842837e-07 8.8412327e-07 8.8412327e-07 1.5031155e-08
0.0 8.4012025e-12 2.4574279e-08 8.79476e-10 7.8412484e-08 1.5547089e-07 1.01793044e-11 4.5853394e-08
1.595439e-07 1.5952118e-07 1.5952118e-07 6.570737e-09 0.0 1.3328373e-12 1.0379009e-07 1.5512627e-07
8.182113e-07 1.4498056e-06 3.7450293e-10 3.229687e-07 5.4137695e-06 5.3995595e-06 5.3995595e-06 7.7615105e-08
0.0 1.2922805e-11 2.0534128e-07 8.04497e-08 6.19008e-08 1.3335946e-07 5.7602126e-12 3.7625433e-08
1.0091369e-07 1.0000388e-07 1.0000388e-07 2.4891932e-08 0.0 3.5783355e-12 3.0755505e-08 1.0972481e-08
1.7212056e-07 2.8733504e-07 9.09e-11 6.445386e-08 1.4536402e-06 1.450115e-06 1.450115e-06 1.3080714e-08
0.0 3.8667316e-12 1.7975832e-08 1.7043272e-09 5.7003998e-08 8.9420254e-08 1.361213e-12 7.3915906e-08
2.5989522e-08 2.6250802e-08 2.6250802e-08 4.662188e-09 0.0 1.3485567e-12 5.358832e-09 2.7378658e-10
4.9716334e-07 6.7575536e-07 4.2553863e-10 2.0560783e-07 6.577795e-06 6.5619133e-06 6.5619133e-06 4.6157385e-08
0.0 1.1764378e-11 3.18347e-07 3.61517e-07 1.1906106e-07 2.1558482e-07 3.7514237e-12 6.2276186e-08
5.7834015e-08 5.861014e-08 5.861014e-08 2.3634993e-08 0.0 2.0435617e-12 1.01456294e-07 7.821403e-08
7.3887556e-08 1.3288386e-07 1.7115421e-12 1.11017805e-07 3.4689062e-08 3.555569e-08 3.555569e-08 1.7239676e-08
0.0 6.2327235e-12 2.0067922e-08 9.875178e-10 7.168087e-08 1.3774695e-07 3.3619735e-11 5.2197812e-08
5.28597e-07 5.274074e-07 5.274074e-07 6.576093e-09 0.0 1.6211878e-12 2.4807497e-08 1.4626461e-08
3.735341e-07 4.942246e-07 4.6093532e-10 5.4026472e-08 6.146158e-06 6.131354e-06 6.131354e-06 3.654961e-08
0.0 8.822476e-12 2.563016e-07 3.3491006e-07 2.9324588e-07 5.049637e-07 6.800907e-11 2.0811049e-07
00000000: cd7c fb34 6572 2735 da7f 0c30 ad23 ad33
00000010: d99f f536 5106 f536 5106 f536 0fe6 3f33
00000020: 0000 0000 e384 492d b919 0034 8a0b ed33
00000030: 87dc df34 6f5c 0e35 b86d 1530 8afc e433
00000040: fc24 e636 1b97 e536 1b97 e536 64d6 3833
00000050: 0000 0000 c784 b82d c475 8734 cbc7 a634
00000060: 4cd5 8d33 9fea ba33 c519 792e c6ea 5b32
00000070: 9957 7735 bfb9 7635 bfb9 7635 d8db 8e32
00000080: 0000 0000 92dc 242d ea1b 8a33 aa79 8533
00000090: d961 2834 b6e8 8034 70e1 022f cded f132
000000a0: 34ec e135 cc3e e135 cc3e e135 4c38 a532
000000b0: 0000 0000 0708 a22c a79b 3934 0e5a 5d34
000000c0: 1786 1633 84dd 3933 62f2 d42d f4f3 3c32
000000d0: 4dd8 c234 1e1e c234 1e1e c234 52ef 9332
000000e0: 0000 0000 3b45 d02b 1b72 8333 7c14 5d33
000000f0: 3893 4b32 788f 4332 ba52 f22b 9544 2f32
00000100: ac22 0433 5313 0433 5313 0433 7364 4931
00000110: 0000 0000 4456 a82b 1e2a 3e33 f8d5 8033
00000120: 9154 cc33 d46c 1f34 cdc4 0e2c dcf9 1a34
00000130: e640 f932 64f6 fa32 64f6 fa32 6147 9b32
00000140: 0000 0000 88d9 912c 63d2 9a32 bd6d 1c31
00000150: 6353 4735 6325 ae35 845b ff2d 4dab 5534
00000160: 2488 2335 be90 2335 be90 2335 44a6 0b33
00000170: 0000 0000 b77e 3e2d ee61 1d33 b34e 8531
00000180: b770 d934 69af 5b35 ab40 372e e91d 2c35
00000190: 3ee9 2c35 4dac 2c35 4dac 2c35 fb23 3b33
000001a0: 0000 0000 62d5 b62c cc65 9233 e615 8233
000001b0: 6e2d 6933 ebfb 1333 46ed 1b2e 1bd0 9732
000001c0: 4dd8 0635 8f97 0635 8f97 0635 c38c 3e32
000001d0: 0000 0000 94e4 492c b943 5132 e6ed 3c32
000001e0: 18eb 5c34 268f ba34 4fee 682e b0d2 9a32
000001f0: 835f 6d35 7d54 6d35 7d54 6d35 dc1d 8132
00000200: 0000 0000 a7cb 132d 6917 d332 9fbf 7130
00000210: b863 a833 83ef 2634 8313 332d 57f0 4433
00000220: 184f 2b34 d948 2b34 d948 2b34 d0c4 e131
00000230: 0000 0000 8694 bb2b 35e3 de33 c990 2634
00000240: 0da3 5b35 f196 c235 9ae2 cd2f 7b64 ad34
00000250: eda7 b536 dd2d b536 dd2d b536 5bad a633
00000260: 0000 0000 2457 632d c87b 5c34 b1c3 ac33
00000270: 53ee 8433 9231 0f34 62ab ca2c 9a99 2133
00000280: e3b5 d833 b7c1 d633 b7c1 d633 f0d1 d532
00000290: 0000 0000 90cd 7b2c 0918 0433 7b81 3c32
000002a0: 24d0 3834 0743 9a34 27e4 c72e e269 8a33
000002b0: b21a c335 92a1 c235 92a1 c235 97b9 6032
000002c0: 0000 0000 6c0c 882c 4669 9a32 af3d ea30
000002d0: 8fd4 7433 4e07 c033 de92 bf2b b3bb 9e33
000002e0: 903f df32 207e e132 207e e132 0a31 a031
000002f0: 0000 0000 e0ca bd2b c920 b831 0984 962f
00000300: ce74 0535 8e65 3535 3df1 e92f 0dc5 5c34
00000310: d4b6 dc36 682e dc36 682e dc36 953e 4633
00000320: 0000 0000 0cf6 4e2d 47e9 aa34 8516 c234
00000330: 83ae ff33 817b 6734 d2fd 832c b2bc 8533
00000340: 2c65 7833 88ba 7b33 88ba 7b33 e605 cb32
00000350: 0000 0000 89cd 0f2c 30e0 d933 9ef6 a733
00000360: 1dac 9e33 d6ae 0e34 cee0 f02b af68 ee33
00000370: 07fd 1433 e5b5 1833 e5b5 1833 7316 9432
00000380: 0000 0000 624b db2c d461 ac32 32b9 8730
00000390: faee 9933 98e7 1334 75dc 132e 1a30 6033
000003a0: e9e4 0d35 2993 0d35 2993 0d35 edf3 e131
000003b0: 0000 0000 7229 e42b 4318 d532 db47 7b32
000003c0: 238a c834 dbaa 0435 e166 fd2f bc0a 6833
000003d0: 183b ce36 eebb cd36 eebb cd36 b9fa 1c33
000003e0: 0000 0000 e634 1b2d d399 8934 b0cd b334
000003f0: 686f 9d34 d78c 0735 b48d 952e fa74 5f34

exp_avg f4 [128]
-0.00022690941 -0.00026945554 3.5457902e-05 1.6411766e-05 1.7237471e-07 -2.8072687e-05 -2.0276704e-05 -0.00021187919
-1.325312e-05 -3.5945814e-05 -4.7119698e-05 -4.022594e-05 -3.2006064e-05 -2.9976032e-05 -6.1753584e-05 -3.6512014e-05
-0.00013639814 -3.8464874e-05 -3.8998118e-05 -2.1903154e-05 -0.00023330233 -3.916191e-05 2.1253145e-05 -7.4033305e-05
3.2102238e-05 -9.7595315e-05 -0.0002943412 7.472874e-06 -5.0589253e-05 4.4601256e-05 -1.4803317e-05 -0.00011560222
9.326941e-06 -4.6307257e-05 -4.585313e-05 -0.00010495291 -3.146694e-05 -6.467492e-05 -6.915543e-05 -0.0001259386
4.3514785e-05 4.655122e-05 -9.1704205e-05 -2.8208284e-05 -2.3701396e-05 6.1316445e-05 -1.9363846e-05 -0.00012853538
1.0047192e-05 2.1338261e-05 -8.59225e-05 -3.4428216e-05 -5.39541e-05 -0.00011635093 -0.00010242888 -0.00011617027
-7.3647934e-05 3.2212483e-05 2.3007862e-05 6.567982e-05 -0.00016678855 -3.0320225e-05 -8.667496e-05 8.6147964e-05
-2.221122e-06 -0.000111556015 -0.00031217857 -0.00013661018 4.3158005e-05 -0.00020169615 -0.00012807222 -3.611505e-05
-0.00013965258 -6.923547e-05 -3.890625e-05 -7.0514914e-05 -0.00024242871 -9.707612e-05 1.866787e-05 -7.6924225e-06
-3.8608658e-05 -2.624327e-05 -3.264165e-05 -2.9211906e-05 2.2174727e-05 -4.2049047e-05 5.584646e-05 -1.0300784e-05
-0.00012300738 -7.138058e-05 -2.4436464e-05 -8.38517e-05 -0.000116078816 -0.00018762574 2.8377619e-05 -4.7520214e-05
-0.00013240211 -2.9156924e-06 -2.1128402e-05 -7.428188e-05 -1.5688682e-05 -0.00011272786 -4.3160537e-05 -0.00021887866
-2.76225e-05 -0.00012267297 4.9022747e-05 -5.123466e-05 -4.8955862e-05 4.615553e-06 -9.100585e-05 -0.0001665921
-0.00027834324 -2.278489e-05 2.09766e-05 7.9896505e-05 -0.00018249486 -0.00016974684 -0.00012883755 -5.1638202e-05
-0.0001582539 -5.3055985e-05 -9.772695e-06 -5.1198003e-06 -0.000104180515 -8.562322e-05 -6.908728e-05 -0.00025518212
00000000: 88ee 6db9 b645 8db9 a2b8 1438 00ac 8937
00000010: 0016 3934 a37d ebb7 e417 aab7 e32b 5eb9
00000020: b859 5eb7 86c4 16b8 64a2 45b8 46b8 28b8
00000030: 403e 06b8 0a75 fbb7 b481 81b8 7a24 19b8
00000040: 1906 0fb9 5855 21b8 e991 23b8 aabc b7b7
00000050: 9ea2 74b9 c841 24b8 c848 b237 5442 9bb8
00000060: 84a5 0638 16ac ccb8 cf51 9ab9 80bf fa36
00000070: cc2f 54b8 3c12 3b38 c35b 78b7 786f f2b8
00000080: e87a 1c37 0a3a 42b8 6c52 40b8 2a1a dcb8
00000090: 5ffb 03b8 15a2 87b8 8a07 91b8 630e 04b9
000000a0: a583 3638 fe3f 4338 5251 c0b8 d4a0 ecb7
000000b0: 5cd2 c6b7 0497 8038 8b6f a2b7 74c7 06b9
000000c0: 5c90 2837 91ff b237 4a31 b4b8 0467 10b8
000000d0: c64c 62b8 6e01 f4b8 16cf d6b8 70a0 f3b8
000000e0: 6f73 9ab8 e41b 0738 0201 c137 96bd 8938
000000f0: f6e3 2eb9 3058 feb7 44c5 b5b8 56aa b438
00000100: 960e 15b6 2ef3 e9b8 e6ab a3b9 043f 0fb9
00000110: 8e04 3538 667e 53b9 204b 06b9 3d7a 17b8
00000120: b46f 12b9 8332 91b8 452f 23b8 68e1 93b8
00000130: 7634 7eb9 5895 cbb8 f298 9c37 b40e 01b7
00000140: bbef 21b8 fe24 dcb7 b4e8 08b8 170c f5b7
00000150: dd03 ba37 d25d 30b8 ae3c 6a38 88d1 2cb7
00000160: 8bfb 00b9 28b2 95b8 e8fc ccb7 8ad9 afb8
00000170: 576f f3b8 67bd 44b9 790c ee37 7150 47b8
00000180: 6cd5 0ab9 37ab 43b6 e63c b1b7 c8c7 9bb8
00000190: 309b 83b7 4f68 ecb8 4607 35b8 cb82 65b9
000001a0: deb6 e7b7 c6a1 00b9 c69d 4d38 cce4 56b8
000001b0: f555 4db8 4cdf 9a36 65da beb8 3aaf 2eb9
000001c0: 99ee 91b9 2e22 bfb7 e8f6 af37 1c8e a738
000001d0: 175c 3fb9 12fe 31b9 9118 07b9 1996 58b8
000001e0: f5f0 25b9 6e88 5eb8 68f5 23b7 c0ca abb6
000001f0: 7d7b dab8 9e90 b3b8 f3e2 90b8 f7c9 85b9

exp_avg_sq f4 [128]
1.552513e-06 1.4807066e-06 2.1059658e-07 3.6284098e-07 1.330988e-07 6.848085e-08 1.0474912e-07 7.3243433e-07
4.4284457e-07 4.043961e-07 3.649191e-07 8.536724e-08 1.5244241e-06 8.4477136e-08 4.131982e-07 8.630276e-08
1.5186838e-06 1.3223423e-07 8.290548e-08 1.53296e-07 1.2545132e-06 4.175751e-07 6.09265e-07 8.1128456e-07
6.974121e-08 2.0047611e-07 1.6936582e-06 2.942193e-07 6.6456397e-07 4.5819715e-07 4.772803e-08 9.052661e-07
2.9903362e-07 1.7886629e-07 5.914676e-07 3.5130364e-07 1.1290799e-07 1.578094e-07 2.7353101e-07 9.46536e-07
1.4677371e-07 2.680809e-07 5.54123e-07 1.1532877e-07 1.1525194e-07 1.5985104e-07 5.1448396e-08 6.976587e-07
1.2143789e-07 7.462573e-08 4.3117464e-07 3.0555235e-08 2.5795077e-07 5.464863e-07 2.6889452e-07 5.7278663e-07
1.2431782e-06 3.2826074e-07 1.4490405e-07 9.933195e-07 1.2452101e-06 3.1694734e-07 1.9495835e-07 1.2006262e-07
8.736266e-09 6.5577075e-07 1.3343316e-06 6.9209153e-07 7.491866e-08 1.1796218e-06 5.783746e-07 3.750609e-08
7.7508383e-07 9.306184e-08 3.9674933e-07 1.5589484e-07 1.3845535e-06 1.3818843e-07 1.4643102e-07 1.44544e-07
1.0684321e-07 4.6616897e-08 4.6549577e-08 1.02886965e-07 6.9242176e-08 1.0807413e-07 4.13696e-07 6.136241e-08
1.2304126e-06 4.1787936e-07 6.094184e-08 4.6584864e-07 3.4789318e-07 5.234983e-07 1.3444243e-07 6.490882e-08
9.499803e-07 4.3277794e-08 6.255237e-08 3.5187605e-07 1.1259478e-06 1.1136821e-06 5.085988e-08 8.0485063e-07
5.3990004e-08 1.5542681e-06 1.3721129e-07 8.740673e-08 2.7622076e-07 2.0311049e-07 5.33195e-07 8.862484e-07
1.6320087e-06 5.8625673e-08 1.8254088e-06 7.60436e-08 1.2584615e-06 3.6941688e-07 4.6014202e-07 1.2952484e-07
2.1771007e-06 4.557842e-07 2.30971e-07 4.3531855e-08 3.5063158e-07 6.7360935e-07 4.3974018e-07 1.6026443e-06
00000000: f15f d035 b1bc c635 5920 6234 7ccc c234
00000010: ebe9 0e34 bf0f 9333 70f2 e033 819c 4435
00000020: 18c0 ed34 c71b d934 19ea c334 2353 b733
00000030: d09a cc35 cc69 b533 87d5 dd34 7255 b933
00000040: 94d5 cb35 45fc 0d34 c509 b233 af99 2434
00000050: bf60 a835 162f e034 5f8c 2335 0dc7 5935
00000060: a3c4 9533 7442 5734 a751 e335 31f5 9d34
00000070: 7d64 3235 23fe f534 86fd 4c33 6a01 7335
00000080: de8a a034 640e 4034 58c5 1e35 ce9a bc34
00000090: d377 f233 5172 2934 d1d9 9234 7515 7e35
000000a0: da98 1d34 c2ec 8f34 0bbf 1435 a9aa f733
000000b0: 6d80 f733 85a3 2b34 1cf8 5c33 be46 3b35
000000c0: 9864 0234 ee41 a033 317c e734 d63b 0333
000000d0: 7c7c 8a34 41b2 1235 955c 9034 99c1 1935
000000e0: 47db a635 d03b b034 ec96 1b34 3352 8535
000000f0: 1821 a735 e928 aa34 be55 5134 90ea 0034
00000100: 8116 1632 3908 3035 4917 b335 2bc8 3935
00000110: f8e2 a033 7f53 9e35 9a41 1b35 6216 2133
00000120: 5b0f 5035 4ad9 c733 d000 d534 0c64 2734
00000130: e5d4 b935 f260 1434 a73a 1d34 f433 1b34
00000140: ad71 e533 d237 4833 cded 4733 b5f2 dc33
00000150: 4ab2 9433 6216 e833 f219 de34 57c6 8333
00000160: a824 a535 e758 e034 21df 8233 c019 fa34
00000170: 13c6 ba34 8786 0c35 415b 1034 0064 8b33
00000180: 2602 7f35 70e0 3933 8754 8633 7ae9 bc34
00000190: 461f 9735 d379 9535 0871 5a33 ea0c 5835
000001a0: a3e2 6733 3f9c d035 5a54 1334 5cb4 bb33
000001b0: 7e4b 9434 9616 5a34 e220 0f35 87e6 6d35
000001c0: 640b db35 9ccb 7b33 9200 f535 694d a333
000001d0: 68e8 a835 4554 c634 7009 f734 8413 0b34
000001e0: 4e1a 1236 81b2 f434 d300 7834 c8f7 3a33
000001f0: 703e bc34 15d2 3435 6e15 ec34 701a d735
