results/SlayRL_015/SlayTheSquire_RL/checkpoint.pt (torch, 466475 bytes, 47 tensors)

network_body.observation_encoder.processors.0.normalizer.running_mean f4 [12]
000000 61 03 77 3f 7e af 85 be cf 97 f9 3a 01 f0 7f 3f
       0.9648953 -0.26110452 0.0019042435 0.9997559
000010 86 b3 47 be 3d f2 5b bc b8 71 e4 bd 5f f4 39 be
       -0.19502077 -0.013424453 -0.11154503 -0.18159626
000020 00 00 00 00 2f f1 ec bd 5f f4 39 be 00 00 00 00
       0.0 -0.115694396 -0.18159626 0.0

network_body.observation_encoder.processors.0.normalizer.running_variance f4 [12]
000000 f9 35 01 40 bb ff 0f 40 90 01 80 3f f8 f7 ff 3f
       2.0189192 2.2499835 1.0000477 1.9997549
000010 6b 0b 21 44 f0 0b 5d 42 10 83 cb 43 1c 79 18 44
       644.1784 55.261658 407.02393 609.89233
000020 00 00 80 3f 99 14 d2 43 1c 79 18 44 00 00 80 3f
       1.0 420.16092 609.89233 1.0

network_body.processors.0.normalizer.running_mean f4 [12]
000000 61 03 77 3f 7e af 85 be cf 97 f9 3a 01 f0 7f 3f
       0.9648953 -0.26110452 0.0019042435 0.9997559
000010 86 b3 47 be 3d f2 5b bc b8 71 e4 bd 5f f4 39 be
       -0.19502077 -0.013424453 -0.11154503 -0.18159626
000020 00 00 00 00 2f f1 ec bd 5f f4 39 be 00 00 00 00
       0.0 -0.115694396 -0.18159626 0.0

network_body.processors.0.normalizer.running_variance f4 [12]
000000 f9 35 01 40 bb ff 0f 40 90 01 80 3f f8 f7 ff 3f
       2.0189192 2.2499835 1.0000477 1.9997549
000010 6b 0b 21 44 f0 0b 5d 42 10 83 cb 43 1c 79 18 44
       644.1784 55.261658 407.02393 609.89233
000020 00 00 80 3f 99 14 d2 43 1c 79 18 44 00 00 80 3f
       1.0 420.16092 609.89233 1.0

network_body._body_endoder.seq_layers.0.weight f4 [128, 12]
000000 bd 4f 5b 3e e2 fc 03 3e 3f d0 90 bd aa ed 56 be
       0.21417136 0.12889436 -0.0707097 -0.20989099
000010 8f 9f f5 bd 25 95 36 3d 7f 82 96 bd cf 80 df bd
       -0.11993324 0.04457583 -0.07349109 -0.1091324
000020 eb c9 7b 3e c6 f5 07 bf 8a cb 9f bd d8 ee aa 3e
       0.24588744 -0.53109396 -0.07802494 0.33385348
000030 c9 03 04 bf fb b7 79 be af 0a 11 3f e4 db d1 3d
       -0.51568276 -0.24386589 0.56656927 0.10247019
000040 ff c3 0a bd 5d c7 8b 3e 65 20 3c 3e 29 e4 c1 bc
       -0.033878323 0.2730054 0.18371733 -0.023668366
000050 63 76 8e bd 8f 28 b4 3d 59 64 05 bf eb 91 93 3d
       -0.06956174 0.087967984 -0.52106243 0.07205566
000060 bf 66 e8 bd 22 7c 2d 3c 69 39 96 3e d2 20 2a be
       -0.11347722 0.010588678 0.29340675 -0.16614082
000070 7d 13 3e 3f a6 3a 08 be ff 2c 65 3e aa 6f fd 3e
       0.74248487 -0.13303623 0.22380446 0.49499255
000080 3d 15 b9 be 26 33 c4 3d df ac b4 be 2c d9 94 be
       -0.36149016 0.09580068 -0.3528814 -0.2907194
000090 77 a1 a2 3e 59 79 0a 3d 11 27 7d be a8 f4 35 be
       0.31763813 0.033807132 -0.24721934 -0.1776911
0000a0 d5 98 78 3d 68 63 85 bd 8c 06 6d 3e 82 f8 01 bf
       0.060692627 -0.06513101 0.23147029 -0.5076982
0000b0 db 28 56 3e ae 9a 8c be 28 98 15 3e a7 df 88 3c
       0.20914023 -0.2746176 0.14608824 0.016708208
0000c0 ee c3 90 be 9c ff dc 3e 30 1b 9f 3e f0 81 f3 3d
       -0.28274482 0.43163764 0.3107543 0.11890018
0000d0 c8 f4 32 3e ab 9e 76 3e f7 4c 3b 3e 9c 9a 91 3e
       0.17476189 0.24083965 0.18291079 0.2843827
0000e0 12 35 7c 3e f5 dc 25 be 23 0d b5 bd 2c c5 8f 3e
       0.2462962 -0.1619757 -0.08840396 0.28080118
0000f0 fc 6d d8 bb 85 c6 cc bd 29 77 e8 3c 95 b1 51 3e
       -0.006604908 -0.09998802 0.028377132 0.20477898
000100 e2 84 63 bd 52 8c 81 be e2 c4 b1 3e bf 9f ab be
       -0.05554665 -0.25302368 0.34720522 -0.33520314
000110 65 9b fd bd e6 37 6b 3d f3 5a da 3d 45 ab e7 3c
       -0.12383155 0.057426356 0.106618784 0.02827991
000120 2f b0 3a 3e e1 d2 e4 3e cb c8 19 be 56 7d 9a 3d
       0.18231271 0.44692138 -0.15018003 0.07543437
000130 d7 98 16 be 1a 02 ec bd a2 0a 1d 3d 95 90 28 bf
       -0.14706741 -0.11523838 0.03834022 -0.65845615
000140 d4 97 d4 be 6d bf 00 3e e2 f6 0d 3f 51 6d a3 bd
       -0.41522086 0.12573023 0.5545484 -0.07979835
000150 ed 67 66 3e 42 9d 96 bd f2 6e 68 be 4e 7a 00 bb
       0.22500582 -0.07354213 -0.22698572 -0.001960415
000160 6c c4 88 be 06 28 6c 3e e8 e3 a1 bd 96 65 ba be
       -0.26712358 0.23062143 -0.07904798 -0.3640563
000170 ab df 11 bf 21 03 58 bd f0 8e 08 be 04 6b 31 be
       -0.56981915 -0.05273736 -0.13335776 -0.1732598
000180 ac b6 6e bd f2 f9 8d be a0 6c db be 9a 12 90 bd
       -0.05827968 -0.27729756 -0.42856312 -0.07034798
000190 e7 ef 67 be a7 07 17 bd 91 25 5d 3f a9 f5 85 be
       -0.22650109 -0.036872532 0.86385447 -0.26163986
0001a0 12 65 81 be 52 2a bb 3e c1 6a 6f bd 26 e5 b5 be
       -0.25272423 0.36555725 -0.058451418 -0.3552639
0001b0 d9 d4 1d 3f 9b 0a 01 3f 86 d1 25 3d f0 bb 4a be
       0.61652905 0.5040681 0.04048302 -0.19798255
0001c0 0e c2 95 be db 01 4a 3e 41 05 28 3e 33 d6 ef be
       -0.29249614 0.1972727 0.16408254 -0.4684311
0001d0 ee 16 9e 3e ef f1 75 be 17 d5 c1 bd d7 3c 8d be
       0.3087687 -0.24018072 -0.09464472 -0.2758548
0001e0 f6 c0 ec be 5b e6 0c bd a5 26 ea bd 36 36 a3 3e
       -0.46240968 -0.03439937 -0.11433152 0.31877297
0001f0 92 ad 81 3e e2 1f 89 3e 2e 0f e7 3b 74 b5 38 bd
       0.25327736 0.26782137 0.00705137 -0.045094922
000200 ce 8a 0c be a7 88 0e 3e f0 62 0a be 31 a8 61 be
       -0.13724825 0.13919316 -0.13514304 -0.22036816
000210 70 ff 2b be 27 19 89 be fd 79 21 3e 0e 6e bb 3e
       -0.1679666 -0.26777002 0.15769191 0.36607403
000220 3d de f8 3d 9a aa a1 3e 89 ac 8e 3c 80 4a 87 be
       0.121517636 0.3157547 0.017416256 -0.26424026
000230 ec 8f a2 bd 89 91 bc 3e 7e 8e 41 be b3 aa 91 3e
       -0.07937607 0.36829785 -0.18902013 0.28450546
000240 bb a7 3f be 63 54 04 bf 17 1b ae bd 78 5f 7d be
       -0.18716328 -0.51691264 -0.08501261 -0.2474345
000250 fe 76 70 3e 17 e3 0b bc e3 98 15 be 42 56 22 be
       0.23482892 -0.008538029 -0.14609103 -0.15853217
000260 3e ed 87 be 08 fc 2a bd f3 10 a4 be eb 49 b1 bc
       -0.2654819 -0.041744262 -0.3204418 -0.021641692
000270 47 81 bf be f9 df 8f bd ea 98 ea 3e b6 e9 2b bf
       -0.37403318 -0.07025141 0.4581979 -0.6715349
000280 2e 54 86 3d 16 de 6d 3d 9e 25 86 be e3 b2 a5 bd
       0.06559025 0.058073126 -0.26200575 -0.080907606
000290 06 2d 9e 3e ce 0a ea bd a7 d9 75 b9 23 98 ba 3e
       0.30893725 -0.11427842 -0.00023446103 0.36444196
0002a0 0e 0a f3 3e 96 da 18 3e 09 d0 0f bc ab e6 a7 be
       0.4746861 0.14927134 -0.008777627 -0.32793173
0002b0 f0 52 b6 3e bd 52 11 bc 54 01 a1 be f7 ba bb bd
       0.3561015 -0.008869824 -0.31446326 -0.0916652
0002c0 c6 c9 f0 3d 9d ed ba be 76 96 60 3e 62 11 f4 bd
       0.11757235 -0.3650941 0.21932396 -0.11917378
0002d0 75 66 27 3e 6f 99 5e be 08 d3 61 3d 3a c4 74 3e
       0.16347678 -0.21738218 0.055132896 0.2390298
0002e0 23 10 81 bd 22 39 02 be 20 6b 86 be 12 b9 f8 bc
       -0.06301906 -0.12717107 -0.26253605 -0.030361686
0002f0 e9 1b 31 be a0 03 60 3e a6 31 80 be 02 60 b6 bd
       -0.17295803 0.21876383 -0.2503788 -0.08905031
000300 37 fc 67 bd 55 f1 15 3d 2c be bb bd 52 1e c0 bd
       -0.056637015 0.036607105 -0.09167132 -0.09380783
000310 4d bc 29 3d d0 35 4c be 85 6d f9 be e3 db 07 3f
       0.041439343 -0.19942403 -0.4871637 0.53069896
000320 10 a5 88 3e 5c 59 b4 3d 68 94 da be aa c2 b0 be
       0.26688433 0.088061064 -0.4269135 -0.34523517
000330 1a 91 a2 3e 74 bd 1a bd b0 9f 0d be dd 65 1e 3e
       0.3175133 -0.037778333 -0.13830447 0.15468545
000340 80 0d 7d 3e b0 d4 58 3c e3 9b c1 3e 57 6d 96 3e
       0.24712181 0.013234302 0.37814245 0.29380295
000350 db 0b 92 be e2 bf 17 be 56 e1 b4 3e 25 4a 6b 3e
       -0.2852467 -0.14819291 0.35328168 0.22977503
000360 a4 3f 41 bf 22 40 a7 3d f4 04 d7 bd 57 c5 c5 3d
       -0.7548773 0.08166529 -0.104989916 0.0965678
000370 73 83 58 3e f3 53 a3 bd 64 bd 1e be e5 4e f4 bd
       0.21143894 -0.079749964 -0.15501934 -0.119291104
000380 c3 3a f2 be b1 46 e4 3c f2 a0 01 be 06 3b 9e 3e
       -0.47310457 0.02786574 -0.12659052 0.30904406
000390 c7 62 17 be 89 3c 9c bd 88 22 fb 3d 71 4a 33 bd
       -0.14783774 -0.07628734 0.12262446 -0.043772165
0003a0 f1 be 15 3f d6 b9 fd 3d cf f3 20 3e 15 bc 8b 3e
       0.5849448 0.12388961 0.15718006 0.27291933
0003b0 f7 e1 1e bf 6d 19 13 3e d1 1e 7b 3e 9c fe 0c be
       -0.62063545 0.14365168 0.24523474 -0.13769001
0003c0 23 df 74 3e 1d 88 eb be 0b 2e ad 3e 8e 12 25 3e
       0.23913245 -0.46002284 0.3382419 0.1612036
0003d0 d6 fb 82 3d 1d 1c ba 3d 55 ed 03 be 90 8a b6 3e
       0.0639569 0.090873934 -0.12883504 0.3565259
0003e0 c7 5b 47 3d ac 17 fc 3e 7b df ef bd 65 f7 e0 bd
       0.04867151 0.4923681 -0.117125474 -0.10984687
0003f0 35 2c c2 be 27 10 b6 3e 23 3b 53 be 1d c9 37 bd
       -0.37924352 0.35559198 -0.20628028 -0.04486953

network_body._body_endoder.seq_layers.0.bias f4 [128]
000000 e8 5b 23 3b f0 75 82 bb ac f4 d9 ba 5d 07 a7 3a
       0.0024926607 -0.0039813444 -0.0016628704 0.0012743283
000010 5e ef 0c 3b ea 2b 42 3b 51 93 21 3b e4 22 40 bb
       0.0021504979 0.0029628226 0.0024654458 -0.0029317671
000020 c3 0f 5d 3b f9 06 2e 3b be f0 1f 3b 01 47 48 bb
       0.0033731319 0.002655445 0.0024404968 -0.00305599
000030 5e 2e 25 3b 20 b0 2f ba 2b b3 c3 ba 97 a4 47 bb
       0.002520464 -0.0006701965 -0.0014930716 -0.0030463093
000040 38 d5 f6 3a 3a 21 22 bb ae 13 2e bb 87 86 30 bb
       0.0018831855 -0.0024739043 -0.0026562023 -0.0026935653
000050 09 4d 8d 3b 37 68 36 bb af 8c 43 bb 18 fe 81 3a
       0.004312162 -0.0027833113 -0.0029838493 0.0009917645
000060 89 be 29 3a 58 18 27 bb f6 f4 79 37 3b ca 26 bb
       0.00064752303 -0.0025496688 1.4898591e-05 -0.0025450129
000070 50 37 57 ba 24 f4 b1 ba 1a 3e f7 38 9d b5 af ba
       -0.00082098413 -0.0013576788 0.00011789445 -0.0013405565
000080 9b 38 1f 3b 17 58 b0 ba 14 92 f0 b8 c3 99 0a 3b
       0.0024295214 -0.0013453987 -0.00011471301 0.0021148778
000090 f8 06 bc ba ed ea f0 b9 f0 84 72 b9 3f 27 0e 3a
       -0.0014345339 -0.000459514 -0.00023128442 0.0005422718
0000a0 3a a8 f7 3a 24 57 20 b7 c2 cb c5 3a e8 cc 30 bb
       0.001889474 -9.557032e-06 0.0015090632 -0.0026977602
0000b0 64 02 49 3a 14 b3 60 ba d5 70 d7 ba d8 b1 61 3b
       0.0007667898 -0.00085716066 -0.0016436825 0.0034438279
0000c0 a5 a3 49 3b 71 29 9a 3b 0b 8b 58 3b e0 93 48 3b
       0.0030767706 0.004704647 0.003304186 0.0030605718
0000d0 73 ab ab 3b 0d 01 1b 3b 21 26 6b 39 af 95 4d 3b
       0.005238944 0.002365175 0.0002242555 0.0031369736
0000e0 2f b0 34 3b 08 7d 06 ba 94 d7 4d 39 99 63 08 bb
       0.0027570834 -0.00051303254 0.00019630633 -0.0020811318
0000f0 6c 51 16 3b e5 3b 16 bb 2a db 06 3b 6d 15 21 bb
       0.0022936715 -0.0022923884 0.002057741 -0.002457942
000100 92 02 2f bb 49 1c e9 3a 9c 24 82 3b 11 68 22 3b
       -0.0026704413 0.0017784919 0.0039716493 0.0024781267
000110 4b 52 74 3b 0e 6c 25 3b 1e 8f 2f bb d1 0f f0 ba
       0.0037280496 0.0025241408 -0.0026788185 -0.001831526
000120 16 38 3d bb ab 25 15 3b c8 ae de 3a 0b 90 31 3a
       -0.002887254 0.0022758048 0.0016989345 0.0006773478
000130 dc 88 29 bb 49 29 f7 3a 4e 6f ed 3a ae 6d fc ba
       -0.0025868928 0.0018856908 0.0018114836 -0.0019258761
000140 da 1d cd ba bb cd 6e bb 91 01 ec ba 21 a5 75 ba
       -0.0015649155 -0.0036438543 -0.0018005838 -0.00093706144
000150 97 8b 82 3b c8 3a 10 3b c9 22 5e 3b 68 b3 a9 3a
       0.0039839256 0.0022007693 0.0033895245 0.0012947144
000160 2a 12 a2 ba 76 11 1e 3b 8a 27 13 bb 31 49 05 ba
       -0.0012365032 0.0024119294 -0.0022453987 -0.0005084454
000170 d0 e2 56 3a 7f 69 5a 3b d2 48 1b bb 44 a6 2c 3a
       0.000819725 0.003332704 -0.0023694527 0.0006586055
000180 bb 74 20 bb d1 40 82 ba 47 e2 3b 3b 44 ef f7 ba
       -0.002448364 -0.000993753 0.0028668807 -0.0018915911
000190 35 f4 11 bb 50 fe 7b bb 71 1e 57 3b 03 b3 17 3b
       -0.0022270803 -0.0038451143 0.003282454 0.002314747
0001a0 e4 92 37 3b f9 28 82 3b 92 8a 48 bb fc 9d 82 bb
       0.0028011138 0.0039721695 -0.0030600172 -0.0039861184
0001b0 bc 76 85 ba d9 c8 fb ba 94 a9 2a bb f3 9c 7c bb
       -0.001018248 -0.0019209638 -0.0026041018 -0.0038545697
0001c0 d4 a9 04 bb 25 e7 c0 b9 29 db 5d 3b a8 b0 4d b9
       -0.0020242827 -0.0003679331 0.0033852553 -0.00019616133
0001d0 44 03 8b 3b 60 dd ad b9 74 7d 03 bb db 31 c4 3a
       0.0042423327 -0.0003316207 -0.002006379 0.0014968471
0001e0 24 30 6e 39 4e 3e e9 b8 a3 17 86 ba 97 2c 40 3b
       0.00022715383 -0.00011121911 -0.0010230433 0.0029323453
0001f0 9c 00 b0 3a ae 57 f8 b9 23 0d 0d 3b e3 29 78 3b
       0.0013427916 -0.00047367573 0.0021522723 0.0037866763

network_body._body_endoder.seq_layers.2.weight f4 [128, 128]
000000 5f 45 14 bd a2 6e aa 3d ad 28 41 be f9 dd 2a 3d
       -0.03619897 0.08321883 -0.18863173 0.041715596
000010 f1 5a b4 bb de 15 fb 3c 11 52 3f be 11 b0 88 3d
       -0.005504005 0.030650076 -0.1868365 0.06674207
000020 24 e9 47 3b cb c0 fa bd d5 9e 7c 3c f9 67 9d 3d
       0.0030503953 -0.122438036 0.015418728 0.07685847
000030 b9 a0 9f bc d6 9e bc ba 10 ab e5 3c 3d 03 4d bc
       -0.019485818 -0.0014390599 0.02803567 -0.012512979
000040 2c 0a 7a bd 6c f2 d1 bb 96 52 1b 3d 9a 31 7d bd
       -0.061044857 -0.006407073 0.037920557 -0.06181488
000050 a7 01 00 3b f4 65 6b 3d f3 2b 0c bc 73 91 47 bb
       0.0019532235 0.057470277 -0.0085554 -0.0030451685
000060 3c 1e f9 3d 86 be 01 bd f7 8f 03 be 15 19 55 be
       0.1216397 -0.031675838 -0.12847887 -0.2081035
000070 24 5e 09 3e c5 c3 12 be f6 83 bf 3d bf 11 25 3d
       0.13414818 -0.14332493 0.093513414 0.040300127
000080 0b a9 e6 bc 68 e9 26 3c cc 27 92 3d 4a 07 89 bd
       -0.028156778 0.010187484 0.07136497 -0.066908434
000090 a4 83 d0 3c df 3b d7 bc d7 ac 7e bd 1f f3 48 3e
       0.025453396 -0.026273666 -0.06217655 0.19623993
0000a0 13 42 55 3d 54 80 c9 39 25 0b 2b bd 2d 2c 39 be
       0.052064966 0.0003843332 -0.041758675 -0.18083258
0000b0 f9 11 b9 bd 9b 74 4d bd 4d 16 de 3b d9 5a b2 3d
       -0.09036631 -0.05016003 0.006777561 0.08708734
0000c0 ce 2e 31 bd 54 95 fe bd f4 50 1b 3d e1 e5 ed bc
       -0.043257527 -0.12430826 0.037919 -0.029040279
0000d0 81 c1 dc 3a f8 8b 63 3c 42 bd 05 3b 4c 59 d6 3d
       0.0016842337 0.013888352 0.0020406996 0.10466251
0000e0 14 e1 cf 3b 70 a5 07 3e f8 ad 98 3d b5 18 ee bd
       0.00634397 0.13246703 0.07455057 -0.11625806
0000f0 b1 74 f7 bc 3c e8 b1 3c c7 ba e9 bd 49 91 93 bd
       -0.03020701 0.021717183 -0.11412578 -0.07205445
000100 ca ef 5a bd 19 2b 8f bc 0c 2a 15 bd 63 fb 26 3e
       -0.053451337 -0.017476605 -0.036417052 0.16306834
000110 3f ef 58 bd 0f 47 5e 3d 26 f2 2f bd 78 79 26 3d
       -0.052962538 0.054266986 -0.04295554 0.040643185
000120 bc 1d bc 3d 4e cf 9e bc 44 b3 4c bd 5c 7e ba bc
       0.09185359 -0.01938596 -0.04997565 -0.022765331
000130 c1 01 23 3d 27 32 a6 3d 90 90 d6 3d 8b 6a 19 be
       0.039796595 0.081150346 0.10476792 -0.14982049
000140 77 a4 55 bd af dc e8 bc 89 18 d8 bd c7 19 01 3d
       -0.0521588 -0.028425543 -0.10551555 0.031518724
000150 31 e8 8f 3d 73 d9 1b bd 70 0a 18 3e 97 ed 93 3c
       0.07026709 -0.038049173 0.14847732 0.018057628
000160 87 cb 17 be 1f 84 76 3c 24 fa 35 3c 9f c3 0f 3b
       -0.14823733 0.015046149 0.011107001 0.0021936668
000170 e2 33 d4 3d 35 12 79 3d 4e e0 4a 3e 1f 9a aa bd
       0.10361458 0.06080838 0.19812128 -0.083301775
000180 fb 3d af bb ae b4 09 3e 2f ef cc bd fa 13 2e be
       -0.005347965 0.1344783 -0.10006558 -0.16999808
000190 58 37 83 bd a4 d9 2b 3e 4d 24 4b 3c 5e d6 e7 bd
       -0.0640704 0.16782242 0.0123987915 -0.11320184
0001a0 ae f2 29 3d 79 f3 22 3e 22 81 4e bc bb 62 45 3e
       0.041491203 0.1591319 -0.01260403 0.19275944
0001b0 fd 92 8a bd 88 b3 88 bd 87 72 e7 3d 44 e9 20 bd
       -0.06766317 -0.06674868 0.11301141 -0.03928496
0001c0 72 45 cf 3d 9a 4b 2e be db ec 19 3d 8e e6 13 bc
       0.101206675 -0.17021027 0.0375794 -0.0090271365
0001d0 d6 12 9f 3d 34 53 2a 3e ee 30 3c 3d 7c 0a 9f 3d
       0.077672645 0.16633302 0.0459451 0.077656716
0001e0 d1 71 0e bd f2 a3 8d bd 63 9c 22 bd 97 a0 2a 3d
       -0.034776513 -0.06916036 -0.039699923 0.041657057
0001f0 6a f5 8c 3d 20 5d 7e 3e 35 36 a1 3b e7 02 a9 3d
       0.068827465 0.24840212 0.004919792 0.08252507
000200 c1 ba 14 3d d8 a9 ba bc c1 87 a3 3c 05 53 97 3d
       0.036310915 -0.022786066 0.019962193 0.073888816
000210 67 49 eb bc 33 28 af 3c 65 e8 75 3e 6e 55 2d bd
       -0.028721524 0.021381473 0.24014433 -0.0423178
000220 32 e6 a8 3c b5 30 34 bd 6f 9f 1a bd 59 b7 b5 3d
       0.020617578 -0.043991763 -0.037749704 0.088728614
000230 1e 16 f4 3d 33 ff 48 bd 26 ae 9d 3d 08 a7 a5 3d
       0.11918281 -0.049071502 0.07699232 0.08088499
000240 cb 4d 6e bc 6d e3 b9 3d 69 82 b1 bd 2c dc 0b 3d
       -0.0145449145 0.09076581 -0.08667452 0.03414552
000250 cc 4c d2 bc e2 fd a5 bc 84 b5 bf ba 8f 3b a4 bc
       -0.025671385 -0.020262662 -0.001462624 -0.020047931
000260 84 cb 4a bd 64 b5 0a 3e 2e 23 1f 3d 4d 1f 9d bd
       -0.049510494 0.13545758 0.03885191 -0.07671986
000270 62 dd 20 3c 4c 0c c1 ba 51 e0 89 3d 86 dc d6 bd
       0.009818407 -0.0014728396 0.06732238 -0.1049128
000280 e1 e0 89 3d f8 d8 18 bd f5 a8 86 bc 09 81 4d 3e
       0.06732345 -0.037316293 -0.016437987 0.20068754
000290 d2 6c 7d 3c 35 4f b8 bd ae 92 79 bd f1 d5 19 bc
       0.015467839 -0.089994825 -0.0609309 -0.0093893865
0002a0 5f a5 e1 3d 4b a0 d4 3b f7 c7 6a 3c b3 5b a8 3d
       0.1101787 0.006488835 0.014329902 0.08220615
0002b0 a2 e6 62 3b 31 f1 f8 3c da a7 3a 3e 32 c4 ca 38
       0.003462233 0.030388447 0.18228093 9.668655e-05
0002c0 2a 51 39 3d 6a 22 d0 bd bb 77 cb bb 35 04 8f bc
       0.04524342 -0.10162814 -0.0062093413 -0.01745806
0002d0 a4 b2 a9 bc 69 e2 01 be 79 2a 1c bd 3a 01 c9 bd
       -0.020715065 -0.12684025 -0.038126443 -0.09814687
0002e0 7a f3 72 be fe 39 00 be c7 2b 85 3d 06 18 f8 ba
       -0.23725691 -0.12522122 0.065024905 -0.0018928058
0002f0 8a 0e 17 3a 72 6e c2 3b f8 86 40 3e da aa bc bd
       0.00057623594 0.0059335763 0.18801486 -0.09212275
000300 43 ee 30 bb e3 c2 15 be 28 c6 db ba 4c be f4 bd
       -0.0026997484 -0.14625125 -0.0016767429 -0.11950359
000310 2b bf 9f bb 0f 21 9c 3d de e8 e8 3c ee 15 84 bd
       -0.004875084 0.07623493 0.028431352 -0.06449495
000320 4c 27 73 bd a5 68 a8 bd d1 4b 89 3d 72 b8 5b bd
       -0.05936365 -0.08223084 0.06703914 -0.053642698
000330 99 ab 3f be 11 28 bd bd e9 41 57 3d 15 4e 02 3e
       -0.18717803 -0.09236158 0.05255309 0.12725098
000340 d7 26 27 bc e2 ec aa 3c 17 02 30 3a 72 11 1f be
       -0.010202131 0.020864908 0.00067141786 -0.15533999
000350 89 a8 de bc 57 61 19 3c 90 05 46 3d 91 a1 a9 3d
       -0.027179973 0.0093615865 0.04834515 0.082827695
000360 79 c6 40 3d a2 9f 07 bd dd 9a f1 bc 6b 9b 7b bc
       0.04706428 -0.033111222 -0.02949279 -0.015356879
000370 69 cd 8d bd 60 63 09 3e ba a7 e9 bd 47 d6 55 bd
       -0.069239445 0.13416815 -0.114089444 -0.052206304
000380 9e 00 a6 3d 2d 26 9d bd 19 65 48 bd 96 37 3a be
       0.081055865 -0.07673297 -0.04892454 -0.18185267
000390 7e 98 3a bd 11 5a b4 3d 7b b4 3c 3d 49 35 22 be
       -0.045555584 0.08806241 0.046070557 -0.15840639
0003a0 ab f0 5a bd 68 04 90 bc 0e 80 48 bc 68 00 23 3d
       -0.053452175 -0.017580226 -0.012237562 0.03979531
0003b0 7e 5a 58 3d c6 2f b1 ba 55 d9 7f be 9a e9 b3 bb
       0.052820675 -0.0013518266 -0.2498525 -0.005490494
0003c0 bc 2a 90 bd 7b fc d5 bc f1 1e f2 bb 38 19 93 3d
       -0.07039401 -0.026121369 -0.0073889424 0.071825445
0003d0 4a b2 17 3c ec 5e 9c bb 29 c6 71 3d 61 ea 8f bd
       0.009258816 -0.0047720578 0.05902687 -0.07027126
0003e0 c5 06 be bd 8b 51 9d 3c 37 a4 8b 3d 9d 0f 42 bd
       -0.09278635 0.019203922 0.06818431 -0.04737817
0003f0 a6 63 e9 3d fd 26 31 bd d4 ac 1d be 1b 9c 36 be
       0.113959596 -0.043250073 -0.1539796 -0.17832987

network_body._body_endoder.seq_layers.2.bias f4 [128]
000000 76 50 8a 3a ab a3 e5 ba 61 a5 8f 3a 9a 7f 53 bb
       0.0010552544 -0.001752009 0.0010959321 -0.0032272101
000010 fa 0e 45 3b e8 ad 35 3a 20 f5 50 bb 95 cd 4f 39
       0.0030068741 0.0006930516 -0.0031884387 0.00019817644
000020 0f 4e be 39 ac 87 8e ba 37 ed 50 bb a1 90 35 bb
       0.00036297782 -0.0010874174 -0.0031879672 -0.0027704614
000030 b5 4f fc ba 36 0c 17 bb 90 cf e8 3a f2 71 39 3b
       -0.0019249829 -0.002304805 0.0017762054 0.0028296676
000040 85 b0 1d 3b 29 87 8e 3a 27 05 20 bb 5d a9 9c ba
       0.0024061513 0.0010874021 -0.0024417134 -0.001195233
000050 fe 45 4f 3b b5 a1 ce 3a 64 17 8d ba e4 ad 40 3b
       0.0031627412 0.0015764745 -0.0010764417 0.0029400522
000060 ba af d8 3a 0a 50 0b bb 02 32 29 bb 74 3d c0 3a
       0.0016531863 -0.0021257424 -0.002581716 0.0014666752
000070 f4 09 0b ba 7d 3c 59 3b a3 06 24 bb e5 11 0f bb
       -0.00053039123 0.0033147626 -0.002502837 -0.0021830734
000080 16 4b 23 3b 67 66 65 3b f6 73 43 3b a5 29 d2 ba
       0.002491658 0.0035003664 0.0029823757 -0.001603414
000090 d1 2a 14 bb fc 55 46 3b 1e ff 3a 3b 23 25 43 3b
       -0.0022608528 0.0030263653 0.002853341 0.0029776774
0000a0 9a 69 01 3b 85 fe 63 ba cd f9 b8 3a 56 6d 3d 3b
       0.0019746781 -0.0008697289 0.0014112532 0.002890428
0000b0 f2 9b 3e 3b a8 27 33 ba 00 9a 9f 39 da 7a 15 3b
       0.002908465 -0.00068342173 0.00030441582 0.002280882
0000c0 62 fc 3b bb 9b af f2 ba 7e 6e 1f bb f5 2f 3d bb
       -0.0028684367 -0.0018515469 -0.0024327333 -0.0028867696
0000d0 eb 2a fa 3a 31 85 06 bb a0 08 46 3b 41 35 59 3b
       0.0019086277 -0.0020526166 0.0030217543 0.0033143314
0000e0 32 6f 54 3b 29 da 53 bb 52 84 53 bb 6f fd 0e 3b
       0.003241491 -0.0032326079 -0.0032274914 0.0021818539
0000f0 1f 8d 20 3b 66 e9 b6 3a 34 44 f3 3a f5 f3 1d 3b
       0.0024498177 0.0013955056 0.0018559755 0.0024101709
000100 54 4f 57 3b 67 68 db 3a 10 fb a1 ba 15 24 0c 3b
       0.003285368 0.0016739488 -0.0012358148 0.0021383811
000110 34 57 20 bb 84 0b 35 3b 0a 62 26 bb 54 41 22 bb
       -0.002446604 0.0027625272 -0.0025388026 -0.0024758177
000120 1a 79 23 3b c1 c6 6c b9 9e 54 18 bb a6 90 4f bb
       0.0024944008 -0.00022580755 -0.0023243795 -0.003167191
000130 d1 cb 30 3b ae 9e 09 3b 32 a5 a9 ba 0f e7 4b 3b
       0.0026976953 0.0020999121 -0.0012942909 0.0031113063
000140 3c 6a 25 3b 87 4c a2 3a 24 c2 55 3b eb d1 55 3a
       0.0025240323 0.0012382426 0.0032616938 0.00081565854
000150 03 3c f4 3a 45 60 31 bb b8 fb 00 ba da 18 06 bb
       0.0018633608 -0.0027065438 -0.00049203215 -0.002046159
000160 27 af 27 3b ac 96 8d ba 0f 25 34 bb 3a 9e 58 bb
       0.0025586577 -0.001080235 -0.002748791 -0.0033053295
000170 da d9 22 bb 14 98 5a bb e1 ff 10 bb 7a d0 2a bb
       -0.0024849088 -0.0033354806 -0.0022125172 -0.0026064203
000180 fd b5 49 3b ae 25 53 3b 96 af db 3a 1a d0 dd 3a
       0.003077864 0.0032218504 0.0016760703 0.0016922981
000190 7e 83 31 bb 19 82 27 3b 07 5f 3d bb f2 ad 48 bb
       -0.0027086432 0.0025559722 -0.0028895752 -0.0030621258
0001a0 3a 1c f8 ba 12 70 8a ba fc 68 e1 3a 29 f9 8b ba
       -0.0018929311 -0.0010561964 0.0017197425 -0.0010679114
0001b0 d0 46 ef b6 ff ff 36 bb 94 1c 43 bb 1d b1 44 3b
       -7.1309987e-06 -0.0027923582 -0.0029771673 0.0030012794
0001c0 37 00 91 ba e2 57 3b bb 64 dd 4f 3b 43 dc 31 3b
       -0.0011062686 -0.0028586318 0.0031717652 0.0027139343
0001d0 8d bf 36 3b 8d b8 35 bb 2f d7 f7 3a eb 2e 6c 3b
       0.002788517 -0.002772841 0.0018908734 0.0036038707
0001e0 ae 2c 00 bb f8 40 28 3b 2f cc 40 3b 0e 46 2d bb
       -0.0019557881 0.002567349 0.0029418578 -0.002643946
0001f0 1e 02 62 3a ef 8f f0 b9 16 49 3e bb 42 2a fe 3a
       0.00086215313 -0.00045883606 -0.0029035262 0.0019391256

action_model._continuous_distribution.log_sigma f4 [1, 2]
000000 ae 9f bb 3a 84 b4 dc ba
       0.0014314556 -0.0016838466

action_model._continuous_distribution.mu.weight f4 [2, 128]
000000 13 46 97 3c b8 4c f6 bc 7e 27 4c 3c 4a be e1 bc
       0.018466031 -0.03006588 0.012460588 -0.027556557
000010 18 aa a1 3b 33 85 2b 3c 6e 22 b5 bc 58 45 c1 3b
       0.004933607 0.010468769 -0.022111144 0.005898159
000020 eb fb 46 3c 76 1e f0 39 13 bc 14 bd f6 fd fc bb
       0.012145023 0.00045799062 -0.036312174 -0.007720704
000030 c4 1f 16 bd 32 e7 03 bc 6a c1 75 3c 9d 44 e4 3c
       -0.036651388 -0.008050727 0.014999727 0.027864749
000040 cd 0d 54 3c 4d b3 6c 3b f0 43 15 bb ab 9f 18 bc
       0.0129427435 0.0036117614 -0.002277609 -0.009315412
000050 d6 43 cf 3b 4a c1 c5 3a 4d 67 0a bb 6d d0 0d 3c
       0.0063252253 0.0015087512 -0.00211187 0.00865565
000060 32 25 c9 3c bf 09 c5 bb 05 a8 e7 bc 8b a3 47 bb
       0.024553869 -0.0060131247 -0.02827836 -0.003046247
000070 2a 67 99 bb 63 a4 72 3c d8 03 18 bc 2d 6e bf bc
       -0.0046814876 0.014809701 -0.00927826 -0.023367966
000080 f5 f8 cb 3b d0 da b8 3c b5 1e a5 3c fa ee bf bc
       0.0062247464 0.022565275 0.020156244 -0.023429383
000090 47 ff 82 bc ed 92 b7 3b 6c 0c 9c 3c f0 67 30 3c
       -0.015990866 0.0056022317 0.019048892 0.010766968
0000a0 b2 b7 00 3d 49 e8 86 3b 13 ab 56 3b 26 51 f3 3b
       0.031425186 0.004117046 0.0032755777 0.007425445
0000b0 ad 3c 72 3c d8 c4 1a 3b 07 9f b3 3b 4a 0e e3 3b
       0.014784974 0.0023615863 0.005481604 0.0069291936
0000c0 7d 02 a0 bc 86 3d 8e bc 03 0c c0 bc 06 13 e0 ba
       -0.019532437 -0.017363321 -0.023443228 -0.0017095513
0000d0 56 87 8d 3b 2d d0 c2 bc ee 1c 86 3c ac 1f ff 3c
       0.004319112 -0.023780907 0.016371217 0.031143032
0000e0 95 90 ab 3a 7e c1 fa bc b7 f8 90 bc 11 7a 93 3c
       0.0013089353 -0.030609842 -0.017696721 0.018002542
0000f0 9f f2 15 3c 58 69 2a 3b 6f 6a fd 3b 42 66 9e 3b
       0.009152084 0.0026002731 0.007733635 0.0048339674
000100 96 3a e2 3c 55 97 46 3c e0 4f d0 ba 68 01 9d 3b
       0.027615827 0.012121041 -0.0015892945 0.0047914274
000110 6f 29 b7 ba 9b 13 b2 3c 4a a8 ae bb 00 5d 55 bc
       -0.001397414 0.021737864 -0.00533012 -0.013022661
000120 02 ec cd 3c 85 50 9c 3a cd 8f 62 bc e4 bb a5 bc
       0.025136951 0.0011925852 -0.01382823 -0.020231195
000130 02 0d 95 3c 3a 25 24 3b 31 e3 8d bc 35 1e e8 3c
       0.01819468 0.0025046603 -0.017320247 0.028334716
000140 e8 22 80 3b fe f3 cf 3b b0 57 90 3c ec 5a d1 ba
       0.003910411 0.006346225 0.017619938 -0.0015972531
000150 7b 77 a1 3c 27 77 06 bd 4b e7 cd 3a 8b 2b b1 ba
       0.019710293 -0.032828476 0.001570919 -0.0013517005
000160 41 e2 de 3c c2 96 6a b9 3f e3 11 bd 15 e2 11 bd
       0.027207496 -0.0002237214 -0.03561711 -0.035616
000170 fc e9 da bb 36 4f 5f bc e8 15 05 bc 9b e4 04 bd
       -0.006680725 -0.013629725 -0.008122899 -0.032444578
000180 41 df 17 3d 92 eb 89 3c 76 a4 fa 3b df 89 06 3c
       0.037078146 0.016835961 0.007649 0.008211582
000190 23 48 94 bc 13 e6 31 3d 39 99 76 bc b1 9c 5b bc
       -0.018100804 0.043432306 -0.01505118 -0.013404057
0001a0 c2 7d cc bc ce 08 6b bb 40 cd 58 3c b3 b3 87 bb
       -0.02496231 -0.0035863402 0.013232529 -0.004141295
0001b0 e3 b1 1a bc f8 b3 10 bc d3 90 93 bc 82 f8 a5 3b
       -0.009441826 -0.00883197 -0.018013394 0.005065025
0001c0 b4 83 9b 3b 6d 7d b1 bc 6b b1 2b 3d 54 27 78 3c
       0.004745925 -0.021666253 0.041917246 0.015146095
0001d0 ed 3b 40 3c 67 77 f8 bc 05 7d 53 3c 28 e7 85 3c
       0.011733037 -0.030330373 0.012908225 0.016345575
0001e0 2f 65 27 bc 57 30 67 3c bf f7 a7 3c fc 91 00 bc
       -0.010216995 0.014110646 0.020503877 -0.007847305
0001f0 c3 8e b6 ba 34 c2 6f bb aa c6 27 bc 0a b6 1d 3c
       -0.0013928044 -0.003658426 -0.010240236 0.009625921
000200 90 43 49 bd c6 53 16 3d 7b e8 43 bc 95 13 5d bc
       -0.0491367 0.036700986 -0.011957283 -0.013493438
000210 9d 40 ef 3b 0e b9 75 bc 06 c4 d6 bb 23 39 0c bd
       0.0073014037 -0.014997734 -0.0065541295 -0.034234177
000220 e0 fe 15 bd d4 1e 25 bc 91 9c 9a bc 29 36 50 bc
       -0.03662002 -0.010078151 -0.018873485 -0.012708225
000230 46 fd 8b 3b 48 58 a8 bc 17 7b 00 bc ff ff 02 ba
       0.004272136 -0.020549908 -0.007841847 -0.0004997253
000240 8f 58 9a 3b 79 80 02 3d 2e 9a ff bb 3e 1c 54 3c
       0.004710264 0.031860802 -0.007800362 0.012946187
000250 2b 59 31 3b bd 26 84 3c bf c0 dd bc f6 ca 55 bb
       0.0027061205 0.016131753 -0.027069448 -0.0032622195
000260 42 d0 79 bc c6 c7 a5 bc e0 64 2f 3b 06 d2 c7 3c
       -0.015247406 -0.020236861 0.0026763007 0.02439214
000270 63 77 45 3c e1 92 27 3c 72 20 d5 bc 8e d7 4b 3c
       0.01205239 0.01022789 -0.026016448 0.012441529
000280 97 d4 37 bc fc e2 02 3c 87 3f 94 bc 74 40 a6 3c
       -0.011220119 0.007988688 -0.018096698 0.020294406
000290 9f ac 4d 3b 5c 23 6b 3c 2b 38 ca 3c 8c a6 91 bb
       0.0031383408 0.014351692 0.024684986 -0.0044449028
0002a0 27 13 3e bc 82 fd 02 bd dd 32 2d bb 88 ea 4c bc
       -0.011601246 -0.031980045 -0.0026428022 -0.0125070885
0002b0 14 52 e8 bb ce 68 57 bc 82 c9 d5 bc a9 87 ed 3c
       -0.0070898626 -0.013147546 -0.026097063 0.028995352
0002c0 1a 1c 6c 3b d5 09 49 3c 96 9b dc 3b 46 3c 34 bb
       0.0036027492 0.012270411 0.0067324145 -0.0027501746
0002d0 6d 40 bb 3a e0 2d f1 3a d0 c5 cd 3c c1 10 5e 3c
       0.0014286168 0.0018400513 0.025118738 0.013553799
0002e0 59 6f 9e 3a b3 ef c4 bc 6f b6 02 bc 42 29 6f 3b
       0.0012087628 -0.024040079 -0.007978066 0.0036493097
0002f0 59 18 88 3c ad b0 76 3c 37 28 ff 3c 14 75 09 38
       0.016613172 0.015056771 0.031147106 3.2772383e-05
000300 7b f8 1f 3c d7 a5 2c bc a3 a4 c3 bc 1c ee 2c 3c
       0.009763832 -0.010537586 -0.023882216 0.010554817
000310 a0 9a 63 3b 36 3c 38 3b fe 62 87 3a 91 fd 6e ba
       0.0034729615 0.002811206 0.0010329185 -0.0009116764
000320 df a6 d6 bc 11 72 4c bc c2 ee 82 3a fe 35 66 bc
       -0.026202617 -0.012478367 0.0009989368 -0.014050959
000330 19 d0 55 bb 6e 6b d6 3c 19 61 bd 3c 28 59 54 3c
       -0.0032625257 0.026174273 0.023117589 0.01296071
000340 ee 9a 12 3c 81 22 9c bc d3 ab 49 3c 2d 4d 1e 3c
       0.008948071 -0.019059421 0.0123090325 0.009661955
000350 96 cc 33 bc 09 42 a5 3b bf 54 51 bc 5b 53 80 bb
       -0.01097407 0.0050432724 -0.012776553 -0.0039161867
000360 33 50 b2 bb 24 69 3f bc 6c 5a 70 bb fd 54 04 bd
       -0.0054416894 -0.011682782 -0.003667499 -0.032307614
000370 7c 7a 27 bb 47 b5 55 bc 7a de e7 3b b2 93 15 bc
       -0.0025555184 -0.013043708 0.007076082 -0.009129452
000380 b6 44 e7 3c 3d df 71 3b 60 46 90 bb 4e dd ee 3c
       0.028231006 0.0036906742 -0.0044029206 0.02915826
000390 73 62 bd bc d5 87 c2 bc db 33 b1 bc c7 b8 4d bb
       -0.023118233 -0.02374641 -0.021631172 -0.0031390653
0003a0 e7 60 8f 3c 69 69 84 bc fb 9f 58 bb 69 d4 f2 bc
       0.017502261 -0.016163545 -0.003305434 -0.0296423
0003b0 7f 3b 22 3d 37 b2 76 bc 75 8d c4 ba 7b 34 5f 3b
       0.03960752 -0.015057138 -0.0014995771 0.003405838
0003c0 8b d7 2e bd 6e 7f df bc 11 0a a2 3c 96 ce a5 bc
       -0.042686027 -0.027282443 0.01978019 -0.02024011
0003d0 c3 59 68 3c 2e 1c 2a bc a6 8c a2 bc b9 79 ce 3b
       0.014181557 -0.010382695 -0.019842457 0.0063011316
0003e0 c3 96 05 bd b6 1b 1b 3b 49 1a 9c 3c ff 71 85 bc
       -0.03261448 0.002366764 0.019055502 -0.01628971
0003f0 ce 06 9a 3c e3 28 07 3d f9 da 7a 3b ba a4 41 bc
       0.018802073 0.032997977 0.003827749 -0.011819059

action_model._continuous_distribution.mu.bias f4 [2]
000000 70 a8 23 3b 7d 6b 81 3a
       0.0024972223 0.0009873953

action_model._discrete_distribution.branches.0.weight f4 [1, 128]
000000 ce 8c 33 3c 1a cc 09 bc d5 a7 70 bc c3 36 0f bb
       0.010958863 -0.008410478 -0.014688452 -0.002185271
000010 d5 c6 ec bb c5 c8 65 38 2e 48 0b 3c 97 1a 6a bb
       -0.007225851 5.4784836e-05 0.008501096 -0.0035721415
000020 4a 7d e1 3b b3 02 c3 bb 0c e4 3e bb 0a 71 1c bc
       0.0068813907 -0.0059512495 -0.0029127626 -0.009548435
000030 8a 8e 1d 3c 48 73 d3 3b 57 7b 89 bb ef 5f 2b 3c
       0.0096165035 0.0064529516 -0.0041956115 0.010459884
000040 8d b9 9d bc ad 8a 90 bb b3 56 8f 3c 6f 30 93 3c
       -0.019253517 -0.0044110627 0.017497396 0.01796743
000050 07 ec 22 39 2d 84 90 3c 47 58 d0 3b 4e 60 9f bc
       0.00015537451 0.017641151 0.0063581797 -0.019455101
000060 cb b6 c7 bb dc e6 36 3c 53 b0 a9 3b 93 3c f6 bb
       -0.0060947887 0.01116344 0.00517849 -0.007514545
000070 62 a8 c1 ba 50 bd b1 bb af d0 7a bc 15 4e 79 3c
       -0.0014774913 -0.005424179 -0.015308543 0.01521637
000080 3c dc 03 3c 00 a9 5a bb 73 9a 3f 3b 1d 1f 14 3c
       0.008048113 -0.0033364892 0.0029236346 0.009040621
000090 29 94 0a 3c a3 fd 3b 3c 7f ed 5d 3c 6b 21 31 3c
       0.008458176 0.011474046 0.013545393 0.01081119
0000a0 6d e1 2c 3c 8a 52 c2 bb 2c 2a 83 3c 53 2f 2a bc
       0.010551793 -0.0059302496 0.01601132 -0.01038726
0000b0 6a fe 6f 3b 7d d2 67 3b 1b e7 a1 3b ab fa b5 ba
       0.0036620148 0.0035373264 0.00494088 -0.0013883909
0000c0 da b3 4b 3b ee 33 1f bc 72 fa 25 ba 4b ba bb bc
       0.0031082542 -0.009716971 -0.000633157 -0.02291598
0000d0 4a f4 2a bc cb 5a 0b bb c0 c6 f7 3a f2 7b 7a 3b
       -0.01043422 -0.0021263834 0.0018903837 0.003822085
0000e0 40 00 4f 3b 20 56 94 3b 1e eb ca 3a c9 f8 9b bb
       0.0031585842 0.0045268685 0.0015481447 -0.004759882
0000f0 da 7c e0 3b de 68 0f bc 50 9a 1c bc 43 68 ed b9
       0.006850821 -0.00875303 -0.009558275 -0.00045281844
000100 93 30 35 bc b5 3d 28 bb 03 94 1a 3b 73 9c aa 3c
       -0.011058944 -0.0025671546 0.0023586757 0.020826554
000110 03 5b fe b9 b7 44 04 bc b8 7a 77 bb 3f aa 54 3c
       -0.00048514464 -0.0080730235 -0.0037762355 0.012980043
000120 ff a6 08 bc 5f b4 47 bc 8d bf 8c 3a 18 0d 5a 3b
       -0.008340596 -0.012189 0.0010738239 0.0033271965
000130 13 e0 33 bc 2b 23 45 3b f3 20 fb bb 03 c7 e8 bb
       -0.010978716 0.0030080776 -0.00766384 -0.007103802
000140 41 b1 26 bc e3 8f 3c 3c b9 0d 8f 39 8f f8 f8 3a
       -0.010174097 0.011508915 0.0002728531 0.0018994975
000150 7b 21 3e bb 72 3e 53 3b 8f 10 a5 39 36 aa 0e bc
       -0.0029011655 0.0032233265 0.0003148359 -0.008707574
000160 80 61 44 bb 53 e2 c8 bb 76 0d 9e 3b 2b 38 11 3c
       -0.002996534 -0.0061304956 0.004823382 0.008863489
000170 14 aa 89 bc b8 83 08 3c 3f a6 11 bc ae 4e 16 bc
       -0.016804732 0.008332185 -0.008889734 -0.009174032
000180 1f e7 8d 3b 23 ce 0f bc f3 73 4f ba 8b d1 7f 3a
       0.0043305303 -0.008777174 -0.0007913701 0.00097587024
000190 f0 45 ce 3b a6 9e a1 3b 10 42 54 ba 7a 38 df bb
       0.0062949583 0.0049322424 -0.0008097002 -0.0068121525
0001a0 6f 66 29 3c 60 a0 4b bc 50 6b 9f 3c 0f 7f 7e bc
       0.0103393635 -0.012428373 0.01946035 -0.015533223
0001b0 12 2e 6c ba cc 6d ba bb 7e e2 10 bb 83 e9 6f bc
       -0.00090095506 -0.0056893583 -0.0022107656 -0.014643076
0001c0 53 20 05 3b 96 86 ae ba 05 fb 6c b9 40 88 62 3a
       0.0020313456 -0.0013315256 -0.00022600226 0.00086415187
0001d0 65 3a 0c 3c db 9a de ba e1 2a 45 bc 67 ee 23 bc
       0.008558844 -0.0016983406 -0.012034149 -0.01000557
0001e0 7b 47 42 bc 8c 21 0f bc 03 46 a3 bb 63 85 f9 b8
       -0.011857863 -0.008736026 -0.0049827113 -0.000118980905
0001f0 aa 4d cd 3b bf 39 58 bc 89 12 1a bc 6d 83 61 bc
       0.006265362 -0.0131973615 -0.009403833 -0.0137642445

exp_avg f4 [128, 12]
000000 00 31 85 b3 cb 35 aa 36 39 58 8a b4 ae df a1 b5
       -6.202208e-08 5.072657e-06 -2.5768693e-07 -1.2060534e-06
000010 ca 34 3a b8 7e 62 0d b8 77 37 06 38 c4 a9 02 b8
       -4.439502e-05 -3.3708748e-05 3.1999745e-05 -3.1152522e-05
000020 00 00 00 00 d0 48 a3 37 c2 a9 02 b8 00 00 00 00
       0.0 1.946502e-05 -3.1152515e-05 0.0
000030 bc 42 aa b6 49 43 cc b7 95 46 6e 33 d5 56 81 35
       -5.0741637e-06 -2.4350027e-05 5.5477887e-08 9.63652e-07
000040 2e d9 e0 37 3c 7c 55 36 00 26 8c 37 fa 87 e8 37
       2.6804013e-05 3.1811787e-06 1.6706996e-05 2.7719874e-05
000050 00 00 00 00 39 40 ca 37 f2 87 e8 37 00 00 00 00
       0.0 2.4110182e-05 2.771986e-05 0.0
000060 fe df 91 b7 03 22 91 b8 3d 30 96 b4 a2 a7 1c b3
       -1.7389651e-05 -6.920474e-05 -2.7974775e-07 -3.647404e-08
000070 6c c7 53 36 7d 33 ea b4 3c 73 19 b7 51 a2 65 36
       3.155753e-06 -4.362336e-07 -9.146341e-06 3.421814e-06
000080 00 00 00 00 c6 e0 74 b7 49 a2 65 36 00 00 00 00
       0.0 -1.45958675e-05 3.4218122e-06 0.0
000090 0e 30 22 36 f6 ef 2d 37 eb 67 4a 33 a4 37 5d b4
       2.4167853e-06 1.0367474e-05 4.7126303e-08 -2.0602471e-07
0000a0 3e f2 2b 37 8d 07 be b5 55 f4 02 b6 23 0a 38 37
       1.0248796e-05 -1.4158301e-06 -1.951373e-06 1.0969615e-05
0000b0 00 00 00 00 a0 5f 75 34 17 0a 38 37 00 00 00 00
       0.0 2.2852191e-07 1.0969604e-05 0.0
0000c0 af d2 0d b7 96 ad f0 b7 d8 ee 90 b4 76 c5 81 b5
       -8.4533085e-06 -2.8691062e-05 -2.6995872e-07 -9.668718e-07
0000d0 08 c8 3c b8 67 21 0e b7 a5 f1 2b b7 5e 42 38 b8
       -4.5008986e-05 -8.471637e-06 -1.02486565e-05 -4.3930828e-05
0000e0 00 00 00 00 99 70 d6 b7 5c 42 38 b8 00 00 00 00
       0.0 -2.556322e-05 -4.393082e-05 0.0
0000f0 3c 4d 23 36 3f 26 57 37 2b 4c 54 b4 8d 9e 2b b5
       2.433385e-06 1.28239035e-05 -1.9771748e-07 -6.3933186e-07
000100 e0 26 29 b8 47 04 25 b8 e7 85 1b b8 9a d1 c2 b7
       -4.0328945e-05 -3.934305e-05 -3.7079586e-05 -2.3224206e-05
000110 00 00 00 00 aa 00 ba b7 97 d1 c2 b7 00 00 00 00
       0.0 -2.2173237e-05 -2.32242e-05 0.0
000120 eb 3d 3d b6 47 ad fa b6 8c 23 a6 b4 50 38 0c b5
       -2.8199236e-06 -7.4707527e-06 -3.0945773e-07 -5.223601e-07
000130 6a 74 97 b8 15 62 5f b8 cd af 2b b8 fe fe 4d b8
       -7.221925e-05 -5.325869e-05 -4.0933304e-05 -4.911329e-05
000140 00 00 00 00 77 45 8c b7 ff fe 4d b8 00 00 00 00
       0.0 -1.6721648e-05 -4.9113292e-05 0.0
000150 ca 58 99 b5 28 57 c5 b6 66 d3 9f 33 fb b3 02 34
       -1.1425229e-06 -5.881204e-06 7.4424676e-08 1.217267e-07
000160 52 34 bc 37 e7 34 b4 b6 ec 92 51 b6 34 bc da 37
       2.243571e-05 -5.3705767e-06 -3.1228947e-06 2.6075264e-05
000170 00 00 00 00 30 41 8b 36 31 bc da 37 00 00 00 00
       0.0 4.1501116e-06 2.6075259e-05 0.0
000180 80 08 90 36 58 01 cb 37 19 fc 70 b4 09 26 d9 b5
       4.292524e-06 2.4200112e-05 -2.2443454e-07 -1.617883e-06
000190 07 92 57 b8 06 f2 5a b7 42 5a 56 b8 18 e3 4e b8
       -5.1395993e-05 -1.3050163e-05 -5.1105635e-05 -4.9325725e-05
0001a0 00 00 00 00 23 cc 6d b8 21 e3 4e b8 00 00 00 00
       0.0 -5.669532e-05 -4.9325758e-05 0.0
0001b0 ea cb 16 36 f4 68 2d 37 91 d9 9a b3 0e e9 21 30
       2.2470435e-06 1.033604e-05 -7.210759e-08 5.890265e-10
0001c0 05 70 3f b8 68 b9 70 36 43 f5 3b b6 6a 82 4d b8
       -4.5642275e-05 3.5870708e-06 -2.8007933e-06 -4.8997266e-05
0001d0 00 00 00 00 16 c7 15 b7 6b 82 4d b8 00 00 00 00
       0.0 -8.927445e-06 -4.899727e-05 0.0
0001e0 c2 9b 07 37 1e 29 14 38 46 1a 4b 33 b5 94 54 b5
       8.082892e-06 3.5324243e-05 4.7288516e-08 -7.919255e-07
0001f0 de 77 86 b7 98 3e f5 b6 90 ab 03 b7 6e fa 6e b7
       -1.6029862e-05 -7.308856e-06 -7.8481535e-06 -1.4244213e-05
000200 00 00 00 00 05 dd 3a b7 7e fa 6e b7 00 00 00 00
       0.0 -1.1137924e-05 -1.4244228e-05 0.0
000210 ec a0 ed b5 47 60 00 b7 a6 21 5f b3 3a b5 d9 33
       -1.770471e-06 -7.651811e-06 -5.1951837e-08 1.0137815e-07
000220 a6 c2 8a b5 b3 9c 04 36 8e cc 7d 36 40 14 fd b5
       -1.0338451e-06 1.9760744e-06 3.7819004e-06 -1.8855862e-06
000230 00 00 00 00 18 b8 5b 36 56 14 fd b5 00 00 00 00
       0.0 3.27407e-06 -1.8855887e-06 0.0
000240 b5 26 74 36 14 ff 86 37 04 41 5b 33 d1 b0 e3 b4
       3.6381364e-06 1.6092825e-05 5.1049042e-08 -4.2410696e-07
000250 54 1e 7c b7 79 85 5b b7 74 ca ec 35 10 66 23 b7
       -1.5027432e-05 -1.3084494e-05 1.7642292e-06 -9.73932e-06
000260 00 00 00 00 e3 18 dd 36 12 66 23 b7 00 00 00 00
       0.0 6.5892104e-06 -9.739322e-06 0.0
000270 c6 32 65 35 c6 23 61 36 35 4d de 31 0c e1 df b1
       8.5383033e-07 3.3548436e-06 6.469828e-09 -6.515739e-09
000280 00 b9 d6 32 9b d1 b5 b5 b2 02 05 37 69 ad 38 35
       2.4997007e-08 -1.3546554e-06 7.928045e-06 6.8797686e-07
000290 00 00 00 00 42 11 d7 36 67 ad 38 35 00 00 00 00
       0.0 6.4095084e-06 6.8797675e-07 0.0
0002a0 35 e8 e9 b6 ac a1 e7 b7 c6 f5 02 b4 c0 70 3f b2
       -6.9709736e-06 -2.761263e-05 -1.2196605e-07 -1.11433e-08
0002b0 44 c4 f7 b5 c6 ed ea 35 77 20 c5 b7 fa b5 3b b6
       -1.8460055e-06 1.750356e-06 -2.3499348e-05 -2.7971096e-06
0002c0 00 00 00 00 38 b2 fb b7 e7 b5 3b b6 00 00 00 00
       0.0 -3.0004521e-05 -2.7971053e-06 0.0
0002d0 a0 07 a7 b2 21 1b 55 b5 48 64 97 b2 b9 61 29 34
       -1.9444826e-08 -7.938816e-07 -1.7624316e-08 1.5774903e-07
0002e0 18 22 8e b6 c8 a1 88 b6 d8 d1 13 37 b7 1b 0d b6
       -4.235899e-06 -4.0719497e-06 8.810741e-06 -2.102677e-06
0002f0 00 00 00 00 5a 39 47 37 e0 1b 0d b6 00 00 00 00
       0.0 1.18746775e-05 -2.1026863e-06 0.0
000300 30 db f0 b5 35 f2 99 b6 a7 88 61 b4 ba 77 0d b5
       -1.7945185e-06 -4.587952e-06 -2.1004472e-07 -5.270082e-07
000310 60 d3 0e b8 e0 05 bc b7 74 45 14 b7 9d 56 d1 b7
       -3.4052297e-05 -2.2414082e-05 -8.837658e-06 -2.4955074e-05
000320 00 00 00 00 80 07 66 b6 9a 56 d1 b7 00 00 00 00
       0.0 -3.4277036e-06 -2.4955069e-05 0.0
000330 3d 31 a4 b6 24 b1 e5 b7 68 c3 63 34 66 3b db 35
       -4.893313e-06 -2.7381415e-05 2.1212111e-07 1.6334059e-06
000340 d8 8c 89 38 7f 00 90 37 69 27 15 38 64 00 82 38
       6.558903e-05 1.7166369e-05 3.5561072e-05 6.198956e-05
000350 00 00 00 00 e7 e1 48 38 64 00 82 38 00 00 00 00
       0.0 4.7894104e-05 6.198956e-05 0.0
000360 9a e8 21 b5 46 18 a7 b6 3b f2 fb 33 0e 00 1c 35
       -6.0315654e-07 -4.9798136e-06 1.173216e-07 5.811461e-07
000370 6d 8f b1 37 de bc a3 37 3a 3e e4 37 44 a3 5c 37
       2.1166832e-05 1.9519062e-05 2.7208695e-05 1.3151035e-05
000380 00 00 00 00 5d fa c5 37 45 a3 5c 37 00 00 00 00
       0.0 2.3600815e-05 1.3151036e-05 0.0
000390 00 32 39 b7 6d 2d 51 b8 aa ab 8e 33 f7 e3 aa 35
       -1.1038501e-05 -4.987179e-05 6.643616e-08 1.2732334e-06
0003a0 a5 db 55 38 9f 03 1e 37 10 b5 a4 37 e2 52 52 38
       5.0987717e-05 9.418377e-06 1.9634637e-05 5.0145092e-05
0003b0 00 00 00 00 1d 06 ea 37 e3 52 52 38 00 00 00 00
       0.0 2.789782e-05 5.0145096e-05 0.0
0003c0 1e c0 51 36 3a ba 67 37 90 c1 af 30 e7 1c aa b4
       3.1255254e-06 1.3812032e-05 1.278794e-09 -3.1685997e-07
0003d0 15 5c 5f b7 16 07 10 b7 33 28 ea b6 a5 34 28 b7
       -1.3313275e-05 -8.584719e-06 -6.9784232e-06 -1.0025838e-05
0003e0 00 00 00 00 62 65 8d b6 a1 34 28 b7 00 00 00 00
       0.0 -4.21393e-06 -1.0025834e-05 0.0
0003f0 99 92 5d b5 4c fd 01 b7 6a c5 49 34 01 86 7a 35
       -8.2542243e-07 -7.747974e-06 1.8791403e-07 9.332726e-07

exp_avg_sq f4 [128, 12]
000000 18 37 1d 2e e0 96 11 30 de 5f b5 28 95 0e 17 2b
       3.57466e-11 5.29651e-10 2.0136613e-14 5.3666213e-13
000010 e9 51 bb 30 50 04 65 30 a8 03 8a 31 0f eb c8 30
       1.3629321e-09 8.3315843e-10 4.0167443e-09 1.4618723e-09
000020 00 00 00 00 9f c3 55 31 11 eb c8 30 00 00 00 00
       0.0 3.1106777e-09 1.4618725e-09 0.0
000030 f7 25 23 2d a3 a1 19 2f 77 af a9 27 89 51 3d 2a
       9.273907e-12 1.3972694e-10 4.7097162e-15 1.681486e-13
000040 0f 75 26 30 b1 55 24 2e 70 4b 03 2f 74 46 37 30
       6.05568e-10 3.7365392e-11 1.1941181e-10 6.667513e-10
000050 00 00 00 00 4c 0b 0e 2f 74 46 37 30 00 00 00 00
       0.0 1.2918838e-10 6.667513e-10 0.0
000060 6e ed f1 2d 5a 51 01 30 58 0c 73 28 c4 84 d2 2a
       2.7503968e-11 4.7045534e-10 1.3491886e-14 3.7395618e-13
000070 f8 ee 25 30 e3 c7 34 2e 24 d5 09 30 03 03 15 30
       6.0366245e-10 4.1104797e-11 5.01432e-10 5.4210164e-10
000080 00 00 00 00 05 8f 05 30 04 03 15 30 00 00 00 00
       0.0 4.858836e-10 5.421017e-10 0.0
000090 f4 f0 80 2c 2d 25 78 2e e7 04 03 27 9c 6c 10 29
       3.66473e-12 5.642169e-11 1.818256e-15 3.2068627e-14
0000a0 f6 8a 8f 2f 0c 04 62 2e fe 11 2d 2f 5e 1b 8e 2f
       2.6110286e-10 5.1390045e-11 1.574065e-10 2.5849095e-10
0000b0 00 00 00 00 fd 44 06 2f 5e 1b 8e 2f 00 00 00 00
       0.0 1.2211739e-10 2.5849095e-10 0.0
0000c0 24 7b 50 2d a2 ae 3f 2f 01 82 32 28 fb 1e a0 2a
       1.1850774e-11 1.7433391e-10 9.909175e-15 2.8443206e-13
0000d0 73 04 bc 2f 3a b6 0e 2e 2f 5a 39 30 49 4d ab 2f
       3.4200162e-10 3.244891e-11 6.7430767e-10 3.1159633e-10
0000e0 00 00 00 00 9f 2c 3f 30 46 4d ab 2f 00 00 00 00
       0.0 6.9548806e-10 3.1159625e-10 0.0
0000f0 ea 74 c1 2c 63 ab a0 2e 16 df b3 27 48 52 14 2a
       5.49837e-12 7.306402e-11 4.992435e-15 1.3173588e-13
000100 ff f9 e9 2f 3f fb 4b 30 4c 9e b3 2f 63 da b8 2f
       4.2560086e-10 7.420801e-10 3.2672387e-10 3.3624578e-10
000110 00 00 00 00 7d 36 0b 2f 5e da b8 2f 00 00 00 00
       0.0 1.2661334e-10 3.3624564e-10 0.0
000120 be 3b 6e 2d 0b d5 4b 2f aa 06 a7 28 bc 2a 95 2a
       1.3541999e-11 1.853843e-10 1.8543615e-14 2.649737e-13
000130 8c aa a1 30 75 78 4e 31 91 17 a8 30 0e 80 3b 30
       1.1762764e-09 3.0045417e-09 1.2230307e-09 6.821218e-10
000140 00 00 00 00 05 f3 80 2f 0c 80 3b 30 00 00 00 00
       0.0 2.345574e-10 6.821217e-10 0.0
000150 92 50 fe 2c 18 a7 d0 2e 5c ab bb 27 85 6b a7 29
       7.2280593e-12 9.488427e-11 5.2088715e-15 7.4349415e-14
000160 23 9d 56 30 f8 4b 00 2e 20 4d 7e 2f ab e0 73 30
       7.807605e-10 2.9171304e-11 2.3128566e-10 8.872216e-10
000170 00 00 00 00 95 44 79 2f a8 e0 73 30 00 00 00 00
       0.0 2.2670783e-10 8.872214e-10 0.0
000180 b0 ee b7 2d 9c 9c a1 2f 9d 6b 62 28 96 3a f4 2a
       2.091069e-11 2.9397007e-10 1.2568855e-14 4.338376e-13
000190 41 0e ad 30 0f ae 7c 2e 51 7a f7 2f a8 3f bb 30
       1.2591458e-09 5.745276e-11 4.501595e-10 1.3624133e-09
0001a0 00 00 00 00 8c 67 03 30 a5 3f bb 30 00 00 00 00
       0.0 4.780467e-10 1.362413e-09 0.0
0001b0 89 4e d3 2c 5c 2f ae 2e 59 80 d3 27 ea 72 9d 29
       6.0057e-12 7.9210166e-11 5.870342e-15 6.992135e-14
0001c0 ea e4 81 30 6f a2 ae 2d 2b 88 9f 2e ad 71 93 30
       9.451047e-10 1.9853645e-11 7.254671e-11 1.0727966e-09
0001d0 00 00 00 00 b0 cc 98 2e a9 71 93 30 00 00 00 00
       0.0 6.9485195e-11 1.0727962e-09 0.0
0001e0 6c e1 2a 2d 0d 6f 3b 2f 02 5f 56 27 8b 82 1b 2a
       9.713435e-12 1.7047004e-10 2.974997e-15 1.3812057e-13
0001f0 e4 23 d7 2f a5 95 86 2d 1f 34 e6 2e 2a 15 d7 2f
       3.9133774e-10 1.5300492e-11 1.04684476e-10 3.912331e-10
000200 00 00 00 00 86 20 e9 2e 2d 15 d7 2f 00 00 00 00
       0.0 1.06013906e-10 3.9123318e-10 0.0
000210 50 b8 7e 2b c5 14 8b 2d f2 94 5e 26 5b f2 d7 28
       9.049471e-13 1.5811694e-11 7.722358e-16 2.39749e-14
000220 50 42 5c 2e a1 58 34 2c d5 5c d7 2d 77 f4 5d 2e
       5.0081106e-11 2.5628737e-12 2.4483896e-11 5.046671e-11
000230 00 00 00 00 81 54 dd 2d 7b f4 5d 2e 00 00 00 00
       0.0 2.5162318e-11 5.0466725e-11 0.0
000240 32 fb ce 2c 81 63 d4 2e c2 8c 08 27 ba 29 42 29
       5.8827604e-12 9.658319e-11 1.8950096e-15 4.3112845e-14
000250 14 ec 73 2f 05 05 db 2d 5b 82 91 2f 46 0f 7f 2f
       2.2184593e-10 2.4899647e-11 2.646797e-10 2.3197541e-10
000260 00 00 00 00 68 de 86 2f 43 0f 7f 2f 00 00 00 00
       0.0 2.4532487e-10 2.3197537e-10 0.0
000270 ea b5 0f 2b d1 f2 0a 2d 0a e3 15 25 40 dc ee 26
       5.105626e-13 7.898308e-12 1.3000614e-16 1.6574266e-15
000280 8f 71 6b 2d d5 c9 f6 2c 56 01 50 2e bd 10 72 2d
       1.33834185e-11 7.0141484e-12 4.729491e-11 1.3759824e-11
000290 00 00 00 00 43 e6 46 2e ba 10 72 2d 00 00 00 00
       0.0 4.52245e-11 1.3759821e-11 0.0
0002a0 ed 70 3c 2d 23 75 3a 2f 74 28 87 27 fc 30 7c 29
       1.0711637e-11 1.6958217e-10 3.7513886e-15 5.5997728e-14
0002b0 de 8f 12 2f 10 e4 fc 2e 83 ac 39 30 08 11 ab 2e
       1.3329735e-10 1.1500145e-10 6.754776e-10 7.779205e-11
0002c0 00 00 00 00 7f ab 31 30 08 11 ab 2e 00 00 00 00
       0.0 6.4635935e-10 7.779205e-11 0.0
0002d0 c7 60 14 2c 77 d7 08 2e 89 9c c3 26 7f 56 3e 28
       2.1085787e-12 3.111419e-11 1.3573272e-15 1.0565875e-14
0002e0 02 de 2c 2f 07 99 05 2f 39 21 0c 2f 0b 6a 1c 2f
       1.5722182e-10 1.2150646e-10 1.2744729e-10 1.4225791e-10
0002f0 00 00 00 00 94 47 a1 2e 0b 6a 1c 2f 00 00 00 00
       0.0 7.334147e-11 1.4225791e-10 0.0
000300 56 b3 e1 2d 0a d9 d6 2f 41 c9 7a 28 dd 0a 28 2a
       2.565918e-11 3.908059e-10 1.3921428e-14 1.4925166e-13
000310 a9 a6 00 30 3d f0 f4 30 04 5e 27 31 27 b9 29 2f
       4.6802967e-10 1.7821616e-09 2.435514e-09 1.543624e-10
000320 00 00 00 00 70 c3 d7 30 28 b9 29 2f 00 00 00 00
       0.0 1.5698856e-09 1.5436241e-10 0.0
000330 55 fb 64 2d 52 15 78 2f 6e f1 1b 28 ad a1 0f 2b
       1.3016106e-11 2.2563043e-10 8.65658e-15 5.1028176e-13
000340 ca 87 70 30 c7 cb 76 2e b6 b6 f6 2f 3e 5e 58 30
       8.750446e-10 5.6114915e-11 4.4876963e-10 7.871427e-10
000350 00 00 00 00 b3 a3 0d 30 42 5e 58 30 00 00 00 00
       0.0 5.152813e-10 7.871429e-10 0.0
000360 83 ad 32 2c 56 3f 1a 2e 38 6c f2 26 0c 6b 8d 29
       2.539164e-12 3.50718e-11 1.6821456e-15 6.2802275e-14
000370 78 14 20 2f 21 e1 83 2e b9 d1 ff 2e c8 a6 11 2f
       1.4559187e-10 5.997181e-11 1.1633312e-10 1.3246926e-10
000380 00 00 00 00 95 08 e1 2e c6 a6 11 2f 00 00 00 00
       0.0 1.023334e-10 1.3246923e-10 0.0
000390 fa 81 98 2d 72 07 b3 2f c1 70 0c 28 38 69 fa 2a
       1.733812e-11 3.25652e-10 7.796011e-15 4.448193e-13
0003a0 24 a6 4a 30 c8 b1 91 2e a5 07 f9 2f d5 46 32 30
       7.372327e-10 6.625417e-11 4.5298268e-10 6.485668e-10
0003b0 00 00 00 00 a1 db f8 2f dd 46 32 30 00 00 00 00
       0.0 4.5266993e-10 6.4856726e-10 0.0
0003c0 78 ea 98 2b 99 78 a3 2d e7 81 99 25 07 52 54 28
       1.0865328e-12 1.858451e-11 2.6629294e-16 1.1786151e-14
0003d0 fc 24 19 2e da e5 41 2d 8a e2 31 2d 05 3f 1e 2e
       3.482102e-11 1.1021817e-11 1.0111587e-11 3.5981013e-11
0003e0 00 00 00 00 fd 83 0d 2d 05 3f 1e 2e 00 00 00 00
       0.0 8.044229e-12 3.5981013e-11 0.0
0003f0 81 62 1c 2d 63 a6 1b 2f c0 1a a5 27 4f ed 5d 2a
       8.889446e-12 1.415628e-10 4.5825702e-15 1.9711076e-13
