results/SlayRL_001/SlayTheSquire_RL/SlayTheSquire_RL-0.onnx (onnx, 81835 bytes, 9 tensors)

network_body.observation_encoder.processors.0.normalizer.running_mean f4 [12]
0	0x00000000	0.0
1	0x00000000	0.0
2	0x00000000	0.0
3	0x00000000	0.0
4	0x00000000	0.0
5	0x00000000	0.0
6	0x00000000	0.0
7	0x00000000	0.0
8	0x00000000	0.0
9	0x00000000	0.0
10	0x00000000	0.0
11	0x00000000	0.0

network_body._body_endoder.seq_layers.0.weight f4 [128, 12]
0	0xbe897a9d	-0.2685136
1	0xbf336741	-0.7007943
2	0x3eb8d61f	0.3610086
3	0xba59264c	-0.00082836
4	0x3e9f3e7c	0.3110236
5	0x3d922926	0.07136755
6	0xbf3026f8	-0.6880946
7	0x3e0256fe	0.12728497
8	0xbda34d14	-0.07973686
9	0x3ed15a44	0.4088918
10	0xbe6e6e08	-0.23284161
11	0x3cd3002c	0.025756918
12	0xbe12a5e0	-0.14321089
13	0x3d2a984f	0.04164916
14	0x3e98efff	0.29870602
15	0xbe1c63e1	-0.15272476
16	0xbe326bab	-0.17423885
17	0x3e66b5b1	0.22530247
18	0xbe37f7f1	-0.17965676
19	0x3b974d99	0.0046174047
20	0x3d0ceb51	0.034404103
21	0xbdef97b7	-0.11698859
22	0xbe923ed0	-0.28563547
23	0x3e898f0e	0.26866955
24	0x3f0b0dbb	0.54317826
25	0x3e92a4ee	0.28641456
26	0x3c8a1f86	0.016860735
27	0x3e904260	0.2817564
28	0x3e3c8bc7	0.18412696
29	0xbe22344b	-0.1584026
30	0x3ce91dce	0.028456595
31	0xbf09b9af	-0.53798956
32	0xbd981e62	-0.0742767
33	0x3f13019a	0.5742432
34	0xbdbc2ed7	-0.091886215
35	0x3d8746d1	0.06605304
36	0x3e2c011a	0.16797295
37	0xbed60133	-0.4179779
38	0xbca78b5c	-0.020452194
39	0xbed49ce3	-0.41525945
40	0x3ea47724	0.32122147
41	0x3d6d694f	0.05796176
42	0xbe696f3e	-0.22796342
43	0xbe233646	-0.15938672
44	0xbd17d3a2	-0.037067063
45	0xbee4cce7	-0.44687578
46	0x3e5b12c4	0.21393877
47	0xbf0d2a1b	-0.5514237
48	0x3eb9ca82	0.36287314
49	0xbe995945	-0.2995092
50	0x3e95eaf2	0.29280812
51	0x3ea25ae0	0.31709957
52	0x3e672230	0.22571635
53	0x3e096e46	0.13420972
54	0x3e113ccb	0.14183347
55	0xbe384cff	-0.17998122
56	0x3e10b993	0.14133291
57	0xbd4d6cad	-0.05015247
58	0x3de5ebac	0.112265915
59	0x3f11529b	0.5676667
60	0x3e29e85e	0.16592547
61	0xbce316c1	-0.02772081
62	0x3e796063	0.24353175
63	0x3cf8cab7	0.0303701
64	0x3f0b06dc	0.5430734
65	0xbf163982	-0.586815
66	0x3e2184fd	0.15773387
67	0xbe8f7ed7	-0.2802646
68	0xbe8bcdd2	-0.27305466
69	0xbe95511e	-0.2916345
70	0xbe9feee5	-0.3123695
71	0x3e29212f	0.16516565
72	0xbd3dde49	-0.046354566
73	0xbda0bee0	-0.078489065
74	0xbf114ccf	-0.56757826
75	0x3e08c782	0.13357356
76	0xbdb752a1	-0.08951307
77	0xbd946be0	-0.07247138
78	0xbe951d0d	-0.29123726
79	0x3d500bf4	0.05079265
80	0xbe18b58c	-0.14913005
81	0xbefaed16	-0.49009007
82	0x3ea3a1f6	0.31959504
83	0x3ddd2e26	0.10799818
84	0xbe1b1fb5	-0.15148814
85	0x3ea48ff8	0.3214109
86	0x3eda9736	0.4269349
87	0x3e039c59	0.1285261
88	0x3e5b8a63	0.21439509
89	0x3e516bc2	0.20451263
90	0x3df99adc	0.1218774
91	0xbdc63b36	-0.09679262
92	0xbe1bcfcc	-0.15215987
93	0x3ce60cb2	0.028082225
94	0xbe14f0bb	-0.14544956
95	0x3df1479e	0.11781238
96	0x3e8558bb	0.26044258
97	0x3e26a9ce	0.16275713
98	0xbecbdc96	-0.3981673
99	0xbe222045	-0.15832622
100	0x3cf85947	0.030316008
101	0x3de67482	0.11252691
102	0x3bcc7f95	0.006240795
103	0x3e69b4f4	0.22822934
104	0x3e83ec49	0.2576621
105	0xbc0b0d20	-0.008487016
106	0xbe013e6b	-0.12621467
107	0x3bd715cc	0.0065638777
108	0xbed80065	-0.421878
109	0xbe82fcf8	-0.25583625
110	0x3ec4e1c3	0.38453493
111	0x3f2080de	0.62696636
112	0xbd0cd5b6	-0.034383498
113	0xbe064af9	-0.13114537
114	0x3e2dac78	0.16960323
115	0x3ea7fe58	0.32811236
116	0xbc479e0d	-0.012183678
117	0x3daeebec	0.08541092
118	0x3f0015c5	0.5003322
119	0x3d9d777d	0.07688806
120	0xbdd38daa	-0.10329755
121	0xbd9bf966	-0.07615928
122	0x3bbde947	0.005795631
123	0x3ea6782a	0.32513553
124	0xbf53bcfe	-0.82710254
125	0x3e3086d4	0.17238933
126	0xbdf9854b	-0.12183627
127	0xbe5fc3f7	-0.21852098
128	0xbe7febf0	-0.24992347
129	0xbeb4e822	-0.35333353
130	0x3e36aa19	0.17838325
131	0x3c537fe0	0.012908906
132	0xbe02e9e4	-0.12784535
133	0xbe9becdd	-0.3045415
134	0x3e9ac76b	0.3023027
135	0xbeacabaa	-0.3372472
136	0xbd84f105	-0.06491283
137	0xbd92fc19	-0.0717699
138	0x3cec1199	0.028816985
139	0xbe959673	-0.29216346
140	0xbed146b9	-0.4087427
141	0xbec06191	-0.37574437
142	0xbe457364	-0.192823
143	0x3d408e7f	0.047010895
144	0x3f1618c5	0.58631545
145	0xbe156137	-0.14587866
146	0x3dd71e34	0.10503808
147	0x3ed8c703	0.42339334
148	0x3d520e46	0.051283143
149	0x3eaccadd	0.33748522
150	0xbe2b188c	-0.16708583
151	0x3e7162e8	0.23572886
152	0xbef89273	-0.48549232
153	0x3e789bdd	0.24278207
154	0xbdcee956	-0.10103099
155	0x3d30110b	0.042985003
156	0xbe3de4c1	-0.18544294
157	0xbeabf69a	-0.3358658
158	0xbd477c38	-0.04870245
159	0xbe60898c	-0.2192747
160	0xbe26840d	-0.16261311
161	0x3daeae06	0.08529286
162	0xbc06d487	-0.008229381
163	0xbd84aa35	-0.06477777
164	0xbe46700c	-0.1937868
165	0xbefd0913	-0.49420986
166	0xbe2aeb5e	-0.16691348
167	0xbe2765b7	-0.16347395
168	0x3e801bc6	0.2502119
169	0x3dbce589	0.09223468
170	0xbd86f964	-0.06590536
171	0x3e0f2458	0.13978708
172	0xbe60ca9e	-0.21952292
173	0x3e3e793e	0.18600938
174	0xbd0a1226	-0.033708714
175	0xbe3bac20	-0.18327379
176	0x3ee1dc2f	0.441133
177	0xbc768eaa	-0.015048662
178	0x3ea9139c	0.33022773
179	0xbe4cc9b9	-0.19998826
180	0x3d6e1d01	0.05813313
181	0x3d663a5f	0.05620801
182	0x3ebbafd1	0.36657575
183	0xbe60f8c2	-0.21969894
184	0x3e6839b4	0.22678262
185	0x3d8196de	0.06327604
186	0xbdc63637	-0.096783094
187	0x3e04d84a	0.12973133
188	0xbefcd722	-0.49382883
189	0xbe9d5803	-0.3073121
190	0x3edaf5d0	0.42765665
191	0xbdb4c316	-0.08826272
192	0xbe9f3988	-0.3109858
193	0xbce0f3f1	-0.02746007
194	0xbdeeccef	-0.11660182
195	0x3ea74ef6	0.3267743
196	0xbf1a674d	-0.60313874
197	0xbf15cc26	-0.5851463
198	0xbeea2d63	-0.45737752
199	0x3eb36e88	0.35045266
200	0x3e95ced0	0.29259348
201	0x3e6a1e2d	0.22863074
202	0xbde763d2	-0.11298336
203	0x3f435cd5	0.76313525
204	0xbd9ba813	-0.07600417
205	0xbdac33fb	-0.08408352
206	0x3f1b2811	0.6060801
207	0xbcce58ec	-0.025188886
208	0x3e3fffe9	0.18749966
209	0xbeaf3048	-0.34216523
210	0xbe124db6	-0.14287457
211	0xbec0b327	-0.37636682
212	0xbe63d5e0	-0.22249556
213	0xbe83acb1	-0.2571769
214	0x3d8fb2f4	0.070165545
215	0xbdcdc2d3	-0.100469254
216	0xbd135251	-0.035967175
217	0xbdbeb033	-0.09310951
218	0x3e69498b	0.2278196
219	0x3d55e766	0.052222632
220	0xbe344267	-0.17603455
221	0x3d74ce04	0.059766784
222	0xbe625b9e	-0.22105262
223	0x3edc9627	0.43083307
224	0x3dfacbf8	0.12245935
225	0xbe87ca93	-0.2652174
226	0xbd9ecfe1	-0.077544935
227	0xbf22135a	-0.6331078
228	0x3e90ee49	0.28306797
229	0xbec782f5	-0.389671
230	0x3e92b57a	0.2865408
231	0xbd5537ba	-0.052055098
232	0xbf05ef1c	-0.52317977
233	0xbe022eb7	-0.12713133
234	0xbe0f0635	-0.13967212
235	0x3e2ae505	0.16688927
236	0xbe857bec	-0.26071107
237	0xbe98849b	-0.2978867
238	0xbe0c271d	-0.13686796
239	0xbdde736d	-0.108618595
240	0x3da3ac53	0.079918526
241	0x3e93f296	0.28896016
242	0xbd0b1265	-0.03395309
243	0x3ec8167b	0.3907965
244	0xbd942453	-0.07233491
245	0x3d332906	0.043740295
246	0x3e184928	0.14871657
247	0xbb7441cd	-0.0037270666
248	0xbc056539	-0.008141809
249	0x3d39a877	0.045326676
250	0xbf0f3c9a	-0.55951846
251	0xbce26c30	-0.027639478
252	0xbe172ac6	-0.1476241
253	0xbe5ee35e	-0.21766421
254	0x3e49b29a	0.19697037
255	0xbe1bb661	-0.15206291

network_body._body_endoder.seq_layers.0.bias f4 [128]
0	0x00000000	0.0
1	0x00000000	0.0
2	0x00000000	0.0
3	0x00000000	0.0
4	0x00000000	0.0
5	0x00000000	0.0
6	0x00000000	0.0
7	0x00000000	0.0
8	0x00000000	0.0
9	0x00000000	0.0
10	0x00000000	0.0
11	0x00000000	0.0
12	0x00000000	0.0
13	0x00000000	0.0
14	0x00000000	0.0
15	0x00000000	0.0
16	0x00000000	0.0
17	0x00000000	0.0
18	0x00000000	0.0
19	0x00000000	0.0
20	0x00000000	0.0
21	0x00000000	0.0
22	0x00000000	0.0
23	0x00000000	0.0
24	0x00000000	0.0
25	0x00000000	0.0
26	0x00000000	0.0
27	0x00000000	0.0
28	0x00000000	0.0
29	0x00000000	0.0
30	0x00000000	0.0
31	0x00000000	0.0
32	0x00000000	0.0
33	0x00000000	0.0
34	0x00000000	0.0
35	0x00000000	0.0
36	0x00000000	0.0
37	0x00000000	0.0
38	0x00000000	0.0
39	0x00000000	0.0
40	0x00000000	0.0
41	0x00000000	0.0
42	0x00000000	0.0
43	0x00000000	0.0
44	0x00000000	0.0
45	0x00000000	0.0
46	0x00000000	0.0
47	0x00000000	0.0
48	0x00000000	0.0
49	0x00000000	0.0
50	0x00000000	0.0
51	0x00000000	0.0
52	0x00000000	0.0
53	0x00000000	0.0
54	0x00000000	0.0
55	0x00000000	0.0
56	0x00000000	0.0
57	0x00000000	0.0
58	0x00000000	0.0
59	0x00000000	0.0
60	0x00000000	0.0
61	0x00000000	0.0
62	0x00000000	0.0
63	0x00000000	0.0
64	0x00000000	0.0
65	0x00000000	0.0
66	0x00000000	0.0
67	0x00000000	0.0
68	0x00000000	0.0
69	0x00000000	0.0
70	0x00000000	0.0
71	0x00000000	0.0
72	0x00000000	0.0
73	0x00000000	0.0
74	0x00000000	0.0
75	0x00000000	0.0
76	0x00000000	0.0
77	0x00000000	0.0
78	0x00000000	0.0
79	0x00000000	0.0
80	0x00000000	0.0
81	0x00000000	0.0
82	0x00000000	0.0
83	0x00000000	0.0
84	0x00000000	0.0
85	0x00000000	0.0
86	0x00000000	0.0
87	0x00000000	0.0
88	0x00000000	0.0
89	0x00000000	0.0
90	0x00000000	0.0
91	0x00000000	0.0
92	0x00000000	0.0
93	0x00000000	0.0
94	0x00000000	0.0
95	0x00000000	0.0
96	0x00000000	0.0
97	0x00000000	0.0
98	0x00000000	0.0
99	0x00000000	0.0
100	0x00000000	0.0
101	0x00000000	0.0
102	0x00000000	0.0
103	0x00000000	0.0
104	0x00000000	0.0
105	0x00000000	0.0
106	0x00000000	0.0
107	0x00000000	0.0
108	0x00000000	0.0
109	0x00000000	0.0
110	0x00000000	0.0
111	0x00000000	0.0
112	0x00000000	0.0
113	0x00000000	0.0
114	0x00000000	0.0
115	0x00000000	0.0
116	0x00000000	0.0
117	0x00000000	0.0
118	0x00000000	0.0
119	0x00000000	0.0
120	0x00000000	0.0
121	0x00000000	0.0
122	0x00000000	0.0
123	0x00000000	0.0
124	0x00000000	0.0
125	0x00000000	0.0
126	0x00000000	0.0
127	0x00000000	0.0

network_body._body_endoder.seq_layers.2.weight f4 [128, 128]
0	0xbd4a953a	-0.04945872
1	0xbdf1dec0	-0.11810064
2	0x3dde66f2	0.10859479
3	0xbc87b910	-0.016567737
4	0xbd8617f4	-0.065475374
5	0x3df901d0	0.12158549
6	0xbe2f8825	-0.17141779
7	0x3d5693c8	0.05238703
8	0x3d39d8d8	0.045372814
9	0x3dcfc045	0.101440944
10	0xbd28bb36	-0.041194163
11	0x3d116edf	0.035506126
12	0xbd0476ab	-0.032339733
13	0xbdb73966	-0.08946495
14	0xbe2cef19	-0.16888084
15	0x3e1e07ba	0.15432635
16	0x3d11fdfd	0.035642613
17	0x3c589bb0	0.013220713
18	0xbd8f5088	-0.06997782
19	0xbb33c2e2	-0.0027429392
20	0xbdd43e8f	-0.103634946
21	0xbc82d5bd	-0.015971059
22	0x3e64357e	0.2228603
23	0x3cf1ca7b	0.029515496
24	0xbd3e0aa4	-0.046396866
25	0x3cd37839	0.025814163
26	0x3df27489	0.118386336
27	0xbdcd6a59	-0.1003005
28	0xbddfedb3	-0.109340094
29	0x3d49b620	0.049245954
30	0x3bfe69e9	0.0077640903
31	0x3e094fa4	0.13409287
32	0xbd38c165	-0.04510631
33	0x3c48ba14	0.012251396
34	0x3d8adc17	0.0678026
35	0xbd4f6ddb	-0.050641876
36	0xbd3aa578	-0.04556796
37	0x3dc86f45	0.09786848
38	0x3d325a46	0.043543123
39	0x3df36089	0.11883647
40	0xbd1a365a	-0.03764949
41	0x3aa4ac3e	0.0012563539
42	0x3d232510	0.039830267
43	0xbe4db5e5	-0.20088919
44	0x3ccdc9e0	0.025120676
45	0x3d52c301	0.0514555
46	0xbd832368	-0.064032376
47	0x3d0b036f	0.03393882
48	0x3e428999	0.18997802
49	0xbd406855	-0.0469745
50	0x3e0f1778	0.13973796
51	0x3d36f6cf	0.04466897
52	0x3dc63e47	0.09679847
53	0xbdca5e8e	-0.09881316
54	0xbbab53f9	-0.005228516
55	0x3d82bdb9	0.06383843
56	0xbd1d95ff	-0.038473126
57	0xbdc6649b	-0.09687158
58	0x3bf66885	0.007519784
59	0x3bb6d7c3	0.00557992
60	0xbdf838e4	-0.12120226
61	0xbd10dc1a	-0.035366155
62	0xbdaf0b36	-0.0854706
63	0x3c88d226	0.01670177
64	0xbc374be9	-0.011187532
65	0xbdb2325e	-0.08701013
66	0x3c8a3cd2	0.016874705
67	0x3e125658	0.1429075
68	0x3da82d6a	0.08211787
69	0xbd4e0a66	-0.050302885
70	0xbc8a1eab	-0.016860327
71	0x3d5ee32a	0.05441586
72	0x3d9695be	0.0735278
73	0x3cc49298	0.023995683
74	0x3a01f634	0.00049576466
75	0xbde65602	-0.112468734
76	0x3db1247e	0.086495385
77	0xbd232aae	-0.039835624
78	0xbdb286ca	-0.08717115
79	0xbc3f4b5a	-0.01167568
80	0x3e143398	0.14472806
81	0x3e57d8f9	0.21078862
82	0xbddf794c	-0.109118074
83	0x3d4abe7a	0.04949806
84	0x3dbb92d6	0.09158866
85	0x3d8d00d3	0.06884923
86	0xba04f654	-0.0005072106
87	0x3e355ec2	0.17711928
88	0x3e874950	0.2642312
89	0xbb46054c	-0.003021556
90	0x3d0c1c9f	0.034206983
91	0xbda1c89a	-0.0789959
92	0xbddececd	-0.10879288
93	0x3c3ace04	0.011401657
94	0xbde83e58	-0.11340016
95	0xbd80b06d	-0.062836505
96	0xbd8fdde6	-0.07024746
97	0x3cd13844	0.025539525
98	0xbe574207	-0.21021281
99	0xbe186a6d	-0.14884348
100	0x3d21bd05	0.039486904
101	0xbd2d51a2	-0.04231418
102	0xbe0e48a7	-0.13894902
103	0xbcb52539	-0.022112476
104	0xbd9efd1d	-0.07763121
105	0x3c10cdb5	0.008838107
106	0x3e42db5b	0.1902899
107	0xbd8a6bfe	-0.06758879
108	0xbd85f13c	-0.065401524
109	0x3e055ba7	0.13023244
110	0xbdaf1803	-0.08549502
111	0x3baa4118	0.005195748
112	0xbdade9a2	-0.084918275
113	0xbd14297c	-0.036172375
114	0xbe8ca73c	-0.2747134
115	0x3dd2111e	0.10257171
116	0xbdac3415	-0.08408371
117	0xbe06f10c	-0.1317789
118	0x3d5e76bd	0.054312456
119	0x3d8c50c3	0.068513416
120	0xbd7a8496	-0.0611616
121	0xbb8e306e	-0.0043392694
122	0x3bbe39cc	0.00580523
123	0xbcb25cfb	-0.021772852
124	0xbe446341	-0.19178487
125	0xbdb6bf8f	-0.08923256
126	0x3e25d2bb	0.16193669
127	0x3b2005b1	0.0024417455
128	0x3e0b767a	0.13619414
129	0xbdb5d760	-0.0887897
130	0xbd1eaec2	-0.03874088
131	0x3d4b7634	0.049673274
132	0xbc954d51	-0.018225344
133	0xbd1f64d4	-0.038914517
134	0xbc2d32bd	-0.010571179
135	0x3d5bbec5	0.05364873
136	0xbd28f619	-0.041250322
137	0xbab8a79a	-0.0014088035
138	0x3e5bab98	0.21452177
139	0x3e135887	0.14389239
140	0x3dca04ef	0.09864222
141	0xbdb867d0	-0.09004176
142	0xbdac777b	-0.084212266
143	0x3dbf2d5d	0.09334824
144	0x3c2975a1	0.010342986
145	0x3d460f5d	0.048354495
146	0x3ca85687	0.020549072
147	0x3d2fe1a8	0.042939812
148	0xbd25c23e	-0.040468447
149	0x3e2824ee	0.16420338
150	0x3d05600b	0.032562297
151	0xbd6769d5	-0.056497414
152	0x3cc48e22	0.023993555
153	0xbd6d9fcf	-0.058013733
154	0xbcbb480c	-0.022861503
155	0x3dc7a59f	0.097483866
156	0xbdf815ca	-0.12113531
157	0x3b6298ca	0.0034575933
158	0x3d821ca7	0.06353121
159	0xbdd67e21	-0.10473276
160	0xbd53122f	-0.051531013
161	0xbd70d4c0	-0.058796644
162	0xbe56084a	-0.209016
163	0xbd54ac29	-0.051921997
164	0x3d65ba87	0.05608609
165	0xbd5c87c3	-0.05384041
166	0xbd39759e	-0.045278184
167	0x3d25f26a	0.040514387
168	0x3d30276b	0.043006342
169	0x3dc2b5e5	0.0950735
170	0xbc8d489c	-0.017246537
171	0xbd647708	-0.05577758
172	0x3c62677f	0.013818621
173	0xbc9fa882	-0.01948953
174	0x3e7938c3	0.24338059
175	0x3d843264	0.06454924
176	0x3e15f8f2	0.14645746
177	0xbcaa924a	-0.02082171
178	0x3df324b4	0.11872235
179	0x3ccb14a6	0.02479012
180	0x3c306682	0.010766627
181	0x3b9e789e	0.004836156
182	0x3e5d619d	0.21619268
183	0x3da2dc99	0.07952232
184	0x3d8cec28	0.06880981
185	0x3df7c90d	0.12098894
186	0xbd86d82c	-0.065842
187	0xbbb0605d	-0.005382581
188	0xbd0a65ab	-0.033788364
189	0x3e27b5ff	0.1637802
190	0x3dc28718	0.09498423
191	0xbd31a6d8	-0.043372005
192	0xbe389788	-0.18026555
193	0x3d179e91	0.037016455
194	0xbdbdbe35	-0.09264795
195	0x3cda3a1d	0.026639039
196	0xbd6439b7	-0.055719104
197	0x3c610022	0.013732942
198	0x3d371a5a	0.044702865
199	0x3d1e4128	0.038636357
200	0xbbc51249	-0.0060141427
201	0xbd8bfa4c	-0.0683485
202	0xbddca232	-0.10773124
203	0xbda0812e	-0.07837139
204	0xbe1a8f83	-0.15093808
205	0xbd739fec	-0.059478685
206	0xbdd97c98	-0.106194675
207	0xbcbf6e57	-0.023368044
208	0x3d723b00	0.059138298
209	0x3dd60baa	0.104514435
210	0xbc2f67ac	-0.01070587
211	0x3ccd7f8a	0.02508523
212	0xbbebd9b1	-0.0071975817
213	0xbd57a894	-0.052651003
214	0x3d12a75f	0.03580415
215	0x3d7a22d6	0.06106838
216	0x3e2bdb2e	0.16782829
217	0x3c2ee1c5	0.010673945
218	0x3ca93ce9	0.020658927
219	0x3d4c3844	0.049858347
220	0xbdff5620	-0.12467599
221	0xbc9f23d2	-0.01942626
222	0x3c1324ce	0.008980943
223	0x3c3dc76f	0.011583193
224	0xbda103ba	-0.07862039
225	0xbdca069d	-0.09864543
226	0x3c281148	0.010258026
227	0xbd2196fd	-0.039450634
228	0xbd5206d0	-0.05127603
229	0x3d3cb8ae	0.04607456
230	0xbd8770da	-0.066133216
231	0xbde050e3	-0.10952928
232	0x3e04f1ba	0.12982836
233	0xbd5c5517	-0.053792085
234	0x3e2535e2	0.16133836
235	0xbe0e713e	-0.13910386
236	0x3dd22c57	0.102623634
237	0x3c9a9be9	0.018873172
238	0x3dc12685	0.09431175
239	0xbd3c2446	-0.04593303
240	0xbc5d6522	-0.0135128815
241	0x3e580254	0.21094638
242	0x3d568f89	0.05238298
243	0xbdac17fc	-0.08403012
244	0xbe0b9932	-0.13632658
245	0x3dae90e9	0.08523733
246	0xbd77c344	-0.060488954
247	0x3daf604e	0.085632905
248	0xbd74aa82	-0.05973292
249	0x3e3d9443	0.18513589
250	0x3da21c5d	0.07915566
251	0x3de7c6a3	0.11317184
252	0xbdadda46	-0.08488898
253	0xbd55ecb5	-0.052227695
254	0x3cc2ed6a	0.023794848
255	0xba5ea361	-0.0008492973

action_model._continuous_distribution.log_sigma f4 [1, 2]
0	0x00000000	0.0
1	0x00000000	0.0

action_model._continuous_distribution.mu.weight f4 [2, 128]
0	0x3adfd6d3	0.0017077572
1	0xbc1a7191	-0.00942649
2	0x3cdf1305	0.027230749
3	0x3bca269e	0.0061691543
4	0x3d018517	0.031621065
5	0x3c2150e2	0.009845944
6	0x3c0fc00f	0.008773818
7	0xbad7109a	-0.0016408146
8	0xbc6783eb	-0.014130573
9	0x3c1d1c30	0.00958924
10	0xbab720db	-0.0013971584
11	0x3cd96555	0.026537577
12	0x3c063a24	0.008192573
13	0xbd041f23	-0.032256257
14	0xbca05dd3	-0.019575989
15	0xbc6b38eb	-0.014356832
16	0x3c7a1bd2	0.015265422
17	0x3c96621b	0.018357327
18	0xbca108bb	-0.019657483
19	0xbc3f2e26	-0.0116687175
20	0xb91cc724	-0.00014951505
21	0xbd00c299	-0.031435583
22	0xbab32bb3	-0.001366964
23	0x3c9e02c9	0.019288437
24	0xbb5589e7	-0.0032583417
25	0xbc8fc97b	-0.017552128
26	0xbd1cd89e	-0.03829252
27	0x3d0843f6	0.033267938
28	0xbbbdf7c8	-0.00579736
29	0xbc62a4e8	-0.013833262
30	0x3d16cb2f	0.036814865
31	0xbc498ab7	-0.012301139
32	0x3c9b39ac	0.018948399
33	0x3c356d1c	0.011073377
34	0x3b8fecdc	0.0043922495
35	0x3cdc2440	0.026872754
36	0x3bad1859	0.0052824435
37	0xbbab8f9f	-0.005235627
38	0xbc417a29	-0.01180891
39	0xbc603162	-0.013683649
40	0xbc92880e	-0.017887142
41	0x3be7f5e5	0.0070788735
42	0x3bfca992	0.007710644
43	0xbad4f3ea	-0.0016247008
44	0x3c4b04a2	0.012391241
45	0x3c4e6625	0.012597595
46	0x3c892827	0.016742779
47	0x3c53071f	0.012880116
48	0xbc18ceff	-0.009326695
49	0x3cdffdcb	0.027342698
50	0xbcd3e152	-0.025864277
51	0x3b75ec68	0.0037524942
52	0xbcdd68a5	-0.027027437
53	0x3ca5e7af	0.020252077
54	0x3bef3c5f	0.007300898
55	0x3bb2e953	0.0054599433
56	0xbd464ec2	-0.048414953
57	0xbd232037	-0.039825644
58	0x3b330946	0.002731876
59	0x3c79345b	0.015210236
60	0x3b11a8ab	0.0022225778
61	0x3c154291	0.009110109
62	0xbc245a0c	-0.0100312345
63	0xbc136da3	-0.008998307
64	0xbc7369a5	-0.014856731
65	0xbd155f5d	-0.0364679
66	0xbc9695db	-0.018382004
67	0xbc202b68	-0.009775974
68	0xbbecdd9b	-0.007228566
69	0x3c6d58a5	0.014486467
70	0xbcb7547f	-0.022379158
71	0xbc8967a8	-0.01677306
72	0xbcbeaa67	-0.023274614
73	0x3caa8b0b	0.020818254
74	0xbc9cdf93	-0.019149577
75	0xbc4b0eb7	-0.012393645
76	0xbc3bc2ec	-0.011460047
77	0xbcaee937	-0.02135144
78	0x3c124000	0.008926392
79	0x3bb42940	0.0054980814
80	0x3cab19a2	0.020886246
81	0x3bda801a	0.006668103
82	0xbd00729f	-0.03135931
83	0xbc5b5e5f	-0.013389199
84	0x3c22bd8d	0.009932888
85	0x3c3d8555	0.011567433
86	0x3c171527	0.009221352
87	0xbc9ef23f	-0.019402621
88	0x3c9609a0	0.018315136
89	0x3c639537	0.013890556
90	0xbbf53c8b	-0.007484024
91	0xbc63095d	-0.013857213
92	0x3b10bc07	0.002208473
93	0x3c84b3df	0.01619905
94	0x3c88a596	0.01668052
95	0x3c85bf3b	0.016326537
96	0xbb7115e2	-0.0036786725
97	0x3cb93d27	0.022612168
98	0x37884412	1.6244161e-05
99	0xbc88f30f	-0.016717462
100	0x39124c74	0.00013952126
101	0xbc218a9b	-0.009859706
102	0x3ac52e4a	0.0015043702
103	0x3cb2fb36	0.021848302
104	0x3ca1dec5	0.019759545
105	0xbbc1dff8	-0.0059165917
106	0x3aa2b1ee	0.0012412646
107	0x3c8855cd	0.016642476
108	0x3b8f3705	0.0043705725
109	0x3cdf6cda	0.027273584
110	0xbb487da1	-0.0030592459
111	0xbaa130ff	-0.0012297927
112	0x3c9879c7	0.018612755
113	0xbcc1250c	-0.023577236
114	0xbcbc4e3a	-0.02298652
115	0x3c00dd73	0.007865298
116	0x3ca356de	0.019938882
117	0x3c1348ef	0.008989557
118	0x3c1f4fc4	0.009723607
119	0xba85c51a	-0.0010205836
120	0xbb92636c	-0.0044674184
121	0xbc94cdba	-0.018164504
122	0x3cc085e8	0.023501351
123	0xba5a7e75	-0.00083348836
124	0x3be5cf22	0.0070132175
125	0xbc2ff84f	-0.010740354
126	0xbbf33b30	-0.007422827
127	0xbc15d46f	-0.009144886
128	0x3b29a89c	0.0025887853
129	0xbc892bef	-0.016744582
130	0x3d051113	0.032486986
131	0x3c70cf53	0.014697867
132	0xbc048a47	-0.0080896085
133	0x3b9e9cec	0.004840484
134	0xbc2e3b47	-0.01063425
135	0x3bf276fa	0.007399437
136	0xbc2201ed	-0.009888154
137	0xbc0146ec	-0.007890444
138	0x3b9fefae	0.004880867
139	0xbbc04322	-0.005867378
140	0x3cb98070	0.022644252
141	0xbcb3ae83	-0.0219338
142	0x3b7f5002	0.00389576
143	0xbc8fe7dd	-0.017566616
144	0x3ba6ebd7	0.0050940323
145	0xbc74496f	-0.014910086
146	0x3cd072cd	0.025445366
147	0x3ca99b4e	0.020703938
148	0xbc27d8d7	-0.01024457
149	0xbd246d31	-0.040143196
150	0xbb7ad907	-0.003827633
151	0x3c44378b	0.011976133
152	0xbcb832a6	-0.022485089
153	0x3c20ea24	0.0098214485
154	0xbc05b3a2	-0.008160504
155	0xbc14a034	-0.0090713985
156	0xbc27d136	-0.010242751
157	0x3c6bb34b	0.0143860085
158	0x3cf187e5	0.029483745
159	0xbbc1af76	-0.005910809
160	0x3be25813	0.006907472
161	0x3c0393e9	0.00803087
162	0xbca8655c	-0.020556144
163	0x3ca9c990	0.020725995
164	0x3c90f462	0.017694656
165	0xbc56fd9f	-0.013121991
166	0xbc7c7d38	-0.015410714
167	0x3b4e9a85	0.0031525206
168	0xbc990e35	-0.018683532
169	0x3cbfa7bd	0.023395414
170	0x3c211cba	0.009833509
171	0xbc191df8	-0.009345524
172	0x3c199083	0.009372833
173	0xba78ffb2	-0.0009498551
174	0x3b88cb01	0.0041745906
175	0x3babb2c7	0.005239818
176	0xbd19cdff	-0.03754997
177	0xbb985513	-0.0046488135
178	0xbd116815	-0.03549965
179	0x3bc4c7f7	0.006005283
180	0x3b85a789	0.0040788096
181	0x3af2162f	0.0018469746
182	0x3c2c520b	0.010517607
183	0xbd3ef127	-0.0466167
184	0xbcfbff7d	-0.030761475
185	0xbcd5c167	-0.026093198
186	0xbb761e22	-0.0037554582
187	0xbc863ca7	-0.016386343
188	0xbc37a89b	-0.011209632
189	0xbc22dd73	-0.009940493
190	0x3bfe17a0	0.007754281
191	0xbb265f95	-0.0025386561
192	0x3c0b7968	0.008512832
193	0x3c82c297	0.015961928
194	0xbc37324d	-0.011181426
195	0xbb9b4ca4	-0.004739361
196	0x3b90dad4	0.0044206176
197	0xbbb405fa	-0.0054938765
198	0xbc97ef77	-0.018546803
199	0xbca3db8b	-0.020002147
200	0xbb8990d5	-0.0041981735
201	0xbcbf3f2f	-0.023345558
202	0x3b488636	0.0030597574
203	0xbc71dbaf	-0.014761849
204	0xbc3210b3	-0.010868239
205	0xbc5717c5	-0.013128226
206	0xbaa047eb	-0.0012228464
207	0x3cb07e67	0.021544648
208	0xbc847c2d	-0.016172493
209	0xbab52fb3	-0.001382342
210	0xbd227471	-0.03966183
211	0x3bc6a4cf	0.006062127
212	0x3c08c66a	0.008348087
213	0x3a9bac1d	0.0011876855
214	0x3c11af76	0.008891931
215	0x3bec18cf	0.007205106
216	0xba1e5a24	-0.00060406537
217	0xbbba05ce	-0.0056769615
218	0x3c99e2bc	0.018784873
219	0x3c4b1746	0.012395686
220	0x3c508baf	0.012728616
221	0x3c86238f	0.016374378
222	0xb948455f	-0.00019099329
223	0x3c00a948	0.00785286
224	0xbbe5c24d	-0.007011688
225	0xbcdc7ee8	-0.026915982
226	0x3c8966db	0.016772678
227	0x3b10dddc	0.0022104895
228	0x3bcea152	0.006305852
229	0x3bf4e79b	0.0074738986
230	0x3bdd9df3	0.006763214
231	0xbce2cc65	-0.027685354
232	0x3c4f440f	0.012650504
233	0xbc97b213	-0.01851753
234	0x3a56230f	0.0008168676
235	0xbca4b977	-0.020107968
236	0x3c201acb	0.009772013
237	0xb99335fd	-0.0002807825
238	0x3be483b0	0.006973706
239	0xbc213816	-0.009840032
240	0xbc433c25	-0.011916195
241	0x3be95c4a	0.0071215974
242	0x3c0eec1f	0.008723288
243	0x3c83c86f	0.016086785
244	0xbb97b0ea	-0.004629244
245	0xbbcefae8	-0.0063165314
246	0xbb826b00	-0.0039800406
247	0x3c98316b	0.018578252
248	0xbca47ade	-0.020078119
249	0xbc30b8e4	-0.010786269
250	0xbc90f538	-0.017695054
251	0x3c3dc18e	0.011581792
252	0x3c7cc0cf	0.0154268285
253	0xbcd97b40	-0.026548028
254	0x3bbc2a92	0.0057423795
255	0xbc667d03	-0.014067891

action_model._continuous_distribution.mu.bias f4 [2]
0	0x00000000	0.0
1	0x00000000	0.0

action_model._discrete_distribution.branches.0.weight f4 [1, 128]
0	0x3938c456	0.00017620748
1	0xbc07aa57	-0.008280358
2	0xbbc7505e	-0.0060825786
3	0x39aeb947	0.0003332591
4	0xbc709d7d	-0.014685986
5	0xba1b410b	-0.0005922473
6	0x39e38f77	0.00043403704
7	0x3a91219a	0.0011072636
8	0x3a850710	0.00101492
9	0x3c016040	0.007896483
10	0xbbb25c70	-0.0054431483
11	0xbbe8d5a8	-0.007105548
12	0x3b6d1788	0.0036177356
13	0xbb4ec597	-0.0031550878
14	0x3c24b20a	0.010052213
15	0x3b1a108f	0.0023508405
16	0x3c16de29	0.009208241
17	0x3b983a8d	0.0046456517
18	0x37a80e87	2.0033925e-05
19	0xbbe47c85	-0.0069728517
20	0x3ad2545b	0.0016046868
21	0x3b942873	0.0045214235
22	0x3b6cba9b	0.0036121968
23	0xbc40619c	-0.011742022
24	0x3bff7d42	0.0077969143
25	0x3c3c27fb	0.011484141
26	0xba0dd3a3	-0.00054102595
27	0x3bb76f89	0.005598013
28	0xb9d29b33	-0.00040169954
29	0xba3fc007	-0.0007314686
30	0xbc60485f	-0.01368913
31	0xbb6b356f	-0.0035890003
32	0xbbbb1d68	-0.0057102926
33	0x3c9a7568	0.018854812
34	0xbc94940d	-0.018137002
35	0xbb9a68d4	-0.0047122035
36	0xbb1a4273	-0.0023538142
37	0x3c9affbc	0.018920772
38	0x3c4bf8ac	0.012449425
39	0xbac5d112	-0.0015092215
40	0x3a92809b	0.0011177243
41	0x3b696d4a	0.003561812
42	0x3bb86933	0.005627775
43	0x3c8494d3	0.016184246
44	0xbc1cf8c5	-0.009580796
45	0xbb72474b	-0.0036968763
46	0xbb91b971	-0.004447155
47	0xba888302	-0.001041502
48	0xbb9aa4bc	-0.004719345
49	0x3b737357	0.0037147605
50	0x3bc41530	0.005983971
51	0x3c9e8778	0.019351706
52	0xbc6aff5a	-0.014343107
53	0x3b8ef5ff	0.004362821
54	0xbb75ade8	-0.003748769
55	0x3bd43d70	0.0064770505
56	0xbbb7af37	-0.005605604
57	0xbc60402d	-0.013687176
58	0x3a1cb6bb	0.00059781567
59	0x3b985d8b	0.004649823
60	0x3a4fcc38	0.00079268543
61	0x3ba2f9a0	0.0049736053
62	0x3af27162	0.0018496925
63	0x3bee5e6f	0.007274441
64	0xbbae9371	-0.005327635
65	0xba218157	-0.0006160936
66	0x3ad44ac8	0.0016196603
67	0xb8abc342	-8.190285e-05
68	0x3c400113	0.011719006
69	0x3bf1e293	0.007381746
70	0x3b423211	0.0029631893
71	0xba1466b3	-0.00056610553
72	0xbbbc5dcf	-0.0057484875
73	0x3c222267	0.0098958975
74	0x3b16304e	0.0022916975
75	0x3b8379d2	0.004012325
76	0xbb9989a7	-0.004685599
77	0x3ba0bfad	0.004905662
78	0x3c13d4c2	0.009022893
79	0xbb5f2c83	-0.003405363
80	0xbb93ad7b	-0.0045067645
81	0xba6b411d	-0.0008974241
82	0x398a0f10	0.00026332634
83	0xbb0621c7	-0.002046691
84	0xbc839234	-0.016060926
85	0x3c0aa987	0.00846327
86	0xbc993c27	-0.01870544
87	0xbb3cf3eb	-0.002883191
88	0x3aac6114	0.001315149
89	0x39c2cecd	0.00037156642
90	0xbbec786a	-0.007216503
91	0x3c5a1d82	0.013312699
92	0xbb67458f	-0.0035289263
93	0x3bd3b2eb	0.0064605377
94	0xbc192de6	-0.009349322
95	0x3a3d2a03	0.0007216038
96	0x3ad86d5d	0.0016512085
97	0xbbaeacaf	-0.005330644
98	0xbb30b27d	-0.0026961856
99	0x3bc0ee05	0.005887749
100	0xbc04e937	-0.008112243
101	0xbc80fe85	-0.015746364
102	0x3c91e2ae	0.017808285
103	0xbb7c3e12	-0.0038489145
104	0x3b340d2e	0.0027473676
105	0x3bb34879	0.005471286
106	0x3c6c7055	0.014431079
107	0xbb296fdc	-0.0025854027
108	0xbaf97b6b	-0.0019033974
109	0x3c3726ed	0.011178714
110	0x3c363129	0.011120119
111	0xbbf64727	-0.0075158062
112	0xbc16f089	-0.0092126215
113	0x3bd67d35	0.0065456876
114	0xbbd5b5e3	-0.0065219267
115	0xbc406334	-0.011742402
116	0xbca27a22	-0.019833628
117	0x3b12854b	0.002235728
118	0xbb853697	-0.0040653455
119	0x3c59426f	0.013260468
120	0xbb3215f4	-0.002717373
121	0x3c146d91	0.009059326
122	0x3b99d3be	0.004694431
123	0xbb0f7c53	-0.0021894171
124	0xbcb3fdec	-0.021971665
125	0x3c487515	0.012234946
126	0xbc579bfd	-0.013159749
127	0xbb81d283	-0.0039618625

onnx::Div_70 f4 [12]
0	0x3f800000	1.0
1	0x3f800000	1.0
2	0x3f800000	1.0
3	0x3f800000	1.0
4	0x3f800000	1.0
5	0x3f800000	1.0
6	0x3f800000	1.0
7	0x3f800000	1.0
8	0x3f800000	1.0
9	0x3f800000	1.0
10	0x3f800000	1.0
11	0x3f800000	1.0
