results/SlayRL_001/SlayTheSquire_RL/SlayTheSquire_RL-42257.onnx (onnx, 82288 bytes, 10 tensors)

network_body.observation_encoder.processors.0.normalizer.running_mean f4 [12]
0.95608556 -0.25839964 0.0019283744 0.75786245 0.0 0.0 0.0 0.0
0.0 0.0 0.0 0.0
00000000: 06c2 743f f54c 84be 82c1 fc3a 4603 423f
00000010: 0000 0000 0000 0000 0000 0000 0000 0000
00000020: 0000 0000 0000 0000 0000 0000 0000 0000

network_body._body_endoder.seq_layers.0.weight f4 [128, 12]
0.048828002 0.42342877 0.016575377 -0.08453439 -0.38582495 -0.1322587 -0.32478148 -0.07256018
0.08424734 0.11782391 -0.24216098 -0.02806471 -0.10216523 0.38454008 0.11595378 0.195325
-0.22017176 -0.012150227 -0.14049773 0.047898203 -0.12206144 -0.33103624 0.19099128 0.14619657
0.35370865 0.13545652 0.54489 -0.19065168 0.44959155 -0.52376217 0.21133198 0.21529438
-0.51338756 -0.2096662 0.08037504 0.40630502 -0.4877395 0.3088529 -0.10253498 0.2078972
0.15579899 -0.3100932 -0.16873713 0.12666637 -0.1937684 0.32179198 -0.1718201 -0.052570894
0.12694335 0.16821848 0.26881146 -0.45436144 0.44281438 -0.14581971 -0.5214263 0.081563964
0.38783696 0.0837936 0.18448019 -0.046951927 0.2811642 -0.3585048 -0.13852295 0.24042411
0.18477994 0.37519097 -0.09796109 -0.08900313 0.24700716 -0.073034704 0.12241842 0.043755833
0.02642739 0.07221107 -0.2346099 0.040701125 0.5025194 -0.3788543 -0.37545606 0.46157166
-0.4005551 -0.08298322 0.40199903 -0.03752134 0.25119263 0.095977776 -0.031410385 -0.13342483
-0.07255546 0.3612495 0.29005957 -0.08346752 -0.6950823 0.4216203 -0.316823 0.13129498
0.023525383 0.094817705 -0.05632616 0.47094226 0.22499284 0.24398701 -0.124890864 -0.045241743
0.37438005 0.0031990886 -0.48624453 0.70680195 -0.14095391 0.02401374 -0.025107577 -0.17654686
-0.2513669 0.024741674 0.03217767 0.16915691 0.113673106 0.07250573 0.13863993 0.60065657
-0.27059057 0.1439533 0.20861816 -0.16452782 -0.44440106 -0.16697136 -0.1604836 0.29395345
-0.3023198 0.14865732 0.106675036 0.13814127 -0.0016047647 -0.61194754 -0.23860592 -0.13430268
0.6585648 0.15243798 0.21925636 0.4578011 0.4824735 -0.23586977 0.23209582 0.3501778
0.20929706 0.029123835 0.097190715 0.15138303 -0.8167185 0.3263066 -0.060449064 -0.22647841
-0.035836384 -0.007614314 0.09690072 -0.36428246 0.1832137 0.33401668 0.08111658 0.43309557
-0.023744278 0.2809575 -0.375378 0.4100371 0.24744405 -0.26608676 0.09743966 0.07776157
0.040390678 -0.7474534 0.044304118 0.36847138 -0.42930356 -0.10230107 0.24365325 -0.16387178
0.09847364 -0.08132638 0.20913869 0.17903535 0.31760815 0.546619 -0.08707883 -0.051316343
0.19087097 0.12963986 -0.20650335 -0.3448147 0.03078716 0.545539 0.096468635 -0.56860054
0.093507916 -0.019968512 0.46824422 -0.37260717 0.4149428 0.00791367 0.13152784 0.09028837
-0.31956145 -0.36935368 0.12176213 -0.06384573 0.36616835 -0.083754875 0.07700528 -0.15282562
-0.07125418 -0.42373514 0.14783089 -0.12510026 -0.43859854 -0.23763262 -0.17754422 -0.03501807
0.11656162 -0.3028624 -0.033729047 -0.39318925 0.32874492 -0.80128485 -0.023200713 0.1910543
0.03155877 -0.17859451 0.42629793 0.42937192 0.019072143 0.076413244 -0.22945692 0.3006313
-0.5717932 -0.3912263 -0.043678217 0.24321009 -0.19385386 -0.28506356 -0.40521666 -0.28070676
0.38187844 -0.08526149 0.031274218 0.0760827 -0.18448476 -0.53790456 0.10326389 0.32525557
0.0243473 -0.051320545 0.41078973 -0.15554318 -0.26493102 -0.01070821 -0.25268328 0.115250826
00000000: dfff 473d a8cb d83e 16c9 873c 5e20 adbd
00000010: d98a c5be d36e 07be c249 a6be 6f9a 94bd
00000020: df89 ac3d aa4d f13d 0cf9 77be f6e7 e5bc
00000030: 013c d1bd 70e2 c43e 2d79 ed3d 4703 483e
00000040: b574 61be bf11 47bc a3de 0fbe e830 443d
00000050: 59fb f9bd 957d a9be 3893 433e 8eb4 153e
00000060: 4d19 b53e 1db5 0a3e e97d 0b3f 323a 43be
00000070: dd30 e63e 4715 06bf 6967 583e 2176 5c3e
00000080: 5e6d 03bf bdb2 56be ab9b a43d 3607 d03e
00000090: feb8 f9be f821 9e3e dcfd d1bd 01e3 543e
000000a0: c589 1f3e 89c4 9ebe 6dc9 2cbe d4b4 013e
000000b0: 396b 46be ebc1 a43e 9cf1 2fbe 9454 57bd
000000c0: 70fd 013e 7741 2c3e a8a1 893e 10a2 e8be
000000d0: 91b8 e23e c351 15be 327c 05bf 020b a73d
000000e0: 9192 c63e fb9b ab3d 60e8 3c3e aa50 40bd
000000f0: c1f4 8f3e f18d b7be f6d8 0dbe bd31 763e
00000100: f436 3d3e 0819 c03e d39f c8bd 4647 b6bd
00000110: 72ef 7c3e 3893 95bd 82b6 fa3d 5139 333d
00000120: 417e d83c 66e3 933d 943d 70be 39b6 263d
00000130: 1da5 003f 31f9 c1be c73b c0be 1f53 ec3e
00000140: 8f15 cdbe 1bf3 a9bd d1d2 cd3e faaf 19bd
00000150: 529c 803e ff8f c43d 2da8 00bd 85a0 08be
00000160: f597 94bd b2f5 b83e b082 943e 05f1 aabd
00000170: eaf0 31bf 9ede d73e a036 a2be 3172 063e
00000180: 4eb8 c03c c92f c23d 42b6 66bd 581f f13e
00000190: 8664 663e bbd7 793e c8c6 ffbd 684f 39bd
000001a0: beae bf3e cda7 513b 0bf5 f8be f9f0 343f
000001b0: 3956 10be 76b8 c43c 68ae cdbc b3c8 34be
000001c0: 2ab3 80be 0daf ca3c bccc 033d 7837 2d3e
000001d0: 72cd e83d e27d 943d a0f7 0d3e a1c4 193f
000001e0: d98a 8abe 7e68 133e 00a0 553e fb79 28be
000001f0: 8988 e3be 8afa 2abe d055 24be 1181 963e
00000200: a9c9 9abe a039 183e 7178 da3d e874 0d3e
00000210: f856 d2ba 98a8 1cbf 1c55 74be a486 09be
00000220: b497 283f b418 1c3e bd84 603e e864 ea3e
00000230: c406 f73e d887 71be 87aa 6d3e 814a b33e
00000240: f851 563e 1c95 ee3c ed0b c73d 2704 1b3e
00000250: 7714 51bf a911 a73e 7099 77bd f5e9 67be
00000260: 2cc9 12bd 7f81 f9bb e273 c63d 3b83 babe
00000270: 5f9c 3b3e 3c04 ab3e 7320 a63d b4be dd3e
00000280: 5c83 c2bc a9d9 8f3e 8c31 c0be 62f0 d13e
00000290: f961 7d3e 863c 88be 728e c73d 7541 9f3d
000002a0: b270 253d 1b59 3fbf 3c78 353d 48a8 bc3e
000002b0: adcd dbbe 3983 d1bd 3d80 793e 01ce 27be
000002c0: 8cac c93d 728e a6bd 7428 563e 0b55 373e
000002d0: 899d a23e 39ef 0b3f 6356 b2bd 1631 52bd
000002e0: ae73 433e 50c0 043e 9d75 53be 8d8b b0be
000002f0: 5b35 fc3c 72a8 0b3f 5991 c53d ce8f 11bf
00000300: 1481 bf3d 0195 a3bc b5bd ef3e 5ec6 bebe
00000310: 6273 d43e 56a8 013c 3caf 063e 1ce9 b83d
00000320: 8f9d a3be ed1b bdbe 6c5e f93d 8dc1 82bd
00000330: 6b7a bb3e ad87 abbd f2b4 9d3d 527e 1cbe
00000340: b6ed 91bd d0f3 d8be fb60 173e 481a 00be
00000350: fd8f e0be f755 73be 27ce 35be 1c6f 0fbd
00000360: dcb7 ee3d c810 9bbe 7827 0abd 1a50 c9be
00000370: 4151 a83e 0121 4dbf 6c0f bebc bda3 433e
00000380: c543 013d 7be1 36be b943 da3e a3d6 db3e
00000390: 2f3d 9c3c 8c7e 9c3d c1f6 6abe 59ec 993e
000003a0: 0a61 12bf d04e c8be eee7 32bd 110c 793e
000003b0: a081 46be daf3 91be 8f78 cfbe ccb8 8fbe
000003c0: 9285 c33e 939d aebd 6519 003d 3fd1 9b3d
000003d0: 93e9 3cbe 1db4 09bf 057c d33d e687 a63e
000003e0: fd73 c73c 7e35 52bd 0853 d23e b646 1fbe
000003f0: 0aa5 87be 7d71 2fbc b45f 81be a008 ec3d

network_body._body_endoder.seq_layers.0.bias f4 [128]
0.0016457087 -0.0062650396 -0.01726962 0.012637121 -0.008361498 0.016178222 -0.0046204953 -0.002689457
0.013967992 -0.018513909 -0.005182326 -0.005369172 0.014915254 0.022350876 -0.0058595124 0.005035983
-0.010168386 -0.0027682227 -0.0034482356 0.030480696 -0.00380703 0.0070132017 0.0015842825 0.009120571
0.0018974149 -0.013919437 -0.0027917293 0.009376764 -0.0132218795 0.0039991727 -0.00472125 0.01452657
-0.0070570013 -0.0016625563 0.0049404628 -0.011407292 -0.0060153496 0.011660799 0.005902314 -0.007057778
-0.023095632 -0.009738668 -0.006374879 -0.0051187878 0.00057154236 0.008030366 0.0009016481 0.0008118407
0.016571525 -0.007250136 -0.0035039354 0.010344359 0.00092147524 -0.0062857578 0.003263703 -0.004223489
0.0011521764 -0.010443618 -0.0014029458 0.0019667146 -0.0039991224 -0.0026205364 0.001837673 0.021894747
-0.0030581353 0.01117512 0.00070560473 -0.0031582466 0.0003708819 0.0058036186 -0.00404897 -0.006685609
-0.0045234566 -0.005491251 -0.013061718 0.00414439 -0.0035469823 0.0044970396 0.01168299 0.00504936
0.0033389274 -0.004654905 0.014928893 -0.012476045 0.0042167865 -0.0009334144 0.0006270088 -0.011929778
-0.0078657335 -0.012713384 -0.005974854 -0.024083309 -0.014925859 -0.002867824 0.0009998233 -0.0100441035
0.0010876376 0.013835747 0.002347566 0.0076167537 0.012437692 -0.0043740445 -0.0053707976 -0.00068584
0.00097645045 0.010942669 0.0025174564 0.01564822 0.0025146955 0.0027614187 -0.0014223863 0.0057253703
-0.014564322 0.00015659879 -0.009294713 -0.0065443544 -0.015006298 0.0046737893 -0.0029701833 0.013240719
0.03184929 -0.0018914152 -0.0011234112 0.006748702 0.007944442 0.000696117 0.012273508 -0.001736015
00000000: d2b4 d73a f64a cdbb 0579 8dbc ed0b 4f3c
00000010: aafe 08bc 3188 843c 8667 97bb 9a41 30bb
00000020: 01da 643c 7baa 97bc 80d0 a9bb e1ef afbb
00000030: 1c5f 743c 2f19 b73c 2701 c0bb e304 a53b
00000040: 4d99 26bc 126b 35bb cbfb 61bb a7b2 f93c
00000050: 5d7f 79bb 00cf e53b b3a7 cf3a 736e 153c
00000060: aeb2 f83a 5a0e 64bc 72f5 36bb 00a1 193c
00000070: 95a0 58bc 7e0b 833b b7b4 9abb da00 6e3c
00000080: 6b3e e7bb 22ea d9ba 9be3 a13b a7e5 3abc
00000090: 691c c5bb f00c 3f3c 3368 c13b ef44 e7bb
000000a0: 0d33 bdbc ef8e 1fbc 5ce4 d0bb 81bb a7bb
000000b0: 8fd3 153a cc91 033c 945c 6c3a b5d1 543a
000000c0: 02c1 873c 8d92 edbb 48a2 65bb 637b 293c
000000d0: 288f 713a c2f8 cdbb dae3 553b 3265 8abb
000000e0: a004 973a b51b 2bbc 0de3 b7ba ffe3 003b
000000f0: 120b 83bb 4ebd 2bbb 13de f03a 9d5c b33c
00000100: ff6a 48bb da17 373c 55f8 383a 96fa 4ebb
00000110: ed72 c239 482c be3b 39ad 84bb f412 dbbb
00000120: 8139 94bb f4ef b3bb d100 56bc aacd 873b
00000130: 7d74 68bb e75b 933b 036a 3f3c 1a75 a53b
00000140: e8d1 5a3b 2c88 98bb 5198 743c 5368 4cbc
00000150: f82c 8a3b 61b0 74ba d95d 243a 1e75 43bc
00000160: 47df 00bc cc4b 50bc b5c8 c3bb 5c4a c5bc
00000170: 978b 74bc 1af2 3bbb 810c 833a 0690 24bc
00000180: 108f 8e3a 54af 623c 9fd9 193b f695 f93b
00000190: 76c7 4b3c 2554 8fbb 84fd afbb f1c9 33ba
000001a0: 7bf8 7f3a e148 333c e9fb 243b b230 803c
000001b0: 97cd 243b ebf8 343b 5d6f baba e39b bb3b
000001c0: 329f 6ebc ab34 2439 da48 18bc 0672 d6bb
000001d0: fadc 75bc 9626 993b 68a7 42bb 9aef 583c
000001e0: 6774 023d 5de9 f7ba 6d3f 93ba 3724 dd3b
000001f0: 6829 023c 9f7b 363a d316 493c ff8a e3ba

network_body._body_endoder.seq_layers.2.weight f4 [128, 128]
0.022365434 -0.06034834 -0.016341403 0.0012487329 0.011255347 -0.06611896 -0.0850515 0.029942974
0.0007477618 -0.014320213 -0.11504662 -0.10512129 -0.06069747 -0.05415773 0.123423725 0.05952431
0.04536234 0.01408434 0.10548788 -0.015686847 -0.11176515 0.09497006 -0.03676559 0.2758426
-0.024379605 0.08006329 -0.014691467 -0.19766597 -0.036291458 0.056504685 0.19354649 -0.00026652278
0.030263485 0.14810716 0.10523188 -0.008035845 -0.03645927 0.026686296 0.008009687 -0.028392311
-0.038307976 -0.029195914 0.06294716 -0.07989403 0.0093282135 0.0461506 -0.123643234 -0.071277216
0.0052461154 -0.0033511103 -0.054729592 -0.026763162 -0.18982646 0.09918536 -0.00042365328 -0.085456416
-0.0073061073 0.09814504 0.018945647 0.025480922 -0.040245797 0.06958806 0.08706282 -0.00021168152
-0.09172279 -0.05359363 0.092809305 0.2186799 0.02654062 0.083875224 0.14578013 -0.07354783
-0.13451456 0.06962672 0.15052804 -0.035064287 0.046253312 -0.11894805 0.11324998 -0.059458524
-0.039648168 -0.034245506 -0.09654728 0.060470253 -0.20549051 0.07874634 0.004336069 0.0036458434
-0.13144657 0.042867277 0.027757911 0.15832537 0.14549032 -0.046568513 0.044661194 0.11630498
-0.041058403 0.0012749566 0.023810001 -0.003611138 0.0918277 -0.10147098 -0.15991253 -0.1672809
-0.11109105 0.06967526 -0.00081559847 0.013898936 -0.05842027 0.036299534 -0.05753153 -0.004560792
-0.01776188 0.0019310206 0.016886687 -0.13006893 -0.07504257 0.13641602 0.101680316 0.055374105
-0.008098177 -0.13315792 0.09378915 -0.14823395 -0.05849923 -0.06550986 -0.06757276 0.09147862
0.08027267 -0.060413335 0.050945185 -0.18630315 0.081085026 -0.019681653 -0.096433684 -0.016324732
0.026776524 -0.08342058 -0.06395241 0.15175647 -0.15725783 0.05036556 0.0035823607 0.06577737
-0.12118576 0.15195686 0.028617179 0.063155375 -0.11501558 -0.07565144 0.10519983 -0.008132664
-0.012097826 0.0019866254 -0.10241849 0.1185356 -0.019022891 0.10067558 -0.007690165 -0.0869839
0.0036362994 -0.049120884 -0.06223096 0.046598587 -0.121475555 0.011367045 -0.1573095 -0.07902716
0.029064476 0.090130344 0.11077091 0.05546085 0.10437388 0.066201575 -0.031884994 -0.13102187
-0.023602752 0.023428993 -0.12958097 -0.07132741 -0.14416756 0.0045391526 -0.21828352 0.04272751
0.03251141 0.07171207 -0.009254795 -0.06269589 -0.01838695 0.055961713 -0.12694834 -0.13266474
0.0046885205 -0.040429402 -4.0768427e-05 0.025788128 0.033928864 0.09902439 -0.008038397 -0.08428035
-0.030920282 -0.12961935 0.08065298 0.08804191 -0.12611641 0.11449313 -0.10248275 0.1625589
-0.048855558 0.043184515 0.019088855 -0.08812774 0.013305614 0.10510476 -0.036995046 -0.007918043
0.04121891 -0.03688432 0.07309053 0.018847197 0.04499318 -0.00014856673 -0.03521742 -0.08247116
0.035318464 0.019399194 0.17701039 0.056848343 0.028482994 0.11239993 -0.09734406 -0.09697995
0.015121847 0.09811849 0.018716078 -0.033300348 0.06944426 1.8685396e-05 0.1692656 0.008933078
-0.0403356 0.053003874 0.032063745 -0.007787257 -0.10601883 0.02986438 -0.15562339 0.10550329
0.26137373 -0.11212519 0.059076518 -0.029704105 -0.010090141 -0.078141004 -0.1662737 -0.03848876
00000000: b737 b73c d22f 77bd 68de 85bc 86ac a33a
00000010: 5968 383c 6169 87bd 7b2f aebd f84a f53c
00000020: 7205 443a 549f 6abc 909d ebbd d549 d7bd
00000030: e99d 78bd 7fd4 5dbd 94c5 fc3d c3cf 733d
00000040: dccd 393d 01c2 663c 080a d83d b481 80bc
00000050: 21e5 e4bd aa7f c23d 8497 16bd 3e3b 8d3e
00000060: bdb7 c7bc 39f8 a33d 7bb4 70bc f368 4abe
00000070: 5aa6 14bd 7571 673d 0d31 463e 15bc 8bb9
00000080: 21eb f73c 67a9 173e d083 d73d c7a8 03bc
00000090: 5156 15bd 389d da3c 103b 033c fe96 e8bc
000000a0: d3e8 1cbd 452c efbc 71ea 803d 7b9f a3bd
000000b0: 5dd5 183c 6908 3d3d aa38 fdbd caf9 91bd
000000c0: 9be7 ab3b 4d9e 5bbb 232c 60bd 6b3e dbbc
000000d0: de61 42be b221 cb3d c81d deb9 c603 afbd
000000e0: 1268 efbb 4400 c93d e733 9b3c 5ebd d03c
000000f0: c7d8 24bd 2f84 8e3d fe4d b23d d3f6 5db9
00000100: 28d9 bbbd ff84 5bbd ce12 be3d a0ed 5f3e
00000110: b76b d93c c6c6 ab3d 6347 153e 3fa0 96bd
00000120: 2fbe 09be 7498 8e3d 0624 1a3e 929f 0fbd
00000130: 1d74 3d3d 099b f3bd 9bef e73d c88a 73bd
00000140: 1e66 22bd 0445 0cbd 95ba c5bd a8af 773d
00000150: 1b6c 52be c345 a13d 9515 8e3b 1aef 6e3b
00000160: ee99 06be 9995 2f3d 8f64 e33c 0c20 223e
00000170: 6afb 143e a0be 3ebd a8ee 363d 4e31 ee3d
00000180: db2c 28bd 721c a73a 310d c33c d8a8 6cbb
00000190: 2910 bc3d 04d0 cfbd 1cc0 23be af4b 2bbe
000001a0: b483 e3bd e7b1 8e3d e3cd 55ba 5db8 633c
000001b0: 184a 6fbd d2ae 143d 2ea6 6bbd b272 95bb
000001c0: 5d81 91bc 4d1a fd3a f355 8a3c ca30 05be
000001d0: ebaf 99bd a4b0 0b3e c53d d03d f5cf 623d
000001e0: 37ae 04bc 8d5a 08be 8714 c03d a4ca 17be
000001f0: e39c 6fbd 092a 86bd 9663 8abd 2559 bb3d
00000200: ff65 a43d f973 77bd e6ab 503d 41c6 3ebe
00000210: e80f a63d 6b3b a1bc 067f c5bd 72bb 85bc
00000220: 715a db3c 69d8 aabd 7bf9 82bd 0c66 1b3e
00000230: 3208 21be 1e4c 4e3d 0ac6 6a3b 49b6 863d
00000240: 3d30 f8bd 949a 1b3e 936e ea3c 9b57 813d
00000250: 4a8d ebbd 24ef 9abd 0273 d73d dd3e 05bc
00000260: f635 46bc 0b32 023b c9c0 d1bd cbc2 f23d
00000270: e5d5 9bbc 002f ce3d c8fd fbbb 9d24 b2bd
00000280: fb4e 6e3b fb32 49bd e4e5 7ebd 29de 3e3d
00000290: 2dc8 f8bd d83c 3a3c be15 21be fed8 a1bd
000002a0: a018 ee3c 4296 b83d dcdb e23d eb2a 633d
000002b0: f9c1 d53d b194 873d d799 02bd 992a 06be
000002c0: 8f5a c1bc 29ee bf3c e0b0 04be 1b14 92bd
000002d0: a9a0 13be 2cbd 943b b785 5fbe 0b03 2f3d
000002e0: af2a 053d c7dd 923d 6ca1 17bc b466 80bd
000002f0: 3ba0 96bc 1c38 653d bffe 01be 44d9 07be
00000300: 29a2 993b 4d99 25bd c4fe 2ab8 a041 d33c
00000310: fef8 0a3d 4dcd ca3d 7bb3 03bc 2d9b acbd
00000320: 884c fdbc efba 04be 642d a53d 514f b43d
00000330: a924 01be 607b ea3d 7ae2 d1bd d775 263e
00000340: c41c 48bd 3fe2 303d 3b60 9c3c 517c b4bd
00000350: caff 593c 2a41 d73d 1e88 17bd aeba 01bc
00000360: 29d5 283d 0314 17bd 7db0 953d 7065 9a3c
00000370: c54a 383d 94c8 1bb9 2440 10bd a4e6 a8bd
00000380: 18aa 103d 0feb 9e3c 3642 353e cfd9 683d
00000390: 2b55 e93c ef31 e63d 535c c7bd 6d9d c6bd
000003a0: a0c1 773c 59f2 c83d 7652 993c f265 08bd
000003b0: cb38 8e3d 95be 9c37 f653 2d3e 0b5c 123c
000003c0: f136 25bd 971a 593d 4655 033d 3f2c ffbb
000003d0: 6620 d9bd 25a6 f43c bd5b 1fbe 1c12 d83d
000003e0: c7d2 853e e4a1 e5bd 38fa 713d 0656 f3bc
000003f0: 1e51 25bc 6408 a0bd a743 2abe 64a6 1dbd

network_body._body_endoder.seq_layers.2.bias f4 [128]
-0.0037148613 0.00403171 0.0016827547 0.003268898 -0.0008172963 -0.0011484817 -0.0004986205 0.010327395
-0.00013241146 -0.00145261 -0.005664426 0.0021190133 -0.0015944769 0.0013403457 -0.007383422 0.0045049367
-0.006804753 0.003929143 0.006940338 -0.0019207653 -0.0032183332 0.004465959 0.0034609565 -0.0011067012
0.0053663747 -0.0011613753 -0.0024602974 0.0045240265 0.00066267303 -0.0019416745 -0.0020557872 0.014073256
0.009431838 -0.001780976 -0.0027691503 0.0009031864 -7.797779e-05 0.0025636742 0.0076819584 0.009097806
0.00035978112 0.006117036 -0.0038219837 0.0016193591 -0.002237514 -0.0005544899 0.0008793497 0.0045952676
-0.00054501445 0.0041404455 -0.002931843 -0.0043341303 0.0021962747 0.0010360689 -0.008718188 0.005063709
0.0063846987 -0.013146399 0.0056514256 -0.0026109875 0.009855121 0.0030029037 -0.00234661 0.002290153
-0.004631516 -0.0023314804 -0.0032328307 -0.0060787774 -0.0035844021 0.0019630291 -0.0039419713 -0.0038211704
-0.00018536231 0.00029499194 -0.0016476506 -0.0110691935 -0.0016538652 0.0027219043 -0.0027113073 0.014181299
-0.0066796537 -0.0024112882 0.0034356609 -0.0025552076 0.00040663418 -0.0041834046 0.009709284 -0.0037530023
-0.009523185 0.007714087 0.010631666 -0.00036121323 0.002905456 -0.0029377546 0.004815547 0.0017940027
0.0005368977 0.008144438 -0.0028555251 0.0024354998 -0.0044189775 0.004319676 -0.0014010723 -0.004368823
-0.007624957 -0.0026299034 0.022847636 -0.0047610514 0.004314249 0.009448804 -0.00517514 0.011937094
0.0065028304 -0.006298949 0.009761496 0.0034734926 0.0012782796 -0.0016705289 -0.0011853114 0.001019813
0.0036038642 0.0020694146 -0.0007691206 -0.0045167143 0.0077595785 -0.0024775483 -0.0010095424 0.01114479
00000000: 0875 73bb 6f1c 843b e18f dc3a 023b 563b
00000010: d43f 56ba a788 96ba dbb5 02ba 3c34 293c
00000020: eed7 0ab9 8165 beba a69c b9bb 25df 0a3b
00000030: c4fd d0ba 8aae af3a a2f0 f1bb 269e 933b
00000040: 68fa debb 0ac0 803b c66b e33b 30c2 fbba
00000050: acea 52bb 2e57 923b 37d1 623b bb0e 91ba
00000060: 6ad8 af3b 4a39 98ba f13c 21bb 493e 943b
00000070: 3cb7 2d3a c97f feba 63ba 06bb 8493 663c
00000080: ff87 1a3c a36f e9ba a27a 35bb d0c3 6c3a
00000090: 0288 a3b8 5103 283b f0b8 fb3b f70e 153c
000000a0: 01a1 bc39 6b71 c83b 3f7a 7abb ad40 d43a
000000b0: 41a3 12bb 305b 11ba 2984 663a e693 963b
000000c0: 4ddf 0eba 93ac 873b 2a24 40bb 5205 8ebb
000000d0: 60ef 0f3b b4cc 873a bbd6 0ebc 78ed a53b
000000e0: bc36 d13b fe63 57bc 982f b93b 1a1d 2bbb
000000f0: 6077 213c 5dcc 443b 95c9 19bb 6416 163b
00000100: f9c3 97bb c0cb 18bb e6dd 53bb 7b30 c7bb
00000110: 4ae8 6abb 2aa6 003b a72b 81bb 9a6c 7abb
00000120: d15d 42b9 26a9 9a39 fbf5 d7ba 905b 35bc
00000130: 82c6 d8ba fa61 323b 30b0 31bb ae58 683c
00000140: ffe0 dabb b406 1ebb d328 613b 4575 27bb
00000150: 8431 d539 f114 89bb b013 1f3c eef4 75bb
00000160: 2207 1cbc 74c6 fc3b 7030 2e3c 3861 bdb9
00000170: 7669 3e3b 5887 40bb bccb 9d3b be24 eb3a
00000180: 98be 0c3a 4070 053c c323 3bbb e89c 1f3b
00000190: 12cd 90bb 128c 8d3b 2fa4 b7ba 5828 8fbb
000001a0: c6da f9bb 755a 2cbb f72a bb3c 9802 9cbb
000001b0: 8b5e 8d3b 28cf 1a3c 3994 a9bb cd93 433c
000001c0: b215 d53b 6a67 cebb afee 1f3c 89a3 633b
000001d0: f28b a73a a6f5 daba 735c 9bba 3fab 853a
000001e0: cf2e 6c3b 049f 073b cf9e 49ba f200 94bb
000001f0: 1044 fe3b 5d5e 22bb 9f52 84ba a398 363c

action_model._continuous_distribution.log_sigma f4 [1, 2]
0.013104494 0.010754851
00000000: 3bb4 563c 1d35 303c

action_model._continuous_distribution.mu.weight f4 [2, 128]
-0.007814392 -0.0026019604 -0.029655928 0.018691823 -0.025915155 0.020946171 0.025475888 0.0064021237
-0.010413355 -0.037733443 -0.004839268 0.028558157 -0.019397419 -0.019162452 -0.016500087 0.009274909
-0.003911027 0.0107640335 0.026622307 -0.00045599692 -0.0008654338 0.024448963 -0.021481913 0.015171945
0.0114491 0.0013324615 -0.033333004 0.015736505 -0.039612908 -0.011674777 -0.025563896 0.026007878
0.024240311 -0.0056269257 -0.029181577 -0.017154776 -0.003059552 0.014089242 0.03539287 0.00862039
-0.013100713 -0.02004713 -0.017577928 -0.017104106 -0.007950401 -0.01881579 0.0014858581 0.033865485
-0.025149168 0.0227786 -0.0036598288 -0.013192173 0.012164709 -0.032902546 -0.0060111224 0.019958662
0.044726405 -0.0031500866 0.013365858 -0.04424237 0.022084333 0.042014576 -0.025097698 0.0139775155
-0.009400592 -0.004668227 -0.012420989 -0.01346227 -0.0072709518 0.0035195793 -0.02574818 -0.0031618027
-0.014306652 -0.027710248 -0.00924579 -0.007974513 -0.03752748 0.0190927 0.009738199 0.021354305
-0.0005826871 -0.00892941 -0.03736103 -0.0359692 0.023865039 -0.035431847 0.027965274 -0.02232842
-0.0026385172 0.024919026 0.044124577 -0.035135876 0.03620151 -0.014627474 0.025710296 0.02817643
0.025601828 0.038677663 -0.011853179 -0.011475385 0.004257868 0.007276358 -0.005995594 -0.0021635687
0.0011541076 -0.029911632 0.017717816 -0.0021762785 0.03548124 0.018038163 -0.017619371 0.03366102
0.004686489 -0.0145539725 0.033841427 0.029445494 0.01605524 -0.0048263646 -0.02165854 -0.00029414432
0.016663365 -0.033070933 0.011341417 -0.015074523 0.03891316 0.004404959 -0.01643111 0.037799276
0.025683163 -0.0044809044 -0.021605361 -0.02091299 0.007688585 -0.017161412 0.020274332 -0.008552356
0.015967172 0.006569783 0.014518443 -0.007433053 0.0010837401 -0.028410366 0.004238783 -0.019519798
-0.0021790273 0.00879254 0.0106302 -0.01749902 0.02157915 -0.0014764718 -0.028665023 -0.019920748
-0.014754369 -0.027738456 0.009938172 -0.0060781953 0.012824079 -0.0115909 0.018516652 0.00065798557
-0.0014279619 0.009453228 -0.002008649 -0.028819934 0.013583372 0.012228342 0.005250795 0.0028016488
-0.00070472935 -0.0098538 -0.0013797915 -0.015700877 -0.015854808 -0.017935542 -0.006744144 0.004945143
-0.0018431703 0.043366015 0.0046738596 -0.013184966 0.006714352 0.0029553522 0.0043314854 -0.009069131
-0.014950132 -0.0046890206 -0.0026740464 0.018414984 0.0128412545 0.011700469 -0.0006290025 5.079194e-05
-0.0205474 -0.0029862495 0.018733473 -0.0069074407 -0.015719723 -6.430043e-05 -0.0007975124 0.013307768
-0.013812493 -0.011365821 -0.019818818 -0.004669921 -0.0009629451 -0.0059920554 -0.007558674 0.0079986695
0.0021108037 -0.017348444 -0.017939279 -0.014727534 0.015855098 -0.0034726425 0.0024181316 -0.0003395501
-0.010464993 -0.012216802 0.0006718865 0.011377921 -0.0123621775 -0.030319303 0.04071799 0.003680982
0.000577989 0.0035595505 0.0442649 -0.009132808 -0.011091551 -0.0014827424 -0.045391824 0.014121476
-0.006855995 0.0028684754 0.004270661 0.0039029105 0.03666664 0.011873135 0.017925609 0.010950485
0.016597064 -0.006608909 0.0023466563 0.040402275 0.023879848 0.0042482186 -0.007924575 0.030516585
0.051915213 -0.009555582 -0.010227872 -0.009803965 0.023063207 0.013178577 -0.00036570174 0.0052243657
00000000: f007 00bc a785 2abb fdf0 f2bc 981f 993c
00000010: 054c d4bc 4e97 ab3c cfb2 d03c e8c8 d13b
00000020: c79c 2abc 628e 1abd b992 9ebb ccf2 e93c
00000030: 56e7 9ebc 93fa 9cbc 312b 87bc caf5 173c
00000040: 1328 80bb a15b 303c 0617 da3c df12 efb9
00000050: 47de 62ba 3149 c83c d6fa afbc c093 783c
00000060: 0295 3b3c fda5 ae3a 3088 08bd d8e9 803c
00000070: 2541 22bd 9047 3fbc 606b d1bc 790e d53c
00000080: 9e93 c63c 1362 b8bb 340e efbc 2c88 8cbc
00000090: c482 48bb 90d6 663c 1df8 103d 893c 0d3c
000000a0: 5fa4 56bc e139 a4bc 96ff 8fbc e91d 8cbc
000000b0: 6642 02bc 9223 9abc 20c1 c23a 89b6 0a3d
000000c0: a105 cebc 309a ba3c bdd9 6fbb fc23 58bc
000000d0: 7d4e 473c d2c4 06bd f3f8 c4bb 5980 a33c
000000e0: 0933 373d af71 4ebb 79fc 5a3c 7d37 35bd
000000f0: 34ea b43c 7a17 2c3d b099 cdbc f301 653c
00000100: f104 1abc edf7 98bb 6781 4bbc da90 5cbc
00000110: 2a41 eebb bea8 663b d9ed d2bc 3f36 4fbb
00000120: 7366 6abc 9a00 e3bc a77b 17bc 88a7 02bc
00000130: 6ab6 19bd 4b68 9c3c f88c 1f3c 39ef ae3c
00000140: 78bf 18ba a94c 12bc e107 19bd 7154 13bd
00000150: 9d80 c33c fc20 11bd 6e17 e53c 17ea b6bc
00000160: f9ea 2cbb fc22 cc3c f9bb 343d a3ea 0fbd
00000170: 0948 143d 13a8 6fbc 669e d23c 42d2 e63c
00000180: edba d13c 786c 1e3d d633 42bc 4103 3cbc
00000190: 9685 8b3b 846e ee3b b076 c4bb a9ca 0dbb
000001a0: 6d45 973a 3d09 f5bc f424 913c e59f 0ebb
000001b0: c754 113d c5c4 933c 8056 90bc 23e0 093d
000001c0: 1e91 993b c973 6ebc 4f9d 0a3d ad37 f13c
000001d0: 4786 833c 7b26 9ebb 406d b1bc 6237 9ab9
000001e0: 9c81 883c 6375 07bd 5ad1 393c 22fb 76bc
000001f0: 6863 1f3d 7957 903b 899a 86bc 6ad3 1a3d
00000200: 7f65 d23c 8dd4 92bb bafd b0bc b851 abbc
00000210: 87f0 fb3b 1796 8cbc 5b16 a63c 2e1f 0cbc
00000220: 96cd 823c 5647 d73b c3de 6d3c f890 f3bb
00000230: 490c 8e3a dbbc e8bc 7de5 8a3b fce7 9fbc
00000240: 03ce 0ebb 960e 103c 4a2a 2e3c 1b5a 8fbc
00000250: c2c6 b03c 2c86 c1ba e9d2 eabc d630 a3bc
00000260: 4fbc 71bc c23b e3bc b7d3 223c 992b c7bb
00000270: 161c 523c c2e7 3dbc 3cb0 973c aa7c 2c3a
00000280: 732a bbba b6e1 1a3c 8aa3 03bb c817 ecbc
00000290: cb8c 5e3c 6259 483c dc0e ac3b de9b 373b
000002a0: 96bd 38ba d571 21bc 1fda b4ba 209f 80bc
000002b0: f1e1 81bc 8fed 92bc fbfd dcbb de0a a23b
000002c0: 8896 f1ba 90a0 313d 2d27 993b c105 58bc
000002d0: 1104 dc3b 95ae 413b 22ef 8d3b b196 14bc
000002e0: 66f1 74bc 5ba6 99bb 0e3f 2fbb 05db 963c
000002f0: 2064 523c 53b3 3f3c a5e3 24ba 6e09 5538
00000300: 0553 a8bc f4b4 43bb f176 993c d057 e2bb
00000310: a6c6 80bc 08d9 86b8 2710 51ba d308 5a3c
00000320: cb4d 62bc b537 3abc 135b a2bc 2306 99bb
00000330: 276e 7cba 0159 c4bb c1ae f7bb da0c 033c
00000340: 6955 0a3b 531e 8ebc 65f5 92bc c14b 71bc
00000350: 8de2 813c 4695 63bb 8479 1e3b a505 b2b9
00000360: 5d75 2bbc fb28 48bc 8a21 303a 766a 3a3c
00000370: bb8a 4abc 3060 f8bc e8c7 263d a13c 713b
00000380: 2f84 173a 5947 693b 1d4f 353d c6a1 15bc
00000390: 56b9 35bc 9458 c2ba c7ec 39bd c35d 673c
000003a0: 41a8 e0bb 08fd 3b3b e7f0 8b3b f9c7 7f3b
000003b0: c22f 163d 8a87 423c bad8 923c aa69 333c
000003c0: 91f6 873c 8c8f d8bb 5cca 193b db7c 253d
000003d0: ac9f c33c a434 8b3b 14d6 01bc ebfd f93c
000003e0: 0ca5 543d 048f 1cbc ce92 27bc cfa0 20bc
000003f0: 0def bc3c f5ea 573c a8bb bfb9 2831 ab3b

action_model._continuous_distribution.mu.bias f4 [2]
0.0024499663 -0.0011546616
00000000: 9d8f 203b 0458 97ba

action_model._discrete_distribution.branches.0.weight f4 [1, 128]
0.0010795884 -0.00023480912 -0.009959643 -0.004744941 0.0010455461 0.009412533 0.014615725 -0.00071360724
0.0029203175 0.010350231 0.0011196424 -0.004456285 -0.0005904038 0.007736058 -0.0018668317 0.006480334
0.002692432 0.010541396 0.006245805 0.0053868736 0.0129461605 -0.0044269483 0.006579029 -0.0049368357
-0.0024274539 0.011505305 -0.008663818 0.01661985 -0.0018942159 -0.009143669 0.008655851 -0.0069115036
-0.0034975677 -0.005889317 -0.013590311 -0.015588394 -0.0018477483 -0.01501168 0.001409255 -0.006359454
-0.0046615 -0.009503557 -0.0172206 -0.025719566 0.012052453 -0.011906842 -0.009837831 0.006354682
-0.00029789787 -0.013036847 -0.007838886 0.018039474 -0.0010597793 0.014505923 -0.004452064 0.0049775722
0.0055848164 0.006372233 0.016379608 0.0042774295 -0.009867064 -0.006526366 0.007328193 -0.009608222
-0.00950794 0.007260894 -0.0050783856 0.0064166905 0.01400775 -0.009255843 -0.009331954 -0.006352191
-0.007926821 -0.006187943 0.0018024758 -0.002447875 -0.016889496 0.013720944 -0.018876769 0.0017519932
-0.008169795 -0.0064971778 0.008675752 -0.012222986 0.005923853 0.0103354035 0.0068220175 -0.024928344
0.01748195 -0.009005418 0.0043922113 -0.0008558849 0.0018980213 0.008165449 0.0001183162 0.0069697606
-0.005136877 0.010967477 -0.018149914 -0.011795632 0.016174465 -0.0023045938 -0.0033204984 0.0137703065
-0.0017615048 0.002575343 -0.00049308623 -0.010727881 -0.0028158927 -0.00480672 0.012753253 0.0092918305
-0.0039936756 0.0011683314 0.005910521 0.017709764 0.008276507 0.00031596606 0.012680386 -0.0010652636
-0.00035999456 0.0031619389 0.0035680146 -0.012540655 0.0011432458 -0.0017204866 0.0073186043 -0.0043487414
00000000: fa80 8d3a 1837 76b9 c52d 23bc 737b 9bbb
00000010: b50a 893a 0637 1a3c cb76 6f3c 5f11 3bba
00000020: cc62 3f3b 0494 293c f7c0 923a 0706 92bb
00000030: 54c5 1aba c27e fd3b 7ab0 f4ba fb58 d43b
00000040: 8373 303b d2b5 2c3c 9ca9 cc3b 5f84 b03b
00000050: 221c 543c ef0f 91bb e594 d73b 2ec5 a1bb
00000060: eb15 1fbb bf80 3c3c b0f2 0dbc 5a26 883c
00000070: 5747 f8ba 54cf 15bc 45d1 0d3c e579 e2bb
00000080: 7337 65bb 2cfb c0bb e5a9 5ebc 7766 7fbc
00000090: 2530 f2ba 8df3 75bc c0b6 b83a f762 d0bb
000000a0: 7fbf 98bb cfb4 1bbc 3712 8dbc d7b1 d2bc
000000b0: a777 453c ea14 43bc db2e 21bc f03a d03b
000000c0: 2d2f 9cb9 8098 55bc ac6e 00bc 85c7 933c
000000d0: 4be8 8aba 40aa 6d3c 9fe2 91bb e71a a33b
000000e0: d600 b73b 2ace d03b 872e 863c ae29 8c3b
000000f0: 77a9 21bc 20db d5bb 5721 f03b ce6b 1dbc
00000100: 31c7 1bbc cbec ed3b 9668 a6bb 1a43 d23b
00000110: c380 653c d2a5 17bc 0de5 18bc 0a26 d0bb
00000120: 7fdf 01bc 3ac4 cabb 0d41 ec3a 876c 20bb
00000130: d75b 8abc cfcd 603c 74a3 9abc 23a3 e53a
00000140: 9bda 05bc 47e6 d4bb be24 0e3c eb42 48bc
00000150: e11c c23b d355 293c 3b8b df3b 8736 ccbc
00000160: 4e36 8f3c 768b 13bc 8aec 8f3b 775d 60ba
00000170: 07c7 f83a 60c8 053c 8720 f838 9762 e43b
00000180: 3f53 a8bb efb0 333c 21af 94bc 7742 41bc
00000190: 5080 843c ab08 17bb b89c 59bb da9c 613c
000001a0: 4be2 e6ba 16c7 283b 7542 01ba ffc3 2fbc
000001b0: d78a 38bb b181 9dbb 05f3 503c c33c 183c
000001c0: 61dd 82bb b222 993a 0bad c13b 1114 913c
000001d0: 309a 073c 3fa8 a539 65c1 4f3c 51a0 8bba
000001e0: a7bd bcb9 8838 4f3b 5ad5 693b 5277 4dbc
000001f0: f7d8 953a f381 e1ba e7d0 ef3b e37f 8ebb

onnx::Div_70 f4 [12]
0.054562148 0.12717292 0.0048757424 0.24008696 0.004864582 0.004864582 0.004864582 0.004864582
0.004864582 0.004864582 0.004864582 0.004864582
00000000: 8f7c 5f3d 9e39 023e b1c4 9f3b 5bd9 753e
00000010: 1267 9f3b 1267 9f3b 1267 9f3b 1267 9f3b
00000020: 1267 9f3b 1267 9f3b 1267 9f3b 1267 9f3b
