results/SlayRL_010/SlayTheSquire_RL.onnx (onnx, 82288 bytes, 10 tensors)

network_body.observation_encoder.processors.0.normalizer.running_mean f4 [12]
00000000: cf6c 213f 2e79 0dbf 4022 443b b4f2 0b3f
00000010: 5f0a 56be 04f9 77bc ddbc 78be 6259 47be
00000020: 0000 0000 da3c 68be 0258 0abf b789 f5be
0.63056654 -0.5526303 0.002992764 0.5466721 -0.20902394 -0.015135054 -0.24290796 -0.1946769
0.0 -0.22679463 -0.5404054 -0.4795663

network_body._body_endoder.seq_layers.0.weight f4 [128, 12]
00000000: 23eb aabd 630d 713e d40a cd3e b42c c53d
00000010: c636 26be da06 edbe c94c 453e 907a 1ebc
00000020: 3e91 dabe 2276 963e 046c a13e 847b 00be
00000030: 447d 133f 7a4a 62be f2a4 c23b e25e fc3d
00000040: 348d d13d 85d0 393f 9486 0f3e 1ccf 50be
00000050: 3867 ea3d 997f 31bf 50bc 94bd c514 cfbe
00000060: 753b 6d3e 4ccc 06bf 3a69 723d 742c 6fbc
00000070: 860e 963c f9b3 6e3e 67fd 623e ec35 28bd
00000080: 308c 923c 33c3 063f 5d51 d23d ec1f 8d3e
00000090: 72fc 0e3d e2ab 9f3e f90b cbbd 46b8 20bf
000000a0: 51c2 35be cbb5 b93d 658c a03c 1dc6 ddbd
000000b0: 3464 0fbe 553b b9be 5a22 d03e 5df7 b1be
000000c0: 124b 1fbf a031 8a3e 91ad dbbe 824f 0ebe
000000d0: 88ad aebe 9a90 073e 3280 e1bd 9265 67be
000000e0: f045 603e f2ca 9ebe b5a4 7c3d 3432 dc3e
000000f0: b08c 3c3d 27a2 06bf 7686 89be 9dc5 cf3e
00000100: 8196 063e 173b b33e 0335 163e 689b 1c3e
00000110: ac64 36be c77c bc3e e106 43be d1c9 9d3d
00000120: 4d3e 99bd 2844 b2be 12a8 743d 0098 5d3d
00000130: 3faf 8cbe 5c8f 0abf 1aad 7c3e 1039 2ebd
00000140: 2fd4 9bbe 5957 b33e f397 acbe 49f9 c23d
00000150: 8eb5 c8be fe3b be3e 7942 393e 5fc8 7fbe
00000160: 6604 cdbe 21ad b13c 4638 b13e 0e91 ba3e
00000170: 87dc 42bd 9583 9bbd 39e4 4e3e bbe1 29bf
00000180: 0252 4c3e 2009 eb3d e48d 2d3f 5f98 833c
00000190: d382 c53e c68f d93d 6931 00be 1096 84bb
000001a0: 4b25 31be 3f8a d1be cf76 8c3e 91d8 2e3e
000001b0: 94f4 a83e 3732 11bd bd12 a0bd 0991 ba3b
000001c0: d12c 04bc 1b9d 833d 1abf 933e bafc c7be
000001d0: 4b5d 0b3f aeb9 30be aa55 a1be fea5 f8be
000001e0: 087b 9ebe 2311 08bd 797f bebc d8e5 773d
000001f0: 480e 7bbb 39e2 febe 97fa bb3c e849 183e
00000200: 4dfa 193f aff7 01be 14e6 b53e 3faa fc3e
00000210: 6b35 4b3e c4a3 8cbe 318a c93d c998 6fbd
00000220: f90e d03e f800 d33e 1a3d 493e 2115 f83e
00000230: 50e3 febd 22e5 943e 260e d43d 42c6 9b3e
00000240: 3827 04bf 07ac 3bbe 9952 f8be 6182 ef3e
00000250: e5ae 3ebe ee3a b03e bea3 bbbd 3fc2 0a3d
00000260: 0ce3 5e3e 6938 bd3d cc06 3f3e c638 eb3c
00000270: 7445 033f d8e2 973d 13b5 39bf 4d21 c6be
00000280: bae4 113d 6920 f7bd 84f0 b3be cb33 93bc
00000290: 3478 153e 7f0e 9bbe b112 253f f88e b1be
000002a0: 104b 6d3e f90c fd3d fff8 33bd 8951 26be
000002b0: 209d 1c3e c50f 7fbe bf61 1cbf e2a5 febe
000002c0: 8528 173e 06ea 09be e059 bd3d 1feb 0a3f
000002d0: 845a afbe ff15 8e3e 5dac eabe 549d 933e
000002e0: 5a8f 0fbc 6dc0 11be c764 933e 2f6a 80bb
000002f0: 0606 bf3d 7e3a b73d a0f5 01be d6f9 2cbd
00000300: 8a4b 8bbe 7fb7 083f 80f0 f93d 1bf9 53be
00000310: 503d 33be 282d 98be eef3 88be 9280 23be
00000320: a4e8 d0bc 819e c6be 34fd 563e 48cc 183c
00000330: 141c 16be f4f8 2dbe 69e6 bf3d a0c3 7e3e
00000340: a71a f5bc 16ee 5abd dcf6 46bd d2f4 7d3d
00000350: 3bde 073e 136c 2bbc 9fdf 553e abc2 373e
00000360: 9ac0 16bc fdc6 16bf c114 fb3c 9b40 ecbe
00000370: 954c e73d 753a 1ebe 9a15 90be 9412 11be
00000380: 9231 e5be 5f37 39be 3f40 b2bc e19d 68be
00000390: aabd c7be 55fd ab3e 6d1d 623d ea0c 4bbe
000003a0: 6883 1d3d 5e9b 89be 4086 683e 9b6f 50bd
000003b0: 5290 1d3e d77d d3bd 6d31 0b3e dd0a f7bd
000003c0: fbd3 a0be 5893 a83d 025c 9e3e 3005 123f
000003d0: 3997 2d3e d78d d53c 09b3 873e 2d1f 853e
000003e0: 3df5 8c3c 0869 b63d a759 dcbe 6552 92bd
000003f0: d308 37be a4d2 25bf 9d66 6ebe 9c7b a33e
-0.0834563 0.23540263 0.40047324 0.09627667 -0.16231832 -0.4629429 0.19267572 -0.009672776
-0.42688936 0.29387003 0.31527722 -0.12547117 0.57613015 -0.22098723 0.005940073 0.12322785
0.102320105 0.725838 0.14016181 -0.20391506 0.11445469 -0.69335324 -0.0726248 -0.40445533
0.23167212 -0.5265548 0.059182383 -0.014598001 0.018317472 0.23310842 0.22166978 -0.04106705
0.017889112 0.526416 0.10269425 0.27563417 0.03490872 0.31185824 -0.09914393 -0.6278118
-0.17749907 0.090678774 0.019598195 -0.10828803 -0.14003068 -0.3617808 0.40651208 -0.34759036
-0.62223923 0.26990986 -0.42905858 -0.13897517 -0.3411677 0.13238755 -0.110107794 -0.2259734
0.21901679 -0.3101421 0.061680514 0.43007052 0.046032608 -0.52591175 -0.26860398 0.40580454
0.1314335 0.3500602 0.1466866 0.15293658 -0.17811841 0.36813948 -0.19045593 0.07704509
-0.07482586 -0.34817624 0.059730597 0.054100037 -0.27477452 -0.54125 0.24675408 -0.042534888
-0.3043532 0.35027578 -0.33709678 0.095202036 -0.39201015 0.37155145 0.18091764 -0.2497878
-0.40042418 0.021689 0.34613246 0.36438793 -0.047573593 -0.07593457 0.20204248 -0.6636006
0.19953158 0.1147635 0.6779463 0.016063867 0.38576373 0.10623126 -0.12518848 -0.004046209
-0.17299382 -0.40925786 0.27434394 0.17074801 0.32999098 -0.03544828 -0.07816074 0.005693559
-0.008067326 0.0642645 0.28856736 -0.39060003 0.5443923 -0.17258331 -0.3151067 -0.48564142
-0.3095324 -0.033219468 -0.023254143 0.06052193 -0.0038308073 -0.4978197 0.022946639 0.14871943
0.60147554 -0.1269214 0.35527098 0.49348637 0.19844596 -0.27468693 0.09840811 -0.058495317
0.40636423 0.41211677 0.19652215 0.4845362 -0.124457 0.29081064 0.10354261 0.30424696
-0.51622343 -0.18327342 -0.48500517 0.4677916 -0.18621404 0.3441996 -0.09162091 0.033876654
0.21766299 0.09239275 0.18654937 0.028713595 0.5127785 0.07416314 -0.7254192 -0.3869728
0.03561852 -0.120667286 -0.35144436 -0.017969033 0.14596635 -0.30284497 0.64481646 -0.3467939
0.23173165 0.1235599 -0.043938633 -0.1624204 0.15294313 -0.2490836 -0.6108665 -0.49735934
0.1476155 -0.13468179 0.09245658 0.54265016 -0.34248745 0.27751157 -0.45834628 0.2883097
-0.008762205 -0.14233561 0.28787825 -0.003918908 0.09327321 0.089467034 -0.12691355 -0.04223045
-0.2720607 0.5340499 0.12204075 -0.20700495 -0.17503858 -0.2972195 -0.26748604 -0.15967014
-0.025501557 -0.38792804 0.20995027 0.009326048 -0.14659148 -0.169895 0.09370119 0.24879313
-0.029919935 -0.053449713 -0.048575267 0.062001057 0.13268368 -0.010462779 0.20886086 0.17945354
-0.009201193 -0.5889738 0.030649545 -0.4614304 0.11293904 -0.15451987 -0.2814148 -0.14167243
-0.44764382 -0.18087529 -0.02175915 -0.22716476 -0.3901189 0.33591715 0.055203844 -0.19829145
0.038455397 -0.26876348 0.22707462 -0.050887685 0.15387085 -0.103267364 0.13593073 -0.12062619
-0.31411728 0.082312286 0.3092957 0.57039165 0.16952218 0.026068611 0.2650378 0.26000348
0.017206782 0.08906752 -0.4303715 -0.07144622 -0.1787446 -0.6477454 -0.23281331 0.31930244

network_body._body_endoder.seq_layers.0.bias f4 [128]
00000000: 72c8 44bc 03bd a1bb 6da8 083c adce 70bc
00000010: 1793 233c f4a2 47bc 7ec7 1d3c a020 903c
00000020: ef4f 32bc 3526 a0bb 490c 063b b778 2f39
00000030: 8686 8a3c ec6f e3bb b4c4 743b 5866 183c
00000040: 809f c93a a3b1 cdba b782 9a3b 3e9b 5c3c
00000050: 8696 6b3c 9cb1 203c b9e4 62bb 0ce5 92bc
00000060: 8b13 d8ba a4f4 8d3c 94a0 65bb eb8e 7dbc
00000070: be89 8f3b 36cb eb3b 335f e0bb ae83 2bbc
00000080: d522 5a3b 91c6 b63c 2b3f 22bb 02db 09bc
00000090: 76be 583a bd5f 3bbc eb50 12bc 3120 04bd
000000a0: d730 55bc 357f bd3b 9a73 a7bc f2f3 543c
000000b0: 724c ffbb 7f74 bcba 6d31 b1bc 59b6 973b
000000c0: 686a 113c 173d da3b 0aba 99bb c5ec 1d3c
000000d0: ff25 ba3a c80d 2e3c a596 82ba fa40 053c
000000e0: 6edf 1abd c633 f8b8 6447 3dbc 6b9a 2ebc
000000f0: 9a78 bdb8 e728 80ba 07f1 c03b 7e22 b2bc
00000100: 2390 f83b c2d1 773c 1b2b 4c38 0f3c c2bb
00000110: b174 343c afcb a63c 351a c9bc 8b76 263c
00000120: 1e1e 1bba 8619 50bc 3b82 8a3c 2e36 cdbb
00000130: e6a6 a0bb 9420 85bc 03a1 8e3c 5d62 1ebd
00000140: 371f c93b fbd9 893c be89 c6bc a055 653b
00000150: baca 7cbb 78b8 35bc cd02 30bc 6371 edbc
00000160: 804c 69bc ad7e 523c 847b 15bc 0f0b d1bc
00000170: 26a0 feba 0bca 3c3c 8656 ac3b a85a 54bc
00000180: 6da2 633c b83e f13a 37af 8c3c 4e7b 83bc
00000190: 5b64 a03b a73c a03c 8178 df3b 83ee 4fbc
000001a0: 6592 923b fde3 a63c 168d 31bd 55e5 fe3b
000001b0: e57b 1b3c 67d7 93bc 3d56 443c 517d 123b
000001c0: 4c23 8bbb b4ed 43bc 5d57 a4bc e674 4a3c
000001d0: 39ad bd3b d9bc 393c 6c4a ac3b 7922 6ebc
000001e0: 60d1 36bc ad2f e4bc 547b 333c 1382 0cbc
000001f0: 7f27 0c3b cb46 133c eba0 8abb bb0c 143c
-0.0120106805 -0.004935862 0.008340937 -0.014697713 0.009983799 -0.012184847 0.009630082 0.017593682
-0.0108833155 -0.004887367 0.00204541 0.0001673427 0.016909849 -0.0069408324 0.003734869 0.009301744
0.0015382618 -0.0015693199 0.0047152895 0.013464747 0.014379149 0.00980797 -0.0034621193 -0.017931484
-0.0016485316 0.017328568 -0.003503834 -0.015475969 0.004380434 0.0071958555 -0.006847286 -0.010468407
0.0033284922 0.02231148 -0.002475689 -0.008414032 0.0008268127 -0.0114364 -0.008930425 -0.032257263
-0.013012133 0.0057829865 -0.020440865 0.012997614 -0.0077910954 -0.001437798 -0.021630013 0.004629892
0.008875467 0.0066601145 -0.004691367 0.00963897 0.0014201998 0.010623403 -0.0009963108 0.008133167
-0.037810735 -0.00011835205 -0.011552665 -0.010656933 -9.034686e-05 -0.0009777815 0.0058881077 -0.021744963
0.007585542 0.015125694 4.8677535e-05 -0.0059275697 0.0110141495 0.020360796 -0.02454863 0.010160099
-0.00059172686 -0.012701398 0.016907802 -0.0062625622 -0.0049027083 -0.016250886 0.01741076 -0.038668025
0.0061377543 0.016827574 -0.024235602 0.0034993663 -0.0038572983 -0.011091344 -0.010742855 -0.028984731
-0.01423943 0.012847585 -0.009123687 -0.025517968 -0.001942639 0.01152278 0.005259338 -0.012961067
0.013893706 0.0018405532 0.017173393 -0.016050007 0.004894776 0.019560171 0.006819785 -0.012691143
0.004473018 0.020372385 -0.04334744 0.0077788034 0.009489988 -0.018047048 0.011983451 0.0022352526
-0.004246151 -0.011958528 -0.02006119 0.012356972 0.005788472 0.011336529 0.005257895 -0.014534586
-0.011158317 -0.027854765 0.010954697 -0.008575934 0.0021385846 0.008989046 -0.0042306087 0.009036238

network_body._body_endoder.seq_layers.2.weight f4 [128, 128]
00000000: 1c67 55bd bb5e bd3c 1af0 093e a4f8 c5bc
00000010: 6c40 d93d 72b8 973c c98e 80bd d2a1 5e3e
00000020: b96f 4d3c e41d 2ebe 1573 fc3d 3e49 c23c
00000030: caa1 a53d 17e7 b43d 98e1 fa3c 7253 02bd
00000040: 4a43 963d 8b74 f4bd 1e17 923d 78e6 1fbd
00000050: d78f 40bd 8097 013e dacc 603d 10b3 783c
00000060: 7f1e 053e ba42 3fbd fd46 893d 7431 de3c
00000070: 4194 c83c d2bb 6bbd d0ee 11be 547d 29be
00000080: 436b e03d 825d 5bbd ea07 aa3d 5327 e8bd
00000090: 3ebd 353e b030 8fbd 0e74 5ebd c3ca fabc
000000a0: aa2c 63bd 12ba 59bd 0691 443e eb36 dd3a
000000b0: 811b 36bc 9e57 1e3e c843 103b fffd 3e3d
000000c0: 02e4 a33d f22a d8bc 9f6b 493e 7c92 fdbb
000000d0: 2f70 ffbc 80fc a33d df3b bd3d 7341 933d
000000e0: 81ab c9bc 4065 09be d26f 29bd fe1b f4bd
000000f0: 8736 233d 1687 f53d 8b09 f33d a5de 36bd
00000100: 3b2a d8bc acfb 05bd ec66 a5bd 2f6c 4bbd
00000110: 5912 b1bd b8df a9bd 202b 4ebd d62b 133e
00000120: 8c9e b1bd bb55 1a3e 0581 2fbd bdf2 17be
00000130: 81a9 1cbd 8bd3 ab3c 6dd5 0abe 401f 84ba
00000140: 9628 54bc 7f15 82bd ad69 553e f900 8a3c
00000150: 7058 c43d fbd5 ae3d 5d35 6e3c fcbf 8ebd
00000160: 5882 84bd aa71 d0bc 4164 9c3c db3c a73d
00000170: 2302 f436 828a 8b3d 52d3 11bd ea88 f93d
00000180: 05bb c1bd 4733 4d3c 2432 813d 5e23 4abe
00000190: ac15 223b ef8f 11be 4314 7c3d b0d9 03bc
000001a0: 2945 23be e2e5 babd c075 c3bd 77c3 003e
000001b0: c774 003e 3b98 95bd 0a21 8ebd 88b6 243b
000001c0: 7ed9 0f3e 1016 423d 476c c5bd dcaa b13b
000001d0: 4af7 2ebd e7c3 b03d f733 013e 5285 dcbb
000001e0: 9dc0 e03d 4aa9 afbd bd43 2dbc edf3 433d
000001f0: 0c0b 76bd 91b4 a63d 801e cc3d e181 8a3d
00000200: 885e a23b e4d4 12be 9e22 edbd b006 29be
00000210: 8803 583d e0c9 7e3c 9e16 df3d 59be d03d
00000220: fa1f 5e3c 1aa6 22be d05d e4bb 20e6 3bbd
00000230: 7901 11bd e1ab 773d 0657 483d cb36 eb3d
00000240: 7717 8fbd cf51 4bbb d397 e13d 89fb acbd
00000250: d1e8 ca3b 90c4 f23d 447e e4bd 906a 12bd
00000260: 64cb 1f3e a7a0 c13d a4ab 15bd 7bc5 54be
00000270: 25e0 18bd b471 233e 8d64 fc3d 5764 db3c
00000280: 25f4 22bc 79f2 d43c 947b 5cbd 8876 513c
00000290: cd26 093e 0c4e 3c3c 2049 4a3e 5f82 1cbb
000002a0: 61f2 a8bd 1d0b a63d 0d57 d53c 530f b4bc
000002b0: 87d2 7ebd 32ca 02bd 6f9a 6c3d b33e b33d
000002c0: f0aa 61bd 3dc2 59bd 3a61 d6bd 1375 2ebc
000002d0: fc2f efbd aa92 f4bb 0379 98bd 1247 8fbd
000002e0: 542b ffbc 2779 05be 76a4 3ebd 2ece 8dbc
000002f0: 8c03 163d c765 26bd 4bde 21be 9833 983d
00000300: 43a8 633c 864e c4bd 1001 b43d edad e5bd
00000310: 615a 363e 770a a43d c07a 4abc e598 043d
00000320: aeec 833d 1954 4fbd 8a9b 863d 209c 023e
00000330: b671 16bd f56a 153e bb8f 5bbd 7694 933d
00000340: 7090 e1bd 46e6 25bc 744e 8d3d 8e30 c1bd
00000350: 9044 743d f96a 683d c599 403c a2eb ebbd
00000360: ff9e 763d a101 e4bb a3f3 c4bd a1a0 7ebc
00000370: 698e 1fbd 3529 683e b55b b0b9 8a03 933c
00000380: b610 2ebc 04ab 8cbd 1823 a7bc 5b1e b73c
00000390: fff3 103e dded 2e3e 3c23 21ba 1449 ad3d
000003a0: 2687 e3ba fbb6 193d 0bb8 8f3c 8dc7 c2bc
000003b0: 3b6a 28be eeb2 313e 8e1a 09be c98b 6dbd
000003c0: 3806 e83d 5a1e b7bd 6e9d 1dbc caf0 4d3d
000003d0: 451d fc3c a2a2 53bd b442 bebd 7c7f 42bd
000003e0: 4286 88bc 9878 f6bc bc73 893d 4b26 3d3d
000003f0: 7198 0f3d b307 f4bd b3fb e7bb cf8a d63d
-0.052100286 0.02311646 0.13470498 -0.024166413 0.106079906 0.018520568 -0.06277234 0.21741417
0.012538844 -0.1700359 0.12326638 0.023716565 0.080874994 0.088331394 0.03062515 -0.03181786
0.07337053 -0.11936291 0.071333155 -0.03903815 -0.047012176 0.12655449 0.05488286 0.015179411
0.12999915 -0.046694495 0.06702993 0.02712319 0.024484755 -0.057552166 -0.14251256 -0.16551715
0.109579585 -0.053555973 0.08302291 -0.113356255 0.17747971 -0.06991708 -0.054309897 -0.030614262
-0.055462517 -0.053155966 0.19195947 0.0016877329 -0.011114956 0.15463111 0.0022013057 0.04662895
0.080024734 -0.026387665 0.1966996 -0.0077384096 -0.031181423 0.08007145 0.09239935 0.07190218
-0.024617912 -0.1341753 -0.041366406 -0.119194016 0.039846923 0.11988656 0.118670546 -0.044645924
-0.026387325 -0.032710716 -0.080762714 -0.04966372 -0.08646078 -0.08294624 -0.050334096 0.14372191
-0.086728185 0.15071766 -0.042847652 -0.14838691 -0.03824759 0.020974895 -0.13557978 -0.0010080114
-0.01294913 -0.06351756 0.20841093 0.016846167 0.095871806 0.08536907 0.01453909 -0.06970212
-0.064701736 -0.025444824 0.019090774 0.08165904 7.2720154e-06 0.06813528 -0.03560192 0.121843174
-0.09459499 0.0125244325 0.06308392 -0.19740054 0.0024732156 -0.14215063 0.06154276 -0.008047506
-0.15944351 -0.09125878 -0.095439434 0.12574564 0.12544547 -0.07304426 -0.069398955 0.0025133211
0.1404781 0.04738432 -0.09639793 0.0054219794 -0.042716302 0.086311154 0.1261748 -0.00672976
0.10974238 -0.08577211 -0.010575232 0.047840048 -0.06006913 0.08139909 0.09966755 0.06763054
0.0049551167 -0.14339024 -0.11578868 -0.16506457 0.052737743 0.01555106 0.10892986 0.10192556
0.0135574285 -0.15883675 -0.006969191 -0.04587376 -0.035401795 0.06046665 0.048911117 0.1148506
-0.069868974 -0.0031024104 0.11015286 -0.08446414 0.0061923047 0.118538976 -0.11156896 -0.035746157
0.15604931 0.0945447 -0.036540642 -0.20778458 -0.037323136 0.15961343 0.12323866 0.026781244
-0.009945904 0.025994526 -0.05382879 0.012784608 0.13393708 0.011493217 0.19754457 -0.0023881418
-0.08249355 0.081075884 0.026042486 -0.021979963 -0.062212493 -0.03193111 0.057764467 0.08752193
-0.05509466 -0.053163756 -0.10467763 -0.01064803 -0.11679074 -0.007463773 -0.07444956 -0.069959775
-0.03114859 -0.13034497 -0.04654356 -0.017310228 0.036624476 -0.040624406 -0.15807454 0.07431716
0.013895097 -0.0958529 0.08789265 -0.11214814 0.17807914 0.080098085 -0.012358367 0.032372374
0.064416274 -0.05061731 0.065726355 0.1275487 -0.036729537 0.14591582 -0.05360387 0.07206051
-0.110138774 -0.010125702 0.06899729 -0.09433089 0.0596357 0.056742642 0.0117554115 -0.11519553
0.060210224 -0.006958202 -0.096167825 -0.015541227 -0.038954172 0.22671969 -0.00033637663 0.017946023
-0.010624101 -0.06868556 -0.020402476 0.022353342 0.14155577 0.17082925 -0.0006146913 0.08461204
-0.0017359003 0.03752802 0.017543813 -0.023776794 -0.16446774 0.17353413 -0.13389036 -0.057994638
0.11329311 -0.08941336 -0.009620054 0.050278462 0.030775676 -0.05166877 -0.09290066 -0.04748486
-0.016665582 -0.0300868 0.06711528 0.046179097 0.03505749 -0.11915531 -0.0070795654 0.104756944

network_body._body_endoder.seq_layers.2.bias f4 [128]
00000000: bb36 2f3c 457e 533c 818e 4e3c 258d c13b
00000010: c463 ef3b 66e8 433b 10fe ad3b 9461 89bb
00000020: 35c8 12bc ac83 0e3c 6972 163c bed1 233c
00000030: 3333 e63b 4299 91bc 986a 2f3b 431f aa3c
00000040: 77ac 733b 623e 523a 31a3 503c 096f 24bc
00000050: 0837 26bb 8efe 643b 9301 633c 29f9 0abb
00000060: 1c92 fcbc fe41 bd3b df5a 6d3c c2ac 31bc
00000070: d9f5 97bb 8730 773c 8933 1ebd a0b1 103c
00000080: e78b 32bd abcf d93b 3275 4cbb d929 803b
00000090: 2c13 3cbb 9844 0f3c 9f27 433c 260e fdba
000000a0: c940 6dbb b7a6 09bc 4b9c 193c 5884 ef3c
000000b0: f612 c13a 53f4 f03a d7f5 bebb 9fe7 f33b
000000c0: 2cbe 243b 96e4 68bb 9b81 303c 6d71 feba
000000d0: 19e1 313c b812 0cbc ca86 903a caaa f5b9
000000e0: 8290 753c b75c 2ebb 7767 37bb 415f d03b
000000f0: f70f 7abb c602 a53b 2b97 9a3b b287 7f3c
00000100: d403 cc3c 06b5 2d3c 18c7 843c 191a afbb
00000110: e1b9 0d3c 14be e8bb 56e3 c53b 628d c939
00000120: c97e b83b b33e c0ba d763 55ba 8b9b 893c
00000130: bb2d edbb 0166 1e3c 39c1 39bc 73bd 933c
00000140: 1123 cfbb 9e60 37bc 6854 91bc a04f 8e3c
00000150: cc03 4ebb 9951 e2bc c8aa bfbb ee3f 89bb
00000160: 7cab 043b 699a dc3b 3d31 083a e3ab c1bc
00000170: 6c10 073d 0f26 9039 3f8b 6a3c 6d7e 47bc
00000180: 5074 583a d264 103c e072 6a3c 2a01 16bc
00000190: 937f a9bc 7637 71bc fedd 303c 1c9e 263b
000001a0: d0a1 ad3b c7a9 f93c 4b01 2bbb 6ed9 b1bb
000001b0: 4aed 1fbc 199e c5bb a304 a13c 9d2f 8d3b
000001c0: 3feb 8c3b fdc7 7a3c 4646 413b 1ca7 293b
000001d0: 78d8 653b c019 353c 72f2 ecba c21c 213b
000001e0: 7e8f afba b097 d43b 709a 5ebb bf3c 373b
000001f0: 1f74 12bb c8f3 673c 4dfd e43c 05cc 9bb9
0.010694201 0.012908523 0.012607218 0.0059067183 0.007305594 0.002989316 0.0053098276 -0.0041925404
-0.008958866 0.008698385 0.009182551 0.009998737 0.0070251464 -0.017773274 0.0026766416 0.02076686
0.0037181654 0.000802016 0.01273422 -0.0100362385 -0.002536239 0.0034941765 0.013855356 -0.002120564
-0.03083139 0.005775689 0.014486997 -0.010844411 -0.0046374616 0.015087253 -0.038623367 0.008831412
-0.043590453 0.0066470704 -0.0031197784 0.0039112386 -0.002869795 0.008744381 0.011911302 -0.0019306585
-0.0036201945 -0.008401564 0.009375642 0.029237911 0.0014730382 0.0018383361 -0.0058276462 0.007443383
0.0025137765 -0.0035536638 0.010773088 -0.0019412466 0.01085689 -0.008549385 0.0011026498 -0.0004685729
0.014988067 -0.0026605555 -0.0027985254 0.0063590114 -0.0038156488 0.005035731 0.0047177277 0.015596317
0.02490417 0.010602241 0.016208217 -0.0053436873 0.008650274 -0.007102737 0.0060390634 0.00038443046
0.0056303483 -0.0014667123 -0.00081401825 0.016797801 -0.0072381175 0.009667874 -0.011337572 0.018034672
-0.006321319 -0.011192469 -0.017740443 0.017371953 -0.0031435369 -0.0276268 -0.005849216 -0.004188529
0.0020243814 0.0067322743 0.00051953254 -0.023641532 0.032974645 0.00027494176 0.014315425 -0.012176138
0.0008257078 0.0088131 0.014309615 -0.009155551 -0.020690715 -0.014722696 0.010795115 0.002542383
0.0052988306 0.030476464 -0.00260933 -0.005427531 -0.009761164 -0.0060308096 0.019655531 0.0043086545
0.0043005045 0.01530647 0.002949135 0.0025886958 0.0035071652 0.011053503 -0.0018077625 0.0024583791
-0.0013394204 0.006487809 -0.0033966564 0.0027959791 -0.0022347046 0.014157243 0.027952814 -0.0002971591

action_model._continuous_distribution.log_sigma f4 [1, 2]
00000000: 2eda a63c 1720 373c
0.020367708 0.011177084

action_model._continuous_distribution.mu.weight f4 [2, 128]
00000000: e4a8 9d3c 433c ba3c 7317 b3ba 6fbd 033d
00000010: 1740 433d 560b e1bb 0aea 47ba 7170 99bc
00000020: ba27 c8bc 8cbc b03b a66a f5ba 5d6f 243d
00000030: faeb 5a3d 0dd3 52bc f77b 56bb 6163 be3c
00000040: 9aa0 7abc 4aaf 95bc e53d f13b 924b 5bbb
00000050: c72f dabc 6a40 57bd 7ab3 8d3c fd96 54bd
00000060: 550d 7abb 6747 dc3c ddd8 053d 3198 afbc
00000070: 2ca5 97bc 5fd5 813c 56af 3a3b 1279 063c
00000080: e8a9 f4bb 1e95 ae3c 929c 29ba 313a 3fbd
00000090: 9c3c 1cbc 170c 8d3c 9873 2fbc 9b78 463b
000000a0: ab04 ffbc 0baa 68bb e5cd 623c f900 e8bb
000000b0: c96e 3bbc 11c9 91bc a3ec 223b 6364 bb3c
000000c0: 2ed3 f6bc 42bb ff3c 96ec 44bc 00f1 1dbd
000000d0: bd9c 0f3c f16d 573c 3f53 c3bc 28e7 c7bc
000000e0: 4997 853c 5996 5dbc 73a6 a33c ccbb aebc
000000f0: 99b1 16bd 2474 31bc a510 9dbc 18ab 353d
00000100: 303d 38bb ad96 cc3c 0618 343c 56cd 21bd
00000110: 84fd 5439 1527 b9bc a4ce afbc 483a 1a3d
00000120: ba31 df3c 54e4 ea3b d1cc dcbc 5b80 993b
00000130: 4f6a b13b d50f 733b 3d86 e6bc 10b6 2e3d
00000140: 3648 fcbb d82e 0bbd 1793 ddbc da92 c13b
00000150: 7421 b4bc e4ac bdb9 8702 97bc 0914 37bd
00000160: ea8d 003b faed 053d 0f46 68bb d683 0b3a
00000170: b424 893c e8d1 a73c 2c4e 103d e2a2 41bb
00000180: cbe3 7dba 0794 6dbb ed28 ba3c 16f2 1abc
00000190: 431f 8cbc 8a1b acbc e781 0b3c c1cd 303c
000001a0: 5e68 acbc 0e30 813a a5f9 e8bc a22a 083c
000001b0: 5dc0 5fbc dafa 8ebc 0306 0a3d 93ce 2a3b
000001c0: 9166 013d 61c4 ff3c 5a74 2fbd 168a 603b
000001d0: 42a6 abbb da56 003d 0565 c03a 7448 a83c
000001e0: de43 13bd d948 7ebc be36 3bbc 8a97 cc3c
000001f0: 915d 9fbc f6ad f33c 6229 263d ce3b 4fb8
00000200: 0933 f0bc 3d2b b03b 35bd 34bc e062 6c3c
00000210: 0295 6c3a 0527 fcbb 1b38 e53c 72b4 a1bb
00000220: ea2f 0f3c 7b47 af3b 450c 0abd ad5d 0bbc
00000230: 773d 013d 600f c73c e219 303c 3422 e9bc
00000240: fece a5bc 683e 9fbc e534 66bc 7086 ed3a
00000250: 71bc 2ebd 3703 063c 7324 ddbc 25a8 4ebc
00000260: e768 fd3c a7d7 cfbb 897a adbc c9dc 843b
00000270: 8f06 2e3c 6413 a7bc d3dc fa3a c34b 163c
00000280: ad5a ea3c b660 9b3c 0ea9 203d d695 93bb
00000290: 6436 033c b7f8 80bc f98e 13bd a29f 4cbc
000002a0: 7fc4 04bc 0785 f4bb 9878 713c 10c5 5dbb
000002b0: c1d3 8fbb f649 aebc acf0 bc3b f940 133c
000002c0: 25c8 52bc 20cd f03c 5c1a 003c 944f d639
000002d0: c034 6c3b 4093 f63b 813c 89bc 0a22 81bc
000002e0: 1464 00bc cafd 87b9 305e eb3a c2a1 e8bc
000002f0: d455 14b8 1642 76bb 6ea1 82bc 0585 d9bc
00000300: 8180 21bc 0836 9e3c ed84 4d39 9ab8 bb3c
00000310: 97ac 5abc 3abe d53c c511 58bc bf54 b73c
00000320: 65b3 833c c3a7 2b3c 12bd d83a 4148 c2bc
00000330: 97ac fe3c 96fc 6ebc 37a9 c13c 0a62 a2bb
00000340: c16a 613c 993d 593b 11c2 863c 8766 8bbc
00000350: 3332 19bd 9a8b 803c ff1e 6dbc 6f00 d8bc
00000360: c96e 79bb 4095 563c 9dd4 6abc 9420 adbb
00000370: 5c43 28bd e2f7 af3c 5111 e5bb cb5f 1cbc
00000380: 2af1 85bc e292 ae3b 99c8 56bc 2d5e 553c
00000390: 502a 5b3c 4f6a a43c 0e54 0bbb c63d bd3c
000003a0: 26f0 09bd 5230 49bc 5b26 93bc f3a6 f9bb
000003b0: e11d 143c 4c74 62bc 8b72 28bc d5ae b8bc
000003c0: fedf c539 171f d5bb 4994 0fbd bcf6 8abb
000003d0: ecbd a13c be49 86ba 388e 603c d2fe d53c
000003e0: 7e60 d8bc 6f7b ccbc b074 4e3c c8ca ffbc
000003f0: f726 0c3c f882 f8ba c52a e5bc 55d6 f83c
0.019245572 0.022733813 -0.0013663605 0.03216308 0.047668543 -0.0068678064 -0.0007626122 -0.018730374
-0.024433006 0.0053935703 -0.00187238 0.040145267 0.0534477 -0.012867701 -0.0032727697 0.023240747
-0.015297079 -0.01827206 0.0073621147 -0.0033461791 -0.02663411 -0.052551664 0.017297495 -0.051901806
-0.003815492 0.026889516 0.03267752 -0.021434875 -0.018511377 0.015848814 0.0028485856 0.008207576
-0.0074665435 0.021311339 -0.0006470169 -0.046686355 -0.009535935 0.017217679 -0.010708712 0.0030284289
-0.031130156 -0.0035501744 0.013843034 -0.007080194 -0.011439987 -0.017796071 0.0024860285 0.022875017
-0.030129995 0.031217221 -0.012019297 -0.038559914 0.008765397 0.013148771 -0.023843406 -0.024402216
0.01630749 -0.013524615 0.01997683 -0.021329783 -0.036790464 -0.010830913 -0.019172976 0.04435262
-0.0028112642 0.024974192 0.010992056 -0.039502464 0.00020312337 -0.022601644 -0.021460839 0.037653238
0.027245391 0.007168332 -0.026953133 0.0046844906 0.0054142843 0.0037088294 -0.028140182 0.042654097
-0.007699038 -0.03398022 -0.027047677 0.0059073986 -0.021988608 -0.00036177703 -0.018433822 -0.04469684
0.0019615837 0.032697655 -0.0035442149 0.0005322074 0.016741134 0.020485833 0.0352308 -0.0029546549
-0.0009685128 -0.0036251561 0.022724593 -0.009457132 -0.01710475 -0.021009225 0.008514858 0.010791243
-0.02104586 0.000985624 -0.028439352 0.008310946 -0.013656703 -0.0174536 0.03369714 0.002606307
0.031591956 0.03122157 -0.04283557 0.0034261993 -0.0052383253 0.031332828 0.0014678544 0.02054236
-0.035953395 -0.015520298 -0.011426626 0.024974603 -0.019453796 0.029746037 0.04056681 -4.9408343e-05
-0.02932121 0.005376248 -0.011031439 0.0144278705 0.00090248894 -0.007695081 0.027980855 -0.004934841
0.008739451 0.0053490973 -0.033703107 -0.008506221 0.031552758 0.024299324 0.010748358 -0.028458692
-0.020240303 -0.019438937 -0.014050697 0.001812173 -0.04266018 0.008179477 -0.02699492 -0.012613331
0.03093381 -0.0063428464 -0.021176593 0.00405464 0.010621681 -0.020394988 0.0019139297 0.009173336
0.02860769 0.018967014 0.039223723 -0.004503946 0.008008573 -0.015743596 -0.03602502 -0.012489231
-0.008103489 -0.007462147 0.014738224 -0.0033839382 -0.0043892567 -0.021275502 0.005765995 0.008987659
-0.012865101 0.029394686 0.007818785 0.0004087655 0.0036042184 0.007524878 -0.016752483 -0.015763301
-0.0078363605 -0.00025938294 0.0017957147 -0.028397445 -3.5365883e-05 -0.0037576011 -0.015946116 -0.026552686
-0.009857298 0.019312873 0.00019599842 0.022915173 -0.013346813 0.026091684 -0.01318783 0.022379277
0.016076753 0.010477009 0.001653584 -0.023716094 0.031088157 -0.014586588 0.023640258 -0.004955535
0.013758362 0.0033148287 0.01644996 -0.017016662 -0.03740139 0.015691567 -0.014472722 -0.026367394
-0.0038060418 0.013097107 -0.0143329175 -0.0052834246 -0.041079864 0.021480504 -0.0069905897 -0.009544323
-0.016350348 0.0053275684 -0.01310935 0.013022942 0.013376787 0.020070223 -0.0021259817 0.023100745
-0.03367629 -0.012279587 -0.017962625 -0.007618779 0.009040327 -0.013821673 -0.010281215 -0.022544304
0.00037741655 -0.0065039503 -0.035053525 -0.004240839 0.019743882 -0.0010245366 0.013705783 0.026122484
-0.026413199 -0.024961201 0.012601063 -0.031224623 0.008554212 -0.001895993 -0.027974496 0.030375639

action_model._continuous_distribution.mu.bias f4 [2]
00000000: 0cbb 0e3c e076 0138
0.008711588 3.0866708e-05

action_model._discrete_distribution.branches.0.weight f4 [1, 128]
00000000: 8bea 573a 8061 a23b ea17 39bc 512a 1cbb
00000010: 3706 72bc d3e6 a73b 0a19 bdbb 3dcb b8bb
00000020: 9efe 34bb a330 bd3c 6b9b 10bc 69ff 103b
00000030: 2041 493b 1b55 8ebb 97d0 153c 8fa0 1bbc
00000040: 6a25 22bc 4f8f 42bb 6583 93bb c22b da3c
00000050: ea81 3b3c 9b31 ef3b f3ff c8bb 332c 823c
00000060: df60 26bc 9fd5 dfba 4d44 80b9 990b 0abc
00000070: 0335 5a39 f29c c13b 72ce 8ebb a16d c33b
00000080: f33b 0c3c 388e 27bb 5e5b 3c3c 5806 e5bb
00000090: 4018 5a3c 7fba d4bb a7b1 53bc de4b 2b3c
000000a0: c357 e8bb 9aa4 d6bb 6f5e 9f3c 90e1 05bb
000000b0: 5b8a 39bc 9f0d ffbb 1937 0c3c 9240 a3bb
000000c0: b422 17bb 2075 56bc 277f 153c 2a64 ea3b
000000d0: 5be8 383c 0102 48bb 17d8 213c f622 b4bb
000000e0: 2dfe 5c3b f114 863c 25c7 8bbb b387 b13b
000000f0: b7cc d1bb bfbb 423c fb1f 5cbc b176 45bc
00000100: 6b8e 04bc 9787 d73b f784 b03c 60bb 4fbb
00000110: 0ebc 1d3c 3aae 15bb 4747 6e3a 5dcc d3ba
00000120: 5d1c b73b 2fa2 c73b 1b22 173b c539 2c3c
00000130: 594e 9c3c fec7 903b e793 8bbc f38a 5d3c
00000140: c324 2bbb 5ab6 fcbb d78a a43b 758f 593b
00000150: 67c9 02bb 1851 0939 b062 eeba 0858 943c
00000160: 62f5 06bb 8a8c 773b 3bf9 12bc 2db4 66bb
00000170: 2b07 4b3b 6361 91bb a03a cebb 9b55 2fbb
00000180: 7383 a63c d732 473c 638b 003c cb2f 4dbc
00000190: 1b7b 72bb 4578 213c e22c 293c 345e 2bbb
000001a0: ad66 c0bb ca85 cd3a c00a 2c3a 8e4a 463c
000001b0: afd3 3f3b 33eb b93b 1a20 18bc ddd6 b43b
000001c0: ad70 f93a 3011 e6bb b31a 9ebb 3825 133c
000001d0: 6fad ec3a 9dfb 55bb 0b56 b0bb 7704 25bc
000001e0: 250e d4bb e74c df3a 9f9c 593b aee8 c03a
000001f0: b7ca fe3b 8862 85bc bf01 16bc 1026 5abc
0.0008236549 0.0049554706 -0.011297205 -0.0023828933 -0.01477199 0.005123952 -0.005770807 -0.0056394623
-0.0027617584 0.02309448 -0.008826117 0.0022124893 0.0030708984 -0.0043436415 0.00914397 -0.009498729
-0.0098966155 -0.002968747 -0.0045017474 0.026632193 0.011444548 0.0072996146 -0.006134027 0.015890216
-0.010154932 -0.0017077214 -0.0002446495 -0.008425617 0.00020809849 0.005908602 -0.0043581063 0.0059639965
0.008559215 -0.0025566947 0.011496393 -0.0069892816 0.013311446 -0.0064919586 -0.012920774 0.0104551
-0.00709054 -0.0065503838 0.01945421 -0.0020428635 -0.01132449 -0.007783606 0.008558058 -0.0049820626
-0.0023061456 -0.013089448 0.009124554 0.007153054 0.011285867 -0.0030518773 0.00987818 -0.0054973317
0.0033720837 0.016367408 -0.0042656832 0.005417788 -0.0064025777 0.0118855825 -0.013435359 -0.012052224
-0.008090596 0.006577443 0.021547778 -0.0031697378 0.009627355 -0.0022839443 0.00090896006 -0.0016158927
0.005588098 0.006092332 0.00230611 0.01051182 0.019080328 0.004418372 -0.017038299 0.013521898
-0.002611444 -0.0077121677 0.005021434 0.003319708 -0.001995647 0.00013095548 -0.001818737 0.018108383
-0.0020593037 0.0037772977 -0.008970554 -0.0035202608 0.0030979614 -0.004436658 -0.0062936097 -0.0026753906
0.020326352 0.012158117 0.007845732 -0.012523602 -0.0036999646 0.009855335 0.010325642 -0.0026148679
-0.005871615 0.0015680131 0.0006562881 0.012102736 0.002927046 0.00567379 -0.009284997 0.0055187778
0.0019030772 -0.007021092 -0.00482496 0.008981042 0.0018057058 -0.0032651194 -0.005381351 -0.010071865
-0.0064714127 0.0017036468 0.0033204926 0.0014717781 0.0077756303 -0.016282335 -0.00915569 -0.013314739

onnx::Div_70 f4 [12]
00000000: a90a e73e 1f70 9c3e bee9 893b e4dc 9a3e
00000010: 9431 d03e 8427 fa3d fd92 db3e 71bc ca3e
00000020: f58f 713b ab69 d63e 732b ff3e 09cb ff3e
0.4512532 0.30554292 0.0042087724 0.3024665 0.40662825 0.12214568 0.4288558 0.39596894
0.0036859487 0.41877493 0.49837837 0.4995959
