results/SlayRL_006/SlayTheSquire_RL/checkpoint.pt (torch, 466475 bytes, 47 tensors)

network_body.observation_encoder.processors.0.normalizer.running_mean f4 [12]
0.989336 -0.14275934 0.0017290444 0.34585696 -0.6670726 -0.6662859 -0.66629153 -0.0010389624
0.0 -1.9603081e-05 -0.0012293922 0.0
00000000: 2045 7d3f 812f 12be 1aa1 e23a 2a14 b13e
00000010: 45c5 2abf b691 2abf 1592 2abf cb2d 88ba
00000020: 0000 0000 4c71 a4b7 8f23 a1ba 0000 0000

network_body.observation_encoder.processors.0.normalizer.running_variance f4 [12]
9.224736 288.48947 1.0000349 22194.332 79305.24 79398.92 79398.28 371.61484
1.0 7.9998617 439.46033 1.0
00000000: 8598 1341 a73e 9043 2501 803f aa64 ad46
00000010: 9fe4 9a47 7613 9b47 2413 9b47 b3ce b943
00000020: 0000 803f defe ff40 ecba db43 0000 803f

network_body.processors.0.normalizer.running_mean f4 [12]
0.989336 -0.14275934 0.0017290444 0.34585696 -0.6670726 -0.6662859 -0.66629153 -0.0010389624
0.0 -1.9603081e-05 -0.0012293922 0.0
00000000: 2045 7d3f 812f 12be 1aa1 e23a 2a14 b13e
00000010: 45c5 2abf b691 2abf 1592 2abf cb2d 88ba
00000020: 0000 0000 4c71 a4b7 8f23 a1ba 0000 0000

network_body.processors.0.normalizer.running_variance f4 [12]
9.224736 288.48947 1.0000349 22194.332 79305.24 79398.92 79398.28 371.61484
1.0 7.9998617 439.46033 1.0
00000000: 8598 1341 a73e 9043 2501 803f aa64 ad46
00000010: 9fe4 9a47 7613 9b47 2413 9b47 b3ce b943
00000020: 0000 803f defe ff40 ecba db43 0000 803f

network_body._body_endoder.seq_layers.0.weight f4 [128, 12]
0.6409615 0.41709936 0.10217275 0.57208884 0.072488554 -0.18697353 0.16975923 -0.25991777
-0.6146017 -0.22956875 -0.12810896 -0.07083204 0.24802835 -0.06828044 -0.71233004 -0.028973784
0.39796188 0.09373291 0.39955422 0.14742725 0.2727537 0.00020578843 -0.19559465 0.29022545
0.47959745 0.3012574 0.6029788 -0.3308069 0.12246196 -0.2693688 -0.5772951 0.011810186
-0.38721466 -0.0801305 0.24580339 -0.0010988872 -0.089608826 0.06367411 0.0239489 0.8336438
0.03767997 0.15361477 0.49717605 0.16943374 -0.15780164 -0.0077623026 0.22760119 0.0112416465
-0.25360543 0.33493808 -0.3546654 0.481278 -0.1282083 0.4676293 -0.0813237 0.30367464
-0.08249649 -0.03351895 -0.023661911 -0.10819469 -0.34010547 -0.22071631 -0.3140056 -0.38213977
0.096417315 -0.2101099 0.37568092 -0.16955252 0.07652075 -0.21484578 -0.06730102 -0.36160323
-0.5652351 -0.3119526 0.04611929 -0.5044348 -0.6815922 -0.20548378 -0.0028937163 0.3049821
-0.46633512 0.42278838 -0.047630925 -0.24734885 -0.106794186 0.42355928 0.09194742 0.010613574
0.016556395 -0.19816421 0.19332772 -0.2627289 0.07336953 0.37338024 -0.21512336 -0.019520253
-0.30078107 0.07474882 0.04583881 -0.07479631 -0.08714471 -0.29377642 -0.14764053 -0.3840786
-0.49147695 0.34662285 -0.11437233 0.30447367 -0.8318149 -0.19615458 -0.64253247 -0.28417054
0.27851036 -0.27292326 -0.007817725 -0.18213597 0.33091384 -0.13203424 0.13619147 -0.09389761
-0.15627679 0.90112764 0.12489143 -0.2168969 0.46351558 -0.21822889 0.070782766 -0.26118183
-0.13876417 -0.39697725 -0.3768524 -0.23410228 0.31305516 0.43928015 0.20982485 -0.20720883
-0.45110726 -0.30212918 0.1456196 0.24030866 -0.17854121 -0.039436664 0.035844907 0.019219581
-0.32056165 0.20287661 0.12159648 0.42355683 0.010859945 -0.02562282 0.38598123 -0.03569145
0.46206993 -0.010448406 0.16560738 0.17226933 -0.21554072 -0.072415955 -0.30638573 -0.1618357
0.2624305 0.29023924 0.12220722 0.13352326 -0.22025539 0.028317593 0.14253294 -0.07471087
0.106811635 -0.45255348 -0.62543994 0.21205637 -0.29206964 0.12749396 -0.23415124 0.08783268
0.20614116 -0.61430144 0.24118213 -0.051538818 -0.39235294 -0.31116962 -0.0024288488 0.0631122
-0.54505974 -0.5153904 0.3109843 0.099340156 -0.13972175 -0.20224778 0.12290347 -0.7803307
0.1120084 0.11262419 -0.37287244 -0.063503444 0.064894006 -0.058696084 0.22546475 -0.3340399
-0.109965235 -0.2726172 -0.14651461 0.45497474 0.1844611 0.56211007 0.5679126 -0.20457695
-0.13941045 -0.28810543 -0.20850267 0.38040733 -0.44451347 0.25306135 -0.14971018 -0.2804743
0.17404498 0.50427324 0.43043482 -0.5246502 -0.08924152 0.07728646 -0.055559024 0.29233247
-0.55516887 -0.11239818 0.24558266 0.061058216 0.45764172 -0.16558732 0.23169625 0.5981111
-0.26266554 0.0054605906 -0.001317555 0.18349816 0.12885025 0.22888201 0.14779638 0.1360632
-0.13864443 -0.13527295 -0.45557374 0.323439 0.040919412 0.04192854 -0.30647945 -0.22675961
-0.26577258 -0.08076763 0.16296473 0.08229333 0.932329 -0.14129065 0.4674554 -0.6407922
00000000: 0e16 243f 0c8e d53e f23f d13d 6a74 123f
00000010: e174 943d fd75 3fbe 5dd5 2d3e f113 85be
00000020: 8956 1dbf 1214 6bbe ff2e 03be 6310 91bd
00000030: 25fb 7d3e 9ed6 8bbd 435b 36bf 6e5a edbc
00000040: a9c1 cb3e 0af7 bf3d 5f92 cc3e 2bf7 163e
00000050: 5fa6 8b3e e9c8 5739 f749 48be 6e98 943e
00000060: cc8d f53e 693e 9a3e d25c 1a3f 865f a9be
00000070: 56cd fa3d b5ea 89be 9dc9 13bf 837f 413c
00000080: 0041 c6be 761b a4bd e2b3 7b3e 8908 90ba
00000090: d584 b7bd 9267 823d 7c30 c43c ae69 553f
000000a0: 5056 1a3d 314d 1d3e dc8d fe3e 0a80 2d3e
000000b0: c196 21be ea5a febb 4910 693e e22e 383c
000000c0: 92d8 81be 017d ab3e b496 b5be 126a f63e
000000d0: 0949 03be 1c6d ef3e 0a8d a6bd 3e7b 9b3e
000000e0: ebf3 a8bd 2b4b 09bd a0d6 c1bc 2d95 ddbd
000000f0: 4e22 aebe 7503 62be 58c5 a0be d3a7 c3be
00000100: 7176 c53d 0d27 57be 4059 c03e 2d9f 2dbe
00000110: e9b6 9c3d 8800 5cbe 1ed5 89bd 0f24 b9be
00000120: 3fb3 10bf 40b8 9fbe 95e7 3c3d a422 01bf
00000130: d47c 2ebf 576a 52be 81a4 3dbb 9d26 9c3e
00000140: 7ac3 eebe b877 d83e a518 43bd 0449 7dbe
00000150: e9b6 dabd c3dc d83e ee4e bc3d 8ee4 2d3c
00000160: 47a1 873c 8feb 4abe b4f7 453e 6784 86be
00000170: c442 963d b22b bf3e 4c49 5cbe f0e8 9fbc
00000180: faff 99be e915 993d 7ac1 3b3d cf2e 99bd
00000190: ed78 b2bd dd69 96be 142f 17be f3a5 c4be
000001a0: dea2 fbbe 8d78 b13e 0a3c eabd f9e3 9b3e
000001b0: d2f1 54bf bfdc 48be 027d 24bf cd7e 91be
000001c0: e998 8e3e 99bc 8bbe ea15 00bc da81 3abe
000001d0: 8a6d a93e fc33 07be c775 0b3e 644d c0bd
000001e0: 0607 20be 4db0 663f 14c7 ff3d 391a 5ebe
000001f0: ea51 ed3e 6577 5fbe 8ef6 903d a0b9 85be
00000200: 3218 0ebe 9a40 cbbe ccf2 c0be 82b8 6fbe
00000210: c448 a03e 54e9 e03e 53dc 563e 8d2e 54be
00000220: 88f7 e6be adb0 9abe 4e1d 153e 7913 763e
00000230: 82d3 36be 5788 21bd 1cd2 123d 6272 9d3c
00000240: a820 a4be e3be 4f3e 9307 f93d 71dc d83e
00000250: e9ed 313c f3e6 d1bc 559f c53e 3331 12bd
00000260: 6e94 ec3e cb2f 2bbc fb94 293e 5f67 303e
00000270: b5b6 5cbe d14e 94bd 97de 9cbe 42b8 25be
00000280: 4a5d 863e 3d9a 943e c747 fa3d 52ba 083e
00000290: a18a 61be 4cfa e73c 28f4 113e 0302 99bd
000002a0: 0fc0 da3d 17b5 e7be d51c 20bf 4e25 593e
000002b0: 278a 95be c78d 023e 58c5 6fbe 9fe1 b33d
000002c0: ab16 533e dc42 1dbf 73f8 763e 5e1a 53bd
000002d0: 7ce2 c8be a051 9fbe 522d 1fbb f840 813d
000002e0: 0989 0bbf a0f0 03bf 5639 9f3e da72 cb3d
000002f0: 3813 0fbe 0b1a 4fbe d1b4 fb3d c1c3 47bf
00000300: a964 e53d 83a7 e63d 23e9 bebe 180e 82bd
00000310: 26e7 843d 4e6b 70bd 3be0 663e 4707 abbe
00000320: 7435 e1bd 7b94 8bbe ed07 16be 73f2 e83e
00000330: 5fe3 3c3e 72e6 0f3f b862 113f 9f7c 51be
00000340: 9dc1 0ebe 8e82 93be b981 55be c0c4 c23e
00000350: 4597 e3be 4291 813e a04d 19be 549a 8fbe
00000360: d938 323e 0d18 013f f461 dc3e 7a4f 06bf
00000370: 42c4 b6bd 5d48 9e3d dc91 63bd 9aac 953e
00000380: 8c1f 0ebf 0431 e6bd 057a 7b3e 2e18 7a3d
00000390: 0450 ea3e b98f 29be c841 6d3e cf1d 193f
000003a0: 197c 86be c1ee b23b cfb1 acba f1e6 3b3e
000003b0: 52f1 033e 0c60 6a3e ef57 173e 2754 0b3e
000003c0: cef8 0dbe fe84 0abe f640 e9be cc99 a53e
000003d0: 1d9b 273d 43bd 2b3d e0ea 9cbe ac33 68be
000003e0: 5813 88be 8069 a5bd 3ae0 263e 6889 a83d
000003f0: 1dad 6e3f 7fae 10be 5056 ef3e f50a 24bf

network_body._body_endoder.seq_layers.0.bias f4 [128]
0.015801428 0.026540447 0.0033176972 0.021369869 -0.10950503 0.033702716 0.043770097 -0.11051496
0.091085 0.082473226 0.0012128566 0.0045264633 -0.07675521 0.027238885 0.025397228 0.07277474
-0.033834007 0.0015934921 -0.020731086 -0.06301966 -0.034561932 -0.002280708 -0.0065955007 0.025348032
0.06031944 0.02390566 0.040217783 0.040992 0.049339626 -0.052571394 0.026571661 0.0034808167
-0.026421638 0.03021954 0.050018948 0.10627202 0.0878985 0.021630391 -0.015975645 0.044210225
0.08799407 -0.0129122585 0.036137912 0.035578165 -0.03024259 0.026025582 0.0093024885 -0.019444535
0.046474427 -0.006096499 0.0063217753 0.07651134 -0.09571114 -0.020436367 0.025662232 -0.08773818
0.11057535 0.0659275 0.05049116 0.014967254 -0.015342355 0.0786417 0.05865447 -0.0027660453
0.07074196 0.0092226295 -0.02853036 0.016961621 0.06655713 -0.020501964 0.056707926 -0.008827684
0.06741632 -0.028406782 0.037180524 0.020705778 -0.13083313 0.043813687 0.00729718 -0.00060311647
0.069640085 0.017841214 0.12581538 0.0083584655 0.051146213 0.039105725 -0.023392105 0.038743075
0.04625935 0.05829725 0.03837161 -0.027614266 -0.02439324 -0.052152723 -0.02841625 -0.00059907703
0.06953868 0.025588213 -0.013406338 0.06876839 0.03946086 0.02515727 -0.007702828 -0.009322894
0.09406368 -0.0047586607 0.03668317 0.0520157 0.05883125 0.06738341 -0.08138822 0.07033274
0.0948713 -0.0525355 -0.057132978 -0.106693186 -0.03622696 0.019016739 0.02151053 -0.012436001
0.104182586 -0.06510508 -0.017739745 0.06972575 0.04134712 -0.017412137 0.012751712 0.042798385
00000000: ff71 813c 5a6b d93c b96d 593b dd0f af3c
00000010: 2c44 e0bd dc0b 0a3d 4648 333d ab55 e2bd
00000020: c68a ba3d b9e7 a83d b7f8 9e3a ba52 943b
00000030: d631 9dbd 1524 df3c d90d d03c ec0a 953d
00000040: 8795 0abd b9dc d03a 3dd4 a9bc 7410 81bd
00000050: d090 0dbd ee77 15bb 121f d8bb ada6 cf3c
00000060: 8411 773d cdd5 c33c 67bb 243d 3ae7 273d
00000070: 5918 4a3d 1a55 57bd d0ac d93c 6a1e 643b
00000080: 3172 d8bc f88e f73c abe0 4c3d 25a5 d93d
00000090: 2104 b43d 3832 b13c 5bdf 82bc c815 353d
000000a0: 3c36 b43d f08d 53bc 5905 143d 69ba 113d
000000b0: 4fbf f7bc 9a33 d53c 7769 183c 254a 9fbc
000000c0: f85b 3e3d 24c5 c7bb e526 cf3b fab1 9c3d
000000d0: 3404 c4bd 2b6a a7bc 9a39 d23c 13b0 b3bd
000000e0: 5475 e23d ff04 873d d2cf 4e3d 3739 753c
000000f0: 805e 7bbc e60e a13d ab3f 703d 8a46 35bb
00000100: 29e1 903d 831a 173c 80b8 e9bc 19f3 8a3c
00000110: 1b4f 883d bcf3 a7bc 9246 683d fea1 10bc
00000120: 9111 8a3d 57b5 e8bc 9b4a 183d 2a9f a93c
00000130: 1ff9 05be fb75 333d 2f1d ef3b 761a 1eba
00000140: 769f 8e3d bd27 923c bfd5 003e f2f1 083c
00000150: b17e 513d 532d 203d cda0 bfbc 0fb1 1e3d
00000160: 727a 3d3d 19c9 6e3d 8d2b 1d3d 5037 e2bc
00000170: 55d4 c7bc 189e 55bd 32c9 e8bc 610b 1dba
00000180: 4c6a 8e3d 5f9e d13c 42a6 5bbc 71d6 8c3d
00000190: b6a1 213d 9e16 ce3c 0168 fcbb 0dbf 18bc
000001a0: 75a4 c03d 8aee 9bbb 1741 163d 6a0e 553d
000001b0: 09f9 703d 5000 8a3d deae a6bd 9d0a 903d
000001c0: e24b c23d 772f 57bd 4504 6abd f581 dabd
000001d0: b962 14bd fec8 9b3c da36 b03c 5ec0 4bbc
000001e0: ae5d d53d d055 85bd f152 91bc 60cc 8e3d
000001f0: 995b 293d e6a3 8ebc 8fec 503c 5c4d 2f3d

network_body._body_endoder.seq_layers.2.weight f4 [128, 128]
-0.3286327 0.31648633 -0.08419012 -0.09591616 -0.00853236 0.08383209 -0.011456865 -0.078914456
-0.06929404 0.0802691 0.09948057 -0.096395366 -0.012302931 0.027600275 -0.028316004 0.05177339
0.19432598 -0.17891316 -0.10078726 0.10034522 0.057942748 -0.057891805 -0.107025884 -0.09411785
0.059675902 0.1306267 -0.04398362 -0.10087638 0.052129053 -0.045906305 -0.003120991 0.011361214
-0.09987204 0.04933738 0.12772353 -0.1349049 0.15791616 0.051833894 -0.20845775 -0.15719792
-0.1282907 0.12436456 -0.03368889 0.08677435 -0.0098974435 -0.026498841 0.087879054 0.01257745
-0.09463774 0.17640612 -0.008571278 -0.064418584 -0.023474082 0.042756144 -0.08919387 -0.21201271
0.058504876 0.01986808 -0.0037179322 -0.01845921 0.013228742 0.016669262 -0.016951768 -0.039435048
0.025841683 -0.04468326 -0.031476676 -0.056590922 0.013307375 -0.09658524 0.01111956 0.17519957
-0.1890976 -0.08285975 -0.012092204 -0.048731495 -0.06375448 0.007218146 0.060380634 -0.15666799
0.21447259 -0.08495867 0.05569379 0.1183968 -0.1677941 -0.09441878 -0.104462214 0.041189473
0.08243688 0.014939702 0.06741821 -0.090252675 -0.06606293 -0.11836863 -0.11187619 0.06497496
0.04925377 0.09791434 -0.15598945 0.19220407 -0.12232738 -0.17755817 -0.09772199 -0.003033937
-0.08571017 0.07802992 0.044610362 -0.07451985 -0.023933154 0.03803125 0.09404262 -0.027121421
-0.033166636 0.094841495 0.06925349 -0.00065944786 -0.058017302 -0.10104863 0.07642941 0.07153662
0.166714 0.06781643 -0.05935139 0.21612658 0.05619285 -0.09106194 -0.055072065 0.055786718
0.16646017 0.105577536 0.23705229 0.07332866 -0.06834299 -0.09743201 -0.1605522 0.0028242415
0.01476882 -0.35235012 0.020552192 0.09407751 -0.050055325 0.07798051 -0.1398519 -0.10762706
-0.040164817 0.045998108 0.15148693 -0.03425101 -0.16059947 0.13073538 -0.21163842 0.16526137
-0.17336485 -0.2212429 0.14388528 -0.14338854 0.13154958 0.049443547 -0.005244558 -0.05165338
-0.056342132 0.061857868 -0.029775739 -0.07582336 -0.042473376 -0.38210908 0.12886219 0.115945294
0.088290535 0.052636106 0.23235133 -0.04135242 -0.26743004 -0.013885702 0.0075646807 -0.039058205
-0.014815619 -0.030330468 0.09173147 0.102935374 0.08822391 0.19751003 0.23415379 -0.049704444
-0.31745365 -0.22358823 -0.20362356 0.15595913 -0.051234834 0.053639505 0.0064029447 0.014745119
0.040346127 0.086450845 0.11585779 0.12757431 0.01775971 0.099674195 -0.04819106 -0.04599196
0.23566881 0.07635775 -0.1561925 -0.035973623 0.12808028 -0.24054062 0.043164194 -0.048180476
-0.24140488 -0.060123928 -0.08142782 0.094347134 -0.024322668 0.2946003 -0.039449293 -0.050339494
-0.027060421 -0.039869804 0.022618769 -0.028186463 0.15329154 -0.23854885 -0.027378678 0.070579164
-0.14976116 -0.3473045 -0.07966662 -0.2845012 -0.16683249 0.10591636 0.025573581 0.0491024
-0.21931925 -0.123348944 -0.16957222 -0.15166081 0.05522039 0.03841303 0.014777849 -0.10574633
-0.102679536 0.14298259 0.015297249 0.024690753 0.06251338 0.104286 -0.14879172 0.16328031
-0.32244527 -0.026408572 0.20668665 -0.20275675 -0.09128774 -0.16771656 -0.055421256 0.098833755
00000000: 8c42 a8be 7f0a a23e df6b acbd b16f c4bd
00000010: 50cb 0bbc 29b0 ab3d 93b5 3bbc e79d a1bd
00000020: 09ea 8dbd 2064 a43d 78bc cb3d ef6a c5bd
00000030: 3c92 49bc f919 e23c f7f6 e7bc 5610 543d
00000040: 64fd 463e 0335 37be 8d69 cebd cb81 cd3d
00000050: 6055 6d3d f51f 6dbd 6330 dbbd dcc0 c0bd
00000060: b86e 743d 01c3 053e 2b28 34bd 4798 cebd
00000070: 4685 553d 4008 3cbd 8a89 4cbb 6324 3a3c
00000080: b689 ccbd fe15 4a3d f5c9 023e 8324 0abe
00000090: c6b4 213e c74f 543d f375 55be 7ef8 20be
000000a0: a35e 03be d9b2 fe3d 5dfd 09bd c0b6 b13d
000000b0: e328 22bc 1914 d9bc eff9 b33d a611 4e3c
000000c0: 6ed1 c1bd cea3 343e 8c6e 0cbc e4ed 83bd
000000d0: b84c c0bc 1121 2f3d 47ab b6bd dc19 59be
000000e0: cfa2 6f3d 62c2 a23c 8da8 73bb c537 97bc
000000f0: 5ebd 583c fa8d 883c 6fde 8abc a586 21bd
00000100: f0b1 d33c cb05 37bd b0ed 00bd e2cb 67bd
00000110: 2d07 5a3c 7bce c5bd d12e 363c 8467 333e
00000120: cda2 41be 5fb2 a9bd 611e 46bc ad9a 47bd
00000130: b591 82bd 3386 ec3b af51 773d 936d 20be
00000140: b49e 5b3e d0fe adbd 2c1f 643d 057a f23d
00000150: 37d2 2bbe a25e c1bd 49f0 d5bd 4bb6 283d
00000160: abd4 a83d a7c5 743c 8f12 8a3d 65d6 b8bd
00000170: 004c 87bd 416b f2bd 581f e5bd 9811 853d
00000180: 52be 493d 5087 c83d b3bb 1fbe 25d1 443e
00000190: c786 fabd cfd1 35be 7722 c8bd 04d5 46bb
000001a0: d088 afbd 27ce 9f3d 5bb9 363d dd9d 98bd
000001b0: 760f c4bc a8c6 1b3d 6b99 c03d be2d debc
000001c0: bdd9 07bd 423c c23d c6d4 8d3d ccde 2cba
000001d0: 8da3 6dbd 96f2 cebd 0687 9c3d cb81 923d
000001e0: 13b7 2a3e 57e3 8a3d 711a 73bd 4950 5d3e
000001f0: 792a 663d af7e babd 3f93 61bd 9d80 643d
00000200: 8974 2a3e 0939 d83d d6bd 723e 562d 963d
00000210: 69f7 8bbd 6f8a c7bd cc67 24be e916 393b
00000220: ecf8 713c 3c67 b4be 125d a83c b6ab c03d
00000230: d006 4dbd 3fb4 9f3d 5635 0fbe 936b dcbd
00000240: dd83 24bd 8368 3c3d 641f 1b3e c94a 0cbd
00000250: 3074 24be 7fdf 053e beb7 58be 473a 293e
00000260: 8e86 31be 808d 62be aa56 133e 72d4 12be
00000270: efb4 063e 5185 4a3d 8bda abbb 7f92 53bd
00000280: 02c7 66bd ad5e 7d3d 40ec f3bc 4749 9bbd
00000290: 90f8 2dbd cda3 c3be 73f4 033e ba74 ed3d
000002a0: abd1 b43d f598 573d 82ed 6d3e 2861 29bd
000002b0: 97ec 88be db80 63bc 24e1 f73b 7ffb 1fbd
000002c0: 36bd 72bc 9a77 f8bc b5dd bb3d c8cf d23d
000002d0: bdae b43d 1240 4a3e 03c6 6f3e e396 4bbd
000002e0: 4989 a2be 50f4 64be b282 50be c0b3 1f3e
000002f0: 9edb 51bd 19b5 5b3d cbcf d13b 8395 713c
00000300: fb41 253d 240d b13d d946 ed3d d7a2 023e
00000310: d07c 913c fc21 cc3d fd63 45bd 1162 3cbd
00000320: 2a53 713e 7461 9c3d edf0 1fbe 1459 13bd
00000330: 7a27 033e 4850 76be f0cc 303d e458 45bd
00000340: d732 77be 8244 76bd a1c3 a6bd 1239 c13d
00000350: 5540 c7bc dad5 963e 9595 21bd c930 4ebd
00000360: d1ad ddbc 854e 23bd ff4a b93c 4ce7 e6bc
00000370: 75f8 1c3e 2646 74be 4049 e0bc cf8b 903d
00000380: fd5a 19be e5d1 b1be 4128 a3bd 24aa 91be
00000390: 23d6 2abe adea d83d b07f d13c 991f 493d
000003a0: 3a95 60be 5f9e fcbd 57a4 2dbe f94c 1bbe
000003b0: c72e 623d fb56 1d3d cb1e 723c 8891 d8bd
000003c0: a649 d2bd 076a 123e 50a1 7a3c 4344 ca3c
000003d0: 0407 803d e693 d53d db5c 18be f432 273e
000003e0: 8c17 a5be ca56 d8bc aaa5 533e 779f 4fbe
000003f0: 11f5 babd e4bd 2bbe 6601 63bd 5a69 ca3d

network_body._body_endoder.seq_layers.2.bias f4 [128]
0.03470091 0.02245218 0.009578539 0.04194824 0.078243814 0.0030382138 -0.023241738 0.077218935
0.028988855 0.0101609295 0.048282173 0.02700317 -0.008489222 -0.008925187 0.075233564 -0.04251841
0.075192615 0.07939009 0.10609977 0.03316847 0.012793167 0.053408764 0.010928427 0.09366527
0.0013019198 0.023023032 0.045578834 0.00018304077 0.070260845 0.036334902 0.015201828 0.088324815
0.08572706 0.040361058 -0.003611715 -0.041532587 0.025931792 0.101452306 0.041844875 -0.011100358
0.014736496 -0.0036841617 0.055836618 -0.051328942 0.036612306 0.059815392 0.017792348 -0.0012804079
0.104229406 0.110137485 -0.0029526 0.006691561 0.025877459 0.0076618143 0.050825484 0.0007617479
0.019585475 0.04365437 -0.019466909 0.10644228 -0.03727514 -0.0017416804 0.04482771 0.038530175
-0.0019521158 -0.035743657 0.04180509 0.047479156 0.040727995 0.009059324 0.0040125716 0.102222316
0.03260045 0.0040813303 0.023980191 0.025343446 0.03862638 -0.020385103 -2.534064e-05 0.079079814
0.10058012 0.04133949 0.015247265 -0.0060800025 0.022968428 0.0113696195 0.07156508 -0.00742919
-0.015028727 0.024946488 0.054178458 0.001345178 0.080580555 0.121559486 0.028387373 0.04540229
-0.015086658 0.081398144 0.008656137 0.01317311 0.0048549213 -0.004194568 -0.006428376 0.086482495
0.03481934 0.006456308 -0.0033310188 0.04237774 0.062688015 0.042680487 0.016810706 0.05496094
0.087562114 0.02517303 0.0671083 -0.008956933 0.009728026 -0.025107654 0.07340459 0.044420425
0.035002284 0.02856328 -0.025300732 0.015907643 -0.003320322 -0.016749326 0.06581433 -0.0013180316
00000000: 8b22 0e3d a2ed b73c 4eef 1c3c ebd1 2b3d
00000010: 4b3e a03d c51c 473b 7565 bebc f624 9e3d
00000020: 097a ed3c 077a 263c 87c3 453d c135 dd3c
00000030: 6116 0bbc f33a 12bc 0e14 9a3d c927 2ebd
00000040: 96fe 993d 4697 a23d d64a d93d a9db 073d
00000050: 6e9a 513c 26c3 5a3d 250d 333c 94d3 bf3d
00000060: 2ea5 aa3a cc9a bc3c dfb0 3a3d a2ee 3f39
00000070: ebe4 8f3d e8d3 143d 1711 793c a4e3 b43d
00000080: ab91 af3d a351 253d 86b2 6cbb 131e 2abd
00000090: e96e d43c 3ac6 cf3d 8865 2b3d 47de 35bc
000000a0: 5871 713c fa71 71bb f0b4 643d 4c3e 52bd
000000b0: c9f6 153d fc00 753d 42c1 913c 5cd3 a7ba
000000c0: 3a76 d53d c38f e13d 6880 41bb e244 db3b
000000d0: f7fc d33c f50f fb3b 622e 503d 09b0 473a
000000e0: b871 a03c edce 323d 1179 9fbc 69fe d93d
000000f0: d1ad 18bd 1949 e4ba 439d 373d d1d1 1d3d
00000100: 23de ffba f167 12bd d03b 2b3d 8179 423d
00000110: 66d2 263d 8f6d 143c e47b 833b ef59 d13d
00000120: 0d88 053d aebc 853b 1b72 c43c 0f9d cf3c
00000130: b236 1e3d a9fe a6bc 9c92 d4b7 99f4 a13d
00000140: f3fc cd3d 9953 293d aacf 793c c23a c7bb
00000150: 4928 bc3c a447 3a3c b690 923d 9070 f3bb
00000160: 0d3b 76bc 945c cc3c 3bea 5d3d af50 b03a
00000170: 6b07 a53d 2ef4 f83d a38c e83c c0f7 393d
00000180: 082e 77bc 12b4 a63d 78d2 0d3c 07d4 573c
00000190: 0816 9f3b 9672 89bb 20a5 d2bb bc1d b13d
000001a0: b99e 0e3d 708f d33b 394d 5abb 4894 2d3d
000001b0: 9362 803d bcd1 2e3d 9bb6 893c b91e 613d
000001c0: c453 b33d ac37 ce3c 1470 893d 1ac0 12bc
000001d0: 4c62 1f3c 91ae cdbc 2555 963d 31f2 353d
000001e0: 8e5e 0f3d 8afd e93c 7b43 cfbc bf50 823c
000001f0: c299 59bb e235 89bc aac9 863d cdc1 acba

action_model._continuous_distribution.log_sigma f4 [1, 2]
0.026103482 -0.26907033
00000000: f8d6 d53c 96c3 89be

action_model._continuous_distribution.mu.weight f4 [2, 128]
-0.029505717 -0.05083433 -0.047015827 -0.032394428 0.08240978 0.024161238 -0.0036602675 0.12786071
-0.044590194 -0.05090718 0.0046795052 0.0037787629 -0.0111193545 -0.050960634 0.067106985 -0.05083031
0.06326214 0.080318816 0.1063189 -0.044877518 -0.019456249 0.05459046 -0.10221569 0.09447152
-0.008957728 0.011913287 0.04194755 0.020546598 0.085287794 -0.011570635 0.0271789 0.076564655
0.12473709 0.025709175 -0.014413907 -0.052548137 -0.035619106 0.090023786 0.03175617 0.004944195
-0.039262865 -0.04923635 0.108198434 -0.044855367 0.029175788 0.045627505 -0.0061550327 -0.016429083
0.08932805 0.09170606 -0.020735025 0.02878501 -0.049658407 -0.05665659 0.042673584 -0.0042431164
-0.012597455 0.050544403 -0.02412794 0.08941172 -0.020969272 -0.023172747 -0.015790073 0.04382426
-0.04098359 -0.0063937106 0.015386219 0.0740801 -0.047593515 0.018417358 -0.03133611 0.09303285
-0.01540451 -0.062220957 -0.081083715 0.0065386356 -0.028686672 -0.04476199 -0.056422364 0.0655645
0.096828856 0.0007726881 -0.05657116 -0.025074037 0.04031912 -0.014154264 0.06458708 -0.04676179
-0.012895386 0.056720696 0.017898211 -0.057700187 0.042741593 0.12641816 0.061588265 -0.039837625
-0.02601937 0.08671845 -0.052898563 -0.031165568 -0.016010039 0.009012346 -0.0075415038 0.1291119
0.03453999 -0.045668557 -0.0247361 -0.049404144 0.09564753 -0.026683122 -0.044757787 0.00565062
0.107513696 -0.024461314 0.05241224 0.019352747 -0.078226045 -0.015755245 0.12537096 -0.04974538
0.03675886 -0.05273471 -0.009266443 0.018422965 -0.031479463 0.022833692 0.019065091 0.021041729
-0.086016804 0.16922033 0.05402444 -0.053428937 -0.06591847 0.079273 0.0028146086 -0.09408991
-0.009271877 0.008454885 -0.07533897 -0.047453113 0.047796413 0.046236284 -0.17617027 0.06753884
-0.0666623 -0.038214516 -0.14916739 -0.025245337 -0.039451674 -0.073820956 0.15915933 -0.0788262
0.079693615 -0.104738444 -0.060646877 0.08705445 -0.0254016 -0.06166274 0.15896082 -0.103760205
-0.07068785 -0.077181846 0.09977672 0.062632844 0.14896457 -0.15400478 -0.086046726 0.0019387372
-0.011923898 -0.0015458206 -0.060539864 0.024302773 0.106303215 -0.13948014 0.14144339 0.14452544
-0.18941538 -0.1990838 -0.03645478 0.11311924 -0.030300384 -0.0071481364 -0.0703723 0.115932144
0.16494028 -0.04591637 0.03293336 -0.16229397 0.002485672 -0.015517559 -0.044814583 0.11471855
-0.04202056 0.034095965 -0.096095935 -0.1064909 -0.04107745 0.039474837 0.13598253 -0.15566905
-0.100731224 -0.03660223 -0.023791872 -0.040518176 -0.03944246 -0.0028701772 0.011985375 -0.09066279
-0.11855157 -0.07079151 0.118106596 -0.01737575 -0.008798054 0.17061922 -0.023685811 0.04980345
0.0075027617 -0.0006599668 -0.12943342 0.013870177 -0.1776682 -0.14324354 0.039521538 -0.027496325
-0.001413352 -0.07415886 0.2020623 -0.042407107 -0.040385775 0.10177222 0.01950787 -0.10131804
-0.05098435 0.011065374 -0.020220287 -0.0474401 -0.06463605 -0.04932396 -0.016646506 0.19157049
-0.1137486 -0.044964377 -0.0966496 -0.015189873 -0.01610543 0.09089196 -0.054635584 -0.044110622
0.058464374 0.22928657 -0.0015255953 0.09989665 -0.026886865 0.056641515 -0.14643104 0.09138602
00000000: f9b5 f1bc a937 50bd ab93 40bd 05b0 04bd
00000010: 75c6 a83d caed c53c 19e1 6fbb ebed 023e
00000020: 35a4 36bd 0c84 50bd 8956 993b 1fa5 773b
00000030: f42d 36bc 19bc 50bd 636f 893d 7133 50bd
00000040: 958f 813d 317e a43d b9bd d93d 7dd1 37bd
00000050: b662 9fbc 3f9a 5f3d 7656 d1bd 497a c13d
00000060: 6fc3 12bc f32f 433c 32d1 2b3d 5751 a83c
00000070: 5eab ae3d c392 3dbc 49a6 de3c eecd 9c3d
00000080: 2976 ff3d 0c9c d23c 4f28 6cbc b73c 57bd
00000090: 57e5 11bd 645e b83d c212 023d ea02 a23b
000000a0: 19d2 20bd 0eac 49bd 2497 dd3d 43ba 37bd
000000b0: 1002 ef3c e8e3 3a3d 28b0 c9bb 4996 86bc
000000c0: a0f1 b63d 63d0 bb3d 80dc a9bc 8bce eb3c
000000d0: 9d66 4bbd be10 68bd 7fca 2e3d d709 8bbb
000000e0: 8e65 4ebc a607 4f3d f5a7 c5bc 7e1d b73d
000000f0: c0c7 abbc c6d4 bdbc 2f5a 81bc 1181 333d
00000100: 69de 27bd 5582 d1bb 7b16 7c3c 4fb7 973d
00000110: 6bf1 42bd 00e0 963c 4b5a 00bd 0288 be3d
00000120: 3363 7cbc 67db 7ebd 380f a6bd 0d42 d63b
00000130: 5000 ebbc 5958 37bd 231b 67bd ae46 863d
00000140: 354e c63d 388e 4a3a 29b7 67bd 1168 cdbc
00000150: a925 253d 49e7 67bc 3b46 843d 4a89 3fbd
00000160: 2b47 53bc f653 683d 459f 923c 0857 6cbd
00000170: cf11 2f3d c373 013e fa43 7c3d c72c 23bd
00000180: 9326 d5bc 7199 b13d 2aac 58bd ef4e ffbc
00000190: 7c27 83bc 85a8 133c b81e f7bb e935 043e
000001a0: ce79 0d3d f40e 3bbd 5da3 cabc 005c 4abd
000001b0: dae2 c33d 9096 dabc f153 37bd d628 b93b
000001c0: 2430 dc3d 1863 c8bc 38ae 563d a789 9e3c
000001d0: fa34 a0bd 2511 81bc 3f61 003e d0c1 4bbd
000001e0: 7590 163d 5a00 58bd 47d2 17bc c2eb 963c
000001f0: 9cf0 00bd b90d bb3c 652e 9c3c b45f ac3c
00000200: 9429 b0bd 1848 2d3e bb48 5d3d 4dd8 5abd
00000210: 4300 87bd e259 a23d 4c75 383b 36b2 c0bd
00000220: 12e9 17bc 5c86 0a3c 514b 9abd 325e 42bd
00000230: 2cc6 433d 4262 3d3d fb65 34be ce51 8a3d
00000240: 3e86 88bd d386 1cbd 56bf 18be 4fcf cebc
00000250: 1498 21bd 712f 97bd aafa 223e a16f a1bd
00000260: 6836 a33d 1c81 d6bd dc68 78bd 9a49 b23d
00000270: 0417 d0bc 1292 7cbd a0c6 223e 3b80 d4bd
00000280: cbc4 90bd 8411 9ebd bd57 cc3d a645 803d
00000290: 2b8a 183e 6eb3 1dbe 4439 b0bd 3a1d fe3a
000002a0: 745c 43bc 229d caba a6f8 77bd 9c16 c73c
000002b0: 80b5 d93d e2d3 0ebe 89d6 103e 7afe 133e
000002c0: 1bf6 41be a0dc 4bbe 9b51 15bd 0fab e73d
000002d0: 8338 f8bc ea3a eabb 5a1f 90bd d56d ed3d
000002e0: 1be6 283e ce12 3cbd 22e5 063d 6430 26be
000002f0: a8e6 223b 5c3d 7ebc 7f8f 37bd 8ff1 ea3d
00000300: c01d 2cbd 36a8 0b3d f2cd c4bd e717 dabd
00000310: d440 28bd 5eb0 213d 013f 0b3e b567 1fbe
00000320: 2c4c cebd 38ec 15bd 2ce7 c2bc 63f6 25bd
00000330: 6b8e 21bd 9519 3cbb 4e5e 443c 6aad b9bd
00000340: 2acb f2bd 24fb 90bd dfe1 f13d 9757 8ebc
00000350: b725 10bc ceb6 2e3e bf08 c2bc b4fe 4b3d
00000360: bad9 f53b 9f01 2dba 328a 04be bd3f 633c
00000370: a7ee 35be 6fae 12be 56e1 213d f93f e1bc
00000380: 3940 b9ba 9ae0 97bd 6be9 4e3e 13b3 2dbd
00000390: 8e6b 25bd f46d d03d f8ce 9f3c d57f cfbd
000003a0: f7d4 50bd 8b4b 353c 04a5 a5bc 8d50 42bd
000003b0: e85f 84bd ec07 4abd 415e 88bc 0e2b 443e
000003c0: 07f5 e8bd 912c 38bd 3af0 c5bd f2de 78bc
000003d0: 89ef 83bc 9025 ba3d 90c9 5fbd 57ad 34bd
000003e0: 5778 6f3d 19ca 6a3e 7cf6 c7ba 9d96 cc3d
000003f0: d841 dcbc ef00 683d 05f2 15be 9828 bb3d

action_model._continuous_distribution.mu.bias f4 [2]
0.015740393 -0.025304088
00000000: fff1 803c 854a cfbc

action_model._discrete_distribution.branches.0.weight f4 [1, 128]
0.002555199 -0.012255314 0.009871474 0.0047157593 0.00036601344 0.002520099 0.007411814 -0.0039861216
0.010475185 -0.0004575045 0.005411857 0.0071433745 0.0078422 -0.015629312 -0.002862377 0.014522771
-0.0017916895 -0.009519629 -0.005114165 0.0013092457 0.008383385 -0.002229436 0.0043996875 0.0058050766
-0.0004958087 0.009448371 -0.0017840946 -0.00022742628 -0.004469155 -0.009641157 -0.0040920083 0.013751268
-0.0033286312 0.008376704 -0.0022918507 0.016315034 -0.0032695134 -0.0047941003 -0.0018957043 0.0057833097
0.004517833 0.0017045705 0.009393343 -0.006605507 0.0031629025 0.013574088 -0.00236423 0.012645269
-0.007014591 -0.007985219 0.0026758665 0.0033480362 0.0004929629 0.006334774 0.0029006083 -0.003683528
0.00068684935 0.019831955 0.011916701 -0.0145838875 -0.008250822 0.012356718 -0.003978901 -0.00046036308
-0.0014349141 -0.00072068383 0.007420926 0.0043662153 -0.00039638855 -0.005879624 0.0028772138 -0.0019729214
0.010413638 0.0025033806 0.0097884005 -0.0038408206 0.0025172066 0.012124198 -0.0118915625 -0.014097747
-0.0023520456 -0.0025616249 0.010629549 0.00032273072 -0.008092004 -0.016639018 -0.0019257426 0.006640915
0.0032937673 0.0033594116 0.0028595245 -0.007310118 0.0071276217 0.012419449 0.00020545968 0.0045426628
0.002535329 0.007853387 0.009463342 -0.0024239738 0.007951773 0.013471112 0.014882371 0.0041708774
0.017415084 0.012896872 0.0077043176 0.021304093 0.0076735774 0.003727747 0.012200409 -0.011089174
0.002021886 -0.004543509 0.0036810671 0.0036390256 -0.01001891 0.0029545352 0.012989412 -0.015214378
-0.0070569874 -0.0023795066 -0.012406378 0.0021174895 -0.0026827035 0.006694303 -0.001222204 0.0028057855
00000000: 2075 273b 83ca 48bc f6bb 213c a886 9a3b
00000010: 7ee5 bf39 3f28 253b cdde f23b 039e 82bb
00000020: 1ca0 2b3c 37dd efb9 f255 b13b f812 ea3b
00000030: 927c 003c 0b09 80bc b896 3bbb ebf0 6d3c
00000040: 20d7 eaba 38f8 1bbc ba94 a7bb ff9a ab3a
00000050: 775a 093c bb1b 12bb 412b 903b 8338 be3b
00000060: 29f9 01ba 57cd 1a3c 48d8 e9ba 4779 6eb9
00000070: fd71 92bb f2f5 1dbc 4116 86bb 004d 613c
00000080: 2a25 5abb 713e 093c e032 16bb 1ba7 853c
00000090: 5545 56bb d417 9dbb 4879 f8ba eb81 bd3b
000000a0: 540a 943b e56b df3a 89e6 193c 0273 d8bb
000000b0: b348 4f3b da65 5e3c 33f1 1abb 1a2e 4f3c
000000c0: a7da e5bb 70d4 02bc 975d 2f3b ba6a 5b3b
000000d0: 2e3a 013a f093 cf3b 2218 3e3b 5867 71bb
000000e0: ae0d 343a a076 a23c 443e 433c 42f1 6ebc
000000f0: 752e 07bc d573 4a3c 7161 82bb e35c f1b9
00000100: ba13 bcba 46ec 3cba 3d2b f33b 7812 8f3b
00000110: 5fd2 cfb9 dca9 c0bb a38f 3c3b 214c 01bb
00000120: f79d 2a3c c20f 243b 875f 203c 47b6 7bbb
00000130: b8f7 243b 92a4 463c d4d4 42bc 3dfa 66bc
00000140: c724 1abb efe0 27bb 8f27 2e3c 2f34 a939
00000150: 5394 04bc 8d4e 88bc 3369 fcba 089c d93b
00000160: 3fdc 573b 9329 5c3b dc66 3b3b b789 efbb
00000170: d38e e93b f27a 4b3c aa70 5739 9eda 943b
00000180: c327 263b 7eab 003c 220c 1b3c 88db 1ebb
00000190: 2748 023c f0b5 5c3c 30d5 733c dbab 883b
000001a0: 14aa 8e3c 674d 533c 8074 fc3b ec85 ae3c
000001b0: a272 fb3b 374d 743b 39e4 473c 5eaf 35bc
000001c0: 9e81 043b b7e1 94bb 0f3e 713b b87c 6e3b
000001d0: 5b26 24bc e0a0 413b 8bd1 543c ba45 79bc
000001e0: 4d3e e7bb 7ff1 1bbb 1f44 4bbc 94c5 0a3b
000001f0: 4cd0 2fbb e25b db3b 5c32 a0ba 45e1 373b

exp_avg f4 [128, 12]
-0.00039202176 -0.00033773656 -2.648874e-06 0.0005860561 -0.0004701921 0.0007892758 -0.00046738124 -4.9071103e-05
0.0 -6.310366e-06 -5.339535e-05 0.0 9.5673866e-05 8.145183e-05 1.0072347e-06 -0.00014634436
0.00029711568 0.00061878434 0.0002963076 1.2253575e-05 0.0 1.5757647e-06 1.3333382e-05 0.0
-0.00011080381 -9.391075e-05 -6.051424e-07 0.00017097683 0.00014778037 8.596079e-05 0.00014843141 -1.4315788e-05
0.0 -1.8409579e-06 -1.5577323e-05 0.0 6.550641e-05 5.5602068e-05 6.70058e-07 -0.00010076533
0.0001669411 0.00041325775 0.00016640694 8.437123e-06 0.0 1.0849832e-06 9.180619e-06 0.0
7.6790224e-05 6.1126884e-05 6.3839406e-07 -0.0001320043 -0.00031447748 0.000779819 -0.00031486133 1.1052124e-05
0.0 1.4212624e-06 1.2026058e-05 0.0 0.00017095497 0.0001464576 1.3208565e-06 -0.00025838762
0.00029633119 -5.4233453e-05 0.00029503927 2.1635089e-05 0.0 2.7821934e-06 2.3541614e-05 0.0
0.00013619194 0.000120413584 -1.3681716e-07 -0.00019326051 -0.0003401454 -0.0023818673 -0.00034077856 1.618264e-05
0.0 2.081029e-06 1.7608674e-05 0.0 -0.00026460848 -0.0002272612 -1.6701059e-06 0.00039803164
-0.00021959173 0.00079093897 -0.00021774195 -3.3327633e-05 0.0 -4.2858123e-06 -3.6264526e-05 0.0
5.034992e-05 4.3904998e-05 -1.6621424e-09 -7.353074e-05 -0.00014702996 -0.00079621025 -0.0001472604 6.157055e-06
0.0 7.917746e-07 6.699627e-06 0.0 0.0006160938 0.0005257392 4.0027585e-06 -0.00093839015
0.00029350072 -0.0011197935 0.00028927287 7.8572186e-05 0.0 1.0104095e-05 8.549611e-05 0.0
-0.00016973069 -0.00014590545 -1.1680967e-06 0.00025482223 -0.00020087065 0.00034006967 -0.00019965057 -2.1336462e-05
0.0 -2.743791e-06 -2.3216673e-05 0.0 -0.00014448381 -0.00012419838 -6.409738e-07 0.0002170099
0.00012945652 0.0006700019 0.00013031732 -1.8170442e-05 0.0 -2.336652e-06 -1.9771664e-05 0.0
2.0351887e-05 1.6978522e-05 2.1381992e-07 -3.2315522e-05 2.1729702e-05 0.00019587137 2.1577229e-05 2.7057229e-06
0.0 3.4794596e-07 2.9441555e-06 0.0 0.000102303195 8.7803666e-05 1.0351089e-06 -0.00015404352
0.0003875983 0.00035585274 0.000386703 1.2898227e-05 0.0 1.6586652e-06 1.4034847e-05 0.0
4.6417743e-05 4.3364602e-05 -1.4681126e-07 -5.791745e-05 3.3138174e-05 -0.0012548368 3.2868382e-05 4.849971e-06
0.0 6.236886e-07 5.2773644e-06 0.0 0.0002668009 0.00022571563 9.546104e-07 -0.00041320838
-0.00072399963 -0.0013601476 -0.0007253555 3.45982e-05 0.0 4.4492017e-06 3.7647056e-05 0.0
-3.4691773e-05 -3.0379586e-05 -1.623257e-07 5.0171424e-05 -3.103396e-05 0.00029538738 -3.0798674e-05 -4.200907e-06
0.0 -5.402216e-07 -4.5711017e-06 0.0 -0.00016316945 -0.00014045769 -7.036855e-07 0.0002444027
0.00013879214 0.00077869435 0.00013976567 -2.0464033e-05 0.0 -2.6316002e-06 -2.2267352e-05 0.0
-0.00013014354 -0.00011472041 -8.326839e-07 0.00018566087 -0.00035488064 0.00062111934 -0.00035386803 -1.5545886e-05
0.0 -1.9991442e-06 -1.6915823e-05 0.0 -2.4716239e-05 -2.3080878e-05 5.6927096e-08 3.0878924e-05
-3.7729875e-05 0.00068691507 -3.7574126e-05 -2.5858892e-06 0.0 -3.3253582e-07 -2.8137554e-06 0.0
1.724853e-05 1.4308105e-05 1.6868165e-07 -2.7656271e-05 5.1687375e-06 0.00016404322 5.0461394e-06 2.3155012e-06
0.0 2.9776479e-07 2.5195473e-06 0.0 -9.296128e-05 -8.1247774e-05 -7.305947e-07 0.00013496618
00000000: 4588 cdb9 3c12 b1b9 4fc3 31b6 8fa1 193a
00000010: 1e84 f6b9 67e7 4e3a d90a f5b9 b2d1 4db8
00000020: 0000 0000 a2bd d3b6 d2f4 5fb8 0000 0000
00000030: 84a4 c838 1ed1 aa38 5230 8735 0474 19b9
00000040: 31c6 9b39 ea35 223a bc59 9b39 b494 4d37
00000050: 0000 0000 dd7e d335 71b2 5f37 0000 0000
00000060: 585f e8b8 f3f1 c4b8 1271 22b5 3e48 3339
00000070: 7ef5 1a39 d945 b438 41a4 1b39 d72d 70b7
00000080: 0000 0000 d516 f7b5 0cac 82b7 0000 0000
00000090: 7c60 8938 4436 6938 09de 3335 fa51 d3b8
000000a0: e90c 2f39 84aa d839 867d 2e39 2b8d 0d37
000000b0: 0000 0000 bd9f 9135 7506 1a37 0000 0000
000000c0: 700a a138 3f31 8038 1b5e 2b35 a26a 0ab9
000000d0: 74e0 a4b9 c46c 4c3a f913 a5b9 836c 3937
000000e0: 0000 0000 34c2 be35 87c3 4937 0000 0000
000000f0: 6042 3339 6a92 1939 4948 b135 3378 87b9
00000100: e65c 9b39 ba78 63b8 80af 9a39 007d b537
00000110: 0000 0000 b8b5 3a36 3b7b c537 0000 0000
00000120: bfce 0e39 8d86 fc38 04e8 12b4 f9a5 4ab9
00000130: 8b55 b2b9 1a19 1cbb 86aa b2b9 f4bf 8737
00000140: 0000 0000 cea7 0b36 57b6 9337 0000 0000
00000150: 26bb 8ab9 f74c 6eb9 6728 e0b5 e7ae d039
00000160: 3542 66b9 0457 4f3a a951 64b9 46c9 0bb8
00000170: 0000 0000 d9ce 8fb6 bd1a 18b8 0000 0000
00000180: d12e 5338 a226 3838 7071 e4b0 8434 9ab8
00000190: 0e2c 1ab9 c4b8 50ba ea69 1ab9 b398 ce36
000001a0: 0000 0000 568a 5435 5ccd e036 0000 0000
000001b0: 5b81 213a c3d1 093a 6f4f 8636 4cfe 75ba
000001c0: 00e1 9939 09c6 92ba 8ca9 9739 1fc7 a438
000001d0: 0000 0000 c284 2937 604c b338 0000 0000
000001e0: bcf9 31b9 32fe 18b9 7fc7 9cb5 a999 8539
000001f0: cea0 52b9 614b b239 4b59 51b9 b4fb b2b7
00000200: 0000 0000 f821 38b6 6dc1 c2b7 0000 0000
00000210: 9480 17b9 403b 02b9 620f 2cb5 278d 6339
00000220: b8be 0739 11a3 2f3a caa5 0839 ba6c 98b7
00000230: 0000 0000 60cf 1cb6 53db a5b7 0000 0000
00000240: 58b9 aa37 196d 8e37 5f96 6534 878a 07b8
00000250: 2e48 b637 d262 4d39 bf00 b537 f793 3536
00000260: 0000 0000 54cd ba34 3594 4536 0000 0000
00000270: 9c8b d638 3c23 b838 12ee 8a35 be86 21b9
00000280: 9036 cb39 bf91 ba39 66be ca39 7765 5837
00000290: 0000 0000 4d9f de35 3577 6b37 0000 0000
000002a0: acb0 4238 63e2 3538 2ca3 1db4 63ec 72b8
000002b0: d8fd 0a38 5679 a4ba 28dc 0938 efbc a236
000002c0: 0000 0000 8e6b 2735 3714 b136 0000 0000
000002d0: 69e1 8b39 14ae 6c39 2a20 8035 e4a3 d8b9
000002e0: cbca 3dba fb46 b2ba c925 3eba 891d 1138
000002f0: 0000 0000 5a4a 9536 38e7 1d38 0000 0000
00000300: 0282 11b8 aad7 feb7 c04b 2eb4 286f 5238
00000310: 762a 02b8 39de 9a39 d32d 01b8 84f5 8cb6
00000320: 0000 0000 bf03 11b5 7761 99b6 0000 0000
00000330: 7718 2bb9 d347 13b9 e6e4 3cb5 2d23 8039
00000340: bb88 1139 4b21 4c3a 108e 1239 2daa abb7
00000350: 0000 0000 8c9a 30b6 c6ca bab7 0000 0000
00000360: 2477 08b9 0d96 f0b8 9a85 5fb5 f6ad 4239
00000370: 460f bab9 9dd2 223a 5d87 b9b9 8968 82b7
00000380: 0000 0000 0929 06b6 74e6 8db7 0000 0000
00000390: b855 cfb7 cf9d c1b7 0180 7433 fe83 0138
000003a0: 2540 1eb8 1712 343a e998 1db8 3d89 2db6
000003b0: 0000 0000 6087 b2b4 f3d3 3cb6 0000 0000
000003c0: f0b0 9037 d80c 7037 dc1e 3534 64ff e7b7
000003d0: 1e6f ad36 0403 2c39 0252 a936 0264 1b36
000003e0: 0000 0000 7bdc 9f34 7e15 2936 0000 0000
000003f0: 35f4 c2b8 9163 aab8 161e 44b5 b585 0d39

exp_avg_sq f4 [128, 12]
4.8696984e-06 3.1365091e-06 2.862526e-10 1.4934783e-05 0.000107905355 0.000108176784 0.00010767706 1.0191025e-07
0.0 1.7032432e-09 1.2065637e-07 0.0 4.6336834e-07 3.1797023e-07 4.5858133e-11 1.4214327e-06
1.64039e-05 1.6345568e-05 1.6322861e-05 1.0053426e-08 0.0 3.1888053e-10 1.2045567e-08 0.0
4.38224e-07 2.774171e-07 1.2303182e-11 1.4385337e-06 4.118117e-06 4.1648e-06 4.1296767e-06 9.612352e-09
0.0 1.5931088e-10 1.1381502e-08 0.0 1.6120757e-07 1.14909284e-07 1.5722292e-11 4.6050482e-07
5.560364e-06 5.5451615e-06 5.5337096e-06 3.1683285e-09 0.0 1.9183545e-10 3.751002e-09 0.0
7.116841e-08 4.3901597e-08 4.1038583e-12 2.459779e-07 1.5123583e-06 1.7059857e-06 1.5094192e-06 1.6649347e-09
0.0 3.3332597e-11 1.9735622e-09 0.0 1.1242588e-06 7.086983e-07 8.237269e-11 3.5998082e-06
3.1338626e-05 3.1269e-05 3.1242274e-05 2.4464445e-08 0.0 4.4155493e-10 2.8971119e-08 0.0
4.0615164e-06 2.4392932e-06 1.0353966e-10 1.4326925e-05 3.3716886e-05 3.5224468e-05 3.3865817e-05 9.6310394e-08
0.0 1.5921473e-09 1.1404583e-07 0.0 2.6306923e-06 1.6398772e-06 1.4335569e-10 8.566229e-06
5.5011173e-05 5.5198503e-05 5.4914184e-05 5.8189656e-08 0.0 9.622284e-10 6.889813e-08 0.0
4.3706606e-07 2.5968546e-07 1.13814964e-11 1.5539259e-06 3.8087583e-06 3.9228144e-06 3.824569e-06 1.0588694e-08
0.0 1.7368242e-10 1.2569753e-08 0.0 1.3606615e-05 8.418829e-06 7.107039e-10 4.4906625e-05
0.00027170032 0.0002719412 0.00027128975 3.0474322e-07 0.0 5.084933e-09 3.6082596e-07 0.0
1.2598982e-06 8.0223197e-07 7.99828e-11 4.0087675e-06 3.0215939e-05 3.0220412e-05 3.0135896e-05 2.707313e-08
0.0 4.5854195e-10 3.2093137e-08 0.0 1.2028516e-06 7.509683e-07 3.439924e-11 4.0635127e-06
1.1934397e-05 1.2160961e-05 1.1966322e-05 2.7251463e-08 0.0 4.592354e-10 3.2282724e-08 0.0
1.3050795e-08 9.032104e-09 1.0929365e-12 3.823792e-08 3.7186084e-07 3.759369e-07 3.7024202e-07 2.5966232e-10
0.0 1.7982418e-11 3.0688882e-10 0.0 5.1633106e-07 3.3619455e-07 5.1891085e-11 1.5709803e-06
1.9057376e-05 1.8981871e-05 1.8974159e-05 1.0627758e-08 0.0 2.2280777e-10 1.25861925e-08 0.0
8.848335e-07 5.409599e-07 2.4382357e-11 3.0074866e-06 8.309508e-06 8.982173e-06 8.337354e-06 2.0328464e-08
0.0 3.7480416e-10 2.4069333e-08 0.0 3.5619316e-06 2.140868e-06 8.94668e-11 1.2471928e-05
2.9615147e-05 2.9909388e-05 2.9745288e-05 8.407782e-08 0.0 1.5273856e-09 9.955208e-08 0.0
1.5792924e-07 1.0222444e-07 9.153487e-12 5.006141e-07 3.3400734e-06 3.3602055e-06 3.3314836e-06 3.4163388e-09
0.0 5.967643e-11 4.0373433e-09 0.0 1.6597501e-06 1.0345394e-06 4.720564e-11 5.5541377e-06
1.6227441e-05 1.6588334e-05 1.6271977e-05 3.7277445e-08 0.0 6.165851e-10 4.4186876e-08 0.0
1.5075125e-06 9.620677e-07 8.3470626e-11 4.8551133e-06 3.1224838e-05 3.1614683e-05 3.115861e-05 3.2492004e-08
0.0 7.118166e-10 3.8472397e-08 0.0 2.4106603e-07 1.4662498e-07 6.744376e-12 8.321973e-07
2.444657e-06 2.5859676e-06 2.452186e-06 5.667075e-09 0.0 9.37048e-11 6.707594e-09 0.0
2.6687484e-08 1.7939565e-08 1.4373553e-12 8.68776e-08 4.919423e-07 4.9438495e-07 4.9076397e-07 5.85222e-10
0.0 1.1568322e-11 6.9117573e-10 0.0 6.3471504e-07 4.164663e-07 4.4722785e-11 1.9388447e-06
00000000: 6466 a336 d17c 5236 795e 9d2f 6890 7a37
00000010: 3f4b e238 f8dc e238 aed0 e138 c1d9 da33
00000020: 0000 0000 8b17 ea30 c58d 0134 0000 0000
00000030: dcc4 f834 7fb5 aa34 abaf 492e 0ec8 be35
00000040: 1b9b 8937 d71d 8937 14ed 8837 6fb7 2c32
00000050: 0000 0000 724e af2f f7f0 4e32 0000 0000
00000060: 0c45 eb34 eaef 9434 9b70 582d a413 c135
00000070: 5b2e 8a36 5cbf 8b36 a791 8a36 9223 2532
00000080: 0000 0000 072a 2f2f 6088 4332 0000 0000
00000090: 6618 2d34 0cc4 f633 744b 8a2d 4d3b f734
000000a0: 2a93 ba36 9310 ba36 34ae b936 d3b9 5931
000000b0: 0000 0000 e1ec 522f 2ae2 8031 0000 0000
000000c0: 3fd5 9833 518e 3c33 4564 902c f20e 8434
000000d0: 3cfc ca35 39f9 e435 4097 ca35 afd3 e430
000000e0: 0000 0000 2b99 122e 469f 0731 0000 0000
000000f0: 3de5 9635 603d 3e35 b423 b52e 3c94 7136
00000100: 9871 0338 d526 0338 230a 0338 e225 d232
00000110: 0000 0000 55bf f22f 2adc f832 0000 0000
00000120: 2948 8836 bdb2 2336 a6af e32e ad5d 7037
00000130: 3b6b 0d38 fcbd 1338 250b 0e38 33d3 ce33
00000140: 0000 0000 b4d2 da30 5ce9 f433 0000 0000
00000150: f38a 3036 c019 dc35 0a9f 1d2f acb7 0f37
00000160: ccbb 6638 f184 6738 a853 6638 34ec 7933
00000170: 0000 0000 673f 8430 26f5 9333 0000 0000
00000180: e7a5 ea34 e66a 8b34 b439 482d 7d90 d035
00000190: f899 7f36 b8a0 8336 cc54 8036 92e9 3532
000001a0: 0000 0000 41f7 3e2f 5cf2 5732 0000 0000
000001b0: f747 6437 983e 0d37 575b 4330 1f5a 3c38
000001c0: 0073 8e39 5493 8e39 e53b 8e39 979b a334
000001d0: 0000 0000 8bb7 ae31 8bb7 c134 0000 0000
000001e0: c619 a935 f658 5735 50e2 af2e 0d83 8636
000001f0: 3c78 fd37 d781 fd37 58cc fc37 718e e832
00000200: 0000 0000 0b16 fc2f c7d6 0933 0000 0000
00000210: ab71 a135 2696 4935 1a4a 172e 4f59 8836
00000220: d839 4837 ee06 4c37 f6c2 4837 9a16 ea32
00000230: 0000 0000 a377 fc2f 3ba7 0a33 0000 0000
00000240: 0136 6032 9d2b 1b32 30d1 992b 0a3b 2433
00000250: 2aa4 c734 60d4 c934 adc5 c634 39c0 8e2f
00000260: 0000 0000 ce2c 9e2d c3b6 a82f 0000 0000
00000270: 009a 0a35 3a7e b434 2b38 642e 79da d235
00000280: 67dd 9f37 423b 9f37 b22a 9f37 6095 3632
00000290: 0000 0000 d0fa 742f a93a 5832 0000 0000
000002a0: 4c85 6d35 7b36 1135 3078 d62d 3ad4 4936
000002b0: 1169 0b37 24b2 1637 aae0 0b37 c49e ae32
000002c0: 0000 0000 ff0c ce2f 06c1 ce32 0000 0000
000002d0: 8509 6f36 d5ab 0f36 55bd c42e 863e 5137
000002e0: 0b6e f837 ece5 fa37 8585 f937 458e b433
000002f0: 0000 0000 1aec d130 56c9 d533 0000 0000
00000300: 4293 2934 7b86 db33 a407 212d f061 0635
00000310: 0626 6036 e47f 6136 7492 5f36 dec4 6a31
00000320: 0000 0000 d83a 832e d9b8 8a31 0000 0000
00000330: 94c4 de35 81da 8a35 d39c 4f2e ae5d ba36
00000340: 2a20 8837 2d27 8b37 ce7f 8837 fc1a 2033
00000350: 0000 0000 527c 2930 fcc7 3d33 0000 0000
00000360: bc55 ca35 6520 8135 c98d b72e 1be9 a236
00000370: 6af7 0238 029a 0438 4eb0 0238 568d 0b33
00000380: 0000 0000 a4a9 4330 d93c 2533 0000 0000
00000390: dd6b 8134 f86f 1d34 f04b ed2c 2a64 5f35
000003a0: e30e 2436 968a 2d36 3c90 2436 1eb8 c231
000003b0: 0000 0000 1d0f ce2e 9f78 e631 0000 0000
000003c0: 663e e532 8519 9a32 2f4a ca2b 7791 ba33
000003d0: 040e 0435 e0b5 0435 0bbd 0335 56dd 2030
000003e0: 0000 0000 1783 4b2d 2bfd 3d30 0000 0000
000003f0: 4961 2a35 b196 df34 61b1 442e 191d 0236

exp_avg f4 [128]
-0.0015197379 0.0003794957 -0.0004433028 0.0002612848 0.00034213255 0.00067004515 0.0005013298 -0.0010321648
0.00019073626 0.002433343 -0.00066077546 -0.00056273467 8.377748e-05 0.00039945947 0.00015030462 0.0010714721
-0.00013010278 -0.00063375896 -0.00048152122 -8.016097e-05 7.167228e-05 -0.00034999126 0.0002720485 -0.0013340315
0.0010325004 0.00039534306 -5.186568e-05 0.00083178515 -0.00011979691 -2.656068e-05 -0.000226686 0.00018934529
-6.686352e-05 0.0003454924 0.00037272496 0.00051072496 0.00031346368 8.439002e-05 -0.00095353037 -0.0005697881
0.00010085218 0.00022952573 -0.0009714257 0.0004906842 0.00033113622 0.0002739264 -0.00016284922 0.00018007461
0.0006597986 0.00039211643 -0.00023527902 1.0781742e-05 -0.00016606822 -0.0011957685 -0.0012942813 0.00033327873
0.0016821844 0.00043640105 0.00073284004 -0.00068887696 -1.4557854e-06 0.000388909 0.00037214882 -0.00042475396
-0.00025874644 -0.00033614232 -0.0006134913 -0.00077345996 0.0006401013 -0.00046275544 0.0006402214 0.00024782048
-0.0010556487 -0.00036587354 0.00077295676 0.00031985343 -2.2577007e-05 0.00038543128 -0.0006363919 0.0001327833
0.0017936297 0.0004905338 0.0012993178 -0.000222313 0.00028694794 -0.0015316886 0.00015292238 -0.00034250642
0.000316058 0.00041975908 0.0005089676 -0.0002133599 -0.0016458221 -0.00013901628 -0.00059600995 9.6714866e-05
0.001062946 0.0017025145 -0.00056556 0.0008336892 7.916413e-05 -0.00071592437 0.00017794133 0.00025885305
0.0017148261 0.00043308185 0.00060898945 3.0290448e-05 0.00045889497 8.834258e-05 0.00023068431 0.00022944211
0.0008854373 -0.0001889804 9.9483805e-06 9.898512e-05 0.0002873288 -0.00028797836 0.00025173626 -0.001083716
0.0007394965 5.470335e-05 -0.00025984104 0.0010885282 0.0003934536 8.418546e-05 8.354402e-05 -9.687881e-05
00000000: f131 c7ba 0df7 c639 186b e8b9 0dfd 8839
00000010: 4160 b339 f8a5 2f3a ac6b 033a b449 87ba
00000020: 6000 4839 b978 1f3b e437 2dba 7c84 13ba
00000030: b1b1 af38 8b6e d139 179b 1d39 a370 8c3a
00000040: 336c 08b9 d822 26ba af74 fcb9 181c a8b8
00000050: c34e 9638 087f b7b9 bba1 8e39 abda aeba
00000060: f754 873a 0c46 cf39 5a8a 59b8 280c 5a3a
00000070: 7a3b fbb8 a0ce deb7 8fb2 6db9 fd8a 4639
00000080: 1439 8cb8 3423 b539 4c6a c339 2ce2 053a
00000090: 6258 a439 8cfa b038 57f6 79ba d55d 15ba
000000a0: 9a80 d338 d8ac 7039 46a7 7eba 42a1 003a
000000b0: 5a9c ad39 c79d 8f39 81c2 2ab9 69d2 3c39
000000c0: 56f6 2c3a fa94 cd39 3bb5 76b9 3be3 3437
000000d0: 9922 2eb9 55bb 9cba e0a4 a9ba eabb ae39
000000e0: be7c dc3a c2cc e439 101c 403a c095 34ba
000000f0: 6864 c3b5 7be6 cb39 f81c c339 83b1 deb9
00000100: 5ca8 87b9 423c b0b9 b4d2 20ba 05c2 4aba
00000110: 79cc 273a fc9d f2b9 88d4 273a e7ed 8139
00000120: b15d 8aba b7d2 bfb9 40a0 4a3a 00b2 a739
00000130: c163 bdb7 b613 ca39 8ad3 26ba bf3b 0b39
00000140: 3a18 eb3a 2b97 003a df4d aa3a b11c 69b9
00000150: 8071 9639 f1c2 c8ba ca59 2039 6f92 b3b9
00000160: 96b4 a539 1c13 dc39 3d6c 053a 5db9 5fb9
00000170: a0b8 d7ba e6c4 11b9 8d3d 1cba 66d3 ca38
00000180: 8d52 8b3a e826 df3a 1742 14ba ef8b 5a3a
00000190: eb04 a638 dfac 3bba c395 3a39 abb6 8739
000001a0: 04c4 e03a 430f e339 97a4 1f3a 3e18 fe37
000001b0: d797 f039 9044 b938 d9e3 7139 6696 7039
000001c0: b11c 683a 0a29 46b9 f8e7 2637 3b96 cf38
000001d0: 9ea4 9639 cdfb 96b9 78fb 8339 7a0b 8eba
000001e0: c5da 413a 4671 6538 463b 88b9 f2ac 8e3a
000001f0: 7348 ce39 ba8c b038 5b34 af38 6a2b cbb8

exp_avg_sq f4 [128]
8.425906e-05 7.244807e-06 7.5522807e-06 2.459208e-06 1.3383719e-06 1.9723893e-05 7.645864e-05 4.749507e-05
8.409468e-06 0.00024784013 2.171957e-05 2.1421187e-05 2.0186894e-07 8.543592e-06 1.6316093e-05 6.6870416e-05
2.6573568e-06 2.945086e-05 2.5702411e-05 4.593088e-06 4.552241e-07 1.0243852e-05 4.6445607e-06 0.00012718533
6.418196e-05 1.6280253e-05 3.6523506e-05 5.485768e-05 8.3820004e-07 6.7390964e-08 3.4162317e-06 1.4096225e-06
1.1548474e-06 1.3738027e-05 3.8394246e-06 0.00014099265 9.781402e-06 0.0002542596 7.382609e-05 9.098479e-06
3.91199e-06 1.6472925e-06 9.775224e-05 1.4953963e-05 4.602416e-06 1.5730998e-06 7.851293e-06 1.2899102e-06
4.0675124e-05 8.3447485e-06 5.9362355e-06 8.88903e-07 4.3633763e-06 5.373253e-05 0.0002071842 3.0745407e-06
0.00014134115 7.184731e-05 5.7394824e-05 6.4876374e-05 2.378868e-06 1.2135556e-05 1.2068424e-05 2.5978337e-05
9.864097e-06 9.108113e-06 3.3157514e-05 2.5868718e-05 3.653072e-05 1.854708e-05 2.2967371e-05 1.7587408e-05
5.962339e-05 2.2930211e-05 6.753012e-05 6.247517e-06 7.8688294e-07 9.055103e-05 8.640798e-05 1.0553326e-05
0.00017964888 2.0513879e-05 0.0001730084 4.1960275e-06 6.1338915e-06 8.4390296e-05 1.34306e-06 3.7121583e-06
1.4530209e-05 2.6124195e-05 1.4153382e-05 7.2079825e-07 8.6402e-05 2.9310786e-06 3.0436291e-05 6.014739e-06
8.71848e-05 0.00013997198 3.5108853e-05 9.673035e-05 1.8293911e-05 2.7126494e-05 2.5782783e-06 1.6603526e-06
0.0001579223 7.342848e-06 4.5071203e-05 1.0053259e-05 2.3560751e-05 2.307595e-05 1.3400834e-06 4.545253e-05
0.0001353115 5.9614484e-07 1.099452e-05 9.4475496e-07 4.6554424e-06 3.1033538e-05 5.529876e-06 3.3575427e-05
0.00011674819 5.3357394e-07 2.071763e-05 9.950275e-05 1.0388651e-05 4.454251e-06 1.7049626e-06 2.8466874e-07
00000000: 3db4 b038 6b18 f336 9969 fd36 df08 2536
00000010: 1ca2 b335 bd74 a537 6b58 a038 7135 4738
00000020: 6416 0d37 8af0 8139 6c32 b637 a6b1 b337
00000030: 50c1 5834 7356 0f37 8bde 8837 c83c 8c38
00000040: 0b55 3236 3e0d f737 829b d737 531e 9a36
00000050: 8665 f434 02dd 2b37 79d8 9b36 0d5d 0539
00000060: 6d99 8638 9491 8837 d130 1938 fc16 6638
00000070: ab00 6135 93b8 9033 6a42 6536 4332 bd35
00000080: 4100 9b35 607c 6637 68d4 8036 6dd7 1339
00000090: cd1a 2437 254e 8539 15d3 9a38 aba5 1837
000000a0: bd43 8336 8a18 dd35 5600 cd38 c8e2 7a37
000000b0: 746e 9a36 4c23 d335 0cb9 0337 fa20 ad35
000000c0: 959a 2a38 6c00 0c37 e02f c736 f39c 6e35
000000d0: 1e69 9236 dd5e 6138 963f 5939 3554 4e36
000000e0: fa34 1439 bbac 9638 39bb 7038 3d0e 8838
000000f0: a4a4 1f36 d199 4b37 7d79 4a37 0eec d937
00000100: f97d 2537 0ccf 1837 9c12 0b38 a600 d937
00000110: 9038 1938 8d95 9b37 0eaa c037 ac88 9337
00000120: 2114 7a38 415a c037 f59e 8d38 c3a1 d136
00000130: 2f3a 5335 37e6 bd38 ee35 b538 310e 3137
00000140: 2160 3c39 3815 ac37 9769 3539 9acb 8c36
00000150: bad1 cd36 b2fa b038 3143 b435 651e 7936
00000160: c6c6 7337 4825 db37 5074 6d37 e17c 4135
00000170: b832 b538 8cb3 4436 7051 ff37 37d2 c936
00000180: fcd6 b638 71c5 1239 d841 1338 b6db ca38
00000190: e075 9937 b48d e337 7c06 2d36 48d9 de35
000001a0: f297 2539 9662 f636 d60a 3d38 6baa 2837
000001b0: 54a4 c537 3a93 c137 eadc b335 48a4 3e38
000001c0: 67e2 0d39 c306 2035 1b75 3837 119b 7d35
000001d0: f235 9c36 022a 0238 468d b936 57d3 0c38
000001e0: b5d6 f438 ec3a 0f35 c6ca ad37 22ac d038
000001f0: eb4a 2e37 ba75 9536 12d6 e435 93d4 9834
