results/SlayRL_005/SlayTheSquire_RL.onnx (onnx, 82288 bytes, 10 tensors)

network_body.observation_encoder.processors.0.normalizer.running_mean f4 [12]
0.9676664 -0.24943738 0.0018671406 0.7881697 -0.16930588 -0.030351015 -0.08498285 -0.13895485
0.0 -0.055027705 -0.16244388 -0.023884932
00000000: fcb8 773f 836c 7fbe d8ba f43a 7dc5 493f
00000010: 855e 2dbe b1a2 f8bc 7d0b aebd 2e4a 0ebe
00000020: 0000 0000 bb64 61bd b057 26be 55aa c3bc

network_body._body_endoder.seq_layers.0.weight f4 [128, 12]
0.37170798 0.08099731 0.057381123 0.24906342 -0.47140154 -0.3263122 0.0075498787 0.37698346
0.47497863 -0.12494837 -0.1314578 0.7817388 0.056834128 0.21844436 0.031385206 -0.027144188
-0.0056466223 -0.0799882 0.09152524 -0.16533391 -0.19906303 0.28393364 -0.09550281 0.06730012
-0.10981165 -0.042290363 -0.40265605 0.06209923 0.3619988 0.21218981 0.62466395 0.031191638
-0.1260243 -0.2921022 -0.40785512 -0.14282656 -0.47420183 0.23522592 0.044179514 -0.14074676
0.09065645 0.61882526 -0.48337248 -0.10161366 0.1435184 0.14721051 0.001155565 0.017636301
0.22738135 -0.11257233 -0.042394187 0.33437335 -0.48408043 -0.17568521 -0.20318405 0.22155604
0.41131583 -0.28522155 0.5465986 0.21830422 -0.13613239 0.3576754 -0.2937498 -0.038481742
-0.1504532 0.114410184 0.1008739 0.06012039 -0.060654134 0.73094445 0.1516604 -0.43045965
-0.070437275 -0.38117343 -0.21794929 -0.11168323 0.07764556 -0.18271755 0.07669903 0.048040893
-0.046677064 -0.0010450106 0.3488616 -0.10812783 -0.14573655 -0.51589286 -0.27309695 -0.20239104
-0.20433763 0.5846829 0.06453399 -0.33086365 0.45054913 -0.011452327 -0.22101912 0.40470707
0.072400615 0.066579536 -0.025242265 0.16686225 -0.22526036 0.008240772 0.025216259 0.12975049
0.26348856 -0.46858272 0.07587579 0.40611273 -0.58627164 0.1559637 0.21938601 0.024089273
-0.29231188 -0.2676997 -0.3444283 0.07037695 0.13761953 0.077630825 -0.46262646 0.24091586
0.28494388 0.359222 -0.25890598 0.08243359 0.462797 0.47642547 0.0055357586 0.037368115
0.07923305 0.40355885 -0.19270615 -0.22253036 -0.37590596 0.06491813 -0.017720241 0.11324153
0.39055145 0.15412453 -0.29038382 -0.0023489068 0.31656954 0.53379077 0.012622363 0.25102785
-0.18065944 -0.05209744 -0.36227062 0.22141597 -0.54470414 0.23363674 -0.088519216 -0.0014376158
-0.2991882 -0.12306207 -0.430863 0.3242764 0.089197226 0.18703543 -0.6639054 -0.21125156
-0.051403996 0.66387993 0.021375144 -0.111711115 -0.28808334 0.49090534 -0.13327487 0.2913337
-0.28616974 -0.33639753 -0.054849774 0.5907872 0.35313204 -0.3062548 0.15030147 -0.057751555
-0.17317118 0.012742638 0.38016748 0.12551108 -0.26656038 -0.24592683 0.18569311 0.06013839
-0.14965773 0.11892361 0.32393765 -0.2396916 0.27171364 0.17647031 -0.57796943 -0.32095286
0.2902186 0.034719307 0.45198736 0.23924677 0.35784903 0.11751704 0.58953744 -0.23972961
-0.36275175 -0.192344 0.022514066 0.27931094 0.27172548 -0.15039353 0.14958547 -0.111765474
0.4499526 -0.054030642 0.33733168 0.3161658 0.0068093124 -0.14919037 -0.3991038 0.19987334
-0.14040086 -0.2071149 0.18781824 0.50623024 -0.016255349 -0.12854913 0.28546387 0.5616618
0.39802533 -0.21049093 0.11824629 -0.023132714 -0.011727607 -0.15201467 0.2637174 -0.17857642
-0.32658416 0.2675555 0.15400355 -0.02451492 0.024851095 -0.1030327 -0.2852506 0.13049892
0.4858171 -0.16147132 -0.044250607 -0.08016132 0.0647591 -0.3125125 0.22658819 -0.1729804
-0.19189875 0.062633164 -0.10079117 -0.24600789 0.457239 0.28165027 -0.41504398 0.17348613
00000000: 8250 be3e ebe1 a53d 7808 6b3d 7b0a 7f3e
00000010: 8b5b f1be 6512 a7be f964 f73b fa03 c13e
00000020: 6630 f33e eee4 ffbd e09c 06be 0920 483f
00000030: e7ca 683d e1af 5f3e c68d 003d 7d5d debc
00000040: 4d07 b9bb dad0 a3bd 9671 bb3d 4b4d 29be
00000050: 2ed7 4bbe c05f 913e fa96 c3bd a5d4 893d
00000060: eee4 e0bd a938 2dbd ef28 cebe c35b 7e3d
00000070: e857 b93e 4948 593e fae9 1f3f 9b85 ff3c
00000080: 840c 01be 6b8e 95be 63d2 d0be 2041 12be
00000090: 95ca f2be 10df 703e 94f5 343d eb1f 10be
000000a0: 17aa b93d 556b 1e3f 997c f7be d31a d0bd
000000b0: 7df6 123e 5abe 163e 5476 973a 017a 903c
000000c0: a8d6 683e 528c e6bd 87a5 2dbd fc32 ab3e
000000d0: 64d9 f7be d3e6 33be 7b0f 50be 96df 623e
000000e0: fd97 d23e 8f08 92be e3ed 0b3f 248b 5f3e
000000f0: 4a66 0bbe 3b21 b73e 6066 96be 089f 1dbd
00000100: 6710 1abe e34f ea3d fa96 ce3d cc40 763d
00000110: 7870 78bd 2d1f 3b3f dd4c 1b3e 3565 dcbe
00000120: 6b41 90bd 2a29 c3be 192e 5fbe 2dba e4bd
00000130: a304 9f3d 4f1a 3bbe 6214 9d3d 87c6 443d
00000140: 7330 3fbd bdf8 88ba fd9d b23e 2072 ddbd
00000150: f63b 15be 8e11 04bf 5dd3 8bbe 993f 4fbe
00000160: e23d 51be c7ad 153f 662a 843d f666 a9be
00000170: 60ae e63e 8aa2 3bbc d652 62be c435 cf3e
00000180: c646 943d da5a 883d dec8 cebc f0dd 2a3e
00000190: a7aa 66be 4e04 073c 5492 ce3c 50dd 043e
000001a0: f9e7 863e 13ea efbe c464 9b3d 02ee cf3e
000001b0: e615 16bf f3b4 1f3e baa6 603e de56 c53c
000001c0: e7a9 95be ef0f 89be e858 b0be ca21 903d
000001d0: 22ec 0c3e e9fc 9e3d 60dd ecbe a6b2 763e
000001e0: 2ae4 913e f2eb b73e 538f 84be f1d2 a83d
000001f0: baf3 ec3e 0aee f33e 4f65 b53b 4f0f 193d
00000200: f044 a23d 449f ce3e c354 45be 00df 63be
00000210: bf76 c0be ccf3 843d 0a2a 91bc 2deb e73d
00000220: 5cf6 c73e d2d2 1d3e 30ad 94be 1ef0 19bb
00000230: 6715 a23e 83a6 083f 07ce 4e3c b986 803e
00000240: cafe 38be 2064 55bd 897b b9be deba 623e
00000250: bb71 0bbf 783e 6f3e 9049 b5bd 626e bcba
00000260: 322f 99be f707 fcbd 139a dcbe 8e07 a63e
00000270: 09ad b63d 3786 3f3e b4f5 29bf 5452 58be
00000280: ff8c 52bd 09f4 293f ed1a af3c ccc8 e4bd
00000290: a97f 93be f257 fb3e 3579 08be b129 953e
000002a0: d784 92be 4c3c acbe 28aa 60bd d43d 173f
000002b0: b9cd b43e 6ecd 9cbe a1e8 193e e58c 6cbd
000002c0: c953 31be 7fc6 503c 50a5 c23e fa85 003e
000002d0: 9a7a 88be 3ed4 7bbe 5626 3e3e ac53 763d
000002e0: e03f 19be 398e f33d 28db a53e b771 75be
000002f0: 0d1e 8b3e a2b4 343e cef5 13bf ef53 a4be
00000300: 8897 943e d535 0e3d e36a e73e 1bfd 743e
00000310: fd37 b73e c6ac f03d edeb 163f ae7b 75be
00000320: 99ba b9be d3f5 44be 6b6f b83c d801 8f3e
00000330: 9a1f 8b3e c300 1abe ef2c 193e 4ce5 e4bd
00000340: 3060 e63e 3c4f 5dbd bdb6 ac3e 7ce0 a13e
00000350: a720 df3b 5cc5 18be 5557 ccbe 99ab 4c3e
00000360: 3ec5 0fbe ee15 54be 6d53 403e 4e98 013f
00000370: f029 85bc 62a2 03be 5228 923e 11c9 0f3f
00000380: fac9 cb3e ef8a 57be 1c2b f23d d180 bdbc
00000390: 2625 40bc bca9 1bbe f805 873e bddc 36be
000003a0: 0a36 a7be 09fd 883e 1bb3 1d3e 83d3 c8bc
000003b0: 8694 cb3c cf02 d3bd 5e0c 92be 82a1 053e
000003c0: 05bd f83e bd58 25be 2040 35bd 9e2b a4bd
000003d0: 6ba0 843d a301 a0be bc06 683e c621 31be
000003e0: 1b81 44be d145 803d 9a6b cebd 7ee9 7bbe
000003f0: 3b1b ea3e 7734 903e a580 d4be 59a6 313e

network_body._body_endoder.seq_layers.0.bias f4 [128]
0.011603968 0.011868732 -0.0015877851 0.009949792 -0.00756124 0.0078688525 -0.012225455 -0.0064538876
0.014767295 0.007350994 0.008439412 -0.0028990244 0.0011736944 -0.0022455894 0.0130839925 -0.0026049663
0.010881298 -0.009010512 0.00029173508 0.006457457 0.007392456 -0.006414512 -0.008330284 0.0042583444
0.0051209745 -0.0050362577 0.0056309365 0.004543785 -0.0030184758 -0.0014905662 0.0024978146 0.0060713836
0.0059717637 -0.0113181975 -0.0046331296 0.015514655 -0.0011625092 -0.006324095 0.00032426455 0.0051261587
-0.007111513 -0.0011066468 -0.015018407 0.0031397757 -0.009807004 -0.011346929 0.009693178 0.0137604065
0.006464157 0.011228316 -0.01126628 -0.0038998919 0.0106447935 0.012875829 -0.0064928276 -0.007146302
0.012880141 -0.00836339 0.009519219 -0.011250486 -0.0066331998 -0.012666509 0.01224203 -0.0063434686
0.007348917 0.008416039 -0.00066025846 0.008435654 0.0051026265 -0.009559156 -0.006528668 0.008202377
-0.0026391488 -0.008490156 -0.008941232 0.00086502533 -0.012371795 -0.0071942313 -0.009445197 -0.00645533
0.0062907976 0.006460816 -0.010649513 0.006714508 -0.007844643 -0.0035284515 0.0114769135 0.010334501
0.00562247 0.004857751 0.0024842531 0.009506115 -0.0031745282 -0.0008834007 -0.0032438522 -0.00797061
-0.007519993 -0.00790495 -0.00076682895 0.010222835 0.0004473905 0.0046068304 0.006726269 0.008642338
-0.0007350762 -0.01087012 0.014523822 -0.0017467334 0.0054996964 -0.0071886294 -0.0069308374 -0.014154668
-0.008049486 -0.0133034615 -0.010562612 0.009809069 0.0011895036 0.0098113185 0.004717771 0.009053419
0.013066248 -0.009838715 0.013436181 -0.008507817 -0.0015474581 -0.0061878217 -0.010794572 0.010573408
00000000: 921e 3e3c 1275 423c 3a1d d0ba 7404 233c
00000010: 47c4 f7bb 5cec 003c 464d 48bc 227b d3bb
00000020: 86f2 713c 9be0 f03b 7645 0a3c 8ffd 3dbb
00000030: a6d6 993a bd2a 13bb 3e5e 563c 15b8 2abb
00000040: 7947 323c d4a0 13bc 05f4 9839 1399 d33b
00000050: 6a3c f23b d430 d2bb be7b 08bc 9589 8b3b
00000060: d9cd a73b 3107 a5bb b883 b83b 08e4 943b
00000070: 9fd1 45bb 1a5f c3ba 60b2 233b 75f2 c63b
00000080: c9ae c33b f66f 39bc 82d1 97bb 2e31 7e3c
00000090: 565f 98ba 5b3a cfbb 0d02 aa39 56f9 a73b
000000a0: b207 e9bb e80c 91ba c40f 76bc b2c4 4d3b
000000b0: 8ead 20bc 78e8 39bc 23d0 1e3c 5473 613c
000000c0: 47d1 d33b f9f6 373c 3496 38bc 5495 7fbb
000000d0: 8067 2e3c 24f5 523c c9c1 d4bb 872b eabb
000000e0: 3a07 533c 9a06 09bc 80f6 1b3c f553 38bc
000000f0: 505b d9bb 3087 4fbc cc92 483c dfdc cfbb
00000100: 2fcf f03b 6de3 093c 3215 2dba b335 0a3c
00000110: ef33 a73b 029e 1cbc 70ee d5bb 4363 063c
00000120: 92f5 2cbb 4c1a 0bbc 3f7e 12bc dec2 623a
00000130: 12b3 4abc 96bd ebbb 07c0 1abc 3c87 d3bb
00000140: 0923 ce3b 41b5 d33b 4c7b 2ebc 6005 dc3b
00000150: d186 00bc 983d 67bb aa09 3c3c 0a52 293c
00000160: b23c b83b c52d 9f3b dace 223b 89bf 1b3c
00000170: bf0b 50bb 0494 67ba cf96 54bb 2997 02bc
00000180: 466a f6bb c383 01bc 0505 49ba ad7d 273c
00000190: bd8f ea39 e5f4 963b 0968 dc3b 9898 0d3c
000001a0: 21b2 40ba 9618 32bc 53f5 6d3c a6f2 e4ba
000001b0: cc36 b43b 988e ebbb 141c e3bb fbe8 67bc
000001c0: fee1 03bc c3f6 59bc ce0e 2dbc 38b6 203c
000001d0: 1ee9 9b3a a7bf 203c 8897 9a3b cb54 143c
000001e0: d113 563c 9032 21bc 6d23 5c3c 5f64 0bbc
000001f0: 14d4 caba 36c3 cabb b7db 30bc 163c 2d3c

network_body._body_endoder.seq_layers.2.weight f4 [128, 128]
0.101871714 0.017427523 -0.017411614 0.04914006 0.03248924 -0.039149206 -0.030340195 0.009555844
-0.09214821 0.09552818 0.03961893 0.04751313 0.06703835 0.09282119 0.0022881555 -0.10078069
0.04575372 -0.10657895 -0.050895084 0.15116237 -0.08786271 0.073254086 0.14429565 0.07165136
-0.057322998 -0.09445571 -0.07193134 0.051095184 0.17157732 -0.021732828 -0.054583542 -0.03722878
-0.05161958 -0.002033446 -0.06567919 0.02068822 0.0987903 0.018253656 0.045045342 0.011837263
-0.0628809 0.08515654 -0.118057095 0.02327799 0.0038012767 0.12672234 -0.058566317 -0.10874707
0.068707235 0.04634942 0.019885626 -0.0679105 0.040738262 0.062342424 -0.1465272 -0.04436662
0.18577448 -0.06680334 0.050034273 0.015859362 -0.055725887 0.12584001 0.06374065 0.027331177
0.021291316 0.08093338 0.047357894 0.11914197 -0.0661608 -0.04944227 -0.022477554 -0.11017583
-0.028550519 0.026134323 -0.037826777 -0.024093565 0.14053488 0.024809832 -0.15224147 0.16894795
-0.0018204727 -0.15085395 0.017454872 -0.042586498 0.0100373905 0.012003407 -0.15415648 -0.108365566
-0.17757466 -0.09890629 0.1947906 0.058949046 0.02185426 6.577649e-05 0.0973174 -0.04490642
0.015436855 -0.005334524 0.021245563 0.1323452 -0.18527831 -0.15504076 0.054614488 0.10160472
0.03316334 0.12448603 0.2285069 0.04223283 -0.059156988 0.13229011 0.07727607 -0.046510343
0.058127698 -0.08196398 -0.2622258 -0.08324435 0.011750508 0.053362966 -0.11777812 0.03249406
-0.07854315 0.01964351 0.0022915497 -0.17137672 -0.011926238 -0.015422084 0.022620844 0.009116688
-0.012198802 -0.027808895 0.0068823034 0.033636063 -0.004087765 0.034141075 -0.14996222 -0.07440753
0.06352607 0.028122244 0.040526524 0.015914628 0.08844387 -0.06282209 -0.1173335 0.050004832
0.09468786 -0.095521376 -0.04747723 -0.1501635 -0.13624652 0.10651812 0.11897121 0.048550524
-0.09006818 0.015549977 0.13156146 0.16049112 -0.09978657 -0.15188788 -0.034029264 0.038809717
0.054821745 -0.045980375 0.021847358 -0.112633005 0.00054889364 -0.08537746 0.027188295 0.013394863
0.06141843 0.031347666 -0.20314337 0.069594815 -0.036752123 0.06109679 -0.0048334175 0.0102790585
0.099119924 -0.048211657 -0.023646057 0.03281357 0.013891053 0.00019215656 0.03785605 0.17048593
0.14406562 0.05008225 -0.123744786 -0.022064472 0.007861312 0.15413709 0.107035406 0.058565777
-0.12774742 -0.043894053 -0.14106643 0.040999286 -0.12910064 -0.036675572 -0.100852795 0.008277878
0.2152544 -0.07273649 0.00083634385 0.050892778 -0.00969728 -0.02828976 -0.087806754 -0.024372417
-0.07684959 -0.17489731 -0.07339763 0.3694098 0.015537834 0.068177186 -0.10403698 0.03562811
-0.014292793 -0.2075874 -0.10799264 0.044270407 -0.054823566 -0.107760645 -0.09851042 0.08176874
-0.0154556725 -0.06746841 -0.059592005 -0.17656589 0.07928129 0.069930375 0.061354335 0.008753625
0.046643116 0.0104879 -0.06484686 -0.06351802 -0.10175136 0.1343166 0.09022128 -0.009519816
0.022561295 -0.018222429 0.062008463 0.0041488907 -0.11424413 -0.04665245 0.11727906 -0.07096337
0.04960387 0.011647948 -0.15919691 -0.111265905 -0.085835844 0.06213236 -0.022074869 0.02554072
00000000: 1ea2 d03d 2ac4 8e3c cda2 8ebc 1647 493d
00000010: 7013 053d eb5a 20bd 008c f8bc 1d90 1c3c
00000020: 33b8 bcbd 47a4 c33d 7647 223d 219d 423d
00000030: 674b 893d 0919 be3d e1f4 153b 1b66 cebd
00000040: 4168 3b3d 1146 dabd 5d77 50bd 4fca 1a3e
00000050: 5df1 b3bd 3d06 963d 3dc2 133e f3bd 923d
00000060: 85cb 6abd ff71 c1bd bd50 93bd 2f49 513d
00000070: f7b1 2f3e 0b09 b2bc fe92 5fbd 357d 18bd
00000080: 0d6f 53bd 9043 05bb d082 86bd 587a a93c
00000090: 9252 ca3d b188 953c 7781 383d 14f1 413c
000000a0: b4c7 80bd 8d66 ae3d ebc7 f1bd 7cb1 be3c
000000b0: d71e 793b 80c3 013e 3ce3 6fbd c9b6 debd
000000c0: 61b6 8c3d e4d8 3d3d 2ee7 a23c a914 8bbd
000000d0: 2add 263d c55a 7f3d 3a0b 16be c6b9 35bd
000000e0: aa3b 3e3e 31d0 88bd bdf0 4c3d 7eeb 813c
000000f0: d440 64bd 34dc 003e 758a 823d a2e5 df3c
00000100: 206b ae3c 66c0 a53d 5afa 413d b500 f43d
00000110: 507f 87bd fa83 4abd d922 b8bc dea3 e1bd
00000120: c7e2 e9bc a617 d63c 40f0 1abd de5f c5bc
00000130: 60e8 0f3e fd3d cb3c 30e5 1bbe b100 2d3e
00000140: ed9c eeba 7579 1abe 85fd 8e3c 2e6f 2ebd
00000150: de73 243c f0a9 443c 32db 1dbe c4ee ddbd
00000160: 22d6 35be 628f cabd 3077 473e 8e74 713d
00000170: b407 b33c 7cf1 8938 584e c73d cbef 37bd
00000180: ddea 7c3c 3bcd aebb 2d0b ae3c 8085 073e
00000190: 99b9 3dbe 01c3 1ebe 71b3 5f3d 2316 d03d
000001a0: 48d6 073d 88f2 fe3d b6fd 693e 55fc 2c3d
000001b0: 994e 72bd 0f77 073e eb42 9e3d a181 3ebd
000001c0: 4f17 6e3d bbdc a7bd 7642 86be 047c aabd
000001d0: 3485 403c 2093 5a3d a835 f1bd 7e18 053d
000001e0: 3bdb a0bd 6deb a03c d32d 163b 617d 2fbe
000001f0: 4566 43bc e9ac 7cbc 594f b93c 295e 153c
00000200: 7cdd 47bc 7bcf e3bc f284 e13b f8c5 093d
00000210: a8f2 85bb 83d7 0b3d b28f 19be fa62 98bd
00000220: f519 823d 9f60 e63c 24ff 253d 655f 823c
00000230: 0f22 b53d dea8 80bd 8c4c f0bd ded1 4c3d
00000240: b5eb c13d b6a0 c3bd 7c77 42bd 76c4 19be
00000250: 3584 0bbe 2c26 da3d 2ea7 f33d eadc 463d
00000260: aa75 b8bd 55c5 7e3c 0cb8 063e c957 243e
00000270: e75c ccbd 7f88 1bbe 4562 0bbd f0f6 1e3d
00000280: c48c 603d eb55 3cbd 3bf9 b23c 22ac e6bd
00000290: a1e3 0f3a 61da aebd fdb9 de3c 2176 5b3c
000002a0: e491 7b3d 6966 003d d104 50be ba87 8e3d
000002b0: 6589 16bd a140 7a3d a561 9ebb 7f69 283c
000002c0: 63ff ca3d 9679 45bd 60b5 c1bc 8667 063d
000002d0: 4d97 633c a27d 4939 f20e 1b3d dd93 2e3e
000002e0: f085 133e 0c23 4d3d e86d fdbd 8dc0 b4bc
000002f0: bbcc 003c 1dd6 1d3e 6135 db3d abe2 6f3d
00000300: 38d0 02be 40ca 33bd b873 10be deee 273d
00000310: f532 04be 2039 16bd e98b cebd f09f 073c
00000320: a66b 5c3e def6 94bd 163e 5b3a f274 503d
00000330: 57e1 1ebc edbf e7bc 07d4 b3bd aaa8 c7bc
00000340: 5163 9dbd 4818 33be 7f51 96bd 4823 bd3e
00000350: 6692 7e3c 7ba0 8b3d 5711 d5bd c8ee 113d
00000360: 522c 6abc cb91 54be 3f2b ddbd e354 353d
00000370: ad8e 60bd 9db1 dcbd d5bf c9bd 5f76 a73d
00000380: ca39 7dbc e12c 8abd bf16 74bd b0cd 34be
00000390: 3b5e a23d a837 8f3d af4e 7b3d 5d6b 0f3c
000003a0: da0c 3f3d 71d5 2b3c 6ece 84bd bc15 82bd
000003b0: 0463 d0bd 4a8a 093e efc5 b83d 01f9 1bbc
000003c0: 77d2 b83c 3447 95bc 96fc 7d3d 6bf3 873b
000003d0: d4f8 e9bd a416 3fbd 0130 f03d 3e55 91bd
000003e0: 6d2d 4b3d 09d7 3e3c 8404 23be 61df e3bd
000003f0: b4ca afbd 807e 7e3d 5bd6 b4bc c63a d13c

network_body._body_endoder.seq_layers.2.bias f4 [128]
0.0036855682 0.0074413423 -0.010586872 0.0061129867 0.007433239 -0.0075140013 0.004164082 -0.0068405205
-0.0037234416 -0.004003194 0.004646248 -0.0057750563 0.011010689 0.01526189 -0.009541769 0.009738784
0.010701042 0.0063347546 0.002642238 -0.01430653 0.008435134 -0.010382298 0.006780592 -0.009570278
-0.0009840844 0.011717611 -0.008219299 0.013850717 -0.0040470776 -0.006759146 0.0144641455 0.0056112944
0.011858049 -0.0037755964 0.0065783034 0.00087637 0.00703118 -0.004835972 -0.01351695 0.0071449806
-0.009781445 0.0060650227 -0.012418924 0.012606923 0.003392956 0.010230421 -0.0019030422 -0.0016422028
0.011437932 0.011650574 0.013237394 -0.0075210086 0.0034204156 0.011332143 0.008539431 0.0014580908
-0.008606964 0.007503948 -0.006609344 -0.014424116 -0.0051936544 0.010445473 0.007258651 -0.0070272996
-0.0037643842 -0.012807975 0.0038922767 0.012174704 -0.010375657 0.008623743 0.015718816 0.00898694
-0.007660585 -0.0077240975 -0.004977184 -0.007895673 -0.0025503829 -0.0044545885 0.006789393 -0.0022202749
0.011072504 -0.004722063 0.006249019 -0.009494806 -0.0077497032 0.0112353675 0.010950942 -0.0058228993
-0.0012669299 -0.0109534925 -0.01268743 0.011208983 -0.010882299 -0.00889795 0.011081783 -0.012412756
-0.004287095 -0.012875628 -0.00961732 -0.005773508 0.005659943 -0.009338283 0.013556105 -0.0069486587
-0.0021014388 -0.0046768743 -0.015065541 0.007963277 0.00942099 -0.006529151 -0.00964132 0.0041521555
-0.013258143 0.006269705 -0.0144593315 -0.014000629 0.0074409735 0.0036030973 0.008585278 -0.005859894
-0.008938549 0.006183184 -0.0036477104 -0.0064066676 0.0012909338 -0.0047534597 -0.00782814 -0.010659163
00000000: 9389 713b 81d6 f33b 8f74 2dbc 734f c83b
00000010: 8792 f33b 0338 f6bb da72 883b 7226 e0bb
00000020: fc04 74bb 3a2d 83bb 8e3f 983b af3c bdbb
00000030: 2d66 343c 020d 7a3c 1455 1cbc 6c8f 1f3c
00000040: 6c53 2f3c c693 cf3b 6629 2d3b f065 6abc
00000050: 8433 0a3c 841a 2abc ba2f de3b a8cc 1cbc
00000060: 65fc 80ba 39fb 3f3c 3daa 06bc 1eee 623c
00000070: 599d 84bb d47b ddbb 06fb 6c3c f3de b73b
00000080: 4348 423c ff6f 77bb cf8e d73b 32bc 653a
00000090: d065 e63b 1377 9ebb 3376 5dbc 7120 ea3b
000000a0: 5b42 20bc 19bd c63b be78 4bbc 448d 4e3c
000000b0: 5b5c 5e3b 7f9d 273c 806f f9ba 2f3f d7ba
000000c0: 2a66 3b3c 0de2 3e3c a8e1 583c cb72 f6bb
000000d0: 0d29 603b 74aa 393c f8e8 0b3c 691d bf3a
000000e0: 3904 0dbc aee3 f53b 3293 d8bb 2153 6cbc
000000f0: 882f aabb 7d23 2b3c fad9 ed3b 4345 e6bb
00000100: e3b3 76bb 8ad8 51bc 9115 7f3b 6978 473c
00000110: a9fe 29bc 9a4a 0d3c bfc4 803c f53d 133c
00000120: a505 fbbb 6d1a fdbb a517 a3bb da5c 01bc
00000130: 5324 27bb ccf7 91bb 8e79 de3b 0882 11bb
00000140: 7369 353c 89bb 9abb 92c4 cc3b 1a90 1bbc
00000150: 39f1 fdbb 8c14 383c 946b 333c 05ce bebb
00000160: 1d0f a6ba 4776 33bc f0de 4fbc e2a5 373c
00000170: ac4b 32bc b5c8 11bc 5e90 353c df5e 4bbc
00000180: c27a 8cbb 4cf4 52bc f791 1dbc b22f bdbb
00000190: 0b77 b93b 99ff 18bc 6d1a 5e3c 93b1 e3bb
000001a0: 4bb8 09bb 7740 99bb 75d5 76bc 6878 023c
000001b0: 7f5a 1a3c 7df2 d5bb a1f6 1dbc ce0e 883b
000001c0: af38 59bc 1972 cd3b d5e6 6cbc e562 65bc
000001d0: 69d3 f33b f121 6c3b 44a9 0c3c 5b04 c0bb
000001e0: fe72 12bc 4f9c ca3b 6d0e 6fbb 06ef d1bb
000001f0: 8d34 a93a e9c2 9bbb 9941 00bc c5a3 2ebc

action_model._continuous_distribution.log_sigma f4 [1, 2]
0.000502127 0.0009680141
00000000: 2ca1 033a 54c2 7d3a

action_model._continuous_distribution.mu.weight f4 [2, 128]
0.01965631 -0.021683045 0.022653153 -0.0019626422 -0.01667555 0.014660533 -0.0044099106 0.013410756
-0.02906942 0.0098927235 0.010890171 0.02675947 -0.032421056 -0.0007510849 0.0026655495 -0.022325974
0.008532954 -0.024729904 -0.000934857 -0.0046867235 -0.013771263 -0.0054550366 -0.0045864517 -0.004372639
-0.020959249 -0.01999074 0.026422337 0.007970361 -0.011828594 -0.00024821 -0.0047431756 -0.019668758
0.0023550133 -0.027692541 0.0053235902 0.024462027 -0.012978252 0.003690934 0.032131657 -0.03226476
0.009768161 -0.029329233 0.013936787 -0.008693726 0.017635861 -0.012437772 0.012315697 -0.038094264
-0.01211474 0.014426197 -0.011445235 0.0068518464 0.008442264 -0.015367257 0.0016614513 0.02977393
0.0009107482 -0.0056349933 -0.01730245 -0.009206813 0.03438671 -0.02263416 -0.01660942 0.01870204
0.026697772 0.0176775 0.024876764 -0.008817061 3.2673179e-06 -0.013869774 0.0017000693 -0.019202614
0.010089779 0.039267045 0.02789378 0.008740562 0.010331754 0.0133780325 -0.002438112 0.013697178
0.0030637293 -0.031715494 -0.0044750115 0.010822163 0.014059485 -0.042579126 0.0022296668 0.023835717
-0.008395085 -0.01541198 0.01614764 -0.012532274 -0.0034023044 0.01195155 0.0038672492 0.025706021
0.016728446 0.003471123 0.019521171 0.013387595 -0.015195469 0.04646944 -0.003392254 0.021056201
0.015798518 0.015368771 0.0033289616 -0.029287593 -0.0071692565 0.018477723 0.0045356117 -0.0144609995
-0.0036636458 -0.015390492 -0.003045166 0.0041329795 -0.009145529 0.013542812 -0.046240184 -0.009056465
0.010293181 -0.02117541 -0.009114643 -0.0012989554 -0.021588 0.008219942 0.0038590524 0.007905544
-0.015351336 -0.018212473 0.015705353 -0.013620347 0.00010713687 0.022369083 -0.00033900858 0.0049243714
0.04034158 -0.0020081033 -0.00884724 0.00041220523 -0.011792485 -0.017980998 0.00035390496 -0.006715209
-0.027740518 0.00046597706 -0.0014899521 0.013323673 -0.020763064 0.0134903835 -0.019271968 0.018633097
0.014764229 -0.015118814 0.005226723 -0.027813591 0.026231455 0.020025741 -0.020317355 -0.0045594596
-0.026036268 0.036249742 -0.009588953 -0.014259754 -0.0030176197 -0.0022574204 0.029989008 -0.025023721
0.016692707 -0.00082537765 0.025973465 -0.051814985 -0.010303099 -0.007462982 -0.005941236 0.02420621
-0.026055288 -0.061458524 -0.0242172 0.024712536 -0.014730317 -0.014735861 -0.013055377 -0.026319873
0.0001757239 -0.007737588 0.01808682 0.04190028 -0.00407809 -0.03016673 -0.0071452754 0.011583656
-0.009270677 0.03638868 -0.021861026 -0.04819902 0.0034299165 -0.025548017 -0.011975635 5.002302e-05
0.00058370555 0.006219621 -0.002393301 0.019080643 -0.0031560827 -0.00045285022 -0.0020795905 -0.0049134227
-0.027415268 0.029628007 -0.0012031378 0.021659803 0.02505164 -0.018423526 -0.009494523 0.0015214914
0.0061834087 0.033114288 0.02613629 -0.015908465 0.0072780745 0.008598814 -0.005543706 0.025621597
-0.006099945 0.003982347 0.027210008 -0.0021285773 -0.0025776695 0.028822046 -0.014453695 -0.0037944808
-0.0054965387 -0.005948859 0.047532894 -0.021340478 -0.022553563 0.0009787909 0.027041659 0.0022259708
0.021951078 -0.003147786 0.009440896 0.0030160071 -0.014458821 -0.018567374 -0.016392147 0.020261172
0.028170139 -0.0020022183 0.007681951 0.0031028604 0.0088898605 0.0003326294 0.0127421785 0.0036144361
00000000: 4506 a13c a4a0 b1bc 1b93 b93c ac9f 00bb
00000010: 2a9b 88bc bb32 703c 0381 90bb cab8 5b3c
00000020: fe22 eebc 1715 223c b06c 323c ad36 db3c
00000030: f1cb 04bd 74e4 44ba 80b0 2e3b f6e4 b6bc
00000040: cecd 0b3c 5e96 cabc 3111 75ba 1693 99bb
00000050: dda0 61bc 2ac0 b2bb f249 96bb 5b48 8fbb
00000060: bbb2 abbc 9fc3 a3bc a873 d83c 1e96 023c
00000070: b8cc 41bc 2f22 82b9 a46c 9bbb 6020 a1bc
00000080: 9156 1a3b 78db e2bc 8371 ae3b 9764 c83c
00000090: bca2 54bc 99e3 713b 7c9c 033d 0e28 04bd
000000a0: a30a 203c dc43 f0bc 1f57 643c 2170 0ebc
000000b0: 1579 903c ccc7 4bbc c7c7 493c bb08 1cbd
000000c0: e77c 46bc db5b 6c3c cc84 3bbc 7485 e03b
000000d0: 6c51 0a3c f3c6 7bbc 0ec5 d93a 75e8 f33c
000000e0: 47bf 6e3a c0a5 b8bb debd 8dbc 2cd8 16bc
000000f0: 14d9 0c3d 466b b9bc 7a10 88bc 0535 993c
00000100: 49b5 da3c 68d0 903c 5bca cb3c 6f75 10bc
00000110: 1844 5b36 0c3e 63bc dcd4 de3a cd4e 9dbc
00000120: 9a4f 253c 7bd6 203d 7f81 e43c 9334 0f3c
00000130: 8446 293c 892f 5b3c bbc8 1fbb 216a 603c
00000140: d9c8 483b 1be8 01bd 1ea3 92bb 714f 313c
00000150: c159 663c 7367 2ebd 9a1f 123b 1f43 c33c
00000160: 8a8b 09bc 8882 7cbc 0e48 843c 2b54 4dbc
00000170: 32f9 5ebb 6fd0 433c ad71 7d3b 6f95 d23c
00000180: 180a 893c c87b 633b ddea 9f3c a557 5b3c
00000190: 6bf6 78bc bd56 3e3d 9450 5ebb 0e7e ac3c
000001a0: e56b 813c 4ccd 7b3c b52a 5a3b 89ec efbc
000001b0: 15ec eabb 985e 973c 789f 943b d4ed 6cbc
000001c0: c719 70bb 6728 7cbc 6891 47bb f26d 873b
000001d0: 21d7 15bc ace2 5d3c 5966 3dbd 9161 14bc
000001e0: bba4 283c 0e78 adbc 9555 15bc b641 aaba
000001f0: 51d9 b0bc f0ac 063c 28e8 7c3b 4186 013c
00000200: 2c84 7bbc 5332 95bc 83a8 803c e027 5fbc
00000210: abae e038 5e3f b73c f6bc b1b9 9f5c a13b
00000220: 363d 253d 629a 03bb 04f4 10bc 401d d839
00000230: 4435 41bc e34c 93bc 528c b939 420b dcbb
00000240: 1540 e3bc 624e f439 7f4a c3ba 894b 5a3c
00000250: 4d17 aabc c506 5d3c 3fe0 9dbc 70a4 983c
00000260: aae5 713c e7b4 77bc ee44 ab3b 54d9 e3bc
00000270: 59e3 d63c 060d a43c 9570 a6bc 8567 95bb
00000280: 034a d5bc 9c7a 143d fc1a 1dbc bea1 69bc
00000290: 42c3 45bb 3bf1 13bb 82ab f53c 8cfe ccbc
000002a0: 25bf 883c 285e 58ba 4ec6 d43c f33b 54bd
000002b0: 54ce 28bc 088c f4bb b3ae c2bb 1a4c c63c
000002c0: e671 d5bc efbb 7bbd 2663 c6bc f271 ca3c
000002d0: 6d57 71bc ae6e 71bc 38e6 55bc c69c d7bc
000002e0: 8642 3839 988b fdbb d02a 943c a19f 2b3d
000002f0: 80a1 85bb 3820 f7bc ea22 eabb 60c9 3d3c
00000300: 0ae4 17bc 4c0c 153d e515 b3bc 566c 45bd
00000310: 73c8 603b 134a d1bc 7435 44bc cfcf 5138
00000320: d103 193a f6cd cb3b eed8 1cbb 024f 9c3c
00000330: 48d6 4ebb 876c edb9 bd49 08bb c700 a1bb
00000340: fc95 e0bc 6fb6 f23c 9bb2 9dba e66f b13c
00000350: 1939 cd3c efec 96bc ea8e 1bbc c86c c73a
00000360: 319e ca3b d9a2 073d c61b d63c 7852 82bc
00000370: ea7c ee3b 0ae2 0c3c faa7 b5bb 62e4 d13c
00000380: 0ce2 c7bb 597e 823b 86e7 de3c 9a7f 0bbb
00000390: 1eee 28bb 361c ec3c 31cf 6cbc d3ac 78bb
000003a0: 4f1c b4bb a5ee c2bb dab1 423d 3ad2 aebc
000003b0: 40c2 b8bc c64a 803a 7886 dd3c 98e1 113b
000003c0: bfd2 b33c 164b 4ebb fdad 1a3c 34a8 453b
000003d0: b1e4 6cbc 9b1a 98bc d348 86bc c2fa a53c
000003e0: 10c5 e63c a637 03bb e0b8 fb3b 5c59 4b3b
000003f0: c7a6 113c c364 ae39 92c4 503c 2de0 6c3b

action_model._continuous_distribution.mu.bias f4 [2]
-0.0061226683 -0.010222072
00000000: aaa0 c8bb 7a7a 27bc

action_model._discrete_distribution.branches.0.weight f4 [1, 128]
0.004033902 -0.00048563207 0.016609339 0.0073013143 0.007952821 0.0008081644 -0.00034610223 -0.009323875
0.0069226543 -0.0037310992 -0.006096789 0.0013469848 -0.013383691 0.001429457 0.0029255603 0.001992954
0.007023696 0.005751548 -0.017686345 -0.006831765 -0.010494479 -0.017146077 -0.0063266205 -0.0042804936
0.008933619 -0.0013173645 0.01198704 -0.01490974 -0.000109588436 -0.0069396705 0.0023128472 -0.013841333
-0.0024125578 -0.000120394914 0.0038610776 -0.00409468 -0.0039368384 0.0006367876 -0.0026964708 0.0009442465
-0.00255763 -0.0036229098 -0.009057219 0.003863093 0.00061729865 0.025324801 -0.009218272 0.003941884
0.0044151316 0.0032579363 0.0039723315 0.0098526245 0.0030527562 0.0041183312 0.008199791 -0.0038850107
0.0121395765 0.0045886426 0.0154796485 0.0017928135 0.005009429 -0.01242502 0.01377087 0.007532066
0.015313302 -0.013479111 0.0094144605 0.0040032514 -0.00810863 0.0040005394 0.013155112 0.0019228815
0.0044591655 0.0059520747 -0.005055965 -0.009493405 0.00065657747 0.0017519625 0.0020050274 0.013764666
0.0006698651 0.0032472436 -0.0008290643 -0.0055472716 0.002851486 -0.008375478 -0.018253488 0.0019023201
0.00033064795 0.0037605122 0.0018119578 -0.0082180565 0.007298931 -0.006474366 -0.0072455183 -0.023996575
-0.01141887 0.013957346 -0.002267571 0.01617322 0.013757628 0.0052507217 0.0056732106 0.010090322
-0.00013815408 -0.00022306498 0.0029071625 -0.00062192854 -0.0023165075 -0.0067102886 -0.013314798 -0.0060685254
0.008536502 0.0044959905 0.009185049 0.005141212 -0.020316433 0.004958076 -0.0048567303 0.0033528768
-0.007550674 -0.0108905975 -0.015095807 -0.0011483164 0.0010320554 -0.0046344805 0.0110948505 -0.0060987812
00000000: d32e 843b 6f9c feb9 4f10 883c dd3f ef3b
00000010: 8d4c 023c ffda 533a 0e75 b5b9 2bc3 18bc
00000020: 6fd7 e23b 7585 74bb 93c7 c7bb 4f8d b03a
00000030: 4547 5bbc 9e5c bb3a c2ba 3f3b 389c 023b
00000040: 0827 e63b 7b77 bc3b f4e2 90bc 00dd dfbb
00000050: 09f1 2bbc ee75 8cbc 8a4f cfbb 6243 8cbb
00000060: 505e 123c 6bab acba 4a65 443c fb47 74bc
00000070: d8d2 e5b8 2d66 e3bb 2393 173b c2c6 62bc
00000080: 011c 1ebb 877c fcb8 220a 7d3b aa2c 86bb
00000090: 9800 81bb 18ee 263a 46b7 30bb 4f87 773a
000000a0: e99d 27bb 576e 6dbb bb64 14bc f22b 7d3b
000000b0: 36d2 213a f575 cf3c 3c08 17bc eb2a 813b
000000c0: cfac 903b 1a83 553b 552a 823b e76c 213c
000000d0: c010 483b 11f3 863b 6b58 063c aa9b 7ebb
000000e0: 13e5 463c 535c 963b 5a9e 7d3c d7fc ea3a
000000f0: 2326 a43b 5092 4bbc 379f 613c 8dcf f63b
00000100: a5e4 7a3c 7dd7 5cbc 1c3f 1a3c b52d 833b
00000110: 0fda 04bc f516 833b 8a88 573c 3209 fc3a
00000120: 311e 923b 9f09 c33b 82ac a5bb 3a8a 1bbc
00000130: 2b1e 2c3a 1ba2 e53a c766 033b 3285 613c
00000140: e399 2f3a b5cf 543b 9055 59ba e3c5 b5bb
00000150: ffdf 3a3b 4d39 09bc 5788 95bc 4557 f93a
00000160: d15a ad39 ed72 763b 377f ed3a 07a5 06bc
00000170: df2b ef3b eb26 d4bb d06b edbb 7794 c4bc
00000180: 3616 3bbc 5aad 643c 879b 14bb b37d 843c
00000190: ad67 613c 3f0e ac3b 57e6 b93b e151 253c
000001a0: 74dd 10b9 8de6 69b9 1886 3e3b eb08 23ba
000001b0: 8cd0 17bb fbe1 dbbb 4f26 5abc 7bda c6bb
000001c0: afdc 0b3c 1a53 933b e37c 163c 9d77 a83b
000001d0: a66e a6bc 5b77 a23b 3525 9fbb f0bb 5b3b
000001e0: a56b f7bb 7a6e 32bc 6754 77bc 1b83 96ba
000001f0: 0846 873a d7dc 97bb 2dc7 353c 49d8 c7bb

onnx::Div_70 f4 [12]
0.017968683 0.03476285 0.011489499 0.12212484 0.37519777 0.17193544 0.27909267 0.3460901
0.011487425 0.2283235 0.36903638 0.15312216
00000000: 0f33 933c 7d63 0e3d 743e 3c3c 971c fa3d
00000010: ec19 c03e d80f 303e 3ce5 8e3e b932 b13e
00000020: c135 3c3c a3cd 693e 56f2 bc3e 0ecc 1c3e
