results/SlayRL_FINAL107BLOCKED/SlayTheSquire_RL/SlayTheSquire_RL-250674.pt (torch, 467706 bytes, 47 tensors)

network_body.observation_encoder.processors.0.normalizer.running_mean f4 [12]
0	0x3f77aa15	0.967439
1	0xbe818eb8	-0.25304198
2	0x3ae616de	0.0017554422
3	0x3f7fffa9	0.9999948
4	0xbb935205	-0.0044958615
5	0xbb935205	-0.0044958615
6	0xbb935205	-0.0044958615
7	0x00000000	0.0
8	0x00000000	0.0
9	0x00000000	0.0
10	0xba73a914	-0.0009294909
11	0xb9dfca7a	-0.0004268473

network_body.observation_encoder.processors.0.normalizer.running_variance f4 [12]
0	0x401030bd	2.2529747
1	0x40bacfc4	5.837862
2	0x3f80027d	1.0000759
3	0x3ffffded	1.9999367
4	0x448c5ddd	1122.9332
5	0x448c5ddd	1122.9332
6	0x448c5ddd	1122.9332
7	0x3f800000	1.0
8	0x3f800000	1.0
9	0x3f800000	1.0
10	0x4369c88f	233.78343
11	0x42d7e899	107.95429

network_body.processors.0.normalizer.running_mean f4 [12]
0	0x3f77aa15	0.967439
1	0xbe818eb8	-0.25304198
2	0x3ae616de	0.0017554422
3	0x3f7fffa9	0.9999948
4	0xbb935205	-0.0044958615
5	0xbb935205	-0.0044958615
6	0xbb935205	-0.0044958615
7	0x00000000	0.0
8	0x00000000	0.0
9	0x00000000	0.0
10	0xba73a914	-0.0009294909
11	0xb9dfca7a	-0.0004268473

network_body.processors.0.normalizer.running_variance f4 [12]
0	0x401030bd	2.2529747
1	0x40bacfc4	5.837862
2	0x3f80027d	1.0000759
3	0x3ffffded	1.9999367
4	0x448c5ddd	1122.9332
5	0x448c5ddd	1122.9332
6	0x448c5ddd	1122.9332
7	0x3f800000	1.0
8	0x3f800000	1.0
9	0x3f800000	1.0
10	0x4369c88f	233.78343
11	0x42d7e899	107.95429

network_body._body_endoder.seq_layers.0.weight f4 [128, 12]
0	0xbed8480e	-0.42242473
1	0xbcc97ec3	-0.024596578
2	0xbd403e5a	-0.046934463
3	0xbdd521d7	-0.10406845
4	0x3d99f683	0.075177215
5	0xbe82a696	-0.2551772
6	0x3d172125	0.036896843
7	0x3e66798a	0.22507301
8	0x3d90e751	0.0707537
9	0x3d2411e5	0.040056128
10	0x3ea6621b	0.32496724
11	0xbef83c81	-0.4848366
12	0x3e596364	0.21229321
13	0x3dfbab63	0.12288549
14	0xbd2b6c15	-0.041851122
15	0x3d96802b	0.07348665
16	0x3da44edf	0.08022856
17	0xbe6751d6	-0.22589812
18	0x3ef78d73	0.48350105
19	0x3f1bc30b	0.60844487
20	0xbda44794	-0.08021465
21	0xbe109b3b	-0.14121716
22	0x3da2da73	0.07951822
23	0xbe207b4a	-0.15672031
24	0xbd77e63e	-0.06052231
25	0x3d0a84fb	0.033818226
26	0xbd92c0bd	-0.07165668
27	0x3f391102	0.72291577
28	0xbe787ed4	-0.24267131
29	0x3e63e490	0.22255158
30	0xbd10d00a	-0.03535465
31	0x3ee95d31	0.45578912
32	0x3ea50659	0.32231405
33	0xbae2d2e1	-0.0017305278
34	0x3f1deb8f	0.6168756
35	0xbed93f8a	-0.4243129
36	0xbe35f3ea	-0.17768827
37	0xbe8e62c5	-0.2780973
38	0xbe7970c6	-0.24359426
39	0x3ebd01ae	0.36915344
40	0x3ec14b6d	0.37752858
41	0xbe98c016	-0.2983405
42	0xbe52c8c1	-0.20584394
43	0x3c2c26a9	0.010507264
44	0xbea28f52	-0.3174997
45	0x3d13bdf8	0.03606984
46	0x3e27aa7e	0.16373631
47	0x3e995b6f	0.2995257
48	0x3e66a00b	0.22521989
49	0x3eaea85b	0.3411282
50	0xbe2bdc30	-0.16783214
51	0xbed3628e	-0.4128613
52	0xbd998687	-0.07496362
53	0xbf70881c	-0.93957686
54	0x3f373605	0.715668
55	0xbda4ab34	-0.08040467
56	0x3f1f7ab1	0.6229659
57	0xbe8a1e43	-0.26976213
58	0xbed70474	-0.41995585
59	0xbe288891	-0.16458346
60	0xbe8dc3e4	-0.27688515
61	0xbf03eec5	-0.5153621
62	0xbe5cd782	-0.21566585
63	0xbefd7a54	-0.4950739
64	0xbf20eee2	-0.62864506
65	0xbec56cfc	-0.3855971
66	0xbe5a5552	-0.2132161
67	0xbe751aa8	-0.2393595
68	0x3e326927	0.17422925
69	0xbe03cb1c	-0.12870449
70	0x3eac5173	0.3365589
71	0x3e9788eb	0.29596648
72	0x3e92b90f	0.28656814
73	0xbdbc505f	-0.09195017
74	0xbc5d1247	-0.013493127
75	0xbf4ecc26	-0.80780256
76	0xbdb63650	-0.08897078
77	0xbe0aac98	-0.13542402
78	0x3ecb5383	0.39712152
79	0xbef2f5fa	-0.4745329
80	0xbeaf51f9	-0.34242228
81	0x3e965692	0.29362923
82	0x3e0889e4	0.13333851
83	0x3e4c7d0e	0.1996958
84	0x3e90a744	0.28252614
85	0xbebf9b6a	-0.3742326
86	0xbe4e8614	-0.20168334
87	0x3d3dffb9	0.046386454
88	0x3c201ac6	0.009772008
89	0x3dc14c3d	0.094383694
90	0xbe189397	-0.14900051
91	0xbdeb42b6	-0.114873335
92	0xbe386b8e	-0.18009779
93	0xbe2b1458	-0.1670698
94	0xbe57e9d0	-0.21085286
95	0x3cf98427	0.030458523
96	0xbe1eb227	-0.15497647
97	0xbd97e1f2	-0.074161425
98	0xbbcc00e5	-0.0062256926
99	0x3d7bbf8b	0.061461966
100	0xbe1734e9	-0.14766277
101	0xbea54f37	-0.32287
102	0xbe559282	-0.2085667
103	0x3e879f23	0.264886
104	0xbebaabfa	-0.36459333
105	0xbe042ae8	-0.12906992
106	0xbe575c5b	-0.21031325
107	0xbea680dd	-0.3252019
108	0xbf118974	-0.5685036
109	0xbf143622	-0.578951
110	0xbe1349bb	-0.14383595
111	0x3dc39817	0.09550493
112	0x3d258c24	0.04041685
113	0x3e83a299	0.2570999
114	0x3e28e51a	0.16493645
115	0x3ec58e70	0.38585234
116	0xbed62d28	-0.41831326
117	0x3d8b6469	0.06806261
118	0x3ef7efbe	0.48425096
119	0xbdcd4017	-0.1002199
120	0x3e593fda	0.21215764
121	0xbd039564	-0.032124892
122	0x3cae1f1e	0.021255072
123	0xbe95497a	-0.2915762
124	0xbe8a5ca0	-0.27023792
125	0xbcbae867	-0.022815896
126	0x3dd499d6	0.103809044
127	0x3c9053dc	0.017618112
128	0xbe92d183	-0.2867547
129	0x3eca9aa7	0.39571115
130	0xbe657c19	-0.22410621
131	0x3d35dc75	0.044399697
132	0xbe0a0f5e	-0.13482425
133	0x3e99ba25	0.3002483
134	0x3de92b5b	0.113852225
135	0x3eb6b4d4	0.35684836
136	0x3dfa4daa	0.122218445
137	0xbdbe8790	-0.093032
138	0xbde6039e	-0.11231159
139	0x3dfe3d50	0.12414038
140	0xbecbe250	-0.398211
141	0x3ece592a	0.40302402
142	0x3e2c6ad7	0.16837631
143	0xbe939f71	-0.28832582
144	0xbebb66e0	-0.36601925
145	0xbe3d4f22	-0.18487218
146	0xbe646e96	-0.2230781
147	0x3de138f9	0.10997195
148	0x3f0357de	0.5130595
149	0xbdf838ab	-0.121201836
150	0xbc875ef6	-0.016524773
151	0xbd9574f5	-0.072976984
152	0xbe46784b	-0.19381826
153	0xbec73d46	-0.38913935
154	0x3d9d1a3f	0.07671022
155	0x3e2c1c1b	0.16807596
156	0xbdffe2fd	-0.124944665
157	0xbe9c4d87	-0.305279
158	0x3e134a5c	0.14383835
159	0x3e98a1ac	0.29810846
160	0xbe2da1dc	-0.16956276
161	0x3eca6a29	0.3953412
162	0xbe47718e	-0.19476911
163	0x3a7c4f5a	0.00096248614
164	0xbeb6e8d3	-0.35724506
165	0xbe5d02e2	-0.21583131
166	0x3dd34cac	0.103173584
167	0x3e26934c	0.16267127
168	0xbe99deff	-0.30052945
169	0xbf309815	-0.6898206
170	0xbf300282	-0.68753827
171	0x3eb2818c	0.3486446
172	0xbe30a795	-0.17251427
173	0xbe1cd8ca	-0.15317073
174	0x3e17d1d6	0.1482614
175	0xbe8b61b2	-0.27222973
176	0xbe53eff2	-0.20697
177	0x3e321e27	0.17394315
178	0x3eeab3f3	0.45840415
179	0x3e8cd413	0.2750555
180	0xbe75f982	-0.24020961
181	0x3f30320f	0.68826383
182	0x3dd12fe7	0.10214215
183	0xbe2d9d27	-0.1695448
184	0xbeb151e4	-0.3463279
185	0x3c3576b3	0.011075663
186	0xbbd88b1a	-0.006608379
187	0xbd2192d8	-0.03944668
188	0x3eda31b3	0.42616042
189	0x3cefb719	0.029262112
190	0x3e645186	0.22296724
191	0x3d94e05b	0.07269355
192	0xbe3cfef7	-0.18456636
193	0x3e9e1c39	0.30880907
194	0x3e83ff53	0.25780734
195	0xbf2512d3	-0.6448185
196	0xbe4d7976	-0.20065865
197	0xbdc374e5	-0.0954378
198	0x3ef7ba46	0.48384303
199	0x3bf88bcd	0.007585025
200	0x3dbd1216	0.09231965
201	0xbdc0342b	-0.0938495
202	0xbd5ee7fb	-0.054420453
203	0xbe126a64	-0.14298397
204	0x3efc5ef1	0.49291185
205	0x3ced87f7	0.028995497
206	0x3e112667	0.14174806
207	0x3f03f9e3	0.5155317
208	0x3ed2721c	0.41102684
209	0x3e4355da	0.19075719
210	0xbebb01f6	-0.36524934
211	0x3e9cf34a	0.30654365
212	0xbda46503	-0.08027079
213	0x3ec8889b	0.39166722
214	0x3dd5033c	0.104010075
215	0x3b070ce6	0.0020607053
216	0xbdcae571	-0.09907044
217	0xbe006346	-0.1253787
218	0xbe2a66a4	-0.16640717
219	0x3e540817	0.20706211
220	0x3eb0658a	0.34452468
221	0xbd7cadbe	-0.06168913
222	0x3e15eb8b	0.14640634
223	0x3e874892	0.26422554
224	0xbb92b3a9	-0.0044769836
225	0xbe540c32	-0.20707777
226	0x3e218bb5	0.1577595
227	0x3ee784d5	0.4521853
228	0x3ed96b46	0.42464656
229	0x3db22814	0.086990505
230	0x3e94ccd3	0.29062518
231	0xbebe89af	-0.3721442
232	0x3e8307b0	0.25591803
233	0x3bb37dec	0.0054776575
234	0x3f20dd17	0.62837356
235	0xbe02352d	-0.12715597
236	0xbe5ceaf6	-0.21574005
237	0xbdbcb8d0	-0.09214938
238	0x3d9e52c8	0.07730633
239	0xbcb68bb4	-0.022283413
240	0x3e5ce58b	0.21571939
241	0xbdd49f06	-0.10381894
242	0x3d471ce9	0.048611555
243	0x3edc100c	0.42980993
244	0xbdbf17a1	-0.09330679
245	0x3d5cbb02	0.053889282
246	0xbd01b6eb	-0.031668585
247	0x3e7896de	0.24276301
248	0x3e63511c	0.2219891
249	0xbdc00fe0	-0.09378028
250	0xbe2cf2af	-0.16889451
251	0xbc87d9a0	-0.016583264
252	0x3de6aaab	0.11263021
253	0x3d9777e2	0.07395913
254	0xbe1915b9	-0.14949693
255	0xbe0af3e4	-0.135696

network_body._body_endoder.seq_layers.0.bias f4 [128]
0	0x3d02deb1	0.031950656
1	0x3c8cc555	0.017183939
2	0x3cf19f5f	0.02949494
3	0x3b5d5265	0.0033771035
4	0x3c46e2eb	0.012139062
5	0x3ced78a2	0.028988186
6	0x3d30e6d4	0.043188885
7	0xbd103985	-0.035211105
8	0xbcbaf50f	-0.022821931
9	0x3cf50879	0.029911267
10	0xbca154c1	-0.019693734
11	0x3ba5d588	0.0050608553
12	0x3d1a45ed	0.037664343
13	0x3cebd058	0.02878587
14	0xbc2fb02d	-0.010723156
15	0x3cd01a48	0.025403157
16	0xbcb6fa45	-0.022336135
17	0x3d182c31	0.03715152
18	0x3d0ec03e	0.034851305
19	0x3c687276	0.014187446
20	0xbcc70adf	-0.024297176
21	0x3cadb6bb	0.021205297
22	0x3c917d1d	0.017759854
23	0xbca7900c	-0.02045443
24	0x3cc5da58	0.024151966
25	0x3c76fbda	0.0150746945
26	0x3ca111b4	0.019661762
27	0xbd0bf9a6	-0.03417363
28	0x3d234b36	0.03986665
29	0x3cc41ef3	0.023940539
30	0x3d137f53	0.036010098
31	0x3c1b92ec	0.009495478
32	0x3d1d10f8	0.03834626
33	0xbc6c374c	-0.014417481
34	0xbc9e3a4b	-0.019314906
35	0xbd2d06c0	-0.042242765
36	0x3cbfbe6a	0.023406226
37	0xbcd4e36a	-0.025987346
38	0xbc80f6c0	-0.01574266
39	0x3cbdec1f	0.02318388
40	0x3bd70d26	0.0065628467
41	0xbcb3f105	-0.021965513
42	0xbce8b779	-0.0284078
43	0xbc9ba5d7	-0.018999977
44	0xbc9ef94e	-0.019405987
45	0x3c45d9fa	0.012075895
46	0x3c4ea292	0.012612002
47	0x3c3c8e76	0.011508575
48	0x3caf64e2	0.02141041
49	0x3cfebba8	0.03109534
50	0xbceb5d63	-0.028731054
51	0x3cab0331	0.020875545
52	0xbbf55892	-0.007487365
53	0x3d177b20	0.036982656
54	0xbca82252	-0.020524178
55	0x3c14ec4a	0.009089539
56	0x3c7add83	0.015311602
57	0x3d25a2df	0.04043853
58	0x3d2fb178	0.042893857
59	0xbc4f0154	-0.012634594
60	0xbc019cf4	-0.007910956
61	0xbbbfc6d9	-0.005852562
62	0xbc7d3cf8	-0.015456431
63	0x3cd8f07f	0.026481865
64	0x3ba7a235	0.005115772
65	0x3d3c613f	0.04599118
66	0xbd160fd4	-0.03663619
67	0xbbc0f55a	-0.005888623
68	0xbca257b7	-0.019817216
69	0xbcc2965c	-0.023753338
70	0x3d06686b	0.032814424
71	0x3d055ea1	0.03256095
72	0xbc9856cd	-0.018596077
73	0xb839e8c0	-4.4324202e-05
74	0xb9ca52a8	-0.00038590026
75	0x3d030429	0.03198639
76	0x3be264a7	0.0069089714
77	0xbcbbe478	-0.02293609
78	0xbd02be6e	-0.03191989
79	0xbce6f615	-0.028193513
80	0x3cb7f53d	0.022455806
81	0x3cf3364b	0.029688975
82	0x3cbd8333	0.02313385
83	0xbc867aaa	-0.016415913
84	0x3ca17c51	0.019712599
85	0x3cd82f1d	0.026389653
86	0xbc8e8a32	-0.017399881
87	0x3c65622c	0.014000457
88	0x3ccae2ab	0.024766287
89	0x3d35e21f	0.0444051
90	0xbc3f92e0	-0.011692733
91	0xbce945ce	-0.028475668
92	0xbbbd0b51	-0.0057691713
93	0x3c5469da	0.01296469
94	0xbcbd5f7e	-0.023116823
95	0x3cbd9dd0	0.02314654
96	0x3caf8c1d	0.021429116
97	0x3baa20b8	0.0051918887
98	0x3cd0b16f	0.025475232
99	0x3d49646a	0.049168028
100	0x3ca72ebb	0.020408025
101	0xbcb7caa7	-0.0224355
102	0x3cea4e4f	0.028601794
103	0xbcc8a96f	-0.024494855
104	0x3d040c98	0.032238573
105	0x3cfb8f76	0.030708056
106	0x3c20a721	0.009805472
107	0xbc32d65d	-0.010915366
108	0x3ca8ace8	0.02059026
109	0xbc7321ed	-0.0148396315
110	0x3cb412f5	0.021981696
111	0x3d1dbcfa	0.0385103
112	0x3c342129	0.010994234
113	0x3cc08b74	0.023503996
114	0xbd1abd28	-0.03777805
115	0x3ce6e636	0.028185945
116	0x3cab9c65	0.020948598
117	0xbbf0b82f	-0.007346175
118	0x3b5eec82	0.0034015481
119	0xbc87765f	-0.016535936
120	0xbd0ce7e4	-0.034400836
121	0x3cb65e25	0.022261688
122	0xbcaa2ed2	-0.020774279
123	0xbcc22d37	-0.0237032
124	0x3cd8bbf6	0.026456814
125	0xbba2583e	-0.004954367
126	0x3c90f0a6	0.017692875
127	0xb9680bca	-0.00022129636

network_body._body_endoder.seq_layers.2.weight f4 [128, 128]
0	0x3c8c6117	0.01713614
1	0x3c712a9d	0.014719632
2	0xbdffd876	-0.124924585
3	0xbd353bea	-0.04424659
4	0xbd9dfe3e	-0.077145085
5	0x3d976c98	0.073937595
6	0xbe1932c0	-0.14960766
7	0x3d8a321c	0.06747839
8	0x3e36b029	0.17840637
9	0xbc2ce979	-0.010553711
10	0xbd511f50	-0.051055253
11	0x3d5581fb	0.052125912
12	0x3c83aaa9	0.016072588
13	0xbcfedd61	-0.031111421
14	0x3de56108	0.11200148
15	0x3d096824	0.033546582
16	0xbd1b8302	-0.037966736
17	0xbc18bdd8	-0.009322606
18	0x3e0b4407	0.13600169
19	0xbda77420	-0.08176446
20	0xbdffb30c	-0.12485322
21	0xbdc961b9	-0.09833092
22	0x3d7110f9	0.058854077
23	0x3d062ee8	0.032759577
24	0xbd003a57	-0.031305637
25	0xbca8377c	-0.02053427
26	0xbdcc7469	-0.09983141
27	0xbd894126	-0.06701879
28	0xbd258db7	-0.040418353
29	0xbd901039	-0.07034344
30	0xbc2a7a58	-0.010405146
31	0xbb773178	-0.0037718695
32	0xbdee5f63	-0.11639287
33	0xbe57e757	-0.21084343
34	0x3e13c50a	0.14430633
35	0xbe172baa	-0.1476275
36	0xbdfc9094	-0.123322636
37	0x3dc57854	0.096420914
38	0xbdbd660c	-0.092479795
39	0x3e34054c	0.17580146
40	0x3c9ec2ca	0.019379992
41	0xbe042a22	-0.12906697
42	0xbd696463	-0.0569805
43	0xbd092aa9	-0.03348795
44	0xbd2e9258	-0.042620033
45	0xbdafa56e	-0.08576475
46	0xbdffa6cb	-0.12482985
47	0x3d85281c	0.06501791
48	0xbd1ccca9	-0.038281117
49	0x3a2d2b46	0.00066058745
50	0x3b1aaf06	0.0023602857
51	0xbdb31d2e	-0.087458
52	0x3bd20029	0.0064087105
53	0x3d385926	0.045006894
54	0xbe1ab145	-0.15106685
55	0xbc1c7d37	-0.009551338
56	0xbca329d9	-0.019917415
57	0xbe379b05	-0.17930229
58	0xbdb0136b	-0.08597454
59	0x3ce655b8	0.028117046
60	0x3df7e247	0.12103706
61	0x3d172756	0.036902748
62	0x3d103c17	0.035213556
63	0xbd2263d1	-0.039645974
64	0xbe15aa0a	-0.14615646
65	0xbd0ec808	-0.034858733
66	0x3e449cb7	0.19200407
67	0x3e0180a0	0.12646723
68	0x3a7c2e0d	0.0009619899
69	0xbcf47cb9	-0.029844629
70	0xbd89c831	-0.067276366
71	0xbd8180a3	-0.06323364
72	0x3c864c6f	0.016393868
73	0xbccd53ef	-0.025064437
74	0xbd825833	-0.06364479
75	0xbe30be63	-0.17260127
76	0xbd339531	-0.043843452
77	0x3b904410	0.004402645
78	0xbdfa3a74	-0.1221818
79	0x3d659a35	0.056055266
80	0xbded24c8	-0.11579281
81	0x3dee971b	0.11649915
82	0xbdc0fccf	-0.094232194
83	0x3d89fb10	0.067373395
84	0x3cf8fe83	0.030394798
85	0x3ca05950	0.019573838
86	0xbdfe70d7	-0.12423866
87	0xbdefa739	-0.11701817
88	0x3de4d068	0.11172563
89	0x3d3741d1	0.0447405
90	0x3e1ac64d	0.15114708
91	0x3cdcd111	0.02695516
92	0xbd269d21	-0.040677194
93	0x3dc6eeda	0.09713526
94	0x3e2c5056	0.1682752
95	0xbdd173c9	-0.102271624
96	0x3d9b928b	0.0759631
97	0x3d4d47a4	0.05011715
98	0x3e3bc57f	0.18337058
99	0xbd59421c	-0.053041562
100	0xbd27502e	-0.04084795
101	0x3dfc2f74	0.123137385
102	0x3bdc0447	0.006714377
103	0x3dca6979	0.098833986
104	0xbd90f289	-0.0707751
105	0xbd018acf	-0.03162652
106	0xbd82df18	-0.06390208
107	0x3d8ac764	0.06776312
108	0xbe0ef48d	-0.13960476
109	0x3d66c0fe	0.056336395
110	0x3cb6d9dd	0.022320682
111	0x3cf50a27	0.029912068
112	0xbcc22052	-0.023697052
113	0xbdf7c9e9	-0.12099058
114	0xbe07d0f6	-0.13263306
115	0xbdc3ccb3	-0.09560528
116	0x3d892467	0.06696396
117	0xbc277db6	-0.010222843
118	0xbdb431b4	-0.087985426
119	0xbdc78eac	-0.097440094
120	0x3a5de9d8	0.00084653264
121	0xbc6237ef	-0.013807281
122	0x3d4f7d51	0.05065662
123	0x3c10ddc5	0.0088419365
124	0xbe36ad75	-0.17839606
125	0x3ca23d64	0.019804664
126	0x3dd5a322	0.10431506
127	0xbc621b70	-0.013800487
128	0xbda6027c	-0.081059426
129	0xbbd64be0	-0.0065398067
130	0x3d2eb289	0.042650733
131	0xbc8ce70b	-0.017200014
132	0xbd1e8df3	-0.038709592
133	0x3bdac867	0.006676722
134	0x3d5bd591	0.05367047
135	0xbc1398ad	-0.009008569
136	0x3d722062	0.059112914
137	0xbe31c3e4	-0.17359883
138	0xbd05d1fe	-0.032670967
139	0x3dbebaa4	0.093129426
140	0xbd514a5c	-0.051096305
141	0x3a7bca11	0.00096050004
142	0x3bd88e2f	0.0066087465
143	0x3d9417a1	0.07231069
144	0x3d58aa3d	0.052896727
145	0x3d71a39a	0.058993913
146	0x3c880f67	0.016608907
147	0x3d2bf171	0.041978303
148	0xbd80a765	-0.06281928
149	0xbdb85330	-0.09000242
150	0x3a97785e	0.0011556258
151	0xbd997e42	-0.07494785
152	0xbdb33ca8	-0.08751804
153	0x3cd39bca	0.025831122
154	0xbe124bc6	-0.14286718
155	0xbe0730d8	-0.13202226
156	0x3cb5278b	0.022113582
157	0xbd16e10b	-0.03683571
158	0xbd8f3e93	-0.06994357
159	0x3ddf4186	0.109011695
160	0xbac30f80	-0.0014881939
161	0x3dc40941	0.095720775
162	0x3bcd3fd6	0.0062637134
163	0x3dabec6b	0.083947025
164	0xbcfee25f	-0.031113802
165	0x3de84284	0.11340812
166	0xbce2b56c	-0.0276744
167	0xbdafc86b	-0.085831486
168	0xbda23d8a	-0.07921894
169	0x3dffceba	0.12490602
170	0xbde157ad	-0.11003051
171	0x3df194ec	0.11795983
172	0xbbe2ce6a	-0.006921579
173	0x3cd0971d	0.025462681
174	0x3c487b01	0.012236358
175	0x3e88e5a9	0.26737717
176	0x3dcb511a	0.09927578
177	0x3db60884	0.08888343
178	0x3d3ef2f2	0.04661841
179	0xbdf1015a	-0.11767836
180	0xbddd43d9	-0.108039565
181	0x3cd00f51	0.025397928
182	0x3d75fc5a	0.060055114
183	0xbbafc79d	-0.005364372
184	0xbe3d27ae	-0.18472168
185	0x3d3c3dea	0.045957483
186	0xbc1fcdae	-0.009753628
187	0xbdfce0f3	-0.12347593
188	0xbd72a4b7	-0.059239116
189	0x3d85f3ad	0.06540618
190	0xba46b465	-0.00075799815
191	0xbd5e0bbc	-0.05421041
192	0xbdabe763	-0.08393743
193	0x3dcf2e6c	0.10116276
194	0x3ce2ced8	0.027686521
195	0xbd87943a	-0.06620069
196	0x3d67ce04	0.056592956
197	0x3dfc2c1a	0.12313099
198	0xbd68d3df	-0.05684268
199	0xbd82f7d5	-0.063949265
200	0x3cc71b64	0.024305053
201	0xbdcd1875	-0.100144304
202	0xbd8fb5df	-0.07017111
203	0x3be7af6f	0.007070474
204	0x3da87720	0.08225846
205	0x3d6cb1ce	0.057786755
206	0xbda3a418	-0.07990283
207	0xbca3282a	-0.019916613
208	0xbdce4477	-0.100716524
209	0xbd932b2f	-0.07185971
210	0xbd52c6c0	-0.051459074
211	0x3d4c8331	0.0499298
212	0xbdf9f25c	-0.122044295
213	0x3c87df86	0.016586076
214	0xbe841850	-0.257998
215	0xbdecf06a	-0.11569293
216	0x3d830762	0.063978925
217	0xbd67f975	-0.056634385
218	0x3dac4cf3	0.084131144
219	0x3d81416f	0.063113086
220	0xbe14044c	-0.14454764
221	0x3cc82ce7	0.024435474
222	0xbdaddfec	-0.08489975
223	0x3d105790	0.035239756
224	0x3d2eeae7	0.04270449
225	0x3d9c1c81	0.07622624
226	0x3d9a07f4	0.07521048
227	0x3d6e1545	0.058125753
228	0x3d7bdd59	0.06149039
229	0xbda8bb15	-0.08238808
230	0x3d71627a	0.058931805
231	0xbdc8d502	-0.09806253
232	0x3d4fccae	0.050732307
233	0xbc9a2127	-0.018814636
234	0xbda5794e	-0.08079778
235	0xbd7f262a	-0.062292255
236	0xbdf9735b	-0.121802054
237	0x3da4521b	0.08023473
238	0x3c020e1c	0.007937934
239	0x3db20b02	0.08693506
240	0xbdfdc6cd	-0.12391434
241	0x3d30a85c	0.04312931
242	0xbd0f29cb	-0.034951966
243	0x3ddbcd27	0.10732489
244	0x3d970c75	0.07375423
245	0xbe47ae75	-0.19500144
246	0x3db42838	0.087967336
247	0x3e005d3c	0.12535566
248	0xbbf42c0e	-0.007451541
249	0xbd732067	-0.059357073
250	0x3e213063	0.15741114
251	0xbc29fa17	-0.0103745675
252	0x3dcb8423	0.099373125
253	0xbe604327	-0.21900617
254	0xbc1a7f82	-0.009429814
255	0x3dcf7195	0.10129086

network_body._body_endoder.seq_layers.2.bias f4 [128]
0	0xbd083814	-0.033256605
1	0x3c3daff5	0.011577596
2	0x3ccb2ed1	0.024802597
3	0xbbeb53b2	-0.007181608
4	0xbca67d8d	-0.02032354
5	0xbcd2ca19	-0.025731133
6	0x3cc2a093	0.023758208
7	0xbcbaf863	-0.022823518
8	0x3c2d4a1e	0.010576753
9	0x3ce215c8	0.027598277
10	0x3c41c2dc	0.011826243
11	0xbca714f3	-0.020395732
12	0xbc74f5d1	-0.014951185
13	0xbbdf3f23	-0.0068129464
14	0xbca3fed1	-0.020018967
15	0x3d167421	0.036731843
16	0xbc9f9599	-0.019480513
17	0x3c990806	0.018680584
18	0x3cc660b7	0.02421604
19	0x3c9b9084	0.018989809
20	0x3cac5993	0.021038806
21	0x3c73f57a	0.014890069
22	0x3ca0a273	0.019608712
23	0x3cffce5f	0.031226335
24	0x3c599010	0.013278976
25	0xb7fb63ff	-2.9968096e-05
26	0x3c9da7a4	0.019244976
27	0x3cded603	0.027201658
28	0xbc964a42	-0.018345956
29	0xbc280019	-0.0102539295
30	0xbcd2e0b9	-0.025741922
31	0x3cb45764	0.022014327
32	0x3c6ebb91	0.0145710865
33	0x3c845cf0	0.016157597
34	0x3cc9b4ae	0.024622288
35	0x3c9adf93	0.018905437
36	0x3ce446e9	0.027865844
37	0x3ce6be1f	0.028166829
38	0x3c84865b	0.016177347
39	0x3cac000b	0.020996114
40	0x3cf187a1	0.029483618
41	0xbc6bb368	-0.0143860355
42	0xbcbe7b0c	-0.023252033
43	0xbb8094a2	-0.0039239684
44	0x3cbf5cf3	0.023359751
45	0x3cea3051	0.028587492
46	0xbc9adbf3	-0.018903708
47	0x3c8a819e	0.01690751
48	0xbc8b5421	-0.01700789
49	0xbc95e46e	-0.0182974
50	0x3c750920	0.014955789
51	0x3cc3c42c	0.023897253
52	0x3cf8f490	0.030390054
53	0xbc90f826	-0.017696451
54	0xbbee9667	-0.007281113
55	0xbd0a27d1	-0.033729378
56	0x3ca1c7e7	0.019748641
57	0x3cdc32f3	0.026879763
58	0x3c20639e	0.009789376
59	0x3d06fa04	0.032953277
60	0xbca2b7f2	-0.019863103
61	0xbc9bac6f	-0.019003121
62	0xbc9713ad	-0.018442
63	0xbabfb182	-0.0014625045
64	0x3cd43822	0.025905672
65	0xbc98863a	-0.018618692
66	0xbca0b62e	-0.01961812
67	0x3c05c6d3	0.008165079
68	0xbca67a4b	-0.020321986
69	0x3cbff985	0.02343441
70	0x3b03678b	0.002005073
71	0xbcee9d95	-0.029127875
72	0x3b4a25e1	0.0030845331
73	0xbca4dc1a	-0.020124484
74	0x3d192927	0.03739276
75	0x3d49ec47	0.049297597
76	0x3cffb7eb	0.031215629
77	0x3b4b2da1	0.0031002539
78	0x3d06e3a8	0.032931954
79	0xbbe16aff	-0.00687921
80	0x3c39dd09	0.011344203
81	0x3c9961f5	0.018723467
82	0xbc7cc10c	-0.015426885
83	0xbca78d6e	-0.020453181
84	0xbc3e9443	-0.011632028
85	0xbc4873ab	-0.012234609
86	0xbc8b20e3	-0.016983455
87	0xbc7ecee2	-0.015552254
88	0xbc9a2ab5	-0.018819192
89	0x3c77c0cf	0.015121653
90	0xbc4f7879	-0.012663
91	0xbc187908	-0.0093062
92	0x3cc7612f	0.024338333
93	0x3d06c77d	0.03290509
94	0xbb852c16	-0.0040640933
95	0xbc248df6	-0.010043612
96	0x3cbec2eb	0.023286304
97	0x3cde9bb1	0.027173849
98	0xbc566e4c	-0.01308782
99	0x3c3795de	0.011205165
100	0xbcafde76	-0.021468382
101	0x3bde021d	0.0067751543
102	0xbc1e5f7f	-0.009666323
103	0xbca30b98	-0.01990299
104	0xbc675fa0	-0.01412192
105	0x3cdcc08c	0.026947282
106	0x3ce994b9	0.0285133
107	0x3b151fd0	0.0022754557
108	0x3bbcae50	0.0057580844
109	0x3cfb36e8	0.03066583
110	0xbc5995d5	-0.013280352
111	0xbc81ef5c	-0.015861206
112	0x3c4331b8	0.011913709
113	0x3c2cb210	0.0105405
114	0x3cde3231	0.027123543
115	0xbc256ca2	-0.010096701
116	0x3cae3bc0	0.021268725
117	0x3af9633f	0.001902677
118	0x3cc3ebb9	0.023916112
119	0x3c0e746e	0.008694751
120	0xbca05fc2	-0.01957691
121	0x3cad07ff	0.021121977
122	0x3cc9b60d	0.024622941
123	0x3ccfba47	0.025357379
124	0xbc99e851	-0.018787535
125	0x3cab850e	0.020937469
126	0xbc915b95	-0.017743865
127	0x3ae16d7f	0.001719877

action_model._continuous_distribution.log_sigma f4 [1, 2]
0	0x3cddf3f1	0.02709386
1	0x3d2843af	0.041080173

action_model._continuous_distribution.mu.weight f4 [2, 128]
0	0x3c2c51c5	0.010517542
1	0xbc892fab	-0.016746363
2	0xbbb628ea	-0.0055590766
3	0xbcdf9345	-0.027291903
4	0xbd592798	-0.053016275
5	0xbc1e0a25	-0.009645973
6	0x3cb4918a	0.022042055
7	0x3b1069f4	0.002203581
8	0xbce5e636	-0.028063875
9	0x3b0a83ae	0.0021135616
10	0x3d234db9	0.039869044
11	0xbd7ec6c6	-0.062201284
12	0xbd11fc37	-0.03564092
13	0xbccbbee0	-0.02487129
14	0xbc11d7f5	-0.008901586
15	0x3cc7d0d1	0.024391564
16	0xba389bc1	-0.0007042252
17	0x3c989e79	0.018630253
18	0x3ca60cf3	0.020269847
19	0x3aac2abd	0.0013135296
20	0x3c104dea	0.008807639
21	0xbca1da72	-0.019757483
22	0xbbf8d61e	-0.007593884
23	0x3d1022bf	0.035189386
24	0x3d47953e	0.048726313
25	0xbc03c9bb	-0.008043702
26	0x3c071a35	0.008245994
27	0x3d0236d1	0.03179056
28	0xbb9b9d2b	-0.0047489605
29	0xbc131519	-0.008977198
30	0x3b4770f6	0.003043232
31	0x3d3f68f4	0.04673095
32	0xbc6492ab	-0.013950984
33	0xbc04dc42	-0.008109154
34	0x3c9898d9	0.018627571
35	0x3be65265	0.007028865
36	0x3cbe7fd3	0.02325431
37	0xb98eb029	-0.000272156
38	0xbc9621a9	-0.018326597
39	0x3d17b924	0.0370418
40	0x3ceff63b	0.029292217
41	0xba39581e	-0.00070703204
42	0xbaa3a6a7	-0.0012485579
43	0xbc8d7233	-0.017266368
44	0x3c5c012a	0.013428012
45	0x3d42a834	0.047523692
46	0xbc0e7e89	-0.0086971605
47	0x3d505d5f	0.050870296
48	0x3b799aa6	0.0038086562
49	0xb98b580e	-0.00026577752
50	0x3d02a06c	0.03189127
51	0x3d3b827f	0.045778748
52	0x3d325ecb	0.043547433
53	0xbc8b3540	-0.016993165
54	0xbcb58569	-0.022158341
55	0x3baca90c	0.0052691754
56	0x3c984e11	0.018591912
57	0xb9f9f5e1	-0.00047676175
58	0x3ca64945	0.02029861
59	0x3c455c5a	0.012045944
60	0xbcf9066b	-0.030398568
61	0xbc75bb82	-0.014998319
62	0xbc84def9	-0.016219603
63	0x3ce2a0f0	0.027664632
64	0x3bb93f79	0.0056533185
65	0xbcd1c471	-0.025606366
66	0xbcc7c8fa	-0.024387825
67	0x3c9d9639	0.01923667
68	0xbc2dd171	-0.010609017
69	0xbc074d0d	-0.008258116
70	0x3d08c4c5	0.03339078
71	0x3bf83f56	0.0075759096
72	0x3c64eb81	0.013972164
73	0xbbe6e358	-0.0070461445
74	0x3c4ab4aa	0.012372175
75	0xbc08ca29	-0.00834898
76	0x3c4bcf84	0.012439612
77	0x3ce3f896	0.027828496
78	0xbbca07a1	-0.00616546
79	0x3c737476	0.014859309
80	0xbc37a551	-0.011208848
81	0x3d1657f9	0.03670499
82	0xba846faf	-0.0010104085
83	0xbce98974	-0.028507926
84	0xbc980e76	-0.018561583
85	0xbd1fc004	-0.03900148
86	0xbd33e7d3	-0.043922257
87	0xbd290826	-0.041267537
88	0xbb7971a9	-0.0038062131
89	0x3c9e9c1a	0.019361544
90	0xbca2ca45	-0.01987184
91	0xbcd92101	-0.026504995
92	0x3c1508e7	0.009096361
93	0xbc35a2de	-0.011086194
94	0xbd0b378e	-0.033988528
95	0x3c6c4b55	0.014422257
96	0x3c974114	0.018463649
97	0x3d302fea	0.043014444
98	0xbc99786f	-0.018734185
99	0x3d38ad4b	0.04508714
100	0xbcfea475	-0.031084279
101	0x3d10502e	0.035232715
102	0xbd0e4544	-0.034734026
103	0x3c8380f7	0.016052706
104	0xbcca6ad8	-0.02470915
105	0x3d009811	0.03139502
106	0x3ba04984	0.0048915762
107	0x3c6de00e	0.014518751
108	0x3c45a3b8	0.012062959
109	0x3ceae1f7	0.028672202
110	0xbce92795	-0.028461257
111	0xbb48a418	-0.0030615386
112	0x3b1332c3	0.0022460676
113	0x3cdd3564	0.027002998
114	0xbb08cf3a	-0.002087547
115	0x3c7f7a89	0.0155931795
116	0x3c385203	0.011250022
117	0x3b874742	0.0041283676
118	0x3c37d137	0.011219314
119	0x3ca1846b	0.019716462
120	0x3c0c3b07	0.008558995
121	0x3bafce29	0.0053651524
122	0x3d6c47da	0.05768571
123	0xbc3079c6	-0.010771221
124	0xbd18e884	-0.03733112
125	0x3c3a73a3	0.011380109
126	0xbcb01b68	-0.021497443
127	0xbc8afe49	-0.016966956
128	0xbc85aef7	-0.016318781
129	0x3ce55991	0.02799681
130	0x3d2397e6	0.039939784
131	0x3c691fb1	0.014228747
132	0xbc69d569	-0.014272072
133	0xbc8df049	-0.017326491
134	0x3c3365fc	0.010949608
135	0xbc3c08dc	-0.011476722
136	0x3d8c78c7	0.06858974
137	0x3d60ee32	0.05491466
138	0xbd35c1c0	-0.044374228
139	0x3c2b216b	0.010444979
140	0xbb98224b	-0.00464276
141	0x3cabb5ce	0.020960715
142	0xbc8e4577	-0.017367108
143	0x3bf31d98	0.0074192993
144	0xbb8b9a59	-0.004260343
145	0xbb8b347b	-0.0042481995
146	0x3bd190ed	0.0063954503
147	0x3c320cc5	0.010867302
148	0x3a15b257	0.00057104736
149	0x3cc6c96a	0.024265964
150	0x3d7dad7f	0.061933037
151	0x3d17cced	0.037060667
152	0xbd113f39	-0.035460684
153	0x3b7a878f	0.0038227772
154	0x3d0d2b86	0.034465335
155	0xbce9f01b	-0.028556874
156	0xbca1b0e2	-0.019737665
157	0xbcf2cda8	-0.02963908
158	0xbc2defc8	-0.01061625
159	0x3c9fad99	0.019491958
160	0x3c266765	0.010156487
161	0x3ce127c1	0.027484776
162	0x3d31a34c	0.043368623
163	0x3c312fc6	0.010814613
164	0xbc17782d	-0.009244961
165	0x3d3b2f8e	0.04569965
166	0x3cc10fb8	0.023567066
167	0xbc19832b	-0.009369652
168	0xbcaddeb0	-0.02122435
169	0xbc7d06f8	-0.015443556
170	0xbc2f98f4	-0.010717619
171	0xbbe25897	-0.0069075334
172	0x3ac9b6a5	0.0015389515
173	0x3cf632a9	0.030053454
174	0xbd3b3359	-0.045703266
175	0xbcb5da45	-0.022198806
176	0xbbfe6ad2	-0.007764199
177	0xbcde7b6b	-0.02715846
178	0xbc2941ae	-0.010330601
179	0xbcad54aa	-0.021158535
180	0xbc925fa5	-0.017867872
181	0xbcad4828	-0.02115257
182	0x3cf220ef	0.02955672
183	0xbca24d77	-0.019812329
184	0xbbeeb4f1	-0.0072847535
185	0x3d4fbb7f	0.05071592
186	0xbc78708b	-0.015163551
187	0x3d0b6f24	0.03404154
188	0x3c066324	0.008202348
189	0xbc73c404	-0.014878277
190	0xbbb57ceb	-0.005538573
191	0xbda36795	-0.07978741
192	0x3d4db6bf	0.05022311
193	0x3c8c5afa	0.017133225
194	0xbc6bbe1d	-0.014388588
195	0xbcac7a81	-0.021054508
196	0xbd572aa9	-0.05253092
197	0x3d5b62bd	0.05356096
198	0xbcd6dfdc	-0.026229791
199	0xbcf619ae	-0.030041542
200	0xbc2a812a	-0.010406772
201	0xbc5f486b	-0.013628106
202	0x3cee4d8e	0.029089715
203	0x3bb7d1bd	0.0056097195
204	0x3d333bea	0.04375831
205	0xbcda664a	-0.026660103
206	0x3d11ac33	0.035564613
207	0xbc5bc1f8	-0.013412945
208	0x3c5c168d	0.013433111
209	0xbcecb806	-0.028896343
210	0xbc91a767	-0.017780019
211	0x3c5ffa7b	0.013670559
212	0xbc0c0123	-0.008545193
213	0x3cdced73	0.026968693
214	0x3ab7711f	0.0013995505
215	0x3cc174ce	0.023615267
216	0xbc8b3e5a	-0.016997505
217	0x3cd3529b	0.025796225
218	0xbb8043aa	-0.003914316
219	0x3c730e0d	0.014834893
220	0x3c8bd3a6	0.017068695
221	0x3cb9bb98	0.02267246
222	0x3cee87b6	0.029117446
223	0xbcc88cc3	-0.024481183
224	0xba3854b9	-0.00070316676
225	0xba8cd993	-0.0010745995
226	0x3c1aaeea	0.009441117
227	0xbd80f679	-0.06297011
228	0x3bf9b80f	0.0076208184
229	0xbcdeadda	-0.027182508
230	0x3c254ff2	0.010089861
231	0xbc9890df	-0.018623767
232	0x3ba286e6	0.004959929
233	0xbc069e7e	-0.008216498
234	0x3c3ab001	0.011394502
235	0xbc49d372	-0.012318479
236	0x3ba867f5	0.005139346
237	0xbc27859b	-0.010224725
238	0xbc15750c	-0.009122144
239	0xbcc3ff3b	-0.023925414
240	0x3c44a1f3	0.012001502
241	0xbb88d9c6	-0.0041763512
242	0x3ce79b14	0.02827219
243	0xbd202d4a	-0.03910569
244	0x3a5e1417	0.00084716215
245	0xba30805e	-0.00067329954
246	0x3bc34fb1	0.0059604277
247	0xbc5a7758	-0.013334118
248	0xbd39d7b8	-0.04537174
249	0x3d8ac196	0.06775205
250	0x3cb12ad2	0.021626864
251	0x3d0a5ad0	0.03377801
252	0xbb14072f	-0.002258729
253	0x3d0d5480	0.034504414
254	0xbc28d8e3	-0.010305616
255	0x3ca0b2d7	0.019616527

action_model._continuous_distribution.mu.bias f4 [2]
0	0x3c91c586	0.017794382
1	0x3bec0859	0.0072031436

action_model._discrete_distribution.branches.0.weight f4 [1, 128]
0	0x3c0e37f2	0.008680331
1	0xb9c3c777	-0.0003734191
2	0x3a9a0d2d	0.0011753194
3	0xbb16b484	-0.002299578
4	0x392b053b	0.0001630978
5	0x3ca1dec6	0.019759547
6	0x3c756037	0.014976553
7	0x3c30e0ef	0.010795816
8	0x3b609c67	0.003427291
9	0xbc20225c	-0.009773817
10	0xbc0d46ff	-0.008622884
11	0xbc401ab3	-0.011725116
12	0xb94b7996	-0.00019404883
13	0x3b437ecb	0.0029830213
14	0xbbc3b053	-0.005971947
15	0xbbb15a68	-0.0054123886
16	0x3c77280d	0.015085232
17	0x3c1c1edd	0.009528843
18	0xbb619390	-0.003442023
19	0x3be6ed73	0.007047349
20	0x3ac4c1ed	0.0015011408
21	0x3c0faffb	0.008769984
22	0xbb863b94	-0.0040964577
23	0x3c533b62	0.012892576
24	0xbb4bbc15	-0.0031087447
25	0x3ad601d0	0.0016327444
26	0x3c6812f3	0.014164674
27	0xbb8753df	-0.0041298713
28	0x3b3ff5db	0.0029290828
29	0xbc382177	-0.011238447
30	0xbbeacbcf	-0.007165409
31	0x3c00fbd1	0.007872538
32	0x3c83d176	0.01609109
33	0x3b9709db	0.004609329
34	0x3c0ff0b6	0.008785417
35	0x3ca6caca	0.02036037
36	0x3bd0befb	0.006370423
37	0xbb200de3	-0.002442234
38	0x3bd14257	0.006386082
39	0x3c27154f	0.010197951
40	0xbbd39237	-0.006456639
41	0x3b7442f2	0.0037271348
42	0x3c8e49bb	0.017369142
43	0xbbcc94c5	-0.0062433206
44	0x3b23d54d	0.0024998963
45	0xbc7afe0f	-0.015319361
46	0xbc2e8249	-0.01065118
47	0xbbd3885d	-0.0064554648
48	0xbac2a2fb	-0.0014849597
49	0xbafc081f	-0.0019228494
50	0xbb855ebb	-0.0040701306
51	0xbb3c2a6b	-0.0028711807
52	0x3c3a83ad	0.011383933
53	0xbbda98c0	-0.0066710413
54	0x3b9601e3	0.0045778616
55	0xbbebadda	-0.0071923556
56	0x3c2362ce	0.009972287
57	0xbc6bb18d	-0.014385593
58	0xbb666d1a	-0.0035160244
59	0xbbf28ed5	-0.007402281
60	0xba0c8a87	-0.00053612184
61	0x3c876f92	0.016532693
62	0xbbd28205	-0.006424191
63	0xbb8fdb7b	-0.004390178
64	0x3ac96d3b	0.0015367636
65	0xbc1d1ebf	-0.00958985
66	0xbbaa2beb	-0.0051932237
67	0xba351fef	-0.00069093605
68	0xba781e6f	-0.0009464984
69	0xbc91b7b6	-0.017787796
70	0x3b92c283	0.004478754
71	0x3b23a4ae	0.0024969983
72	0x3c7aeedb	0.015315737
73	0xbab8118c	-0.0014043315
74	0x3b4f69f7	0.0031648853
75	0xbc2db9f2	-0.010603415
76	0x3cad4687	0.021151794
77	0xbc2fa77b	-0.010721083
78	0x39b1768e	0.000338484
79	0xbc332baf	-0.010935708
80	0xbb826cf7	-0.003980275
81	0xbc479503	-0.012181523
82	0xbb38b373	-0.0028183132
83	0xbc1cff35	-0.0095823305
84	0x3c138edf	0.009006231
85	0xbbce0652	-0.0062873745
86	0x3bed6612	0.0072448337
87	0xbc3f7c31	-0.011687324
88	0x3c54c670	0.012986764
89	0x3b401a93	0.0029312714
90	0xbc14525b	-0.009052838
91	0xbb33dfb7	-0.0027446577
92	0xbc9e4712	-0.019320998
93	0xbafa9e3d	-0.0019120645
94	0x3c2bfe47	0.010497636
95	0xbbcbb05f	-0.0062160934
96	0xbbaf66ce	-0.0053528314
97	0xba90a686	-0.0011035956
98	0x3bfe59e0	0.007762179
99	0xbc495cfa	-0.012290234
100	0xbc02e0e5	-0.007988189
101	0x3a34261f	0.00068721356
102	0x3c03a185	0.008034115
103	0xbb961fe5	-0.004581439
104	0x3c93576c	0.017986022
105	0x3bea388f	0.0071478556
106	0x3aadbe08	0.0013255486
107	0x3b6cbf03	0.0036124594
108	0xb8d01dd2	-9.923767e-05
109	0x3b1be002	0.0023784642
110	0xbc2d1918	-0.010565065
111	0x3a047183	0.0005052315
112	0xbb3771f5	-0.0027991508
113	0xbbfca8e2	-0.007710562
114	0x3c72150b	0.014775525
115	0x3b1d1a40	0.0023971945
116	0x3bb95053	0.0056553273
117	0xb831d65a	-4.239972e-05
118	0x3c11f49f	0.00890842
119	0x3bb9f8cd	0.0056754113
120	0xbb15bf0a	-0.0022849464
121	0x39454943	0.00018814676
122	0x3a961394	0.0011449927
123	0x3b319d3e	0.002710178
124	0xbbb32167	-0.0054666284
125	0xbc6dda2d	-0.014517349
126	0xba814eb4	-0.0009865374
127	0xbc1ac33f	-0.009445964

exp_avg f4 [128, 12]
0	0x37465044	1.1820408e-05
1	0x37e430e1	2.7202479e-05
2	0xb4ded7ef	-4.1507835e-07
3	0x34298815	1.5788858e-07
4	0x36fe449a	7.577776e-06
5	0x36fe449a	7.577776e-06
6	0x36fe449a	7.577776e-06
7	0x00000000	0.0
8	0x00000000	0.0
9	0x00000000	0.0
10	0x36310378	2.6377074e-06
11	0x35ef3fbc	1.7825437e-06
12	0xb798230d	-1.8136134e-05
13	0xb836c506	-4.3575674e-05
14	0x35e83579	1.730091e-06
15	0xb3dd97d2	-1.03187304e-07
16	0xb678f62b	-3.7098168e-06
17	0xb678f62b	-3.7098168e-06
18	0xb678f62b	-3.7098168e-06
19	0x00000000	0.0
20	0x00000000	0.0
21	0x00000000	0.0
22	0xb5e73f21	-1.7229214e-06
23	0xb59c465b	-1.1643382e-06
24	0x379c52a1	1.8635126e-05
25	0x38341d13	4.294242e-05
26	0x33e76ce6	1.0776584e-07
27	0x3488da26	2.5490698e-07
28	0x3709d2df	8.214934e-06
29	0x3709d2df	8.214934e-06
30	0x3709d2df	8.214934e-06
31	0x00000000	0.0
32	0x00000000	0.0
33	0x00000000	0.0
34	0x368ef48e	4.2603997e-06
35	0x3641375d	2.8791467e-06
36	0xb5a30377	-1.2145455e-06
37	0xb61c8716	-2.3324442e-06
38	0xb5eba16d	-1.7555845e-06
39	0x32561785	1.2461787e-08
40	0x36364c85	2.7164654e-06
41	0x36364c85	2.7164654e-06
42	0x36364c85	2.7164654e-06
43	0x00000000	0.0
44	0x00000000	0.0
45	0x00000000	0.0
46	0x345cfbe4	2.0580734e-07
47	0x341556c1	1.3908267e-07
48	0xb8009f04	-3.0665673e-05
49	0xb8991aee	-7.3006246e-05
50	0x35dc5e14	1.6418658e-06
51	0xb4488c0c	-1.86774e-07
52	0xb6d763a2	-6.419098e-06
53	0xb6d763a2	-6.419098e-06
54	0xb6d763a2	-6.419098e-06
55	0x00000000	0.0
56	0x00000000	0.0
57	0x00000000	0.0
58	0xb65167e7	-3.1203906e-06
59	0xb60d83d5	-2.1087374e-06
60	0x36504659	3.1035363e-06
61	0x36c794e3	5.947995e-06
62	0xb52dc8cc	-6.473972e-07
63	0x3475dcd9	2.2897747e-07
64	0x37414182	1.1518949e-05
65	0x37414182	1.1518949e-05
66	0x37414182	1.1518949e-05
67	0x00000000	0.0
68	0x00000000	0.0
69	0x00000000	0.0
70	0x3680579d	3.824897e-06
71	0x362d772b	2.5848374e-06
72	0x370d3408	8.416369e-06
73	0x379b3f77	1.8506993e-05
74	0xb5545538	-7.9100164e-07
75	0x349150fb	2.7067276e-07
76	0x372dc160	1.0356627e-05
77	0x372dc160	1.0356627e-05
78	0x372dc160	1.0356627e-05
79	0x00000000	0.0
80	0x00000000	0.0
81	0x00000000	0.0
82	0x3697bc04	4.5220386e-06
83	0x364d1501	3.0559606e-06
84	0xb74edc08	-1.2329787e-05
85	0xb7dce312	-2.6331782e-05
86	0xb5c3490e	-1.4549894e-06
87	0xb4cef400	-3.8548023e-07
88	0xb7683855	-1.3841393e-05
89	0xb7683855	-1.3841393e-05
90	0xb7683855	-1.3841393e-05
91	0x00000000	0.0
92	0x00000000	0.0
93	0x00000000	0.0
94	0xb6d83605	-6.4435903e-06
95	0xb6921d21	-4.35453e-06
96	0xb739c5d1	-1.1072917e-05
97	0xb7d4c3c3	-2.5363528e-05
98	0xb4335edb	-1.6705182e-07
99	0xb42291e4	-1.51405e-07
100	0xb707d242	-8.0955815e-06
101	0xb707d242	-8.0955815e-06
102	0xb707d242	-8.0955815e-06
103	0x00000000	0.0
104	0x00000000	0.0
105	0x00000000	0.0
106	0xb629ce30	-2.530298e-06
107	0xb5e581af	-1.7099572e-06
108	0xb732f995	-1.0667737e-05
109	0xb7e46c72	-2.7230217e-05
110	0xb6314695	-2.641614e-06
111	0x349452a5	2.762728e-07
112	0x37218c5c	9.629028e-06
113	0x37218c5c	9.629028e-06
114	0x37218c5c	9.629028e-06
115	0x00000000	0.0
116	0x00000000	0.0
117	0x00000000	0.0
118	0x369abd42	4.61159e-06
119	0x365124c0	3.1164818e-06
120	0xb712b6d8	-8.74485e-06
121	0xb7ab144c	-2.039424e-05
122	0x3528db50	6.290402e-07
123	0xb3ffa1ed	-1.1903817e-07
124	0xb694e49a	-4.4373564e-06
125	0xb694e49a	-4.4373564e-06
126	0xb694e49a	-4.4373564e-06
127	0x00000000	0.0
128	0x00000000	0.0
129	0x00000000	0.0
130	0xb6057352	-1.988567e-06
131	0xb5b45ea3	-1.3438588e-06
132	0xb76fe785	-1.4299415e-05
133	0xb813ad13	-3.520872e-05
134	0x35c92a1b	1.4987921e-06
135	0x332180e4	3.760296e-08
136	0x354ebc12	7.701466e-07
137	0x354ebc12	7.701466e-07
138	0x354ebc12	7.701466e-07
139	0x00000000	0.0
140	0x00000000	0.0
141	0x00000000	0.0
142	0x35291086	6.298145e-07
143	0x34e4817b	4.256252e-07
144	0x36f732c4	7.3670835e-06
145	0x3787bccf	1.6181175e-05
146	0xb5c9ab8a	-1.5025591e-06
147	0x34a75a74	3.1171987e-07
148	0x37405ebb	1.1466148e-05
149	0x37405ebb	1.1466148e-05
150	0x37405ebb	1.1466148e-05
151	0x00000000	0.0
152	0x00000000	0.0
153	0x00000000	0.0
154	0x36aeba26	5.2072746e-06
155	0x366c28a2	3.5190392e-06
156	0xb65161d6	-3.1200375e-06
157	0xb70c1e3c	-8.35169e-06
158	0xb644007c	-2.9206558e-06
159	0x348c9d43	2.6191455e-07
160	0x373dc03a	1.1310034e-05
161	0x373dc03a	1.1310034e-05
162	0x373dc03a	1.1310034e-05
163	0x00000000	0.0
164	0x00000000	0.0
165	0x00000000	0.0
166	0x3692b69d	4.372398e-06
167	0x36464ba0	2.9548319e-06
168	0xb70fd020	-8.571922e-06
169	0xb7aa6951	-2.0314621e-05
170	0xb598fd60	-1.1398624e-06
171	0x32a3a38a	1.9050066e-08
172	0x35bafe19	1.3932032e-06
173	0x35bafe19	1.3932032e-06
174	0x35bafe19	1.3932032e-06
175	0x00000000	0.0
176	0x00000000	0.0
177	0x00000000	0.0
178	0x34a9eabe	3.16495e-07
179	0x3465a854	2.1388524e-07
180	0xb6530602	-3.1444947e-06
181	0xb7311880	-1.05557265e-05
182	0x35a5f28e	1.2364051e-06
183	0x34d63ec9	3.9906288e-07
184	0x372e781e	1.0399175e-05
185	0x372e781e	1.0399175e-05
186	0x372e781e	1.0399175e-05
187	0x00000000	0.0
188	0x00000000	0.0
189	0x00000000	0.0
190	0x36dfd4c2	6.670686e-06
191	0x3697436f	4.508001e-06
192	0xb752c702	-1.25633105e-05
193	0xb7f1685d	-2.8778037e-05
194	0x3508a364	5.090171e-07
195	0xb47aaed7	-2.3346671e-07
196	0xb7143d43	-8.835751e-06
197	0xb7143d43	-8.835751e-06
198	0xb7143d43	-8.835751e-06
199	0x00000000	0.0
200	0x00000000	0.0
201	0x00000000	0.0
202	0xb682e61b	-3.9010897e-06
203	0xb630ebc6	-2.6363282e-06
204	0x369188f2	4.3372793e-06
205	0x36ed9a70	7.0811293e-06
206	0x358c00da	1.0431061e-06
207	0x34e5d107	4.280666e-07
208	0x378037c2	1.5284753e-05
209	0x378037c2	1.5284753e-05
210	0x378037c2	1.5284753e-05
211	0x00000000	0.0
212	0x00000000	0.0
213	0x00000000	0.0
214	0x36f01468	7.154933e-06
215	0x36a23e7b	4.83525e-06
216	0x37925597	1.7444412e-05
217	0x3824e8b5	3.9317372e-05
218	0xb5968797	-1.1215333e-06
219	0x34c89f89	3.736898e-07
220	0x375fa1e9	1.3329533e-05
221	0x375fa1e9	1.3329533e-05
222	0x375fa1e9	1.3329533e-05
223	0x00000000	0.0
224	0x00000000	0.0
225	0x00000000	0.0
226	0x36d17ace	6.2429817e-06
227	0x368d9092	4.2189577e-06
228	0xb741b74b	-1.1546373e-05
229	0xb803b49b	-3.1401036e-05
230	0x3612f486	2.1898027e-06
231	0x34dd2446	4.119085e-07
232	0x37817ed1	1.5437052e-05
233	0x37817ed1	1.5437052e-05
234	0x37817ed1	1.5437052e-05
235	0x00000000	0.0
236	0x00000000	0.0
237	0x00000000	0.0
238	0x36e70b90	6.8856825e-06
239	0x369c2377	4.653291e-06
240	0xb6c9f4d2	-6.0187676e-06
241	0xb77a02b0	-1.4901787e-05
242	0xb498c53c	-2.8455713e-07
243	0x33ab2289	7.96909e-08
244	0x367946db	3.7145135e-06
245	0x367946db	3.7145135e-06
246	0x367946db	3.7145135e-06
247	0x00000000	0.0
248	0x00000000	0.0
249	0x00000000	0.0
250	0x35b2a298	1.3309354e-06
251	0x357170d6	8.9943694e-07
252	0xb6dc18ab	-6.5593827e-06
253	0xb798f2b5	-1.8232831e-05
254	0x35bd7f67	1.4118676e-06
255	0x349b285a	2.890036e-07

exp_avg_sq f4 [128, 12]
0	0x3233b962	1.04613225e-08
1	0x339c88dc	7.289211e-08
2	0x2c945efa	4.2169575e-12
3	0x2b035fb4	4.6673364e-13
4	0x32fb53b2	2.9258306e-08
5	0x32fb53b2	2.9258306e-08
6	0x32fb53b2	2.9258306e-08
7	0x00000000	0.0
8	0x00000000	0.0
9	0x00000000	0.0
10	0x2f7519e8	2.2291824e-10
11	0x2ee8307f	1.0558753e-10
12	0x31ba3693	5.419517e-09
13	0x33162ccf	3.496535e-08
14	0x2ca70f56	4.748128e-12
15	0x2aabd82a	3.0525696e-13
16	0x2f8b340d	2.5320937e-10
17	0x2f8b340d	2.5320937e-10
18	0x2f8b340d	2.5320937e-10
19	0x00000000	0.0
20	0x00000000	0.0
21	0x00000000	0.0
22	0x2f2dc8dc	1.5805618e-10
23	0x2e851e96	6.053573e-11
24	0x32031141	7.629127e-09
25	0x3368f8c3	5.4242957e-08
26	0x2ca2f87b	4.631904e-12
27	0x2b150b00	5.29507e-13
28	0x32c0d005	2.2446338e-08
29	0x32c0d005	2.2446338e-08
30	0x32c0d005	2.2446338e-08
31	0x00000000	0.0
32	0x00000000	0.0
33	0x00000000	0.0
34	0x2f922e13	2.6589983e-10
35	0x2efacc03	1.14049235e-10
36	0x32926555	1.7042717e-08
37	0x33eeff99	1.11292316e-07
38	0x2d0f4bda	8.145451e-12
39	0x2b4c2a56	7.253411e-13
40	0x334591e2	4.6000316e-08
41	0x334591e2	4.6000316e-08
42	0x334591e2	4.6000316e-08
43	0x00000000	0.0
44	0x00000000	0.0
45	0x00000000	0.0
46	0x2fb25072	3.243517e-10
47	0x2f200b71	1.455598e-10
48	0x315a948b	3.1807612e-09
49	0x32adc722	2.0230406e-08
50	0x2cd349f1	6.00519e-12
51	0x2a7a4bf6	2.2230815e-13
52	0x33514e63	4.8732897e-08
53	0x33514e63	4.8732897e-08
54	0x33514e63	4.8732897e-08
55	0x00000000	0.0
56	0x00000000	0.0
57	0x00000000	0.0
58	0x301c1e90	5.67959e-10
59	0x2e765fa0	5.6018856e-11
60	0x32845a29	1.5407823e-08
61	0x33e1167f	1.0481471e-07
62	0x2d3259af	1.0138042e-11
63	0x2b505b06	7.4022765e-13
64	0x33dd4d2d	1.03051526e-07
65	0x33dd4d2d	1.03051526e-07
66	0x33dd4d2d	1.03051526e-07
67	0x00000000	0.0
68	0x00000000	0.0
69	0x00000000	0.0
70	0x2fb7cd11	3.3433215e-10
71	0x2f27013c	1.5189e-10
72	0x32c62eb6	2.3071475e-08
73	0x342de988	1.6196839e-07
74	0x2d04e7c2	7.554792e-12
75	0x2ba0fc9e	1.1438799e-12
76	0x311e4482	2.3030968e-09
77	0x311e4482	2.3030968e-09
78	0x311e4482	2.3030968e-09
79	0x00000000	0.0
80	0x00000000	0.0
81	0x00000000	0.0
82	0x3011fa5f	5.310649e-10
83	0x2f847ca1	2.4099214e-10
84	0x32861af4	1.561191e-08
85	0x33e15ffe	1.049484e-07
86	0x2d2390eb	9.2976555e-12
87	0x2b84811b	9.414998e-13
88	0x31eb6a55	6.8514887e-09
89	0x31eb6a55	6.8514887e-09
90	0x31eb6a55	6.8514887e-09
91	0x00000000	0.0
92	0x00000000	0.0
93	0x00000000	0.0
94	0x2ffe1c1a	4.6222298e-10
95	0x2f50db31	1.8995362e-10
96	0x315860d0	3.1487168e-09
97	0x32bf02ea	2.2236652e-08
98	0x2c31b85f	2.525556e-12
99	0x2a51a4f1	1.8620155e-13
100	0x333cfd4d	4.4002537e-08
101	0x333cfd4d	4.4002537e-08
102	0x333cfd4d	4.4002537e-08
103	0x00000000	0.0
104	0x00000000	0.0
105	0x00000000	0.0
106	0x2f9e1c5c	2.8760183e-10
107	0x2e30b5cd	4.017924e-11
108	0x341978c0	1.4293164e-07
109	0x357da86b	9.4494925e-07
110	0x2e0724ef	3.072825e-11
111	0x2ca0af5e	4.566943e-12
112	0x31b26a5b	5.192573e-09
113	0x31b26a5b	5.192573e-09
114	0x31b26a5b	5.192573e-09
115	0x00000000	0.0
116	0x00000000	0.0
117	0x00000000	0.0
118	0x310bc739	2.0340407e-09
119	0x307df970	9.2395336e-10
120	0x3155fbf1	3.1138792e-09
121	0x32b8a50c	2.1495474e-08
122	0x2c7889a9	3.5319336e-12
123	0x2a82cbd1	2.3234065e-13
124	0x3345c698	4.6048257e-08
125	0x3345c698	4.6048257e-08
126	0x3345c698	4.6048257e-08
127	0x00000000	0.0
128	0x00000000	0.0
129	0x00000000	0.0
130	0x30061ef7	4.879292e-10
131	0x2e5c7b71	5.0131847e-11
132	0x31b58c03	5.283711e-09
133	0x3311c68b	3.3941017e-08
134	0x2cc5ee38	5.6255244e-12
135	0x2abf696e	3.4001572e-13
136	0x3226d63f	9.711186e-09
137	0x3226d63f	9.711186e-09
138	0x3226d63f	9.711186e-09
139	0x00000000	0.0
140	0x00000000	0.0
141	0x00000000	0.0
142	0x2f507cc8	1.8961821e-10
143	0x2e96c582	6.856295e-11
144	0x32b5d58f	2.1168288e-08
145	0x34187d28	1.4201635e-07
146	0x2d197130	8.722176e-12
147	0x2b86cb95	9.577778e-13
148	0x301c5ed5	5.6887234e-10
149	0x301c5ed5	5.6887234e-10
150	0x301c5ed5	5.6887234e-10
151	0x00000000	0.0
152	0x00000000	0.0
153	0x00000000	0.0
154	0x2ff3afd4	4.4326376e-10
155	0x2f57f5b2	1.9641425e-10
156	0x33cc8302	9.5233204e-08
157	0x352910b3	6.2981707e-07
158	0x2dd916b3	2.4680124e-11
159	0x2c5f50c5	3.1735042e-12
160	0x333ec39f	4.441574e-08
161	0x333ec39f	4.441574e-08
162	0x333ec39f	4.441574e-08
163	0x00000000	0.0
164	0x00000000	0.0
165	0x00000000	0.0
166	0x30c4a08c	1.4306507e-09
167	0x303153c2	6.451125e-10
168	0x329cf0ae	1.8270239e-08
169	0x34020835	1.2110179e-07
170	0x2c938bfd	4.193533e-12
171	0x2b1b3644	5.514237e-13
172	0x331af425	3.6077967e-08
173	0x331af425	3.6077967e-08
174	0x331af425	3.6077967e-08
175	0x00000000	0.0
176	0x00000000	0.0
177	0x00000000	0.0
178	0x2f89d3ad	2.507056e-10
179	0x2ef8d674	1.1315829e-10
180	0x324f5d89	1.2070253e-08
181	0x33a4b147	7.669092e-08
182	0x2df5e5d6	2.7955343e-11
183	0x2b8e7b73	1.0123971e-12
184	0x34c2bb8d	3.6271777e-07
185	0x34c2bb8d	3.6271777e-07
186	0x34c2bb8d	3.6271777e-07
187	0x00000000	0.0
188	0x00000000	0.0
189	0x00000000	0.0
190	0x3069a96e	8.500568e-10
191	0x2f5f7ca8	2.0326019e-10
192	0x3183bf41	3.834345e-09
193	0x32e2712c	2.6361327e-08
194	0x2c4720d3	2.8297822e-12
195	0x2a9acc11	2.7497495e-13
196	0x30cc372d	1.4858635e-09
197	0x30cc372d	1.4858635e-09
198	0x30cc372d	1.4858635e-09
199	0x00000000	0.0
200	0x00000000	0.0
201	0x00000000	0.0
202	0x2f66b362	2.0982108e-10
203	0x2e823874	5.9217437e-11
204	0x32461d42	1.1531769e-08
205	0x33a3199a	7.594936e-08
206	0x2d5d3e08	1.2576169e-11
207	0x2b78482e	8.820747e-13
208	0x3093392c	1.0711907e-09
209	0x3093392c	1.0711907e-09
210	0x3093392c	1.0711907e-09
211	0x00000000	0.0
212	0x00000000	0.0
213	0x00000000	0.0
214	0x2ff020d8	4.3679083e-10
215	0x2f403226	1.7480115e-10
216	0x3312c18b	3.41693e-08
217	0x3478129b	2.3103568e-07
218	0x2d3f8a96	1.0887865e-11
219	0x2bbd788e	1.3462718e-12
220	0x311bdecd	2.2682116e-09
221	0x311bdecd	2.2682116e-09
222	0x311bdecd	2.2682116e-09
223	0x00000000	0.0
224	0x00000000	0.0
225	0x00000000	0.0
226	0x3026f9a0	6.0745187e-10
227	0x2f979500	2.757261e-10
228	0x32aa3d48	1.9818472e-08
229	0x340a1d44	1.2862898e-07
230	0x2dbfcfcb	2.1806465e-11
231	0x2bc772c4	1.4171654e-12
232	0x30b7dff8	1.3378658e-09
233	0x30b7dff8	1.3378658e-09
234	0x30b7dff8	1.3378658e-09
235	0x00000000	0.0
236	0x00000000	0.0
237	0x00000000	0.0
238	0x303996d5	6.7516953e-10
239	0x2f98f220	2.782068e-10
240	0x312dda4e	2.5298905e-09
241	0x32891dce	1.5962453e-08
242	0x2b68523d	8.2537086e-13
243	0x2996783e	6.682197e-14
244	0x3248b0df	1.1681748e-08
245	0x3248b0df	1.1681748e-08
246	0x3248b0df	1.1681748e-08
247	0x00000000	0.0
248	0x00000000	0.0
249	0x00000000	0.0
250	0x2fb64cd6	3.3160202e-10
251	0x2d7536bc	1.3938791e-11
252	0x3251bb77	1.2208026e-08
253	0x33b00fd0	8.198515e-08
254	0x2d48eba6	1.1421008e-11
255	0x2b76df5e	8.770674e-13

exp_avg f4 [128]
0	0x38b50cae	8.633114e-05
1	0xb86c9570	-5.640596e-05
2	0x39122ea7	0.00013941024
3	0x36e3554b	6.7750566e-06
4	0xb8d62d23	-0.000102127226
5	0x390346a3	0.00012519448
6	0x391b310c	0.00014800223
7	0xb95d13b4	-0.00021083542
8	0xb8ada55c	-8.2800834e-05
9	0x391e557a	0.00015099897
10	0xb8887f25	-6.508668e-05
11	0x37acb27a	2.0587107e-05
12	0x3932b799	0.00017043798
13	0x39161cf6	0.00014315904
14	0x372e4656	1.0387585e-05
15	0x3964de23	0.00021826527
16	0xb905decb	-0.00012766865
17	0x39757de8	0.00023411924
18	0x39564137	0.00020432925
19	0x396c3d4e	0.00022529552
20	0x3836bc2c	4.356743e-05
21	0x3925c00d	0.0001580717
22	0xb8c4e3b0	-9.3884184e-05
23	0xb87bc761	-6.002875e-05
24	0x392c80f0	0.00016451231
25	0xb7f99336	-2.9751664e-05
26	0x39528fbc	0.00020080706
27	0xb829cce0	-4.0483545e-05
28	0x399ba666	0.0002968788
29	0x3887314c	6.446484e-05
30	0x3970eab2	0.00022975614
31	0x38ade214	8.291393e-05
32	0x37df8f92	2.6650527e-05
33	0xb9069326	-0.00012834053
34	0xb95f2787	-0.00021281662
35	0xb7f55160	-2.924417e-05
36	0x3763d71c	1.3580338e-05
37	0xb92a53f8	-0.00016243744
38	0xb8d52463	-0.00010163409
39	0x390e7384	0.00013585208
40	0xb7cfc9b5	-2.477025e-05
41	0xb8d73664	-0.0001026213
42	0xb96d4cd4	-0.00022630702
43	0xb8a11ac0	-7.682061e-05
44	0xb8c8da3d	-9.577393e-05
45	0x3965632f	0.0002187609
46	0x3932adc4	0.00017040136
47	0xb887450a	-6.450161e-05
48	0x382ff1c8	4.1948428e-05
49	0x39922a67	0.00027878882
50	0xb943759f	-0.00018640466
51	0x39179410	0.0001445564
52	0xb85d6b93	-5.2790692e-05
53	0x39485737	0.00019105976
54	0xb7e649a2	-2.7452425e-05
55	0xb835a5b5	-4.330809e-05
56	0xb7f28856	-2.8912134e-05
57	0x398db61d	0.000270293
58	0x39b1076d	0.00033765603
59	0xb8cd0d6e	-9.777663e-05
60	0x391112e1	0.0001383531
61	0xb7c82c14	-2.3862383e-05
62	0xb87750a6	-5.89645e-05
63	0x3833ed93	4.2898184e-05
64	0xb8f7d783	-0.0001181802
65	0x39c68329	0.00037863225
66	0xb8c5e03b	-9.435458e-05
67	0x37c52a80	2.350402e-05
68	0xb8e3f58e	-0.000108699416
69	0xb78b8c07	-1.6635297e-05
70	0x392ae105	0.0001629629
71	0x396ccd44	0.00022583181
72	0xb6d61a2e	-6.3807447e-06
73	0xb83b319b	-4.4630473e-05
74	0x3866d318	5.503287e-05
75	0x398bb0a0	0.00026643742
76	0xb78d6bfe	-1.6858798e-05
77	0xb51804ce	-5.6631404e-07
78	0xb937b253	-0.00017518671
79	0xb97348bb	-0.0002320138
80	0x38ab4ed9	8.168602e-05
81	0x38fe4572	0.00012124599
82	0x38433c86	4.654799e-05
83	0xb7031703	-7.813566e-06
84	0x384c0121	4.863844e-05
85	0x391120b6	0.00013840463
86	0xb8d0c176	-9.954248e-05
87	0x38f2e73b	0.00011582529
88	0x3990c8e7	0.00027615504
89	0x393f5b9c	0.00018249307
90	0xb8a89978	-8.03945e-05
91	0xb8abe4d7	-8.19654e-05
92	0xb886cecd	-6.4281376e-05
93	0x392a3253	0.0001623121
94	0xb974a1c2	-0.00023329913
95	0x38b08dc5	8.4187406e-05
96	0x38f0d868	0.000114844006
97	0xb80f0a19	-3.410326e-05
98	0x388d841e	6.748013e-05
99	0xb867a987	-5.5232576e-05
100	0x393b3f11	0.00017857204
101	0xb8aa56ea	-8.122421e-05
102	0x390cc977	0.00013426492
103	0x37cdcd97	2.453364e-05
104	0x39376a7c	0.00017491909
105	0x3885fd6e	6.389139e-05
106	0x385ed93c	5.313124e-05
107	0xb901b69f	-0.0001237043
108	0x38769e3e	5.8798345e-05
109	0xb76e795d	-1.4214163e-05
110	0x38b2a063	8.517576e-05
111	0x3941e644	0.00018491695
112	0xb7bef01b	-2.2761573e-05
113	0x3949d999	0.00019249915
114	0xb8c05031	-9.17021e-05
115	0x395dfe0e	0.00021170845
116	0x398c732d	0.00026788694
117	0x38197c94	3.6594065e-05
118	0xb7098c34	-8.19848e-06
119	0x37b95fd1	2.2098337e-05
120	0xb88d9854	-6.751777e-05
121	0x3939b584	0.00017710595
122	0xb69b4c86	-4.6282685e-06
123	0xb8dc0409	-0.00010491169
124	0x38fd81e1	0.00012088172
125	0xb83882ae	-4.3990723e-05
126	0x383e1d6b	4.5326928e-05
127	0xb7058c8e	-7.960143e-06
