results/SlayRL_FINAL1000000/SlayTheSquire_RL.onnx (onnx, 82288 bytes, 10 tensors)

network_body.observation_encoder.processors.0.normalizer.running_mean f4 [12]
0	0x3ec6e79e	0.38848585
1	0xbf3a4762	-0.7276517
2	0x3b39c480	0.0028345883
3	0x3f18fd01	0.59761053
4	0xbd55b96e	-0.052178793
5	0xbd489eb3	-0.048979472
6	0xbf2c15a1	-0.67220503
7	0xbc20966c	-0.009801488
8	0xb70604f6	-7.9881775e-06
9	0xbf1f06fd	-0.6212004
10	0xbf0f96fe	-0.5608977
11	0xbf0a1314	-0.5393536

network_body._body_endoder.seq_layers.0.weight f4 [128, 12]
0	0x3e0d7433	0.13813858
1	0xbe375ec8	-0.1790725
2	0xbdc80e27	-0.09768324
3	0x3f17fcb8	0.59369993
4	0xbea299b9	-0.31757906
5	0x3e911ed2	0.28343827
6	0x3ebc3879	0.36761835
7	0x3dca83d9	0.09888429
8	0x3f22c602	0.63583386
9	0x3e73a168	0.2379204
10	0x3e381782	0.17977718
11	0xbea8a022	-0.32934672
12	0x3ec5feed	0.38671055
13	0xbe72e8e4	-0.23721653
14	0x3deb4060	0.11486888
15	0xbf01ac1a	-0.5065323
16	0xbd6fc952	-0.058541603
17	0x3e72ec6d	0.23723002
18	0x3e0cd32d	0.13752432
19	0xbe91b0e7	-0.28455278
20	0xbe02514b	-0.12726323
21	0x3ecc571b	0.39910206
22	0xbd4881b4	-0.04895182
23	0x3db89f27	0.09014731
24	0xbea29243	-0.31752214
25	0xbee2df73	-0.44311103
26	0x3e14bcdf	0.14525174
27	0xbe37f406	-0.17964181
28	0xbd06c7f4	-0.032905534
29	0x3ef91b8a	0.48653823
30	0x3ea74999	0.32673338
31	0xbe988fd7	-0.2979724
32	0x3bc87ecb	0.0061186305
33	0x3ebb78e9	0.36615685
34	0x3eea7c46	0.45797938
35	0x3e86c941	0.2632542
36	0xbe5d88c3	-0.21634202
37	0xbf12036a	-0.5703646
38	0xbe2d6d0c	-0.1693613
39	0xbe06db12	-0.13169506
40	0xbdc2d164	-0.09512594
41	0x3f05acc9	0.52216774
42	0x3eac1443	0.33609208
43	0xbe4b51f3	-0.1985548
44	0x3e762d4b	0.24040715
45	0x3e4dbf7e	0.2009258
46	0x3efa4ffc	0.48889148
47	0xbedc02ab	-0.42970785
48	0xbdb99d7e	-0.090632424
49	0x3ec0172c	0.3751768
50	0x3f2172e0	0.6306591
51	0x3d7ca698	0.061682314
52	0xbe9c3e7f	-0.3051643
53	0x3e825f68	0.25463414
54	0x3d496b97	0.04917487
55	0x3e9e0494	0.30862868
56	0x3dbc64c0	0.09198904
57	0xbe8fd427	-0.28091547
58	0xbd42724e	-0.04747229
59	0xbdee7592	-0.116435185
60	0x3e253351	0.16132857
61	0xbd9bb2ad	-0.07602439
62	0x3ca7b82b	0.02047356
63	0xbede8699	-0.43462065
64	0xbd3b16de	-0.045676105
65	0x3bf70ed4	0.0075396094
66	0xbe52d763	-0.20589976
67	0xbde033c6	-0.10947375
68	0x3daf5a96	0.085622
69	0xbf3f6ece	-0.7477845
70	0x3f145ab7	0.5795092
71	0x3d87ef33	0.066374205
72	0xbe0abe60	-0.13549185
73	0x3e2be788	0.16787541
74	0x3ec62039	0.3869646
75	0xbe8902cb	-0.26759943
76	0x3de63846	0.11241202
77	0x3e21ff7b	0.15820114
78	0x3c9545f6	0.018221837
79	0xbe92ca8d	-0.2867016
80	0x3ef79b74	0.4836079
81	0x3cf2ff35	0.029662708
82	0x3e5cb70c	0.21554202
83	0x3eb9a1d3	0.36256275
84	0xbe8f9b9e	-0.28048414
85	0xbd1dc596	-0.03851851
86	0xbd1e9c8a	-0.038723506
87	0x3e9f43af	0.31106326
88	0xbe1da4cb	-0.15394895
89	0xbefc7069	-0.49304512
90	0x3e6382c2	0.22217849
91	0xbf135e95	-0.57566196
92	0x3d41bac6	0.04729726
93	0xbe057217	-0.13031803
94	0xbecfd50d	-0.40592232
95	0xbe285beb	-0.16441314
96	0xbf6e6eea	-0.9313799
97	0xbf26208c	-0.6489341
98	0x3d522314	0.051302984
99	0x3d4058c3	0.04695965
100	0x3e366986	0.17813691
101	0x3eb43493	0.3519636
102	0x3e2e5d38	0.17027748
103	0xbd9dbc83	-0.077019714
104	0x3d8a38ba	0.06749101
105	0x3ccbdf7e	0.024886843
106	0xbd321a64	-0.0434822
107	0x3f2fc0bc	0.68653464
108	0xbe06ce81	-0.13164712
109	0x3e0e8767	0.1391884
110	0xbe221a27	-0.15830289
111	0xbda1740a	-0.07883461
112	0x3e9e56f0	0.30925703
113	0x3e534ed9	0.20635547
114	0x3d87b2a9	0.066258736
115	0x3f201223	0.62527674
116	0xbf181455	-0.59406024
117	0x3df23893	0.11827197
118	0x3e9aaeae	0.30211395
119	0xbe0b2053	-0.1358655
120	0xbee67ab1	-0.4501548
121	0xbf0442ec	-0.51664615
122	0x3ec4d5ff	0.38444516
123	0xbf0e6598	-0.5562377
124	0x3e15d866	0.1463333
125	0x3efd44e4	0.49466622
126	0x3ed25966	0.4108383
127	0xbec0930c	-0.37612188
128	0x3c83f713	0.016109025
129	0xbd7c6c40	-0.061626673
130	0xbd755e78	-0.059904546
131	0x3e4d3c70	0.20042586
132	0x3e781a54	0.24228793
133	0x3e331d81	0.17491724
134	0xbea504c7	-0.32230207
135	0x3ea8b7e1	0.32952788
136	0x3e51c629	0.20485748
137	0xbf1e3d9a	-0.61812747
138	0x3ecd2ac0	0.40071678
139	0x3c6492de	0.0139510315
140	0xbe524867	-0.20535432
141	0x3c905e00	0.017622948
142	0x3dbc334d	0.09189472
143	0xbe1d997d	-0.15390582
144	0xbcfffad7	-0.03124754
145	0xbe642ba0	-0.22282267
146	0xbe37529a	-0.17902604
147	0x3e60d563	0.219564
148	0xbeb38f07	-0.3507006
149	0xbeb7e91a	-0.3592003
150	0x3ed42c4c	0.41440046
151	0xbde4b37a	-0.11167045
152	0x3f03661a	0.5132767
153	0x3ecc13cb	0.3985885
154	0x3de718bf	0.11284017
155	0x3ee2ea72	0.44319493
156	0x3d53c0f6	0.051697694
157	0x3f03a9c2	0.51430905
158	0x3eab65c5	0.33476081
159	0x3e94c5f9	0.2905729
160	0x3d052052	0.032501526
161	0x3db9231c	0.090399
162	0x3dcaee3e	0.09908722
163	0xbe77d850	-0.2420361
164	0x3e5cea80	0.2157383
165	0x3d66e836	0.056373797
166	0xbf3f9f1b	-0.7485215
167	0x3e59650f	0.21229957
168	0xbe09102d	-0.13385077
169	0x3bfee1c1	0.007778377
170	0xbec0c671	-0.376514
171	0xbdec6a0f	-0.115436666
172	0xbe364ea1	-0.17803432
173	0xbe150ae7	-0.1455494
174	0xbf332d6c	-0.69991183
175	0xbd5b6c7e	-0.053570263
176	0xbed8bafa	-0.42330152
177	0x3f161202	0.5862123
178	0xbe7bdebf	-0.2459669
179	0xbeefd4f2	-0.46842152
180	0xbd9099ae	-0.07060562
181	0xbe4073dd	-0.18794198
182	0xbd25d283	-0.040483963
183	0x3e8c7c4b	0.27438578
184	0xbed49e32	-0.41526943
185	0xbe0c67ea	-0.13711515
186	0x3db0550a	0.0860997
187	0xbedd8bd4	-0.43270743
188	0x3e7f1cdc	0.24913353
189	0xbca2a649	-0.019854682
190	0xbeb0345a	-0.3441494
191	0x3d9a0a50	0.07521498
192	0x3df20152	0.11816658
193	0xbd508b00	-0.05091381
194	0xbe18cc54	-0.14921695
195	0xbead37ea	-0.33831722
196	0xbe93ec3c	-0.2889117
197	0x3d9ea890	0.077469945
198	0x3d9a6fda	0.07540865
199	0xbe767ec3	-0.24071793
200	0xbe90d08a	-0.28284103
201	0xbe750ee8	-0.23931468
202	0x3e4a5db8	0.19762313
203	0x3e002fe1	0.12518264
204	0x3e774058	0.24145639
205	0xbc9c28f1	-0.019062491
206	0xbd079790	-0.033103526
207	0xbd912544	-0.07087186
208	0xbecff868	-0.40619206
209	0x3ed7a51a	0.4211815
210	0xbe33b557	-0.17549644
211	0x3e8483e4	0.25881875
212	0x3ec84105	0.39112106
213	0xbcdc30d3	-0.02687875
214	0x3d81a860	0.06330943
215	0x3eb2dc76	0.34933823
216	0xbe764861	-0.24051048
217	0x3e743919	0.23849906
218	0xbdc42ed4	-0.09579244
219	0x3f1535e7	0.58285373
220	0xbcbec2cf	-0.023286251
221	0x3f06de86	0.52683294
222	0xbea5cc48	-0.32382417
223	0xbbe12759	-0.0068711457
224	0xbd46a88d	-0.048500586
225	0x3eb776c8	0.3583281
226	0xbe4b9534	-0.19881135
227	0xbdbc901c	-0.09207174
228	0xbd9f3b54	-0.07774988
229	0x3ed7dacd	0.4215912
230	0xbe72081b	-0.23635904
231	0xbf30df63	-0.6909086
232	0x3e3b5636	0.18294606
233	0xbd88c92a	-0.06678994
234	0x3e1649cf	0.14676593
235	0xbd6644be	-0.0562179
236	0x3dfe064c	0.12403545
237	0xbdc53a6f	-0.09630286
238	0xbe969357	-0.29409286
239	0xbe8eb753	-0.2787424
240	0x3ea987b3	0.33111343
241	0xbd3510ac	-0.044205353
242	0xbedaa2df	-0.42702386
243	0x3d822650	0.06354964
244	0xbc428237	-0.011871866
245	0x3ea730bb	0.32654366
246	0x3e8cc2fd	0.27492514
247	0x3e875770	0.26433897
248	0x3ef40619	0.47660902
249	0xbe8f8abe	-0.2803554
250	0xbe2806f9	-0.1640891
251	0x3d162fba	0.03666661
252	0xbc0a7f3f	-0.008453189
253	0x3d902da5	0.07039956
254	0x3cd228a0	0.025654137
255	0x3f0417c4	0.51598763

network_body._body_endoder.seq_layers.0.bias f4 [128]
0	0x3c8075f4	0.015681244
1	0x3d8c1b75	0.068411745
2	0x3da9f83e	0.082993016
3	0x3cae7e37	0.021300418
4	0xbb80af77	-0.003927167
5	0x3d6536c9	0.05596045
6	0x3d8f6821	0.07002283
7	0x3b865f14	0.0041006897
8	0x3d69e243	0.057100546
9	0x3d473498	0.04863414
10	0x3d6025fb	0.05472372
11	0xbd34865a	-0.04407344
12	0xbc1e5bd0	-0.0096654445
13	0xbd042059	-0.03225741
14	0x3b648cf0	0.0034874044
15	0xbd17cf6f	-0.03706306
16	0x3b7e550b	0.0038808014
17	0x3cec0442	0.028810624
18	0x3c40782d	0.011747402
19	0x3c798902	0.015230419
20	0x3d181f38	0.037139148
21	0xbc921da3	-0.017836398
22	0x3c3c5d20	0.011496812
23	0x3d715509	0.058918986
24	0x3b7f6af4	0.003897366
25	0x3c203bdb	0.009779896
26	0x3c656d16	0.014003059
27	0x3d063f3e	0.032775156
28	0xbd025dcb	-0.03182773
29	0xbd69dc2a	-0.05709473
30	0xbb897cee	-0.004195801
31	0x3d14e172	0.036347814
32	0x3cde773e	0.027156468
33	0x3ce33373	0.027734494
34	0x3cdd11a9	0.02698596
35	0x3d651f22	0.055937894
36	0x3c060388	0.008179553
37	0x3d6f33e3	0.058399092
38	0x3d5f04c0	0.05444789
39	0x3d133092	0.035934992
40	0x3d949cca	0.07256468
41	0x3d0972a9	0.033556614
42	0x3cbd3973	0.023098683
43	0xbd0cc6c5	-0.03436925
44	0xbd27fe52	-0.041014023
45	0x3cdfddf4	0.027327515
46	0x3cf81478	0.030283198
47	0x3d43b35a	0.047778465
48	0xbca981cc	-0.020691775
49	0xbc8159db	-0.015789917
50	0x3d77081e	0.060310476
51	0x39cca54a	0.00039033062
52	0x3d34728a	0.044054545
53	0xbc3cd3eb	-0.011525135
54	0x3cb8ab4d	0.02254262
55	0x3b907a65	0.004409122
56	0x3d59abb5	0.05314227
57	0x3ccdafe1	0.02510828
58	0x3d5e869f	0.054327603
59	0xbc30d50d	-0.010792983
60	0xbc8722cb	-0.016496083
61	0xbd40255d	-0.046910632
62	0xbb4b6697	-0.003103649
63	0xbaad8a60	-0.0013240092
64	0xbd03c1ad	-0.032167125
65	0x3c963d22	0.018339697
66	0x3d746305	0.059664745
67	0xbd27a249	-0.04092625
68	0xbc28de2a	-0.010306874
69	0xbcb7fd15	-0.022459546
70	0xbccd4f53	-0.025062239
71	0xbc35b726	-0.011091029
72	0x3d6ccd13	0.05781276
73	0xbccf6c7c	-0.025320284
74	0x3ca0d9aa	0.01963504
75	0xbcea609f	-0.028610526
76	0x3c8f5553	0.01749674
77	0x3951350c	0.00019951555
78	0x3bafe6cd	0.00536809
79	0xbc82d99f	-0.01597291
80	0xbcf67be2	-0.030088369
81	0x3d5d22de	0.05398833
82	0x3d383003	0.044967663
83	0xbcdead79	-0.027182328
84	0xbc89011e	-0.016724166
85	0x3b5c1d67	0.003358686
86	0x3d82176e	0.06352125
87	0xbb9a7fee	-0.0047149574
88	0x3d0b2378	0.033969373
89	0xbbe562ca	-0.007000302
90	0xbc1ed00b	-0.009693156
91	0x3c5af9c2	0.013365211
92	0xbca3bace	-0.019986536
93	0x3d26d27f	0.04072809
94	0xbd546564	-0.051854506
95	0x3c49d818	0.012319587
96	0x3c9b03ec	0.018922769
97	0x3d28004d	0.04101591
98	0x3cb60786	0.022220384
99	0x3cb0e243	0.021592265
100	0x3d24dcdc	0.04024969
101	0x3d4cd27f	0.050005432
102	0xbc51d5ed	-0.012807352
103	0x3d39f14e	0.04539614
104	0xbc405269	-0.011738398
105	0x3d8a4a3c	0.0675244
106	0x3bc4e4c8	0.006008718
107	0x3d1cfab4	0.038325027
108	0x3cb8a660	0.022540271
109	0x3d7154b8	0.058918685
110	0x3c9ec3d6	0.019380491
111	0x3cfbe59d	0.030749137
112	0x3cc95d03	0.024580484
113	0x3d71dace	0.05904656
114	0x3cdb6520	0.026781619
115	0x3bbdc9be	0.005791872
116	0xbcaafb29	-0.020871716
117	0xbacfa63c	-0.0015842388
118	0x3c2942f3	0.010330903
119	0xbcb75575	-0.022379616
120	0xbc133d99	-0.008986854
121	0x3c352e6e	0.011058433
122	0x3d2db3ed	0.04240792
123	0x3d0c5912	0.03426463
124	0x3d66a758	0.056311935
125	0x3c656481	0.014001013
126	0x3cd4d15f	0.025978742
127	0x3b02f335	0.0019981388

network_body._body_endoder.seq_layers.2.weight f4 [128, 128]
0	0x3dd95953	0.1061274
1	0xbc04f98e	-0.008116139
2	0x3dde7ca9	0.10863621
3	0xbe902c68	-0.2815888
4	0xbe310900	-0.1728859
5	0x3dfb8aca	0.12282331
6	0x3cc2ea45	0.023793349
7	0xbd8aef51	-0.06783927
8	0x3e1956b9	0.14974488
9	0x3d34692c	0.044045612
10	0xbb37aece	-0.0028027776
11	0xbddcd2b6	-0.107823774
12	0x3c45c142	0.012070002
13	0x3d0d249d	0.034458745
14	0x3d3fabed	0.04679482
15	0xbc86b2d0	-0.016442686
16	0x3d8b110b	0.0679036
17	0x3e014475	0.1262377
18	0xbe2a8d4e	-0.16655466
19	0x3e1a6110	0.15076089
20	0xbdea023d	-0.11426208
21	0x3d83450a	0.064096525
22	0x3d22e09f	0.039764997
23	0x3da31e72	0.07964791
24	0x3d9fd76f	0.078047626
25	0x3d368f9b	0.044570547
26	0x3df679fa	0.12034984
27	0x3d215e17	0.03939637
28	0xbd7c7714	-0.061637
29	0x39251657	0.00015743948
30	0xbd0fb1a7	-0.03508153
31	0xbc4fe077	-0.012687794
32	0xbcff79bd	-0.031185979
33	0xbd87513c	-0.06607291
34	0xbd98dfdd	-0.074645735
35	0xbb108aa9	-0.0022055304
36	0x3e7f9cce	0.2496216
37	0xbd4ddbcf	-0.050258454
38	0xbbc55119	-0.0060216305
39	0xbdc6a4c0	-0.09699392
40	0x3dd2c792	0.10291971
41	0x3e1c53ca	0.15266338
42	0xbdff0ae0	-0.12453246
43	0x3c0b8733	0.008516121
44	0xbd6a40e2	-0.057190783
45	0x3d283014	0.041061476
46	0xbd101f1d	-0.035185922
47	0xbd006e13	-0.031354975
48	0xbd1f0671	-0.038824502
49	0xbca34984	-0.019932516
50	0xbd9dbfea	-0.0770262
51	0xbe09cfcd	-0.13458176
52	0x3e73c901	0.23807146
53	0xbd87e746	-0.06635909
54	0x3d919e3b	0.07110258
55	0x3d967aed	0.07347665
56	0xbc90001c	-0.017578177
57	0xbc70c7eb	-0.014696102
58	0x3dd9ebd7	0.10640686
59	0x3c636f21	0.013881476
60	0xbddb70e9	-0.10714895
61	0x3cb40f8f	0.021980075
62	0x3de72fc2	0.11288406
63	0x3d8c0f84	0.06838897
64	0x3c565e0e	0.013083948
65	0x3c82ad18	0.015951678
66	0xbd444dbf	-0.047925707
67	0x3b93c041	0.0045090024
68	0x3d44e49e	0.04806959
69	0xbd99d84b	-0.07511958
70	0xbd326d4e	-0.043561272
71	0xbe32fb5e	-0.17478701
72	0x3e1adde0	0.15123701
73	0xbe4ab594	-0.19795829
74	0xbda37f2c	-0.079832405
75	0x3d02ff7b	0.031981926
76	0x3e003892	0.1252158
77	0xbdb68486	-0.089119956
78	0x3bb539b6	0.0055305613
79	0x3d599eec	0.053130075
80	0xbd719c69	-0.058987055
81	0x3db6a42c	0.08918032
82	0x3e27c872	0.16385058
83	0xbd93d0e3	-0.07217576
84	0xbe012b18	-0.12614095
85	0xbca05bc0	-0.019575
86	0x3de800d5	0.11328284
87	0xbdc3336c	-0.09531292
88	0x3df1ccec	0.11806664
89	0xbe61a6ac	-0.22036237
90	0xbc8d2568	-0.01722975
91	0x3d32df33	0.04366989
92	0x3d397796	0.04528006
93	0x3dc49f73	0.09600725
94	0x3c9d23fa	0.019182194
95	0xbdde74a4	-0.10862091
96	0x3e547a6b	0.20749824
97	0x3bf2f13b	0.007414011
98	0xbd91378d	-0.070906736
99	0x3e02d0f1	0.12775017
100	0x3d90734d	0.07053242
101	0x3d9f741c	0.07785818
102	0xbe0d67e0	-0.13809156
103	0xbdb265c7	-0.08710819
104	0xbcafe6c9	-0.021472352
105	0x3cee2174	0.029068686
106	0xbe135e8a	-0.14391533
107	0x3e006dff	0.1254196
108	0xbc12d73f	-0.0089624515
109	0x3dc34d5e	0.09536241
110	0xbe0d02ec	-0.13770646
111	0x3d3685e8	0.044561297
112	0xbd16545e	-0.036701553
113	0x3ca8378f	0.020534305
114	0xbc9961e8	-0.018723443
115	0xbdae8823	-0.0852206
116	0xbcde75d3	-0.027155792
117	0xbd6442ea	-0.055727877
118	0x3e27eab7	0.1639813
119	0xbda6331c	-0.08115217
120	0xbde9df79	-0.11419577
121	0x3d7b18c4	0.061302915
122	0xbd6a3589	-0.05717996
123	0xbe59ea61	-0.21280815
124	0x3d9e0f15	0.077177204
125	0xbbf14561	-0.007363007
126	0xbcdf338a	-0.027246255
127	0xbcd11c4d	-0.02552619
128	0xbd3cdcac	-0.046108887
129	0x3dded0b3	0.1087965
130	0xbcef9647	-0.029246463
131	0x3d773a25	0.060358185
132	0x3dbc4937	0.09193652
133	0x3dda3ac4	0.1065574
134	0x3d312925	0.04325213
135	0x3c8d8ab6	0.017278057
136	0x3e6f6ddf	0.23381756
137	0x3d06d785	0.03292038
138	0xbd0d625d	-0.034517635
139	0xbe646435	-0.22303851
140	0xbd898d6e	-0.06716429
141	0x3bab6984	0.0052310843
142	0xbdc920a1	-0.098206766
143	0x3c23a225	0.009987389
144	0x3d5a818b	0.053346198
145	0x3d468fe8	0.048477083
146	0xbcf70ce1	-0.030157508
147	0xbd34d9a1	-0.04415286
148	0x3d580a4f	0.052744206
149	0x3cfaa8df	0.030598102
150	0x3da32991	0.079669125
151	0x3e0c0419	0.13673438
152	0x3d8f0efb	0.06985279
153	0x3ce74814	0.028232612
154	0xbda583c0	-0.0808177
155	0x3c9c5ee3	0.019088214
156	0xbc99fba6	-0.018796753
157	0x3c489b0d	0.012243998
158	0xbe2d168c	-0.16903132
159	0x3d8d1eb2	0.0689062
160	0x3ddfe095	0.109315075
161	0x3d86c155	0.06579844
162	0xbe2fef93	-0.17181234
163	0x3d6494b1	0.055805866
164	0x3b6511f2	0.0034953323
165	0x3e289862	0.1646438
166	0x3d1f7f9a	0.03894005
167	0x3dceba15	0.10094086
168	0x3d931844	0.07182363
169	0x3d2402da	0.040041782
170	0x3e48565a	0.1956419
171	0xbcfe0c3f	-0.031011699
172	0xbdb53622	-0.08848216
173	0x3e10c062	0.14135888
174	0xbd572638	-0.052526683
175	0x3e22f278	0.15912807
176	0xbddf90cd	-0.109162904
177	0xbdd31e67	-0.10308533
178	0x3c77cbcd	0.0151242735
179	0xbdfa5051	-0.122223504
180	0xbc49d930	-0.012319848
181	0xbddeb686	-0.10874657
182	0xbdf6d077	-0.1205148
183	0xbd1a03a3	-0.037601124
184	0x3db06b8d	0.08614264
185	0xbd084b36	-0.03327485
186	0x3e3a1f90	0.18176103
187	0x3c880a4f	0.016606478
188	0xbbdd94a7	-0.0067621055
189	0x3c86ea82	0.016469244
190	0xbd8e7251	-0.06955398
191	0xbd430fa0	-0.047622323
192	0xbdcf24e0	-0.10114455
193	0x3da66786	0.08125214
194	0x3c26729f	0.010159164
195	0x3c11b834	0.008894015
196	0xbd479559	-0.048726413
197	0xbd877bf8	-0.06615442
198	0xbe12ed11	-0.14348246
199	0x3ac4177d	0.0014960613
200	0x3e28324f	0.16425441
201	0xbdf1a4ed	-0.11799035
202	0xbdaa6428	-0.083198845
203	0x3c9ccbd1	0.019140156
204	0x3d88a31a	0.06671734
205	0xbd051a92	-0.032496043
206	0x3d4492fb	0.047991734
207	0xbd3da984	-0.04630424
208	0x3c66a7b6	0.014078071
209	0xbc146d7d	-0.009059307
210	0x3d7d8da2	0.06190265
211	0xbd51ebfd	-0.051250447
212	0x3bcaf915	0.0061942437
213	0x3b2c2dc9	0.0026272407
214	0xbd04adc4	-0.03239228
215	0xbd3b1da4	-0.045682564
216	0x3d1bc7d2	0.03803236
217	0xbe11fdd4	-0.14256984
218	0x3d0e29b3	0.034707736
219	0xbe045858	-0.12924325
220	0x3d9e706b	0.07736286
221	0x3da77be4	0.08177927
222	0x3e1b9051	0.15191771
223	0xbde1fe9a	-0.110348895
224	0x3e0408e8	0.12894022
225	0xbde473a0	-0.11154866
226	0x3d57682d	0.052589584
227	0xbe2829b1	-0.16422154
228	0xbd24788f	-0.040154036
229	0xbc363349	-0.011120626
230	0x3d14d03c	0.0363314
231	0x3c52d116	0.012867233
232	0x3d0f6130	0.035004795
233	0x3e07503e	0.13214204
234	0x3d870ad0	0.06593859
235	0x3e49e4eb	0.19716232
236	0xbd7336f5	-0.059378583
237	0x3da642f6	0.081182405
238	0xbe57200e	-0.21008322
239	0x3dda7816	0.10667436
240	0x3d306dc0	0.043073416
241	0xbba3d8a1	-0.0050001894
242	0xbdc2a052	-0.09503235
243	0xbbe642e7	-0.0070270183
244	0xbd55d7dd	-0.052207816
245	0x3b3ec49b	0.0029108885
246	0x3d737b02	0.05944348
247	0x3c8438e1	0.016140403
248	0x3d2b84db	0.041874748
249	0xbddb2e7b	-0.10702225
250	0x3db29bd2	0.087211266
251	0x3e46a1ed	0.19397707
252	0xbd4f0d72	-0.05054993
253	0xbd9a9451	-0.0754782
254	0xbd51c680	-0.051214695
255	0xbb55a775	-0.0032601033

network_body._body_endoder.seq_layers.2.bias f4 [128]
0	0x3d5ef9a8	0.05443731
1	0x3d493a48	0.049127847
2	0xbb528146	-0.003212051
3	0x3c88329a	0.016625691
4	0x3c7d0d5a	0.015445078
5	0x3cd9f732	0.02660713
6	0x3d2c5dcb	0.042081635
7	0x3cb2cd6d	0.02182647
8	0x3c54578d	0.012960327
9	0xbc2f717e	-0.010708211
10	0x3d4d8ceb	0.050183218
11	0xbc55ccb0	-0.01304929
12	0x3d1a4f1f	0.037673112
13	0x3d5fb852	0.05461914
14	0x3d53fc16	0.05175408
15	0xbbf4d029	-0.0074711037
16	0xbcd9b405	-0.026575098
17	0x3ceecf21	0.029151501
18	0x3b9875b2	0.0046527022
19	0xbc86606d	-0.016403401
20	0x3d507041	0.050888304
21	0xbc912d53	-0.017721808
22	0x3d021ed6	0.03176769
23	0x3c87571c	0.01652103
24	0xbc9f4e30	-0.019446462
25	0x3d544c28	0.05183044
26	0x3b997f7b	0.0046843863
27	0x3c3adc6a	0.01140509
28	0x3d7c840a	0.06164936
29	0xbc0680de	-0.008209435
30	0xbc8ed63e	-0.017436143
31	0x3d84f2ed	0.06491647
32	0xbcb3ca30	-0.021946996
33	0x3c3d4d78	0.0115541145
34	0x3d2408fa	0.040047623
35	0x3d3cd0f5	0.046097714
36	0xbb5c40d3	-0.0033607974
37	0x3d16a6b5	0.036780078
38	0xbc158561	-0.009126038
39	0xbc124e9b	-0.008929874
40	0x3be9c234	0.0071337465
41	0x3d31272b	0.043250244
42	0xbc8aa16a	-0.016922671
43	0x3d1afccd	0.037838746
44	0x3d2b7d40	0.041867495
45	0x3caf494e	0.02139726
46	0x3cb43d7d	0.022001976
47	0x3d07d2be	0.033159964
48	0x3cdaeb67	0.026723577
49	0x3d33599e	0.043786637
50	0x3c8ac4b0	0.016939491
51	0x3bcd0ea6	0.0062578497
52	0x3d2fb065	0.042892832
53	0x3d27014c	0.04077272
54	0xbc20b35c	-0.009808388
55	0xbc96ad21	-0.018393101
56	0x3d483e9a	0.048887827
57	0x3cd0ab99	0.02547245
58	0x3d45e69f	0.04831564
59	0x3cdc5eda	0.026900697
60	0x3c419143	0.011814418
61	0xbcad9a11	-0.021191629
62	0x3d0a144d	0.033710767
63	0xbcdab1ca	-0.026696105
64	0x3b79d949	0.0038123897
65	0x3ce67bbe	0.028135177
66	0x3c5f3c2b	0.013625185
67	0x3d3aff73	0.04565377
68	0xbb926329	-0.004467387
69	0x3c5f781d	0.013639477
70	0xbca682d5	-0.020326057
71	0xbc175a48	-0.009237833
72	0xbc967a27	-0.018368794
73	0x3c3db4b3	0.011578727
74	0x3c5d1956	0.01349481
75	0xbc128f73	-0.008945334
76	0x3d39aa94	0.04532869
77	0x3c073fd4	0.008254964
78	0x3b1ca6ef	0.002390321
79	0x3c84775a	0.016170193
80	0x3c6400be	0.013916193
81	0xbcd496ce	-0.025950816
82	0xbce03b32	-0.027371977
83	0x3c18d306	0.009327656
84	0xba6bf31d	-0.0009000765
85	0x3d0dea37	0.034647193
86	0x3c264096	0.010147234
87	0x3d2c0224	0.04199423
88	0x3c8de05b	0.017318895
89	0xbaa5d062	-0.0012650604
90	0xbd053a88	-0.032526523
91	0x3d270945	0.040780324
92	0x3caaf739	0.020869838
93	0x3c60fd5f	0.013732283
94	0x3ced5a1c	0.028973632
95	0x3d0d3644	0.03447558
96	0x3d32cefc	0.043654427
97	0xbcd0d920	-0.025494158
98	0xbc4d030a	-0.012512932
99	0x3ce0c9d7	0.027439995
100	0x3d8b2c41	0.0679555
101	0xbce67127	-0.028130127
102	0x3c913f94	0.017730512
103	0xbc9759b6	-0.018475395
104	0x3ccb094c	0.024784707
105	0x3d1c72ba	0.03819535
106	0x3d247b63	0.040156733
107	0xbc87f189	-0.016594665
108	0xbb48701b	-0.0030584398
109	0xbccfc72e	-0.025363531
110	0xbcac0c6d	-0.021002019
111	0x3d29dff4	0.041473344
112	0xbc1eabb7	-0.009684495
113	0xbb9c9208	-0.0047781505
114	0x3b6fda38	0.0036598574
115	0x3cc2448d	0.023714328
116	0x3d424689	0.04743055
117	0x3cfda88f	0.030964164
118	0x3d643338	0.05571291
119	0x3d1952c9	0.037432466
120	0x3ccd5f6e	0.025069918
121	0xbc8adfac	-0.016952358
122	0xbd034288	-0.03204587
123	0x3bc731e1	0.006078944
124	0x3d42dbe7	0.047572996
125	0x3cfc8637	0.030825717
126	0x3c84d46e	0.016214576
127	0x3d16a952	0.03678257

action_model._continuous_distribution.log_sigma f4 [1, 2]
0	0x3b3d90d7	0.0028925443
1	0xbb44aaa5	-0.0030008939

action_model._continuous_distribution.mu.weight f4 [2, 128]
0	0x3d69e36e	0.05710166
1	0x3d54ca36	0.051950656
2	0x3c28c595	0.0103010135
3	0x3c85c3c2	0.016328696
4	0xbcf3515a	-0.029701877
5	0x3cc37905	0.023861418
6	0x3d157343	0.036486875
7	0x3c05fe10	0.008178249
8	0xbbd37971	-0.006453686
9	0xba48cb5a	-0.0007659696
10	0x3d528e59	0.051405285
11	0xbcad97d8	-0.021190569
12	0xbc23bc8e	-0.009993685
13	0x3d5f9b24	0.054591313
14	0x3db3f4b4	0.08786908
15	0xbd9ff371	-0.07810105
16	0xbcbbe235	-0.022935012
17	0x3c5bce1d	0.01341584
18	0x3b4b0889	0.003098043
19	0xbcf7622b	-0.030198177
20	0x3d8844cd	0.06653748
21	0xbd5e4cb4	-0.05427237
22	0x3d0cc808	0.034370452
23	0x3d02e81f	0.03195965
24	0xbd2b50f3	-0.041825246
25	0x3d37628b	0.044771712
26	0xbbbe6274	-0.0058100764
27	0x3cb83a03	0.0224886
28	0x3d3026ec	0.04300587
29	0x3cefa9a0	0.029255688
30	0xbd2f3540	-0.042775393
31	0x3db16967	0.08662682
32	0xbd38499b	-0.04499207
33	0xbd20ff6b	-0.039306086
34	0x3d852625	0.06501416
35	0x3d82b7b7	0.06382697
36	0x3c3ad94e	0.011404349
37	0x3d065d7d	0.032804
38	0xbd2d7489	-0.042347465
39	0x3c648c71	0.013949499
40	0xbcfbe949	-0.030750887
41	0x3b4434b6	0.0029938645
42	0xbd4d4a7b	-0.05011986
43	0x3cb32654	0.021868862
44	0x3d2565e3	0.04038037
45	0x3ce16903	0.027515894
46	0xbd8fe519	-0.07026119
47	0x3d06ca9d	0.03290807
48	0x3d5035d5	0.05083259
49	0x3d6866c8	0.056738645
50	0xbd2a39de	-0.041559093
51	0xbcc08195	-0.02349929
52	0x3da74493	0.08167376
53	0x3be76c4f	0.007062472
54	0xbd08513f	-0.033280607
55	0xbd40ec58	-0.047100395
56	0x3c6fb5e1	0.014630766
57	0xbbb68d18	-0.005571019
58	0x3d04e003	0.032440197
59	0xbd5e0216	-0.054201208
60	0x3d3c0ca6	0.0459105
61	0xbc9dbbfa	-0.019254673
62	0x3c2f9ac3	0.01071805
63	0xbb47bf32	-0.0030478952
64	0xbd5fb146	-0.05461242
65	0x3cac4378	0.021028265
66	0x3cc64a0f	0.024205236
67	0x3d3fb3ba	0.04680226
68	0xbd63a8f9	-0.055581067
69	0xbccf213f	-0.025284408
70	0xbd111de3	-0.035428893
71	0xbd5406c0	-0.05176425
72	0xbd02f82e	-0.031974964
73	0xbd2f1270	-0.042742193
74	0xbc44621c	-0.011986282
75	0xbd46532c	-0.048419163
76	0x3d0d8cd3	0.03455813
77	0xbc98dd25	-0.018660137
78	0xbc6583ff	-0.014008521
79	0x3d0ab998	0.033868402
80	0x3d16f98e	0.036859088
81	0xbd3ae44c	-0.045627877
82	0xbd035400	-0.03206253
83	0xbca07e2a	-0.01959141
84	0xbd60f1ce	-0.054918103
85	0x3db5152d	0.088419296
86	0x3d2c81d0	0.042115986
87	0x3d32efa9	0.04368559
88	0xbcb62ee2	-0.022239152
89	0xbd9be4ee	-0.07612024
90	0xbb244076	-0.0025062836
91	0x3db25fd8	0.08709687
92	0x3d354e79	0.04426429
93	0xbd167d17	-0.03674039
94	0x3c2296d7	0.009923658
95	0x3d62ce90	0.055372775
96	0x3d93e690	0.07221711
97	0xbd883528	-0.06650764
98	0xbc25ad33	-0.010112095
99	0x3ae3a2cb	0.0017367242
100	0x3d41880d	0.04724889
101	0xbca554df	-0.020182071
102	0xbc87f731	-0.016597362
103	0xbc89a49e	-0.016802128
104	0x3ccc9199	0.02497177
105	0x3d2e6619	0.042577837
106	0x3d15e317	0.036593523
107	0xbd150bce	-0.03638821
108	0x3ce794a1	0.028269114
109	0xbd174a06	-0.03693583
110	0xbc0ce9b1	-0.008600638
111	0x3c964791	0.018344672
112	0x3cc402c4	0.0239271
113	0xbb7f5294	-0.0038959133
114	0xbd8ecb5d	-0.06972382
115	0x3d48a066	0.048981093
116	0x3d28c8bd	0.041207064
117	0xbba623c7	-0.005070183
118	0x3cc9c06e	0.02462789
119	0xbbea4068	-0.007148791
120	0xbcb4cdb4	-0.022070743
121	0xbd8f2434	-0.06989327
122	0xbd1f7ee6	-0.03893938
123	0xbd05f853	-0.032707524
124	0x3daaca39	0.08339352
125	0x3d1fdaa0	0.039026856
126	0x3cb041dd	0.021515781
127	0x3cc08d84	0.02350498
128	0x3d171013	0.036880564
129	0x3d136b42	0.03599096
130	0xbc427203	-0.011868003
131	0x3c82a476	0.015947562
132	0x3d26e881	0.040749077
133	0x3aa554aa	0.0012613733
134	0x3c8b304c	0.016990803
135	0x3cebd831	0.028789612
136	0x3d09c492	0.03363473
137	0xbd89115b	-0.066927634
138	0x3d0ee984	0.034890667
139	0x3b2ce857	0.0026383603
140	0x3d4e2b25	0.050334115
141	0x3ce727dc	0.028217249
142	0xbb8d9410	-0.004320629
143	0xbc62621b	-0.0138173355
144	0xbd41aba6	-0.047282837
145	0x3cbf336e	0.023339953
146	0xbb2951f4	-0.0025836201
147	0xbca1e7ea	-0.019763906
148	0xbcbc2752	-0.022967968
149	0x3b97145a	0.0046105804
150	0x3bd75ba7	0.006572205
151	0x3b941277	0.0045188027
152	0x3bbad4e7	0.0057016495
153	0x3cfb2ff7	0.03066252
154	0x3c712c74	0.014720071
155	0x3b7c42ee	0.0038492042
156	0x3c9f1b52	0.019422207
157	0xbce2e37b	-0.027696362
158	0xbce4cc1f	-0.027929364
159	0xbc540859	-0.012941443
160	0xbd63d5fc	-0.055623993
161	0x3d039872	0.032127805
162	0xba1b4384	-0.00059228414
163	0x3c87c667	0.016574098
164	0xbc74b301	-0.014935256
165	0x3c471bf6	0.0121526625
166	0x3b8d83d4	0.0043186937
167	0xbcbe05b7	-0.023196084
168	0x3d42ba21	0.047540788
169	0x3d49cc1f	0.04926693
170	0xbc24cfe4	-0.010059331
171	0x3ca98e05	0.020697603
172	0x3c89a6de	0.016803201
173	0x3b8fd749	0.0043896777
174	0x3d38ac4c	0.04508619
175	0x3cd98ee3	0.026557392
176	0x3bce98ac	0.006304821
177	0x3c8c1ea3	0.017104452
178	0x3d14f79f	0.036368962
179	0x3cdd120e	0.026986148
180	0x3d0662c0	0.03280902
181	0x3d5f6017	0.054534998
182	0xbc6974d6	-0.014249047
183	0xbbe17a36	-0.0068810238
184	0x3c9914f0	0.018686742
185	0x3d1e34a5	0.038624424
186	0x3cab68c0	0.020923972
187	0x3d4d4a14	0.050119475
188	0xbd05b2d5	-0.03264125
189	0xbc141fa3	-0.009040746
190	0x3d599337	0.05311891
191	0xbcd28743	-0.025699263
192	0x3cb29388	0.021798864
193	0x3b3b8871	0.002861526
194	0xbc8627ec	-0.016376458
195	0x3d266c6e	0.04063075
196	0xbc050e28	-0.008121051
197	0x3d2f8002	0.042846687
198	0xbb242e5a	-0.0025052042
199	0x3cacccc3	0.021093732
200	0xbd398663	-0.045294177
201	0x3d2079ad	0.03917854
202	0x3d071095	0.0329748
203	0x3c441141	0.011967004
204	0x3cad645a	0.021166015
205	0x3cdf42d7	0.027253551
206	0x3cab5ebd	0.020919198
207	0xbd116d81	-0.03550482
208	0xb945708d	-0.00018829312
209	0xbb8b5d54	-0.004253069
210	0xbc6aa6f5	-0.014322032
211	0xbbbf8f91	-0.005845972
212	0x3d28dcc7	0.041226175
213	0xbc35b327	-0.0110900765
214	0xbcc8ada7	-0.024496866
215	0x3d226fc0	0.039657354
216	0x3c612b19	0.013743185
217	0x3bf8cb41	0.007592589
218	0xbd0f916b	-0.03505079
219	0xbc56b293	-0.013104099
220	0xbd189e92	-0.0372606
221	0x3c40f4a5	0.011777078
222	0x3ce4a1bb	0.02790915
223	0xbcf08065	-0.029358098
224	0x3ca27228	0.019829825
225	0xbbeb1df8	-0.0071752034
226	0xbcfa14da	-0.03052752
227	0x3d3cdce5	0.0461091
228	0x3c2109e4	0.009829018
229	0xbd0272a4	-0.03184761
230	0x3d126bf6	0.03574749
231	0xbcdfceb9	-0.027320253
232	0x3cebf977	0.028805478
233	0xbca271c3	-0.019829636
234	0xbcb52710	-0.022113353
235	0xbbcc83a5	-0.006241279
236	0xbcbd98d3	-0.023144161
237	0xbd2d0e45	-0.042249937
238	0xbd2411c0	-0.04005599
239	0x3cca28cf	0.024677662
240	0xbd4709a5	-0.048593182
241	0x3c089591	0.008336441
242	0x3c828b53	0.015935576
243	0xbd29fcdb	-0.041500907
244	0x3d0e1ef0	0.034697473
245	0x3cf685f2	0.030093167
246	0x3d3fc912	0.046822615
247	0x3d5a6aa5	0.05332436
248	0x3d2a0880	0.041512012
249	0xbd5793a0	-0.05263102
250	0x3bd2aafa	0.0064290734
251	0x3cf1e205	0.02952672
252	0x3c0d49cc	0.008623552
253	0x3d16425e	0.036684386
254	0x3c1f1e97	0.009711883
255	0x3d771bea	0.060329355

action_model._continuous_distribution.mu.bias f4 [2]
0	0x3cc6a776	0.024249773
1	0x3cbdcd93	0.023169314

action_model._discrete_distribution.branches.0.weight f4 [1, 128]
0	0x3bbfb8bb	0.005850879
1	0xbbb749b3	-0.0055935024
2	0x3c873532	0.016504858
3	0x3c0e77c9	0.008695551
4	0x3b8cdcd1	0.0042987843
5	0x3a2ccd5f	0.0006591882
6	0x3b7a29e8	0.003817195
7	0xb9ddb4ab	-0.00042287013
8	0xbc19bb09	-0.009382972
9	0x3c58eefa	0.01324057
10	0x3bed59cf	0.007243372
11	0x3a07b652	0.0005177009
12	0xbb21940f	-0.00246549
13	0x3aacdd29	0.001318847
14	0xbc0aa6e7	-0.008462644
15	0xbbd7d9c0	-0.006587237
16	0xbb423748	-0.0029635
17	0x3c87387f	0.016506432
18	0xb93572db	-0.00017304292
19	0xbb489cde	-0.0030611078
20	0xbb6ad503	-0.0035832531
21	0x3ba1221f	0.0049173976
22	0xbbc66367	-0.00605433
23	0x3bfa2dc5	0.0076348507
24	0x3bb9d46a	0.0056710737
25	0x3b9f22ee	0.004856459
26	0xbab339ce	-0.0013673843
27	0x3a4b7d23	0.0007762482
28	0x3c75d195	0.0150035815
29	0x3b60886f	0.0034261008
30	0xbbfc53b0	-0.007700406
31	0x3bedde7b	0.0072591878
32	0x3a6051dd	0.00085571205
33	0xbb481f2a	-0.0030536153
34	0x3b9d7116	0.0048047407
35	0xbb8dff84	-0.0043334384
36	0x3adde02d	0.0016927772
37	0x3ad0e6c3	0.0015937913
38	0xbba87b1c	-0.005141629
39	0x3b219b75	0.002465931
40	0x3c104453	0.008805352
41	0x3b83bd44	0.004020365
42	0xbc88c486	-0.016695272
43	0xbb818795	-0.00395293
44	0x3bf4c2ca	0.0074695097
45	0x3c4a56af	0.012349769
46	0x3a594d47	0.0008289408
47	0x3b0f2e77	0.0021847764
48	0x3c8439a7	0.016140772
49	0x3b7a8238	0.003822459
50	0xbc3fca6b	-0.011705975
51	0x3b822a08	0.0039722957
52	0xbbf9f325	-0.007627862
53	0xbbbb222b	-0.0057108602
54	0x3aae4bc5	0.0013297728
55	0xbbadfadb	-0.0053094453
56	0xbbf31312	-0.007418045
57	0xbbd3e735	-0.006466771
58	0xbaacbe6b	-0.0013179308
59	0xbc09f93f	-0.008421241
60	0x3acdc6d7	0.0015699518
61	0xbc088797	-0.008333108
62	0xbacd0add	-0.0015643496
63	0x3c2b5def	0.010459407
64	0xbc4f3285	-0.012646322
65	0x3af2d707	0.0018527218
66	0x3c4396c7	0.011937804
67	0xbbb7ecac	-0.0056129303
68	0x3bf6d88a	0.0075331377
69	0xbbc38e8f	-0.005967922
70	0x3bb2e021	0.005458847
71	0xbb83da6b	-0.00402384
72	0xbc8c24b6	-0.017107349
73	0xbb5df9f7	-0.0033870914
74	0xbad9314d	-0.0016570479
75	0xbc172c0f	-0.009226813
76	0xbaac369d	-0.0013138835
77	0xbc404707	-0.011735684
78	0xbb8db494	-0.004324505
79	0x3b873011	0.004125603
80	0x3b6dd770	0.003629174
81	0xbc1ffe0a	-0.0097651575
82	0x3c5fe363	0.013665053
83	0x3c4d2fe5	0.012523626
84	0xbaa5381b	-0.0012605222
85	0x3bbdaa48	0.0057881214
86	0x3a0454ef	0.00050480565
87	0x38a18082	7.701015e-05
88	0xbc62f20d	-0.013851655
89	0x3c862b57	0.016378088
90	0x3acc6fb5	0.0015597256
91	0x3bac309f	0.0052548195
92	0x3bcee53a	0.006313947
93	0xbc04f9cc	-0.008116197
94	0x3ae0e1ad	0.00171571
95	0x3b31c2ab	0.0027124088
96	0x3c425bf5	0.011862745
97	0xbc832ab7	-0.016011579
98	0x3bf3f9c5	0.0074455463
99	0xbb727d8d	-0.0037001104
100	0xbb935e33	-0.0044973134
101	0xbc37b86e	-0.011213405
102	0xba23a642	-0.0006242731
103	0xbc0a5908	-0.008444078
104	0xbbc60051	-0.006042518
105	0xbc8faf76	-0.017539721
106	0x3842527b	4.633002e-05
107	0xbac402d4	-0.0014954456
108	0x3c30c75d	0.010789719
109	0xbc0c6f00	-0.008571386
110	0x3b885457	0.0041604447
111	0x3aa28398	0.0012398837
112	0xbaf214ca	-0.001846933
113	0x3abf1a04	0.0014579897
114	0xbb896873	-0.0041933595
115	0xba0fe05e	-0.00054884504
116	0x3c89ea8a	0.01683547
117	0xbb860a04	-0.0040905494
118	0xb9b669db	-0.00034792614
119	0xbc044bfe	-0.008074759
120	0x3bda7f58	0.0066680126
121	0xbc9633ce	-0.01833525
122	0x3a77cd12	0.000945286
123	0x3bba05ff	0.0056769843
124	0x3bd2f59b	0.00643797
125	0xbb9dbc34	-0.0048136953
126	0x3b0459f0	0.0020195208
127	0x3cc910e9	0.024544196

onnx::Div_70 f4 [12]
0	0x3eee1a0b	0.46504244
1	0x3ea495aa	0.32145435
2	0x3b0896a1	0.0020841735
3	0x3e9c0e45	0.30479637
4	0x3e63bbdc	0.22239631
5	0x3e5d03bb	0.21583454
6	0x3ef05705	0.4694139
7	0x3dc9cd74	0.0985364
8	0x3b62dad3	0.0034615293
9	0x3ef85dfe	0.4850921
10	0x3efe18a0	0.49628162
11	0x3eff3536	0.49845284
