results/SlayRL_018/SlayTheSquire_RL.onnx (onnx, 82288 bytes, 10 tensors)

network_body.observation_encoder.processors.0.normalizer.running_mean f4 [12]
000000 9e ef 76 3f a9 2d 82 be bb 00 08 3b e6 ab 5a 3f
       0.96459377 -0.2542546 0.0020752389 0.85418546
000010 88 2b df be ec b9 ac bd 20 e9 ac bd f5 2f b5 be
       -0.435879 -0.08433899 -0.084429026 -0.3538815
000020 50 dd 3c b8 56 dd bc b9 01 00 c0 be d0 19 17 be
       -4.5028806e-05 -0.00036023062 -0.37500003 -0.1475594

network_body._body_endoder.seq_layers.0.weight f4 [128, 12]
000000 d1 92 7e bd 44 64 11 be 0c 67 4b bc 04 88 ca be
       -0.062151734 -0.14198405 -0.012414705 -0.39556897
000010 b7 b6 fb 3d 1f 1b 4b be 37 0a 22 bc 2e 43 53 3e
       0.122907095 -0.19834565 -0.009890131 0.20631096
000020 f0 bd d3 3d c7 07 2b bd bc 64 db bd 01 9d 29 3e
       0.10338962 -0.041755464 -0.10712573 0.16563798
000030 5b 07 4a 3e d5 b0 94 be aa cd 17 3f 32 ea 9a bd
       0.19729368 -0.29041162 0.59298193 -0.075642005
000040 c9 72 99 3e fd ce b4 3e 5d 52 70 3e 94 59 c9 3d
       0.29970387 0.3531417 0.23468919 0.09831539
000050 8e 5d 0d 3e 60 0c 12 bf 88 11 f6 3d 4a b7 89 be
       0.1380522 -0.5705013 0.120150626 -0.2689765
000060 c3 f3 85 bd b6 1e 32 3e 8a b8 2c 3d be 68 9f 3e
       -0.065406345 0.17394528 0.042168178 0.311346
000070 36 15 ba be d8 bc ae be ff 65 3c 3e 5f bd af be
       -0.36344308 -0.3412845 0.18398283 -0.34324166
000080 f0 1b f7 bc 4f 56 63 bd 60 b8 6f be 35 3f 01 3e
       -0.030164689 -0.055502232 -0.23410177 0.12621768
000090 d3 7f e3 3e 19 78 d7 3d ba 2a ee 3d 93 f0 29 bf
       0.4443346 0.10520954 0.11629243 -0.6638271
0000a0 84 6c aa 3e 44 4f 3d 3e a6 0e b6 3e 1c 2e f2 3e
       0.33285916 0.18487269 0.3555805 0.47300804
0000b0 7c 5e 87 be 03 4b 92 3e 67 55 12 be 47 01 92 3e
       -0.26439273 0.28572854 -0.14290391 0.285166
0000c0 ad 30 44 3f 33 7a 0c bd 56 ea 55 3d 13 2c f4 bd
       0.76636773 -0.034296226 0.052225433 -0.11922469
0000d0 d3 00 0c be 9a 6a a3 3a 33 76 66 3e 18 34 18 bf
       -0.1367219 0.0012467683 0.22506027 -0.5945449
0000e0 5c 0f 01 3e 68 60 03 3e b0 d7 e7 3e 3d 18 0a bd
       0.12603515 0.12829745 0.45281744 -0.03371452
0000f0 10 b7 34 3f 21 0b 82 3e 87 15 21 3d ae 0e 02 3e
       0.7059183 0.25399116 0.03932717 0.12700912
000100 fa 90 d4 be 2d e3 14 be 7e 23 09 bd 85 57 c0 3e
       -0.41516858 -0.14539786 -0.033481114 0.37566772
000110 f6 53 bb 3e ed 6f 0c 3f 6d 0f b7 be ce c3 b0 bd
       0.36587495 0.54858285 -0.35753956 -0.08631097
000120 e7 f6 1f bf a9 12 64 3c 50 9e 70 be 9d 49 f4 bd
       -0.6248612 0.013920465 -0.23497891 -0.11928103
000130 54 98 84 3d 8a f0 e7 3e 8d 94 a4 3e d6 1f 09 3e
       0.06474367 0.45300704 0.32144585 0.1339105
000140 42 0c a3 be c4 e3 50 be e7 0a 6a 3e 68 29 5a 3e
       -0.3184529 -0.20399386 0.22855721 0.21304858
000150 bc 24 9c 3e d6 05 34 bf e3 4f 85 bd d5 20 bb 3d
       0.30496776 -0.70321405 -0.06509378 0.091371216
000160 9a 03 ab be 4f aa ed 3b 8c fd 19 3e 6a cc 81 be
       -0.33401185 0.0072529684 0.15038127 -0.25351268
000170 f7 be e5 3d d7 a4 48 3e 4c d5 71 be 25 75 1d be
       0.11218064 0.19594131 -0.23616523 -0.15376718
000180 c6 9a d9 3c e2 20 38 3e 92 24 8b 3e fe 84 3f 3e
       0.02656306 0.17981294 0.27176338 0.18703076
000190 e1 29 b6 be 59 aa f0 3e c0 87 07 bf d9 dc 2a bd
       -0.35578826 0.47004965 -0.52941513 -0.041714523
0001a0 c0 0a 58 3e 12 e9 a5 3e bc e5 50 3c 75 70 bd be
       0.21097851 0.3240438 0.012750085 -0.3699986
0001b0 97 65 77 bd 1d 30 8b 3c 17 1b 0d bf df 86 8c bd
       -0.060399618 0.016990716 -0.5511946 -0.06861662
0001c0 e2 39 03 bf 8d 83 e6 be 04 5e ca be 79 b5 54 3e
       -0.512602 -0.4502224 -0.39524853 0.20772351
0001d0 0d 1b 90 3e 35 13 84 be c7 8c 8b 3d a0 64 79 3e
       0.28145638 -0.25795904 0.068139605 0.24354792
0001e0 10 0a 52 be b9 4e 41 3e 6c cc 21 be 09 60 c2 3e
       -0.20511651 0.18877687 -0.15800637 0.37963894
0001f0 da e5 44 3d e4 5e e8 bd 9d 03 e5 be ae 3b 35 be
       0.048070766 -0.11346224 -0.4472932 -0.17698547
000200 fe df 95 3e 7f 06 fc bd 87 33 bd bd 70 65 00 3e
       0.29272455 -0.123059265 -0.09238344 0.12538695
000210 d9 ab bb 3c 3f a3 10 be 49 d1 a0 be 7d 80 54 be
       0.022909092 -0.14124773 -0.31409672 -0.2075214
000220 57 61 ba 3d 31 1c 87 be 0b 6d 3f be 7f dc dd 3d
       0.09100597 -0.26388696 -0.1869394 0.10833072
000230 88 ba 37 3e 51 f7 1c bd fa 70 c8 3e 59 da 0d 3f
       0.1794225 -0.038321797 0.39148694 0.554113
000240 88 a4 d2 3e 90 74 0f be ef 2d 05 3e 79 2f 67 3e
       0.41141152 -0.14009309 0.13005804 0.22576703
000250 22 9a 17 bd cd c2 cf be ba 00 25 bd 46 c6 77 be
       -0.037012227 -0.4057831 -0.040283896 -0.24196729
000260 a3 95 4a 3e 89 8b 03 3f f7 32 8a 3e ab 7c c0 3e
       0.19783644 0.5138479 0.26992008 0.37595114
000270 b7 6a 94 bc 20 8a 08 3e 72 da ff 3d b1 fc 79 be
       -0.018117292 0.1333394 0.12492837 -0.244128
000280 53 d8 09 3f cd 0d 13 bf 97 e1 58 3e 8a 4c 2d be
       0.5384571 -0.57442933 0.21179806 -0.16923729
000290 2f e0 cd bd f5 f6 4c be 83 1c 93 be 38 5c 14 3f
       -0.10052525 -0.20016082 -0.2873269 0.57953215
0002a0 65 11 ab be 5c 3f fb bd 64 4b 80 3e 0f 05 4e be
       -0.33411708 -0.12267944 0.25057518 -0.20119117
0002b0 48 45 47 3e 3b 4e 2e 3f 49 f3 04 bf 0f 65 dc bd
       0.19460022 0.6808812 -0.51933724 -0.10761463
0002c0 18 33 21 bd 39 8b 6b bd 19 7f 09 be 72 6d 0f bf
       -0.039355367 -0.05750582 -0.1342739 -0.56026375
0002d0 30 24 b9 3d 2b 8e 2e 3e fe 5c 8b 3e 12 07 57 be
       0.09040105 0.1704642 0.27219385 -0.20998791
0002e0 85 64 dd 3e df 6f 02 bf d7 81 6c 3f 44 93 1c bf
       0.43240753 -0.5095195 0.9238562 -0.6116221
0002f0 14 51 02 bf c9 df 59 be dc c2 4e be cf 4a 60 bd
       -0.50904965 -0.21276774 -0.2019152 -0.054758843
000300 2f 85 1e 3e 61 65 57 3c a6 56 81 3e c3 ae ed 3e
       0.15480493 0.013146729 0.2526142 0.46422395
000310 ca 91 63 3c 4e f5 0b bf 29 58 30 be 08 83 e8 bc
       0.013889739 -0.5467118 -0.1722113 -0.028382793
000320 73 80 5a be 4b d9 96 bd 04 bd 3f 3b 2d a5 1b 3e
       -0.21338062 -0.07365664 0.002925695 0.15199728
000330 98 24 30 3d b4 d1 b9 3d 7c e0 d6 3d 00 48 2f 3e
       0.04300365 0.09073201 0.10492036 0.1711731
000340 2b c1 05 3f 12 91 eb 3e f1 97 07 bf c1 97 48 3e
       0.52247876 0.46009117 -0.5296622 0.1958914
000350 e9 25 03 be 1a 7e 8f bb 3e ef 71 be 0d 35 77 3e
       -0.1280743 -0.004379046 -0.2362642 0.24141331
000360 54 7f ae 3d 49 86 e3 be 3c af 11 3e 4e 38 14 be
       0.0852038 -0.4443839 0.14227003 -0.14474604
000370 c6 6f 13 be 8d be 43 3e 79 94 ec bd 51 e6 10 be
       -0.14398107 0.19115658 -0.115517564 -0.14150359
000380 3c 14 6a 3e 89 46 01 3e bb 05 87 3e 39 8d 91 bd
       0.22859281 0.12624563 0.2637156 -0.07107014
000390 44 39 15 3e 19 c6 82 3e 30 65 e2 be a8 ed 34 be
       0.14572626 0.25541762 -0.44217825 -0.17668784
0003a0 00 a3 4e be d0 2d d7 3e f3 de e3 be bc c4 ce 3d
       -0.20179367 0.4202714 -0.44506034 0.10096118
0003b0 73 9c 03 3f 2b 00 80 be 7c 97 f8 bc 5c 6b 6b be
       0.514106 -0.25000128 -0.03034567 -0.22990173
0003c0 f9 e4 40 be 8c 9f b8 3d cd d0 4d 3e f3 d4 08 be
       -0.18837346 0.09014806 0.20099182 -0.13362484
0003d0 d2 80 88 be f3 88 7c be 60 98 e8 3e d6 25 c5 be
       -0.26660782 -0.24661617 0.45428753 -0.3850543
0003e0 5d 49 10 3e 4d ff 17 3f c8 06 e7 be 5a 9f 61 3e
       0.14090486 0.59373933 -0.4512236 0.22033444
0003f0 1a 21 7b be 06 7f 8b 3e 8d 00 9d be b7 7d 6d 3e
       -0.24524346 0.2724535 -0.30664483 0.23192488

network_body._body_endoder.seq_layers.0.bias f4 [128]
000000 fb 01 0b bc f6 e0 10 3c 5a e2 55 bc e5 6a 8e bc
       -0.008484359 0.008842697 -0.013054455 -0.017384956
000010 2c bf 7b 3c 09 a4 2b bb fe d8 cf bb 6d f1 12 bc
       0.015365403 -0.0026190302 -0.006343006 -0.008968693
000020 b3 84 41 3c 94 3e 64 3c fb 14 84 bc f6 33 c1 3a
       0.011811423 0.013930935 -0.016123286 0.0014740217
000030 b9 ee 8d bc f3 6d 8b bc 56 ee 40 bc 5e e3 8f bc
       -0.017325746 -0.017020201 -0.011775574 -0.017564472
000040 73 3d 91 bc c0 4e 86 3b 54 0b 4d 3c 06 92 d1 bb
       -0.017729497 0.004098743 0.012514908 -0.006395581
000050 d7 4e 9e bc 0f 2f 4a 3c 8c fb cf bb 2a b5 82 3c
       -0.019324703 0.012340321 -0.0063471254 0.015955526
000060 4e 91 34 3c 0a 1c cc bc 8f e0 a4 bc 5e 3d fd 3b
       0.011020971 -0.024915714 -0.02012661 0.007728263
000070 5c 40 05 3c 2d 88 da 3c b5 82 12 bb f2 06 e4 3c
       0.00813302 0.026676262 -0.002235574 0.027835343
000080 ee 93 1b bc 65 fe f9 3b e3 84 55 3a b5 18 55 3c
       -0.009495718 0.007629203 0.0008145107 0.013006379
000090 20 0e c9 bc 98 bb 81 3a b0 e8 ef 3c ef 61 c2 3c
       -0.024542868 0.0009897826 0.029285759 0.023728339
0000a0 59 fd fd 3b 97 64 1c bc d2 70 5e bc 98 32 83 3c
       0.0077511487 -0.009545467 -0.013576703 0.016015336
0000b0 06 b7 7d 3b c9 55 dd 3c a2 07 08 3b 8d 8e 95 39
       0.0038713827 0.027018445 0.0020756503 0.00028525703
0000c0 50 ab 93 bc aa 14 b2 3c 40 00 c2 3c 97 5a 56 3c
       -0.018026024 0.021738369 0.02368176 0.013083122
0000d0 9d b6 70 bc e0 03 77 3c 52 17 c2 3c 59 7c d0 bc
       -0.014691976 0.0150766075 0.02369276 -0.025449919
0000e0 53 66 da 3a 3d 39 3d 3c 41 1c 9c 3c 4e 9f 37 bc
       0.0016662575 0.011549291 0.019056441 -0.011207415
0000f0 4d 3a 81 3c d8 55 b7 bc a3 f5 d2 3c a5 0e cb bb
       0.01577487 -0.0223798 0.025751894 -0.006196814
000100 ec d7 b3 bc 3f 9b 64 bc c9 5c db 3c eb 5c 00 3d
       -0.021953546 -0.013953029 0.026777642 0.031338613
000110 74 35 ee 3c 1d c6 5c 3c bf 72 dd 3c 59 0f 75 bc
       0.029078223 0.013474968 0.027032254 -0.014957272
000120 6d fb f6 3c 1d 1f fb 3c 38 3c 9b bc 6a f2 d0 3c
       0.030149186 0.030654484 -0.018949613 0.025506217
000130 f4 74 b6 bb 0e 5b 05 3d 75 76 c3 3c 07 94 6c bb
       -0.005568141 0.03255754 0.023860196 -0.0036098973
000140 cc f7 44 bc 29 a2 51 3c 98 3e fe 3b 81 41 c3 3c
       -0.01202197 0.01279501 0.0077589266 0.023834946
000150 a2 48 a6 bc 95 be b2 3c 5c 6e bf bc 57 82 8f bb
       -0.020298306 0.021819392 -0.023368053 -0.0043795514
000160 b9 82 c2 bb 9d 42 9b 3c fa ae 0c 3d 65 74 c3 3b
       -0.0059359935 0.018952662 0.03434656 0.005964803
000170 a7 45 2d 3c 77 b1 9d bc 5b ff 56 bc 27 f9 b7 bc
       0.010575688 -0.01924966 -0.013122405 -0.022457672
000180 78 41 2a bc 31 17 a9 bc fd 15 30 bc e4 d6 d4 3c
       -0.0103915855 -0.020640941 -0.01074743 0.025981374
000190 f6 7e 6f bc 62 98 96 bc 0c 1e 36 bc 6a 9e 4c bc
       -0.014617672 -0.018383209 -0.011115562 -0.012488941
0001a0 7e 15 78 bc 94 ab f7 3c f0 9e 63 bc 1d 4e ce 3c
       -0.015141843 0.030233182 -0.013892874 0.025183732
0001b0 59 e7 ef 3b f0 56 8a bc b8 ed a1 bc 22 b5 85 3c
       0.00732128 -0.016887158 -0.019766673 0.016321722
0001c0 b1 0c 60 bc 15 71 91 bc e3 29 35 3c 1d 7f aa bc
       -0.013674901 -0.017754117 0.01105735 -0.020812565
0001d0 b8 a5 ac bc 79 86 b0 3c d0 99 90 bc 9f 6f c0 3a
       -0.021075115 0.021548497 -0.017651469 0.0014681703
0001e0 4a c2 88 3c b9 4c 07 bc 02 8c a1 3b 92 0c f5 3c
       0.016694207 -0.008258038 0.0049300203 0.02991322
0001f0 9c 21 c0 3c b1 0e 89 bc 5b 8a b5 3c 3f 01 a7 3b
       0.023453526 -0.016730638 0.0221607 0.005096584

network_body._body_endoder.seq_layers.2.weight f4 [128, 128]
000000 96 43 cb bd 2c 36 32 3d 27 b6 56 3d c8 39 b1 bd
       -0.09925 0.043508694 0.052419808 -0.08653599
000010 c9 a3 27 bc 56 6c aa 3d c4 ff 9e 3d 8d dc 36 3d
       -0.0102319205 0.08321445 0.07763627 0.044643927
000020 32 d8 83 bc cc dc f7 3d af 30 d1 bd d5 79 07 3c
       -0.0160943 0.121026605 -0.10214364 0.008268793
000030 c7 cd 8e bd 53 e2 12 3d a7 e2 7f bd e1 48 89 bb
       -0.06972843 0.03586037 -0.062472012 -0.004189596
000040 40 ee 29 3d ba 44 92 bd 2b 18 94 3d 53 2a 97 3d
       0.04148698 -0.07142015 0.07231172 0.073811196
000050 0e b4 cf 3d 70 c9 42 3e 49 63 4d 3d ff 5e 0b 3e
       0.101417646 0.19022155 0.050143514 0.13610457
000060 1a 51 99 bd 17 99 0e 3e 17 d0 04 bd cd ac 07 3d
       -0.07486172 0.13925587 -0.032425012 0.03312378
000070 ad 00 48 be c2 37 37 3e ad 8c 71 3d 66 d1 ef 3d
       -0.19531508 0.17892364 0.05897205 0.117098615
000080 95 da 1f be 32 ad 8c 3d 5f 1a a4 3d a1 d1 a3 3d
       -0.15610726 0.06868972 0.080128424 0.07998968
000090 ae 6f ab bd a5 da 17 3e ca cf 0c 3d 5a 07 07 3d
       -0.083709106 0.148295 0.03437785 0.032965995
0000a0 15 bb a9 3d 88 8c cc bc e9 73 90 3c 30 e3 98 3d
       0.08287636 -0.024969354 0.017633395 0.074652076
0000b0 ee 71 e4 bd 86 62 96 3c 5a 7d 94 bd eb 93 38 bd
       -0.11154543 0.018357527 -0.072504714 -0.04506294
0000c0 33 a7 70 3d 03 ce 17 bd 8c eb 96 bc 6b cc 9f 3d
       0.058753204 -0.037061702 -0.018422864 0.078026615
0000d0 13 f3 9a 3c 30 07 91 3e aa 9b 99 bb ce 73 00 bd
       0.018914735 0.28325796 -0.004687746 -0.03136044
0000e0 f6 7b 0c be 13 74 c9 3d a2 68 a8 3d a4 dd a6 3a
       -0.13719162 0.098365925 0.08223082 0.0012730849
0000f0 95 07 68 3d 09 58 8a 3d 95 16 2b bd 02 35 53 be
       0.056647856 0.067550726 -0.041769583 -0.2062569
000100 68 d9 36 3a 2d 29 27 be e2 75 c7 3d 76 bd 51 bc
       0.0006975145 -0.16324301 0.09739281 -0.012801519
000110 74 f1 79 bd 91 71 b0 bd 23 e9 9d bd bf 36 ce 3b
       -0.061021283 -0.08615411 -0.07710483 0.0062931473
000120 2c f9 23 3e 06 32 69 bc cb b4 23 be fe d3 44 3c
       0.1601302 -0.014233118 -0.15986936 0.0120134335
000130 6b 67 da 3b 3a 59 a9 3d 36 34 a0 3d 03 0b 20 bc
       0.0066651604 0.08268972 0.078224584 -0.00976825
000140 6c 9f 3e bd 9a 69 ea 3d 57 4d 07 be 45 43 e8 bc
       -0.046538755 0.11445923 -0.13213097 -0.02835239
000150 67 09 7a bd 47 f6 90 bd e9 09 19 3e 1b 25 6a bc
       -0.061044123 -0.07078224 0.14945187 -0.014291073
000160 e9 52 be bd 4b cb 95 3c 62 a9 f0 3c 2a 80 43 3e
       -0.092931576 0.018285414 0.029377643 0.1909186
000170 55 bd 17 3d 25 74 20 bd eb fd 94 3d e7 05 ee 3d
       0.037045795 -0.039173264 0.072749935 0.116222195
000180 83 76 b8 bc eb 64 39 bd 7f e1 01 3e 98 42 40 3d
       -0.022517448 -0.04526226 0.12683676 0.04693851
000190 85 8d f6 3d a5 fc 6f 3d c9 af 65 bd 18 1c f5 3d
       0.120387115 0.05859055 -0.056075845 0.11968249
0001a0 35 f5 37 3d b9 be 49 bc 38 05 e0 3c ef bf a0 bc
       0.044911582 -0.012313538 0.027346238 -0.019622771
0001b0 c8 52 c3 bb 1c d2 7c bc 22 56 b4 bd 28 12 99 bd
       -0.005960796 -0.015430953 -0.08805491 -0.07474166
0001c0 ca bd 9d bd 7f 6c c6 bd 9f 3c 3a be a0 16 f1 bd
       -0.07702215 -0.09688663 -0.18187188 -0.117718935
0001d0 45 5f 1e bd ef ad 25 bd 21 b9 5a 3c 08 8b 16 3d
       -0.038665075 -0.04044908 0.013349802 0.036753684
0001e0 37 51 c7 3d 98 10 3b 3d 02 0d 1a 3d 0d 1a 75 3d
       0.097322874 0.045670122 0.03761006 0.059839297
0001f0 29 76 66 bc 2a 4f 30 bc c4 ee 71 3d f6 04 9b 3d
       -0.0140662575 -0.010761062 0.059065595 0.075693056
000200 a6 e4 34 bd 69 1b cc 3d 5f 81 78 bc 81 84 6d 3d
       -0.04416337 0.099661656 -0.015167563 0.057987694
000210 d6 8b a1 bd 02 3d 1b bd 0f 97 2c 3c 92 88 0b be
       -0.07888 -0.03789998 0.010534062 -0.13626316
000220 26 a3 38 ba 0d d8 01 3e 99 1f 8b bd ab 7f 81 ba
       -0.0007043354 0.12680073 -0.06793136 -0.0009879967
000230 0b 6c a4 bd 06 e9 0f be ef 24 2b 3e 5c 5c 10 3e
       -0.0802842 -0.14053735 0.16713308 0.14097732
000240 19 b0 66 3c 0d ac a3 3d d8 b6 0c be 8c a2 c3 bc
       0.014080071 0.079918005 -0.13741624 -0.02388122
000250 09 52 b6 3d 1a 59 e8 3d da ef 7a 3d 38 35 32 3d
       0.08902366 0.1134512 0.061263897 0.043507785
000260 d5 29 cd 3d 97 cc 4f 3d e4 89 bc 3d 04 61 5f bd
       0.100177445 0.05073222 0.09205988 -0.05453588
000270 78 c8 a4 3b 70 ad 71 bd 93 c5 93 bd 3d c4 c0 3c
       0.0050287805 -0.059003294 -0.07215419 0.023531074
000280 26 4c 16 3e 07 21 f0 3d 69 a4 5e 3d ba f1 08 3e
       0.14677486 0.117250495 0.054356012 0.13373461
000290 31 00 2e be 82 20 da 3d 0d 17 4e bd 99 96 4c 3d
       -0.1699226 0.106507316 -0.05031495 0.04994831
0002a0 e3 d1 5c 3b 3b 4c 46 be c1 fb e0 3d f6 1a 85 3d
       0.0033694438 -0.19365017 0.10985518 0.06499283
0002b0 23 1e 4a bc 9b 05 0b 3e 2d 70 37 3e ef 86 82 3d
       -0.012336287 0.13576357 0.17913885 0.06373393
0002c0 bc 84 c7 3d b0 a0 11 be 92 60 64 bd cb 6a 62 be
       0.09742114 -0.14221454 -0.05575616 -0.22111051
0002d0 65 cb 2e 3e 50 6a 00 bb 2c 81 53 3c 32 c8 aa 3c
       0.17069776 -0.0019594617 0.012909215 0.020847414
0002e0 86 40 b9 3c 0a 22 18 bd e4 90 6d 3d 23 da 59 3c
       0.022613775 -0.037141837 0.057999507 0.013296637
0002f0 53 af c4 bb c8 7d f4 bd 51 c5 ae bb a4 83 3c bd
       -0.0060023456 -0.11938053 -0.0053335805 -0.04602398
000300 21 c5 36 be 64 65 58 3d 93 57 6b bd 53 28 82 bd
       -0.17848636 0.05283107 -0.057456564 -0.063553475
000310 bc 63 51 3c 82 4a 5d 3c c7 b1 89 3d 2c e0 c5 bb
       0.012780126 0.013506534 0.067233615 -0.0060386863
000320 8e 5c d7 bd 6f 7d 34 3d 4e 62 be bd 2c bc e5 3d
       -0.105157 0.044064935 -0.09296094 0.112175316
000330 08 46 77 bd 48 4c bf 3d 80 99 c7 3c db e1 7b bd
       -0.06036952 0.09340721 0.024365187 -0.06149469
000340 36 8b 06 bd 8d c8 3d bd 16 7d ec 3d eb 2b 3b be
       -0.032847606 -0.04633384 0.11547296 -0.18278472
000350 39 9a 40 3d cc 85 c4 bd 05 2f 62 bd 1e 37 2e bd
       0.04702208 -0.09595832 -0.055220623 -0.042533033
000360 7a c0 4f bc eb 7f d5 3c 2a c1 fb 3a cf 40 2f bd
       -0.012680167 0.026061973 0.0019207348 -0.042786416
000370 04 da fe 3d dd c0 92 3d 2e 59 1c 3e 8e c1 f5 bc
       0.12443927 0.07165692 0.15268394 -0.02999952
000380 b1 74 8d 3c ce 56 2e 3d de 74 49 bd f9 29 33 be
       0.017267557 0.042563252 -0.04918372 -0.1749648
000390 e6 63 04 3e 3e 40 80 bd f4 65 89 3c 5f 2b 08 3e
       0.12928733 -0.06262253 0.016772248 0.13297795
0003a0 f9 b4 b2 3d dd 42 d3 3d b3 04 0e 3e 0c 28 b6 3d
       0.08725924 0.103154875 0.1386898 0.08894357
0003b0 a5 9c 54 3e f4 b8 4b be 92 e9 93 bc 85 f9 c6 3d
       0.2076288 -0.19894773 -0.018055711 0.09715561
0003c0 ba 66 2d 3c 3c ca 21 3d 43 ae ae bd 76 d8 80 bd
       0.010583574 0.039499506 -0.085293315 -0.06291287
0003d0 5a 8d 55 3d f5 72 73 3d d5 92 26 bd 3a 33 6a bb
       0.052136756 0.059435803 -0.040667374 -0.00357361
0003e0 47 0d c3 3d 1a b9 0b 3e 20 e9 80 bd 1f 09 b5 bd
       0.09524017 0.1364483 -0.06294465 -0.0883963
0003f0 4a 3c 6b 3d 20 51 75 bd 48 f9 80 3b ca 46 8f bc
       0.057430543 -0.05989182 0.0039359666 -0.01748981

network_body._body_endoder.seq_layers.2.bias f4 [128]
000000 b9 04 9b 3c 81 21 b3 bc 31 4f 76 3c bb 7e d0 bc
       0.01892315 -0.021866562 0.015033529 -0.025451055
000010 fa 50 94 3c 7e 61 92 bc 1b bb 38 3c d4 f0 7b 3c
       0.018105019 -0.017868754 0.011275078 0.015377242
000020 cf e0 80 3b 12 a9 a9 bc 77 44 31 3c f6 cb e3 bb
       0.0039330493 -0.020710502 0.010819546 -0.0069518043
000030 90 83 7c 3b cd 87 f5 3c 44 a9 da 3c 3f 5b a7 bc
       0.0038530566 0.029971981 0.02669204 -0.020429252
000040 95 1b af bc 2c 1e b4 bc 0a 38 c6 3c c9 6d 9f 3c
       -0.021375457 -0.021987043 0.024196643 0.01946153
000050 75 24 8d bc a8 38 0a bc df 69 43 3c f5 18 00 3d
       -0.017229298 -0.008436359 0.011927097 0.0312738
000060 6d 4e 83 bc e9 f2 9c bc bc 89 a0 3c f7 5a a2 3c
       -0.016028607 -0.019158797 0.019596927 0.019818766
000070 78 1e a5 bc a2 d7 c9 3c 97 06 a9 bc 13 8b 13 3d
       -0.02015613 0.024638955 -0.020633025 0.036021303
000080 d7 92 23 bc 9d 32 a5 3c 12 aa 7e 3c 3d 73 d9 3b
       -0.00998374 0.020165736 0.015543478 0.006636052
000090 ab 64 a3 3c b8 13 c8 3c 17 c8 ee bc f5 76 2a 3c
       0.019945463 0.024423465 -0.029148145 0.010404338
0000a0 7f f7 3a bc de fe fb bb f0 27 9c bb 7d 2d c2 3c
       -0.011411547 -0.0076902946 -0.004765503 0.023703331
0000b0 e3 ac 10 bc c7 9b a1 bc 27 ba a2 3c b4 ae ce 3c
       -0.008830282 -0.0197276 0.019864155 0.02522979
0000c0 ad ab 9f 3b 94 a2 c6 bc aa 29 8c bc 39 15 eb 3c
       0.0048727603 -0.024247445 -0.01710971 0.028696643
0000d0 89 16 90 3c d1 a6 f6 3c 77 77 64 3c 16 d0 7a 3b
       0.01758887 0.030108841 0.013944498 0.0038271002
0000e0 40 39 70 3c 2c bd 47 3c e3 51 02 3d 49 64 a0 bc
       0.014662087 0.012191098 0.031816375 -0.01957907
0000f0 97 6a d0 3c 3d 78 1b 3c 8f c2 e1 3c 57 a9 94 bc
       0.025441451 0.009489116 0.027558593 -0.018147154
000100 51 b7 d0 3b 07 dc b7 bc 87 9c 7b bc d0 a0 0b bc
       0.0063695093 -0.022443784 -0.015357143 -0.008522227
000110 59 01 95 3c e2 fc e1 bc f3 82 c5 bc 38 0f a4 bc
       0.01818912 -0.027586404 -0.024110293 -0.020026788
000120 e5 11 b9 bc 1a 39 c6 bc cd 65 86 bc 77 79 8a 3c
       -0.02259154 -0.02419715 -0.016405964 0.016903622
000130 a5 2f 21 bb cd f5 b3 3c c8 8b eb 3c 88 fd 22 bb
       -0.0024595049 0.021967793 0.028753176 -0.0024870355
000140 31 5c 76 bc d2 61 f3 bc 1d 85 ef bc 4b a9 be bc
       -0.015036629 -0.02970973 -0.029238278 -0.023274085
000150 d0 aa 28 bc 79 0d 6c 3c 40 05 c2 bc 47 d4 bc bb
       -0.010294631 0.014407509 -0.023684144 -0.00576261
000160 11 da bf bc d6 e2 b0 bc fc 76 bc bc c8 93 01 3d
       -0.023419412 -0.021592539 -0.023005955 0.031635076
000170 97 44 24 3c 0e d3 d8 bc 89 ef 91 bc 9d 84 d9 3c
       0.010026119 -0.026467826 -0.017814415 0.026552493
000180 82 02 ba 3c 1b 5a 67 bc 52 e0 d9 39 c6 71 81 3b
       0.022706274 -0.014120604 0.00041556597 0.0039503304
000190 2e a3 c9 3c d6 1c 8c 3c be e2 87 bb a4 bf ae 3c
       0.024613943 0.017103594 -0.004146903 0.021331616
0001a0 e6 cc 96 3c 39 2e bc bc 62 2e dd 3c 95 59 d8 3c
       0.01840825 -0.02297126 0.026999656 0.026409904
0001b0 61 38 1a 3a 8c c9 da bc f4 01 72 bc f0 8f 53 3c
       0.0005883035 -0.026707433 -0.0147709735 0.012912735
0001c0 11 fa ae 3c 7f 17 c8 3b a0 dd b0 bc 6d 81 45 bc
       0.021359475 0.0061063166 -0.021590054 -0.012054783
0001d0 8b 11 b5 3c da 2a c9 3c 8a 57 cc 3c 46 dd 33 bc
       0.022103092 0.024556566 0.024944086 -0.010978049
0001e0 47 fd d3 3c 24 d3 e2 bb 71 16 c8 bc fd 47 b5 3c
       0.025877608 -0.0069221426 -0.024424763 0.022129053
0001f0 a0 26 e5 3c a7 a1 62 bb 0a 86 c6 3c 72 c9 25 3c
       0.02797252 -0.0034581216 0.024233837 0.010118829

action_model._continuous_distribution.log_sigma f4 [1, 2]
000000 7c 84 6d 3c 82 fe 49 3a
       0.014496919 0.0007705466

action_model._continuous_distribution.mu.weight f4 [2, 128]
000000 6d 7a 88 3c 60 2e c5 bb bf 0f cf 3a 89 e5 9c bb
       0.01665994 -0.006017491 0.0015797539 -0.004788105
000010 7f 08 86 bc 19 dc 0f 3d ca 88 b1 bc 35 82 50 bc
       -0.016361473 0.03512201 -0.021671671 -0.012726356
000020 8b 53 7a bc 37 8a 38 3c 8b 17 b7 3c 6b 53 c7 bc
       -0.015278707 0.011263422 0.022350093 -0.024331769
000030 f7 4e c5 3c cf 7e 6d bc e7 4d e2 bb 0a 44 78 3c
       0.024085505 -0.014495566 -0.0069062593 0.0151529405
000040 94 dc cf bb a2 b3 b7 3b b6 c5 7b bc 54 58 c0 3b
       -0.0063434336 0.0056061307 -0.015366962 0.0058699045
000050 ea 36 c8 bc 2f 6e 9a 3c bc 44 e4 bc d2 8b 09 bc
       -0.024440248 0.018851368 -0.027864806 -0.008395152
000060 6a 52 03 3d 0d 6d 37 bb e6 1e 8e 3c c4 20 14 3c
       0.032061018 -0.0027988583 0.017348718 0.009041015
000070 78 db cc 3a 62 9d 8d bb 90 1d f1 3c b1 2e ff ba
       0.0015629372 -0.00432174 0.029433042 -0.0019468871
000080 67 fd 6f 3a bb bb a3 3b e2 3d 42 bc 7e 78 ea bc
       0.00091548864 0.0049967445 -0.011855574 -0.028621908
000090 c8 b8 b5 bb 77 27 09 bc 11 f3 08 bc 5f 00 a1 3c
       -0.0055457093 -0.008371226 -0.008358733 0.019653497
0000a0 a0 7a 23 3d 5e ef 10 bc 80 b4 0b bd 5a 7b 1b 3b
       0.039911866 -0.008846132 -0.034107685 0.0023724646
0000b0 ed 7c 63 3c 44 a4 8e 3c 42 43 d4 3c c7 7b 97 bc
       0.013884765 0.017412312 0.025910977 -0.018491639
0000c0 a3 d7 aa bc da b6 c7 3b db ee 20 bc 1a 62 79 3c
       -0.020854777 0.0060947957 -0.009822573 0.015221143
0000d0 f2 a6 89 bc 4d 66 3a ba 60 34 3a bd 34 e0 8c 3b
       -0.016803239 -0.0007110581 -0.045460105 0.004299188
0000e0 54 17 15 bc ae ba 01 3d 4f 2f 7b bc 92 b1 9d bb
       -0.0090998 0.031672172 -0.0153311035 -0.004812428
0000f0 39 8d a0 3b 97 08 0c bd 61 d6 c8 bb 33 75 a6 3c
       0.0048996476 -0.03418788 -0.0061290716 0.020319557
000100 1d 98 dd bc d3 b2 39 3c a6 87 e4 3c f1 86 cf bc
       -0.027050072 0.011334139 0.027896713 -0.0253329
000110 40 b2 61 bc 56 71 77 3b 48 33 41 bb 9a 15 9d 3b
       -0.013775408 0.0037756762 -0.002948003 0.004793835
000120 40 68 06 3b a5 83 5f 3c a4 3a 09 bd 48 79 ff 3b
       0.0020508915 0.013642226 -0.03350319 0.0077964403
000130 82 3e dd 3c 13 a7 25 bc 63 56 45 bc 2d 32 b4 bc
       0.027007345 -0.010110634 -0.012044522 -0.021996582
000140 2d ed a7 3c 7f a7 b2 bb 27 8e b2 3b e6 01 ca 3b
       0.020498836 -0.005452096 0.005449075 0.006164777
000150 a3 6c 14 bc 34 d5 94 bc 14 79 02 bc 2c 73 9c bc
       -0.009059104 -0.01816807 -0.007963438 -0.019097887
000160 bb 77 9f 3a 6f 41 24 3b b1 7a 5c 3b 90 55 c5 3a
       0.001216642 0.0025063416 0.0033642466 0.0015055407
000170 ba a5 f9 bc f2 ba 8e bc ce 0b c9 3c 21 80 5b 3b
       -0.030474532 -0.017423127 0.024541762 0.0033493119
000180 b7 a5 14 bb f5 d2 28 3c 38 ce df bc 52 7c 27 bd
       -0.0022681782 0.010304202 -0.027320012 -0.040890045
000190 fa e3 b0 bc 15 cd e0 bc 4f d3 96 3c b1 ad 15 bd
       -0.021593083 -0.02744154 0.018411307 -0.0365426
0001a0 72 f1 da bc 4d ba 42 bb e8 71 1b bc 87 fa 40 bb
       -0.026726458 -0.0029713095 -0.009487607 -0.00294462
0001b0 3f ad 21 bc 66 48 4f bb 63 39 94 bc ea 7a 0c bd
       -0.009867965 -0.0031628846 -0.01809377 -0.034296907
0001c0 0c 14 44 3c 2f c9 83 3b fe fe 82 bb dd 8c fa 3c
       0.01196767 0.0040217857 -0.0039976826 0.030584747
0001d0 71 20 fd bb 7f d8 fc ba 7b 97 0c bd 5e d9 8a 3c
       -0.0077248146 -0.0019290595 -0.03432415 0.016949352
0001e0 6e f0 9a 3a 7e ef 11 b8 88 45 48 3b 60 5b 9a bc
       0.0011820921 -3.479374e-05 0.0030559022 -0.0188424
0001f0 85 39 dc bb 9a 48 32 3c 8a e8 76 bc 98 32 a2 3c
       -0.006720724 0.010881567 -0.01507009 0.019799516
000200 ee 9a 0b bd 93 d3 80 3c 8c 73 97 bc 56 81 c7 3c
       -0.0340833 0.015725886 -0.018487714 0.024353664
000210 10 c7 b5 bc 34 41 fd 3c a0 97 b0 bb c9 d9 8c bb
       -0.022189647 0.03091488 -0.005389169 -0.004298423
000220 84 8f 40 3a 46 03 8b 3c 5c b2 81 bc c3 1a 9c 3c
       0.0007345604 0.016969334 -0.015832119 0.01905573
000230 d3 ce 06 bc 94 58 f6 bc f2 a9 c3 bc 62 67 bc 3c
       -0.008228022 -0.030071534 -0.023884747 0.022998516
000240 fa eb e6 3c 6c f1 e4 3b 3d 9a fe bc 12 cd 8f bc
       0.028188694 0.0069867875 -0.031079406 -0.01755384
000250 1b 1e 01 3d 86 81 8b bb c4 12 0c bc 07 34 5e bd
       0.03152285 -0.0042573838 -0.008549396 -0.054248836
000260 41 8f e6 3c 44 5e d8 3b f6 40 bc bc e4 13 e5 bc
       0.02814448 0.006603034 -0.022980195 -0.027963586
000270 79 e8 e7 3b 0b ca d9 bc 22 39 0a 3d 4e 12 ca bc
       0.0070772734 -0.0265856 0.033745892 -0.024666931
000280 e4 56 f9 39 c5 44 b2 bc 13 d0 60 bc cd 7a 4e 3b
       0.0004755772 -0.021761307 -0.013721484 0.00315063
000290 3b 3c 08 bc 4b 56 06 bc 93 31 5d 3c 9b 60 9d bc
       -0.008315141 -0.008199285 0.013500589 -0.019211104
0002a0 1f 82 81 3c d1 9e 04 3c a9 c4 56 3c 01 d3 ab bc
       0.015809117 0.008094505 0.013108411 -0.020974638
0002b0 4e ca b4 39 a1 38 a4 3c 67 b4 18 bd 4b 3c a7 bc
       0.00034483004 0.020046534 -0.03728142 -0.020414492
0002c0 fc ab c5 ba 91 1b 2f 3c 7b 95 51 3c e6 c8 bd bc
       -0.0015081163 0.010687725 0.012791987 -0.023167085
0002d0 26 84 89 bc 3a 08 9c bc 92 89 9a bc 4c 90 14 3c
       -0.016786646 -0.019046891 -0.018864427 0.009067606
0002e0 34 a7 36 bb 52 36 d1 bc 89 94 16 bd 5f 72 13 3d
       -0.0027870657 -0.025538597 -0.036762748 0.035997745
0002f0 44 19 14 bd de 57 f9 bb f2 6c 37 bd 78 c1 c6 3c
       -0.036156908 -0.0076093515 -0.044781633 0.024262175
000300 58 91 d1 ba 35 0c bf 3c a5 c3 6e 3c ae 6f b9 3c
       -0.001598875 0.02332125 0.0145730125 0.02263626
000310 8e a4 2c bc d0 6a dc 3c 77 ba 86 3c cf c4 94 3c
       -0.01053728 0.0269064 0.016446335 0.018160252
000320 e4 84 5a 3c 12 01 2d 3c 74 d6 4a 3c ae af 6e bc
       0.013337348 0.010559337 0.012380231 -0.0145682525
000330 24 63 04 bc 0b 8e 85 bc 81 fa 25 bd a9 b4 9e 3a
       -0.008080278 -0.016303083 -0.040522102 0.0012108284
000340 3e bb 47 3c b3 24 e5 3c 9f 68 ab 3c 54 68 3a 3c
       0.012190638 0.027971601 0.02092391 0.011377413
000350 f5 86 e1 3b be d7 ad bb ae 73 b0 3c 8a 3a 11 3c
       0.006882543 -0.0053052595 0.021539535 0.008864054
000360 cf 3b 0c 3d 22 0e eb 3c fe b3 6a 3c 24 ff 04 bd
       0.034236725 0.028693262 0.01432514 -0.032469884
000370 4a ba 7d bc 95 c0 23 3d 1e 01 f0 3c 8e 85 77 bc
       -0.015486309 0.039978582 0.029297408 -0.0151075255
000380 b5 bc ac bc a0 55 29 3b b2 e8 99 bb 06 00 17 3c
       -0.021086076 0.002583839 -0.004696929 0.009216314
000390 ef e0 be bc 5d 92 05 bd dd 22 bd bb a6 ed d0 bc
       -0.023300616 -0.032610286 -0.0057719783 -0.025503945
0003a0 f5 a8 47 bc 45 08 21 3c b4 00 19 bd 75 e9 4c bc
       -0.012186279 0.009828632 -0.037354186 -0.012506832
0003b0 02 6b 94 3b 7c 19 bb 3c 64 54 bd 3c d1 f7 3a bb
       0.004529358 0.0228393 0.02311153 -0.0028529058
0003c0 48 51 cb bc 4b 0b 74 ba 62 6b 70 3c b8 07 56 3c
       -0.024819031 -0.0009309544 0.01467404 0.013063364
0003d0 a6 34 8d bc 86 38 ae bc 5a ac 1b bd 2b 56 7a 3b
       -0.017237019 -0.021267187 -0.038006164 0.0038198333
0003e0 fe 31 c5 bc 90 98 eb b8 52 31 03 3c 84 72 49 ba
       -0.02407169 -0.0001123409 0.008007364 -0.00076846057
0003f0 9a 28 a8 bc d9 96 20 3a 24 3b 38 bc d1 ea c4 bc
       -0.020527173 0.00061259937 -0.011244569 -0.02403775

action_model._continuous_distribution.mu.bias f4 [2]
000000 50 92 aa bb 0a ed d5 bc
       -0.00520543 -0.026114006

action_model._discrete_distribution.branches.0.weight f4 [1, 128]
000000 8a de 52 3b fd e2 58 b9 7b 56 48 3c de 89 03 bc
       0.00321761 -0.00020683925 0.01222765 -0.008028476
000010 a0 15 ca 3b 0d 1a cb 3b 93 fb 8e 3b 47 5f fa 3b
       0.0061671287 0.006198174 0.004363486 0.0076407525
000020 83 7d b9 bb 2a 4d 55 bc 1b 74 6b 3b fb f5 3d 3c
       -0.005660714 -0.013018886 0.0035927359 0.011594291
000030 f4 57 48 3c 46 51 1a bb c5 ae 2b bb d4 72 13 bb
       0.012228001 -0.0023546978 -0.00261967 -0.0022498863
000040 de 8d b6 ba 1d 1c 6d 3c ee 50 01 bc bf 23 15 bc
       -0.0013927778 0.014472035 -0.00789283 -0.009102761
000050 2c 00 46 bc 82 a1 e8 b9 ba ae a5 bb 64 b8 3a bc
       -0.012085002 -0.0004437082 -0.0050562294 -0.011396501
000060 9b 26 0d 3a 7b 29 9a bb a7 a6 9a 3b cc e5 18 3a
       0.0005384476 -0.004704652 0.0047195735 0.0005832582
000070 0d 68 b6 39 5b 5d 2e 3c c5 92 c3 3a 48 6d 80 bc
       0.0003479127 0.010642375 0.001492106 -0.01567711
000080 6e d0 a0 bb ab cf a6 bc a7 01 6c bc 4d f7 20 bc
       -0.0049076593 -0.020362696 -0.014404691 -0.009824586
000090 6a 58 4f bb 2f 71 87 3c ba 00 e9 3b 07 d1 a5 3b
       -0.0031638392 0.016533462 0.0071106823 0.0050603184
0000a0 4f e1 81 3b 72 6a 26 bc d5 54 df bb 6e 5d 14 bb
       0.0039636265 -0.0101572145 -0.0068155327 -0.0022638696
0000b0 29 7e 80 3b ea 00 fc 3b f1 54 87 3c 3a 43 0e ba
       0.0039212895 0.0076905387 0.016519995 -0.00054268877
0000c0 5f 02 08 3c aa f4 e7 bb f3 ab 47 bb 8f e6 67 bb
       0.008301347 -0.007078727 -0.003046748 -0.0035385226
0000d0 ea c5 e0 3b f3 f1 fc 3b 2f 8c 5b 3c ca 3a f0 bb
       0.0068595307 0.0077192723 0.013400122 -0.007331227
0000e0 59 30 27 3b a6 3f 40 bb 2d 04 db 39 7b cf f8 39
       0.0025510995 -0.0029334812 0.00041774046 0.0004745683
0000f0 7a e2 b3 3a 0f b0 65 bc 07 62 8a 3a 4f 34 2b 3c
       0.0013724111 -0.014019026 0.0010557779 0.010449483
000100 13 c1 8f bb 62 e3 48 3c 35 23 6a b9 cb 91 df bb
       -0.00438703 0.012261244 -0.00022329095 -0.0068228
000110 ef d0 d2 3b bd 7c aa 3a 42 3f 66 bb 88 f5 e6 3b
       0.006433598 0.0013007146 -0.003513292 0.0070483126
000120 40 e4 0c bc 1c 82 99 3b 59 43 ae 3b 8f 5a 21 bb
       -0.008599341 0.0046846997 0.005318087 -0.0024620628
000130 dd e1 25 3b 5b ca 34 bc 25 c2 fc bb bb 31 89 bb
       0.0025311627 -0.011034573 -0.0077135735 -0.0041868365
000140 6c 3a 86 3c 0a a0 92 3a 43 8c 25 3b f7 a6 16 3c
       0.01638528 0.0011186611 0.0025260604 0.009195081
000150 b1 82 43 3b 68 bf 69 bc 2b 3b 84 3a ee e5 12 bc
       0.0029832537 -0.014266826 0.0010088434 -0.008965952
000160 4e 68 8b 3b 1d 97 6e bb 50 f9 5a 3b 0f 4b 9a bc
       0.0042543774 -0.0036405989 0.0033412762 -0.018834619
000170 78 cb a6 3b f9 77 a7 3b a0 99 7b 3c 98 96 fa bb
       0.0050901733 0.0051107374 0.015356451 -0.0076473467
000180 2f 05 5e bc ef 8d 28 bc 27 61 69 bc ea d9 c1 3b
       -0.013551041 -0.010287746 -0.014244354 0.00591587
000190 9f ab 2b bc cb 41 69 3c ec d3 2c 3c 88 54 17 bb
       -0.010477929 0.014236878 0.010548573 -0.0023091156
0001a0 02 a7 25 bb ef 24 1d ba c6 32 b6 ba 46 5f 2d 3a
       -0.0025276546 -0.0005994578 -0.001390063 0.0006613623
0001b0 37 34 81 bb 27 5a c7 bb b8 6b 33 bb fa aa b8 b8
       -0.003942992 -0.006083745 -0.0027377438 -8.8056506e-05
0001c0 a8 37 09 bc d8 0a 56 bc cb 13 35 bc 30 84 e1 3b
       -0.008375086 -0.013064109 -0.011052082 0.006882213
0001d0 15 ba 86 b8 71 01 14 3c 72 74 d4 3b 2d 00 a6 3a
       -6.4242784e-05 0.009033547 0.006483608 0.0012664847
0001e0 65 01 2e 3c d5 f2 69 3c 1b 74 be bb c8 e4 0c bb
       0.01062045 0.014279087 -0.0058121807 -0.002149867
0001f0 df 24 23 bc 3b 81 81 ba 82 36 2c 3c fa cc 7f 39
       -0.009957521 -0.0009880433 0.010511043 0.00024395055

onnx::Div_70 f4 [12]
000000 89 c5 98 3c 0e ff 8a 3d b3 54 dc 3b ea 42 69 3e
       0.01864888 0.06786929 0.006723964 0.22779432
000010 d0 e8 fd 3e f0 52 8e 3e 95 64 8e 3e 43 d9 f4 3e
       0.49591684 0.2779765 0.27811113 0.47822008
000020 f3 7a 1b 3c 1e e3 a4 3c 0d e5 f7 3e ad 9e b5 3e
       0.009489763 0.02012783 0.4841694 0.35472623
