results/squire_training/SquireAgent/SquireAgent-0.pt (torch, 147967 bytes, 20 tensors)

network_body.observation_encoder.processors.0.normalizer.running_mean f4 [2]
000000 00 00 00 00 00 00 00 00
       0.0 0.0

network_body.observation_encoder.processors.0.normalizer.running_variance f4 [2]
000000 00 00 80 3f 00 00 80 3f
       1.0 1.0

network_body.processors.0.normalizer.running_mean f4 [2]
000000 00 00 00 00 00 00 00 00
       0.0 0.0

network_body.processors.0.normalizer.running_variance f4 [2]
000000 00 00 80 3f 00 00 80 3f
       1.0 1.0

network_body._body_endoder.seq_layers.0.weight f4 [128, 2]
000000 78 d7 81 bf 43 31 e3 bd 16 08 20 bf c5 2a 8c 3e
       -1.0143881 -0.1109338 -0.6251234 0.2737638
000010 c7 a4 6f bf 75 b6 2b 3f 99 e6 98 be 46 50 5a bf
       -0.93610805 0.6707528 -0.29863432 -0.8527874
000020 70 fb 9f be 6e 89 5b 3d 7c b2 5c be 4c 47 97 bf
       -0.3124652 0.05359786 -0.21552461 -1.1818633
000030 81 c2 07 3b 5e 0a c4 3e 9d 25 81 be fe a7 13 be
       0.0020715299 0.3828916 -0.2522401 -0.14419553
000040 14 9c be bd f3 fe ad bd f5 71 bd 3e fb 0b a1 3d
       -0.09307113 -0.08495893 0.37001005 0.07863613
000050 a2 03 13 3f a2 75 f5 3e 54 1a de bc 40 a6 68 3f
       0.5742742 0.4794131 -0.027112164 0.9087868
000060 87 90 d2 be 3d db 99 bf 84 61 f3 3d 96 98 62 3f
       -0.4112589 -1.2020031 0.11883834 0.8851408
000070 17 65 79 bf d3 ac 9f bf 24 b9 9d 3f 0f 01 ac bf
       -0.97419876 -1.2474617 1.2322125 -1.3437823
000080 8d 6a 8e 3e 4c 15 4e be cc 7a 1e 3f aa 33 65 bc
       0.27815667 -0.20125312 0.61906123 -0.013989368
000090 e5 c9 ae bf 3c a4 6f 3f 69 e1 54 3e 38 d3 0f 3f
       -1.3655363 0.93609977 0.20789112 0.5618167
0000a0 78 42 71 bf e7 1c 6e be 40 e1 ab bf dc 28 25 bf
       -0.9424205 -0.23253213 -1.3428116 -0.6451547
0000b0 f4 e9 bc bf 8a 62 0f 3f 78 f6 d7 3e ac 10 de 3f
       -1.4758897 0.56009734 0.42180228 1.7348838
0000c0 ca 21 ae bc d2 44 44 3f 3d b4 d9 3e d1 e7 39 3e
       -0.021256346 0.7666751 0.42520323 0.18154837
0000d0 50 bc 35 3f 46 ce f8 3e 59 39 5c 3d 55 48 58 bf
       0.7099047 0.48594874 0.05376563 -0.8448537
0000e0 c6 36 34 be fa ae 62 be 17 e9 97 3f 17 a1 50 bf
       -0.1759902 -0.22137061 1.1868008 -0.81495804
0000f0 22 33 a6 be 83 7c 0c bf 57 ec 88 3f 49 5a 0a 3f
       -0.32460886 -0.5487749 1.0697125 0.54044014
000100 5a 03 c4 bb 3a eb 79 be 53 f3 6d bf 8c c9 43 be
       -0.005981845 -0.24406138 -0.9294941 -0.19119853
000110 e9 d9 6e be 23 6c a3 3f 20 fd a0 bf b9 28 c5 bd
       -0.23325314 1.2767376 -1.2577248 -0.09626908
000120 e0 bb de 3e 33 dc 22 3f fa 3d 35 3e f4 5c b9 3f
       0.43502712 0.6361725 0.17699423 1.4481492
000130 64 2f 95 3e 4e 2d db bd 0b 7d 17 bf 64 82 02 40
       0.2913772 -0.107020006 -0.59175175 2.0392084
000140 8f f3 71 3f c3 a5 8e bf 86 ab 09 3e c5 c4 02 3d
       0.94512266 -1.1144336 0.13444337 0.031925935
000150 39 6c 1f 3f 2e b7 2f bf 5b 2a 1f bf 92 27 e2 3e
       0.6227451 -0.68638885 -0.62174004 0.44170815
000160 6d 59 36 bf 43 ab 92 3f e6 c0 2d 3f f8 ec 39 3f
       -0.712302 1.1458515 0.67872465 0.7262721
000170 86 50 0e 3e cb 0e dc bd 83 05 7c be 1a 19 10 be
       0.13897905 -0.10745009 -0.24611478 -0.14072075
000180 30 85 c2 3f ca ad 27 3e 23 e4 e2 3e f1 62 7d 3f
       1.5196896 0.16374889 0.4431468 0.989791
000190 5b 71 45 3f 70 98 ba 3e f9 16 8c be 36 7c 9f bd
       0.7712609 0.36444426 -0.27361277 -0.07787363
0001a0 a8 04 37 3e 2d f1 0b be 49 a1 1a 3e 34 f3 09 3f
       0.1787287 -0.1366622 0.15100588 0.53886724
0001b0 c7 11 50 bf ea 82 81 3e a0 3b f3 bc 36 88 d8 be
       -0.81277126 0.25295192 -0.029691517 -0.4229142
0001c0 2d e8 9c 3d 2b a4 97 be 27 ae ad bd b9 77 ad 3f
       0.076614715 -0.29617438 -0.084804825 1.3552161
0001d0 91 54 34 bf 1c db 51 bf 28 2b 4a 3e 38 62 34 3f
       -0.7044154 -0.8197496 0.19743025 0.7046237
0001e0 35 38 09 bf 05 79 f0 3d 69 27 d9 be d4 8a 50 3c
       -0.5360139 0.11741833 -0.4241288 0.012728412
0001f0 a3 ec 77 be 2d 35 a9 bf 5a 85 8d 3e 85 c1 42 bf
       -0.24211363 -1.3219353 0.27640802 -0.7607654
000200 f4 a8 2c 3d cb 58 a3 3f 17 91 13 3f 8c 4e 7e 3f
       0.042153314 1.2761472 0.57643265 0.99338603
000210 12 35 58 3f ad 6d a3 bd 2b d9 d2 bf 4c 1a 5f 3f
       0.8445598 -0.07979903 -1.6472524 0.871495
000220 8b 1e 73 be 34 07 c3 3e 36 22 b2 be b2 f7 d3 bc
       -0.2374212 0.38091433 -0.34791726 -0.025874946
000230 83 6f 1d bc a5 af bb bf c5 c5 0c bf c8 4d 4a 3f
       -0.009609106 -1.4662977 -0.5498927 0.79024935
000240 d0 7b fd 3e 0d 80 b0 3e f5 c7 de bb 76 b5 35 bf
       0.49508524 0.34472695 -0.006798739 -0.7098001
000250 ff 1f b7 3d f3 04 df bd 74 69 b9 3e d8 2b c3 3f
       0.0894165 -0.10889616 0.36213267 1.5247755
000260 6b 9f 61 be 1c fd 16 3e 3d 3e e5 bd 96 34 3b be
       -0.2203347 0.14744991 -0.11193512 -0.18281779
000270 5c 61 85 bf c3 0f 91 3f 9d f6 94 3e 12 05 04 bf
       -1.0420337 1.1332935 0.290944 -0.51570237
000280 55 ff 60 bf 58 5d f7 bd ec 33 35 bf 61 8a 73 bd
       -0.87889606 -0.12078351 -0.7078235 -0.05945814
000290 27 23 d6 3d 2d 7d 80 3f 47 6e d2 3f 2f b7 90 3f
       0.104559235 1.0038201 1.6439904 1.1305903
0002a0 43 e6 cd bf 21 a5 da be 17 28 f6 3e 42 71 59 be
       -1.6085895 -0.42704108 0.4807746 -0.2123461
0002b0 f5 17 41 bf 63 bb 0a bd e0 69 db 3e fa 7d 83 bf
       -0.7542718 -0.033870112 0.42854214 -1.027282
0002c0 90 18 01 3f e1 b0 47 3f 13 38 d6 3e 53 3f 43 3f
       0.50428104 0.7800427 0.41839656 0.762685
0002d0 03 d5 b2 bd 58 0f 32 3e 05 26 91 3d 4c 54 c4 be
       -0.08732035 0.17388666 0.0708733 -0.38345563
0002e0 7c c4 a3 bc 5c a0 f2 bc 8a 5b 85 3e 2f c7 38 3f
       -0.019991152 -0.029617481 0.260464 0.7217893
0002f0 67 a4 05 bf 9f 0e 70 be a5 30 e7 bb 80 9d ec bc
       -0.52203983 -0.23443078 -0.0070553594 -0.028883696
000300 5c c3 87 3f 75 c4 6c 3f a8 6d 50 be 11 49 02 bf
       1.0606494 0.9248727 -0.2035433 -0.5089274
000310 24 15 db bf b0 f1 3d bf 10 10 56 3f 5c 68 b2 3f
       -1.7115827 -0.7419691 0.8361826 1.3938098
000320 7e e5 a7 3e 0c 7b 2d 3e d1 c5 d9 be 19 ff c6 bf
       0.32792276 0.1694147 -0.42533734 -1.55466
000330 96 11 8a be b6 bd e4 be 5a cb c0 3f 58 0d c7 3f
       -0.26966542 -0.44675988 1.5062058 1.5550947
000340 e1 a5 3d bf 1e ef 7e bf 90 67 8e be 91 08 f4 3d
       -0.74081236 -0.99583614 -0.27813387 0.119156964
000350 6c 74 6e be ab cc 94 bd e4 02 0e be 62 70 f8 3d
       -0.23286599 -0.072656 -0.1386829 0.1213081
000360 1e c0 35 bf f6 ae 18 bf 7e 84 d3 3f 84 e2 32 bf
       -0.7099627 -0.5964197 1.6524808 -0.69876885
000370 f4 be 4e bd c2 7e 10 3f e6 7d 0a bc b3 ef e0 3d
       -0.050475076 0.5644342 -0.008452868 0.10983219
000380 cc 0f 8c 3f 41 2e bb bf a6 21 02 3f 6a e5 d1 3e
       1.0942321 -1.462349 0.50832593 0.40995342
000390 f6 89 3d bf 2a 9c 54 3f 57 6a 03 3e a1 0e 60 bf
       -0.74038637 0.8305079 0.12833534 -0.8752232
0003a0 bd da 77 3e c5 5a 9f bf 58 a1 06 bf 11 aa ac be
       0.24204536 -1.2449576 -0.5258994 -0.337235
0003b0 0b 8a 7f bf f1 be 63 be 64 d8 f8 3d 87 6b 12 bf
       -0.9982001 -0.22240807 0.12150648 -0.57195324
0003c0 55 30 0e be 79 30 42 3f 9c 6c fe 3d 37 30 4a be
       -0.13885625 0.75855213 0.12423059 -0.19744955
0003d0 66 79 1a 3d 69 50 a4 be 47 c6 76 3d 24 45 45 3f
       0.03771343 -0.32092598 0.060247686 0.77058625
0003e0 6e c1 84 3e d3 91 75 3e 57 7a 42 bf 20 a7 77 3f
       0.25928825 0.23981409 -0.75967926 0.9673939
0003f0 e1 4f ec 3e f0 21 9b be ee 51 83 be 18 5f 39 be
       0.46154693 -0.3029933 -0.25648445 -0.18102682

network_body._body_endoder.seq_layers.0.bias f4 [128]
000000 00 00 00 00 00 00 00 00 00 00 00 00 00 00 00 00
       0.0 0.0 0.0 0.0
000010 00 00 00 00 00 00 00 00 00 00 00 00 00 00 00 00
       0.0 0.0 0.0 0.0
000020 00 00 00 00 00 00 00 00 00 00 00 00 00 00 00 00
       0.0 0.0 0.0 0.0
000030 00 00 00 00 00 00 00 00 00 00 00 00 00 00 00 00
       0.0 0.0 0.0 0.0
000040 00 00 00 00 00 00 00 00 00 00 00 00 00 00 00 00
       0.0 0.0 0.0 0.0
000050 00 00 00 00 00 00 00 00 00 00 00 00 00 00 00 00
       0.0 0.0 0.0 0.0
000060 00 00 00 00 00 00 00 00 00 00 00 00 00 00 00 00
       0.0 0.0 0.0 0.0
000070 00 00 00 00 00 00 00 00 00 00 00 00 00 00 00 00
       0.0 0.0 0.0 0.0
000080 00 00 00 00 00 00 00 00 00 00 00 00 00 00 00 00
       0.0 0.0 0.0 0.0
000090 00 00 00 00 00 00 00 00 00 00 00 00 00 00 00 00
       0.0 0.0 0.0 0.0
0000a0 00 00 00 00 00 00 00 00 00 00 00 00 00 00 00 00
       0.0 0.0 0.0 0.0
0000b0 00 00 00 00 00 00 00 00 00 00 00 00 00 00 00 00
       0.0 0.0 0.0 0.0
0000c0 00 00 00 00 00 00 00 00 00 00 00 00 00 00 00 00
       0.0 0.0 0.0 0.0
0000d0 00 00 00 00 00 00 00 00 00 00 00 00 00 00 00 00
       0.0 0.0 0.0 0.0
0000e0 00 00 00 00 00 00 00 00 00 00 00 00 00 00 00 00
       0.0 0.0 0.0 0.0
0000f0 00 00 00 00 00 00 00 00 00 00 00 00 00 00 00 00
       0.0 0.0 0.0 0.0
000100 00 00 00 00 00 00 00 00 00 00 00 00 00 00 00 00
       0.0 0.0 0.0 0.0
000110 00 00 00 00 00 00 00 00 00 00 00 00 00 00 00 00
       0.0 0.0 0.0 0.0
000120 00 00 00 00 00 00 00 00 00 00 00 00 00 00 00 00
       0.0 0.0 0.0 0.0
000130 00 00 00 00 00 00 00 00 00 00 00 00 00 00 00 00
       0.0 0.0 0.0 0.0
000140 00 00 00 00 00 00 00 00 00 00 00 00 00 00 00 00
       0.0 0.0 0.0 0.0
000150 00 00 00 00 00 00 00 00 00 00 00 00 00 00 00 00
       0.0 0.0 0.0 0.0
000160 00 00 00 00 00 00 00 00 00 00 00 00 00 00 00 00
       0.0 0.0 0.0 0.0
000170 00 00 00 00 00 00 00 00 00 00 00 00 00 00 00 00
       0.0 0.0 0.0 0.0
000180 00 00 00 00 00 00 00 00 00 00 00 00 00 00 00 00
       0.0 0.0 0.0 0.0
000190 00 00 00 00 00 00 00 00 00 00 00 00 00 00 00 00
       0.0 0.0 0.0 0.0
0001a0 00 00 00 00 00 00 00 00 00 00 00 00 00 00 00 00
       0.0 0.0 0.0 0.0
0001b0 00 00 00 00 00 00 00 00 00 00 00 00 00 00 00 00
       0.0 0.0 0.0 0.0
0001c0 00 00 00 00 00 00 00 00 00 00 00 00 00 00 00 00
       0.0 0.0 0.0 0.0
0001d0 00 00 00 00 00 00 00 00 00 00 00 00 00 00 00 00
       0.0 0.0 0.0 0.0
0001e0 00 00 00 00 00 00 00 00 00 00 00 00 00 00 00 00
       0.0 0.0 0.0 0.0
0001f0 00 00 00 00 00 00 00 00 00 00 00 00 00 00 00 00
       0.0 0.0 0.0 0.0

network_body._body_endoder.seq_layers.2.weight f4 [128, 128]
000000 e2 78 8b 3b 76 32 1c bd c6 b0 d8 3c c0 e8 89 bd
       0.0042563537 -0.03813406 0.02645148 -0.06733847
000010 d6 07 b1 3d 09 34 d1 bb 77 82 6f bd d7 8b d5 bd
       0.08644073 -0.006384377 -0.05847403 -0.10427063
000020 23 9b ef bd 83 4b 31 3d c6 ed ed 3d d4 61 31 3d
       -0.11699512 0.043284904 0.11617617 0.043306187
000030 a6 fb 9d 3d b8 7b 0a 3d 03 67 9f bd fe 87 a5 bc
       0.07714014 0.033809394 -0.0778332 -0.020206448
000040 cd 53 69 3c c5 33 60 be 58 2b ce 3d 0a e0 53 3d
       0.014241171 -0.21894749 0.10066861 0.051727332
000050 e8 06 d2 bd f4 02 1e 3c 38 ab f4 3c 43 6c b1 bc
       -0.102552235 0.009644259 0.0298668 -0.021658069
000060 9a 49 e9 3d 4e e4 b4 3d 11 06 38 3c ed 4e b5 3d
       0.113909915 0.08832608 0.011231915 0.088529445
000070 a0 e2 4f be 7b 55 d7 3d 19 4b 12 be 21 c2 a7 3d
       -0.20301294 0.10514351 -0.1428646 0.08191324
000080 23 e7 0c be 91 e5 18 be 4c 0c c4 3d 86 d0 83 bd
       -0.13760047 -0.14931323 0.09572658 -0.06436257
000090 c4 86 82 3b e5 b4 87 bd b3 16 d0 bd a0 f6 33 bd
       0.0039833505 -0.066263 -0.101605795 -0.04393637
0000a0 03 5a 6b 3c b2 58 ea bd 46 6e 8c 3c 4f f6 be bd
       0.014364722 -0.114426985 0.017142426 -0.093243234
0000b0 d3 43 e7 3d e9 91 45 3d 14 cc 1f be 81 b8 38 be
       0.11292233 0.048234854 -0.15605193 -0.18039133
0000c0 3e dd bd bd 66 08 e2 bd 54 fd b9 bd 8e 11 34 3e
       -0.09270714 -0.11036758 -0.09081522 0.17584822
0000d0 bf 06 92 3d 49 ed e7 3d ea 80 b6 bd 8e b0 48 3d
       0.07130193 0.113245554 -0.08911307 0.0489965
0000e0 1e 3b 90 bd fc cc 1c bd 13 81 62 bd c4 bd c1 bb
       -0.07042526 -0.038281426 -0.055298876 -0.0059125144
0000f0 52 34 f0 3d ce a4 dc 3d 02 0b 8d 3c 3c 0c a2 3d
       0.11728729 0.107736215 0.017217163 0.0791249
000100 69 4d 9d bd a8 56 7c 3d d4 dc 48 3d de 19 bb 3c
       -0.076807804 0.06160608 0.049038723 0.022839483
000110 50 57 c2 3c c7 56 e9 3d 20 09 ef 3d e6 7b b8 bd
       0.023723274 0.113935046 0.11671662 -0.09008007
000120 30 c1 28 3e b5 b1 0f 3d a7 12 ec 3d 84 0a 67 3c
       0.16479945 0.035081584 0.11526995 0.014101628
000130 78 2c 2a 3d ee d9 b1 3d c3 5b 40 be 68 35 a8 bd
       0.041546315 0.08684145 -0.18785004 -0.082133114
000140 9d 9b b6 3d f5 e6 1d 3d 56 ff dc bb 30 c3 57 3d
       0.089164 0.038550336 -0.0067443056 0.05267638
000150 89 b0 60 3d b5 4c af 3d f9 5c a4 3d 5e ef ce bc
       0.054855857 0.085595526 0.080255456 -0.025260624
000160 91 5e 53 bc 0c c8 1a 3e f2 ae 2c bd 97 2f 49 bd
       -0.012900964 0.15115374 -0.04215903 -0.04911765
000170 c2 bf 09 3e ee dc 71 3d 9b 25 d4 bc 95 f4 60 3d
       0.13452056 0.059048586 -0.025896838 0.05492075
000180 fe 3d 2f bb 5e c8 27 3d c6 73 4f bd a3 b3 ad bd
       -0.002673983 0.04096257 -0.05064752 -0.084815286
000190 91 c3 73 3c ab b0 e4 bc 63 fe bb b9 30 cf 31 be
       0.01487817 -0.027916273 -0.00035856952 -0.17364192
0001a0 e8 a0 f9 bc bc 1a eb 3d b7 5c ca bc ae 4a 50 3d
       -0.030472234 0.114797086 -0.024702413 0.05085247
0001b0 6b 3d 48 bd 4f 71 fc 3c d8 60 83 3d a6 b2 a2 3a
       -0.048886698 0.030815748 0.06414956 0.001241286
0001c0 45 cc 2e be 5d e9 03 39 25 00 f6 ba 5d ed 96 3d
       -0.1707011 0.00012580068 -0.0018768354 0.07369492
0001d0 8c 59 c4 3d 27 e3 ce 3d f4 94 e4 bd 5d 39 e4 3d
       0.09587392 0.101019196 -0.11161223 0.11143754
0001e0 af 34 c1 bd b4 38 eb bd 3d d6 33 be 8e 5e d2 bd
       -0.09433877 -0.11485425 -0.17562194 -0.10271941
0001f0 41 c9 36 bb ec c0 7a bb a0 09 b0 3d 5d da b5 3c
       -0.0027890953 -0.0038261963 0.08595586 0.02219885
000200 ff 8f 39 be 74 a8 0c 3d 69 cf 64 3e e4 df 01 3d
       -0.18121336 0.034340337 0.22344746 0.03170766
000210 57 80 2a be f2 64 f6 3c 55 d0 5f bc 3a aa a2 3c
       -0.1665052 0.030077431 -0.01366051 0.019856561
000220 89 4c a4 bd 89 1c 9a bc 70 6f bb bc 28 a5 64 bc
       -0.080224104 -0.018812435 -0.022880286 -0.013955392
000230 70 01 ca 3c 49 50 d4 bc 89 65 d9 3d b3 8a 87 3d
       0.024658889 -0.02591719 0.106150694 0.06618252
000240 49 fa ce bd 80 4b 90 3d 29 f9 49 bd 22 5e ad bd
       -0.10106332 0.070456505 -0.049309883 -0.0846522
000250 68 17 5d 3d b8 0a 0f 3d 7f 3c 14 be 7b 45 fa bc
       0.0539774 0.03492233 -0.14476202 -0.030550709
000260 9b 60 17 3d d6 6f 67 3d ff aa 40 3e 63 82 5c 3d
       0.036957365 0.05650314 0.1881523 0.053835284
000270 6d 4b 88 3d 72 39 19 3e f0 64 9b bd 20 90 11 be
       0.06655011 0.1496332 -0.07587612 -0.14215136
000280 94 fa c1 bd 23 a1 21 3e 05 bc a4 bd 09 7b ae bd
       -0.09471622 0.15784125 -0.080436744 -0.08519561
000290 88 97 9f 3d 30 57 0a bc f9 4b 13 bc 53 9b 3e bd
       0.07792574 -0.008443639 -0.008990281 -0.046534847
0002a0 e3 9e f9 3d ab 41 54 bc c4 2f e6 3d de 7e 6b 3d
       0.12188508 -0.01295511 0.11239579 0.057494037
0002b0 0d 20 91 ba a6 93 04 be 4f 80 87 3c 7d a2 40 bd
       -0.0011072174 -0.12946948 0.016540674 -0.04702996
0002c0 eb 6e 06 3d 22 f0 14 3d a3 70 b1 bb 41 3c 67 bc
       0.032820623 0.03636182 -0.0054150387 -0.014113487
0002d0 85 eb 9a bb bf 2c 25 3e 07 67 1d 3d 1d e8 ca 3b
       -0.004727783 0.1613035 0.038428333 0.006192221
0002e0 0e ad 11 3d dc aa f2 bd 2f f2 27 3e 7a cf 32 be
       0.03556543 -0.11848995 0.1640098 -0.17461959
0002f0 a4 9c 38 be dd f4 5f bd 74 c1 c1 bd 22 95 b7 bd
       -0.18028504 -0.05467688 -0.094607264 -0.08963992
000300 00 28 2d bd 0d e2 0a 3c 22 83 27 bc ce 5c 26 3d
       -0.042274475 0.008476746 -0.010224136 0.04061585
000310 ca 4b 03 bd e9 3f 3b 3e c7 42 1d bd f3 a5 00 be
       -0.0320547 0.18286099 -0.038393762 -0.12563305
000320 82 f6 ac bd fa 33 a4 3d 56 fe 22 be 85 c1 73 3d
       -0.08445455 0.08017726 -0.15917334 0.059510726
000330 fa 2d 3d bd 9b 30 d0 3c a3 bc 00 be 29 53 11 be
       -0.046186425 0.025413802 -0.12571959 -0.1419188
000340 68 75 96 bd 92 cc ea bd ba b1 09 be 0d c4 b7 bb
       -0.07346612 -0.114648 -0.13446704 -0.005608088
000350 81 88 8d 3c 01 49 b3 bb f9 fe b9 bb a6 c3 1f 3d
       0.017277004 -0.005471349 -0.005676147 0.039004944
000360 31 15 f7 3d 88 66 e7 3b 81 82 09 3c b1 93 51 bd
       0.12064589 0.007061783 0.008392931 -0.05116624
000370 8c 6e e7 bd 1f 87 59 bd e8 e7 08 bd b5 2f ee 3d
       -0.11300382 -0.053107377 -0.033424288 0.11630193
000380 1e 78 41 be 28 a0 91 bd a1 46 2c be 98 f8 81 3d
       -0.18893477 -0.071106255 -0.16823818 0.063462436
000390 20 e5 1d 3e d0 bf 75 bd f2 a5 08 3d 01 4b d2 3d
       0.15419436 -0.05999738 0.033361383 0.10268212
0003a0 f9 dd 3d bc 09 46 8b bc 14 e3 e7 bd 2e 7e 1b 3e
       -0.011588567 -0.017001169 -0.113226086 0.15184852
0003b0 6a b3 c6 3d fc f2 ab bd 91 18 a7 bd ca 75 5d bd
       0.09702189 -0.08395955 -0.081589825 -0.05406741
0003c0 ae 41 58 bc 7c b8 53 3d 94 53 fb bd 6e fd d6 bd
       -0.013199253 0.05168961 -0.12271801 -0.104975566
0003d0 c5 c4 b4 bd 46 0f a3 bd 3b 17 f9 3d 3c a6 25 3d
       -0.08826593 -0.079618976 0.12162634 0.040441737
0003e0 21 db ea bd 37 71 1f 3e 51 2a d4 3d f8 57 e0 bd
       -0.11467577 0.15570532 0.10359634 -0.10954279
0003f0 7c 3b 11 3c 28 83 2d be af ec b0 3c 31 66 a0 3d
       0.00886428 -0.16944563 0.021597235 0.078319915

network_body._body_endoder.seq_layers.2.bias f4 [128]
000000 00 00 00 00 00 00 00 00 00 00 00 00 00 00 00 00
       0.0 0.0 0.0 0.0
000010 00 00 00 00 00 00 00 00 00 00 00 00 00 00 00 00
       0.0 0.0 0.0 0.0
000020 00 00 00 00 00 00 00 00 00 00 00 00 00 00 00 00
       0.0 0.0 0.0 0.0
000030 00 00 00 00 00 00 00 00 00 00 00 00 00 00 00 00
       0.0 0.0 0.0 0.0
000040 00 00 00 00 00 00 00 00 00 00 00 00 00 00 00 00
       0.0 0.0 0.0 0.0
000050 00 00 00 00 00 00 00 00 00 00 00 00 00 00 00 00
       0.0 0.0 0.0 0.0
000060 00 00 00 00 00 00 00 00 00 00 00 00 00 00 00 00
       0.0 0.0 0.0 0.0
000070 00 00 00 00 00 00 00 00 00 00 00 00 00 00 00 00
       0.0 0.0 0.0 0.0
000080 00 00 00 00 00 00 00 00 00 00 00 00 00 00 00 00
       0.0 0.0 0.0 0.0
000090 00 00 00 00 00 00 00 00 00 00 00 00 00 00 00 00
       0.0 0.0 0.0 0.0
0000a0 00 00 00 00 00 00 00 00 00 00 00 00 00 00 00 00
       0.0 0.0 0.0 0.0
0000b0 00 00 00 00 00 00 00 00 00 00 00 00 00 00 00 00
       0.0 0.0 0.0 0.0
0000c0 00 00 00 00 00 00 00 00 00 00 00 00 00 00 00 00
       0.0 0.0 0.0 0.0
0000d0 00 00 00 00 00 00 00 00 00 00 00 00 00 00 00 00
       0.0 0.0 0.0 0.0
0000e0 00 00 00 00 00 00 00 00 00 00 00 00 00 00 00 00
       0.0 0.0 0.0 0.0
0000f0 00 00 00 00 00 00 00 00 00 00 00 00 00 00 00 00
       0.0 0.0 0.0 0.0
000100 00 00 00 00 00 00 00 00 00 00 00 00 00 00 00 00
       0.0 0.0 0.0 0.0
000110 00 00 00 00 00 00 00 00 00 00 00 00 00 00 00 00
       0.0 0.0 0.0 0.0
000120 00 00 00 00 00 00 00 00 00 00 00 00 00 00 00 00
       0.0 0.0 0.0 0.0
000130 00 00 00 00 00 00 00 00 00 00 00 00 00 00 00 00
       0.0 0.0 0.0 0.0
000140 00 00 00 00 00 00 00 00 00 00 00 00 00 00 00 00
       0.0 0.0 0.0 0.0
000150 00 00 00 00 00 00 00 00 00 00 00 00 00 00 00 00
       0.0 0.0 0.0 0.0
000160 00 00 00 00 00 00 00 00 00 00 00 00 00 00 00 00
       0.0 0.0 0.0 0.0
000170 00 00 00 00 00 00 00 00 00 00 00 00 00 00 00 00
       0.0 0.0 0.0 0.0
000180 00 00 00 00 00 00 00 00 00 00 00 00 00 00 00 00
       0.0 0.0 0.0 0.0
000190 00 00 00 00 00 00 00 00 00 00 00 00 00 00 00 00
       0.0 0.0 0.0 0.0
0001a0 00 00 00 00 00 00 00 00 00 00 00 00 00 00 00 00
       0.0 0.0 0.0 0.0
0001b0 00 00 00 00 00 00 00 00 00 00 00 00 00 00 00 00
       0.0 0.0 0.0 0.0
0001c0 00 00 00 00 00 00 00 00 00 00 00 00 00 00 00 00
       0.0 0.0 0.0 0.0
0001d0 00 00 00 00 00 00 00 00 00 00 00 00 00 00 00 00
       0.0 0.0 0.0 0.0
0001e0 00 00 00 00 00 00 00 00 00 00 00 00 00 00 00 00
       0.0 0.0 0.0 0.0
0001f0 00 00 00 00 00 00 00 00 00 00 00 00 00 00 00 00
       0.0 0.0 0.0 0.0

action_model._continuous_distribution.log_sigma f4 [1, 2]
000000 00 00 00 00 00 00 00 00
       0.0 0.0

action_model._continuous_distribution.mu.weight f4 [2, 128]
000000 0f a8 64 3c 63 cc ba ba 60 6e dd bc fd 3d 2e 3b
       0.013956084 -0.0014251586 -0.02703017 0.002658724
000010 5f ab 04 3d df bd 0e bc b3 3c d9 3c 16 4f 92 bb
       0.032389995 -0.008712261 0.026518201 -0.004464994
000020 e5 91 9b bb 3e 5b a8 3c 97 ef 45 bc cc 45 09 3c
       -0.0047476166 0.02055132 -0.012081048 0.008378457
000030 58 9d a5 3c d3 c8 ef ba 3c fa 35 3c 86 5e 04 bc
       0.020216629 -0.0018294103 0.011107024 -0.008079177
000040 16 44 1b 3b f3 cf 16 3c 2d c4 2e bc dc 30 48 bc
       0.0023691705 0.009204852 -0.010666889 -0.01221868
000050 a8 92 d8 bc 3d 05 d3 bc 0e 6e b3 ba 2f 44 d1 bc
       -0.026437119 -0.025759334 -0.0013689415 -0.025545208
000060 0b aa 51 3b cb 5e 98 3c 87 d8 bb 3c 54 53 0b 3c
       0.0031992223 0.018599888 0.022930397 0.008503754
000070 28 cd e9 bc aa fd 2d bd 8e 94 9a bb 47 f2 07 3c
       -0.028540209 -0.04247824 -0.004717416 0.0082975095
000080 88 e3 62 bc 37 4f 17 3c a3 3d 39 3c a3 01 83 bc
       -0.013848193 0.009235195 0.011306199 -0.015991991
000090 8a 50 d4 3b cb da ed bc 64 92 b7 3b 73 cd 3e bb
       0.0064793276 -0.029034993 0.005602168 -0.0029114156
0000a0 37 dc 65 3c 7c c0 b7 ba 51 7a 09 bc 98 13 8a bb
       0.014029554 -0.0014019157 -0.008390979 -0.0042137615
0000b0 08 de cd 3c d3 30 9a 3b 39 71 42 3c d3 a5 d0 3c
       0.025130287 0.0047055273 0.011867815 0.025469696
0000c0 ff 5c 0b bc 4b 57 98 3a e0 47 18 bc 68 7d 67 bc
       -0.008506059 0.0011622695 -0.00929448 -0.01412902
0000d0 17 1b 89 bc c2 1b 83 bb 23 2f 63 3a 68 21 b8 3c
       -0.01673655 -0.0040011117 0.0008666387 0.022476867
0000e0 37 35 df bb bf b4 1c 3d bb 11 25 bc 6e 3b 49 bb
       -0.0068117636 0.03825831 -0.010075028 -0.003070559
0000f0 0a 23 fc 3b 85 55 b6 3b 8f a8 d2 39 57 95 6f bb
       0.0076946067 0.005564394 0.00040179907 -0.003655752
000100 eb 5b 51 3b 85 03 7a bb 1b c1 5a bc 9b fa 80 bc
       0.0031945657 -0.003814907 -0.013351704 -0.015744498
000110 ff 1e 3f 3d 5f a2 95 bc d2 54 c8 3b 57 97 31 bd
       0.04666042 -0.018265901 0.006113627 -0.04335722
000120 97 69 9b bc 0c 2f 0a 39 22 54 db 3c 75 27 11 3c
       -0.018971248 0.00013178232 0.026773516 0.008859505
000130 67 56 38 3d 52 78 0b bc aa 57 df 3c de 8d 23 bc
       0.045004275 -0.008512573 0.027263481 -0.009982554
000140 2b e6 4e 3c 1d a4 3e 3b 17 60 74 bc 6a 5b 8a 3c
       0.0126281185 0.0029089518 -0.014915488 0.016889293
000150 7b b0 61 bb 3a 42 fb 3b 0f 83 7d bc f8 db 5a 3c
       -0.0034437466 0.007667807 -0.015473141 0.013358109
000160 5f 89 22 bd 5b 4e b6 39 8c 00 03 bc 42 f6 fe 3b
       -0.03968179 0.00034772124 -0.007995736 0.007780821
000170 9c 7b 8c 3a 5b ee 0e bc 98 6a 24 3c 03 a2 4d 3c
       0.0010717991 -0.008723821 0.01003518 0.012550834
000180 3f 7f e3 bc 8d a3 78 39 cf 50 a4 3b d3 e0 80 3c
       -0.027770637 0.0002371205 0.005014516 0.015732205
000190 8d 23 39 bb d2 39 ac 3a 7c 45 c6 bb db 3c 99 3c
       -0.002824995 0.001313979 -0.0060507637 0.018705776
0001a0 fa 50 71 3b 73 ee f5 bc e6 7e 8f 3c bb eb 48 3b
       0.0036821947 -0.030020928 0.017516565 0.0030658084
0001b0 c3 a3 bd bb 79 33 95 3c e3 cb ba bc 9c 59 32 3c
       -0.005787344 0.01821302 -0.022802299 0.010885622
0001c0 a7 5f 43 bc ab ca ff 3b d7 14 02 bc ac 6a 94 3c
       -0.011924661 0.0078061423 -0.007939539 0.018117271
0001d0 ab b6 55 3b a8 fd 2a 3d 0d da a9 bc 39 dc 33 bc
       0.00326101 0.04174581 -0.020733858 -0.010977798
0001e0 1b a6 4c bc f8 d3 6b bc 30 b9 51 3b 36 71 2c 3c
       -0.0124907745 -0.014393799 0.003200125 0.0105250385
0001f0 de a0 0c 3d 65 d2 10 3c 6c 05 bb ba 2f fa aa ba
       0.034333102 0.008839224 -0.0014268584 -0.0013044531
000200 6e c5 c6 3c 1f ad c6 3c 9a 69 9c bb 7c 0b 9a 3c
       0.024264064 0.024252472 -0.004773331 0.018804304
000210 39 ff 83 3c a0 95 52 3c 8d 6e f5 b9 2c 1a a0 39
       0.01611291 0.012853056 -0.00046812408 0.00030537078
000220 5b dc b6 bc 3d 9d e3 3b b3 85 c9 bc 58 ee 54 39
       -0.02232187 0.0069462345 -0.024599886 0.00020306685
000230 7a a1 58 bc 8a 02 bd 3c bf e8 58 3c 04 6e 32 bc
       -0.013222093 0.0230725 0.013239085 -0.010890488
000240 43 12 be 3b 63 2e 03 3c 90 a6 31 bc d7 9e 05 bd
       0.005800517 0.008006665 -0.010842934 -0.032622185
000250 ef 6d 5f 3c fc 56 87 bc 9a e0 83 3c ab 71 e0 bc
       0.01363705 -0.01652097 0.01609831 -0.027397951
000260 37 85 0d bd 34 a4 ac 3c 88 bc 67 3b 60 d8 89 ba
       -0.03455087 0.021074392 0.0035360176 -0.0010516755
000270 22 c1 7c 3b 9f ee 4f bc 02 96 a2 3c cc 42 a9 bc
       0.0038567265 -0.012691169 0.01984692 -0.020661734
000280 82 eb 0d 3c 77 f6 56 3c 77 51 89 ba 7a 63 a1 bc
       0.0086621065 0.013120285 -0.0010476549 -0.019700754
000290 8b 12 49 3c cd 12 e8 bc 61 13 0c bc bf 2d 58 bc
       0.012272487 -0.028329277 -0.008549542 -0.0131945005
0002a0 4d d5 04 3d 20 db 7d bb ac 7a 32 3c bb 6d 48 38
       0.032429982 -0.0038735345 0.010893505 4.778591e-05
0002b0 d9 31 05 3c b3 e4 8d bc a1 f1 1e bc 28 1a 0b 3b
       0.00812956 -0.017320966 -0.0097011635 0.0021225307
0002c0 22 c4 8f bb ca 73 f0 bc b3 48 fa bc e5 b1 d4 ba
       -0.0043873945 -0.029352088 -0.030552244 -0.0016227333
0002d0 d3 3c e7 3b 1b a8 1b 3c bd 22 2e bc 2b ca d4 bc
       0.0070568114 0.009500529 -0.010628399 -0.025975307
0002e0 33 bc 04 bc 9a 59 6b 3c e7 49 3d bc 51 6d 92 bb
       -0.008101511 0.014364624 -0.011553264 -0.004468598
0002f0 0d fa 89 bc 73 e4 18 bc ca 2f 72 3c b5 79 ed 3b
       -0.016842866 -0.00933181 0.014781902 0.0072471746
000300 3d 00 15 bc ba 20 29 bc ff 28 bc 3b 46 97 0b bd
       -0.009094295 -0.010322744 0.005742192 -0.034079812
000310 c7 f0 99 bc c5 2c a3 bc 73 d1 39 bc 57 b1 9f 3b
       -0.01879157 -0.019918809 -0.0113414405 0.0048734355
000320 a3 f5 72 bc bf a8 3e bc f7 c0 c6 bb 6f 37 3b 3d
       -0.014829072 -0.011636912 -0.0060654837 0.045707162
000330 cc e2 a3 3c c3 9c 1c bd 51 bb a7 3c 77 68 fb 3b
       0.020005606 -0.038235437 0.020475062 0.0076723653
000340 e3 48 c1 ba 90 37 d0 3c cf 80 24 3c 7b 3f a2 3c
       -0.0014746453 0.02541712 0.010040476 0.01980566
000350 9b 1d 87 3c ab 84 be 3c 22 15 d2 bc 0a a8 f4 bc
       0.01649361 0.02325662 -0.025644843 -0.029865284
000360 07 27 20 3d 87 1f 3d bc c5 23 28 3c 87 27 83 3a
       0.03909972 -0.011543161 0.010262434 0.0010006287
000370 10 c7 80 bc 06 59 84 3b 3a 6d 52 bc 42 48 63 bc
       -0.01571992 0.0040389327 -0.012843424 -0.013872208
000380 34 93 8a bc 27 7d 1a bc 5b 54 a2 bb 05 61 fa 3b
       -0.016915895 -0.009429253 -0.0049539036 0.00764096
000390 ca 49 08 bc 0f e1 f0 3c 30 5b 67 bc 6b cf 89 3a
       -0.008318374 0.029404191 -0.014120862 0.0010514086
0003a0 13 ec 74 3c 98 d0 50 bc 0c 39 48 3d 3d b3 2b bb
       0.014948863 -0.012745045 0.04888253 -0.0026199364
0003b0 4b 6d c9 bc 64 d6 16 3d b0 03 e5 3c 7f 14 3c bc
       -0.024588248 0.036825553 0.02795586 -0.011479496
0003c0 33 61 9a bb 4a 92 d8 bc 0a 75 f7 3b bb f0 a0 bc
       -0.004711294 -0.026436944 0.007551794 -0.01964604
0003d0 b7 60 07 bc 5f ed 07 3c 75 13 94 3c 81 d8 07 ba
       -0.008262805 0.00829634 0.018075684 -0.0005182103
0003e0 cd 47 6c bb 8f 8b b6 3b 80 20 9e bc 41 74 a9 39
       -0.0036053539 0.005570836 -0.019302607 0.00032320808
0003f0 30 55 fe bb 08 6f 90 bc 75 41 b4 3b c5 82 e3 3b
       -0.00776162 -0.017631069 0.005500967 0.006943079

action_model._continuous_distribution.mu.bias f4 [2]
000000 00 00 00 00 00 00 00 00
       0.0 0.0

network_body.observation_encoder.processors.0.normalizer.running_mean f4 [2]
000000 00 00 00 00 00 00 00 00
       0.0 0.0

network_body.observation_encoder.processors.0.normalizer.running_variance f4 [2]
000000 00 00 80 3f 00 00 80 3f
       1.0 1.0

network_body.processors.0.normalizer.running_mean f4 [2]
000000 00 00 00 00 00 00 00 00
       0.0 0.0

network_body.processors.0.normalizer.running_variance f4 [2]
000000 00 00 80 3f 00 00 80 3f
       1.0 1.0

network_body._body_endoder.seq_layers.0.weight f4 [128, 2]
000000 c4 f8 1e 3f ee f0 87 3f 19 52 29 3f 06 79 a8 3f
       0.62098336 1.0620401 0.66140896 1.3161933
000010 13 e8 b8 be 03 36 63 3e e8 f8 e2 bf 36 86 4c 3f
       -0.3611456 0.22188573 -1.773221 0.7989229
000020 0e 91 b0 be 1f 16 e1 be 4c 8c 3e 3e 75 85 26 3f
       -0.34485668 -0.4396219 0.18608207 0.6504739
000030 a9 ed 81 3f 4d 3b 89 bf 7d b4 42 bf 35 87 72 3e
       1.0150653 -1.0721222 -0.76056653 0.2368439
000040 d9 fb d8 be 31 49 b3 3d bc 6f 39 bf e5 8c c8 3f
       -0.42379645 0.087541945 -0.7243612 1.5667998
000050 08 15 15 bd 7c 36 89 3f d2 a3 85 3e b9 0b 97 be
       -0.03639701 1.0719752 0.26101547 -0.2950113
000060 29 c8 dd be 0f 35 d1 3e 18 ac 3c 3f 2e 86 9e be
       -0.43316773 0.40860793 0.73700094 -0.30961746
000070 f1 b9 4c 3f 09 ad 04 be f7 f2 94 3d 68 43 61 3f
       0.79971224 -0.12956633 0.07272904 0.8799348
000080 f9 77 1b bf 34 33 99 3f da 04 77 be 8a 31 0a 3f
       -0.6072994 1.1968751 -0.24122944 0.5398184
000090 80 36 d7 3e 50 3b 0a bf 92 1e 2d bf 1a ef 0b bf
       0.42033768 -0.53996754 -0.6762477 -0.54661715
0000a0 a8 5c 79 3c cd bb 13 bf 49 22 0d 3e e6 19 a2 bd
       0.015219845 -0.57708436 0.1378261 -0.07915096
0000b0 5a ac 4b bf 7e d9 42 be 2c 31 98 3e da 76 40 bf
       -0.7955986 -0.19028279 0.29725015 -0.75181353
0000c0 d3 31 be 3d a9 c4 bc 3e 01 44 99 3f b4 37 bf bf
       0.09286847 0.3686879 1.1973878 -1.4938874
0000d0 5c 3b 1b 3f 92 e8 c7 3e 86 03 f7 3e ea 60 02 bf
       0.6063745 0.39044625 0.48244876 -0.5092913
0000e0 f4 0b ab 3d 94 2c 69 be a0 92 d0 be 8a 31 85 bf
       0.08351889 -0.22770911 -0.40736866 -1.0405743
0000f0 35 53 db be 3d 74 c1 bd 29 02 0d 3f 02 05 7b be
       -0.4283692 -0.09445999 0.5508142 -0.24513629
000100 e8 e2 bf 3d 35 53 a1 bf 01 36 2d be 58 82 85 3f
       0.09369451 -1.2603518 -0.16915132 1.0430403
000110 78 44 fc be 46 6c 22 be 1b 42 a7 bd c3 68 af bf
       -0.49270988 -0.15861616 -0.081669055 -1.3703846
000120 64 bf 79 3f a4 70 1e be ce bd 63 be 3a 8a 0a 3e
       0.97557664 -0.15472656 -0.22240373 0.13529292
000130 ea 1a 31 bf e3 76 44 be af 16 c8 3e f8 ff cd bf
       -0.6918169 -0.19185977 0.39079806 -1.609374
000140 7b 11 3a 3f 92 74 53 be da 0a 99 be e7 e9 4a bf
       0.72682923 -0.20649937 -0.29891092 -0.79263157
000150 0b b5 1b bd d9 72 10 3f 0e fb 40 3f c1 6c 12 be
       -0.038014453 0.56425244 0.7538308 -0.14299299
000160 38 15 19 bf e0 61 20 bf 3b 5b d8 be dc 49 95 be
       -0.59798 -0.62649345 -0.42257103 -0.29157913
000170 b4 b3 5a 3f 29 48 34 bf 05 81 0b bf 47 b3 96 3f
       0.85430455 -0.7042261 -0.54493743 1.1773461
000180 bf e1 bd 3e 31 78 4f 3f 95 b7 1c 3f 6e a3 4b 3f
       0.37086293 0.8104277 0.61217624 0.7954625
000190 89 48 42 3f 66 b0 6a bf f7 cf 56 bc 94 d0 10 bf
       0.7589193 -0.9167541 -0.013111106 -0.56568265
0001a0 cb bf d0 3f c0 f7 9f be 19 89 07 be f0 d3 4a bf
       1.630853 -0.31243706 -0.13235892 -0.7922964
0001b0 3d e1 04 3f dd ea a2 bf 1a e6 c1 3e 10 33 f7 3e
       0.51906186 -1.2727925 0.37870866 0.48281145
0001c0 fa 24 29 be da 89 81 bf 43 a3 0b be e0 8d e2 be
       -0.16518012 -1.0120194 -0.13636498 -0.44248867
0001d0 32 92 8e bd 6f dc 6a 3e 95 fb 34 bf 2f 49 b2 3c
       -0.06961478 0.22935651 -0.70696384 0.021763412
0001e0 05 60 4d 3e fb 74 2c 3f a7 a1 e4 bd d2 2e 66 3c
       0.2005616 0.67366 -0.11163645 0.014049249
0001f0 1a 17 a7 3d a6 3e fc be 6d f3 8b bd ef f1 d8 3e
       0.08158703 -0.49266547 -0.06833539 0.4237208
000200 1a cb 65 3e b5 10 86 bd ee 76 fa 3e ec 33 90 be
       0.22440758 -0.06546155 0.4891886 -0.28164613
000210 2c 18 07 3d 9c 62 d5 3e 6f 3f fe bd 03 d6 1d 3f
       0.032982036 0.41676795 -0.12414443 0.6165468
000220 d5 34 99 bf a9 d2 a9 3f 8c 28 eb 3f 3c 4d 24 bf
       -1.1969248 1.3267413 1.8371749 -0.6418035
000230 a9 2d 87 be 47 6a 95 bf fa 9a 0f bf 6f d6 3d 3f
       -0.26402023 -1.1673058 -0.5609585 0.74155325
000240 81 20 36 3e ed 33 1e 3e 97 64 53 bf 13 01 a7 bf
       0.17785837 0.15449496 -0.8257536 -1.3047203
000250 a0 7c bd 3f 85 32 37 3f 60 30 30 bf 87 90 b9 be
       1.4803658 0.7156146 -0.68823814 -0.36243078
000260 4e 4e 43 3f c5 eb 4e 3f 43 1a d7 be a2 df 88 be
       0.7629136 0.80828506 -0.42012224 -0.26733118
000270 63 f4 0e bf af 71 2c bf 11 12 58 bf c6 3f 05 3e
       -0.55841655 -0.6736097 -0.8440257 0.13012609
000280 04 d9 fa 3e ee ca 16 be 97 36 f6 be 75 c9 9b bd
       0.48993695 -0.14725849 -0.48088524 -0.07606784
000290 ec 48 57 be 14 f1 0c bf 48 03 0c bf 10 f8 75 bf
       -0.21023911 -0.55055356 -0.54692507 -0.9608164
0002a0 27 c2 2f be 00 95 a1 bd 5b 2a 3e 3f 13 d5 41 3f
       -0.17163907 -0.078897476 0.7428338 0.7571575
0002b0 fe a6 e1 3c e4 79 43 3f 1f a4 cd be 72 0d 10 bf
       0.027545448 0.76357865 -0.40164277 -0.56270516
0002c0 3c e4 e0 3e 54 f3 e1 3f e9 2f c3 bc 0f 86 12 bf
       0.4392413 1.7652383 -0.023826556 -0.5723581
0002d0 e7 16 1a 3f 37 fc 74 3f c6 eb 10 3e 27 7a 11 3f
       0.60191196 0.9569735 0.1415244 0.56827015
0002e0 06 c3 a9 3e 52 f2 c3 be c4 cc bf bd 37 e3 92 3f
       0.33156604 -0.38270813 -0.09365228 1.147559
0002f0 60 20 34 3f d4 1f 9b 3f b5 1d 92 bf 07 57 b4 3d
       0.703619 1.2119088 -1.1415316 0.08805662
000300 6d d0 e3 be 9c cb 18 3f 63 73 16 bf e8 e9 ec 3e
       -0.44494954 0.59685683 -0.58769816 0.46272206
000310 d4 f1 92 bf 50 32 33 be 0c ec b1 bd bd 4f d1 3e
       -1.148005 -0.17499661 -0.086876005 0.40881148
000320 50 e8 9d bc ed e2 8a 3f 83 ab 0f 3f 81 e5 11 3f
       -0.019275814 1.0850502 0.5612108 0.5699082
000330 ae 96 89 be 1e a2 0c 3f da cf 28 3f 7b b6 26 3f
       -0.26872772 0.5493487 0.65942156 0.65122193
000340 18 5f 86 bc 96 02 4a 3e 9c 10 a2 bf 3a 66 f0 be
       -0.016402766 0.19727549 -1.2661319 -0.46952993
000350 8a 3b 5d 3f 8d 7d e3 be 66 f2 48 be 62 39 d5 3d
       0.86418974 -0.44431725 -0.19623718 0.104113355
000360 4f 06 4f bf 1f 71 48 be 41 15 bd be 17 72 1f 3f
       -0.80869 -0.19574402 -0.36930278 0.6228346
000370 2e c1 9f 3f 15 e3 30 bf 39 0c 3c 3f 5d 4d b9 3f
       1.2480829 -0.690965 0.7345615 1.4476734
000380 74 14 f6 be 29 aa 34 bf 1e 5c 3c bf 4e fc 96 be
       -0.4806248 -0.70572144 -0.7357806 -0.29489368
000390 cb ce 0c bc 29 df d5 be bd 35 ca be d1 3b 1e 3f
       -0.008594225 -0.4177182 -0.39494124 0.6181002
0003a0 37 5b 29 bf 34 87 1d bf f8 1c 12 bf 31 e7 a6 bd
       -0.6615481 -0.6153443 -0.5707545 -0.08149565
0003b0 71 bf be 3f 08 d0 f2 be f6 ed 0a bf f2 53 75 bf
       1.4902173 -0.4742434 -0.5426935 -0.95831215
0003c0 cb 7e c6 3d c8 7e 4c bf 9e c2 78 3e 23 28 c8 3e
       0.096921526 -0.7988095 0.2429299 0.39093122
0003d0 ef d6 e5 3e 42 3c 88 bf 95 8b 5a bf 02 ff bb be
       0.44890544 -1.0643389 -0.85369235 -0.36717993
0003e0 c8 78 42 be 5d 56 c4 3d b3 0b d9 bd 65 a4 aa 3f
       -0.18991387 0.09586785 -0.105979346 1.3331419
0003f0 b6 3e f6 3e 28 51 37 bf bd 54 86 bf a3 b1 d2 3e
       0.4809472 -0.7160821 -1.049461 0.4115115

network_body._body_endoder.seq_layers.0.bias f4 [128]
000000 00 00 00 00 00 00 00 00 00 00 00 00 00 00 00 00
       0.0 0.0 0.0 0.0
000010 00 00 00 00 00 00 00 00 00 00 00 00 00 00 00 00
       0.0 0.0 0.0 0.0
000020 00 00 00 00 00 00 00 00 00 00 00 00 00 00 00 00
       0.0 0.0 0.0 0.0
000030 00 00 00 00 00 00 00 00 00 00 00 00 00 00 00 00
       0.0 0.0 0.0 0.0
000040 00 00 00 00 00 00 00 00 00 00 00 00 00 00 00 00
       0.0 0.0 0.0 0.0
000050 00 00 00 00 00 00 00 00 00 00 00 00 00 00 00 00
       0.0 0.0 0.0 0.0
000060 00 00 00 00 00 00 00 00 00 00 00 00 00 00 00 00
       0.0 0.0 0.0 0.0
000070 00 00 00 00 00 00 00 00 00 00 00 00 00 00 00 00
       0.0 0.0 0.0 0.0
000080 00 00 00 00 00 00 00 00 00 00 00 00 00 00 00 00
       0.0 0.0 0.0 0.0
000090 00 00 00 00 00 00 00 00 00 00 00 00 00 00 00 00
       0.0 0.0 0.0 0.0
0000a0 00 00 00 00 00 00 00 00 00 00 00 00 00 00 00 00
       0.0 0.0 0.0 0.0
0000b0 00 00 00 00 00 00 00 00 00 00 00 00 00 00 00 00
       0.0 0.0 0.0 0.0
0000c0 00 00 00 00 00 00 00 00 00 00 00 00 00 00 00 00
       0.0 0.0 0.0 0.0
0000d0 00 00 00 00 00 00 00 00 00 00 00 00 00 00 00 00
       0.0 0.0 0.0 0.0
0000e0 00 00 00 00 00 00 00 00 00 00 00 00 00 00 00 00
       0.0 0.0 0.0 0.0
0000f0 00 00 00 00 00 00 00 00 00 00 00 00 00 00 00 00
       0.0 0.0 0.0 0.0
000100 00 00 00 00 00 00 00 00 00 00 00 00 00 00 00 00
       0.0 0.0 0.0 0.0
000110 00 00 00 00 00 00 00 00 00 00 00 00 00 00 00 00
       0.0 0.0 0.0 0.0
000120 00 00 00 00 00 00 00 00 00 00 00 00 00 00 00 00
       0.0 0.0 0.0 0.0
000130 00 00 00 00 00 00 00 00 00 00 00 00 00 00 00 00
       0.0 0.0 0.0 0.0
000140 00 00 00 00 00 00 00 00 00 00 00 00 00 00 00 00
       0.0 0.0 0.0 0.0
000150 00 00 00 00 00 00 00 00 00 00 00 00 00 00 00 00
       0.0 0.0 0.0 0.0
000160 00 00 00 00 00 00 00 00 00 00 00 00 00 00 00 00
       0.0 0.0 0.0 0.0
000170 00 00 00 00 00 00 00 00 00 00 00 00 00 00 00 00
       0.0 0.0 0.0 0.0
000180 00 00 00 00 00 00 00 00 00 00 00 00 00 00 00 00
       0.0 0.0 0.0 0.0
000190 00 00 00 00 00 00 00 00 00 00 00 00 00 00 00 00
       0.0 0.0 0.0 0.0
0001a0 00 00 00 00 00 00 00 00 00 00 00 00 00 00 00 00
       0.0 0.0 0.0 0.0
0001b0 00 00 00 00 00 00 00 00 00 00 00 00 00 00 00 00
       0.0 0.0 0.0 0.0
0001c0 00 00 00 00 00 00 00 00 00 00 00 00 00 00 00 00
       0.0 0.0 0.0 0.0
0001d0 00 00 00 00 00 00 00 00 00 00 00 00 00 00 00 00
       0.0 0.0 0.0 0.0
0001e0 00 00 00 00 00 00 00 00 00 00 00 00 00 00 00 00
       0.0 0.0 0.0 0.0
0001f0 00 00 00 00 00 00 00 00 00 00 00 00 00 00 00 00
       0.0 0.0 0.0 0.0

network_body._body_endoder.seq_layers.2.weight f4 [128, 128]
000000 a5 72 5b bc dc 15 03 3e 58 1a 03 bd 5c c2 07 3e
       -0.013394033 0.12801307 -0.032007545 0.13257736
000010 16 40 9a 3c a0 94 9e 3d c3 74 15 bd a9 8f 0f bd
       0.018829387 0.07743192 -0.036488306 -0.035049114
000020 4a be da 3d 0b 7d 01 3c 66 75 44 bd af ff d2 bd
       0.10680826 0.007903348 -0.047963522 -0.10302674
000030 48 a3 4c 3d d3 fa 8a bb 65 73 fb bd e7 4d 35 bd
       0.049960405 -0.0042413264 -0.12277869 -0.044263747
000040 4d b9 38 3b fa f0 87 bc be 32 d8 3d 09 9c 65 3d
       0.002818662 -0.016594399 0.10556553 0.05605701
000050 93 07 db 3d 8d e5 d3 3d 94 19 64 bd 77 32 d0 bb
       0.10694804 0.10346518 -0.055688456 -0.006353672
000060 dc 40 30 3d 6c ff cc bc 3f dd 1b 3d 6f 47 99 3d
       0.043030605 -0.025024138 0.038052794 0.07484328
000070 5a 73 9d bc b0 eb c5 3d 3a 8b f1 3d a2 a6 e1 bd
       -0.019220043 0.096640944 0.117941335 -0.11018111
000080 4b b1 f9 3d ef 73 98 bd 8e 93 80 3c b2 45 84 bd
       0.12192019 -0.074439876 0.01569536 -0.06458606
000090 52 87 bd bd a7 85 ab bd e9 cd 22 3e 19 ca 33 3c
       -0.09254326 -0.083751015 0.15898861 0.010973477
0000a0 2c db 24 3d f1 ec cb bc 92 0b 4f 3c 09 a6 86 be
       0.04024808 -0.024893256 0.012637036 -0.2629855
0000b0 f5 dd e9 bc 83 eb 0c be 4d 23 03 bc 46 44 f5 bd
       -0.02854822 -0.13761716 -0.008004022 -0.11975913
0000c0 f7 1d ea bd ae 71 25 be 15 92 6a 3b 0d a9 46 3d
       -0.114314966 -0.16156647 0.0035792638 0.048501063
0000d0 8e cb cb 3c ec 43 0a 3e 5b 0e 2e bb c2 2d 61 bd
       0.024877336 0.13502473 -0.002655885 -0.05497528
0000e0 a2 90 d9 3c fe f8 e2 3d 2f 44 5c bc a6 dd 8f 3b
       0.026558224 0.11082648 -0.013443991 0.004390436
0000f0 74 55 80 3c 4f 9c 59 bd 44 97 85 bd 1e fb bf 3d
       0.015665747 -0.053127583 -0.06522992 0.09374069
000100 b7 c1 40 be d1 f6 e4 bc 33 41 ec 3d e2 c9 a6 3d
       -0.18823896 -0.027949722 0.11535873 0.08143975
000110 61 27 e2 bb 22 0f 3b bd 78 94 14 bd b7 a2 c2 3c
       -0.006901667 -0.04566873 -0.036274403 0.02375923
000120 1b 5b b0 3c f2 58 4b bd f6 5a 8a 3d bc ab 1a bd
       0.021527817 -0.04964537 0.06755631 -0.037761435
000130 44 ee 88 3d f0 48 40 3d 92 7e 3f bc 75 37 da 3d
       0.066860706 0.04694456 -0.011687892 0.10655109
000140 ed 1d 2b bb e3 60 bd bc 4f 4a 07 bc e0 f0 9b bd
       -0.0026110366 -0.023117488 -0.008257463 -0.07614303
000150 50 fd 58 bd b7 80 f8 3c 78 68 a5 3d a6 ad 57 3b
       -0.052975953 0.030334814 0.080765665 0.00329099
000160 0d a4 e3 bc f9 99 13 be 42 4f cb 3d f0 e3 39 bd
       -0.027788186 -0.14414205 0.099272266 -0.045383394
000170 93 12 61 bd b7 3b e4 bc 87 50 be 3d 3f 65 c8 3d
       -0.054949354 -0.027860506 0.09292703 0.09784936
000180 d7 fb cd 3c e5 64 db bc 3d cd 50 bd 6e e1 47 bd
       0.0251445 -0.026781509 -0.05097698 -0.04879897
000190 95 4b 04 bd 57 8e 7c 3d a3 3b da 3d 9c a7 17 bd
       -0.032298643 0.061659183 0.10655906 -0.03702508
0001a0 19 39 7d 3b 5d 85 2e be 6f 95 d5 bd 1d 5a ba 3d
       0.003863877 -0.17043062 -0.10428893 0.09099219
0001b0 e8 0c 79 3c 94 fe 42 3d c6 f0 a0 bc 85 ee 5a bd
       0.015200831 0.047606066 -0.01964606 -0.053450126
0001c0 7b e6 af 3c c5 99 90 bc 3b e4 17 be 4b 03 d3 3c
       0.021472206 -0.017651448 -0.14833157 0.025758406
0001d0 e5 1d d3 3d 83 f0 ca 3d 66 eb d8 bc 35 9c 80 bd
       0.10308436 0.09909155 -0.026479434 -0.06279794
0001e0 f3 3e 9f 3c 83 74 02 3e f1 65 82 bd cf dd 1f 3e
       0.019439196 0.12739758 -0.063671 0.15611957
0001f0 d8 57 63 bc 1a 6c a1 3d 86 f5 0a be 68 d4 f1 bc
       -0.013875924 0.07881947 -0.13570222 -0.029520229
000200 22 ca 01 bd cf 49 0f 3e e8 0a 2e 3d 70 0c 13 be
       -0.03168691 0.13993 0.04249087 -0.14360213
000210 12 3b f6 bd 3c 96 24 b9 40 f5 bd 39 25 dd 87 3d
       -0.120229855 -0.00015696225 0.00036231615 0.06633977
000220 44 34 b9 bd 26 fa 8c bb fc 7e 0e 3e 3e 10 5f 3d
       -0.09043172 -0.004302281 0.13915628 0.05445885
000230 4c 59 8a bd 7a d2 61 3d 3d 92 3c 3c 86 fe 84 3c
       -0.06755313 0.055132367 0.011509475 0.016234647
000240 68 87 73 3d ab 93 d6 bd 40 e0 87 3d d9 f7 96 bd
       0.059455305 -0.10477384 0.06634569 -0.07371492
000250 80 7a 44 bd 8d 37 1e 3e 3f f4 9f bb 42 aa b0 bd
       -0.047968388 0.15450878 -0.0048814113 -0.08626224
000260 51 49 68 3c 4f c1 ec 3c 59 6f b6 3c 2d 90 58 bc
       0.014177636 0.02890077 0.022269892 -0.013217968
000270 68 6f 07 3e 6f 86 02 3e a3 af 58 bd 98 65 a5 3d
       0.13226092 0.12746595 -0.052901875 0.08076018
000280 b2 30 16 3c 05 a4 1d be 1f ce d9 3b 8c 40 83 3c
       0.009166883 -0.153946 0.006646886 0.01602199
000290 10 80 f1 bc 52 e3 20 3d f9 f6 0f 3e ac a1 69 bc
       -0.02948001 0.03927929 0.14059056 -0.014259737
0002a0 72 62 40 3d 8f 5e 8a 3d a6 31 b2 3c 72 39 a0 bd
       0.046968885 0.06756317 0.02175219 -0.07823457
0002b0 af 2d c9 bd 1c 77 05 bd 6c e1 f1 bc 06 68 25 3e
       -0.098231666 -0.032584295 -0.029526435 0.16152963
0002c0 ec c0 17 3d 12 c2 6c bd ef 30 9b bd b5 38 01 3c
       0.03704922 -0.057802267 -0.07577693 0.007887055
0002d0 5f 44 e5 3d e7 31 36 bd b4 43 7c bd 29 86 c9 bd
       0.111946814 -0.044481184 -0.061588004 -0.09840042
0002e0 38 16 09 be 44 66 6f 3a 89 7d fb 3c ce 3c 0e be
       -0.13387382 0.0009132365 0.030699508 -0.13890383
0002f0 11 1c 19 3e 6d 5f 6e 3d ac 5d 1d bd 10 32 0d 3d
       0.14952113 0.058196474 -0.03841941 0.03447157
000300 d9 d5 72 3d 95 fb d1 3c 32 f5 2a 3d 26 7c e0 3c
       0.059285972 0.025632659 0.041737743 0.027402949
000310 0e 24 53 be 0f 43 89 bd 47 ed b0 3c 21 87 ca bd
       -0.20619223 -0.067022435 0.021597518 -0.09889055
000320 fc 00 d4 3d 42 7c 93 bd 8b 7b 82 bd c0 b5 bc 3d
       0.1035175 -0.07201435 -0.0637122 0.092143536
000330 9e 1f ae bd da cd e9 3d fd ac b9 bd 97 73 af 3d
       -0.08502124 0.11416216 -0.09066198 0.08566969
000340 99 95 2c bd 9a de 01 bd ee 1e 16 bc e9 9c 5f bd
       -0.042134855 -0.03170643 -0.009162648 -0.054593
000350 af 8c 31 bd 53 78 e6 bb a6 b6 b9 bb 0f a5 75 3d
       -0.043347057 -0.0070333867 -0.0056675253 0.059971865
000360 b1 2a 90 bd 41 fb ea bb 82 56 a9 3d 88 86 cb bc
       -0.07039393 -0.007171065 0.08268453 -0.024844423
000370 1c 14 9b bd 86 18 f5 3d 66 9b 8b 3d 43 3e a0 3c
       -0.07572195 0.11967568 0.06816749 0.019560939
000380 8f 62 a8 bd be 81 ee 3c 18 f8 07 3d be 79 de bc
       -0.082219236 0.0291146 0.033195585 -0.02715766
000390 12 0d 63 bd 1e 19 86 3d a8 b2 89 bd 14 ae 95 3d
       -0.055432387 0.065477595 -0.06723529 0.073085934
0003a0 33 fc 81 bd 2f ce 98 bd d9 38 ff bd 0f 0a 81 bc
       -0.06346931 -0.074612014 -0.12462015 -0.015751867
0003b0 d4 45 56 3d 01 b9 b4 3d ed bd e6 3c 61 e5 33 bd
       0.052312687 0.08824349 0.028166736 -0.043919925
0003c0 59 f9 5e 3c 07 4e 12 bc e3 93 4d bd c6 31 20 3e
       0.013609254 -0.008929736 -0.050189864 0.15643987
0003d0 6d c8 90 bd 2c 30 d3 3d 51 72 16 bd 2f 37 0e 3d
       -0.07069478 0.103119224 -0.036730114 0.034720596
0003e0 89 14 77 3c 92 aa 34 bd 74 0a d3 3c 75 8d fc 3d
       0.01508058 -0.04410798 0.02576182 0.12331668
0003f0 0b 90 8d ba db 47 07 3c 57 2a 30 3e af 93 89 3d
       -0.0010800374 0.008256878 0.17203651 0.067176215

network_body._body_endoder.seq_layers.2.bias f4 [128]
000000 00 00 00 00 00 00 00 00 00 00 00 00 00 00 00 00
       0.0 0.0 0.0 0.0
000010 00 00 00 00 00 00 00 00 00 00 00 00 00 00 00 00
       0.0 0.0 0.0 0.0
000020 00 00 00 00 00 00 00 00 00 00 00 00 00 00 00 00
       0.0 0.0 0.0 0.0
000030 00 00 00 00 00 00 00 00 00 00 00 00 00 00 00 00
       0.0 0.0 0.0 0.0
000040 00 00 00 00 00 00 00 00 00 00 00 00 00 00 00 00
       0.0 0.0 0.0 0.0
000050 00 00 00 00 00 00 00 00 00 00 00 00 00 00 00 00
       0.0 0.0 0.0 0.0
000060 00 00 00 00 00 00 00 00 00 00 00 00 00 00 00 00
       0.0 0.0 0.0 0.0
000070 00 00 00 00 00 00 00 00 00 00 00 00 00 00 00 00
       0.0 0.0 0.0 0.0
000080 00 00 00 00 00 00 00 00 00 00 00 00 00 00 00 00
       0.0 0.0 0.0 0.0
000090 00 00 00 00 00 00 00 00 00 00 00 00 00 00 00 00
       0.0 0.0 0.0 0.0
0000a0 00 00 00 00 00 00 00 00 00 00 00 00 00 00 00 00
       0.0 0.0 0.0 0.0
0000b0 00 00 00 00 00 00 00 00 00 00 00 00 00 00 00 00
       0.0 0.0 0.0 0.0
0000c0 00 00 00 00 00 00 00 00 00 00 00 00 00 00 00 00
       0.0 0.0 0.0 0.0
0000d0 00 00 00 00 00 00 00 00 00 00 00 00 00 00 00 00
       0.0 0.0 0.0 0.0
0000e0 00 00 00 00 00 00 00 00 00 00 00 00 00 00 00 00
       0.0 0.0 0.0 0.0
0000f0 00 00 00 00 00 00 00 00 00 00 00 00 00 00 00 00
       0.0 0.0 0.0 0.0
000100 00 00 00 00 00 00 00 00 00 00 00 00 00 00 00 00
       0.0 0.0 0.0 0.0
000110 00 00 00 00 00 00 00 00 00 00 00 00 00 00 00 00
       0.0 0.0 0.0 0.0
000120 00 00 00 00 00 00 00 00 00 00 00 00 00 00 00 00
       0.0 0.0 0.0 0.0
000130 00 00 00 00 00 00 00 00 00 00 00 00 00 00 00 00
       0.0 0.0 0.0 0.0
000140 00 00 00 00 00 00 00 00 00 00 00 00 00 00 00 00
       0.0 0.0 0.0 0.0
000150 00 00 00 00 00 00 00 00 00 00 00 00 00 00 00 00
       0.0 0.0 0.0 0.0
000160 00 00 00 00 00 00 00 00 00 00 00 00 00 00 00 00
       0.0 0.0 0.0 0.0
000170 00 00 00 00 00 00 00 00 00 00 00 00 00 00 00 00
       0.0 0.0 0.0 0.0
000180 00 00 00 00 00 00 00 00 00 00 00 00 00 00 00 00
       0.0 0.0 0.0 0.0
000190 00 00 00 00 00 00 00 00 00 00 00 00 00 00 00 00
       0.0 0.0 0.0 0.0
0001a0 00 00 00 00 00 00 00 00 00 00 00 00 00 00 00 00
       0.0 0.0 0.0 0.0
0001b0 00 00 00 00 00 00 00 00 00 00 00 00 00 00 00 00
       0.0 0.0 0.0 0.0
0001c0 00 00 00 00 00 00 00 00 00 00 00 00 00 00 00 00
       0.0 0.0 0.0 0.0
0001d0 00 00 00 00 00 00 00 00 00 00 00 00 00 00 00 00
       0.0 0.0 0.0 0.0
0001e0 00 00 00 00 00 00 00 00 00 00 00 00 00 00 00 00
       0.0 0.0 0.0 0.0
0001f0 00 00 00 00 00 00 00 00 00 00 00 00 00 00 00 00
       0.0 0.0 0.0 0.0

value_heads.value_heads.extrinsic.weight f4 [1, 128]
000000 00 ea 69 bc a4 88 33 3e d8 10 65 3d 1a 9a 08 3e
       -0.014276981 0.17532593 0.055924267 0.13340035
000010 50 69 bd bd 72 33 e1 bd b1 d5 55 be 1d 01 d9 bd
       -0.092486024 -0.109961405 -0.20882298 -0.105959155
000020 d0 8f 49 3e 3c 32 ed 3d fe 70 36 3e 38 93 12 3d
       0.19683766 0.11581847 0.1781654 0.03578493
000030 36 6b 25 3e 75 16 2b be ac 0d 2c 3e e0 4f 06 3e
       0.16154179 -0.16707785 0.1680209 0.13116407
000040 bd c1 15 be 68 00 d2 bd c4 58 37 3e 38 60 0e be
       -0.14624687 -0.10253984 0.17904955 -0.13903892
000050 f8 fa a2 bd 78 40 7a 3d ae 0c 51 be 18 95 e2 3c
       -0.07958025 0.06109664 -0.20414993 0.027658984
000060 d0 b6 81 3d cc 33 fd 3d 68 e8 be 3c 7e 3e 19 3e
       0.06333697 0.12363395 0.02330418 0.14965245
000070 5b 73 5c be 60 03 a1 3d 8c 56 6a bd 93 b6 49 be
       -0.2152838 0.07861972 -0.057211444 -0.19698553
000080 42 72 15 be 44 a8 06 3e 3c d0 53 3e 64 41 95 3d
       -0.14594367 0.13150126 0.20684904 0.07287863
000090 70 e6 47 bd 56 56 3a be 1f fc 1f be 80 1a c3 3d
       -0.048803747 -0.18196997 -0.1562352 0.09526539
0000a0 d8 42 3c 3e c0 d3 1c bc b2 ab 1a be 80 e6 1d 3d
       0.18384874 -0.0095719695 -0.15104559 0.0385499
0000b0 82 1b 37 be a8 cf a0 bd e0 71 19 bc 30 19 78 bd
       -0.17881587 -0.07852107 -0.009365529 -0.060570896
0000c0 0c ec 10 be a8 54 1a bd da 8a 4f be 67 42 20 be
       -0.14152545 -0.03767839 -0.20267811 -0.1565033
0000d0 2a 21 91 bd f5 97 cc bd e1 20 01 be 24 e4 07 be
       -0.07086404 -0.09989921 -0.12610199 -0.13270622
0000e0 56 e2 14 be e2 e1 5a 3e 08 51 35 3d fd 7a 21 be
       -0.14539465 0.2137523 0.04426673 -0.15769573
0000f0 fb 58 c7 bd df 0b 47 be eb 34 29 be 7e a1 0d be
       -0.097337686 -0.19438122 -0.16524093 -0.13831136
000100 2e 8d 11 be 84 0d 35 3e 38 a7 be bc 18 4d 2b 3d
       -0.14214012 0.17680937 -0.023273095 0.04182157
000110 e8 66 56 3d dc 66 04 3e e8 4e fb bc 98 76 88 3c
       0.052344233 0.12929863 -0.030677274 0.016658112
000120 1c 41 80 bd 8c 9f a6 3d a0 07 d4 3c c6 93 4a be
       -0.06262419 0.081359 0.025882542 -0.19782934
000130 d0 62 07 3e 9c a6 96 3d 8a b5 aa bd b3 2b fb bd
       0.13221288 0.07355997 -0.08335407 -0.12264194
000140 50 87 1b bd 40 f9 12 3c 2a 12 27 be 0f 7f 53 be
       -0.03797084 0.008970559 -0.16315523 -0.20653938
000150 0e a3 21 3e d0 17 43 bc bc 8f 3c 3e 57 e4 d7 bd
       0.15784857 -0.011907533 0.18414205 -0.10541599
000160 14 5f 39 3e 60 5b 35 bc b6 60 3d 3e 14 17 bc 3d
       0.18102676 -0.011069149 0.18493924 0.09184089
000170 be b2 0e be 6e 8b 55 be a4 de d2 3d 08 04 b3 3d
       -0.13935372 -0.2085397 0.102963716 0.08741003
000180 a6 a0 17 3e d0 3b 9d bc a0 1a 17 bc 61 1e 1c be
       0.14807376 -0.01919356 -0.0092226565 -0.15245964
000190 dc bc 94 bd e2 6a 29 be 1c 1b 89 3d c4 be 0a be
       -0.072625846 -0.16544679 0.06694624 -0.13549334
0001a0 44 ae 04 3e 30 00 e9 bc 54 12 ea 3d 19 79 1f be
       0.12957102 -0.028442472 0.11429277 -0.15573539
0001b0 b4 eb 16 be ea 77 da bd b6 8f 56 3e 90 21 69 bd
       -0.14738351 -0.10667403 0.20953259 -0.056916773
0001c0 4c 1f b9 3d b0 40 00 be 52 0a c9 bd e8 59 cc 3d
       0.090391725 -0.12524676 -0.098164216 0.09978086
0001d0 a0 92 13 3e 34 9a d1 3d 21 36 ee bd c8 5d c9 bd
       0.14411402 0.1023449 -0.11631418 -0.098323405
0001e0 80 2e 6f 3d f8 7c a6 bc 1f f2 ee bd 82 59 03 3e
       0.058393955 -0.020323262 -0.11667275 0.12827113
0001f0 60 7b 2e bd 5e 2f 42 be 0c 23 a5 3d 98 c1 bf 3d
       -0.04259813 -0.18963382 0.08063325 0.09363097
