results/SlayRL_FINAL106BLOCKED/SlayTheSquire_RL/checkpoint.pt (torch, 466475 bytes, 47 tensors)

network_body.observation_encoder.processors.0.normalizer.running_mean f4 [12]
0.96918017 -0.24623226 0.0016965899 0.9999928 -0.4870175 -0.4870134 -0.4870175 0.0
0.0 0.0 -0.0002877928 0.0
00000000: 311c 783f 4f24 7cbe 1c60 de3a 87ff 7f3f
00000010: 5c5a f9be d259 f9be 5c5a f9be 0000 0000
00000020: 0000 0000 0000 0000 e5e2 96b9 0000 0000

network_body.observation_encoder.processors.0.normalizer.running_variance f4 [12]
2.613303 12.694266 1.0000218 1.999977 62503.83 62503.84 62503.83 1.0
1.0 1.0 72.97935 1.0
00000000: 5b40 2740 b71b 4b41 b700 803f 3fff ff3f
00000010: d427 7447 d727 7447 d427 7447 0000 803f
00000020: 0000 803f 0000 803f 6df5 9142 0000 803f

network_body.processors.0.normalizer.running_mean f4 [12]
0.96918017 -0.24623226 0.0016965899 0.9999928 -0.4870175 -0.4870134 -0.4870175 0.0
0.0 0.0 -0.0002877928 0.0
00000000: 311c 783f 4f24 7cbe 1c60 de3a 87ff 7f3f
00000010: 5c5a f9be d259 f9be 5c5a f9be 0000 0000
00000020: 0000 0000 0000 0000 e5e2 96b9 0000 0000

network_body.processors.0.normalizer.running_variance f4 [12]
2.613303 12.694266 1.0000218 1.999977 62503.83 62503.84 62503.83 1.0
1.0 1.0 72.97935 1.0
00000000: 5b40 2740 b71b 4b41 b700 803f 3fff ff3f
00000010: d427 7447 d727 7447 d427 7447 0000 803f
00000020: 0000 803f 0000 803f 6df5 9142 0000 803f

network_body._body_endoder.seq_layers.0.weight f4 [128, 12]
0.5501637 -0.0016313295 0.21991408 -0.05526341 0.079582304 -0.23034722 -0.08431563 -0.33768404
0.1282378 -0.16421148 -0.15423244 -0.030572018 -0.18104999 0.49032387 -0.04421335 -0.10362708
-0.0143963 -0.061989173 -0.11683849 0.15326653 -0.5322901 0.027766002 0.12049105 0.53793085
0.048419632 -0.11563484 -0.12830973 0.1921106 0.08585459 -0.026749862 0.29924452 0.058621056
0.48392996 0.45388022 -0.23502477 0.68217415 0.1295553 -0.23602597 0.22861221 -0.36818102
-0.10368499 -0.47014627 0.5098369 0.07244434 -0.12143975 -0.116128 -0.06439975 0.14911571
-0.21177869 -0.10029159 -0.5118356 -0.007060843 -0.23189746 -0.4691645 0.10302146 -0.08083083
0.057251055 0.19948038 -0.29848167 0.31577063 0.10264762 0.115627654 -0.35690868 -0.17106034
-0.15607858 -0.30963162 -0.424103 -0.7633871 0.3847326 -0.44183892 0.2828052 0.023881389
0.1132211 0.11042605 -0.017124118 -0.26964056 -0.24889922 0.20768973 -0.408624 0.03737945
0.3217289 0.0059346715 -0.8517359 0.33349004 0.4117628 0.4594778 -0.066241615 -0.5009669
-0.3493195 -0.15389141 0.26765192 0.3930129 0.3140833 0.2590012 -0.32385206 0.36043316
-0.34678438 -0.03916117 -0.2825804 0.055699166 0.3115198 0.25682694 -0.2857054 -0.4187262
-0.38982785 -0.2818068 -0.008004831 0.24815293 -0.043805458 0.00016056285 -0.5199292 0.18848409
-0.041722428 0.17720807 -0.22038572 -0.28042725 -0.15013573 -0.031402603 0.18025918 -0.11251609
0.24031162 0.12601596 0.2085084 -0.07000811 0.15239379 -0.31102464 0.29873127 0.13663429
-0.28882954 -0.00138591 -0.09152692 -0.18935806 0.111133784 0.12554328 -0.76386726 -0.70683783
0.96199477 -0.0022732005 -0.10183099 0.19484161 -0.42198065 -0.11229571 -0.058696218 0.08388753
0.1725269 0.18626152 0.55045927 0.3260937 0.5458772 0.30312485 0.16494083 0.2009739
-0.20631957 -0.22683066 -0.41100022 0.1445214 0.08003935 -0.026745042 -0.21067911 0.099421546
0.26695833 0.0819962 0.00072238507 0.33115262 -0.20083067 0.28482988 0.27804005 -0.018656401
-0.0059444173 -0.09979621 0.27671528 -0.0989713 -0.33926982 -0.018485222 -0.12310487 0.27470192
-0.5652817 -0.061590176 -0.13341999 0.44493017 -0.087264545 -0.17259717 0.34294084 0.18592909
0.8132272 0.46751887 -0.41115656 0.1815019 -0.65682125 0.025796749 0.4110726 -0.18573721
-0.54808795 -0.14370798 -0.35160005 -0.09660238 -0.33059135 0.11057247 0.42305604 0.41577274
-0.0059069013 0.35692897 0.05474811 0.6255343 -0.05333052 -0.42857906 -0.057876594 0.26519364
0.24219076 0.17562707 -0.058161005 -0.50817525 0.14948957 0.08575084 -0.096010454 0.06453258
0.1767556 -0.4319818 0.4479432 -0.5473662 0.3958217 -0.3213947 0.07448512 -0.14518766
-0.17296912 0.3038603 -0.52156276 -0.20773502 -0.2146592 0.13801755 0.7441865 -0.31434444
0.5019604 -0.2587551 0.2908717 0.6424545 0.068887584 -0.20122787 -0.09721504 0.3471597
-0.43469098 0.28551283 -0.07871628 -0.02934519 -0.09949022 -0.29477787 0.53159034 -0.043727838
-0.118608646 0.24799345 -0.07589492 -0.10057177 -0.19920397 -0.16371296 0.24814071 -0.03767029
00000000: 87d7 0c3f 56d2 d5ba 2831 613e e35b 62bd
00000010: 0cfc a23d 24e0 6bbe acad acbd ece4 acbe
00000020: c550 033e 0e27 28be 1cef 1dbe 2b72 fabc
00000030: 2b65 39be bb0b fb3e 0f19 35bd 6f3a d4bd
00000040: 75de 6bbc 5ce8 7dbd 0549 efbd e7f1 1c3e
00000050: 2a44 08bf 8775 e33c 03c4 f63d d6b5 093f
00000060: aa53 463d f6d1 ecbd a063 03be a4b8 443e
00000070: 88d4 af3d 8722 dbbc 9436 993e a21c 703d
00000080: abc5 f73e fd62 e83e 55aa 70be f7a2 2e3f
00000090: 25aa 043e cbb0 71be 5219 6a3e 3982 bcbe
000000a0: cc58 d4bd 03b7 f0be ac84 023f b35d 943d
000000b0: 67b5 f8bd 84d4 edbd 04e4 83bd cab1 183e
000000c0: 83dc 58be ad65 cdbd a807 03bf a55e e7bb
000000d0: 8776 6dbe 5436 f0be eafc d23d a28a a5bd
000000e0: 1580 6a3d 9644 4c3e 97d2 98be b0ac a13e
000000f0: ea38 d23d 31ce ec3d bcbc b6be 712a 2fbe
00000100: 10d3 1fbe 0988 9ebe 0724 d9be 566d 43bf
00000110: acfb c43e b638 e2be d8cb 903e e7a2 c33c
00000120: 77e0 e73d 0e27 e23d e147 8cbc 540e 8abe
00000130: 70df 7ebe 9eac 543e 2a37 d1be 321b 193d
00000140: a6b9 a43e a277 c23b 5d0b 5abf 35bf aa3e
00000150: 93d2 d23e ad40 eb3e afa9 87bd 5e3f 00bf
00000160: 01da b2be b695 1dbe ac09 893e fd38 c93e
00000170: 87cf a03e ce9b 843e f0cf a5be b28a b83e
00000180: b98d b1be 7767 20bd 61ae 90be cf24 643d
00000190: 867f 9f3e d27e 833e fa47 92be 4863 d6be
000001a0: 8497 c7be fb48 90be b226 03bc cd1b 7e3e
000001b0: 5a6d 33bd c35c 2839 141a 05bf f901 413e
000001c0: 23e5 2abd 0876 353e cbac 61be 2994 8fbe
000001d0: 2ebd 19be 04a0 00bd dd95 383e d66e e6bd
000001e0: 4014 763e 540a 013e 3a83 553e 6960 8fbd
000001f0: 1e0d 1c3e 9f3e 9fbe 4ef3 983e dce9 0b3e
00000200: 77e1 93be 6ca7 b5ba 7772 bbbd 14e7 41be
00000210: 1c9a e33d 6b8e 003e ce8c 43bf 53f3 34bf
00000220: 4a45 763f faf9 14bb c48c d0bd 8f84 473e
00000230: d90d d8be 4bfb e5bd 726b 70bd 3acd ab3d
00000240: e4aa 303e 57bb 3e3e e6ea 0c3f c1f5 a63e
00000250: 9cbe 0b3f 2e33 9b3e 40e6 283e 1acc 4d3e
00000260: 7045 53be 4c46 68be 9f6e d2be 6bfd 133e
00000270: aceb a33d 6b18 dbbc 44bc 57be 869d cb3d
00000280: c3ae 883e a0ed a73d 715e 3d3a d68c a93e
00000290: 8ea6 4dbe 39d5 913e 445b 8e3e 4fd5 98bc
000002a0: 63c9 c2bb f561 ccbd a0ad 8d3e 77b1 cabd
000002b0: c6b4 adbe 526e 97bc 681e fcbd bba5 8c3e
000002c0: 4db6 10bf fb45 7cbd 409f 08be e3cd e33e
000002d0: c1b7 b2bd 50bd 30be f195 af3e 3264 3e3e
000002e0: a82f 503f a25e ef3e 1d83 d2be a2db 393e
000002f0: 7025 28bf b453 d33c 1c78 d23e e531 3ebe
00000300: 7e4f 0cbf 2f28 13be ec04 b4be 78d7 c5bd
00000310: 4543 a9be d273 e23d cd9a d83e 2ae0 d43e
00000320: ae8e c1bb 65bf b63e 8e3f 603d 0423 203f
00000330: 1a71 5abd b76e dbbe 0210 6dbd 76c7 873e
00000340: db00 783e 95d7 333e 3c3a 6ebd c617 02bf
00000350: cb13 193e 239e af3d 21a1 c4bd a829 843d
00000360: 6cff 343e b82c ddbe d058 e53e 3120 0cbf
00000370: 24a9 ca3e d98d a4be a88b 983d 13ac 14be
00000380: d11e 31be 9493 9b3e 2385 05bf 7db8 54be
00000390: 9fcf 5bbe 7954 0d3e 0283 3e3f c1f1 a0be
000003a0: 7a80 003f 8c7b 84be 23ed 943e e677 243f
000003b0: ef14 8d3d ae0e 4ebe ae18 c7bd ebbe b13e
000003c0: d18f debe bd2e 923e 0036 a1bd 5365 f0bc
000003d0: 87c1 cbbd 20ed 96be 4e16 083f f61b 33bd
000003e0: 17e9 f2bd fff1 7d3e cc6e 9bbd 92f8 cdbd
000003f0: 20fc 4bbe 5fa4 27be 9918 7e3e 294c 1abd

network_body._body_endoder.seq_layers.0.bias f4 [128]
0.039593637 0.011169126 -0.024646368 0.012848113 0.0124373315 0.0040247655 -0.019240923 -0.002387789
-0.013014347 0.024727013 -0.006757319 -0.028115375 0.027394531 -0.034377504 0.012922421 -0.026426816
0.00031595366 -0.017995488 -0.019919228 0.011977137 -0.01436991 -0.013762534 -0.012029022 0.013283074
0.009852957 0.021806004 0.010794177 -0.003246043 0.012255595 0.010258082 0.0038792635 0.0022042003
0.0021903187 0.022579266 0.007523327 0.014338576 0.0076151076 0.009170536 0.0054705334 -0.0118276505
-0.0068557644 -0.003288631 0.017844368 0.027889153 0.019665193 0.019191196 -0.015189098 0.012537002
-0.020499222 0.014609109 0.01662952 0.0042290706 -0.027019223 -0.009241585 -0.011740588 0.009538506
0.0098110335 0.026853295 -0.005113684 0.00050059456 0.019621758 0.025563153 -0.005757924 -0.0113260485
0.0016042901 0.019786151 0.015077135 0.0040100417 -0.037491087 0.0043128915 -0.022388283 0.002114066
-0.014037896 -0.006107138 -0.007968969 -0.0055969665 0.019858409 0.0025430145 0.0006226331 -0.006933879
-0.019597411 0.013504805 -0.049381115 0.008162485 0.0059502 -0.011468137 -0.01151836 -0.0075995466
0.021674676 0.013603157 0.0035929494 0.005297485 0.015386756 0.0058068694 -0.0019715158 0.0028366197
0.0049432907 -0.013374539 0.019790743 0.0015283496 -0.005502846 -0.014746623 0.02074279 0.033594687
-0.0019029318 -0.025262166 -0.025267376 -0.017791878 0.013927446 0.013940244 0.0003132524 -0.03678818
-0.029842718 0.013839153 0.018216116 -0.008958128 0.0160257 0.005059087 0.016085489 0.0023350362
0.001750406 -0.017831748 0.013369384 -0.015530776 0.023302307 0.007388942 0.012021309 0.003148446
00000000: f02c 223d b6fe 363c 2ee7 c9bc e480 523c
00000010: f3c5 4b3c 2ee2 833b 249f 9dbc 747c 1cbb
00000020: 213a 55bc 4e90 ca3c 806c ddbb 3752 e6bc
00000030: 7f6a e03c 6dcf 0cbd 90b8 533c 0d7d d8bc
00000040: 95a6 a539 466b 93bc a62d a3bc c13b 443c
00000050: c56f 6bbc 407c 61bc 6015 45bc 40a1 593c
00000060: 4c6e 213c 81a2 b23c 0fda 303c 91bb 54bb
00000070: b1cb 483c 8411 283c 3e3b 7e3b 5874 103b
00000080: 738b 0f3b 27f8 b83c 3e86 f63b 59ec 6a3c
00000090: 2788 f93b 0440 163c 2942 b33b c3c8 41bc
000000a0: 52a6 e0bb 1386 57bb 5a2e 923c cb77 e43c
000000b0: e618 a13c db36 9d3c b2db 78bc ff67 4d3c
000000c0: fced a7bc 0b5b 6f3c a23a 883c 0494 8a3b
000000d0: 6b57 ddbc 046a 17bc 985b 40bc 6547 1c3c
000000e0: 75be 203c 71fb db3c b190 a7bb 553a 033a
000000f0: cfbd a03c d169 d13c f8ac bcbb e490 39bc
00000100: 0b47 d23a 9116 a23c 1606 773c ab66 833b
00000110: 4190 19bd 2853 8d3b a267 b7bc 248c 0a3b
00000120: 34ff 65bc 631e c8bb 4790 02bc c266 b7bb
00000130: 1aae a23c b4a8 263b 3338 233a 9835 e3bb
00000140: c08a a0bc 4243 5d3c da43 4abd f2bb 053c
00000150: e5f9 c23b dae4 3bbc 81b7 3cbc 9e05 f9bb
00000160: 178f b13c c7df 5e3c b077 6b3b 8696 ad3b
00000170: bb18 7c3c 8d47 be3b 8c34 01bb 95e6 393b
00000180: 54fb a13b e220 5bbc 3220 a23c e752 c83a
00000190: 3851 b4bb d29b 71bc c9ec a93c 959a 093d
000001a0: cc6b f9ba 9af2 cebc 87fd cebc 46c0 91bc
000001b0: f12f 643c 9f65 643c 073c a439 34af 16bd
000001c0: b778 f4bc 9dbd 623c f739 953c 1dc5 12bc
000001d0: 5448 833c b3c6 a53b b7c5 833c 6807 193b
000001e0: e16d e53a e313 92bc 430b 5b3c cc74 7ebc
000001f0: 7be4 be3c f01e f23b 06f5 443c 2956 4e3b

network_body._body_endoder.seq_layers.2.weight f4 [128, 128]
0.050302777 0.062208004 -0.047335297 0.054766823 0.14704508 -0.014243262 -0.1771217 -0.055132512
-0.08924423 -0.04091861 -0.06591222 0.14023909 -0.07066482 0.07923141 -0.015630722 -0.022026647
0.0094264755 -0.014614894 0.133888 0.016075712 0.050511416 0.035387248 -0.11721548 -0.12276114
0.04725813 0.029550243 -0.07499619 0.035787147 -0.0048505 0.17136234 0.001589349 -0.009124694
0.16144574 0.0031649638 -0.091780685 -0.15248509 0.009458546 0.17580327 -0.033359796 0.17069791
-0.032370586 0.10160967 -0.0046765804 -0.028024629 0.03239007 0.060274675 0.20928234 0.029076742
0.10138277 -0.1304152 -0.18969515 0.101067305 -0.057004493 -0.075024806 -0.002418553 0.10298203
-0.14185995 -0.016402334 -0.09718371 0.032667 -0.23731317 -0.10192849 0.07128138 -0.032800302
0.08955709 0.029601429 0.030453473 -0.01949301 -0.013699458 0.07512986 0.09001701 0.04204537
-0.028901167 0.08648203 0.064819194 -0.122186616 -0.0319156 -0.07304473 -0.10487217 0.039146665
-0.1542721 0.0715358 0.015543738 -0.053652193 0.020627318 0.09243019 -0.16160744 -0.009994001
-0.19834627 0.11950538 0.20409968 -0.12346868 0.14685696 -0.11466464 -0.0105833085 -0.0156151075
0.100910194 0.081247374 0.12546942 -0.04044549 -0.046519097 0.08433341 -0.1524451 -0.038060244
-0.05572957 0.09134753 -0.08339822 -0.03228679 -0.12799701 -0.23004337 0.09737238 0.14364202
-0.087585114 0.0019948175 -0.030146303 -0.015841903 0.007680007 0.06340643 0.050052263 0.076098844
-0.05714564 0.14787792 -0.039982267 -0.0019928734 -0.07299722 -0.028393157 0.029109363 -0.11486603
-0.108910866 -0.0075080856 -0.2075798 0.25102642 0.13131851 0.09052059 -0.0948609 -0.12023048
-0.02342612 0.013798386 0.029516714 -0.18958922 -0.14691363 0.0052247723 -0.102471665 0.062276248
-0.085277416 0.08084074 0.1368802 0.04961942 0.09274804 -0.07187529 0.010197666 -0.06409632
0.03717768 0.16119951 0.111912966 -0.08173913 0.067193806 -0.017103998 0.05410226 -0.005606146
-0.12165899 -0.07497488 0.1586238 0.034616545 -0.106327705 0.008282156 -0.073388845 0.14472415
-0.10230954 0.034391683 0.023389636 -0.11001035 -0.034030724 0.15736017 -0.07415341 0.0018014045
-0.07703024 -0.055871133 0.050174434 -0.12538134 0.11604024 0.06537095 -0.0253632 -0.018046182
-0.060187865 0.03833525 -0.013701281 0.06910598 -0.040611736 0.1786677 -0.08321937 -0.17154136
-0.0076700714 -0.124929026 -0.051061872 0.18427993 -0.0070920717 0.0032737837 -0.053739995 -0.024376022
0.16917127 -0.20939253 -0.012635735 0.089702874 0.017072815 -0.19053943 -0.23175935 -0.02480669
-0.078267016 0.080892704 -0.15386623 -0.11019305 -0.08278754 0.07793351 -0.02074954 -0.04749702
-0.12835974 0.051464245 0.055824272 -0.06788375 0.043257434 -0.023482813 0.11143589 -0.0963207
0.006778589 -0.10583596 0.1643926 -0.18674405 -0.09603272 -0.0039459746 0.13088274 0.021550225
0.060923208 -0.09866211 -0.06278674 -0.1882295 0.12650037 0.016549105 0.22153439 -0.071655534
0.05634132 0.014982864 0.15774171 -0.02095186 -0.13234007 -0.13432354 0.019629126 -0.14302474
-0.00031634662 -0.056697838 -0.026981898 -0.13650998 -0.09625278 -0.016850913 -0.05471949 -0.09069218
00000000: 490a 4e3d d2cd 7e3d a8e2 41bd 2d53 603d
00000010: fc92 163e 925c 69bc 645f 35be a1d2 61bd
00000020: aec5 b6bd 469a 27bd fcfc 86bd d69a 0f3e
00000030: b8b8 90bd 1444 a23d 000c 80bc 3a71 b4bc
00000040: 8171 1a3c 4f73 6fbc f019 093e 36b1 833c
00000050: 0fe5 4e3d 38f2 103d ab0e f0bd 316a fbbd
00000060: be91 413d 5a13 f23c 9a97 99bd 8b95 123d
00000070: f1f0 9ebb 9c79 2f3e b451 d03a be7f 15bc
00000080: 0852 253e 486b 4f3b 83f7 bbbd 0d25 1cbe
00000090: 04f8 1a3c c605 343e 48a4 08bd 6fcb 2e3e
000000a0: 0597 04bd bb18 d03d 003e 99bb e893 e5bc
000000b0: 73ab 043d 94e2 763d 1c4e 563e 5932 ee3c
000000c0: c5a1 cf3d 908b 05be 723f 42be 60fc ce3d
000000d0: 8b7d 69bd 9ba6 99bd 9680 1ebb 3ee8 d23d
000000e0: bc43 11be 305e 86bc 4108 c7bd d5cd 053d
000000f0: 3902 73be e2bf d0bd f9fb 913d 9c59 06bd
00000100: b569 b73d b27e f23c 9079 f93c ceaf 9fbc
00000110: b173 60bc afdd 993d d75a b83d c437 2c3d
00000120: 24c2 ecbc 7e1d b13d edbf 843d fa3c fabd
00000130: efb9 02bd 7a98 95bd 38c7 d6bd 4158 203d
00000140: 81f9 1dbe 5d81 923d 2aab 7e3c 67c2 5bbd
00000150: 9ffa a83c 0a4c bd3d 6c7c 25be e1bd 23bc
00000160: 491b 4bbe 3dbf f43d 82ff 503e 26dd fcbd
00000170: ac61 163e 4bd5 eabd 9d65 2dbc 82d6 7fbc
00000180: 01aa ce3d 0665 a63d 0e7b 003e 2caa 25bd
00000190: cf8a 3ebd ffb6 ac3d 911a 1cbe 0fe5 1bbd
000001a0: b144 64bd 6a14 bb3d b0cc aabd 273f 04bd
000001b0: a611 03be 7d90 6bbe 2c6b c73d e516 133e
000001c0: d35f b3bd 7cbb 023b 61f5 f6bc e1c6 81bc
000001d0: 91a8 fb3b 3bdb 813d 9a03 4d3d b6d9 9b3d
000001e0: 8c11 6abd 4f6d 173e 72c4 23bd de9a 02bb
000001f0: 917f 95bd c498 e8bc c276 ee3c e23e ebbd
00000200: a90c dfbd 6306 f6bb cd8f 54be 8986 803e
00000210: 5c78 063e dc62 b93d 6e46 c2bd 663b f6bd
00000220: 22e8 bfbc a012 623c 09cd f13c ad23 42be
00000230: 8770 16be 9134 ab3b aadc d1bd 6115 7f3d
00000240: eda5 aebd d48f a53d 532a 0c3e bc3d 4b3d
00000250: aff2 bd3d 5a33 93bd 1c14 273c ee44 83bd
00000260: 9f47 183d 7c11 253e a032 e53d d866 a7bd
00000270: e89c 893d af1d 8cbc 559a 5d3d c3b3 b7bb
00000280: 5928 f9bd 6e8c 99bd 476e 223e 14ca 0d3d
00000290: 57c2 d9bd e1b1 073c e44c 96bd 9132 143e
000002a0: aa87 d1bd 4bde 0c3d 9f9b bf3c 1b4d e1bd
000002b0: cd63 0bbd 0623 213e bedd 97bd 1b1d ec3a
000002c0: 08c2 9dbd 21d9 64bd b583 4d3d f763 00be
000002d0: 81a6 ed3d 34e1 853d 7cc6 cfbc 96d5 93bc
000002e0: 8d87 76bd 6c05 1d3d 567b 60bc 7087 8d3d
000002f0: 7e58 26bd aaf4 363e eb6e aabd 8aa8 2fbe
00000300: 3955 fbbb cada ffbd 4126 51bd e1b3 3c3e
00000310: 9c64 e8bb fa8c 563b 781e 5cbd 39b0 c7bc
00000320: 3c3b 2d3e ff6a 56be 1d06 4fbc 24b6 b73d
00000330: 4adc 8b3c c51c 43be 5352 6dbe 6637 cbbc
00000340: 754a a0bd 13ab a53d 1c8f 1dbe e5ac e1bd
00000350: 848c a9bd 9b9b 9f3d f0fa a9bc 3c8c 42bd
00000360: bc70 03be 2ccc 523d fea7 643d a306 8bbd
00000370: b52e 313d 075f c0bc 8038 e43d ca43 c5bd
00000380: ed1e de3b 86c0 d8bd 8956 283e d539 3fbe
00000390: cdac c4bd 3c4d 81bb 2006 063e 198a b03c
000003a0: 9d8a 793d 5c0f cabd 5696 80bd 3cbf 40be
000003b0: 5089 013e fd91 873c e9d9 623e 23c0 92bd
000003c0: 28c6 663d b07a 753c 0b87 213e 3ca3 abbc
000003d0: 2884 07be 1c8c 09be 43cd a03c 1475 12be
000003e0: 53db a5b9 fe3b 68bd 2409 ddbc 46c9 0bbe
000003f0: 2d20 c5bd ed0a 8abc 8b21 60bd d2bc b9bd

network_body._body_endoder.seq_layers.2.bias f4 [128]
-0.00044824058 -0.00012898537 -0.0020758456 0.0003496988 -0.004332808 0.011234614 -0.00038541522 -0.00048405962
-0.00945131 -0.0048518954 -0.0016738983 0.020678159 -0.0030814006 -0.024623564 0.009819453 0.0014630776
0.013131275 -0.0036454313 0.006304268 0.007935617 -0.0031115524 -0.003383879 0.009106391 0.005344513
-0.00024048211 -0.008277987 0.014268466 0.004347866 0.020202743 0.011712428 0.002121841 -0.01837042
-9.9763696e-05 0.0072480277 -0.0025652 0.01950348 -0.0035097003 0.010298912 -0.0057715327 0.00011154937
0.013725529 0.0042622485 0.027370615 -0.015513064 -0.006122729 -0.0016325093 0.009332674 0.0037139675
-0.011206811 0.010836346 0.011424738 0.0069708405 0.00029534937 0.015853226 0.0058999117 0.01648605
0.006069499 0.0146046225 0.0013591927 0.034097888 -0.006507118 0.013511743 0.008044442 -0.0031978292
-0.004937689 0.002448314 0.00054707966 0.012222898 0.0077246833 -0.011535847 0.0031387352 0.011729002
0.0023932222 -0.004671424 -0.001536341 0.0045104995 -0.021178532 0.0008496684 0.0072149388 -0.0055927928
-0.0057323333 0.010847928 -0.0075768526 -0.032359727 -0.023978505 -0.0018269566 0.0014053503 -0.0009239513
-0.005330846 0.01197365 0.005578093 0.0005960886 -0.0025051816 0.0087148305 0.00027524566 -0.004681619
0.03287568 0.0035763094 0.002365386 -0.00024236253 0.007619538 0.0002651056 0.0031915726 -0.010410992
0.0124451155 0.008011788 0.0060132523 -0.05981297 0.016467512 -0.011696649 0.008043097 0.0033617648
0.006309601 -0.0010623144 0.00712718 0.0063271984 -0.0065411273 -0.022838028 0.0069958144 0.00808558
-0.00083039 -0.00046284313 -0.0013260604 -0.0036080582 0.00027034365 0.035927895 0.006973507 0.021778524
00000000: d501 ebb9 3f40 07b9 e90a 08bb c757 b739
00000010: 3afa 8dbb 6311 383c 8e11 cab9 62c9 fdb9
00000020: abd9 1abc a6fc 9ebb b566 dbba 3e65 a93c
00000030: 53f1 49bb 5bb7 c9bc c5e1 203c bdc4 bf3a
00000040: 8f24 573c 30e8 6ebb 0894 ce3b 6404 023c
00000050: 30eb 4bbb 12c4 5dbb f932 153c 0621 af3b
00000060: ed29 7cb9 65a0 07bc 49c6 693c 8b78 8e3b
00000070: 3980 a53c 7ce5 3f3c 960e 0b3b 907d 96bc
00000080: 3a38 d1b8 dd80 ed3b ea1c 28bb c3c5 9f3c
00000090: 0003 66bb c5bc 283c 201f bdbb 9def e938
000000a0: 0be1 603c 55aa 8b3b 5738 e03c 822a 7ebc
000000b0: 2ca1 c8bb ecf9 d5ba 12e8 183c 0966 733b
000000c0: c69c 37bc ee8a 313c d32e 3b3c a66b e43b
000000d0: 1fd9 9a39 a0de 813c 0c54 c13b c10d 873c
000000e0: a6e2 c63b 3a48 6f3c f026 b23a 3aaa 0b3d
000000f0: aa39 d5bb 5c60 5d3c d6cc 033c ac92 51bb
00000100: 56cc a1bb e573 203b e569 0f3a 8d42 483c
00000110: 571f fd3b d900 3dbc 3db3 4d3b 002b 403c
00000120: 9bd7 1c3b bf12 99bb 0d5f c9ba d0cc 933b
00000130: 9a7e adbc 48bc 5e3a 4b6b ec3b bf43 b7bb
00000140: 4cd6 bbbb 82bb 313c 3f47 f8bb a28b 04bd
00000150: 926e c4bc 7e76 efba bb33 b83a 5235 72ba
00000160: 61ae aebb 212d 443c 70c8 b63b d442 1c3a
00000170: f92d 24bb a6c8 0e3c d94e 9039 4468 99bb
00000180: a6a8 063d 8460 6a3b 9804 1b3b b222 7eb9
00000190: 51ad f93b dffd 8a39 b429 513b de92 2abc
000001a0: 99e6 4b3c e043 033c d10a c53b 72fe 74bd
000001b0: e0e6 863c 4da3 3fbc 32c7 033c 0e51 5c3b
000001c0: c5c0 ce3b 5b3d 8bba 1f8b e93b 6354 cf3b
000001d0: f456 d6bb d116 bbbc 253d e53b 6179 043c
000001e0: 88ae 59ba c1a9 f2b9 34cf adba 2c75 6cbb
000001f0: e9bc 8d39 2129 133d 0482 e43b e068 b23c

action_model._continuous_distribution.log_sigma f4 [1, 2]
0.030802922 0.0018906319
00000000: 6956 fc3c 14cf f73a

action_model._continuous_distribution.mu.weight f4 [2, 128]
-0.0064816885 0.050259296 0.01723141 0.04176576 0.033154305 -0.019508205 0.054307327 0.01941346
-0.03372751 -0.011469955 -0.01869704 0.027996833 -0.024818964 0.03440923 -0.016752714 0.028604282
0.0497779 -0.01442797 0.026778786 -0.003267315 -0.0005608245 0.044433776 -0.0355008 -0.008716608
0.051633913 0.029345565 0.045143586 -0.016666828 -0.03193573 0.03091673 0.026002329 0.0022828944
-0.059286535 -0.00856903 -0.050990634 -0.024603052 -0.0057519865 0.04211106 0.014909143 -0.02161919
-0.0053443983 -0.027113242 -0.0090178065 0.004123735 -0.03568803 0.01571903 0.06621853 -0.042480122
-0.02024252 -0.03876515 -0.015224525 -0.033541363 0.0014390857 -0.021159718 -0.03352034 0.0059202905
-0.015679454 0.030216075 0.033487193 0.023495186 -0.002812121 0.00965444 -0.024727257 -0.015632821
0.038536936 0.054663185 -0.04052115 0.066185854 -0.032034405 -0.011373249 0.026724601 -0.048426088
0.014603499 -0.016473038 -0.012699179 0.07722765 -0.01068142 -0.02226646 -0.021608172 -0.023199955
0.0056328266 -0.030094083 -0.033827152 -0.003130013 -0.00640445 -0.025731642 -0.056255676 0.030089216
-0.029395845 -0.010389834 -0.0033576563 -0.026018558 -0.028690761 0.013979688 0.048271704 0.031503014
-0.0038390143 0.06050187 -0.02817564 0.0302149 0.01115182 -0.056433566 -0.04234244 -0.021238837
0.026538108 0.07031257 0.0020587835 -0.017159577 0.02344109 -0.012088243 0.064802654 0.060673956
-0.018837295 -0.006911616 0.008854185 -0.0021081686 -0.015693907 -0.00637671 0.022603499 -0.038359046
-0.005385033 0.043382507 0.009631115 -0.024940133 0.0042918953 0.022818645 0.0067645833 0.025269935
-0.039269198 -0.016136589 -0.033994053 -0.034062337 -0.05541944 0.03330905 -0.0070279855 -0.041351035
-0.018082522 -0.008956411 0.004421078 0.011300249 -0.034900274 -0.014527595 -0.0046192994 -0.018986806
-0.004604645 0.00052195136 -0.010415408 0.004921773 -0.016404403 -0.0066595497 0.010353883 -0.018866345
-0.009348276 -0.008136831 0.024170678 0.0067803 0.034189347 0.033674195 -0.046758424 0.015395957
0.009959172 0.009330083 0.014708733 0.02331713 -0.030970993 -0.0005280219 -0.032540094 0.018234832
0.044816736 0.012420979 0.020534815 -0.032045446 0.0040032705 -0.010527843 0.019545777 0.020181186
-0.0011234117 0.044358194 0.061475135 0.016912859 -0.028665785 0.039918017 -0.007330969 -0.005046701
0.022258384 0.011196547 -0.0073282174 0.027430428 0.014917192 0.027626885 0.03271318 0.012644768
-0.00456747 -0.040472977 0.047244214 -0.0047806785 0.015808707 -0.0011259977 -0.05386548 0.037605174
0.034647316 0.04275302 0.007670955 -0.051692378 -0.010425724 0.0077229086 0.028247003 -0.012651208
-0.0127727 0.009833296 -0.023445973 -0.00938411 -0.023435883 0.007706894 0.026944928 -0.040123127
-0.034588177 0.027792148 -0.008049767 -0.00088314054 0.009258304 0.010942298 -0.023346696 -0.052088518
0.016976427 -0.0070542544 0.015638655 -0.035818227 0.035887472 -0.014509726 0.018765377 -0.018015545
0.06661419 0.011268249 -0.03667657 -0.0023014646 0.03524596 -0.038973305 0.021911211 0.016229915
0.0129136555 -0.019224012 0.036503438 -0.028185882 -0.025037833 -0.023653474 0.013191303 -0.0127493115
0.0041717696 -0.004191951 -0.023092568 -0.004768638 0.03999053 0.026881995 0.019992264 0.01187208
00000000: 5864 d4bb b1dc 4d3d e328 8d3c 9312 2b3d
00000010: cfcc 073d accf 9fbc 5c71 5e3d fa08 9f3c
00000020: dc25 0abd 7aec 3bbc 892a 99bc 9d59 e53c
00000030: 2451 cbbc b1f0 0c3d fd3c 89bc 8753 ea3c
00000040: e9e3 4b3d 4b63 6cbc 2f5f db3c 7320 56bb
00000050: 4c04 13ba 3100 363d 4969 11bd 1bd0 0ebc
00000060: 157e 533d 1c66 f03c 7be8 383d df88 88bc
00000070: 0acf 02bd 1545 fd3c d602 d53c 9d9c 153b
00000080: 70d6 72bd 1e65 0cbc 8edb 50bd 578c c9bc
00000090: 297b bcbb a67c 2c3d 7a45 743c ba1a b1bc
000000a0: 1020 afbb 971c debc 6cbf 13bc 6520 873b
000000b0: 9d2d 12bd 32c5 803c 959d 873d a3ff 2dbd
000000c0: a4d3 a5bc 35c8 1ebd 4970 79bc ab62 09bd
000000d0: b49f bc3a 2557 adbc a04c 09bd fffe c13b
000000e0: 3372 80bc b487 f73c de29 093d fa78 c03c
000000f0: 904b 38bb a82d 1e3c d190 cabc 6710 80bc
00000100: e8d8 1d3d 81e6 5f3d 81f9 25bd 738c 873d
00000110: 8236 03bd dd56 3abc 8ded da3c 6f5a 46bd
00000120: 8443 6f3c 77f2 86bc 3810 50bc 8829 9e3d
00000130: 1f01 2fbc 2768 b6bc 9f03 b1bc d50d bebc
00000140: 9393 b83b de87 f6bc 578e 0abd e720 4dbb
00000150: 6cdc d1bb 2acb d2bc 5a6c 66bd a97d f63c
00000160: 8ecf f0bc 1f3a 2abc 200c 5cbb df24 d5bc
00000170: e308 ebbc 100b 653c 8db8 453d 4e09 013d
00000180: f997 7bbb cfd0 773d 9ad0 e6bc 3d85 f73c
00000190: 20b6 363c e226 67bd 446f 2dbd 12fd adbc
000001a0: 7266 d93c 0900 903d a8ec 063b 3e92 8cbc
000001b0: 8707 c03c c40d 46bc 41b7 843d 4185 783d
000001c0: ac50 9abc d67a e2bb 2511 113c 3329 0abb
000001d0: 8290 80bc b8f3 d0bb f92a b93c 601e 1dbd
000001e0: ee74 b0bb dbb1 313d d3cb 1d3c 404f ccbc
000001f0: 07a3 8c3b 2bee ba3c 70a9 dd3b e502 cf3c
00000200: bdd8 20bd e130 84bc 593d 0bbd f384 0bbd
00000210: 7fff 62bd 126f 083d 044b e6bb b45f 29bd
00000220: cc21 94bc e9bd 12bc b1de 903b ae24 393c
00000230: 97f3 0ebd 2605 6ebc 7e5d 97bb 388a 9bbc
00000240: 90e2 96bb 90d3 083a 63a5 2abc d346 a13b
00000250: 8762 86bc 5a38 dabb 55a3 293c 988d 9abc
00000260: 8329 19bc 5850 05bc 9601 c63c 472d de3b
00000270: 210a 0c3d f4ed 093d c385 3fbd 533f 7c3c
00000280: cc2b 233c 34dd 183c e6fc 703c 9103 bf3c
00000290: e1b6 fdbc f36a 0aba c348 05bd 3761 953c
000002a0: c191 373d 5d81 4b3c a138 a83c 1642 03bd
000002b0: de2d 833b f97c 2cbc 771e a03c 0453 a53c
000002c0: 713f 93ba f0b0 353d 5acd 7b3d d68c 8a3c
000002d0: 82d4 eabc 1381 233d a038 f0bb cc5e a5bb
000002e0: 3757 b63c b971 373c 8b21 f0bb c7b5 e03c
000002f0: 3d67 743c c751 e23c 41fe 053d 002c 4f3c
00000300: b7aa 95bb fec6 25bd 2683 413d 3da7 9cbb
00000310: 4381 813c 3796 93ba 0da2 5cbd e207 1a3d
00000320: 58ea 0d3d ca1d 2f3d a25c fb3b 63bb 53bd
00000330: a8d0 2abc 7410 fd3b 4266 e73c 0347 4fbc
00000340: 9644 51bc d51b 213c c511 c0bc cfbf 19bc
00000350: 9cfc bfbc 1d8a fc3b 9cbb dc3c 2658 24bd
00000360: 55ac 0dbd 5cac e33c 2ce3 03bc 8f82 67ba
00000370: 24b0 173c 5347 333c 9241 bfbc c55a 55bd
00000380: 2612 8b3c 6027 e7bb a31c 803c 22b6 12bd
00000390: befe 123d 34ba 6dbc d9b9 993c 5695 93bc
000003a0: 056d 883d 769e 383c 2c3a 16bd 2bd4 16bb
000003b0: 115e 103d 79a2 1fbd 247f b33c 99f4 843c
000003c0: cc93 533c ad7b 9dbc a184 153d 14e6 e6bc
000003d0: 241c cdbc eec4 c1bc 5620 583c 7de2 50bc
000003e0: 57b3 883b a25c 89bb a02c bdbc 3c42 9cbb
000003f0: 1ccd 233d a137 dc3c d1c6 a33c 1d83 423c

action_model._continuous_distribution.mu.bias f4 [2]
0.002514138 0.00670458
00000000: 3cc4 243b 18b2 db3b

action_model._discrete_distribution.branches.0.weight f4 [1, 128]
-0.014507273 -0.004241616 -0.0032410703 -0.02241006 -0.0068057277 0.013240141 0.0118558565 0.00592883
-0.0008649812 0.0080678705 0.013150483 0.0116595775 0.00057016686 -0.0042447983 0.0052823983 0.019955931
0.011746476 -0.02130582 -0.009453851 -0.007270623 -0.013169818 -0.0007791562 0.006604161 -0.003199712
-0.00024717426 -0.0068556303 -0.0052156677 -0.002046587 -0.0036342803 -0.004010456 -0.0017907809 0.007566186
0.008891026 -0.0033866863 0.0020437993 0.0100310715 -0.0009449601 -0.0077934153 0.006028354 0.006226802
0.00267399 0.010399537 0.005741596 -0.008701438 -0.008599301 -0.0053654443 -0.01281385 -0.0004697099
-0.007599506 -0.006277432 -0.00038147287 0.0153955985 -0.0065830797 -0.002624972 -0.009614273 0.001946698
-0.012782926 -0.005343319 0.0047799884 0.0021258756 -0.0017859733 -0.01770329 -0.00032929704 -0.013902827
-0.0019823066 0.017171351 -0.0001512992 -0.0077628545 0.0011729156 -0.00044736793 -0.0012312097 -0.0030837287
0.000112972375 0.0032163279 -0.0019473309 0.009940431 -0.0060325186 0.0012087395 0.006807752 -0.0030081838
0.0019092972 5.084437e-05 0.016938936 0.0009205295 0.01720195 -0.008425044 -0.010706578 -0.0027308965
-0.008393839 -0.0014684268 0.00073185127 -0.00259687 0.008594348 0.005038191 -0.007564234 -0.00059487525
0.0073591494 0.0111820195 0.006666438 0.0016591983 -0.014190565 -0.008980775 -0.008296555 -0.013231245
-0.0040427935 -0.009669059 0.005904022 0.0025321357 0.011912552 0.011820638 -0.0070544565 0.008403981
0.00310495 -0.0049564755 -0.0034901963 0.0036048137 -0.01539285 0.003012475 -0.0013639572 -0.010682526
0.008005241 0.015619357 0.0050642206 -0.010233509 0.004645339 -0.0003258206 0.0012253481 -0.010766336
00000000: eaaf 6dbc 41fd 8abb 2368 54bb 4d95 b7bc
00000010: 9502 dfbb 2ded 583c 113f 423c a146 c23b
00000020: e8bf 62ba 1a2f 043c 2075 573c d007 3f3c
00000030: 4077 153a f317 8bbb f817 ad3b 9f7a a33c
00000040: 4b74 403c 8b89 aebc 53e4 1abc 683e eebb
00000050: 38c6 57bc 4a40 4cba b867 d83b 42b2 51bb
00000060: 2b97 81b9 32a5 e0bb 31e8 aabb 0820 06bb
00000070: 1b2d 6ebb 256a 83bb a3b8 eaba c5ed f73b
00000080: aaab 113c 2bf3 5dbb 43f1 053b 5d59 243c
00000090: 33b7 77ba e85f ffbb 8089 c53b 330a cc3b
000000a0: 1c3e 2f3b d262 2a3c 0024 bc3b 7a90 0ebc
000000b0: 15e4 0cbc 9cd0 afbb 2ff1 51bc 6543 f6b9
000000c0: 4705 f9bb ebb2 cdbb 6c00 c8b9 d23d 7c3c
000000d0: e0b6 d7bb b907 2cbb 2f85 1dbc 5828 ff3a
000000e0: 7a6f 51bc 0217 afbb 73a1 9c3b 4652 0b3b
000000f0: 5217 eaba 7d06 91bc 80a5 acb9 afc8 63bc
00000100: 96e9 01bb efaa 8c3c 12a6 1eb9 8b5f febb
00000110: 84bc 993a b58c eab9 8b60 a1ba 6218 4abb
00000120: 95eb ec38 07c9 523b 953d ffba 31dd 223c
00000130: 6fac c5bb 916e 9e3a 9013 df3b f324 45bb
00000140: 6241 fa3a ba41 5538 86c3 8a3c b04f 713a
00000150: 1beb 8c3c 3209 0abc a56a 2fbc d7f8 32bb
00000160: 5086 09bc 3a78 c0ba b5d9 3f3a 4030 2abb
00000170: 4fcf 0c3c 6917 a53b 65dd f7bb 67f1 1bba
00000180: 0525 f13b ca34 373c 2372 da3b 7579 d93a
00000190: 8b7f 68bc 1a24 13bc 46ee 07bc ddc7 58bc
000001a0: 6979 84bb f96a 1ebc 8776 c13b 30f2 253b
000001b0: dd2c 433c 59ab 413c 1229 e7bb dab0 093c
000001c0: 6b7c 4b3b ee69 a2bb c7bb 64bb bd3e 6c3b
000001d0: 4b32 7cbc f26c 453b cfc6 b2ba c305 2fbc
000001e0: 6a28 033c 55e8 7f3c c3f1 a53b 73aa 27bc
000001f0: ee37 983b e7d2 aab9 dc9b a03a 4965 30bc

exp_avg f4 [128, 12]
-6.147554e-05 -0.00010740553 1.0880273e-07 -4.6181677e-07 0.00019860969 0.00019861116 0.00019860969 0.0
0.0 0.0 -3.0599217e-06 0.0 -6.127774e-05 -0.00010905914 -2.482875e-07 1.8361948e-08
2.1172502e-05 2.1172375e-05 2.1172502e-05 0.0 0.0 0.0 1.2303158e-07 0.0
4.9899496e-05 8.8355584e-05 1.4123242e-07 1.172831e-07 -0.0001250606 -0.000125061 -0.0001250606 0.0
0.0 0.0 7.756107e-07 0.0 0.00010808378 0.00019508717 8.1438816e-07 -6.743235e-07
0.00013820853 0.00013821074 0.00013820853 0.0 0.0 0.0 -4.472408e-06 0.0
5.741757e-05 0.0001050735 6.262736e-07 -6.832977e-07 0.0002523338 0.0002523359 0.0002523338 0.0
0.0 0.0 -4.5302772e-06 0.0 3.133151e-05 5.7345704e-05 3.337782e-07 -3.5960068e-07
0.00013869748 0.0001386986 0.00013869748 0.0 0.0 0.0 -2.384178e-06 0.0
1.0559189e-05 1.6119682e-05 -3.4832766e-07 6.021153e-07 -0.00024257651 -0.00024257848 -0.00024257651 0.0
0.0 0.0 3.9911456e-06 0.0 -3.60355e-05 -6.428624e-05 -2.7264713e-07 7.036898e-08
-6.7377077e-06 -6.737904e-06 -6.7377077e-06 0.0 0.0 0.0 4.6734468e-07 0.0
-2.9589728e-05 -5.413882e-05 -9.536606e-08 2.42866e-07 -8.542433e-05 -8.542512e-05 -8.542433e-05 0.0
0.0 0.0 1.6109047e-06 0.0 9.9367635e-06 1.8564457e-05 1.4890776e-07 -2.0691594e-07
8.823832e-05 8.823898e-05 8.823832e-05 0.0 0.0 0.0 -1.3716093e-06 0.0
-5.486636e-05 -9.818833e-05 -3.2911316e-07 1.2351158e-07 -8.559953e-06 -8.560357e-06 -8.559953e-06 0.0
0.0 0.0 8.205528e-07 0.0 -4.548861e-06 -8.391282e-06 -1.3292761e-07 9.334403e-08
-3.2521468e-05 -3.252177e-05 -3.2521468e-05 0.0 0.0 0.0 6.191591e-07 0.0
-3.1962474e-05 -5.737604e-05 -5.3381484e-07 3.0274927e-07 4.4836066e-05 4.4835e-05 4.4836066e-05 0.0
0.0 0.0 2.0077198e-06 0.0 3.739609e-05 6.570748e-05 4.130893e-09 2.152702e-07
-0.0001292927 -0.00012929339 -0.0001292927 0.0 0.0 0.0 1.4256825e-06 0.0
-3.474316e-05 -6.1208666e-05 -2.535721e-09 -1.516762e-07 7.881525e-05 7.881574e-05 7.881525e-05 0.0
0.0 0.0 -1.0044566e-06 0.0 -2.9457653e-05 -5.2975254e-05 -1.8961421e-07 1.8991152e-07
-2.6957957e-06 -2.6964376e-06 -2.6957957e-06 0.0 0.0 0.0 1.2593542e-06 0.0
8.125733e-05 0.00014687242 6.631785e-07 -5.914073e-07 0.00013824196 0.00013824378 0.00013824196 0.0
0.0 0.0 -3.921621e-06 0.0 5.0512455e-05 9.064026e-05 3.3349187e-07 -1.9772637e-07
-4.1300475e-05 -4.1299856e-05 -4.1300475e-05 0.0 0.0 0.0 -1.3122298e-06 0.0
7.011083e-05 0.00012602322 4.849986e-07 -3.013123e-07 -6.5478816e-06 -6.5469067e-06 -6.5478816e-06 0.0
0.0 0.0 -1.9993442e-06 0.0 -2.7792415e-05 -5.03583e-05 -4.059312e-07 3.6974143e-07
-6.24562e-05 -6.245736e-05 -6.24562e-05 0.0 0.0 0.0 2.450929e-06 0.0
-6.05331e-06 -1.1867569e-05 -2.2157457e-07 2.4673463e-07 -8.086287e-05 -8.086368e-05 -8.086287e-05 0.0
0.0 0.0 1.635942e-06 0.0 -1.6598535e-05 -2.9884617e-05 -1.227903e-07 1.5071963e-07
00000000: 6eec 80b8 e83e e1b8 efa6 e933 9def f7b4
00000010: e241 5039 4742 5039 e241 5039 0000 0000
00000020: 0000 0000 0000 0000 0e59 4db6 0000 0000
00000030: 3c82 80b8 aeb6 e4b8 604c 85b4 5aba 9d32
00000040: 9a9b b137 549b b137 9a9b b137 0000 0000
00000050: 0000 0000 0000 0000 aa1a 0434 0000 0000
00000060: 2d4b 5138 8b4b b938 aca5 1734 11dd fb33
00000070: b322 03b9 ce22 03b9 b322 03b9 0000 0000
00000080: 0000 0000 0000 0000 9033 5035 0000 0000
00000090: 0aab e238 5090 4c39 549c 5a35 2803 35b5
000000a0: 12ec 1039 aaec 1039 12ec 1039 0000 0000
000000b0: 0000 0000 0000 0000 b111 96b6 0000 0000
000000c0: a5d3 7038 e85a dc38 321d 2835 dc6b 37b5
000000d0: ab4b 8439 f44b 8439 ab4b 8439 0000 0000
000000e0: 0000 0000 0000 0000 c902 98b6 0000 0000
000000f0: f469 0338 7b86 7038 2032 b334 240f c1b4
00000100: 526f 1139 9f6f 1139 526f 1139 0000 0000
00000110: 0000 0000 0000 0000 deff 1fb6 0000 0000
00000120: 5f27 3137 c138 8737 ca01 bbb4 0ca1 2135
00000130: 235c 7eb9 aa5c 7eb9 235c 7eb9 0000 0000
00000140: 0000 0000 0000 0000 aeeb 8536 0000 0000
00000150: d324 17b8 6ad1 86b8 5660 92b4 c21d 9733
00000160: 7814 e2b6 2816 e2b6 7814 e2b6 0000 0000
00000170: 0000 0000 0000 0000 5de7 fa34 0000 0000
00000180: 7537 f8b7 1e13 63b8 0ccc ccb3 4063 8234
00000190: d725 b3b8 4326 b3b8 d725 b3b8 0000 0000
000001a0: 0000 0000 0000 0000 4436 d835 0000 0000
000001b0: 13b6 2637 deba 9b37 74e3 1f34 9f2c 5eb4
000001c0: 960c b938 f10c b938 960c b938 0000 0000
000001d0: 0000 0000 0000 0000 2318 b8b5 0000 0000
000001e0: 4e20 66b8 75ea cdb8 f8b0 b0b4 9b9e 0434
000001f0: b89c 0fb7 749e 0fb7 b89c 0fb7 0000 0000
00000200: 0000 0000 0000 0000 f643 5c35 0000 0000
00000210: 6ba2 98b6 48c8 0cb7 ddba 0eb4 6c74 c833
00000220: a967 08b8 fc67 08b8 a967 08b8 0000 0000
00000230: 0000 0000 0000 0000 4a34 2635 0000 0000
00000240: 720f 06b8 0ea7 70b8 7a4b 0fb5 8b89 a234
00000250: 5c0e 3c38 370d 3c38 5c0e 3c38 0000 0000
00000260: 0000 0000 0000 0000 5dbc 0636 0000 0000
00000270: bfd9 1c38 6fcc 8938 b8ef 8d31 0625 6734
00000280: bf92 07b9 ee92 07b9 bf92 07b9 0000 0000
00000290: 0000 0000 0000 0000 145a bf35 0000 0000
000002a0: 2fb9 11b8 275d 80b8 e040 2eb1 70dc 22b4
000002b0: 9d49 a538 e149 a538 9d49 a538 0000 0000
000002c0: 0000 0000 0000 0000 ded0 86b5 0000 0000
000002d0: d41b f7b7 bf31 5eb8 c298 4bb4 7bea 4b34
000002e0: 6be9 34b6 72f4 34b6 6be9 34b6 0000 0000
000002f0: 0000 0000 0000 0000 1507 a935 0000 0000
00000300: b268 aa38 c401 1a39 4805 3235 33c1 1eb5
00000310: 0bf5 1039 88f5 1039 0bf5 1039 0000 0000
00000320: 0000 0000 0000 0000 7896 83b6 0000 0000
00000330: 56dd 5338 1e16 be38 c60a b334 9c4e 54b4
00000340: 0c3a 2db8 6239 2db8 0c3a 2db8 0000 0000
00000350: 0000 0000 0000 0000 df1f b0b5 0000 0000
00000360: 7708 9338 1a25 0439 da30 0235 0cc4 a1b4
00000370: e0b5 dbb6 80ad dbb6 e0b5 dbb6 0000 0000
00000380: 0000 0000 0000 0000 792c 06b6 0000 0000
00000390: c223 e9b7 d037 53b8 c2ee d9b4 e080 c634
000003a0: ebfa 82b8 8afb 82b8 ebfa 82b8 0000 0000
000003b0: 0000 0000 0000 0000 a47a 2436 0000 0000
000003c0: 891d cbb6 d21a 47b7 f4e9 6db4 f376 8434
000003d0: ec94 a9b8 5c95 a9b8 ec94 a9b8 0000 0000
000003e0: 0000 0000 0000 0000 8a92 db35 0000 0000
000003f0: 153d 8bb7 bab0 fab7 57d8 03b4 7fd5 2134

exp_avg_sq f4 [128, 12]
6.442247e-09 2.246303e-08 5.3697574e-13 6.6971233e-13 1.235172e-07 1.2368332e-07 1.235172e-07 0.0
0.0 0.0 5.5614693e-11 0.0 4.7070414e-09 1.7769217e-08 5.7613186e-13 5.795431e-13
1.03594324e-07 1.03622895e-07 1.03594324e-07 0.0 0.0 0.0 4.9291318e-11 0.0
7.609749e-09 2.728839e-08 1.1002703e-12 6.9820246e-13 1.2158513e-07 1.2166328e-07 1.2158513e-07 0.0
0.0 0.0 6.404257e-11 0.0 2.1936938e-08 7.6154386e-08 2.7927818e-12 1.9430857e-12
3.647042e-07 3.6464323e-07 3.647042e-07 0.0 0.0 0.0 1.4708026e-10 0.0
1.8093344e-08 6.332258e-08 1.5888589e-12 1.885712e-12 3.387339e-07 3.3869114e-07 3.387339e-07 0.0
0.0 0.0 1.573635e-10 0.0 6.533415e-09 2.4292573e-08 5.495409e-13 8.26402e-13
1.3792601e-07 1.3795469e-07 1.3792601e-07 0.0 0.0 0.0 6.8119975e-11 0.0
6.883936e-09 2.4796497e-08 5.7842424e-13 7.9338424e-13 1.3780112e-07 1.3786345e-07 1.3780112e-07 0.0
0.0 0.0 7.147268e-11 0.0 4.822087e-09 2.2340915e-08 6.110123e-13 6.575898e-13
1.0393114e-07 1.0391563e-07 1.0393114e-07 0.0 0.0 0.0 6.918506e-11 0.0
6.7500547e-09 2.4646456e-08 1.1994942e-12 7.191759e-13 1.3882105e-07 1.3881166e-07 1.3882105e-07 0.0
0.0 0.0 6.368764e-11 0.0 2.2277702e-09 8.368307e-09 1.8037832e-13 2.2210035e-13
3.6832343e-08 3.68886e-08 3.6832343e-08 0.0 0.0 0.0 2.033966e-11 0.0
4.904324e-09 1.8197026e-08 9.187017e-13 5.32715e-13 9.324092e-08 9.3217935e-08 9.324092e-08 0.0
0.0 0.0 5.1427904e-11 0.0 1.0560085e-09 4.023388e-09 1.7727733e-13 1.2964547e-13
2.1608193e-08 2.16137e-08 2.1608193e-08 0.0 0.0 0.0 1.8217023e-11 0.0
3.519015e-08 1.2603729e-07 6.8722254e-12 3.0592811e-12 6.347079e-07 6.346747e-07 6.347079e-07 0.0
0.0 0.0 2.613397e-10 0.0 4.6291904e-09 1.6406252e-08 5.487616e-13 4.4290727e-13
7.761087e-08 7.7700896e-08 7.761087e-08 0.0 0.0 0.0 3.727202e-11 0.0
3.454488e-09 1.3280959e-08 3.0686166e-13 3.6933775e-13 5.4325586e-08 5.4565465e-08 5.4325586e-08 0.0
0.0 0.0 4.12384e-11 0.0 6.7870767e-09 2.4616151e-08 8.774058e-13 4.8040386e-13
9.232875e-08 9.221194e-08 9.232875e-08 0.0 0.0 0.0 4.35164e-11 0.0
1.8418861e-08 6.533826e-08 2.1803004e-12 1.5561091e-12 2.7416348e-07 2.7372027e-07 2.7416348e-07 0.0
0.0 0.0 1.3067977e-10 0.0 7.0271873e-09 2.4358274e-08 1.2169734e-12 5.10937e-13
1.0297426e-07 1.0285991e-07 1.0297426e-07 0.0 0.0 0.0 4.3617426e-11 0.0
9.613822e-09 3.350728e-08 1.6476243e-12 7.367041e-13 1.4582665e-07 1.4575029e-07 1.4582665e-07 0.0
0.0 0.0 5.835576e-11 0.0 2.5143418e-08 9.019596e-08 4.048358e-12 2.189027e-12
4.303453e-07 4.3031588e-07 4.303453e-07 0.0 0.0 0.0 1.890912e-10 0.0
2.9035905e-09 1.1050938e-08 3.2201314e-13 3.186509e-13 5.0350174e-08 5.039402e-08 5.0350174e-08 0.0
0.0 0.0 3.1129335e-11 0.0 5.252509e-09 1.8766519e-08 6.7285224e-13 4.0222188e-13
00000000: 9b5a dd31 baf4 c032 2e25 172b dc81 3c2b
00000010: 26a0 0434 d0cd 0434 26a0 0434 0000 0000
00000020: 0000 0000 0000 0000 9498 742e 0000 0000
00000030: 93bb a131 eca2 9832 ad2a 222b 7b20 232b
00000040: 9577 de33 4a87 de33 9577 de33 0000 0000
00000050: 0000 0000 0000 0000 17c9 582e 0000 0000
00000060: 08bc 0232 ce67 ea32 6ad9 9a2b ca86 442b
00000070: 118d 0234 8ca2 0234 118d 0234 0000 0000
00000080: 0000 0000 0000 0000 c3d4 8c2e 0000 0000
00000090: d66f bc32 518a a333 4986 442c 85bb 082c
000000a0: 90cc c334 2fc4 c334 90cc c334 0000 0000
000000b0: 0000 0000 0000 0000 6ab7 212f 0000 0000
000000c0: af6b 9b32 f5fb 8733 ad9c df2b f8b1 042c
000000d0: 3cdb b534 5bd5 b534 3cdb b534 0000 0000
000000e0: 0000 0000 0000 0000 e305 2d2f 0000 0000
000000f0: 877c e031 efab d032 98ae 1a2b 8a9c 682b
00000100: d018 1434 b220 1434 d018 1434 0000 0000
00000110: 0000 0000 0000 0000 23cc 952e 0000 0000
00000120: be87 ec31 1300 d532 dccf 222b 5c51 5f2b
00000130: 7cf6 1334 9e07 1434 7cf6 1334 0000 0000
00000140: 0000 0000 0000 0000 8b2b 9d2e 0000 0000
00000150: 87af a531 31e8 bf32 14fc 2b2b 5718 392b
00000160: c030 df33 3928 df33 c030 df33 0000 0000
00000170: 0000 0000 0000 0000 ba23 982e 0000 0000
00000180: 1cee e731 21b6 d332 55d0 a82b 166e 4a2b
00000190: d70e 1534 420c 1534 d70e 1534 0000 0000
000001a0: 0000 0000 0000 0000 f40c 8c2e 0000 0000
000001b0: 5917 1931 34c4 0f32 8316 4b2a 1110 7a2a
000001c0: 9731 1e33 726f 1e33 9731 1e33 0000 0000
000001d0: 0000 0000 0000 0000 d8e8 b22d 0000 0000
000001e0: e482 a831 af4f 9c32 b84b 812b 29f2 152b
000001f0: bd3b c833 1a2f c833 bd3b c833 0000 0000
00000200: 0000 0000 0000 0000 ac2e 622e 0000 0000
00000210: ff22 9130 183e 8a31 b698 472a c3f7 112a
00000220: eb9c b932 07a9 b932 eb9c b932 0000 0000
00000230: 0000 0000 0000 0000 173d a02d 0000 0000
00000240: fb23 1733 de54 0734 81cb f12c 1c47 572c
00000250: cb60 2a35 835e 2a35 cb60 2a35 0000 0000
00000260: 0000 0000 0000 0000 4bac 8f2f 0000 0000
00000270: ca0e 9f31 bbed 8c32 7176 1a2b aa55 f92a
00000280: 07ab a633 85dc a633 07ab a633 0000 0000
00000290: 0000 0000 0000 0000 90ec 232e 0000 0000
000002a0: ff63 6d31 472a 6432 6dbf ac2a 2eeb cf2a
000002b0: 9d53 6933 5d5b 6a33 9d53 6933 0000 0000
000002c0: 0000 0000 0000 0000 505e 352e 0000 0000
000002d0: c233 e931 7d73 d332 c0f7 762b bf38 072b
000002e0: 4446 c633 0d06 c633 4446 c633 0000 0000
000002f0: 0000 0000 0000 0000 1c63 3f2e 0000 0000
00000300: 8137 9e32 1750 8c33 cd6c 192c bd00 db2b
00000310: be30 9334 d4f3 9234 be30 9334 0000 0000
00000320: 0000 0000 0000 0000 16af 0f2f 0000 0000
00000330: cb73 f131 693c d132 1646 ab2b e4d0 0f2b
00000340: b322 dd33 d5e3 dc33 b322 dd33 0000 0000
00000350: 0000 0000 0000 0000 dbd4 3f2e 0000 0000
00000360: 092a 2532 a5e9 0f33 ece1 e72b 205d 4f2b
00000370: 8694 1c34 897f 1c34 8694 1c34 0000 0000
00000380: 0000 0000 0000 0000 5f53 802e 0000 0000
00000390: f6fa d732 c1b1 c133 5e70 8e2c 010a 1a2c
000003a0: 350a e734 2a06 e734 350a e734 0000 0000
000003b0: 0000 0000 0000 0000 71e8 4f2f 0000 0000
000003c0: 8188 4731 8ada 3d32 fc46 b52a 6f62 b32a
000003d0: 9a40 5833 d070 5833 9a40 5833 0000 0000
000003e0: 0000 0000 0000 0000 84e8 082e 0000 0000
000003f0: 8f79 b431 0334 a132 1d64 3d2b 486e e22a

exp_avg f4 [128]
-0.00018132085 7.2497714e-06 4.6004327e-05 -0.00026488776 -0.0002683642 -0.00014123322 0.00023645372 2.766084e-05
9.5405936e-05 -8.1258644e-05 4.855827e-05 3.6669207e-05 0.0001189188 8.4500905e-05 -5.9536396e-05 7.459446e-05
-0.00023229155 -7.769517e-05 -0.00011838837 0.00014520179 9.690729e-05 5.9186008e-05 6.951187e-05 -4.3685388e-05
-0.00015324159 -0.00014545547 1.257168e-05 -4.887484e-05 2.7528675e-05 -0.00017568187 1.806279e-05 -9.5039184e-05
0.00011868266 -0.00019807529 -7.7287696e-05 -7.204962e-05 3.563796e-05 -8.234447e-05 0.00010564093 -0.00014861062
0.00011759402 9.071783e-05 8.511644e-05 9.08943e-05 5.293523e-05 -0.00015429908 -0.000103815364 0.00010319063
-9.949927e-06 5.0481653e-05 -0.00013613481 0.00010811821 -7.585155e-05 -9.0404035e-05 0.00010214575 -0.00010423815
4.6218185e-05 -0.00015820838 0.000100211575 8.4678584e-05 -0.00020566802 -0.00015766865 8.9233945e-05 7.1969655e-05
-0.00014039528 8.854293e-05 8.633546e-05 -0.0003229055 8.958264e-05 0.00011648342 -1.9639027e-05 -4.9260307e-05
-0.00012985138 -0.00021011797 -0.00016039939 7.963197e-05 -0.00021848797 0.00013023392 0.00017856504 0.00016021862
2.015462e-05 -0.00020485336 9.6509764e-05 -0.00019093217 0.00017690126 1.7242663e-05 2.0730622e-06 0.00010398653
0.00011772439 -1.29498185e-05 -7.432648e-05 -9.063327e-05 -0.00021291093 4.2119646e-05 7.9460224e-05 0.00018500022
-3.6870304e-05 0.00021659111 -0.0003669458 5.763338e-05 9.521061e-05 9.433744e-06 -0.00033140974 -0.00029297936
0.00021627176 0.0001111287 -2.1273658e-05 -1.1483218e-05 -0.0001749403 -0.00019976242 -0.0002849346 3.0922336e-05
6.518872e-05 5.4982418e-05 -0.00017330484 1.2890945e-05 0.00013019821 0.00011655843 -0.00025099452 6.0506645e-05
3.5532852e-05 0.00012566027 -2.0774827e-05 -3.2853873e-06 -0.00021413973 -0.00022054382 -7.877842e-05 2.7625172e-05
00000000: f220 3eb9 1043 f336 c5f4 4038 a2e0 8ab9
00000010: 3cb3 8cb9 0118 14b9 90f0 7739 3409 e837
00000020: ac14 c838 6769 aab8 0cab 4b38 43cd 1938
00000030: 0b64 f938 1436 b138 b8b6 79b8 996f 9c38
00000040: 4a93 73b9 47f0 a2b8 4647 f8b8 4f41 1839
00000050: b53a cb38 7e3e 7838 e7c6 9138 d43a 37b8
00000060: 7aaf 20b9 6885 18b9 f4ea 5237 f6fe 4cb8
00000070: 61ed e637 3e37 38b9 8c85 9737 c64f c7b8
00000080: 45e5 f838 6eb2 4fb9 8415 a2b8 5819 97b8
00000090: f879 1538 5ab0 acb8 8b8b dd38 5cd4 1bb9
000000a0: cf9c f638 c43f be38 8a80 b238 819e be38
000000b0: c506 5e38 58cb 21b9 73b7 d9b8 0c68 d838
000000c0: 9cee 26b7 43bc 5338 69bf 0eb9 86bd e238
000000d0: 7e12 9fb8 4c97 bdb8 1537 d638 6e9a dab8
000000e0: 66da 4138 bde4 25b9 ae28 d238 7895 b138
000000f0: 97a8 57b9 db53 25b9 1c23 bb38 6aee 9638
00000100: 1237 13b9 20b0 b938 ff0e b538 a44b a9b9
00000110: 50de bb38 8f48 f438 7dbe a4b7 da9c 4eb8
00000120: b728 08b9 1d53 5cb9 e230 28b9 1700 a738
00000130: eb19 65b9 678f 0839 303d 3b39 5c00 2839
00000140: b811 a937 e8cd 56b9 4965 ca38 f734 48b9
00000150: 927e 3939 56a4 9037 f01e 0b36 5813 da38
00000160: cde2 f638 0c43 59b7 badf 9bb8 5e12 beb8
00000170: d840 5fb9 a0a9 3038 e2a3 a638 9efc 4139
00000180: 30a5 1ab8 bc1c 6339 a262 c0b9 5fbb 7138
00000190: cfab c738 9f45 1e37 10c1 adb9 069b 99b9
000001a0: 02c7 6239 c40d e938 d574 b2b7 0ca8 40b7
000001b0: 2e70 37b9 5177 51b9 4663 95b9 9bb2 0138
000001c0: edb5 8838 ec9c 6638 2ab9 35b9 3046 5837
000001d0: d185 0839 d570 f438 ea97 83b9 84c8 7d38
000001e0: 1c09 1538 acc3 0339 9a45 aeb7 867a 5cb6
000001f0: b28a 60b9 c841 67b9 d835 a5b8 9bbc e737

exp_avg_sq f4 [128]
1.2899068e-07 9.914552e-08 1.2223995e-07 3.68276e-07 3.517397e-07 1.3505269e-07 1.3527686e-07 9.125019e-08
1.273164e-07 3.7890743e-08 8.9737455e-08 1.943611e-08 5.778518e-07 8.089448e-08 5.8188384e-08 8.479161e-08
2.81437e-07 9.707232e-08 1.3993181e-07 4.02391e-07 5.0908856e-08 7.244105e-08 4.1096098e-07 4.826617e-08
1.0863484e-07 1.10262455e-07 1.8374982e-07 1.23287505e-08 2.4605086e-07 1.3798325e-07 3.071028e-08 8.213781e-08
2.2511487e-07 1.5558324e-07 9.4744266e-08 5.3619416e-08 7.144257e-08 4.2603624e-08 2.9794418e-07 1.7673389e-07
2.6756263e-07 1.9756797e-07 7.8034225e-07 6.212363e-07 3.5146317e-07 2.3097385e-07 3.6711562e-08 4.1692834e-07
1.6560435e-07 1.5016359e-07 2.7056228e-07 2.8204323e-07 1.3612807e-07 1.3733403e-07 1.8639204e-07 8.5265455e-08
1.0928268e-07 2.1831946e-07 2.8355078e-07 1.5507509e-07 1.8303666e-07 1.4597673e-07 8.253241e-08 1.127158e-07
1.6616319e-07 6.6193894e-07 6.131723e-07 4.2860344e-07 6.4799885e-08 1.828185e-07 9.397765e-08 1.2485644e-08
2.3611783e-07 4.9326064e-07 2.3872832e-07 3.9477044e-08 1.5348178e-07 3.202009e-07 4.1790264e-07 1.158769e-07
1.6406808e-08 1.6458955e-07 6.207789e-08 3.5689058e-07 4.751145e-07 3.2129112e-08 1.6045963e-08 4.636711e-08
1.1449384e-06 2.435512e-08 1.05666004e-07 4.8746614e-08 1.5813212e-07 1.07990004e-07 1.222551e-07 3.663557e-07
2.2781634e-08 3.1203882e-07 5.0508055e-07 4.9182955e-08 9.324703e-08 1.8053987e-08 4.4593153e-07 3.3457061e-07
4.4701247e-07 6.1356815e-08 9.429838e-08 1.0135282e-07 1.213047e-07 1.8366256e-07 4.591945e-07 5.1887376e-08
5.7483984e-08 3.4368466e-07 1.9455422e-07 3.4584808e-08 6.520205e-07 2.3615803e-07 2.818942e-07 1.2344795e-07
1.8677234e-08 8.824702e-08 1.848105e-07 1.17825945e-08 1.9887875e-07 2.388268e-07 5.7460355e-08 9.8451785e-08
00000000: b080 0a34 d3e9 d433 1041 0334 78b7 c534
00000010: bcd6 bc34 0003 1134 9f40 1134 53f5 c333
00000020: 77b4 0834 50bd 2233 b0b5 c033 75f4 a632
00000030: ac1d 1b35 36b8 ad33 ceea 7933 ae16 b633
00000040: 6818 9734 1376 d033 2a40 1634 3308 d834
00000050: e1a6 5a33 e390 9b33 0ca2 dc34 374d 4f33
00000060: a34a e933 6dc9 ec33 c44c 4534 6bce 5332
00000070: f918 8434 8c28 1434 4fe6 0333 bd63 b033
00000080: 1bb7 7134 650e 2734 3676 cb33 2c4b 6633
00000090: f86b 9933 2efb 3633 23f5 9f34 3ec4 3d34
000000a0: 87a5 8f34 1223 5434 b678 5135 09c3 2635
000000b0: bbb0 bc34 9c01 7834 caac 1d33 32d6 df34
000000c0: fad0 3134 a73c 2134 cc41 9134 ba6b 9734
000000d0: 992a 1234 1776 1334 0e23 4834 2e1b b733
000000e0: caae ea33 326b 6a34 ec3a 9834 b782 2634
000000f0: bc88 4434 c7bd 1c34 ac3c b133 2b0e f233
00000100: 976a 3234 19b0 3135 e198 2435 cf1a e634
00000110: 1d28 8b33 c44c 4434 c2d0 c933 7180 5632
00000120: 9387 7d34 9d68 0435 922a 8034 788d 2933
00000130: c0cc 2434 14e8 ab34 1a5c e034 00d8 f833
00000140: f4ee 8c32 08ba 3034 ae4f 8533 ab9a bf34
00000150: 3d13 ff34 55fe 0933 72d5 8932 2d25 4733
00000160: c9ab 9935 7a35 d132 80ea e233 785d 5133
00000170: 07cb 2934 22e8 e733 3a45 0334 8baf c434
00000180: 58b1 c332 4a86 a734 df94 0735 3b3d 5333
00000190: 193f c833 2315 9b32 5d68 ef34 099f b334
000001a0: edfc ef34 44c3 8333 1581 ca33 4da7 d933
000001b0: fb3f 0234 c834 4534 3687 f634 c6da 5e33
000001c0: 4fe4 7633 a983 b834 a8e6 5034 668a 1433
000001d0: 8206 2f35 a092 7d34 3e57 9734 1d8d 0434
000001e0: ac6f a032 5082 bd33 5370 4634 666c 4a32
000001f0: 608b 5534 1b38 8034 54ca 7633 716c d333
