results/SlayRL_021/SlayTheSquire_RL/SlayTheSquire_RL-4519.pt (torch, 467300 bytes, 47 tensors)

network_body.observation_encoder.processors.0.normalizer.running_mean f4 [12]
00000000: ea52 70bd 73c7 6cbf 29d6 173c 80f1 7f3f
00000010: cf01 0cbe 22f0 f6bd 22f0 f6bd ee4d 84bc
00000020: 0000 0000 0000 0000 ee4d 84bc 0000 0000
-0.058672823 -0.92491835 0.009267368 0.99977875 -0.13672565 -0.120575204 -0.120575204 -0.016150441
0.0 0.0 -0.016150441 0.0

network_body.observation_encoder.processors.0.normalizer.running_variance f4 [12]
00000000: 4f0b fd43 ddce 0343 21da b43f d6f8 ff3f
00000010: 3aa0 0544 ac24 f043 ac24 f043 5ca4 9142
00000020: 0000 803f 0000 803f 5ca4 9142 0000 803f
506.08835 131.80806 1.4129068 1.9997814 534.50354 480.2865 480.2865 72.821014
1.0 1.0 72.821014 1.0

network_body.processors.0.normalizer.running_mean f4 [12]
00000000: ea52 70bd 73c7 6cbf 29d6 173c 80f1 7f3f
00000010: cf01 0cbe 22f0 f6bd 22f0 f6bd ee4d 84bc
00000020: 0000 0000 0000 0000 ee4d 84bc 0000 0000
-0.058672823 -0.92491835 0.009267368 0.99977875 -0.13672565 -0.120575204 -0.120575204 -0.016150441
0.0 0.0 -0.016150441 0.0

network_body.processors.0.normalizer.running_variance f4 [12]
00000000: 4f0b fd43 ddce 0343 21da b43f d6f8 ff3f
00000010: 3aa0 0544 ac24 f043 ac24 f043 5ca4 9142
00000020: 0000 803f 0000 803f 5ca4 9142 0000 803f
506.08835 131.80806 1.4129068 1.9997814 534.50354 480.2865 480.2865 72.821014
1.0 1.0 72.821014 1.0

network_body._body_endoder.seq_layers.0.weight f4 [128, 12]
00000000: 791c 0e3e 5dbb f8bd 89cb abbe 4b67 72bd
00000010: 0fee 83bd a426 993e 1b65 de3d e60d 45bc
00000020: 7097 b33d 8b1b 043f 749a 96bd 9290 62be
00000030: a067 913e f867 3d3e ee8d fa3b 297e 323e
00000040: 829b f93e 35d9 853c 4e97 3ebe 3117 c9bd
00000050: a455 69bd 2099 69be cccb 5b3d bd41 f83e
00000060: 9598 8cbe bc19 6bbd cd47 bc3e e251 5ebc
00000070: a20f 8fbe ee72 053f 904d dcbe d8a4 1abf
00000080: 5325 ebbe 95b4 8dbc 42d5 75be 5c8c 10be
00000090: 4843 6bbe 2e7b d1be 0c96 9f3d dfe5 e5be
000000a0: 58bb a8be 5122 bfbd 56f5 0b3f 12da 463f
000000b0: dddf 2c3e 2366 a6bd ca6e 513e 51fc 093f
000000c0: 3843 cc3e 55c0 d73e 3e2a 073e 9c6f 8abe
000000d0: e6eb dbbd c9a2 2c3d d6b2 0c3e a6c8 a1be
000000e0: 7ad3 1fbb a4cc ee3d 746a 423e e420 fc3d
000000f0: 1de6 debe d3c7 b0bd 5276 1d3e b204 69be
00000100: 90b8 c1be 1d88 c33e 539f 7bbe 3bfc b13e
00000110: 6744 803e 021d 03be c670 29bd a2a5 d6bd
00000120: 7d79 9d3e 1797 5cbe 87c1 7a3e 83ae d13d
00000130: 8b53 a4be 3849 323d a2c3 003c 26f4 fbbd
00000140: 8ba6 193f 2f94 4a3e 7148 fb3d 2481 04be
00000150: b558 81be 6cb2 c5be c57e 633f 44b3 81bd
00000160: 6845 8fbd 614a b83e c37a 013c 85c5 b03d
00000170: a008 4dbd d574 033f b3c6 9d3d 0a0a bdbc
00000180: 68d9 d6be 00a1 52be 9069 b63d 0a09 0d3f
00000190: 3150 173d 8e5b 313e 7324 84be 9ade 1c3c
000001a0: 78a6 2fbe 2094 7cbb 6a2d 963e c286 ad3e
000001b0: ba16 c939 a70e 92be 3064 893e 1d1c d3be
000001c0: abda 06bf c10a 31bd adbc 5abd fbc2 24bf
000001d0: 1f6e 8ebe 95d1 62be 71bc 963d 2409 c6be
000001e0: 8c7a 573e 5c0f 09be 1342 44be dc29 203e
000001f0: b4e1 1cbd 6020 70bd 16d5 a4be eeba 123d
00000200: 791e eebd b9a8 983d ed8d 473e 409f 393e
00000210: d233 b83c eeb3 9abe 5c81 2b3f be85 de3e
00000220: 93f2 1fbe ea60 b33d 49fb 8b3e 489a 6bbe
00000230: 348b b8bd 9a85 b23e 77c6 04bf 4672 44bd
00000240: 948e cb3e 71b4 19be 32b0 3dbe 0aea 00be
00000250: 5761 2e3d c6bb 833e 069f a63e 0e21 593e
00000260: 64eb 873d 3186 3f3e 24c4 c43e 0c06 a9bd
00000270: 8466 c5bd a536 f5bd 4e76 a8be 9224 4f3f
00000280: fb62 18be 6dcb 3dbe d317 843e 2b31 3d3d
00000290: 4738 863d def7 983e 43a6 7b3d 07b0 04be
000002a0: 18d2 2b3e a512 673d 749b ad3e d601 0c3f
000002b0: eb32 51bd 5b2a 2bbe fac7 ffbc eee4 dfbe
000002c0: ae73 a5bd cbe6 da3d be93 ca3e a0ff 37be
000002d0: 56a2 35bf 7cd6 97be 2054 f53e ff73 9e3e
000002e0: 7aba 90be 3458 f1bd a795 e2bd c5c2 0fbe
000002f0: 6dc6 cb3e 9460 8c3c 03b8 09be 14a1 f7be
00000300: 92cb 38be ebf5 f9bd 67d3 313e a9a1 c1be
00000310: 27fe 893d a08b e13e e7e2 4cbe c278 6abd
00000320: 7ce2 4ebe 20f5 be3d 0335 b83d 6bfb 813e
00000330: e7aa 553e 5070 48bd c114 5d3d 7a13 ebbe
00000340: b08b 043e d934 0a3e a1a9 183e ba6d 62bd
00000350: 8163 a63c 370c 043c eb92 3fbe 1ec2 143d
00000360: b914 02bf 8e29 ef3e ac0f 05bf dfa7 fcbe
00000370: e279 9d3c 9550 b0be ddd1 86be 071d cbbe
00000380: 5971 623f 7fb4 9dbe 0f8f acbc ff73 87bd
00000390: e66d 273f 8eee a4be e03e 7fbe 1819 a63e
000003a0: acd1 0abe 72fd ee3d 3ac1 333e b02b cd3e
000003b0: ec4a a03d 1dfb 78be de70 d2bd 6192 07bf
000003c0: 0830 b33e 7af7 61be 614a e9be d1d1 cb3e
000003d0: c666 70bd 8dd2 0d3f 3270 67bc ef2b 90bd
000003e0: a729 01be 8d55 eebe 3f73 77bd 468d 3abe
000003f0: 141d dcbc 6385 1cbe db6e 4b3e 217b 863e
0.13878049 -0.12145112 -0.33553723 -0.05918054 -0.064418904 0.29912293 0.10859128 -0.012027239
0.08769119 0.5160453 -0.07353678 -0.22125462 0.28399372 0.18496692 0.007646314 0.17430939
0.48751456 0.016338924 -0.18612406 -0.098188765 -0.05696644 -0.22812319 0.053661153 0.48487654
-0.2746016 -0.05739759 0.3677353 -0.013569327 -0.27941614 0.52128494 -0.43027925 -0.6040778
-0.45926914 -0.017298022 -0.24007133 -0.14116043 -0.22974885 -0.4091429 0.07792291 -0.4490194
-0.32955432 -0.09332717 0.5467123 0.776765 0.16882272 -0.0812495 0.20452419 0.5390063
0.39895034 0.42138925 0.13199708 -0.27038276 -0.107383534 0.04214743 0.13740095 -0.31598395
-0.0024387524 0.11660126 0.18985921 0.12310961 -0.43534938 -0.086318634 0.15377167 -0.22755697
-0.37836123 0.38189784 -0.24572496 0.3476275 0.25052187 -0.12804034 -0.041367315 -0.10480811
0.3075675 -0.21542011 0.24487887 0.102383636 -0.32094988 0.043526858 0.0078591425 -0.12302427
0.6001975 0.1978309 0.122696765 -0.12939888 -0.2526299 -0.38612688 0.8886531 -0.0633302
-0.0699566 0.35994247 0.007902804 0.08631424 -0.050057054 0.51350147 0.077039145 -0.023076076
-0.41962743 -0.20569229 0.08906853 0.5509192 0.03694171 0.17320082 -0.2580906 0.009574557
-0.17153347 -0.0038540438 0.29331523 0.33891875 0.0003835464 -0.28526804 0.2683425 -0.41232386
-0.5267741 -0.043223146 -0.05340259 -0.64360017 -0.2781839 -0.22150262 0.07360161 -0.3867885
0.21042842 -0.13384765 -0.1916583 0.15640968 -0.038301185 -0.058624625 -0.32193822 0.0358228
-0.11626906 0.07454056 0.19487734 0.18127155 0.022485647 -0.302154 0.6699426 0.43461412
-0.15619878 0.08758719 0.27340153 -0.23008072 -0.09010926 0.34867555 -0.51865333 -0.047960542
0.39757216 -0.15010239 -0.18524244 -0.12589279 0.0425733 0.25729197 0.325432 0.21204016
0.06636694 0.18703534 0.38430893 -0.082531065 -0.09638694 -0.11973313 -0.3290276 0.80915177
-0.14881508 -0.18534632 0.25799426 0.04618947 0.06553703 0.29876608 0.061437856 -0.12957774
0.16779363 0.056414265 0.33907664 0.546903 -0.05107395 -0.16715376 -0.031223286 -0.43729347
-0.08078705 0.106885515 0.39565843 -0.17968607 -0.7095083 -0.29655826 0.47915745 0.30947873
-0.2826727 -0.117844015 -0.110637 -0.14039142 0.39799824 0.017135896 -0.13449101 -0.4836508
-0.18046406 -0.12205108 0.173658 -0.3781865 0.06737929 0.44051838 -0.20008431 -0.05724407
-0.20203584 0.09324098 0.08994486 0.2538713 0.20865975 -0.048935235 0.05397487 -0.45913297
0.12943912 0.13496722 0.14908458 -0.055280425 0.020311119 0.008059553 -0.18708389 0.036317937
-0.5081287 0.4671139 -0.5197704 -0.49346825 0.019223157 -0.3443648 -0.26331988 -0.39670584
0.88454205 -0.3080177 -0.02106431 -0.066139214 0.65402067 -0.32213253 -0.24926329 0.3244102
-0.13556546 0.116694346 0.17554179 0.40072393 0.0782679 -0.24314542 -0.10275434 -0.5295773
0.34997582 -0.22067061 -0.4556456 0.39808515 -0.058691762 0.553994 -0.014125871 -0.0703963
-0.12613545 -0.46549645 -0.06041264 -0.18217954 -0.026869334 -0.15285258 0.19866507 0.26265815

network_body._body_endoder.seq_layers.0.bias f4 [128]
00000000: 50d6 e63b fdd1 6fbb d1ca b23b ea38 acbb
00000010: 9018 313a ac8d cabb aa2d 103b 1473 cb3a
00000020: 09d8 113b b2c0 843a 841b 82ba 33c7 b33b
00000030: fdaf 2c3b 270f baba b406 813b defc 4dbb
00000040: ed8c 09bb 4626 12bb 3392 27bb 0b01 a73b
00000050: 7873 b43b 6f15 8dbb f82a afbb 5f1c aebb
00000060: 7f56 0a3b 6186 31bb d994 1b3b 2d4a b13b
00000070: 5f65 4bbb 4572 9bbb f4a7 c23a 1197 29bb
00000080: 30a1 20bb b55d 6aba 41a1 a8bb 31f8 28bb
00000090: 20b3 49bb e227 93bb ac29 173b 676e 92bb
000000a0: c54b 8fbb c7de 143b a3bb aa3b 5144 223b
000000b0: e731 a33b f7db 993b ff24 9ebb c98e a3bb
000000c0: ff95 053b 77be 963a 4ab5 973b afdb c13b
000000d0: 6dc3 25bb 759d d03b 58ed 54bb 6e01 4f3b
000000e0: 3186 863b 0d6d 953a 2c54 baba 4a8e 863b
000000f0: 4b1d b53b 96c7 55bb daaf 333b 848c 72bb
00000100: ac59 6238 a8fc c43b 4c0e 323b a269 82bb
00000110: 2c16 88bb 7a2a 24ba 32b9 f739 11ab 54b8
00000120: ec48 903b 9b60 a2bb 3d11 2a3b 414e 49bb
00000130: a6c7 a339 9a43 583a cc89 623b d38e aa3b
00000140: bb77 f8ba 546f 023b b872 1c3b 1abc 9d3a
00000150: fbef 683b 48a8 3cb9 f450 363b 8986 92bb
00000160: 8e55 ae3b ecf8 57bb 4d6b b838 b46c a2bb
00000170: 4122 7e3b e69e 95ba 72f6 c9ba d5ed 4f3b
00000180: ce49 8d3a 3903 80b8 4157 9c3b e875 a23b
00000190: fd40 863a 2ceb 8d3b f67d b1bb f85e 1b3b
000001a0: ed7c 843b 507b dc39 0e17 0cbb 9be7 bcbb
000001b0: 9129 033b 9872 233b f47c 70bb 0d1e bcbb
000001c0: fd89 ab3a f961 5cbb 0b9e 9abb 37b0 943b
000001d0: 1423 4cbb 9c3c 633b e81a 41bb c461 693b
000001e0: 4161 803b 215a 453b d82c 5d3a 01d3 013b
000001f0: 1e07 e23a 39f3 e8ba 69cb 963a ac9c ac3a
0.007044591 -0.0036593669 0.0054563065 -0.005255808 0.0006755674 -0.0061814394 0.0021999874 0.0015521967
0.002225401 0.0010128228 -0.0009926413 0.005486393 0.0026350014 -0.001419519 0.0039375667 -0.0031431238
-0.002098854 -0.0022300645 -0.002556932 0.00509656 0.005506929 -0.0043055336 -0.0053456984 -0.0053134407
0.0021108685 -0.0027088153 0.0023739843 0.005410454 -0.0031035764 -0.0047438466 0.0014851079 -0.0025877396
-0.0024510138 -0.0008940355 -0.005146176 -0.00257827 -0.0030776933 -0.0044908384 0.002306561 -0.0044687274
-0.004373046 0.0022715793 0.0052103563 0.0024759958 0.004980314 0.0046954113 -0.0048261876 -0.0049913866
0.0020383594 0.0011500855 0.0046297656 0.005916081 -0.0025293485 0.0063664266 -0.00324901 0.0031586546
0.0041053523 0.0011400298 -0.0014215759 0.0041063176 0.0055271736 -0.0032620183 0.0027418048 -0.0037010023
5.3966112e-05 0.0060115643 0.0027169166 -0.0039798776 -0.0041530337 -0.0006262433 0.00047249492 -5.0704057e-05
0.004403224 -0.004955364 0.0025950216 -0.003071681 0.00031238532 0.00082498195 0.0034566997 0.0052050143
-0.0018956581 0.0019902783 0.0023872089 0.0012034208 0.003554343 -0.00017991767 0.0027819248 -0.0044716042
0.0053202575 -0.0032954765 8.79379e-05 -0.004956806 0.003877774 -0.0011415153 -0.001540853 0.0031727452
0.0010779442 -6.104116e-05 0.0047711437 0.004957903 0.0010242757 0.004331013 -0.005416627 0.0023707729
0.0040432126 0.00042053545 -0.0021376046 -0.005764914 0.002001379 0.002494013 -0.0036695572 -0.005740887
0.0013087388 -0.0033627732 -0.004718547 0.004537608 -0.0031148838 0.0034673577 -0.00294655 0.0035611251
0.0039178436 0.0030113535 0.0008437163 0.0019809606 0.0017244553 -0.0017772681 0.0011504713 0.001316925

network_body._body_endoder.seq_layers.2.weight f4 [128, 128]
00000000: e4c9 75be b682 c53c 064b 8abd 3416 25bd
00000010: ae48 6d3d 1da2 d23d a4a9 29be fe54 d13d
00000020: 1f59 81bb 39e6 21bd 4113 18be ee68 30bd
00000030: 17b8 793d 2e97 843d 3f8e ee3d 61bf 3e3d
00000040: b345 dfbd 1b32 e6bd eed8 b73d 4637 d03d
00000050: 3901 8dbd a6a3 d23d 15db e6bb 5bdc 05bb
00000060: b995 51bd 2eb9 f0bc 2cac b83c c155 ad3d
00000070: d111 e1bd 462a 4cbb 01b0 3abd be32 6e3c
00000080: 5996 cbbd 225e 283d 5d06 b7bd 3cfc b1bd
00000090: c8f3 833d 4a40 903c 4103 d83d f96b e23d
000000a0: a3d0 1abd 13f7 e9bd 53c7 2e3d 685a 333e
000000b0: d271 bf3c 14ee 2e3e 6f7d 253e 9302 a73d
000000c0: f6ae 2a3d d1a7 1fbe 60e4 ff3d ac76 97bd
000000d0: a29f 5d3b 0b1f cfbd 4ed9 d93c 1267 d2bd
000000e0: a41f 42be 73a9 323d d7cb 683c 1394 acbc
000000f0: 0e70 44bd 92a2 1cbd 42cd cebd f483 193c
00000100: d934 003e 75c8 26be 0788 56bd d5e0 b53c
00000110: 3bc1 93bd b8e8 203e c92f a03d 71ed 27be
00000120: 2fe3 d6bd 22f1 673e 1249 33be 76ab 073e
00000130: 6811 b8bd 45ff 4abd c1c7 843c 4d8d 2cbd
00000140: 157d 073d e9c1 86bb 762f 383d b05f 0fbe
00000150: a263 2bbe 9906 aa3c 706d 98be f598 2e3b
00000160: fc62 5dbd 4332 50bc c998 d5bd eb0a 66bc
00000170: d19b 79be d68b 02bd 7b6c 1fbd 9e37 393e
00000180: dd8b 693d 34fb b53b 30bc 523d a97c fe3d
00000190: 1f09 a4bc e984 84bd 32cc 513e 34c6 023d
000001a0: b426 ad3b d49e 1fbe a2b0 98bb 980a db3d
000001b0: 617f 813d 4e11 0e3d b068 cdbd e8ab 3dbd
000001c0: 19de c8bd 124c 42bb bcde a73d 1879 283b
000001d0: 10d9 a7bd f188 183e c7e2 aa3d 1a43 893d
000001e0: fcbe b33d 0c84 a83d b3e9 eabd 8f7b cfbd
000001f0: 8e1c a53b fa6f 343d 5608 babc e9db cf3d
00000200: 8529 b8bd 251c 24bd 4af4 a3bd a82c cf3c
00000210: 8950 683d 6f22 96bd d0a0 fc3c 8c9f 293d
00000220: 5388 13bc 24e3 9dbd e42d 223d e94b 02bd
00000230: 1e0b 413d b41b 3dbc 7f47 88bd 8ce4 ee3c
00000240: 5bb4 f5bc b94f 28bb c282 debd 84ef 12be
00000250: c544 28bd 8ed2 423d 84c6 623e e831 23be
00000260: c10e eebc db2e 04bd 77aa 45be 8f53 9d3c
00000270: dcda febd d73a bfbc 8a5c 3bbd e07d d53d
00000280: e6c1 47bd 947e f73d 2904 57bc c1cc 93bd
00000290: a585 c43d 616c d539 cd9f a13a 651c 723d
000002a0: cb37 bebd 86dd e3bd dc4f a0bc 87a4 cc3d
000002b0: cd14 8c3d 5daf 4bbc 649d f53d fc7a 453d
000002c0: bb11 e53c 4f50 f73d edb8 dbbd 940b 29be
000002d0: 3a0d a4bd 2639 573d 1f61 ef3b 51b8 e13d
000002e0: 1610 873d 94a5 093c 69f6 e63c f6b8 94bd
000002f0: a355 ff3d 9394 bdbc 8952 8abd 0b41 153e
00000300: 52aa cc3c 7a21 ab3c 3446 85be 7c7e 8dbd
00000310: 732d f7bd b3cc 823d 2d52 51bc 8d9a 72bd
00000320: 611a c7bd 0e4e 8b3d faac b0bc 8810 14bc
00000330: 3523 a03d d1d3 3b3d 91be 8e3a d82e ebbc
00000340: 611b e73d c49e 453d e343 243d f31b 5bbd
00000350: 1bd5 e73c 98e3 0f3e d4d5 e03d 93c2 7bbd
00000360: 6c09 993e 8d9a ab3c 76bd 5a3e 447d db3d
00000370: 5c71 413c e89d bfbd 0703 6ebd ef5e c1bd
00000380: 06c3 f6bc 6943 e73d d8d4 a33d 128d 0bbe
00000390: 2a1a 793d af9a 2cbd 4f3c a1ba 8e77 c13d
000003a0: 16cd aa3c 0c18 acbc 95e4 60bd 83ef 433d
000003b0: 4973 5cbc 3dc8 313e 214d b63d a186 d73c
000003c0: 32a4 2a3e 90f3 f43d f627 91bd 7bca 4abd
000003d0: cf2f 4a3d 01e1 e3bc 1a58 ed3d 90cb c13d
000003e0: 922d 81bd 0e70 1b3e b6c0 7d3d 62b5 8a3d
000003f0: deb5 61be 6575 0b3d e1e1 f6bc a6e0 ae3d
-0.24002796 0.02411018 -0.06752591 -0.040304378 0.05793064 0.10284827 -0.16568619 0.10221289
-0.0039473916 -0.039526198 -0.14851095 -0.04306882 0.060966577 0.06474148 0.11648225 0.046569232
-0.10901966 -0.112400256 0.08976923 0.101667926 -0.06884999 0.1028512 -0.0070451596 -0.0020425532
-0.051168177 -0.029385176 0.022543035 0.08463622 -0.10989726 -0.0031153127 -0.045578007 0.014538465
-0.09940786 0.041105397 -0.089367606 -0.08690688 0.06442982 0.01760878 0.10547496 0.110557504
-0.037796628 -0.11424079 0.04267056 0.17514956 0.023369703 0.17083007 0.1616113 0.08154788
0.041670762 -0.1559136 0.12494731 -0.07395682 0.0033817072 -0.10113343 0.026592877 -0.10273565
-0.18957382 0.04361863 0.014208755 -0.021066701 -0.047958426 -0.038240977 -0.100977436 0.009369839
0.1252016 -0.16287406 -0.05237582 0.022201935 -0.0721459 0.15713775 0.07821614 -0.1639917
-0.104925506 0.22650579 -0.17508343 0.13249001 -0.08987695 -0.04955985 0.016208531 -0.042126942
0.033078272 -0.0041124714 0.044967137 -0.14001346 -0.16737226 0.0207551 -0.29770994 0.0026641462
-0.054049477 -0.012707296 -0.10429532 -0.014040689 -0.24375845 -0.03187164 -0.038921814 0.18087623
0.05701815 0.0055536274 0.051449 0.12426121 -0.02002388 -0.06470663 0.2048805 0.031927302
0.005284155 -0.15587932 -0.004659728 0.1069538 0.06323124 0.03468447 -0.10029733 -0.04630652
-0.09807987 -0.0029647392 0.0819678 0.0025706943 -0.08195698 0.14895989 0.083440356 0.06702252
0.08776662 0.08228311 -0.11470356 -0.10130989 0.0050388044 0.0440521 -0.022709053 0.101493664
-0.08992294 -0.040065903 -0.08005579 0.025289848 0.05671743 -0.073307864 0.0308384 0.04141192
-0.00900467 -0.07709339 0.039594546 -0.031810675 0.047129743 -0.0115422495 -0.06654262 0.029161714
-0.029993227 -0.0025682284 -0.10864784 -0.1434918 -0.04108121 0.04756408 0.2214604 -0.15937006
-0.02905977 -0.032271247 -0.19303308 0.019204883 -0.12444088 -0.023343487 -0.04574255 0.104243994
-0.0487689 0.1208469 -0.01312355 -0.07216788 0.09595803 0.00040707274 0.001233095 0.05910911
-0.092879854 -0.111262366 -0.01956933 0.099923186 0.06839905 -0.012431947 0.119929105 0.04821299
0.027962556 0.120758645 -0.10728631 -0.16508323 -0.08010335 0.052544735 0.007305279 0.11021484
0.06594865 0.008401293 0.02819367 -0.07261841 0.12467506 -0.023142135 -0.067540236 0.14575593
0.024983559 0.020889986 -0.26030123 -0.069088906 -0.120692156 0.063866995 -0.01277594 -0.059229422
-0.09721828 0.06801997 -0.021566857 -0.0090371445 0.07819215 0.0458563 0.0010890533 -0.02870886
0.11284519 0.048247114 0.040103804 -0.05349345 0.028299859 0.14051664 0.109782845 -0.061464857
0.2989 0.020947719 0.21361336 0.10717252 0.011806812 -0.0935629 -0.058108356 -0.09441935
-0.030122291 0.11292154 0.07999581 -0.13628033 0.060815968 -0.042139705 -0.0012301299 0.09446631
0.020849746 -0.02100756 -0.054905493 0.047835838 -0.0134552205 0.17361541 0.0890143 0.026309313
0.16664198 0.11960518 -0.070877 -0.049509507 0.049362 -0.027817251 0.1158907 0.094626546
-0.0630752 0.15179464 0.06195136 0.06772877 -0.22042033 0.034047503 -0.030137004 0.08538942

network_body._body_endoder.seq_layers.2.bias f4 [128]
00000000: f27c c9bb 498a 4e3b 1699 ac3b ea36 adbb
00000010: eed7 86bb ac39 95bb cd47 a13b cc7d a33b
00000020: 9beb 9abb ce41 a7bb d20f 9fbb 1b78 82bb
00000030: aa07 f03a ca30 5f3b 3a01 f23a b2bf 9d3b
00000040: cb2f 193b 8e72 6dba 0ddd 803b ddbb c63b
00000050: c8fb 79bb 3b7e 2ebb 2ac3 383b 1234 78bb
00000060: 9927 fd3a c817 ab3b c4b0 a3bb 38bd b53b
00000070: 6263 9c3b d553 c2bb 511b 5cbb c80b 8ebb
00000080: 467b ab3b 89d6 273a 8eff b83a fcc7 babb
00000090: e2f4 46ba 0cc7 9e3b 0d00 ad3b cdb5 223b
000000a0: e9c5 b23b 72c4 9e3b 008b 3d36 b5b2 ccba
000000b0: 84b4 b63b fbbe d93a e0b6 943b ffdb 8c3b
000000c0: 061b a93b 6ec9 8e3b 5bdb a2bb 630a 8d3b
000000d0: 010f 753b 0ea6 36bb 86b8 a73b 0518 8aba
000000e0: 9c2e b8bb fd31 4c3b 43e9 8bbb 73cd 933b
000000f0: 5cad 0c3a 2580 d63a 0b34 563b 9622 b0bb
00000100: a901 9d3b b48c 9c3b 7e48 2cbb 10fd 7c3b
00000110: 03e5 25ba 8107 a1bb c9d5 bfbb 9c8d 6cbb
00000120: 131e 923b 39a7 c2bb b391 2d3a 327a 5d3b
00000130: 6db2 563a e8cf 9bbb 6809 9f3b e955 0ebb
00000140: f598 aa3b 3058 d1ba 8e97 d0bb c885 f439
00000150: 5c16 9eba 14e7 2b3b 89db 02b8 1517 823b
00000160: ef67 7cbb fe11 e13a 0416 123b e4bb de3a
00000170: 52b0 633a ccac 473b 2c77 59b9 bcaa 4c3a
00000180: 0c1b 9b3b feac 9b3b fa0c 893b f2b8 7e3b
00000190: 502e 933b b951 a03b a16c 95ba 02c2 adbb
000001a0: 4056 93ba 086d a7bb 0c4b 6f38 b59b d5bb
000001b0: ac67 a23b 0fb4 b33a 6626 a2bb bbc2 d8ba
000001c0: 0beb 0c3b e060 33b9 b1a2 87bb cbe8 963b
000001d0: 67cc d4b9 6f89 95bb 1a96 9ebb 2c52 67bb
000001e0: eae9 d0ba 317d 5dba fa3c b63b ccf3 2c3b
000001f0: 2579 673b 063d 8d3b 4f57 b63b 2772 b83b
-0.006148928 0.003151553 0.0052672727 -0.0052860873 -0.0041150963 -0.004553994 0.0049218894 0.0049893614
-0.0047277934 -0.00510428 -0.004854181 -0.003981603 0.0018312831 0.003405618 0.00184635 0.0048141116
0.0023374434 -0.00090579025 0.0039326013 0.0060648755 -0.0038144458 -0.0026625532 0.0028192499 -0.0037872833
0.0019314169 0.005221341 -0.0049954373 0.0055462383 0.0047725895 -0.0059304037 -0.0033585618 -0.0043349005
0.005233201 0.00064025127 0.0014114247 -0.0057001095 -0.0007589591 0.0048455056 0.005279547 0.00248276
0.0054557216 0.0048451954 2.8244103e-06 -0.0015617224 0.0055757184 0.0016612703 0.004538402 0.0042986865
0.005160692 0.0043575084 -0.004969997 0.0043042167 0.0037392976 -0.0027869972 0.0051184325 -0.0010535723
-0.0056207906 0.0031157725 -0.0042697503 0.0045105754 0.0005366409 0.0016365094 0.0032684829 -0.0053752167
0.0047914577 0.0047775153 -0.0026288326 0.0038602985 -0.0006328376 -0.0049142246 -0.0058543426 -0.0036095148
0.0044591515 -0.0059403447 0.0006621137 0.0033794758 0.00081900397 -0.004755009 0.0048534162 -0.0021718687
0.005206222 -0.0015971716 -0.006365723 0.0004663898 -0.0012061107 0.0026230263 -3.1198873e-05 0.0039700367
-0.0038514098 0.00171715 0.0022290954 0.0016993252 0.00086856366 0.0030467985 -0.00020739128 0.0007807424
0.004733449 0.004750847 0.004182455 0.003886756 0.004491605 0.0048925546 -0.0011400172 -0.0053026685
-0.0011240914 -0.005109433 5.7051933e-05 -0.006518806 0.0049562063 0.0013710278 -0.004948425 -0.0016537526
0.0021502401 -0.00017106859 -0.0041392674 0.004605388 -0.00040588083 -0.0045635025 -0.004839671 -0.003529678
-0.0015938852 -0.0008449136 0.005561468 0.0026390431 0.003532001 0.004310253 0.005564607 0.0056288424

action_model._continuous_distribution.log_sigma f4 [1, 2]
00000000: 2a61 44ba 32ad 3e3a
-0.0007491285 0.0007273733

action_model._continuous_distribution.mu.weight f4 [2, 128]
00000000: c0dc 83bc 876d f73b 69c1 993b 45be 89bc
00000010: 8f2e acbc 5aaf 8cbc 7af1 783c 575b 873c
00000020: c3e7 2fbc 5f3f 19bc fcf8 35bc 56b2 b33a
00000030: 5c52 b13b 3468 443c d15b f73c f70d 6b3c
00000040: 171f 713c 7537 01bd a3fe c53c 543b 8b3c
00000050: 27e3 813b 72d1 d13a d7c7 9dbb 8826 cebc
00000060: 23f0 8dbb e9c4 613c 9ef7 d4bc 8133 933c
00000070: c105 243c f344 93bc d2a6 dcbc 197a a3bc
00000080: 7723 3a3c fde3 fe3c 7f8f c23b b9ac e8bb
00000090: 3353 37bc 6563 ab3b e1f5 ca3c 1e6e b73c
000000a0: 57ef 383c 0b09 df3c b950 843c f435 6b3b
000000b0: ed3b 193b 6b17 973c b458 e33c 288b 403b
000000c0: 72aa 123c 0578 0d3c 4db1 2bbc 4576 203b
000000d0: 393b 4c3b 40f2 34b7 d689 c93b c61c 8e3a
000000e0: 90c9 96bc 78f1 37bb 3af9 70bc e9bc 06bb
000000f0: 4d6e 6a3c 7ce4 2b3c 2252 013d f523 26bc
00000100: 9c53 833a 2282 8d3b 5947 6f3b 144e 983c
00000110: c50a 6abc 24d8 bcba cc2c dbbc 64d4 e437
00000120: dba7 083c 4fd0 67bc 65aa bc3c 9395 053d
00000130: 3c58 71bc 2aaf e0bc 7916 c73b bfce 1dbc
00000140: afd8 2a3b 681e 92bc 4d4f 13bc 8c62 85bb
00000150: 1fdb f13b 77ca 3b3d e14f d33b 6755 e23c
00000160: f59d f1bc 6edf 963b 6180 203c 5668 d23a
00000170: b43d f13b b10b cf3b 16bc ba3c d9db c13c
00000180: fbec 473b d636 ba3b e2dc 503c 3e7e 98ba
00000190: c621 143d 70d3 a53b db4c d13b 1a9a 05bc
000001a0: cd72 93bc 0b8f e9bc 6f79 29bc 1735 78bc
000001b0: 2c21 af3c 50ef ea3b abef 70bc 4ed5 5ebc
000001c0: 8d80 f9bb 595b 5d3b 0646 c5bc 99c0 af3c
000001d0: fd3b fa3b c5ca c3bc c35c 1dbc d88c 39bc
000001e0: 31d5 e0bc 6d50 82bc 996e cf3c 7bfc ca3c
000001f0: f4fd 033d 8bc8 893b f3ae 713c d487 393c
00000200: b331 4b3d c8d1 dbb9 6107 60bc db96 233c
00000210: 1eda 2e3b 7f61 1e3c 0b14 a33b 126a 8cbc
00000220: 61e4 973c 8b52 f03b d4a6 063d c280 7c3c
00000230: 1504 433b 6271 8ebb 6401 683c 04f4 80bc
00000240: 7923 fc3b 36b7 a4bc 02bb 13bc b7c0 cabc
00000250: 30b0 693c f856 423c 5589 aebc c020 94ba
00000260: 8cbf e0bc 9795 8dbc de97 aa3c a16e 47bb
00000270: 2b55 adbc d4f7 af3c 1b6a 97bb 277c b13b
00000280: dfa1 20bc 6e8a 3e3d 6050 293c e0a7 a43c
00000290: fe0a 2fbc ec21 31bd 28c3 d0bc f1bd cd3b
000002a0: d486 babc 64c6 8cbc 5978 f83c 61b9 e83b
000002b0: 164a a03a b2a0 283c 329e 5abc 3d52 40bd
000002c0: e6e5 993a c219 d5bc 8f13 763b daa1 a2bc
000002d0: 1129 9ab8 bcfa 963c 525d a3bc 8537 dc3b
000002e0: 7a59 86bb 8a99 6fbc 707d 303d 3bb1 bcbc
000002f0: 4b82 b43c ed39 cf3b 3814 853b c5e0 283d
00000300: c2c6 cebc 6655 03bc 5079 373d ebe9 b7bb
00000310: cb75 3bbc e3ca 973b 2982 033d fa1a fe3c
00000320: 610e bebc 80cb 003d bd67 223c a3c9 19bc
00000330: 4d57 23bd 3d09 fe3b 43a1 c2bc 621b acbb
00000340: 70d1 5abc 7a60 b5bb 4985 c53b 4146 6abc
00000350: ff25 bb3c 24a9 ba3b b567 bd3b 4479 4b3b
00000360: 6ed2 1c3c 321a 6c3c 74ef 283b ff62 69bb
00000370: 9203 133c 2b3e a1bb 6162 d23c 20ca 823c
00000380: 5faf 61bc ca1d 2fbc 06ad 113b 453a 35bd
00000390: 43b9 963c da23 e9bc 7c3c a63c 2cbc ca3c
000003a0: 88f5 8bbc ea2b 453c cd94 6abc 8873 063d
000003b0: 1b19 483c a383 6f3c 5531 51bb ae22 32bc
000003c0: ea95 1cbd 9b60 e73c e645 a03b e860 5bbc
000003d0: ca22 db3c dc60 ff3b 66bf 093c a147 e1bb
000003e0: b45e 4ebc d800 28bd cfc5 c5bc acf4 b93c
000003f0: 0343 3bbb 7f14 69bc 8045 ddbc fa78 d9bc
-0.016096473 0.0075508985 0.0046922457 -0.01681436 -0.021018295 -0.017173458 0.015194291 0.016523046
-0.010736409 -0.009353488 -0.011106726 0.0013709764 0.0054114293 0.011987735 0.030195149 0.014346591
0.014716885 -0.03154703 0.024169272 0.016996063 0.0039638462 0.0016007854 -0.0048150825 -0.025164858
-0.004331605 0.013779857 -0.02599698 0.017968895 0.010011137 -0.017977213 -0.026935015 -0.019955682
0.011360995 0.031114573 0.005937516 -0.0071006683 -0.01118927 0.0052303546 0.024775447 0.022391375
0.011287532 0.027225992 0.016151773 0.0035890313 0.0023381666 0.018443784 0.027752258 0.0029379819
0.00895177 0.008634572 -0.0104792835 0.0024484557 0.003116323 -1.0785239e-05 0.0061504645 0.0010842315
-0.01840666 -0.002806751 -0.014707858 -0.0020559377 0.014308524 0.010491487 0.03157247 -0.010140409
0.0010019424 0.0043184916 0.0036511032 0.018591918 -0.014284794 -0.0014407677 -0.02675476 2.727862e-05
0.008340801 -0.014148786 0.02303047 0.03261335 -0.014730509 -0.027427275 0.006075677 -0.009631812
0.0026069095 -0.017836764 -0.008991075 -0.0040705856 0.0073808576 0.045847382 0.0064487313 0.027628614
-0.029494265 0.0046042716 0.009796233 0.0016052823 0.007362092 0.0063185324 0.022794764 0.023664402
0.0030506242 0.0056828065 0.012747975 -0.0011634303 0.03616502 0.0050606057 0.0063873357 -0.008154416
-0.017999077 -0.028510591 -0.010343893 -0.015149376 0.021378122 0.0071696416 -0.014705579 -0.0136006605
-0.0076142014 0.0033776371 -0.024081241 0.021454142 0.0076365457 -0.023900399 -0.009604636 -0.011325084
-0.027445408 -0.01590749 0.025321292 0.024778595 0.03222461 0.004204815 0.014751184 0.011323888
0.049607944 -0.00041927234 -0.013673634 0.009984697 0.00266803 0.0096668 0.0049767545 -0.017140422
0.018541517 0.0073340586 0.032873943 0.015411558 0.0029757072 -0.0043470124 0.014160488 -0.015741356
0.0076946584 -0.020106893 -0.009016754 -0.024750097 0.014263198 0.011861555 -0.02130572 -0.0011301264
-0.027435087 -0.017283244 0.020824369 -0.003043093 -0.021158775 0.021480478 -0.004620803 0.0054164114
-0.009804218 0.046518736 0.010334104 0.02009958 -0.010683773 -0.04324524 -0.025483683 0.0062787463
-0.02276937 -0.017184444 0.030330824 0.007102177 0.001222911 0.010292219 -0.013343381 -0.04695343
0.0011741489 -0.026013259 0.003754828 -0.019852567 -7.3509415e-05 0.018430106 -0.01994196 0.0067204856
-0.004100022 -0.014624009 0.043088377 -0.023033729 0.022034785 0.006324044 0.004061248 0.041229982
-0.02524126 -0.008015966 0.044793427 -0.005612602 -0.011441658 0.0046323403 0.032106552 0.031018723
-0.023200216 0.031444073 0.009912428 -0.009386453 -0.03987818 0.007752566 -0.023758536 -0.0052522877
-0.013355598 -0.0055351825 0.0060278517 -0.014298976 0.022845266 0.0056964327 0.005780185 0.0031047622
0.009571655 0.014410542 0.002577749 -0.0035611985 0.008973019 -0.004920741 0.025681676 0.015965521
-0.013774722 -0.010688255 0.0022228374 -0.044245023 0.018398887 -0.028459478 0.020292513 0.02474793
-0.017084852 0.012034396 -0.014317703 0.032825023 0.012213017 0.014618787 -0.0031920273 -0.010872526
-0.038228907 0.028244307 0.004891145 -0.0133898035 0.026749987 0.007793529 0.008407449 -0.006874994
-0.012595821 -0.04101643 -0.024142174 0.022699676 -0.0028573878 -0.014226078 -0.02701068 -0.026546944

action_model._continuous_distribution.mu.bias f4 [2]
00000000: 691a 813b 0eb4 7ebb
0.003939916 -0.0038864645

action_model._discrete_distribution.branches.0.weight f4 [1, 128]
00000000: ab1d 1d3b b793 a8bb 5f6c 623c ccab 483c
00000010: 484f 503c 053e c3ba 51f6 c6ba 87b1 c33b
00000020: 9c0b 35bc 6dd7 7c3b 8d33 5d3b c29f 42bc
00000030: bee0 843b d57a e1bb dd1e 533c a32a 0a3b
00000040: dd53 a0bc 8237 253c 9dc2 ccbb f0e9 763a
00000050: 3b03 973a 5f10 cf3b 9f9b 90bc 86ac 943b
00000060: 475c 3bbb 18ee 5b3c 33af 643b e848 a2bb
00000070: 0631 2d3c 1f31 473c b021 25bc c031 7d3b
00000080: 9b77 01bb 7fff 57ba 5fa5 25bc 708a 143b
00000090: dbfc 16bb 382b 33bc 8b7c dc3b da4f edbb
000000a0: cde2 d8ba 47c8 e4bb 4fbf 0fbc 70d7 d0ba
000000b0: 4ea1 cb3b 3e61 ba3b ff78 bd3a f573 7b3c
000000c0: 7ae1 a7bb bbee 48bc c342 c6bb 67b0 bcba
000000d0: 2f81 a8bb 5eef 863c 0fac dcba 9081 4a3c
000000e0: 0a1c a0ba dbda cabb 7e8f a8bb df6a 92bb
000000f0: 7bb8 983a ea29 0c3a 922f e6bb b3b1 3ebc
00000100: 06dc 07bb 34fe 4bbc 0ede 9b3c 8bda eab9
00000110: 0c15 a4bc 06ef a6ba 8d76 0f3c 57ec 513c
00000120: cfe5 3f3b e98e 1d39 5dee 0ebb f2c7 573b
00000130: 3f44 d3bb 0a4c fd3b 7a41 5e3c 7bb7 0c3c
00000140: 8da8 eebb ef4d 12bc 1a3f 8d3b 473a d83b
00000150: 596a 4bbc 033e 903a c742 ff3b ffb5 503c
00000160: 634d 3f3b 57ee fe39 5a58 f6ba 6da4 d8ba
00000170: 41b1 043c 5b62 13bc c70d b23b b842 92bb
00000180: 3bfe 063c ee9d 26bc 80d2 803c 2bd1 0eba
00000190: cb61 5b3c 32d5 ddba 022b 943c 153e c6bb
000001a0: d8d7 a9bb d1fb c2bb 4509 3a3b 0ab1 d1bb
000001b0: e3d0 88bb 2d65 db3b 3211 9e3b dd9c f9bb
000001c0: 5b1b 53bc f5bd 283c 5301 58bb b4b3 9abb
000001d0: 972d ae3b d8ab 52ba ef13 7d3c b3d6 913b
000001e0: 3be3 0bbc f509 d3ba 5b1b e43b 4d48 003c
000001f0: a3fb e83b bf45 1e3c 2793 11bc 80cb 5d3a
0.0023973982 -0.005144562 0.013819783 0.012247991 0.012714215 -0.0014895803 -0.0015179609 0.0059720906
-0.011050131 0.0038580552 0.003375265 -0.01187891 0.0040551117 -0.006881098 0.012885776 0.0021082542
-0.01957124 0.010084035 -0.0062487856 0.00094190147 0.0011521348 0.0063190903 -0.01765233 0.004537168
-0.0028588937 0.013423465 0.0034894466 -0.0049525388 0.01057077 0.0121577075 -0.0100788325 0.003863439
-0.0019755128 -0.0008239671 -0.010110228 0.0022665523 -0.0023038897 -0.010935597 0.006728714 -0.007242185
-0.0016547084 -0.0069818827 -0.008773639 -0.0015933346 0.0062142974 0.0056878617 0.0014455615 0.0153474705
-0.0051233144 -0.012263949 -0.006050439 -0.0014395834 -0.005142353 0.016471561 -0.0016835945 0.012359992
-0.0012215388 -0.0061906404 -0.0051440587 -0.0044683064 0.0011651659 0.0005346822 -0.007024714 -0.0116390465
-0.002073051 -0.0124507435 0.019026782 -0.00044794785 -0.020029567 -0.001273603 0.008756292 0.0128126955
0.0029281264 0.00015025925 -0.0021809556 0.0032925573 -0.0064473446 0.007730012 0.0135654155 0.008588667
-0.0072832764 -0.008929714 0.004310501 0.006598744 -0.012415492 0.0011004809 0.007789943 0.012738704
0.0029190413 0.00048624232 -0.0018794641 -0.0016528495 0.008098901 -0.008995618 0.0054337713 -0.00446352
0.008239324 -0.010169489 0.015725374 -0.00054480386 0.013390015 -0.0016924499 0.018086914 -0.006049881
-0.0051832013 -0.005950429 0.0028386873 -0.0063992785 -0.004175292 0.0066954107 0.004823827 -0.0076175765
-0.01288494 0.010299196 -0.0032959774 -0.0047211293 0.0053154933 -0.0008036471 0.015446647 0.004450643
-0.008538063 -0.001610099 0.006961269 0.007829738 0.0071100756 0.009660183 -0.0088851815 0.0008460805

exp_avg f4 [128, 12]
00000000: fe19 7537 d191 a537 8c96 8bb4 82af 60b5
00000010: b76f 11b8 b76f 11b8 b76f 11b8 0000 0000
00000020: 0000 0000 0000 0000 0000 0000 0000 0000
00000030: 497a 5038 4eca 24b7 4cc6 1839 e991 8135
00000040: f86a 9b37 f86a 9b37 f86a 9b37 0000 0000
00000050: 0000 0000 0000 0000 0000 0000 0000 0000
00000060: 2707 e7b7 7c40 1c36 aaea 4fb8 401d 4cb5
00000070: d60f feb7 d60f feb7 d60f feb7 0000 0000
00000080: 0000 0000 0000 0000 0000 0000 0000 0000
00000090: bb15 4537 1c2f b2b7 88af 9437 495a cf35
000000a0: f459 49b7 f459 49b7 f459 49b7 0000 0000
000000b0: 0000 0000 0000 0000 0000 0000 0000 0000
000000c0: b051 f237 16bf 3736 ce58 ed38 f01c 3c33
000000d0: 5b94 95b7 5b94 95b7 5b94 95b7 0000 0000
000000e0: 0000 0000 0000 0000 0000 0000 0000 0000
000000f0: 8664 e0b6 636f 67b7 aaf4 3cb7 2bf6 3d35
00000100: fabd 0fb7 fabd 0fb7 fabd 0fb7 0000 0000
00000110: 0000 0000 0000 0000 0000 0000 0000 0000
00000120: 0e5b 6238 a45b 9837 8d0a e838 9c33 8433
00000130: aa40 99b8 aa40 99b8 aa40 99b8 0000 0000
00000140: 0000 0000 0000 0000 0000 0000 0000 0000
00000150: 092b d037 e3fb 2137 f1f5 9d38 f6f6 70b4
00000160: 22e4 4fb7 22e4 4fb7 22e4 4fb7 0000 0000
00000170: 0000 0000 0000 0000 0000 0000 0000 0000
00000180: 2526 1d37 eaa7 fa36 1786 0b37 79d8 91b4
00000190: 925a f5b6 925a f5b6 925a f5b6 0000 0000
000001a0: 0000 0000 0000 0000 0000 0000 0000 0000
000001b0: 6833 7538 9612 1b37 de42 0339 a0f4 0835
000001c0: a080 5db8 a080 5db8 a080 5db8 0000 0000
000001d0: 0000 0000 0000 0000 0000 0000 0000 0000
000001e0: 5d45 f8b6 97b9 8bb7 3889 f836 4a36 2935
000001f0: 3969 86b8 3969 86b8 3969 86b8 0000 0000
00000200: 0000 0000 0000 0000 0000 0000 0000 0000
00000210: 8829 d4b7 1edf 3537 38a4 83b8 f2e9 8eb5
00000220: 082b 4b37 082b 4b37 082b 4b37 0000 0000
00000230: 0000 0000 0000 0000 0000 0000 0000 0000
00000240: b8bb 2fb5 dbe7 ab36 6b1c 5337 54af a1b4
00000250: 565a 74b7 565a 74b7 565a 74b7 0000 0000
00000260: 0000 0000 0000 0000 0000 0000 0000 0000
00000270: 3cb7 91b5 bbc1 24b6 98c6 c4b6 65ec 0234
00000280: 014c 0bb6 014c 0bb6 014c 0bb6 0000 0000
00000290: 0000 0000 0000 0000 0000 0000 0000 0000
000002a0: d044 b437 1417 2d38 53d3 0f38 62e9 bab5
000002b0: 85bc 9238 85bc 9238 85bc 9238 0000 0000
000002c0: 0000 0000 0000 0000 0000 0000 0000 0000
000002d0: 9cc4 0ab8 c778 c7b7 d502 84b8 8891 5435
000002e0: 36dc e7b7 36dc e7b7 36dc e7b7 0000 0000
000002f0: 0000 0000 0000 0000 0000 0000 0000 0000
00000300: f026 1b38 18a6 2637 3ab0 8f38 6a1e 1734
00000310: 3023 8fb7 3023 8fb7 3023 8fb7 0000 0000
00000320: 0000 0000 0000 0000 0000 0000 0000 0000
00000330: 0e76 8e36 d609 e9b6 b596 0e38 51f5 a734
00000340: 0c2e c936 0c2e c936 0c2e c936 0000 0000
00000350: 0000 0000 0000 0000 0000 0000 0000 0000
00000360: fe1f e4b7 3521 03b8 fe8d 62b7 a42a 8835
00000370: 7a77 8ab8 7a77 8ab8 7a77 8ab8 0000 0000
00000380: 0000 0000 0000 0000 0000 0000 0000 0000
00000390: 481f 2d37 2c17 d437 381e 9536 1765 74b5
000003a0: 123d e2b7 123d e2b7 123d e2b7 0000 0000
000003b0: 0000 0000 0000 0000 0000 0000 0000 0000
000003c0: 5a0f c037 0e58 a737 6dff f637 9eea 88b5
000003d0: 49ca 39b8 49ca 39b8 49ca 39b8 0000 0000
000003e0: 0000 0000 0000 0000 0000 0000 0000 0000
000003f0: 831d ec37 1fa3 01b7 e40a 7338 419e 6e35
1.460919e-05 1.9737434e-05 -2.6000305e-07 -8.37019e-07 -3.4674737e-05 -3.4674737e-05 -3.4674737e-05 0.0
0.0 0.0 0.0 0.0 4.970495e-05 -9.8222645e-06 0.00014569721 9.653714e-07
1.8527251e-05 1.8527251e-05 1.8527251e-05 0.0 0.0 0.0 0.0 0.0
-2.7540676e-05 2.3283346e-06 -4.9571194e-05 -7.6038486e-07 -3.0286534e-05 -3.0286534e-05 -3.0286534e-05 0.0
0.0 0.0 0.0 0.0 1.17471745e-05 -2.124119e-05 1.7724713e-05 1.5448978e-06
-1.2001477e-05 -1.2001477e-05 -1.2001477e-05 0.0 0.0 0.0 0.0 0.0
2.8886687e-05 2.7380352e-06 0.00011317582 4.379848e-08 -1.7831268e-05 -1.7831268e-05 -1.7831268e-05 0.0
0.0 0.0 0.0 0.0 -6.6874227e-06 -1.3794607e-05 -1.12626385e-05 7.076621e-07
-8.567697e-06 -8.567697e-06 -8.567697e-06 0.0 0.0 0.0 0.0 0.0
5.39674e-05 1.8162486e-05 0.00011064587 6.156117e-08 -7.307653e-05 -7.307653e-05 -7.307653e-05 0.0
0.0 0.0 0.0 0.0 2.4815572e-05 9.654995e-06 7.5321535e-05 -2.2441586e-07
-1.2391278e-05 -1.2391278e-05 -1.2391278e-05 0.0 0.0 0.0 0.0 0.0
9.36681e-06 7.4701284e-06 8.316266e-06 -2.716586e-07 -7.3121128e-06 -7.3121128e-06 -7.3121128e-06 0.0
0.0 0.0 0.0 0.0 5.8460428e-05 9.243047e-06 0.00012518044 5.1019924e-07
-5.2810297e-05 -5.2810297e-05 -5.2810297e-05 0.0 0.0 0.0 0.0 0.0
-7.399051e-06 -1.6656513e-05 7.4069503e-06 6.3036407e-07 -6.409217e-05 -6.409217e-05 -6.409217e-05 0.0
0.0 0.0 0.0 0.0 -2.5291709e-05 1.0840389e-05 -6.277155e-05 -1.0647911e-06
1.2109762e-05 1.2109762e-05 1.2109762e-05 0.0 0.0 0.0 0.0 0.0
-6.5465747e-07 5.1231887e-06 1.2583197e-05 -3.0116155e-07 -1.4564566e-05 -1.4564566e-05 -1.4564566e-05 0.0
0.0 0.0 0.0 0.0 -1.085667e-06 -2.455067e-06 -5.8643745e-06 1.2193193e-07
-2.0756854e-06 -2.0756854e-06 -2.0756854e-06 0.0 0.0 0.0 0.0 0.0
2.1489715e-05 4.1267907e-05 3.4290668e-05 -1.3926003e-06 6.996937e-05 6.996937e-05 6.996937e-05 0.0
0.0 0.0 0.0 0.0 -3.308487e-05 -2.377889e-05 -6.294778e-05 7.918793e-07
-2.763989e-05 -2.763989e-05 -2.763989e-05 0.0 0.0 0.0 0.0 0.0
3.6991143e-05 9.933043e-06 6.851596e-05 1.4074035e-07 -1.7063314e-05 -1.7063314e-05 -1.7063314e-05 0.0
0.0 0.0 0.0 0.0 4.245673e-06 -6.945086e-06 3.3995795e-05 3.1284665e-07
5.9956274e-06 5.9956274e-06 5.9956274e-06 0.0 0.0 0.0 0.0 0.0
-2.7194616e-05 -3.126376e-05 -1.350371e-05 1.01452e-06 -6.602607e-05 -6.602607e-05 -6.602607e-05 0.0
0.0 0.0 0.0 0.0 1.0318887e-05 2.528316e-05 4.444064e-06 -9.104419e-07
-2.6969738e-05 -2.6969738e-05 -2.6969738e-05 0.0 0.0 0.0 0.0 0.0
2.2895332e-05 1.9948955e-05 2.9444427e-05 -1.0201072e-06 -4.429583e-05 -4.429583e-05 -4.429583e-05 0.0
0.0 0.0 0.0 0.0 2.8147135e-05 -7.726979e-06 5.7945857e-05 8.88922e-07

exp_avg_sq f4 [128, 12]
00000000: e747 ca2d 328c ec2d ddf0 e62e 7832 6f29
00000010: d48e e22e d48e e22e d48e e22e 0000 0000
00000020: 0000 0000 0000 0000 0000 0000 0000 0000
00000030: d6a0 1431 bec3 a62f 6e56 5832 8822 152b
00000040: e1b9 5c30 e1b9 5c30 e1b9 5c30 0000 0000
00000050: 0000 0000 0000 0000 0000 0000 0000 0000
00000060: 1296 ff2f 5b9d 822d 4d55 7031 e3f3 4c2a
00000070: d0b1 702f d0b1 702f d0b1 702f 0000 0000
00000080: 0000 0000 0000 0000 0000 0000 0000 0000
00000090: 4181 1230 c575 af2e 9510 a431 ec53 ba2a
000000a0: 815b 8c30 815b 8c30 815b 8c30 0000 0000
000000b0: 0000 0000 0000 0000 0000 0000 0000 0000
000000c0: 7526 1430 2e8a 182f 5935 c131 42e8 892a
000000d0: 076e dc2f 076e dc2f 076e dc2f 0000 0000
000000e0: 0000 0000 0000 0000 0000 0000 0000 0000
000000f0: d6ea ec2d 882a b12d 67eb 8b2f ad75 6729
00000100: 3cac 2f2f 3cac 2f2f 3cac 2f2f 0000 0000
00000110: 0000 0000 0000 0000 0000 0000 0000 0000
00000120: 513a 1b30 2fa5 d72e ccfe a931 6ceb a02a
00000130: c8b6 2431 c8b6 2431 c8b6 2431 0000 0000
00000140: 0000 0000 0000 0000 0000 0000 0000 0000
00000150: f03f 4a2f b174 af2d 5c5b 1131 c95e f929
00000160: 4db0 8d2f 4db0 8d2f 4db0 8d2f 0000 0000
00000170: 0000 0000 0000 0000 0000 0000 0000 0000
00000180: a550 fd2c 6761 892c 81ed 872e ba22 ed27
00000190: ff1b 1a2e ff1b 1a2e ff1b 1a2e 0000 0000
000001a0: 0000 0000 0000 0000 0000 0000 0000 0000
000001b0: 0e14 2930 1a07 ae2e ee21 9131 6e99 4d2a
000001c0: 1c2f 3431 1c2f 3431 1c2f 3431 0000 0000
000001d0: 0000 0000 0000 0000 0000 0000 0000 0000
000001e0: 3077 f42e f776 612e 7424 bc2f d550 b629
000001f0: 619c aa30 619c aa30 619c aa30 0000 0000
00000200: 0000 0000 0000 0000 0000 0000 0000 0000
00000210: aa56 9c2f 0272 872d aeeb 0a31 bed9 012a
00000220: d968 912f d968 912f d968 912f 0000 0000
00000230: 0000 0000 0000 0000 0000 0000 0000 0000
00000240: c14c 582e 341b d82c 23c3 2630 7445 3029
00000250: f06f 732e f06f 732e f06f 732e 0000 0000
00000260: 0000 0000 0000 0000 0000 0000 0000 0000
00000270: c538 e62c 22dc f92c 3c1e 2a2e 64d9 5328
00000280: 5e48 712f 5e48 712f 5e48 712f 0000 0000
00000290: 0000 0000 0000 0000 0000 0000 0000 0000
000002a0: 0d40 4830 e783 8b2f cda4 8531 fde6 fd2a
000002b0: d416 6231 d416 6231 d416 6231 0000 0000
000002c0: 0000 0000 0000 0000 0000 0000 0000 0000
000002d0: 24bc 1c2f 49ea 842e c567 f330 6541 2a2a
000002e0: 70e6 8b30 70e6 8b30 70e6 8b30 0000 0000
000002f0: 0000 0000 0000 0000 0000 0000 0000 0000
00000300: 438e ce2f 23ee 802d 9627 2e31 2a6d ae29
00000310: 9587 7c2f 9587 7c2f 9587 7c2f 0000 0000
00000320: 0000 0000 0000 0000 0000 0000 0000 0000
00000330: c8d0 f82e 0a87 102e 104a 2630 72f4 0629
00000340: 6cc0 4a2e 6cc0 4a2e 6cc0 4a2e 0000 0000
00000350: 0000 0000 0000 0000 0000 0000 0000 0000
00000360: e628 542e e2c3 722e e61a dd2e 1284 9f29
00000370: 4d87 7a30 4d87 7a30 4d87 7a30 0000 0000
00000380: 0000 0000 0000 0000 0000 0000 0000 0000
00000390: d0f3 852f a817 aa2e b09f e430 c024 3f2a
000003a0: 9926 c72f 9926 c72f 9926 c72f 0000 0000
000003b0: 0000 0000 0000 0000 0000 0000 0000 0000
000003c0: f233 322f 2252 202f da8b ae2f d7db 8929
000003d0: b9d1 c42e b9d1 c42e b9d1 c42e 0000 0000
000003e0: 0000 0000 0000 0000 0000 0000 0000 0000
000003f0: 348a bb2f 1146 c62d df04 1a31 2177 b129
2.2996672e-11 2.6892353e-11 1.0501975e-10 5.3112435e-14 1.03026615e-10 1.03026615e-10 1.03026615e-10 0.0
0.0 0.0 0.0 0.0 2.162826e-09 3.0334307e-10 1.2592507e-08 5.2983356e-13
8.0299684e-10 8.0299684e-10 8.0299684e-10 0.0 0.0 0.0 0.0 0.0
4.649086e-10 1.4849169e-11 3.4973084e-09 1.8203455e-13 2.1891045e-10 2.1891045e-10 2.1891045e-10 0.0
0.0 0.0 0.0 0.0 5.329817e-10 7.978999e-11 4.7749134e-09 3.309847e-13
1.0212348e-09 1.0212348e-09 1.0212348e-09 0.0 0.0 0.0 0.0 0.0
5.3896737e-10 1.3873411e-10 5.623104e-09 2.449725e-13 4.0095946e-10 4.0095946e-10 4.0095946e-10 0.0
0.0 0.0 0.0 0.0 2.6934382e-11 2.0141458e-11 2.5451216e-10 5.139437e-14
1.5977347e-10 1.5977347e-10 1.5977347e-10 0.0 0.0 0.0 0.0 0.0
5.6471544e-10 9.8064105e-11 4.9475144e-09 2.8585066e-13 2.396904e-09 2.396904e-09 2.396904e-09 0.0
0.0 0.0 0.0 0.0 1.8394508e-10 1.9947018e-11 2.1152209e-09 1.1074264e-13
2.577302e-10 2.577302e-10 2.577302e-10 0.0 0.0 0.0 0.0 0.0
7.199646e-12 3.904588e-12 6.1812784e-11 6.5818365e-15 3.504041e-11 3.504041e-11 3.504041e-11 0.0
0.0 0.0 0.0 0.0 6.151034e-10 7.9138654e-11 4.2239128e-09 1.8260889e-13
2.6220226e-09 2.6220226e-09 2.6220226e-09 0.0 0.0 0.0 0.0 0.0
1.1117007e-10 5.126474e-11 3.4222902e-10 8.096446e-14 1.2413574e-09 1.2413574e-09 1.2413574e-09 0.0
0.0 0.0 0.0 0.0 2.8437813e-10 1.5398353e-11 2.0215611e-09 1.1533046e-13
2.6449845e-10 2.6449845e-10 2.6449845e-10 0.0 0.0 0.0 0.0 0.0
4.9180885e-11 6.1421094e-12 6.0667754e-10 3.914009e-14 5.5351224e-11 5.5351224e-11 5.5351224e-11 0.0
0.0 0.0 0.0 0.0 6.543296e-12 7.1014453e-12 3.868038e-11 1.1759992e-14
2.1944532e-10 2.1944532e-10 2.1944532e-10 0.0 0.0 0.0 0.0 0.0
7.28506e-10 2.5377675e-10 3.889545e-09 4.5102108e-13 3.2900305e-09 3.2900305e-09 3.2900305e-09 0.0
0.0 0.0 0.0 0.0 1.4254958e-10 6.0442824e-11 1.771007e-09 1.5121721e-13
1.0179075e-09 1.0179075e-09 1.0179075e-09 0.0 0.0 0.0 0.0 0.0
3.7572265e-10 1.465767e-11 2.5342834e-09 7.746089e-14 2.2967435e-10 2.2967435e-10 2.2967435e-10 0.0
0.0 0.0 0.0 0.0 1.1314821e-10 3.2861748e-11 6.04957e-10 2.9966e-14
4.6100387e-11 4.6100387e-11 4.6100387e-11 0.0 0.0 0.0 0.0 0.0
4.8239544e-11 5.519841e-11 1.00546946e-10 7.083929e-14 9.1141744e-10 9.1141744e-10 9.1141744e-10 0.0
0.0 0.0 0.0 0.0 2.4365798e-10 7.734907e-11 1.6634569e-09 1.6976958e-13
3.6225314e-10 3.6225314e-10 3.6225314e-10 0.0 0.0 0.0 0.0 0.0
1.620746e-10 1.4581095e-10 3.1749786e-10 6.122158e-14 8.950302e-11 8.950302e-11 8.950302e-11 0.0
0.0 0.0 0.0 0.0 3.41133e-10 2.254111e-11 2.2412718e-09 7.8810446e-14

exp_avg f4 [128]
00000000: 80d2 76b8 e555 8e38 6539 60b8 20c8 e338
00000010: 8ea5 4e36 5dad 5038 0c3a 9136 455a 84b7
00000020: fb36 a0b7 e972 1638 24e2 3938 84fe 9cb8
00000030: 559d b1b7 88d2 0f37 a553 cdb8 ea82 6938
00000040: e901 2637 8b81 b837 0695 9538 9b3c 86b8
00000050: e967 96b8 5510 8338 b995 f737 7fd9 c538
00000060: aec2 ebb7 8295 9838 d43b b8b7 88e3 d1b8
00000070: 7c4f de37 88a6 9738 af20 1138 611d ce37
00000080: 6787 0738 fd98 6c37 3a53 6c37 7c00 9a37
00000090: c90f b337 9fd2 8f38 6c82 c037 4442 a736
000000a0: bb06 2538 5dde f7b7 fc49 96b8 50a0 36b8
000000b0: 8691 ecb6 e2f7 81b7 1010 0738 8bcd ab38
000000c0: 9c0d 7db7 8e16 d538 f024 ecb7 6f9a 07b9
000000d0: ed9f 68b7 c4e5 68b8 3d77 9c38 b3b8 d5b8
000000e0: e2ae 1bb9 46e6 80b7 4e37 ce37 9d7e 19b8
000000f0: b3a1 a1b8 6e4d f538 7022 a6b5 a7c8 3638
00000100: 4e29 5ab8 bc60 1eb9 4ca0 4fb8 1022 9738
00000110: ae3b 0538 9cd8 6938 1130 2a38 d8c4 d8b7
00000120: 211e 2cb8 7f42 cb38 98de 6835 5459 f337
00000130: b729 8c38 0a56 6438 a876 15b7 d021 4bb8
00000140: 4677 fd38 14ac edb7 0e07 b138 9096 ccb7
00000150: 9671 c9b7 f883 1537 20de 8d36 dfcb 6638
00000160: ed19 2ab8 7c18 3638 e9dc 1638 feed 0338
00000170: 15f9 52b8 074b 66b7 92d6 7f38 9f4d e5b7
00000180: aaaf 91b8 9687 4e38 e255 57b7 80f5 99b8
00000190: 961c 58b8 7d41 06b9 044e 1c38 1daf a8b8
000001a0: 4f27 bb37 a351 2a37 b4b7 2537 887a a038
000001b0: c02d 76b7 d6af f538 2aa6 d337 351e 5c38
000001c0: 9ebc 5a37 c933 c838 1de7 3a38 4cc3 8eb8
000001d0: 1777 3938 2bba 3538 f86f 9138 f4e9 bcb8
000001e0: d2de 6fb7 7013 2337 1718 11b6 d293 1338
000001f0: 6204 80b6 cde1 2339 3a5f 8537 0634 e338
-5.8847014e-05 6.787087e-05 -5.3459215e-05 0.0001086148 3.0792758e-06 4.975252e-05 4.3280943e-06 -1.5777661e-05
-1.9099089e-05 3.5869805e-05 4.4318047e-05 -7.486067e-05 -2.1173308e-05 8.572482e-06 -9.790742e-05 5.5673452e-05
9.894816e-06 2.1994832e-05 7.1326314e-05 -6.4009066e-05 -7.171912e-05 6.249609e-05 2.9514415e-05 9.434204e-05
-2.8104838e-05 7.275773e-05 -2.1962369e-05 -0.000100082776 2.6501475e-05 7.23126e-05 3.4601133e-05 2.4570794e-05
3.231261e-05 1.41023165e-05 1.4086074e-05 1.8358456e-05 2.1345813e-05 6.8580026e-05 2.2948916e-05 4.984702e-06
3.9345334e-05 -2.954824e-05 -7.166338e-05 -4.3541484e-05 -7.0502892e-06 -1.5493428e-05 3.2201468e-05 8.192201e-05
-1.5083144e-05 0.000101608326 -2.8150593e-05 -0.00012932134 -1.3865513e-05 -5.5527096e-05 7.4608695e-05 -0.000101910344
-0.00014847101 -1.5366018e-05 2.4582867e-05 -3.659596e-05 -7.707197e-05 0.00011696933 -1.2377986e-06 4.3579053e-05
-5.201372e-05 -0.0001510409 -4.9501934e-05 7.206586e-05 3.1765252e-05 5.5753262e-05 4.0575924e-05 -2.5840869e-05
-4.1036055e-05 9.69218e-05 8.675065e-07 2.9009454e-05 6.68349e-05 5.4439566e-05 -8.908719e-06 -4.8430462e-05
0.000120861965 -2.8332732e-05 8.441332e-05 -2.4388806e-05 -2.401396e-05 8.911818e-06 4.227986e-06 5.5026143e-05
-4.0555304e-05 4.3414984e-05 3.5968525e-05 3.145448e-05 -5.0299877e-05 -1.3726537e-05 6.0996572e-05 -2.7335072e-05
-6.946859e-05 4.92405e-05 -1.2834995e-05 -7.3413365e-05 -5.1525036e-05 -0.00012803632 3.7265956e-05 -8.043482e-05
2.2310442e-05 1.0151797e-05 9.877538e-06 7.652218e-05 -1.4673395e-05 0.000117152624 2.5230536e-05 5.248022e-05
1.3037728e-05 9.546389e-05 4.4561097e-05 -6.8074645e-05 4.421835e-05 4.3327145e-05 6.9349946e-05 -9.008116e-05
-1.42973895e-05 9.720083e-06 -2.1620706e-06 3.51852e-05 -3.8152075e-06 0.00015629009 1.5899179e-05 0.000108338936

exp_avg_sq f4 [128]
00000000: 6e53 902f 10f8 3331 c653 7730 08da e030
00000010: 826b a630 46a8 8b2f b430 c230 d676 1630
00000020: 0615 0f2e 871b 7830 9802 dc2f 8fb2 1c30
00000030: 47b7 542f 4ca6 7f2e da32 1931 cf74 4d30
00000040: 5a7d d22f 72db 222f 0a7f c02f c1a9 6630
00000050: 865c a62f 2628 d62f 4906 822f 9fe3 1931
00000060: f852 252f 1841 7931 fed1 732f 31e7 c030
00000070: 61b0 9030 6462 8430 4002 842f 1861 ed2f
00000080: 82c2 8130 efb1 3730 2b55 2030 96d9 4e2f
00000090: 9f32 822e 0d17 fd2f c2f0 af31 6576 2e30
000000a0: 491e 7130 6425 522f f833 4030 c1b6 922f
000000b0: 776b 9a2f 36f1 0030 7a6d 672f 97c6 5c30
000000c0: 703c 092f 8935 9830 91a2 0a2f 1c46 8230
000000d0: c035 b22f 5470 972f 2319 fb2f f5f7 d530
000000e0: 4f8f b831 568d 902f 7925 0d2f 1c7f 4930
000000f0: b3cf 5630 3f21 bd30 7e57 b62f b228 5a31
00000100: a1d3 4730 cdc7 7e31 cf3d ae30 9571 682f
00000110: 6897 be2e 6276 a12f bc91 222f 3999 3530
00000120: a042 5730 3835 9930 a499 502e 6314 1d30
00000130: 4570 f22f 756d 4631 94ff c02f ca1c c830
00000140: ddb8 f930 9c25 3f30 fd94 7230 574f 272f
00000150: cb5d fd2f 590d f430 5b16 2030 2af5 6530
00000160: b722 452f 7fce 552f 23f0 c130 2f53 b72f
00000170: e4a2 d230 3124 5d2f 97f3 6331 0645 3d2f
00000180: e935 e330 e6d0 6e31 c5eb ca2f 93df a72f
00000190: e838 8c31 80d3 8931 9616 892f 87d5 b930
000001a0: faee eb2e fe97 aa2e 029d 1e30 816d fa2f
000001b0: e26a 0231 631e 0131 360b 5330 bd92 902f
000001c0: 1743 5a2f 197f a030 5218 6630 9821 6f30
000001d0: cae2 7e30 1f5e 6930 1b69 5730 425d 2531
000001e0: 9958 3e2e fbc2 132f a5f1 072f 2680 3730
000001f0: 5ff4 342f e14f d730 50da a42e 3e9f ec30
2.6252728e-10 2.6188935e-09 8.9977126e-10 1.6360113e-09 1.2108645e-09 2.5403518e-10 1.41292e-09 5.473856e-10
3.2533108e-11 9.0260993e-10 4.001961e-10 5.7006216e-10 1.9346401e-10 5.812799e-11 2.2293336e-09 7.474456e-10
3.8287845e-10 1.4811777e-10 3.5014863e-10 8.391475e-10 3.0260966e-10 3.89549e-10 2.3651328e-10 2.2393818e-09
1.5036139e-10 3.627127e-09 2.2175325e-10 1.4035547e-09 1.0527509e-09 9.632228e-10 2.401226e-10 4.3179038e-10
9.441268e-10 6.682787e-10 5.832869e-10 1.8812893e-10 5.920708e-11 4.603681e-10 5.1205413e-09 6.346908e-10
8.7718327e-10 1.9112673e-10 6.9923045e-10 2.66871e-10 2.8088795e-10 4.690891e-10 2.1048221e-10 8.0317747e-10
1.2481549e-10 1.1074671e-09 1.2608782e-10 9.478671e-10 3.2416203e-10 2.7546554e-10 4.5674495e-10 1.5568263e-09
5.371397e-09 2.6293873e-10 1.2837188e-10 7.330401e-10 7.8147905e-10 1.3761009e-09 3.3167774e-10 3.1746308e-09
7.269652e-10 3.7075438e-09 1.2677733e-09 2.114063e-10 8.667095e-11 2.9369845e-10 1.478559e-10 6.606516e-10
7.8311224e-10 1.1147341e-09 4.7430185e-11 5.714524e-10 4.4099316e-10 2.8875011e-09 3.5106196e-10 1.4560098e-09
1.8169676e-09 6.953884e-10 8.825081e-10 1.5216749e-10 4.6087076e-10 1.775713e-09 5.823943e-10 8.3658114e-10
1.7929379e-10 1.9445599e-10 1.4110849e-09 3.3346612e-10 1.5325807e-09 2.011269e-10 3.3171312e-09 1.7213972e-10
1.6531746e-09 3.4752303e-09 3.691111e-10 3.0535982e-10 4.0810058e-09 4.0112695e-09 2.4936203e-10 1.352121e-09
1.07290135e-10 7.757704e-11 5.7703187e-10 4.5552542e-10 1.8978246e-09 1.8789243e-09 7.6777285e-10 2.629771e-10
1.985082e-10 1.1677656e-09 8.3708074e-10 8.6995433e-10 9.272695e-10 8.489866e-10 7.836591e-10 2.406367e-09
4.327969e-11 1.3438843e-10 1.2364028e-10 6.675712e-10 1.6457723e-10 1.5666012e-09 7.4966366e-11 1.7216519e-09
