results/SlayRL_500/SlayTheSquire_RL/SlayTheSquire_RL-499820.onnx (onnx, 82288 bytes, 10 tensors)

network_body.observation_encoder.processors.0.normalizer.running_mean f4 [12]
0.88336736 -0.44264635 0.0022512395 0.8291169 -0.20654005 -0.20008159 -0.31517687 -0.018436596
0.0 -0.12245775 -0.050566096 -0.029968705
00000000: 5d24 623f 8ba2 e2be 8889 133b 0141 543f
00000010: 3c7f 53be 30e2 4cbe dd5e a1be 5808 97bc
00000020: 0000 0000 21cb fabd 651e 4fbd ee80 f5bc

network_body._body_endoder.seq_layers.0.weight f4 [128, 12]
0.09199674 -0.13310118 -0.15291153 0.26475742 0.31392753 0.100611 0.03809306 0.2241964
0.33930513 0.06508657 -0.21292377 -0.20439705 -0.021879423 0.30285332 0.11945942 -0.20272522
0.46128252 -0.25479263 -0.20883326 0.6344457 -0.38802493 0.38789183 0.12131354 0.2284492
0.42917964 -0.57130575 0.13896039 0.11254869 -0.09382912 -0.020150691 -0.41334045 0.2567006
0.1388753 -0.023388728 0.5585195 -0.033539873 -0.51112187 0.23144738 0.16066878 -0.19146635
-0.2917532 0.07091522 -0.049567886 0.5985199 0.039861582 0.43299705 -0.10603642 -0.08936985
-0.4736544 0.33953166 0.0647255 0.3988719 -0.12653437 0.2284651 0.2552086 0.1023121
-0.24026796 -0.13089392 -0.09419409 0.17183344 0.0012138237 0.61063606 -0.6061317 -0.006222356
-0.31507906 -0.0055574435 0.16810326 -0.19640061 -0.1417879 -0.2694521 0.39314136 0.09508512
0.35437804 -0.062754996 0.24640007 -0.37742195 -0.12860437 0.2508702 0.05216004 -0.5929824
0.53397894 0.017933132 0.059151415 -0.24998787 -0.088125005 0.43947896 0.5412544 -0.07601366
-0.3438663 -0.14749081 -0.03382455 -0.66437113 0.12622963 -0.051774606 0.23521657 -0.198978
-0.25440735 -0.29621303 -0.13144204 -0.17831147 -0.16487618 0.04648519 -0.4106298 0.30685493
0.39241096 -0.43492666 0.53804433 0.50896233 0.09591455 0.1571793 -0.19260341 0.39580664
-0.29850742 -0.12792768 -0.05580647 -0.48224348 0.08979642 0.10075177 -0.22879763 0.1545944
0.7821309 -0.18290327 0.44358647 0.19358602 0.44468015 -0.23555663 0.11221051 0.47367147
-0.2006681 -0.25940594 0.05297286 -0.14133573 0.13507658 0.5959988 -0.10623478 -0.36570027
-0.1698876 -0.039730523 -0.07662247 -0.26854774 0.24687746 0.39672816 0.11728223 0.0020686567
0.2729786 -0.07183169 -0.25663036 -0.22733174 -0.13017868 -0.16970783 0.06859566 -0.3730844
-0.3900321 0.19529203 -0.2495353 0.32730392 0.28721365 0.22400185 0.19244532 0.299114
0.32028243 -0.30503362 -0.19732496 -0.51070076 -0.028654244 0.11381629 0.26774952 0.3695814
-0.25925645 -0.19116175 -0.30171663 -0.03389283 -0.40187332 -0.5425915 -0.014841837 0.0579544
-0.5973633 0.14661822 -0.051521882 -0.41989064 -0.3989708 -0.15768729 -0.108400375 0.12547283
0.18517362 -0.112127036 -0.04944511 0.37682655 -0.2512344 -0.11102505 0.25949037 0.27661532
0.6404599 0.2467372 0.517321 0.09554645 -0.45338163 -0.41312355 0.06375603 0.024984717
-0.38967595 0.3740839 0.2051883 -0.22470747 0.24063116 -0.08317454 0.31290528 0.47656626
-0.55300874 0.097303346 0.66405064 0.068802685 -0.15626243 0.5364048 0.3559051 0.44723243
-0.25569767 0.19821896 -0.23787363 0.20777763 0.057141986 -0.19769207 0.00075010443 -0.15499757
0.39795655 -0.43855488 -0.08213212 -0.19843553 -0.21734208 -0.23932008 0.1063852 0.49862826
0.36322805 0.0899095 0.28326467 -0.2750631 0.09656267 0.47486615 -0.15343563 0.20913652
0.14849733 0.13309173 0.053545002 -0.28624985 0.24777643 -0.39850387 0.124445096 -0.31966388
0.02302529 -0.37332207 -0.10754757 -0.013881315 0.5734105 0.094114676 -0.33675265 0.038876306
00000000: c968 bc3d ad4b 08be d794 1cbe 498e 873e
00000010: 1cbb a03e 240d ce3d 7807 1c3d be93 653e
00000020: 67b9 ad3e 1c4c 853d b008 5abe 764d 51be
00000030: 7a3c b3bc 970f 9b3e 24a7 f43d 3397 4fbe
00000040: 392d ec3e 2e74 82be 63d8 55be 096b 223f
00000050: 34ab c6be c299 c63e 3c73 f83d 96ee 693e
00000060: 6fbd db3e 1841 12bf a24b 0e3e ed7f e63d
00000070: 7b29 c0bd 1013 a5bc 5ca1 d3be 436e 833e
00000080: 5435 0e3e b899 bfbc 22fb 0e3f 1b61 09bd
00000090: e2d8 02bf 8b00 6d3e 5b86 243e c10f 44be
000000a0: ad60 95be 003c 913d b207 4bbd 9a38 193f
000000b0: e645 233d cab1 dd3e 9f29 d9bd 8a07 b7bd
000000c0: d482 f2be 18d7 ad3e ce8e 843d f038 cc3e
000000d0: 3a92 01be c1f2 693e b4aa 823e 0289 d13d
000000e0: ce08 76be 0e09 06be d5e8 c0bd 1bf5 2f3e
000000f0: 2a19 9f3a a552 1c3f 722b 1bbf e8e4 cbbb
00000100: 0b52 a1be 371b b6bb 4323 2c3e 3e1d 49be
00000110: d930 11be a0f5 89be d349 c93e fdbb c23d
00000120: 0a71 b53e b185 80bd 4d50 7c3e 733d c1be
00000130: ddb0 03be 0f72 803e c4a5 553d b2cd 17bf
00000140: d8b2 083f 81e8 923c c148 723d d2fc 7fbe
00000150: e27a b4bd 6303 e13e a68f 0a3f 0dad 9bbd
00000160: 3e0f b0be d507 17be 9d8b 0abd 3a14 2abf
00000170: 5742 013e 9c11 54bd 9ddc 703e e4c0 4bbe
00000180: ae41 82be 3ca9 97be be98 06be 4897 36be
00000190: 4dd5 28be 4167 3e3d 123e d2be 171c 9d3e
000001a0: 17ea c83e b5ae debe 46bd 093f 5b4b 023f
000001b0: d96e c43d 9cf3 203e d439 45be 2ba7 ca3e
000001c0: f7d5 98be 79ff 02be 5395 64bd 9ee8 f6be
000001d0: 2fe7 b73d f256 ce3d ed49 6abe ff4d 1e3e
000001e0: bb39 483f ff4a 3bbe c41d e33e 6a3b 463e
000001f0: 1ead e33e c235 71be a0ce e53d 1185 f23e
00000200: f07b 4dbe dbd0 84be 12fa 583d 50ba 10be
00000210: 8451 0a3e 6193 183f 9f91 d9bd 113d bbbe
00000220: 04f7 2dbe 79bc 22bd 3eec 9cbd 177f 89be
00000230: 72cd 7c3e f41f cb3e aa31 f03d 4d92 073b
00000240: dac3 8b3e 7e1c 93bd 0e65 83be a7c9 68be
00000250: 8f4d 05be e4c7 2dbe e27b 8c3d eb04 bfbe
00000260: 4ab2 c7be a2fa 473e 2f86 7fbe 6194 a73e
00000270: ab0d 933e be60 653e 6310 453e 7825 993e
00000280: 0ffc a33e 5e2d 9cbe 8e0f 4abe 49bd 02bf
00000290: 4ebc eabc 8418 e93d 7716 893e c639 bd3e
000002a0: 43bd 84be e8bf 43be 9a7a 9abe 35d3 0abd
000002b0: 57c2 cdbe 47e7 0abf 2d2b 73bc 9861 6d3d
000002c0: cdec 18bf 1623 163e 9c08 53bd e8fb d6be
000002d0: e745 ccbe c778 21be 0401 debd f37b 003e
000002e0: 279e 3d3e dca2 e5bd f586 4abd 69ef c03e
000002f0: cca1 80be 1a61 e3bd ecdb 843e 86a0 8d3e
00000300: 2ef5 233f ada8 7c3e 266f 043f dbad c33d
00000310: a321 e8be ee84 d3be 8592 823d c0ac cc3c
00000320: 9b83 c7be ed87 bf3e e21c 523e b719 66be
00000330: 0468 763e 6a57 aabd 1f35 a03e 7e00 f43e
00000340: fb91 0dbf fa46 c73d 39ff 293f 6ce8 8c3d
00000350: 4203 20be d351 093f 3139 b63e a6fb e43e
00000360: ceea 82be e9f9 4a3e 2595 73be a9c3 543e
00000370: b70d 6a3d ca6f 4abe a8a2 443a afb7 1ebe
00000380: f6c0 cb3e 448a e0be e334 a8bd af32 4bbe
00000390: ec8e 5ebe 5310 75be 7ce0 d93d 344c ff3e
000003a0: 07f9 b93e 7922 b83d 1108 913e 12d5 8cbe
000003b0: a6c2 c53d a821 f33e 3b1e 1dbe e227 563e
000003c0: af0f 183e 3349 083e 0152 5b3d 578f 92be
000003d0: 1bb9 7d3e b308 ccbe 12dd fe3d fcaa a3be
000003e0: 889f bc3c 1224 bfbe e641 dcbd 746e 63bc
000003f0: 08cb 123f 32bf c03d d86a acbe c33c 1f3d

network_body._body_endoder.seq_layers.0.bias f4 [128]
-0.00046348516 0.032910753 0.067799635 0.03598253 0.06695371 2.9721428e-05 -0.026805589 0.02197395
-0.034480717 0.007678359 0.07065972 -0.06440166 0.020768395 0.014544725 0.018500298 0.050188467
-0.030873835 0.07578271 0.009498271 0.010675769 -0.0396824 -0.023625916 0.027481576 -0.029360037
0.066649176 0.0028675888 -0.0037030734 0.078998975 -0.001787778 0.018400364 0.006881473 0.027370691
0.048249975 0.07701437 0.000880607 -0.017692653 -0.04116965 0.037855648 0.015179229 0.029071067
-0.005123439 0.03372648 0.051998034 0.057533324 0.014944088 0.031183569 0.04214296 0.051515922
0.06459183 0.046969943 -0.025263267 -0.040154584 0.049320444 0.007898601 -0.022169236 0.07689361
-0.008508588 0.052981984 0.037705112 0.03358777 0.011150312 -0.035599478 0.0006583402 0.016501503
0.06688194 -0.0021250523 0.024594206 -0.008623824 0.05335783 0.0683884 0.060218167 0.012605726
0.083644606 0.036116697 0.01790228 -0.048567608 0.064068675 0.063125394 0.061755963 0.006874533
0.03140692 0.020285703 0.03267294 0.0770606 -0.001295485 -0.01231571 0.08006466 -0.0114352815
-0.028452447 0.04714635 0.038474455 0.05373475 0.007674404 0.00033956778 0.027480755 0.018585382
0.01984706 0.051456593 0.052495874 -0.021467548 0.07447642 0.003269934 -0.008630333 -0.045564197
0.06974207 0.026407817 0.054741036 0.032590047 0.077617824 0.06610455 0.025867289 0.052631963
-0.043280814 0.04935812 0.0456792 0.07271483 0.050969258 0.07017219 -0.01175985 0.04477987
0.05883982 0.06403981 0.0013166759 0.03485685 0.07589291 0.05991874 0.064177044 0.058117535
00000000: edff f2b9 6dcd 063d 89da 8a3d 6b62 133d
00000010: 071f 893d 4852 f937 6597 dbbc b702 b43c
00000020: a73b 0dbd be9a fb3b 0bb6 903d 04e5 83bd
00000030: 7b22 aa3c 004d 6e3c f08d 973c 6c92 4d3d
00000040: 20eb fcbc f733 9b3d a39e 1b3c 6ce9 2e3c
00000050: 038a 22bd 238b c1bc 0b21 e13c 7684 f0bc
00000060: 5d7f 883d 28ee 3b3b 43af 72bb 37ca a13d
00000070: e053 eaba 5cbc 963c fb7d e13b 8038 e03c
00000080: c4a1 453d b6b9 9d3d 89d8 663a 2ff0 90bc
00000090: 82a1 28bd 860e 1b3d 4db2 783c 7226 ee3c
000000a0: 85e2 a7bb c724 0a3d e4fb 543d 10a8 6b3d
000000b0: 0cd8 743c af74 ff3c 199e 2c3d 5c02 533d
000000c0: b948 843d 8e63 403d e9f4 cebc 2279 24bd
000000d0: 3c04 4a3d 2269 013c 429c b5bc 667a 9d3d
000000e0: 9b67 0bbc a303 593d ad70 1a3d 5493 093d
000000f0: ccaf 363c c2d0 11bd 7794 2c3a 292e 873c
00000100: 66f9 883d 7644 0bbb ca79 c93c f14a 0dbc
00000110: bd8d 5a3d 380f 8c3d 53a7 763d 3f88 4e3c
00000120: dd4d ab3d 1aef 133d cda7 923c d4ee 46bd
00000130: 7036 833d e347 813d d2f3 7c3d c343 e13b
00000140: 8ba4 003d 342e a63c 10d4 053d f3d1 9d3d
00000150: 43cd a9ba d5c7 49bc f1f8 a33d 0c5b 3bbc
00000160: 1b15 e9bc 881c 413d 6497 1d3d f818 5c3d
00000170: 9179 fb3b 0408 b239 521f e13c 5f40 983c
00000180: 4d96 a23c 26c4 523d ea05 573d b6dc afbc
00000190: 1887 983d 644c 563b 3d66 0dbc 86a1 3abd
000001a0: eed4 8e3d 3555 d83c 2338 603d 247d 053d
000001b0: 18f6 9e3d d361 873d a3e7 d33c 9d94 573d
000001c0: 3947 31bd bd2b 4a3d 1d1a 3b3d 83eb 943d
000001d0: 24c5 503d 70b6 8f3d 63ac 40bc 196b 373d
000001e0: 0602 713d 4e27 833d 5094 ac3a 0ec6 0e3d
000001f0: be6d 9b3d 5a6d 753d 416f 833d a70c 6e3d

network_body._body_endoder.seq_layers.2.weight f4 [128, 128]
0.076098934 0.027395027 0.013418438 0.1487477 0.13425907 -0.004426983 0.021188613 0.12285798
0.06574437 0.1816682 0.058530692 -0.08425825 -0.044667408 0.023279682 -0.08634947 -0.0009814042
-0.17078258 0.038364127 -0.0029481722 0.12331665 -0.073446095 -0.053401478 -0.04215298 -0.20136803
0.009433904 -0.011858201 -0.040808 -0.17725398 0.07905521 -0.22802098 0.017069988 -0.0023973084
0.114012815 0.097071335 0.00019238197 -0.103951804 0.05474211 -0.12607172 -0.050333604 -0.11438723
0.11245445 0.0014435521 -0.07147982 -0.03509096 0.016930403 -0.08847704 -0.15552314 -0.13043593
-0.04736898 -0.15559916 0.0023158386 -0.04200579 0.026366733 -0.043790784 -0.028582405 0.059528872
-0.0926566 0.07080338 -0.014050591 0.084779024 0.17251335 -0.0007385211 -0.10871425 -0.018110532
-0.01770114 0.09637789 -0.25081706 -0.06800726 0.052292924 0.20905522 -0.16026798 -0.104104675
-0.0015872578 -0.0013297622 0.011273319 0.021922197 0.04031584 0.1047776 0.10268182 -0.09241542
0.05325594 0.06005125 -0.013232634 0.11121333 -0.04316752 -0.000118043215 -0.0046114135 0.045747403
-0.089556955 0.10412933 -0.06685348 0.23720288 0.050446477 0.054326423 -0.008191383 0.018625865
-0.15401311 0.09581414 -0.09451598 0.0018496602 -0.13111667 0.1675018 -0.08125115 -0.093441755
-0.017963992 -0.15510589 -0.03791528 0.038583923 0.049716275 -0.13047226 -0.0053099343 -0.0010478349
0.010231277 0.101844 -0.123796545 0.18613394 0.13149562 0.10707763 -0.0050183516 0.042528015
-0.08786899 0.03173695 -0.07968645 0.044809826 0.16711159 0.084461674 0.059240185 -0.073379844
-0.16903561 -0.0032527905 0.052098252 -0.051665306 -0.037343584 0.03697585 -0.06918391 0.19042613
0.033574075 -0.054681707 0.23891407 0.0020160335 -0.042371888 -0.03301885 0.12597209 -0.067012616
0.118712254 0.022059187 -0.058614537 -0.0052622478 0.14393172 0.002602549 0.042749275 0.079833046
0.017651752 -0.083953544 -0.023813138 0.10508932 -0.054539252 0.06705209 -0.2226386 -0.10506474
0.050791394 -0.041085098 -0.0278288 0.006853409 0.12284687 0.051379435 0.13600683 0.19901273
-0.10064402 -0.09702928 0.005748324 -0.05161172 -0.007913925 0.02047828 0.030347232 0.008843353
-0.0023305884 0.20772724 0.1865682 -0.0097637735 0.040859677 -0.020703228 -0.023999164 0.0022564214
-0.055515986 -0.14976853 0.025462668 0.053640865 -0.0591669 -0.13627794 0.008171702 0.37686318
-0.06871559 0.13736257 0.026556982 0.12790583 -0.08117997 0.19614062 0.10284764 0.124001645
0.015563509 -0.07232023 -0.1327996 -0.112161145 -0.036323227 0.07015661 0.012341373 0.027776899
-0.02207859 -0.097019 -0.04287601 0.086795114 -0.011528969 -0.052695643 0.018505031 0.032516215
-0.07133129 0.026855482 0.011909156 -0.13646959 0.30963412 -0.11577178 0.1425918 0.06763486
-0.057385053 0.1896441 -0.11223146 -0.073012054 -0.058126267 0.0065852036 -0.01850524 -0.103834756
0.06082173 -0.060922604 -0.321478 0.073522314 -0.0054061376 0.05529076 -0.088065855 0.0053462475
-0.08519587 0.06129651 0.21039104 0.08402909 -0.07346405 0.010973554 -0.055636417 0.04668874
0.06016046 0.039228883 -0.0023415757 -0.01981266 -0.038047567 0.051158294 0.07601038 -0.005577548
00000000: c2d9 9b3d 896b e03c 02d9 5b3c 5151 183e
00000010: 367b 093e 3a10 91bb be93 ad3c f79c fb3d
00000020: fca4 863d 3b07 3a3e e1bd 6f3d 978f acbd
00000030: 2cf5 36bd 08b5 be3c fed7 b0bd 76a2 80ba
00000040: a1e1 2ebe b423 1d3d 1f36 41bb 718d fc3d
00000050: e86a 96bd 82bb 5abd 9aa8 2cbd 6c33 4ebe
00000060: a990 1a3c e648 42bc 4a26 27bd 1182 35be
00000070: b3e7 a13d 557e 69be 5cd6 8b3c 291c 1dbb
00000080: 8d7f e93d 56cd c63d 24ba 4939 afe4 d4bd
00000090: 4339 603d f218 01be 9c2a 4ebd da43 eabd
000000a0: 854e e63d 9235 bd3a 0364 92bd 8abb 0fbd
000000b0: a1b1 8a3c 7333 b5bd 7541 1fbe ff90 05be
000000c0: fa05 42bd 6355 1fbe 53c5 173b 430e 2cbd
000000d0: 0cff d73c f75d 33bd a625 eabc 8cd4 733d
000000e0: bec2 bdbd 5d01 913d 7334 66bc a0a0 ad3d
000000f0: 57a7 303e 5099 41ba 94a5 debd 8a5c 94bc
00000100: fb01 91bc c561 c53d 186b 80be 6447 8bbd
00000110: 1b31 563d 9212 563e 4a1d 24be d534 d5bd
00000120: 890b d0ba 6a4b aeba bab3 383c 2e96 b33c
00000130: 3922 253d a395 d63d d94a d23d 4c44 bdbd
00000140: e722 5a3d 4df8 753d b1cd 58bc d0c3 e33d
00000150: 6dd0 30bd f88d f7b8 571b 97bb a161 3b3d
00000160: a369 b7bd c241 d53d 7aea 88bd 50e5 723e
00000170: f7a0 4e3d 6285 5e3d 2735 06bc 4595 983c
00000180: 9db5 1dbe 343a c43d 9891 c1bd 4c70 f23a
00000190: 7343 06be 9885 2b3e 0167 a6bd 645e bfbd
000001a0: 3929 93bc 14d4 1ebe 0d4d 1bbd 2d0a 1e3d
000001b0: 4ba3 4b3d 859a 05be f5fe adbb 8157 89ba
000001c0: 16a1 273c 9693 d03d 0b89 fdbd e599 3e3e
000001d0: caa6 063e 844b db3d fc70 a4bb db31 2e3d
000001e0: a8f4 b3bd 9bfe 013d a632 a3bd 828a 373d
000001f0: 4d1f 2b3e 3efa ac3d d6a5 723d 2c48 96bd
00000200: ac17 2dbe c52c 55bb fa64 553d 009f 53bd
00000210: 96f5 18bd fd73 173d 4bb0 8dbd 11ff 423e
00000220: f884 093d edf9 5fbd e4a5 743e 6e1f 043b
00000230: 258e 2dbd c63e 07bd d4fe 003e e93d 89bd
00000240: 691f f33d 78b5 b43c cc15 70bd ef6e acbb
00000250: d662 133e 878f 2a3b dd19 2f3d 827f a33d
00000260: 689a 903c d6ef abbd c513 c3bc 1239 d73d
00000270: 8d64 5fbd 9b52 893d 60fb 63be 2f2c d7bd
00000280: a30a 503d d948 28bd 39f9 e3bc 9092 e03b
00000290: 2497 fb3d 3e73 523d 6045 0b3e fec9 4b3e
000002a0: 741e cebd 4ab7 c6bd 705c bc3b d066 53bd
000002b0: 68a9 01bc 11c2 a73c c29a f83c b6e3 103c
000002c0: c9bc 18bb 73b6 543e bc0b 3f3e 3cf8 1fbc
000002d0: 7a5c 273d d199 a9bc e599 c4bc 78e0 133b
000002e0: bb64 63bd ec5c 19be 1697 d03c 86b6 5b3d
000002f0: fe58 72bd 728c 0bbe 9ae2 053c 36f4 c03e
00000300: c2ba 8cbd c6a8 0c3e 078e d93c bff9 023e
00000310: af41 a6bd 16d9 483e c9a1 d23d 93f4 fd3d
00000320: 17fe 7e3c a11c 94bd 9efc 07be beb4 e5bd
00000330: aac7 14bd 45ae 8f3d 7833 4a3c 618c e33c
00000340: 29de b4bc e6b1 c6bd c19e 2fbd a3c1 b13d
00000350: 00e4 3cbc 63d7 57bd dd97 973c b92f 053d
00000360: 2416 92bd 0700 dc3c 9f1e 433c afbe 0bbe
00000370: 5d88 9e3e c119 edbd 9603 123e 2584 8a3d
00000380: 970c 6bbd 1032 423e 9cd9 e5bd 5887 95bd
00000390: cf15 6ebd b1c8 d73b 4d98 97bc 51a7 d4bd
000003a0: 3520 793d fb89 79bd c498 a4be de92 963d
000003b0: f825 b1bb 9078 623d df5b b4bd 932f af3b
000003c0: 2c7b aebd 0d12 7b3d c070 573e 7217 ac3d
000003d0: 5274 96bd 6cca 333c 03e3 63bd b13c 3f3d
000003e0: d16a 763d 77ae 203d 1f75 19bb 294e a2bc
000003f0: c4d7 1bbd 5c8b 513d 55ab 9b3d ddc3 b6bb

network_body._body_endoder.seq_layers.2.bias f4 [128]
0.03738365 0.052151624 0.047793284 -0.017423764 0.059215605 -0.017535463 0.060120624 -0.027770465
-0.047002 0.0132337585 0.06514864 -0.03844959 0.0349686 0.024946356 0.0069185984 -0.0465883
-0.06514749 -0.032830954 0.062237285 0.06259814 0.050297167 -0.034253243 -0.04767288 0.05291328
0.026172718 0.04801084 -0.029211253 0.03376978 0.053134453 0.0385324 -0.052553155 0.054731086
0.07101059 0.069977656 0.041578013 0.04731387 0.029183758 -0.013582693 0.04213393 0.016540699
-0.04050886 -0.016477264 -0.036844164 -0.057580728 -0.03023002 0.02852838 0.061573412 0.06392183
-0.052911066 0.063916065 0.033318505 -0.045712378 0.04882506 0.044743896 -0.033085167 -0.014730603
-0.011570317 -0.056114152 0.076766565 0.022784967 0.019934144 -0.010651919 -0.02642253 0.06815098
-0.028269714 -0.04482288 0.039154615 -0.010885092 0.035873406 0.04911517 0.047456887 0.02957979
0.08528288 0.024547582 0.049007896 -0.0073539377 -0.003718452 -0.008994609 0.0013615591 0.033832885
0.023614183 0.062308934 -0.033657912 0.04612361 0.04486441 0.0459857 0.009454568 0.04217569
0.066024065 0.029212257 0.0017307872 -0.0030114485 0.045837965 -0.051683653 0.046716403 0.04671993
0.036453903 -0.0057710386 0.016073111 0.041414924 0.06444711 0.021019679 -0.03906984 0.052825
0.0010317866 0.04507361 -0.057401177 0.05659005 -0.015150889 0.020246511 0.05765768 0.04227042
-0.018867265 0.053015385 -0.034227 0.03904148 0.009182328 -0.046958428 0.057555433 0.043150757
-0.033583973 0.06542777 0.07284258 0.060711388 0.041639358 0.064348795 -0.04393358 -0.025545951
00000000: 991f 193d f19c 553d e4c2 433d 48bc 8ebc
00000010: 108c 723d 88a6 8fbc 0b41 763d e37e e3bc
00000020: 2b85 40bd 68d2 583c a66c 853d 517d 1dbd
00000030: 3c3b 0f3d 4d5c cc3c 69b5 e23b 60d3 3ebd
00000040: 0c6c 85bd c079 06bd 86ec 7e3d 7433 803d
00000050: 6704 4e3d 214d 0cbd a344 43bd 98bb 583d
00000060: 2b68 d63c 04a7 443d 704c efbc 2e52 0a3d
00000070: 83a3 593d 26d4 1d3d fa41 57bd b42d 603d
00000080: 006e 913d 7250 8f3d b54d 2a3d 30cc 413d
00000090: c712 ef3c f289 5ebc a194 2c3d 5c80 873c
000000a0: 9eec 25bd 54fb 86bc e8e9 16bd c5d9 6bbd
000000b0: f2a4 f7bc 59b4 e93c 6734 7c3d 73e9 823d
000000c0: 46b9 58bd 6de6 823d fc78 083d e73c 3bbd
000000d0: c9fc 473d 6045 373d 5084 07bd a158 71bc
000000e0: 6d91 3dbc f4d7 65bd ca37 9d3d 8aa7 ba3c
000000f0: ee4c a33c 6385 2ebc 1074 d8bc be92 8b3d
00000100: e395 e7bc 3298 37bd 9760 203d 6357 32bc
00000110: feef 123d fd2c 493d 2762 423d 5151 f23c
00000120: caa8 ae3d 0318 c93c 81bc 483d 4df9 f0bb
00000130: 46b1 73bb 205e 13bc 5876 b23a 5a94 0a3d
00000140: 8872 c13c a737 7f3d e1dc 09bd 1cec 3c3d
00000150: bec3 373d 805b 3c3d 55e7 1a3c 6bc0 2c3d
00000160: a037 873d 8b4e ef3c 95db e23a b95b 45bb
00000170: 97c0 3b3d 3db2 53bd b359 3f3d 665d 3f3d
00000180: b050 153d fb1a bdbb c2ab 833c b2a2 293d
00000190: d9fc 833d 7631 ac3c b207 20bd 075f 583d
000001a0: 033d 873a 1b9f 383d 7f1d 6bbd f8ca 673d
000001b0: 6f3b 78bc 03dc a53c 762a 6c3d bf23 2d3d
000001c0: 868f 9abc a926 593d 9c31 0cbd f5e9 1f3d
000001d0: 7a71 163c 7b57 40bd 3fbf 6b3d d9be 303d
000001e0: 598f 09bd fffe 853d 7e2e 953d 81ac 783d
000001f0: 088e 2a3d 4dc9 833d b3f3 33bd be45 d1bc

action_model._continuous_distribution.log_sigma f4 [1, 2]
-0.06719546 -0.07665416
00000000: c69d 89bd dbfc 9cbd

action_model._continuous_distribution.mu.weight f4 [2, 128]
-0.015031652 0.052108478 -0.007558346 0.010354049 0.011605806 0.026075779 -0.008130552 -0.0050510927
-0.056432426 0.030699635 0.0036031243 -0.021296423 -0.017913878 0.05050584 0.018619364 -0.074506976
-0.034808867 -0.020346418 -0.0206512 -0.023025228 0.052453324 0.0103585115 0.014327736 0.070515476
0.014910316 -0.04533842 -0.028515592 -0.005818587 0.08152813 0.056757674 -0.0063061817 0.056008194
0.07422821 0.084707394 -0.017664438 0.015670339 -0.032143738 -0.04125444 0.024339804 0.040906157
0.01000173 0.021319976 -0.091734335 0.00058673986 -0.048226185 -0.03179379 0.014090676 0.062284496
-0.023140771 0.04126514 0.02444164 -0.048937626 0.031211289 0.047841437 -0.02726244 -0.07854575
0.03224398 -0.0229478 0.043303516 0.037684537 -0.041687015 0.03083952 -0.052993655 0.036035787
0.0010083875 -0.05627436 0.031577006 -0.04521546 0.06257266 0.017788498 0.03408686 -0.032949004
-0.01800625 -0.061421618 0.007917393 0.02095486 -0.053853016 -0.096124396 -0.08374034 -0.042818394
0.056089852 -0.024035098 0.026339825 0.055776406 0.009724601 -0.0069407164 -0.012426868 0.01723342
0.07807481 -0.034349583 -0.017905934 -0.042773794 0.058627967 -0.026300548 0.041830327 0.055038545
0.00119551 0.025081974 0.051033627 0.07663103 0.071517475 0.018382896 -0.08272442 0.038551286
-0.07580636 -0.010119921 -0.051563498 0.028823948 -0.024621624 -0.004680128 0.03658039 0.042707965
0.005056602 -0.016068375 -0.031721782 -0.026112195 -0.04909138 -0.0631268 0.06555947 0.032205645
-0.0094446605 0.08276558 0.046694193 -0.034103513 0.054439913 0.039712194 -0.019653404 -0.06937051
0.041886624 -0.012481762 0.075376675 -0.051875547 0.046616707 -0.04440637 0.10513103 -0.034802634
-0.012557378 -0.024700075 0.07346271 -0.075774 0.05829743 -0.045997392 0.010461741 -0.058148623
-0.03425293 -0.077337965 0.070360996 0.059571996 0.0025010952 0.0038505949 -0.05064293 -0.012119572
0.04522746 0.069423735 0.0024230643 0.015469523 -0.041800685 -0.036422882 -0.05078642 0.012631367
0.0053240685 0.042370435 0.06045049 0.0080160415 0.056667667 0.021702006 0.034671787 -0.03434715
-0.058186885 -0.066807054 -0.07713627 -0.037624616 -0.006708923 0.058291666 0.059376776 0.020622164
-0.0044108285 0.037983373 0.015259009 0.0069014286 -0.023067763 0.07118676 -0.06919323 0.0338256
-0.02119055 -0.035865862 0.03654627 -0.045322612 0.058531243 -0.03687893 -0.07655968 0.07106405
-0.059674367 -0.045674857 -0.009301106 -0.011496335 -0.023774564 0.06208526 0.006526973 0.043000504
0.07721775 0.06386127 -0.008435415 -0.06057367 0.045455404 0.031671785 0.03766441 0.069105655
-0.036463723 0.053563494 -0.06257534 -0.019415518 0.012741615 0.06261701 0.03212842 0.009750716
-0.028106762 0.052759323 0.021047277 0.03499947 0.01758559 -0.026312958 -0.026883045 0.008768312
0.047009856 -0.029416086 -0.07247269 -0.010090768 -0.027473293 0.02710441 0.008240318 -0.000734693
0.033208285 0.057564884 -0.015110884 0.04536844 -0.095394365 0.030900145 0.015996791 -0.050753076
-0.049452446 0.02965726 -0.015230225 0.030711092 0.026726147 -0.021471303 0.014433865 -0.0117918365
0.0037381863 0.025613965 0.05384082 0.07656247 0.010370125 0.048218016 -0.056657996 0.010702098
00000000: 5147 76bc b36f 553d 00ac f7bb 07a4 293c
00000010: 4726 3e3c df9c d53c 0236 05bc a383 a5bb
00000020: b025 67bd cd7d fb3c 6522 6c3b d675 aebc
00000030: 20c0 92bc 36df 4e3d a387 983c 1d97 98bd
00000040: be93 0ebd 88ad a6bc b52c a9bc 679f bcbc
00000050: 4cd9 563d bfb6 293c e1be 6a3c 6b6a 903d
00000060: 664a 743c c7b4 39bd 8899 e9bc d8a9 bebb
00000070: 38f8 a63d bc7a 683d 16a4 cebb d968 653d
00000080: f604 983d 127b ad3d 03b5 90bc 155f 803c
00000090: 27a9 03bd 6afa 28bd 4564 c73c 378d 273d
000000a0: 4cde 233c 3ba7 ae3c 36df bbbd 72cf 193a
000000b0: d288 45bd 353a 02bd 94dc 663c 071e 7f3d
000000c0: b791 bdbc a305 293d d639 c83c d272 48bd
000000d0: d1ae ff3c 62f5 433d 7b55 dfbc 98dc a0bd
000000e0: 4312 043d 06fd bbbc 075f 313d 1a5b 1a3d
000000f0: 01c0 2abd 29a3 fc3c e00f 59bd 439a 133d
00000100: df2b 843a f17f 66bd e456 013d d933 39bd
00000110: 1826 803d 2fb9 913c aa9e 0b3d 89f5 06bd
00000120: d881 93bc 3c95 7bbd f4b7 013c 87a9 ab3c
00000130: fb94 5cbd dedc c4bd 0e80 abbd 5762 2fbd
00000140: 79be 653d 41e5 c4bc 9ec6 d73c cd75 643d
00000150: ef53 1f3c f36e e3bb 109a 4bbc 1a2d 8d3c
00000160: b0e5 9f3d 26b2 0cbd 77af 92bc 9333 2fbd
00000170: e123 703d 3f74 d7bc 4756 2b3d 1970 613d
00000180: a9b2 9c3a b678 cd3c a308 513d bbf0 9c3d
00000190: c177 923d ba97 963c 6c6b a9bd f4e7 1d3d
000001a0: 5d40 9bbd 06ce 25bc 3f34 53bd 3320 ec3c
000001b0: 4ab3 c9bc c25b 99bb 52d5 153d 8cee 2e3d
000001c0: dab1 a53b d3a1 83bc b3ee 01bd 3ee9 d5bc
000001d0: 0b14 49bd a048 81bd 0b44 863d 11ea 033d
000001e0: c7bd 1abc 0081 a93d 6942 3f3d 20b0 0bbd
000001f0: 63fc 5e3d 41a9 223d 2d00 a1bc 2012 8ebd
00000200: 4f91 2b3d 4e80 4cbc 165f 9a3d 747b 54bd
00000210: 29f1 3e3d 74e3 35bd f04e d73d 358d 0ebd
00000220: 76bd 4dbc d057 cabc 9e73 963d 662f 9bbd
00000230: 49c9 6e3d c367 3cbd b967 2b3c 402d 6ebd
00000240: cd4c 0cbd 5e63 9ebd 6d19 903d c401 743d
00000250: 6ae9 233b 435a 7c3b f66e 4fbd 2b91 46bc
00000260: 6e40 393d 082e 8e3d 46cc 1e3b e273 7d3c
00000270: 3237 2bbd 2930 15bd 6c05 50bd cbf3 4e3c
00000280: 8675 ae3b 9f8c 2d3d ef9a 773d b755 033c
00000290: 5b1c 683d 68c8 b13c 0104 0e3d 99af 0cbd
000002a0: 5f55 6ebd 23d2 88bd 9ff9 9dbd 451c 1abd
000002b0: 86d6 dbbb 3ec3 6e3d 1035 733d d0ef a83c
000002c0: b688 90bb 7494 1b3d ec00 7a3c 6125 e23b
000002d0: 9bf8 bcbc 5dca 913d 2eb5 8dbd b68c 0a3d
000002e0: ce97 adbc 15e8 12bd 8bb1 153d 34a4 39bd
000002f0: 75be 6f3d 5c0e 17bd 52cb 9cbd 078a 913d
00000300: 1c6d 74bd 8f15 3bbd ab63 18bc 205b 3cbc
00000310: e0c2 c2bc 1d4d 7e3d 38e0 d53b 4c21 303d
00000320: 5724 9e3d b3c9 823d b234 0abc 191c 78bd
00000330: 722f 3a3d 46ba 013d ff45 1a3d 4487 8d3d
00000340: fc5a 15bd 6565 5b3d 8027 80bd 4b0d 9fbc
00000350: 35c2 503c 593d 803d 1799 033d 78c1 1f3c
00000360: 2740 e6bc 291a 583d 576b ac3c 9b5b 0f3d
00000370: a80f 903c 468e d7bc d539 dcbc f7a8 0f3c
00000380: 688d 403d 01fa f0bc 906c 94bd c053 25bc
00000390: ac0f e1bc 110a de3c 6602 073c 6a98 40ba
000003a0: 6905 083d 28c9 6b3d a493 77bc 42d4 393d
000003b0: 1f5e c3bd 4d22 fd3c b40b 833c 75e2 4fbd
000003c0: a68e 4abd c8f3 f23c 3288 79bc d495 fb3c
000003d0: cbf0 da3c 96e4 afbc 057c 6c3c 8c32 41bc
000003e0: 5cfc 743b 61d4 d13c 3188 5c3d c9cc 9c3d
000003f0: 75e7 293c 4180 453d 3712 68bd da57 2f3c

action_model._continuous_distribution.mu.bias f4 [2]
0.042051397 0.031370226
00000000: 163e 2c3d 117e 003d

action_model._discrete_distribution.branches.0.weight f4 [1, 128]
-0.010848205 0.016180888 -0.008454609 0.0028948167 0.0042769792 -0.0014844437 0.0154129295 0.007641279
0.010501365 -0.0008149638 -0.0064786486 -0.012371062 -0.00578126 0.0009947356 -0.004431657 -0.0052831415
0.0052884477 -0.0019556214 -0.0023433464 0.013517647 0.00418435 -0.0017446701 0.0041683684 0.003030493
-0.013427525 -0.011984459 0.019669296 0.009835395 0.0031914997 0.003985516 -0.006641127 -0.0017903373
-0.0037839448 0.011629866 0.012077987 0.009215693 -0.0007485535 -0.0036934174 0.016917048 0.003302307
-0.02054937 -0.014465791 -0.0027872825 0.010631566 0.005538871 0.0049094274 -0.0022370864 -0.007235287
-0.0047354097 -0.005309756 -0.00023672204 0.0030289672 -0.00131129 0.009114064 -0.0059364764 -0.005957182
0.0077435696 0.016818231 -0.008530679 0.01157563 -0.016361056 0.023147209 -0.010717785 -0.0067769038
-0.006955132 -0.0026977602 -0.0056074183 -0.005386004 0.011157977 0.013895865 0.008953044 0.005597652
-0.0180013 -0.01015071 0.011885337 0.0035329857 -0.013161424 0.004262922 0.009183093 0.0057909186
0.0038265232 -0.005852789 -0.010779033 -0.0043045557 -0.009004718 0.013139093 -0.0013042935 -0.0016128272
0.007031817 0.0043022395 -0.0013916156 -0.0007741308 0.0034502924 0.00046466183 -0.0061466303 0.005775401
0.0018323958 0.011295865 -0.007468343 0.017439358 -0.001160501 0.00821148 0.005350216 -0.010470507
0.013931668 0.0010003339 -0.0066277585 0.00062420795 0.0028243093 -0.012306458 0.005811253 -0.0019390315
-0.005350271 0.0068697417 0.00923648 -0.00470682 -0.02577114 0.0069515104 0.0011039939 -0.012155026
-0.005592206 0.004081886 -0.00035272932 0.0010155983 -0.0016357219 0.0021640852 -0.0044699307 0.0013541543
00000000: abbc 31bc c88d 843c 3385 0abc f7b6 3d3b
00000010: e725 8c3b aa91 c2ba 8386 7c3c b263 fa3b
00000020: eb0d 2c3c 4ba3 55ba d84a d4bb ffaf 4abc
00000030: b970 bdbb ca61 823a 6f37 91bb 341e adbb
00000040: b74a ad3b e229 00bb d492 19bb 1f79 5d3c
00000050: df1c 893b 6aad e4ba cf96 883b 3c9b 463b
00000060: 1fff 5bbc 775a 44bc 8121 a13c a324 213c
00000070: 7b28 513b ee98 823b d09d d9bb c0a9 eaba
00000080: 0ffc 77bb 328b 3e3c c0e2 453c 6bfd 163c
00000090: 933a 44ba 430d 72bb 9f95 8a3c 856b 583b
000000a0: 2757 a8bc ed01 6dbc d7aa 36bb 0530 2e3c
000000b0: 6b7f b53b 43df a03b 159c 12bb fd15 edbb
000000c0: 7f2b 9bbb 76fd adbb 9738 78b9 a381 463b
000000d0: 97df abba 2853 153c c686 c2bb 7734 c3bb
000000e0: c5bd fd3b 63c6 893c 43c4 0bbc b6a7 3d3c
000000f0: 9f07 86bc 379f bd3c a699 2fbc ca10 debb
00000100: e0e7 e3bb e8cc 30bb 6fbe b7bb 147d b0bb
00000110: f3cf 363c 7bab 633c caaf 123c 826c b73b
00000120: 7677 93bc 2a4f 26bc b7ba 423c aa89 673b
00000130: 03a3 57bc fbaf 8b3b af74 163c bfc1 bd3b
00000140: 68c6 7a3b c1c8 bfbb 8b9a 30bc 3b0d 8dbb
00000150: 8688 13bc 5a45 573c d4f4 aaba 8065 d3ba
00000160: 286b e63b cdf9 8c3b df66 b6ba 0aef 4aba
00000170: 4d1e 623b db9d f339 ac69 c9bb 933f bd3b
00000180: 002d f03a 4b12 393c 00b9 f4bb fcdc 8e3c
00000190: f41b 98ba 7289 063c dd50 af3b 7d8c 2bbc
000001a0: a741 643c a31d 833a ab2d d9bb e3a1 233a
000001b0: 0c18 393b 07a1 49bc 536c be3b 1a27 feba
000001c0: 5351 afbb 921b e13b 9b54 173c ab3b 9abb
000001d0: ff1d d3bc 7fc9 e33b e3b3 903a e025 47bc
000001e0: d33e b7bb 57c1 853b 87ee b8b9 d31d 853a
000001f0: b865 d6ba 53d3 0d3b 7f78 92bb e17d b13a

onnx::Div_70 f4 [12]
0.07101025 0.13667841 0.0014358113 0.25284335 0.4048249 0.40006372 0.4645885 0.13453136
0.0014144668 0.3278168 0.2191145 0.17050685
00000000: d26d 913d 6df5 0b3e d531 bc3a af74 813e
00000010: 3645 cf3e 27d5 cc3e 8bde ed3e 97c2 093e
00000020: a165 b93a 9bd7 a73e 8d5f 603e 5999 2e3e
