results/SlayRL_503/SlayTheSquire_RL/checkpoint.pt (torch, 466475 bytes, 47 tensors)

network_body.observation_encoder.processors.0.normalizer.running_mean f4 [12]
0.94574636 -0.3199827 0.0026681102 0.9854447 -0.91130537 -0.018622097 -0.018738827 -0.89391655
-1.0151048e-05 -0.00011673706 -0.90542775 -0.54965395
00000000: 6f1c 723f c6d4 a3be 76db 2e3b 1b46 7c3f
00000010: 4f4b 69bf 5e8d 98bc 2b82 99bc b7d7 64bf
00000020: 6b4e 2ab7 bbd0 f4b8 1dca 67bf 1fb6 0cbf

network_body.observation_encoder.processors.0.normalizer.running_variance f4 [12]
35.772835 589.43066 1.0201664 739.6962 15926.054 3601.6736 3623.8171 18684.738
2.9999814 23.997324 16871.84 48771.254
00000000: 6217 0f42 905b 1344 d094 823f 8fec 3844
00000010: 37d8 7846 c71a 6145 137d 6245 7af9 9146
00000020: b2ff 3f40 85fa bf41 aecf 8346 4183 3e47

network_body.processors.0.normalizer.running_mean f4 [12]
0.94574636 -0.3199827 0.0026681102 0.9854447 -0.91130537 -0.018622097 -0.018738827 -0.89391655
-1.0151048e-05 -0.00011673706 -0.90542775 -0.54965395
00000000: 6f1c 723f c6d4 a3be 76db 2e3b 1b46 7c3f
00000010: 4f4b 69bf 5e8d 98bc 2b82 99bc b7d7 64bf
00000020: 6b4e 2ab7 bbd0 f4b8 1dca 67bf 1fb6 0cbf

network_body.processors.0.normalizer.running_variance f4 [12]
35.772835 589.43066 1.0201664 739.6962 15926.054 3601.6736 3623.8171 18684.738
2.9999814 23.997324 16871.84 48771.254
00000000: 6217 0f42 905b 1344 d094 823f 8fec 3844
00000010: 37d8 7846 c71a 6145 137d 6245 7af9 9146
00000020: b2ff 3f40 85fa bf41 aecf 8346 4183 3e47

network_body._body_endoder.seq_layers.0.weight f4 [128, 12]
-0.34640574 0.027502961 -0.40170988 0.10545495 0.13610512 -0.29305026 -0.18486246 -0.21140054
0.12896003 -0.4043056 -0.121627554 0.71069765 0.26234016 0.3624334 0.5692937 0.37889445
-0.33159068 0.4410153 -0.13246706 0.34570628 -0.31307283 -0.20742713 -0.094508395 -0.3576345
0.11407208 0.03711636 0.2137427 -0.001346041 -0.30461422 0.70332575 0.29575676 -0.28034937
-0.034692988 -0.13916768 -0.31864432 -0.7111308 -0.3780856 -0.27046192 0.015593702 0.106363066
0.11029371 -0.18801332 -0.027961334 0.34541434 -0.42012978 -0.10335586 -0.44691265 -0.6060546
0.08553757 -0.2152908 0.41189262 0.20507354 0.22033064 0.13600379 -0.2655833 0.27796102
0.069049716 -0.37183583 0.11179686 -0.1401843 -0.035844844 0.08662252 0.11684379 0.28330728
-0.070192 0.35907522 0.3503528 -0.33136186 -0.33371598 0.2718347 -0.024396883 0.21141529
0.18789181 0.020154107 -0.09193368 0.36256638 -0.43934944 0.07125175 0.01133354 0.20240024
-0.2066472 0.38229802 0.42544612 0.45609018 -0.4013021 -0.2186594 -0.30137703 -0.16343026
-4.0989355e-05 0.6946784 0.0341721 -0.21925983 0.27900517 0.098810546 0.34106153 -0.064139366
0.38039106 -0.031734187 -0.06918534 -0.013404424 0.27319562 0.33214152 -0.2543643 0.59174836
-0.5235359 0.05449157 0.22140051 -0.1535361 0.17111836 -0.020595951 -0.30310103 -0.04327274
0.019476272 -0.15982918 0.48232332 0.12302757 -0.34285715 -0.33753026 0.8210566 0.1284455
0.2291533 0.12879978 -0.11509973 0.07674588 0.08166364 -0.2599729 0.16691837 -0.06779981
-0.47067124 -0.21323453 -0.10379138 0.20579004 0.34567228 -0.24434942 0.076120794 0.23943649
0.29025012 -0.405622 -0.22664729 0.12128654 0.13348007 -0.12425076 -0.25839177 -0.41780442
0.29980814 -0.5021657 -1.0406722 -0.3114734 0.5143078 -0.1547237 -0.248573 0.009799687
0.100298256 0.061351433 0.33164823 0.37917385 -0.15493093 0.0458735 0.14724259 -0.104575485
0.19318393 0.16751374 0.44269183 0.14804487 -0.20890847 -0.33202407 -0.1757625 -0.12528314
0.070699185 -0.19194885 -0.041495588 0.87958556 -0.1479245 -0.35455376 0.55467826 0.27536508
0.5105631 -0.15946177 0.008733787 0.017098228 0.51831996 0.111961104 0.30497718 0.40401256
-0.028510967 0.3573064 0.1346887 0.08611866 -0.2543225 -0.35493153 -0.13840915 -0.17325255
-0.21780498 -0.3061123 0.19563554 0.33569837 -0.21505713 0.6495574 0.057747606 -0.33559406
-0.0070275073 -0.309471 0.40562397 0.5289569 0.8375432 0.19194673 0.110539936 0.076095335
-0.2532927 0.20374566 0.10979858 0.15634084 -0.21799254 -0.3761156 0.17962942 -0.19351329
-0.582395 0.5885939 0.19798896 -0.20586576 -0.09245384 -0.13855457 -0.03560654 0.5052328
-0.76037145 -0.23720998 0.06289322 -0.29619566 -0.047038946 0.099248685 0.006267458 0.3017262
0.72892565 -0.1019889 0.051619798 0.402934 0.1839895 -0.18332082 0.3115081 0.139147
0.092274606 0.20824835 -0.2113782 -0.16381362 -0.027820012 0.02865736 -0.2755466 0.03613802
-0.3316298 -0.5682151 -0.16133827 0.15681985 -0.3460462 0.4968253 -0.31914493 -0.028919628
00000000: 185c b1be e44d e13c ebac cdbe c4f8 d73d
00000010: 245f 0b3e af0a 96be 964c 3dbe 6279 58be
00000020: 190e 043e 2501 cfbe de17 f9bd 48f0 353f
00000030: 7351 863e df90 b93e 3bbd 113f 74fe c13e
00000040: 41c6 a9be c2cc e13e 72a5 07be 6a00 b13e
00000050: 154b a0be c767 54be 9e8d c1bd df1b b7be
00000060: 9f9e e93d 5307 183d 5edf 5a3e a46d b0ba
00000070: 65f6 9bbe 280d 343f 6e6d 973e f489 8fbe
00000080: 3c1a 0ebd f981 0ebe 5925 a3be ab0c 36bf
00000090: 7094 c1be fc79 8abe ba7c 7f3c e1d4 d93d
000000a0: abe1 e13d 9086 40be 2b0f e5bc 26da b03e
000000b0: 401b d7be 3dac d3bd bcd1 e4be 6526 1bbf
000000c0: 522e af3d 3175 5cbe 97e3 d23e ccfe 513e
000000d0: 5b9e 613e 9444 0b3e 89fa 87be e850 8e3e
000000e0: f069 8d3d 4461 bebe c1f5 e43d 798c 0fbe
000000f0: 0bd2 12bd 2667 b13d cc4b ef3d a70d 913e
00000100: d3c0 8fbd b5d8 b73e 7161 b33e 43a8 a9be
00000110: d2dc aabe eb2d 8b3e f9db c7bc 407d 583e
00000120: b666 403e 3a1a a53c ba47 bcbd 4da2 b93e
00000130: 69f2 e0be 70ec 913d 50b0 393c 0242 4f3e
00000140: 539b 53be 91bc c33e 13d4 d93e a784 e93e
00000150: 7877 cdbe 40e8 5fbe 174e 9abe 435a 27be
00000160: fceb 2bb8 72d6 313f 0bf8 0b3d a685 60be
00000170: c4d9 8e3e 2f5d ca3d 9e9f ae3e 805b 83bd
00000180: 9ec2 c23e b5fb 01bd 0bb1 8dbd 3b9e 5bbc
00000190: 4ce0 8b3e 740e aa3e 0a3c 82be d27c 173f
000001a0: 7306 06bf 8d32 5f3d d1b6 623e 9138 1dbe
000001b0: a739 2f3e d7b8 a8bc 0f30 9bbe c23e 31bd
000001c0: b48c 9f3c 43aa 23be 15f3 f63e e1f5 fb3d
000001d0: f98a afbe c4d0 acbe c430 523f 3887 033e
000001e0: 2aa7 6a3e 17e4 033e 68b9 ebbd f22c 9d3d
000001f0: 443f a73d 2b1b 85be a6ec 2a3e a0da 8abd
00000200: d2fb f0be 275a 5abe 9390 d4bd a0ba 523e
00000210: f5fb b03e bc36 7abe 38e5 9b3d d72e 753e
00000220: aa9b 943e b0ad cfbe 3a16 68be 1465 f83d
00000230: 00af 083e 2f77 febd ed4b 84be 76ea d5be
00000240: 7480 993e ee8d 00bf bf34 85bf 7179 9fbe
00000250: ada9 033f e46f 1ebe ec89 7ebe de8e 203c
00000260: 2c69 cd3d a44b 7b3d cccd a93e 1323 c23e
00000270: 37a6 1ebe dae5 3b3d c3c6 163e ac2b d6bd
00000280: 02d2 453e b988 2b3e 81a8 e23e 1399 173e
00000290: 1aec 55be 0fff a9be 16fb 33be 394a 00be
000002a0: bcca 903d 3d8e 44be 47f7 29bd 852c 613f
000002b0: 8579 17be 1288 b5be 65ff 0d3f a7fc 8c3e
000002c0: 43b4 023f f249 23be 2818 0f3c 9511 8c3c
000002d0: 9eb0 043f dd4b e53d f825 9c3e bcda ce3e
000002e0: d58f e9bc ddf0 b63e d6eb 093e fb5e b03d
000002f0: 8f36 82be 96b9 b5be 21bb 0dbe 1e69 31be
00000300: 4508 5fbe c0ba 9cbe af54 483e a8e0 ab3e
00000310: f037 5cbe 6549 263f c188 6c3d fcd2 abbe
00000320: 0147 e6bb fc72 9ebe f2ad cf3e b869 073f
00000330: 3b69 563f af8d 443e c362 e23d dfd7 9b3d
00000340: 95af 81be b4a2 503e 14de e03d d017 203e
00000350: 7039 5fbe 3992 c0be c6f0 373e 5928 46be
00000360: d717 15bf 17ae 163f 9ebd 4a3e 79ce 52be
00000370: 7058 bdbd 40e1 0dbe 2ad8 11bd f056 013f
00000380: b4a7 42bf 2ce7 72be 29ce 803d f5a6 97be
00000390: e9ab 40bd e542 cb3d 405f cd3b db7b 9a3e
000003a0: df9a 3a3f 8edf d0bd 486f 533d 5e4d ce3e
000003b0: be67 3c3e 74b8 3bbe fd7d 9f3e 8d7c 0e3e
000003c0: 78fa bc3d 0e3f 553e 8773 58be c2be 27be
000003d0: cbe6 e3bc d7c2 ea3c 7214 8dbe 7605 143d
000003e0: 62cb a9be 8b76 11bf dc35 25be 6295 203e
000003f0: f82c b1be e35f fe3e f766 a3be dbe8 ecbc

network_body._body_endoder.seq_layers.0.bias f4 [128]
-0.039993417 0.063814975 0.07872894 0.07232122 -0.035934653 0.058946088 -0.031507943 0.05105075
-0.020958353 -0.021926636 -0.040240295 0.0538274 -0.037570674 -0.029180368 0.05128569 0.053958908
0.02995541 0.009088699 -0.0061166976 -0.013782483 -0.01920147 0.039004643 -0.015017294 0.040890846
0.056157507 -0.063007765 -0.023235371 0.0739596 0.013102764 0.04416759 0.07778026 -0.04075106
-0.015356125 -0.06554508 -0.014483355 -0.005362986 0.05673064 0.03690629 0.025522001 0.01926155
-0.058135625 0.0523626 0.06344721 0.012758655 0.033554234 0.046372604 0.053657368 0.06562964
0.028202314 0.07478674 -0.07731132 0.042453025 -0.07106889 0.029761292 0.051456276 -0.04518735
0.032312572 0.05968024 -0.0020629244 -0.012027252 -0.055236407 0.017907854 -0.012088571 -0.029293397
-0.013478785 0.02457293 0.0017946222 0.0004333408 -0.006079027 0.0073510963 0.0740322 -0.028745543
-0.013074955 0.017242089 0.011213 0.02347703 -0.013875327 -0.053338915 0.0075491928 -0.022541901
0.0011514808 0.05668244 0.037125688 0.06455626 0.0022893006 0.037831657 0.05572119 0.010442758
0.045239173 0.013477232 -0.027952923 0.071476944 0.018698294 -0.056516014 0.032381203 0.018956842
0.033438403 0.026528027 -0.00762388 0.01196542 -0.008972708 0.00030719806 0.030728625 0.003014379
0.02108381 -0.014784734 0.047331147 0.027706647 -0.014358713 0.01949969 0.037887562 0.048672296
0.020984022 -0.050764546 -0.039908905 0.0321026 -0.028644875 0.014530992 0.025640054 -0.035308108
-0.0336984 -0.06274404 0.030327415 0.06481421 -0.0430519 0.071320705 -0.041027315 0.04760428
00000000: 23d0 23bd 6db1 823d a33c a13d 261d 943d
00000010: 3730 13bd 7471 713d 790e 01bd 971a 513d
00000020: dab0 abbc 7d9f b3bc 02d3 24bd 1f7a 5c3d
00000030: b5e3 19bd ab0b efbc f210 523d 0404 5d3d
00000040: 0c65 f53c c4e8 143c 946e c8bb eccf 61bc
00000050: 674c 9dbc 55c3 1f3d 190b 76bc 297d 273d
00000060: 6a05 663d 370a 81bd 1b58 bebc 2178 973d
00000070: faac 563c 13e9 343d 424b 9f3d 95ea 26bd
00000080: 4298 7bbc 803c 86bd 984b 6dbc fdbb afbb
00000090: 635e 683d 0d2b 173d 8413 d13c 66ca 9d3c
000000a0: 9f1f 6ebd 2a7a 563d 9cf0 813d ad09 513c
000000b0: 2a70 093d 33f1 3d3d d4c7 5b3d d568 863d
000000c0: 8a08 e73c ca29 993d 6655 9ebd 39e3 2d3d
000000d0: 918c 91bd f4cd f33c d1c3 523d 5f16 39bd
000000e0: 305a 043d 4473 743d 2132 07bb f40d 45bc
000000f0: 923f 62bd 7eb3 923c 240f 46bc b5f8 efbc
00000100: 1fd6 5cbc 2b4d c93c 8739 eb3a 0532 e339
00000110: 9332 c7bb 77e1 f03b 329e 973d c67b ebbc
00000120: 5638 56bc 483f 8d3c bbb6 373c e752 c03c
00000130: 5755 63bc e879 5abd 385f f73b cba9 b8bc
00000140: 49ed 963a d92b 683d 1b11 183d 1336 843d
00000150: 1708 163b 5ef5 1a3d e73b 643d 1a18 2b3c
00000160: b64c 393d 9ccf 5c3c 87fd e4bc 8162 923d
00000170: 2a2d 993c 567d 67bd 27a2 043d 614b 9b3c
00000180: b5f6 083d 4e51 d93c bed1 f9bb 9c0a 443c
00000190: 4402 13bc 6d0f a139 99ba fb3c e38c 453b
000001a0: f4b7 ac3c ab3b 72bc 4ede 413d 0df9 e23c
000001b0: cf40 6bbc d0bd 9f3c fd2f 1b3d 9a5c 473d
000001c0: afe6 ab3c 7cee 4fbd 8577 23bd 047e 033d
000001d0: a8a8 eabc 6613 6e3c 170b d23c 3c9f 10bd
000001e0: 5507 0abd f27f 80bd 3371 f83c 50bd 843d
000001f0: 3057 30bd 9710 923d 420c 28bd b5fc 423d

network_body._body_endoder.seq_layers.2.weight f4 [128, 128]
0.004761027 -0.17486419 0.041413285 -0.10105071 -0.15354748 0.029664535 0.039838735 0.058521774
0.09886353 -0.022052998 -0.036904726 -0.06818872 0.07268091 0.019068109 0.069932684 0.12881891
0.21402745 -0.14494583 0.044185355 -0.02466839 -0.0580263 0.016922928 0.07973194 0.06844179
0.09131137 -0.1535866 0.050594486 -0.07767454 0.0076905834 0.056031223 0.081988834 0.050028335
0.052334186 -0.09645078 0.08500829 -0.04815795 -0.06623167 -0.007441527 0.04930803 -0.0134342685
0.017044557 -0.07261377 -0.033039186 0.041904014 -0.073717035 0.00078904384 -0.018188875 -0.0046462035
0.11366158 -0.1554579 0.0492357 -0.03493036 -0.13960293 -0.0536751 -0.11903628 -0.057416607
0.109389625 -0.010989649 -0.04463221 0.07595859 -0.0157191 -0.018576417 -0.0076620295 -0.21686572
0.004683045 -0.08944582 0.012434231 0.09406558 -0.05549585 0.15144306 -0.13836962 -0.026918685
-0.03353218 -0.12424677 0.0030223872 -0.118201874 -0.0074978294 0.0405739 0.019841203 0.03001293
-0.024901183 -0.015000766 -0.18075345 -0.07191271 0.030779582 -0.0045791264 -0.023365807 0.10795697
0.06004259 -0.015359089 0.078907706 0.08786571 0.044334695 0.118937336 -0.074720986 0.12474327
0.0731863 -0.03438675 0.07695925 0.15165247 -0.017367054 0.11349886 0.115794174 0.11871737
-0.15833178 0.096630394 -0.012532982 0.17760524 -0.17036565 -0.05648326 -0.02055708 0.13648012
0.020364814 -0.052525 -0.09384923 0.034742568 -0.00060481747 0.08249753 0.07371195 -0.008975489
-0.024800017 -0.032828305 -0.09048937 -0.060743168 0.07662857 -0.15471382 -0.051123288 -0.06663289
0.054147977 -0.057667885 -0.13876909 0.015774291 -0.030585399 0.05885832 -0.0341891 -0.18484399
0.05626179 0.14915001 -0.17821889 0.061714713 -0.0019664143 -0.09016102 0.086534455 -0.12266528
0.031084253 0.007841326 -0.090761565 0.047255073 0.017628962 -0.122308746 -0.05083252 0.043045692
-0.13221405 0.15687609 -0.06480779 0.018311985 0.035723984 -0.048058227 -0.10655807 -0.08437829
-0.091741204 -0.051964227 -0.19726557 0.07155016 0.040419895 0.081804715 -0.028291205 -0.060386308
-0.07034005 0.047274925 0.035473477 0.20129536 0.05308668 0.071568914 -0.18335296 0.08954961
-0.029411893 -0.09961476 0.007324346 0.008324147 -0.079183176 0.060949486 -0.034791198 -0.074760236
0.01716723 0.057376765 -0.110967316 -0.039145447 0.0083644 -0.029559879 -0.06900699 0.016314201
0.12991074 -0.017926114 0.00087231374 -0.015422356 0.15455724 -0.08686263 0.09907413 -0.10278123
0.13899711 0.07131642 0.100639105 0.14224613 -0.19029304 -0.099985495 0.025191905 -0.116639964
-0.01508564 -0.07080769 -0.08344259 0.0071625444 0.12638876 0.016934026 -0.058557227 0.04375292
0.018156806 0.15889174 -0.17630184 0.073865004 0.01992259 -0.023439497 -0.06617455 -0.13680303
0.051423628 -0.0151286805 0.014439556 0.025601303 -0.02451687 0.09279571 0.20642878 0.20007841
-0.015851835 -0.00074043206 0.08323823 0.014215563 -0.027991783 -0.08902364 -0.17670745 -0.08784573
0.031762943 0.0027765953 -0.115890965 -0.009592247 0.10366737 0.04919169 -0.17530759 0.1401348
0.273354 0.0060728025 -0.09398953 0.016955866 0.008917088 -0.13893226 0.081613146 -0.005611181
00000000: 6402 9c3b 990f 33be faa0 293d adf3 cebd
00000010: 8d3b 1dbe 0a03 f33c f12d 233d 87b4 6f3d
00000020: f678 ca3d 7da8 b4bc 6929 17bd 87a6 8bbd
00000030: bbd9 943d b934 9c3c de38 8f3d 1be9 033e
00000040: 032a 5b3e ae6c 14be b4fb 343d 5d15 cabc
00000050: fcac 6dbd f4a1 8a3c 804a a33d 362b 8c3d
00000060: 7501 bb3d ce45 1dbe 2a3c 4f3d d413 9fbd
00000070: 4a01 fc3b ff80 653d c3e9 a73d 83ea 4c3d
00000080: 5f5c 563d fd87 c5bd d418 ae3d 4541 45bd
00000090: 78a4 87bd 0ed8 f3bb 38f7 493d 681b 5cbc
000000a0: 07a1 8b3c 87b6 94bd 1954 07bd 8ba3 2b3d
000000b0: f5f8 96bd d6d7 4e3a d600 95bc 2e3f 98bb
000000c0: 67c7 e83d 5b30 1fbe 60ab 493d 2313 0fbd
000000d0: 12f4 0ebe 6cda 5bbd 4bc9 f3bd ad2d 6bbd
000000e0: ab07 e03d ee0d 34bc 44d0 36bd 2d90 9b3d
000000f0: 58c5 80bc 922d 98bc c311 fbbb 0c12 5ebe
00000100: 3b74 993b 5f2f b7bd f2b8 4b3c 74a5 c03d
00000110: 9e4f 63bd e413 1b3e c4b0 0dbe 9384 dcbc
00000120: 0a59 09bd 1775 febd 3e13 463b d313 f2bd
00000130: 5ab0 f5bb d130 263d 058a a23c addd f53c
00000140: 91fd cbbc c6c5 75bc 6f17 39be f946 93bd
00000150: 7625 fc3c 7f0c 96bb a669 bfbc 8b18 dd3d
00000160: 38ef 753d b0a4 7bbc 5d9a a13d f0f2 b33d
00000170: 4c98 353d 6b95 f33d 5107 99bd 6679 ff3d
00000180: b3e2 953d 1fd9 0cbd d09c 9d3d c94a 1b3e
00000190: 5a45 8ebc 1772 e83d 7f25 ed3d 1822 f33d
000001a0: ba21 22be 28e6 c53d 2357 4dbc 26de 353e
000001b0: 5574 2ebe fe5a 67bd 5267 a8bc 72c1 0b3e
000001c0: 1cd4 a63c 7424 57bd 0634 c0bd 394e 0e3d
000001d0: 9d8c 1eba 77f4 a83d 4af6 963d ee0d 13bc
000001e0: 6829 cbbc f976 06bd 7e52 b9bd d4cd 78bd
000001f0: 71ef 9c3d 4d6d 1ebe a766 51bd d376 88bd
00000200: 45ca 5d3d 2935 6cbd 7c19 0ebe 1639 813c
00000210: 3b8e fabc 6c15 713d df09 0cbd be47 3dbe
00000220: c372 663d c8ba 183e 037f 36be 91c8 7c3d
00000230: f5de 00bb 57a6 b8bd fa38 b13d ef37 fbbd
00000240: 67a4 fe3c e878 003c 33e1 b9bd 898e 413d
00000250: 9d6a 903c 027d fabd c335 50bd ae50 303d
00000260: 1f63 07be 20a4 203e f2b9 84bd 0403 963c
00000270: 5053 123d b4d8 44bd 1e3b dabd 86ce acbd
00000280: d0e2 bbbd 71d8 54bd fcff 49be e488 923d
00000290: 558f 253d 3b89 a73d f5c2 e7bc a257 77bd
000002a0: 720e 90bd 5aa3 413d a34c 113d 5f20 4e3e
000002b0: 6b71 593d b992 923d e1c0 3bbe c965 b73d
000002c0: 36f1 f0bc d302 ccbd 1101 f03b 0162 083c
000002d0: ca2a a2bd 2ba6 793d 3781 0ebd e51b 99bd
000002e0: 4aa2 8c3c e603 6b3d d542 e3bd fa56 20bd
000002f0: d60a 093c 8f27 f2bc 8953 8dbd 5ca5 853c
00000300: 5207 053e c9d9 92bc fcab 643a 0dae 7cbc
00000310: 4144 1e3e 09e5 b1bd 61e7 ca3d f77e d2bd
00000320: 4255 0e3e 580e 923d e01b ce3d f8a8 113e
00000330: 2edc 42be 32c5 ccbd 415f ce3c efe0 eebd
00000340: c329 77bc 9f03 91bd f3e3 aabd c7b3 ea3b
00000350: 0e6c 013e 3ab9 8a3c b4d9 6fbd 4336 333d
00000360: 95bd 943c 84b4 223e 7888 34be 8946 973d
00000370: b334 a33c 3004 c0bc 8686 87bd 1816 0cbe
00000380: 95a1 523d 49de 77bc e393 6c3c d3b9 d13c
00000390: 9ad7 c8bc ad0b be3d 1162 533e 5be1 4c3e
000003a0: b5db 81bc 8e19 42ba ce78 aa3d 65e8 683c
000003b0: 064f e5bc 0752 b6bd ccf2 34be 76e8 b3bd
000003c0: dc19 023d 8af7 353b 3e58 edbd cd28 1dbc
000003d0: 8f4f d43d 3a7d 493d d583 33be 7f7f 0f3e
000003e0: 0ef5 8b3e 5cfe c63b 957d c0bd 07e7 8a3c
000003f0: fa18 123c 4244 0ebe cb24 a73d ffdd b7bb

network_body._body_endoder.seq_layers.2.bias f4 [128]
-0.018468406 0.014388269 -0.05888589 -0.041566968 -0.05365462 0.058018528 0.07451862 -0.044063132
0.062136028 -0.011173339 0.0029995325 -0.053027574 -0.052201927 -0.039481085 0.0462836 -0.05863726
0.07128905 0.03344381 -0.029585697 0.05097504 0.027076032 -0.061389312 0.062328514 -0.01799372
-0.038606223 -0.00711171 0.068362646 0.03968488 0.0061264155 -0.013297947 0.055198807 -0.009430012
-0.0060192943 -0.048052095 0.033458684 0.052557614 0.0022428369 0.019854946 -0.048053503 -0.045511056
0.008170359 0.0658909 -0.06643632 0.050297007 -0.04523642 0.04931379 0.06835882 -0.038017526
-0.030397013 0.015179407 -0.041788626 -0.018759416 0.03075711 0.06430769 0.000614349 -0.0434658
0.04339264 0.07239812 0.07567438 -0.061584376 0.011402103 -0.0072804918 -0.017420212 -0.0032830087
-0.05448887 0.07118513 -0.046269838 0.051703557 0.072318494 0.052998904 0.03978101 -0.013629924
-0.024147632 -0.019353816 -0.0029390682 0.00041716758 -0.06578365 -0.048175726 0.045754217 0.020272221
-0.054104395 -0.041261096 0.055234935 -0.06461828 -0.05075994 -0.0040379497 0.061823785 -0.032094102
0.016409196 0.055483356 -0.021895854 -0.021228535 -0.011422105 -0.050524388 0.07074761 0.04308404
0.050800852 -0.052060876 0.012114324 -0.02694752 0.05405668 0.050927218 0.013280226 -0.056922976
0.07795433 0.025611676 0.012647924 0.032386657 -0.054208875 0.011998766 0.04017365 -0.0064025717
-0.043107804 -0.06176426 -0.030822618 0.048187852 0.025367565 0.06747833 -0.061596073 0.0048601567
0.044259164 0.032890655 -0.045789655 -0.0117654065 -0.002719386 -0.01426608 0.033120263 0.061404187
00000000: 0e4b 97bc c6bc 6b3c 5532 71bd 2042 2abd
00000010: f2c4 5bbd d6a4 6d3d 389d 983d 8b7b 34bd
00000020: 5982 7e3d 6110 37bc ce93 443b 7133 59bd
00000030: b0d1 55bd ebb6 21bd df93 3d3d a02d 70bd
00000040: feff 913d 60fc 083d b45d f2bc 34cb 503d
00000050: 8ece dd3c 5c73 7bbd 2f4c 7f3d 9167 93bc
00000060: 8f21 1ebd 5909 e9bb b701 8c3d 9d8c 223d
00000070: 19c0 c83b a2df 59bc 2518 623d 5680 1abc
00000080: 803d c5bb 46d2 44bd f90b 093d a746 573d
00000090: 8ffc 123b d7a6 a23c c0d3 44bd cd69 3abd
000000a0: f8dc 053c cff1 863d c40f 88bd 3c04 4e3d
000000b0: d349 39bd 42fd 493d b6ff 8b3d 44b8 1bbd
000000c0: 2803 f9bc 0cb3 783c 8d2a 2bbd 59ad 99bc
000000d0: 56f6 fb3c c0b3 833d 430c 213a 3209 32bd
000000e0: 7bbc 313d 7745 943d 2bfb 9a3d e63f 7cbd
000000f0: e3cf 3a3c 3191 eebb d5b4 8ebc bf27 57bb
00000100: b92f 5fbd 82c9 913d 7185 3dbd 1cc7 533d
00000110: b81b 943d 6115 593d 6af1 223d 0b50 5fbc
00000120: 41d1 c5bc e58b 9ebc 629d 40bb 49b7 da39
00000130: 94b9 86bd e953 45bd c668 3b3d ee11 a63c
00000140: 929c 5dbd 6501 29bd 073e 623d 9756 84bd
00000150: a8e9 4fbd c750 84bb f03a 7d3d 1b75 03bd
00000160: 946c 863c 8442 633d ef5e b3bc 77e7 adbc
00000170: c823 3bbc a9f2 4ebd 1fe4 903d e478 303d
00000180: 8e14 503d c93d 55bd 287b 463c 0cc1 dcbc
00000190: 8a6a 5d3d 0f99 503d 4e95 593c 1128 69bd
000001a0: 85a6 9f3d 94cf d13c 3d39 4f3c dfa7 043d
000001b0: 200a 5ebd 7996 443c 208d 243d aacc d1bb
000001c0: cf91 30bd 85fc 7cbd b77f fcbc a060 453d
000001d0: a4cf cf3c 1432 8a3d 2a4c 7cbd f341 9f3b
000001e0: 1949 353d 5ab8 063d ef8d 3bbd b1c3 40bc
000001f0: ba37 32bb 47bc 69bc 1da9 073d f582 7b3d

action_model._continuous_distribution.log_sigma f4 [1, 2]
-0.058568846 -0.08272505
00000000: e3e5 6fbd c06b a9bd

action_model._continuous_distribution.mu.weight f4 [2, 128]
0.038769737 0.04210699 0.0297771 -0.0006886354 0.010553588 -0.020735933 -0.026807675 0.043924086
-0.054517083 -0.03274776 -0.024680886 0.007793585 0.012413035 0.0014478961 -0.020588862 0.0112624625
-0.021077532 -0.019539861 -0.015330267 -0.017833933 0.04096529 0.011812058 0.005953379 -0.007297596
0.03822264 -0.0014443848 -0.049030226 0.014561542 0.0256589 0.038239505 -0.012880891 0.025024347
0.014494561 0.037305567 0.045498922 0.0071510305 0.0045714825 -0.024755554 0.001952333 0.0051477845
0.033347107 -0.04830248 0.034422256 -0.03317624 0.057223417 -0.048316535 -0.045120355 -0.00013255762
0.021868197 0.06261552 0.063285336 0.046478823 -0.030187763 -0.05011085 -0.032284517 0.053368215
0.00037511706 -0.01200076 -0.014757251 0.03096101 0.055864718 0.019935476 -0.008654735 -0.028514927
0.018377323 -0.015113661 0.0038497697 -0.049502607 -0.026630655 -0.008019715 0.0028487411 0.035704765
0.019800542 0.02139469 0.006895193 -0.023611836 0.030415973 0.046575125 -0.010055451 -0.037035316
0.02569582 -0.007872122 -0.03626366 0.017159168 0.013222424 0.02918109 -0.021675171 0.0038312285
-0.017179187 -0.03691144 -0.014391692 0.0037613332 0.004261886 0.01440144 -0.020503331 0.009011105
-0.0031643785 0.044669315 -0.020067608 0.036069013 0.012544215 -0.017509377 -0.008168269 0.008002069
-0.04118596 -0.044354424 -0.011653694 -0.0012619041 0.013007012 0.004823403 -0.016613765 -0.024495138
0.04510915 0.038031206 0.043912284 -0.024839962 -0.04573494 -0.037104044 0.024901873 0.04001706
-0.013008847 -0.032726962 0.03475422 -0.006914156 0.047164652 -0.0071166293 0.0027114565 -0.0071597407
-0.027088327 -0.024656238 0.043075945 0.045891367 0.051472824 -0.0606258 -0.05669092 0.048887756
-0.052092843 0.041288704 0.02101714 0.065770455 0.05191977 0.039656978 -0.00882483 0.048062824
-0.062605135 -0.047307402 0.061322175 -0.033506922 -0.0616883 0.024415404 -0.07550987 0.036283713
0.0059843305 -0.015543586 -0.06752386 -0.060712498 -0.03947452 -0.013650826 -0.04879255 -0.008871679
0.013896556 0.008555819 -0.054781165 -0.06346925 0.006991316 -0.018608408 0.084643714 0.02832883
-0.040752884 -0.061742436 0.061336864 -0.03445834 0.02983218 -0.03146337 -0.05934144 0.04634864
-0.0071345163 -0.044310946 0.017367518 -0.013618375 0.0115372315 -0.059353814 0.020894859 0.0067506246
-0.06475119 -0.07151814 -0.04821277 0.05780123 -0.037493475 -0.008938943 0.012996976 0.04013604
0.06863056 -0.05198716 0.05084861 -0.049132552 -0.069598645 -0.05390281 -0.04528587 -0.02346934
0.01472914 -0.009795369 -0.029642161 0.022601286 0.044633016 0.029745549 -0.047752727 -0.011350613
0.072104126 0.07992914 -0.026405482 0.046294726 0.045771025 -0.037196305 -0.06111808 0.0047432715
0.0034088835 -0.050664842 0.04349453 0.010158064 0.0203686 0.023399845 -0.060908273 -0.07974134
-0.059102323 0.038487524 -0.015230507 -0.01252915 -0.0691756 -0.020969886 -0.017278945 0.067492954
-0.068005174 -0.0083162645 -0.017280407 -0.051221184 0.033708695 -0.027305186 -0.018389003 0.017723637
0.019176051 0.063804746 0.017885981 -0.022787344 -0.010501798 -0.056630436 0.0805968 -0.022554424
-0.015190587 0.0035449762 0.02759244 0.028590987 -0.0039444133 0.04527275 -0.052272532 -0.058110766
00000000: 04cd 1e3d 6178 2c3d 1bef f33c 8a85 34ba
00000010: f5e8 2c3c 67de a9bc c59b dbbc bee9 333d
00000020: 4e4d 5fbd 8422 06bd 922f cabc 5461 ff3b
00000030: 0b60 4b3c 55c7 bd3a f9a9 a8bc 3186 383c
00000040: caaa acbc 0f12 a0bc cd2b 7bbc 7818 92bc
00000050: 38cb 273d 5d87 413c 9014 c33b ac20 efbb
00000060: 588f 1c3d 8351 bdba ebd3 48bd 8993 6e3c
00000070: 9d32 d23c 07a1 1c3d 5f0a 53bc dcff cc3c
00000080: 987a 6d3c b9cd 183d 145d 3a3d 3153 ea3b
00000090: 60cc 953b 29cc cabc 6de5 ff3a bfae a83b
000000a0: fa96 083d d2d8 45bd 5afe 0c3d cfe3 07bd
000000b0: 1a63 6a3d 8fe7 45bd 1fd0 38bd 2aff 0ab9
000000c0: ef24 b33c 913c 803d be9b 813d 9460 3e3d
000000d0: 544c f7bc 0941 4dbd c53c 04bd a198 5a3d
000000e0: 5cab c439 d69e 44bc 66c8 71bc f2a1 fd3c
000000f0: 67d2 643d b94f a33c 97cc 0dbc 2398 e9bc
00000100: 0a8c 963c 4a9f 77bc 6b4c 7c3b 3fc3 4abd
00000110: 8828 dabc 1f65 03bc f2b1 3a3b 293f 123d
00000120: bf34 a23c eb43 af3c 12f1 e13b 9c6d c1bc
00000130: eb2a f93c 8fc5 3e3d 9ebf 24bc 58b2 17bd
00000140: 0a80 d23c 13fa 00bc 3489 14bd 6291 8c3c
00000150: dea2 583c 2e0d ef3c 2190 b1bc 5915 7b3b
00000160: 5ebb 8cbc 7330 17bd 22cb 6bbc b380 763b
00000170: 4aa7 8b3b 04f4 6b3c 9af6 a7bc 50a3 133c
00000180: 7661 4fbb 2cf7 363d d364 a4bc 1abd 133d
00000190: 4086 4d3c d36f 8fbc 34d4 05bc 1c1b 033c
000001a0: 9cb2 28bd fcac 35bd 23ef 3ebc 7a66 a5ba
000001b0: 5d1b 553c a30d 9e3b 9719 88bc 07aa c8bc
000001c0: 5fc4 383d 9cc6 1b3d 5edd 333d 2d7d cbbc
000001d0: 8f54 3bbd 69fa 17bd 03ff cb3c eee8 233d
000001e0: 0f23 55bc b50c 06bd 715a 0e3d 2590 e2bb
000001f0: b92f 413d 9d32 e9bb b1b2 313b 429c eabb
00000200: 57e8 ddbc e1fb c9bc 6770 303d 96f8 3b3d
00000210: 2bd5 523d c252 78bd bd34 68bd 873e 483d
00000220: 4e5f 55bd 581e 293d 232c ac3c a9b2 863d
00000230: d3a9 543d 5b6f 223d 0596 10bc 86dd 443d
00000240: 1f37 80bd 68c5 41bd f62c 7b3d 8e3e 09bd
00000250: dfac 7cbd d002 c83c eba4 9abd 3b9e 143d
00000260: 3418 c43b 86aa 7ebc f349 8abd abad 78bd
00000270: 09b0 21bd b7a7 5fbc b2da 47bd 855a 11bc
00000280: 61ae 633c b52d 0c3c 3762 60bd 2bfc 81bd
00000290: 6917 e53b a970 98bc af59 ad3d dd11 e83c
000002a0: 7fec 26bd a3e5 7cbd 5d3c 7b3d 3024 0dbd
000002b0: 9e62 f43c bcdf 00bd 0310 73bd 12d8 3d3d
000002c0: a9c8 e9bb 657f 35bd 5346 8e3c 9b1f 5fbc
000002d0: a806 3d3c fc1c 73bd b22b ab3c 5834 dd3b
000002e0: 469c 84bd 1a78 92bd c17a 45bd fcc0 6c3d
000002f0: c292 19bd a574 12bc 45f1 543c b065 243d
00000300: 2e8e 8c3d 7df0 54bd a246 503d 373f 49bd
00000310: bc89 8ebd 31c9 5cbd ad7d 39bd c642 c0bc
00000320: 7e52 713c c17c 20bc 1ed4 f2bc 5526 b93c
00000330: 1cd1 363d f0ac f33c 5d98 43bd ecf7 39bc
00000340: 54ab 933d e4b1 a33d 4f50 d8bc 8a9f 3d3d
00000350: 667a 3b3d 275b 18bd f456 7abd 726d 9b3b
00000360: 9367 5f3b f085 4fbd 5227 323d 026e 263c
00000370: 0ddc a63c 08b1 bf3c f47a 79bd 6d4f a3bd
00000380: 4715 72bd 18a5 1d3d 6089 79bc 1047 4dbc
00000390: f0ab 8dbd 0ac9 abbc 938c 8dbc bf39 8a3d
000003a0: 4c46 8bbd f140 08bc a48f 8dbc 4ecd 51bd
000003b0: 2112 0a3d 20af dfbc 89a4 96bc 2931 913c
000003c0: 1817 9d3c 10ac 823d 9f85 923c 86ac babc
000003d0: bc0f 2cbc 51f5 67bd ef0f a53d 0ec4 b8bc
000003e0: f1e1 78bc d552 683b 8a09 e23c a537 ea3c
000003f0: 2340 81bb eb6f 393d b91b 56bd 8e05 6ebd

action_model._continuous_distribution.mu.bias f4 [2]
-0.018283706 -0.057260655
00000000: b6c7 95bc 268a 6abd

action_model._discrete_distribution.branches.0.weight f4 [1, 128]
-0.0027650672 -0.012029954 -0.0020843658 -0.00939124 0.0014853557 0.0075226985 0.0034371463 -0.0014933608
0.005051602 -0.0058622058 -0.007493832 0.018029578 -0.002717327 -0.00026580587 -0.001040375 0.004692151
0.010195752 0.006581973 0.002439292 -0.017716935 -0.004273288 0.0022535466 0.011045806 -0.0047339792
0.0002866717 0.015483578 -0.002233832 0.008345287 -0.0009556046 0.008546775 -0.008799642 -0.0059113195
0.011663296 -0.00069260545 0.022662148 -0.013505541 0.018376332 0.011369346 -0.00034638096 0.005629287
0.0076486454 0.00025023098 0.0129698245 -0.007938069 -0.0007581653 -0.005637863 0.007352542 0.01096316
-0.0031413033 -0.0032583077 -0.0035267172 0.009107075 0.0047804653 -0.015746985 0.00066780706 0.0056922096
-0.0046889572 0.0003786827 -0.010484456 -0.005792625 0.014800462 0.013052948 -0.0020073506 0.014743931
0.010191751 -0.006570755 0.0024923496 -0.0018482937 -0.018596908 0.0019807478 0.0017000976 0.0007152205
0.00806316 -0.0033972622 0.007815899 -0.005779555 0.008407063 -0.0023822456 -0.0016831858 0.0016114246
-0.00664765 0.0013144495 -0.015181956 0.0036070438 0.0029461284 0.002099238 0.008266452 -0.0055592246
0.01693901 -0.012361723 -0.005921951 -0.0067846337 0.008771389 -0.0029994263 0.00030542316 -0.00016140276
-0.008161716 -0.0046078563 -0.018022968 0.008851724 0.003871439 -0.0068319715 0.004804371 -0.010940975
0.017525189 -0.011712207 0.011910937 -0.0057885437 0.0019426784 0.008808284 -0.022956593 0.0023109762
-0.0077354717 0.0123183215 -0.00034952644 -0.023793869 -0.0010150594 -0.014872478 -0.0060068234 -0.0017996058
-0.0018489821 0.0062269284 0.01330695 0.00817821 -0.00038547537 -0.021811614 -0.0040037762 0.00010818939
00000000: 2136 35bb 4919 45bc db99 08bb b7dd 19bc
00000010: 44b0 c23a f880 f63b bf41 613b e0bc c3ba
00000020: e987 a53b bf17 c0bb d28e f5bb c4b2 933c
00000030: 2f15 32bb dc5b 8bb9 315d 88ba 9ec0 993b
00000040: 150c 273c 97ad d73b 87dc 1f3b 1b23 91bc
00000050: f006 8cbb 3db0 133b 78f9 343c 7f1f 9bbb
00000060: 6d4c 9639 d5ae 7d3c 7b65 12bb acba 083c
00000070: 8a81 7aba c607 0c3c 602c 10bc beb3 c1bb
00000080: 6917 3f3c f78f 35ba f8a5 b93c 5846 5dbc
00000090: f689 963c 7e46 3a3c 779a b5b9 e275 b83b
000000a0: 7da1 fa3b 6f31 8339 637f 543c ad0e 02bc
000000b0: 9dbf 46ba d3bd b8bb 98ed f03b d39e 333c
000000c0: 53de 4dbb 5589 55bb 7f20 67bb d735 153c
000000d0: 73a5 9c3b d2ff 80bc c60f 2f3a b785 ba3b
000000e0: d3a5 99bb ee89 c639 ffc6 2bbc 0fd0 bdbb
000000f0: a37d 723c 08dc 553c c18d 03bb 8790 713c
00000100: 4dfb 263c 7d4f d7bb b056 233b 7242 f2ba
00000110: 8b58 98bc 6fcf 013b cfd5 de3a a37d 3b3a
00000120: 581b 043c 9aa4 5ebb 420e 003c 6c62 bdbb
00000130: c7bd 093c 731f 1cbb 589e dcba 7036 d33a
00000140: 88d4 d9bb 9b49 ac3a bdbd 78bc 2764 6c3b
00000150: d513 413b 5f93 093b 0370 073c 282a b6bb
00000160: aec3 8a3c d388 4abc ed0c c2bb a251 debb
00000170: dfb5 0f3c 0692 44bb 3421 a039 393e 29b9
00000180: b8b8 05bc 80fd 96bb e7a4 93bc d206 113c
00000190: f8b7 7d3b bbde dfbb fc6d 9d3b c641 33bc
000001a0: fc90 8f3c 8fe4 3fbc 1726 433c d3ad bdbb
000001b0: 78a1 fe3a 9f50 103c 770f bcbc bf73 173b
000001c0: d779 fdbb c9d2 493c a540 b7b9 5ceb c2bc
000001d0: be0b 85ba b2ab 73bc e3d4 c4bb c0e0 ebba
000001e0: 8b59 f2ba 430b cc3b 6505 5a3c e6fd 053c
000001f0: a119 cab9 45ae b2bc 1c32 83bb bde3 e238

exp_avg f4 [128, 12]
-2.5598772e-05 -2.3769633e-05 3.4161171e-06 1.5471725e-05 -2.032051e-05 8.969706e-06 8.998314e-06 -2.2439872e-05
1.6940702e-07 6.888229e-07 -2.1051472e-05 3.2395143e-05 6.3588326e-05 5.9576727e-05 -8.398666e-06 -3.9803643e-05
5.2277708e-05 -2.30762e-05 -2.3149802e-05 5.7729896e-05 -4.3583134e-07 -1.7721255e-06 5.4158107e-05 1.4678593e-05
0.00024913918 0.00024361623 -3.7473455e-05 -0.00018179377 0.00023876707 -0.00010539476 -0.0001057309 0.00026366918
-1.9905488e-06 -8.093728e-06 0.0002473555 0.000338167 0.00019288903 0.00018868523 -2.9123486e-05 -0.00014092757
0.00018509362 -8.17026e-05 -8.196319e-05 0.0002043979 -1.5430837e-06 -6.2743025e-06 0.00019175143 0.0002536135
-5.314376e-05 -5.2807485e-05 8.128843e-06 4.0919964e-05 -5.3744072e-05 2.3723296e-05 2.3798959e-05 -5.9349295e-05
4.4805225e-07 1.8218168e-06 -5.5677257e-05 -6.310753e-05 0.00025890817 0.00026007625 -3.979776e-05 -0.00020645862
0.00027116245 -0.000119693825 -0.00012007558 0.0002994437 -2.2606062e-06 -9.191805e-06 0.00028091634 -9.8737204e-05
-6.483627e-05 -6.107532e-05 8.590745e-06 4.140497e-05 -5.4381177e-05 2.4004443e-05 2.4081015e-05 -6.0052906e-05
4.5336168e-07 1.8434056e-06 -5.6337296e-05 0.00012735366 0.00022129292 0.00022197473 -3.4441135e-05 -0.00017565825
0.00023070913 -0.00010183749 -0.0001021623 0.0002547712 -1.9233612e-06 -7.8205385e-06 0.00023900789 7.9861886e-05
-7.4656135e-05 -7.441313e-05 1.1625201e-05 5.8057132e-05 -7.625208e-05 3.3658504e-05 3.3765864e-05 -8.4204825e-05
6.356942e-07 2.5847821e-06 -7.899486e-05 -7.281655e-05 -6.161406e-05 -6.0269027e-05 8.910567e-06 4.5010474e-05
-5.9116668e-05 2.6094729e-05 2.6177962e-05 -6.528229e-05 4.9284023e-07 2.0039279e-06 -6.1243125e-05 5.7985824e-05
-6.083696e-05 -6.031512e-05 9.08055e-06 4.6493074e-05 -6.106389e-05 2.6954263e-05 2.7040227e-05 -6.74326e-05
5.090737e-07 2.0699351e-06 -6.326038e-05 2.3821643e-05 5.468498e-05 5.1039086e-05 -7.0914825e-06 -3.373822e-05
4.4311408e-05 -1.9559786e-05 -1.9622172e-05 4.893273e-05 -3.6941864e-07 -1.5020858e-06 4.5905246e-05 1.9821862e-05
-5.698147e-05 -5.628516e-05 8.25962e-06 4.3018717e-05 -5.6500736e-05 2.493999e-05 2.5019532e-05 -6.239355e-05
4.7103072e-07 1.9152483e-06 -5.85331e-05 9.6339616e-05 -2.2260832e-05 -2.3337778e-05 3.974578e-06 2.0225607e-05
-2.6564338e-05 1.172573e-05 1.1763128e-05 -2.9334911e-05 2.2145858e-07 9.0046933e-07 -2.7519873e-05 -5.426147e-05
0.00024895385 0.00025071355 -3.9059698e-05 -0.0002001292 0.00026284944 -0.000116024414 -0.00011639445 0.00029026362
-2.191303e-06 -8.910013e-06 0.00027230423 6.636172e-05 6.524323e-05 6.209084e-05 -9.0777685e-06 -4.328046e-05
5.6844237e-05 -2.5091846e-05 -2.5171877e-05 6.277274e-05 -4.7390012e-07 -1.9269153e-06 5.8888934e-05 3.8364808e-05
0.00016383642 0.00016898819 -2.6261856e-05 -0.00014186384 0.00018632397 -8.224516e-05 -8.2507526e-05 0.00020575688
-1.5533287e-06 -6.315961e-06 0.00019302614 -5.6290082e-05 -6.750982e-05 -6.791957e-05 1.0754813e-05 5.4095988e-05
-7.104956e-05 3.136203e-05 3.1462063e-05 -7.8459736e-05 5.9232144e-07 2.4084256e-06 -7.360523e-05 -7.690533e-05
-7.0408685e-05 -7.0132606e-05 1.1159733e-05 5.463272e-05 -7.175443e-05 3.1673226e-05 3.1774245e-05 -7.9238074e-05
5.98199e-07 2.4323251e-06 -7.433547e-05 -0.00012858542 -5.5617005e-05 -5.4900585e-05 8.19079e-06 4.189682e-05
-5.5027198e-05 2.4289611e-05 2.436708e-05 -6.0766266e-05 4.5874765e-07 1.865305e-06 -5.7006542e-05 2.9081375e-05
-2.9064015e-05 -3.066731e-05 5.045821e-06 2.6910937e-05 -3.5344892e-05 1.5601508e-05 1.5651274e-05 -3.9031256e-05
2.946588e-07 1.1981059e-06 -3.6616257e-05 -1.2730755e-05 4.020098e-05 3.940133e-05 -5.836639e-06 -2.9563525e-05
00000000: f2bc d6b7 e664 c7b7 7240 6536 47c9 8137
00000010: f775 aab7 987c 1637 77f7 1637 423d bcb7
00000020: 3fe6 3534 8de7 3835 b197 b0b7 05e0 0738
00000030: b95a 8538 06e2 7938 ffe7 0cb7 d6f2 26b8
00000040: c344 5b38 c393 c1b7 d231 c2b7 0123 7238
00000050: 34fc e9b4 c5d9 edb5 d327 6338 1444 7637
00000060: e59e 8239 3c73 7f39 d12c 1db8 e59f 3eb9
00000070: 8c5d 7a39 6207 ddb8 d8bb ddb8 143d 8a39
00000080: 5e95 05b6 4cca 07b7 7eaf 8139 024c b139
00000090: 4142 4a39 ced9 4539 364e f4b7 f5c5 13b9
000000a0: b115 4239 c057 abb8 a7e3 abb8 a553 5639
000000b0: f41b cfb5 d987 d2b6 e210 4939 6ef7 8439
000000c0: aee6 5eb8 9b7d 5db8 1d61 0837 7aa1 2b38
000000d0: 426b 61b8 6401 c737 e0a3 c737 d2ed 78b8
000000e0: d58b f034 2685 f435 0087 69b8 9958 84b8
000000f0: 11be 8739 d85a 8839 85ec 26b8 d07c 58b9
00000100: cf2a 8e39 2204 fbb8 16d1 fbb8 a7fe 9c39
00000110: ebb4 17b6 8036 1ab7 f447 9339 2211 cfb8
00000120: b5f8 87b8 9015 80b8 f820 1037 3faa 2d38
00000130: 5817 64b8 265d c937 9601 ca37 51e1 7bb8
00000140: 8e65 f334 ef6a f735 b64b 6cb8 3d8a 0539
00000150: de0a 6839 e3c1 6839 e374 10b8 e730 38b9
00000160: 83ea 7139 9691 d5b8 f83f d6b8 d092 8539
00000170: 1813 01b6 f534 03b7 319e 7a39 867b a738
00000180: b590 9cb8 3f0e 9cb8 dc09 4337 5f82 7338
00000190: 86e9 9fb8 8b2c 0d38 d29f 0d38 1f97 b0b8
000001a0: 93a4 2a35 3876 2d36 0baa a5b8 16b5 98b8
000001b0: cc36 81b8 60c9 7cb8 987e 1537 a1c9 3c38
000001c0: 0af4 77b8 01e6 da37 bf98 db37 2ae8 88b8
000001d0: b94b 0435 387b 0636 a76f 80b8 ce35 7338
000001e0: 302b 7fb8 defa 7cb8 aa58 1837 8f01 4338
000001f0: 6d0f 80b8 d71b e237 72d4 e237 9a6a 8db8
00000200: 47a7 0835 37e9 0a36 a8aa 84b8 97d4 c737
00000210: 8d5d 6538 cd12 5638 5ff3 edb6 2382 0db8
00000220: 03db 3938 5214 a4b7 4b9a a4b7 1e3d 4d38
00000230: 8354 c6b4 469b c9b5 628a 4038 2047 a637
00000240: 63ff 6eb8 bb13 6cb8 cc92 0a37 ff6e 3438
00000250: 34fb 6cb8 3936 d137 09e1 d137 48d9 82b8
00000260: f8e1 fc34 b787 0036 7081 75b8 f009 ca38
00000270: c6bc bab7 7fc5 c3b7 5d5d 8536 29aa a937
00000280: 7bd6 deb7 a0b9 4437 405a 4537 3e14 f6b7
00000290: 12ca 6d34 c8b7 7135 7ada e6b7 cf96 63b8
000002a0: 0586 8239 3472 8339 08d4 23b8 c6d9 51b9
000002b0: 0ecf 8939 2252 f3b8 cb18 f4b8 862e 9839
000002c0: 4d0e 13b6 377c 15b7 0ec4 8e39 ad2b 8b38
000002d0: 31d3 8838 c436 8238 b84c 18b7 0a88 35b8
000002e0: 096c 6e38 547c d2b7 3228 d3b7 dca4 8338
000002f0: 566c feb4 2750 01b6 83ff 7638 e6e9 2038
00000300: 81cb 2b39 6c32 3139 e84c dcb7 49c1 14b9
00000310: f65f 4339 097b acb8 e407 adb8 71c0 5739
00000320: f87b d0b5 b1ed d3b6 0f67 4a39 0419 6cb8
00000330: 0f94 8db8 0b70 8eb8 926f 3437 20e5 6238
00000340: 7100 95b8 b98a 0338 22f6 0338 c08a a4b8
00000350: 0500 1f35 70a0 2136 825c 9ab8 3c48 a1b8
00000360: 60a8 93b8 2814 93b8 b03a 3b37 7025 6538
00000370: de7a 96b8 ded8 0438 5645 0538 9e2c a6b8
00000380: ec93 2035 073b 2336 8de4 9bb8 e3d4 06b9
00000390: 4e46 69b8 0e45 66b8 2d6b 0937 5eba 2f38
000003a0: 01cd 66b8 8bc1 cb37 e867 cc37 48df 7eb8
000003b0: cc49 f634 645b fa35 4f1a 6fb8 c7f3 f337
000003c0: 7fce f3b7 c6a0 00b8 464f a936 ccbe e137
000003d0: 4a3f 14b8 fcdf 8237 db4a 8337 7eb5 23b8
000003e0: 9931 9e34 9bce a035 6894 19b8 2d96 55b7
000003f0: 799d 2838 db42 2538 59d8 c3b6 30ff f7b7

exp_avg_sq f4 [128, 12]
4.9211426e-08 4.898782e-08 9.1495284e-10 2.556676e-08 4.5457412e-08 1.2733563e-08 1.6943716e-08 5.2042058e-08
4.8864693e-12 5.7514984e-09 4.4677464e-08 3.1184905e-07 1.4223872e-07 1.421544e-07 3.0006646e-09 7.5866346e-08
1.282277e-07 2.8246703e-08 2.9475869e-08 1.544708e-07 1.5528161e-10 1.6719737e-09 1.3552572e-07 7.0047554e-07
7.710475e-07 7.240252e-07 1.6401602e-08 3.7972407e-07 6.741509e-07 1.2439779e-07 1.2525612e-07 8.393349e-07
1.2951485e-09 7.9278956e-10 7.2889935e-07 3.28562e-06 4.2628943e-07 4.0015328e-07 9.063977e-09 2.0964461e-07
3.7124406e-07 6.884675e-08 7.066978e-08 4.6070957e-07 4.919721e-10 2.2575557e-09 4.016827e-07 1.8433824e-06
1.8475113e-08 1.7648597e-08 3.929652e-10 9.479168e-09 1.61846e-08 3.1298355e-09 3.856173e-09 1.9903892e-08
2.5017946e-12 9.741713e-10 1.7806055e-08 1.12810085e-07 3.7712718e-07 3.6094823e-07 8.160883e-09 1.9716198e-07
3.489448e-07 6.493084e-08 6.536937e-08 4.3491207e-07 6.018859e-10 4.0297093e-10 3.757888e-07 2.7038002e-06
1.1505417e-07 1.1415478e-07 2.4832387e-09 6.304847e-08 1.0961718e-07 2.2498028e-08 2.2613499e-08 1.3325591e-07
9.830907e-12 1.4081236e-10 1.1637106e-07 9.932467e-07 3.9682243e-07 3.7159046e-07 8.142213e-09 1.9434457e-07
3.4466976e-07 6.3539986e-08 6.398436e-08 4.3124268e-07 3.32203e-11 4.224919e-10 3.7453472e-07 2.215039e-06
2.6760425e-08 2.6906772e-08 5.8271027e-10 1.44729e-08 2.387913e-08 4.936068e-09 8.672639e-09 2.899225e-08
8.6802864e-11 5.0647855e-09 2.5536123e-08 1.532519e-07 2.1339327e-08 2.1962308e-08 4.4467702e-10 1.228709e-08
1.9234603e-08 4.049653e-09 5.122885e-09 2.3350676e-08 2.6487068e-10 1.4284965e-09 2.0516788e-08 1.6460285e-07
2.8604628e-08 2.9133584e-08 6.0546834e-10 1.5606624e-08 2.6657187e-08 6.182911e-09 6.451024e-09 3.2566152e-08
3.0963257e-10 3.6937245e-10 2.792398e-08 1.6469967e-07 1.4950852e-07 1.4396058e-07 3.0332037e-09 7.396412e-08
1.3111327e-07 2.7388092e-08 4.0216413e-08 1.601047e-07 2.3349322e-10 1.730561e-08 1.4211922e-07 6.430425e-07
1.8972045e-08 1.8639993e-08 4.110724e-10 1.0755603e-08 1.7767263e-08 3.5611327e-09 3.910965e-09 2.1608189e-08
1.636713e-12 4.693103e-10 1.905617e-08 1.6987941e-07 3.5795082e-08 3.2529368e-08 5.775581e-10 1.5820772e-08
2.5453947e-08 4.693561e-09 5.221104e-09 3.4684884e-08 1.2822757e-09 6.9010475e-10 3.3669142e-08 1.5849231e-07
4.6849402e-07 4.4257294e-07 9.776382e-09 2.3382213e-07 4.1396427e-07 7.8868375e-08 7.938525e-08 5.134585e-07
2.8684992e-11 5.011181e-10 4.4892218e-07 2.8016766e-06 1.0949832e-07 1.0498874e-07 2.2905622e-09 5.4518075e-08
9.6224504e-08 1.7916383e-08 1.8515566e-08 1.2147704e-07 1.5999398e-09 7.5722284e-10 1.055388e-07 5.1236276e-07
3.5403392e-07 3.3815618e-07 7.519459e-09 1.8465005e-07 3.272366e-07 6.0641824e-08 6.356269e-08 4.079887e-07
3.6171486e-11 3.8672945e-09 3.5330694e-07 2.8646664e-06 2.5968891e-08 3.3255464e-08 5.356125e-10 1.9836227e-08
2.5735876e-08 9.2404004e-09 9.832031e-09 2.7719395e-08 5.745659e-10 8.7242896e-10 2.4150667e-08 1.5369173e-07
3.4496377e-08 3.2702435e-08 7.164062e-10 1.695589e-08 2.9473798e-08 5.770979e-09 7.3939566e-09 3.6247457e-08
8.09748e-11 2.1956315e-09 3.187139e-08 1.7718645e-07 1.464266e-08 1.5697672e-08 3.055248e-10 7.991633e-09
1.2729175e-08 2.5469729e-09 4.645136e-09 1.5458035e-08 5.79064e-12 2.8701843e-09 1.3780795e-08 9.4741644e-08
2.3417252e-08 3.4458502e-08 4.1009995e-10 2.0441027e-08 2.446777e-08 1.0835869e-08 1.0971048e-08 2.5619043e-08
8.0319995e-10 2.792676e-10 2.2070385e-08 1.2491739e-07 7.947792e-09 1.5230171e-08 1.1873484e-10 1.1088652e-08
00000000: 895c 5333 ad66 5233 1580 7b30 e69d db32
00000010: f43c 4333 cdc2 5a32 a08b 9132 d984 5f33
00000020: 67ed ab2c b79e c531 64e3 3f33 356c a734
00000030: 48ba 1834 1ba3 1834 4034 4e31 f7eb a233
00000040: f6ae 0934 28a3 f232 1f32 fd32 9cdc 2534
00000050: e3bb 2a2f 58cb e530 0785 1134 5008 3c35
00000060: fbf9 4e35 a25a 4235 81e3 8c32 e1dc cb34
00000070: 4cf7 3435 3492 0534 247e 0634 a84e 6135
00000080: fd00 b230 9beb 5930 95a9 4335 867e 5c36
00000090: c6dc e434 a6d4 d634 cbb7 1b32 ac1a 6134
000000a0: 654f c734 e7d8 9333 1fc3 9733 7157 f734
000000b0: 753b 0730 5723 1b31 daa6 d734 236a f735
000000c0: 34b3 9e32 ad99 9732 ef08 d82f d2d9 2232
000000d0: 5006 8b32 a614 5731 427f 8431 1ff9 aa32
000000e0: 530c 302c 9be3 8530 eef3 9832 0042 f233
000000f0: f777 ca34 59c8 c134 f133 0c32 79b3 5334
00000100: 9c56 bb34 1b70 8b33 3161 8c33 dc7d e934
00000110: f471 2530 1e89 dd2f 05c0 c934 ef72 3536
00000120: b313 f733 4125 f533 99a5 2a31 4365 8733
00000130: af66 eb33 b041 c132 9c3f c232 1b15 0f34
00000140: 78f2 2c2d 28d3 1a2f abe7 f933 b24f 8535
00000150: dc0a d534 017f c734 d5e1 0b32 07ad 5034
00000160: 0d0b b934 7a73 8833 c667 8933 8b85 e734
00000170: bc1a 122e 7344 e82f a913 c934 15a6 1436
00000180: ccde e532 9e20 e732 972c 2030 7da4 7832
00000190: c31e cd32 1d9a a931 abfe 1432 a20a f932
000001a0: abe1 be2e 5306 ae31 875a db32 908d 2434
000001b0: ad4d b732 a0a7 bc32 ba76 f42f 3117 5332
000001c0: 5739 a532 2025 8b31 5f05 b031 ae94 c832
000001d0: 3c9d 912f c154 c430 e53c b032 b0bd 3034
000001e0: 3eb6 f532 6e41 fa32 0c6e 2630 540f 8632
000001f0: c6fb e432 7671 d431 cfa7 dd31 ddde 0b33
00000200: e938 aa2f 8d10 cb2f 7bdd ef32 4dd8 3034
00000210: 9788 2034 9593 1a34 af70 5031 34d6 9e33
00000220: 24c8 0c34 0d43 eb32 6aba 2c33 3fe9 2b34
00000230: 405d 802f 70a7 9432 6f99 1834 8b9d 2c35
00000240: f8f7 a232 c71d a032 4cfd e12f a4c7 3832
00000250: a09e 9832 1cb8 7431 3661 8631 e99c b932
00000260: cd58 e62b c700 0130 f6b0 a332 1968 3634
00000270: 1cbd 1933 6bb6 0b33 0ac2 1e30 3fe6 8732
00000280: d2a5 da32 0045 a131 5165 b331 6ff8 1433
00000290: 113c b030 ceb1 3d30 9d9b 1033 092e 2a34
000002a0: 5485 fb34 c39a ed34 fcf4 2732 8a10 7b34
000002b0: d13e de34 595e a933 817a aa33 99d4 0935
000002c0: dc50 fc2d 0dbf 0930 6503 f134 7004 3c36
000002d0: 5725 eb33 2c76 e133 ff67 1d31 4227 6a33
000002e0: fba3 ce33 8be6 9932 290c 9f32 5b6f 0234
000002f0: e1e4 db30 d224 5030 92a4 e233 4d89 0935
00000300: 0d12 be34 d58b b534 ee2e 0132 3844 4634
00000310: 0eaf af34 323a 8233 f57f 8833 8a09 db34
00000320: 7915 1f2e 15e1 8431 23ae bd34 983e 4036
00000330: 3212 df32 c5d4 0e33 613a 1330 5364 aa32
00000340: ca11 dd32 b6bf 1e32 bbe9 2832 981b ee32
00000350: 7bef 1d30 bbcf 6f30 e173 cf32 7606 2534
00000360: 2b29 1433 b574 0c33 9bec 4430 65a6 9132
00000370: 912d fd32 114a c631 ee0d fe31 80ae 1b33
00000380: c310 b22e f5e1 1631 f7e2 0833 a440 3e34
00000390: 1a8f 7b32 8cd7 8632 cbf6 a72f 934b 0932
000003a0: 81af 5a32 d206 2f31 0c9b 9f31 94c8 8432
000003b0: 73bd cb2c d13c 4531 94c0 6c32 c574 cb33
000003c0: 1527 c932 86ff 1333 7074 e12f 4b96 af32
000003d0: 322d d232 a828 3a32 2e7b 3c32 df10 dc32
000003e0: 2cc8 5c30 6c87 992f 4a95 bd32 0821 0634
000003f0: c28a 0832 80d3 8232 e38c 022f 6880 3e32

exp_avg f4 [128]
6.494963e-05 -0.00016711524 -0.0007631923 -0.00059162744 0.00017178607 -0.00086667505 0.00017381513 -0.0007373907
0.00024372012 0.00018894914 0.0001951734 -0.000141655 0.00018058384 8.4900144e-05 -0.0008401076 -0.00018170477
-0.00059551134 0.00022708876 0.00022934735 0.00017588049 0.00011296006 -0.00012410329 0.00026405038 -0.00042076214
-0.000602581 0.00041227113 -0.00013043135 -0.0010084716 -0.00011009442 -0.0005540752 -0.0009820261 9.6163014e-05
2.328452e-05 0.0003418256 9.4078336e-05 -0.00010053461 -0.00062484905 -0.00030940058 0.00020693812 -7.895888e-05
0.00032392348 -0.0010128058 -0.0010385442 5.589289e-05 -0.00063152896 2.5834179e-06 -0.00041012734 -0.0006603415
5.551332e-05 -0.00083745865 0.00024175894 -0.00022593013 0.0003613726 0.00011775254 -0.00051053753 0.00013860964
-0.0004856794 -0.00047362727 0.00022625874 -0.00017952578 0.00033819806 -0.0001653533 9.927544e-05 0.00034748664
0.00023725464 0.00018453105 -6.1903476e-05 -0.00016308644 -8.176897e-05 -0.00012693625 -0.00031929745 1.853804e-06
0.0002678159 0.00015341396 0.00021255942 -0.00021130587 0.00042968534 0.00021836966 -0.0001870224 0.00033211312
1.029813e-05 -0.000634871 -0.0007079332 -6.493158e-05 8.187239e-06 -0.00049623 -0.0005452814 0.00013370356
-0.00060394 -0.00028729468 0.00042223826 -0.001411139 -3.178003e-05 0.00040971424 8.988051e-05 2.456249e-05
-0.00034612816 -0.00010441854 -4.1588657e-05 0.00012862119 -0.00034859325 -0.00021778358 -0.00053677586 -0.0004243088
-0.0002323191 7.074349e-05 -0.00046812824 -0.0006537363 0.00016731022 -0.0001481564 -7.643763e-05 -0.00037161302
-0.00012620424 0.00041651775 0.0003229191 -0.00045873 -0.00017330144 -5.803391e-05 -0.00028415606 -0.00010896925
-6.290651e-05 0.00019056546 -0.00031558404 -0.0003201826 -4.2896107e-05 -0.0010444508 0.00018648643 -0.00015817463
00000000: 9135 8838 a83b 2fb9 f810 48ba 7217 1bba
00000010: 7921 3439 9431 63ba 2542 3639 744d 41ba
00000020: 1f8f 7f39 a620 4639 76a7 4c39 3989 14b9
00000030: 1b5b 3d39 6b0c b238 ab3a 5cba 0188 3eb9
00000040: 171c 1cba ad1e 6e39 f67c 7039 8f6c 3839
00000050: f8e4 ec38 b921 02b9 3e70 8a39 bd99 dcb9
00000060: 87f6 1dba 1826 d839 66c4 08b9 b12e 84ba
00000070: 7ee2 e6b8 5b3f 11ba 54b7 80ba 20ab c938
00000080: 2053 c337 0e37 b339 ec4b c538 1cd6 d2b8
00000090: e9cc 23ba 0b37 a2b9 87fd 5839 ba96 a5b8
000000a0: 46d4 a939 20c0 84ba c31f 88ba 896e 6a38
000000b0: 318d 25ba c85e 2d36 5c06 d7b9 c51a 2dba
000000c0: f9d6 6838 e688 5bba ac80 7d39 a8e7 6cb9
000000d0: 9c76 bd39 eaf1 f638 98d5 05ba be57 1139
000000e0: c9a2 feb9 2d51 f8b9 de3f 6d39 163f 3cb9
000000f0: 2d50 b139 b062 2db9 1932 d038 de2e b639
00000100: 8fc7 7839 ad7e 4139 2dd2 81b8 2f02 2bb9
00000110: 627b abb8 311a 05b9 6167 a7b9 38d0 f835
00000120: a469 8c39 bfdd 2039 7ce2 5e39 fd91 5db9
00000130: 6447 e139 29fa 6439 711b 44b9 781f ae39
00000140: 22c6 2c37 796d 26ba 9894 39ba e02b 88b8
00000150: ec5b 0937 6e15 02ba 37f1 0eba c732 0c39
00000160: ba51 1eba 0aa0 96b9 dc5f dd39 f8f5 b8ba
00000170: 8c4b 05b8 eace d639 3b7e bc38 8c0b ce37
00000180: 8978 b5b9 47fb dab8 7b6f 2eb8 7dde 0639
00000190: 65c3 b6b9 d65c 64b9 6bb6 0cba c375 deb9
000001a0: af9a 73b9 1f5c 9438 1c6f f5b9 805f 2bba
000001b0: ff6f 2f39 6e5a 1bb9 244d a0b8 0ed5 c2b9
000001c0: b155 04b9 1160 da39 784d a939 b381 f0b9
000001d0: 40b8 35b9 7069 73b8 c8fa 94b9 6c86 e4b8
000001e0: adec 83b8 87d2 4739 f974 a5b9 2ede a7b9
000001f0: 58eb 33b8 f4e5 88ba 928b 4339 aedb 25b9

exp_avg_sq f4 [128]
2.5899112e-07 8.405192e-07 4.5425872e-06 2.537257e-06 1.2605932e-07 2.638746e-06 7.8636646e-07 2.4095657e-06
1.892331e-07 1.5579992e-07 1.8620106e-07 8.0536626e-07 1.4819427e-07 1.4494097e-07 2.938695e-06 6.2471963e-07
2.3596388e-06 1.7104622e-07 2.1704017e-07 1.0622233e-07 1.1778137e-07 4.0313385e-08 2.2053945e-07 1.0765143e-06
4.14435e-06 8.6493736e-07 1.01121636e-07 5.0675744e-06 2.0768576e-07 1.2434011e-06 3.5720393e-06 5.0721777e-08
5.6207836e-07 4.0816548e-07 4.8039873e-08 5.334716e-07 1.4492398e-06 3.7115484e-07 1.5207199e-07 3.4184228e-07
3.8582596e-07 4.2844463e-06 4.4641415e-06 1.4984796e-06 1.9636643e-06 8.539459e-08 1.2243769e-06 1.779608e-06
4.6974534e-08 4.2740476e-06 2.2685339e-07 9.73392e-07 4.4214346e-07 4.816476e-08 2.1083197e-06 7.3242276e-08
1.034617e-06 7.2558356e-07 2.5085106e-07 7.5795487e-07 4.2575076e-07 1.3246353e-07 1.4304172e-07 4.94403e-07
2.0889053e-07 3.2096116e-07 1.8356549e-07 2.604662e-06 6.2454455e-07 9.836472e-08 1.0358671e-06 6.281217e-08
2.3367973e-07 1.2623369e-07 1.8290261e-07 5.5376825e-07 7.024463e-07 1.7093915e-07 8.9846736e-08 4.0974777e-07
3.625013e-08 2.9007392e-06 2.1815288e-06 2.0013476e-07 7.2175527e-07 1.5818599e-06 2.7283002e-06 1.55215e-07
2.3623832e-06 2.1157938e-07 8.1546466e-07 1.0288462e-05 2.924406e-08 5.813847e-07 3.7414555e-08 3.2599283e-07
6.6747555e-07 7.6771545e-07 1.0724208e-06 6.746477e-07 3.282876e-07 5.619565e-07 1.7168851e-06 2.6947805e-06
7.6742214e-07 5.7724836e-08 1.0254053e-06 1.814999e-06 9.3184504e-08 2.472e-07 4.509974e-07 1.1054526e-06
3.559536e-07 7.060448e-07 3.7834317e-07 1.0488768e-06 1.5750226e-07 1.6825657e-08 7.363925e-07 5.1192195e-08
2.9805438e-08 2.9364892e-07 5.0374643e-07 1.3335504e-06 4.9352508e-08 6.4331493e-06 1.286049e-07 6.850105e-08
00000000: 780b 8b34 0aa0 6135 876c 9836 be45 2a36
00000010: ec5a 0734 5015 3136 b116 5335 06b4 2136
00000020: 0030 4b34 f549 2734 8fee 4734 5930 5835
00000030: 551f 1f34 12a1 1b34 6536 4536 68b2 2735
00000040: 495a 1e36 d4a8 3734 8c0b 6934 581c e433
00000050: feee fc33 0925 2d33 6ccd 6c34 c07c 9035
00000060: b20f 8b36 0b2e 6835 3528 d933 220a aa36
00000070: 3a00 5f34 f0e2 a635 2bb7 6f36 2fd9 5933
00000080: bbe1 1635 d621 db34 6654 4e33 e433 0f35
00000090: 8083 c235 2243 c734 3b49 2334 7286 b734
000000a0: 8423 cf34 1dc3 8f36 afca 9536 5e1f c935
000000b0: 7fc7 0336 2c62 b733 4555 a435 deda ee35
000000c0: 0cc1 4933 ca69 8f36 fc94 7334 7fa5 8235
000000d0: bc5f ed34 b7dd 4e33 a87c 0d36 5e49 9d33
000000e0: 2bdd 8a35 b9c5 4235 b5ac 8634 4376 4b35
000000f0: bd92 e434 4c3b 0e34 0297 1934 1eb7 0435
00000100: 644b 6034 9150 ac34 191a 4534 c1cb 2e36
00000110: 60a6 2735 943c d333 1f08 8b35 5be3 8633
00000120: 65e9 7a34 da8a 0734 e363 4434 aaa6 1435
00000130: be8f 3c35 658b 3734 c4f1 c033 4efb db34
00000140: 70b1 1b33 52aa 4236 6166 1236 a0e4 5634
00000150: a5be 4135 4b50 d435 d717 3736 2da9 2634
00000160: 6f89 1e36 7f2e 6334 4ee6 5a35 9c9c 2c37
00000170: 5e34 fb32 7410 1c35 bdb1 2033 1d04 af34
00000180: 922c 3335 0115 4e35 19f0 8f35 7019 3535
00000190: 813f b034 5bd9 1635 b96f e635 fad7 3436
000001a0: d900 4e35 21ed 7733 a8a0 8935 e49a f335
000001b0: b91c c833 e9b6 8434 9c20 f234 105f 9435
000001c0: e419 bf34 0787 3d35 171f cb34 22c7 8c35
000001d0: e41d 2934 0388 9032 82ac 4535 6ade 5b33
000001e0: 6d03 0033 cda6 9d34 3139 0735 71fc b235
000001f0: a8f7 5333 55dc d736 a516 0a34 da1a 9333
