results/SlayRL_FINAL104/SlayTheSquire_RL.onnx (onnx, 82288 bytes, 10 tensors)

network_body.observation_encoder.processors.0.normalizer.running_mean f4 [12]
0.94211 -0.3327992 0.0027166016 1.231567 0.7688302 -0.91870385 -0.041666668 -0.042372875
-0.877784 0.0 -0.0007062147 -0.9113972
00000000: 1f2e 713f a864 aabe 0309 323b fda3 9d3f
00000010: 0ed2 443f 2d30 6bbf abaa 2abd 2e8f 2dbd
00000020: 74b6 60bf 0000 0000 4421 39ba 5451 69bf

network_body._body_endoder.seq_layers.0.weight f4 [128, 12]
0.53057003 -0.012109348 -0.80055916 -0.03003605 0.016479842 0.43953937 -0.27103814 -0.1363151
-0.2866705 -0.32708204 -0.381652 0.33270392 -0.03844614 0.16934395 -0.07950825 -0.19213457
-0.054689765 -0.07900611 0.19900464 -0.43253154 0.4245728 0.19718678 0.16087459 0.001971977
0.03701253 0.44861957 0.06900414 -0.3782344 -0.3845259 0.041739948 0.49361768 -0.28168374
-0.048446815 0.12083271 -0.14899631 0.1138535 0.38249516 0.17479666 -0.32848072 -0.35403955
0.26682943 -0.16324642 -0.1386809 -0.3504383 -0.18826838 0.09601146 0.28669629 0.6806286
0.3017707 0.11488616 -0.44548675 0.47224435 0.14047036 0.39018437 0.06915385 0.34257466
-0.21921514 0.24566557 -0.73904157 -0.010878661 -0.15367028 -0.108788475 -0.29339343 0.41845062
0.33900535 -0.049567096 0.04831179 -0.5083253 -0.07915326 0.34391952 -0.02460836 -0.043112267
-0.21887514 0.030429613 -0.4010307 0.03476018 0.74650556 0.14872515 0.06776626 0.048813477
0.17674576 -0.30452323 0.075881355 -0.26980656 -0.5624333 -0.14655524 -0.30863118 -0.24315771
-0.02545141 0.29318625 0.18061633 -0.40399024 -0.12766856 -0.14090319 0.080199346 0.031807095
0.15061232 -0.032159932 0.16707605 -0.074450426 -0.37785184 -0.06563075 0.16102499 -0.034951635
-0.71581525 0.061926425 0.03280272 -0.0753308 -0.13248286 -0.10533666 -0.3540779 0.1156774
0.23286735 -0.11591007 -0.24464512 0.074020706 -0.68266445 0.185227 0.0074976482 0.1913644
0.2085892 -0.05682491 -0.27244896 -0.050656654 -0.2873472 -0.1756286 0.3750617 -0.35590348
0.41958532 -0.029498577 -0.542017 0.13878717 -0.15000829 0.0044572237 0.0270538 -0.31447357
0.4126666 0.6217272 0.61529124 -0.3616209 -0.07810827 0.12202452 0.13910978 -0.40550768
0.019447017 -0.13478649 0.46774697 -0.65092784 0.39401355 0.23241004 0.25278306 -0.29784074
0.7030347 -0.30800274 -0.29529423 -0.26284274 0.037232984 -0.08780282 0.15203173 0.5417667
-0.33484733 0.2767156 -0.57238984 -0.010469049 -0.32523423 0.18729323 0.10239122 -0.29758725
0.3606518 -0.07656943 -0.25195816 0.52338326 -0.08365657 0.3867186 -0.32292277 0.065236576
-0.22092666 -0.042919546 0.2784687 0.099112764 0.13675356 0.014535279 0.27591538 0.08907345
0.33771726 0.24418375 0.11405957 -0.03131007 -0.43313164 0.17382818 -0.110131726 -0.0024552727
-0.40945265 -0.13436887 0.04638529 -0.088749945 -0.22866555 -0.6896225 0.6630253 -0.34876585
-0.27979058 -0.05108985 -0.12473364 0.1478228 -0.54823804 0.626077 0.30841953 0.054291617
0.08673692 -0.07577355 -0.101107314 -0.08604376 -0.108164005 -0.11066188 0.035385154 -0.17222287
0.4082231 -0.04575015 -0.35995054 -0.47755635 0.57092595 0.035162058 0.41245842 0.16455013
-0.14716193 -0.02357378 0.04240488 -0.30511323 0.33587354 -0.5468806 -0.10403087 0.46704775
-0.30921343 0.12829192 -0.19024909 -0.4665335 -0.039785687 -0.5859484 -0.15101129 0.062111903
-0.27621612 -0.40411794 -0.31072828 -0.030117333 0.03757546 -0.20561187 -0.20761208 -0.2936255
0.026724275 -0.19050632 -0.17598356 -0.13081132 0.32370138 0.008572791 -0.18748371 0.2619653
00000000: 70d3 073f 4966 46bc 72f1 4cbf 2a0e f6bc
00000010: bc00 873c 4e0b e13e 83c5 8abe 3096 0bbe
00000020: 7ac6 92be 4c77 a7be e467 c3be 2b58 aa3e
00000030: b379 1dbd 8068 2d3e 39d5 a2bd edbe 44be
00000040: 6002 60bd f5cd a1bd dfc7 4b3e c674 ddbe
00000050: 9b61 d93e 55eb 493e 4fbc 243e 493c 013b
00000060: 739a 173d 77b1 e53e 0b52 8d3d f0a7 c1be
00000070: 94e0 c4be 82f7 2a3d 75bb fc3e da38 90be
00000080: 2b70 46bd 2477 f73d 7d92 18be 062c e93d
00000090: 68d6 c33e e5fd 323e a02e a8be ac44 b5be
000000a0: de9d 883e 122a 27be 5e02 0ebe a66c b3be
000000b0: 6dc9 40be a8a1 c43d dbc9 923e ad3d 2e3f
000000c0: b081 9a3e 6f49 eb3d d716 e4be 03ca f13e
000000d0: 76d7 0f3e 3fc6 c73e 89a0 8d3d f265 af3e
000000e0: ef79 60be c18f 7b3e d431 3dbf 693c 32bc
000000f0: be5b 1dbe 7ecc debd aa37 96be 293f d63e
00000100: 1c92 ad3e de06 4bbd 95e2 453d 9b21 02bf
00000110: 1b1b a2bd 3816 b03e 7997 c9bc 7d96 30bd
00000120: ce20 60be 8647 f93c e553 cdbe b160 0e3d
00000130: fd1a 3f3f 684b 183e 09c9 8a3d a4f0 473d
00000140: d7fc 343e 78ea 9bbe af67 9b3d 1624 8abe
00000150: a1fb 0fbf 9412 16be e804 9ebe 56fe 78be
00000160: 7a7f d0bc 821c 963e 7df3 383e cfd7 cebe
00000170: 8cbb 02be ed48 10be 8e3f a43d 2848 023d
00000180: 1e3a 1a3e 22ba 03bd fc15 2b3e 7779 98bd
00000190: cc75 c1be 6a69 86bd bce3 243e 7229 0fbd
000001a0: ab3f 37bf 90a6 7d3d 255c 063d 0947 9abd
000001b0: 96a9 07be bfba d7bd b349 b5be 46e8 ec3d
000001c0: c774 6e3e 4262 edbd 4084 7abe 2b98 973d
000001d0: 19c3 2ebf 26ac 3d3e d5ae f53b 07f5 433e
000001e0: 6898 553e 3dc1 68bd 6e7e 8bbe 5a7d 4fbd
000001f0: 2c1f 93be fcd7 33be 1608 c03e fb38 b6be
00000200: e3d3 d63e 00a7 f1bc a0c1 0abf 391e 0e3e
00000210: c69b 19be e70d 923b ee9f dd3c ae02 a1be
00000220: 0949 d33e 8429 1f3f ba83 1d3f 6026 b9be
00000230: 3bf7 9fbd fee7 f93d cb72 0e3e b49e cfbe
00000240: 5a4f 9f3c 7805 0abe 887c ef3e 35a3 26bf
00000250: 25bc c93e e6fc 6d3e c86c 813e 957e 98be
00000260: 15fa 333f 89b2 9dbe ce30 97be 5393 86be
00000270: 9d81 183d f7d1 b3bd 35ae 1b3e 39b1 0a3f
00000280: 1c71 abbe abad 8d3e 2488 12bf 6086 2bbc
00000290: 1a85 a6be ccc9 3f3e 7db2 d13d 5b5d 98be
000002a0: 5aa7 b83e 6fd0 9cbd a900 81be 72fc 053f
000002b0: 2354 abbd fbff c53e 2256 a5be c19a 853d
000002c0: 993a 62be 68cc 2fbd 7393 8e3e a2fb ca3d
000002d0: 2009 0c3e 6125 6e3c c844 8d3e 246c b63d
000002e0: 47e9 ac3e 4e0b 7a3e 1098 e93d fd3e 00bd
000002f0: 6ec3 ddbe 0400 323e be8c e1bd a4e8 20bb
00000300: c7a3 d1be fe97 09be 80fe 3d3d 88c2 b5bd
00000310: 4d27 6abe 1a8b 30bf 07bc 293f 7091 b2be
00000320: b640 8fbe 9743 51bd 5a74 ffbd dc5e 173e
00000330: 5459 0cbf 9546 203f 2ae9 9d3e e360 5e3d
00000340: 20a3 b13d 2a2f 9bbd 5a11 cfbd b637 b0bd
00000350: 1785 ddbd b2a2 e2bd 06f0 103d 315b 30be
00000360: 9e02 d13e 8264 3bbd 704b b8be 4482 f4be
00000370: 3428 123f 1706 103d c02d d33e d47f 283e
00000380: 9eb1 16be cd1d c1bc bdb0 2d3d cd37 9cbe
00000390: 9ef7 ab3e 5e00 0cbf 230e d5bd e220 ef3e
000003a0: 3951 9ebe f55e 033e a8d0 42be 7bdd eebe
000003b0: 51f6 22bd b700 16bf b4a2 1abe 0d69 7e3d
000003c0: 336c 8dbe 8ce8 cebe c717 9fbe a0b8 f6bc
000003d0: bae8 193d eb8b 52be 4398 54be 1556 96be
000003e0: deec da3c 1714 43be 0935 34be 67f3 05be
000003f0: 30bc a53e e474 0c3c bbfb 3fbe 5120 863e

network_body._body_endoder.seq_layers.0.bias f4 [128]
-0.019479822 -0.05851206 0.012569005 -0.019972505 -0.046849236 -0.052033782 0.021848882 0.036029596
0.060137276 0.0430326 -0.043860983 0.04314507 0.03148663 0.00031066328 -0.0022325986 0.03303628
0.05952254 0.039581824 0.056763098 -0.05299545 0.060511943 -0.055172358 -0.03131269 0.021192195
-0.04722828 0.058008987 0.016874226 -0.049008273 -3.773731e-05 -0.029492682 -0.060919575 0.047048204
0.0054630614 0.051114418 0.026850885 0.057670034 -0.004067086 0.050268434 0.04911734 -0.029099712
-0.030937742 0.06068519 -0.031063193 -0.035759937 -0.04580105 -0.035572633 -0.06057532 -0.04891282
-0.000255375 0.037709784 -0.04630103 0.05421609 0.02732486 0.029462641 0.005786116 -0.009681277
0.009504803 0.04604271 0.025214877 0.05277857 -0.034338746 0.05204413 0.043988463 -0.012874753
0.012634908 0.054599363 0.009240071 0.05019261 -0.04195581 -0.046471026 0.030161994 -0.0062405327
0.041843783 -0.05005932 -0.012136008 0.03760091 -0.011765428 0.052620478 0.03394258 -0.021368692
0.058191214 -0.02417274 0.03550283 0.037298728 0.0283905 -0.056389872 -0.039176594 -0.005688898
0.029214377 0.060168345 -0.00084090926 0.04313297 0.058706686 0.054805353 0.03934085 0.03497342
-0.05043057 -0.05341718 0.008000293 0.042129364 -0.016106838 0.008547175 0.03242752 0.055573337
-0.025311712 -0.02064809 0.031498246 0.020981843 -0.037956774 0.016443128 -0.048352834 -0.021488888
0.06347685 -0.036579423 0.040310748 0.05499945 0.059892602 -0.053293936 0.046080835 -0.04053624
-0.049428083 0.016451364 -0.04488696 0.055599336 0.044022877 0.004301526 -0.01750395 0.042946354
00000000: 2694 9fbc 58aa 6fbd 3aee 4d3c 619d a3bc
00000010: fce4 3fbd 6021 55bd 6dfc b23c c593 133d
00000020: 8152 763d f442 303d 93a7 33bd e3b8 303d
00000030: 20f8 003d 85e0 a239 ca50 12bb 0d51 073d
00000040: e8cd 733d 8d20 223d 6c80 683d c211 59bd
00000050: 5fdb 773d 69fc 61bd bc41 00bd 419b ad3c
00000060: 7172 41bd d59a 6d3d d13b 8a3c e6bc 48bd
00000070: 2148 1eb8 a39a f1bc ce86 79bd 9eb5 403d
00000080: 7b03 b33b 5a5d 513d 63f6 db3c 6a37 6c3d
00000090: 3145 85bb 46e6 4d3d 442f 493d 8562 eebc
000000a0: 2671 fdbc 0991 783d 3d78 febc 0379 12bd
000000b0: e299 3bbd 9cb4 11bd d41d 78bd cf58 48bd
000000c0: dae3 85b9 9375 1a3d 26a6 3dbd b111 5e3d
000000d0: 63d8 df3c a35b f13c 7599 bd3b 389e 1ebc
000000e0: 09ba 1b3c 4897 3c3d 6e8f ce3c 582e 583d
000000f0: c9a6 0cbd 3a2c 553d 3f2d 343d a1f0 52bc
00000100: a502 4f3c 95a3 5f3d ab63 173c c496 4d3d
00000110: dbd9 2bbd 6758 3ebd 4916 f73c 627d ccbb
00000120: 6364 2b3d 000b 4dbd 1bd6 46bc 6903 1a3d
00000130: c8c3 40bc 9288 573d 6007 0b3d 650d afbc
00000140: e959 6e3d e905 c6bc 6a6b 113d 8dc6 183d
00000150: 3293 e83c 11f9 66bd a377 20bd ef69 babb
00000160: fd52 ef3c 1573 763d 7770 5cba 32ac 303d
00000170: 6c76 703d 947b 603d df23 213d 4a40 0f3d
00000180: 4990 4ebd f9cb 5abd a913 033c d78f 2c3d
00000190: 7df2 83bc 7309 0c3c b8d2 043d dea0 633d
000001a0: 825a cfbc 2f26 a9bc 4e04 013d 1de2 ab3c
000001b0: 9078 1bbd bdb3 863c 9f0d 46bd 7709 b0bc
000001c0: 2700 823d 4ed4 15bd e21c 253d 1a47 613d
000001d0: f251 753d be4a 5abd 42bf 3c3d 5409 26bd
000001e0: 1a75 4abd 03c5 863c 64db 37bd 21bc 633d
000001f0: 5551 343d d1f3 8c3b 7264 8fbc 84e8 2f3d

network_body._body_endoder.seq_layers.2.weight f4 [128, 128]
-0.026788898 -0.037399825 -0.10030933 -0.03689863 -0.03248402 -0.030896945 0.037462816 0.03096387
-0.0029711078 0.028122606 -0.104070336 -0.027560012 -0.09756962 0.12746945 -0.21892503 0.060837902
-0.014405949 -0.00040930137 0.056881133 -0.0286552 0.110392645 0.0921617 0.050399322 0.10271602
0.0025795456 0.057108335 0.05955475 0.017402463 0.1372194 0.11205277 -0.1402709 0.10594398
-0.040784337 0.06958852 0.09773242 -0.13747084 -0.12935357 -0.009573465 0.05384486 0.024872653
0.084111124 0.05670988 -0.03011167 -0.082846284 -0.00437748 -0.03433905 -0.044427253 -0.048410624
-0.040213287 0.016686307 0.0064696893 -0.19191751 -0.013663936 -0.12439517 0.066549405 -0.06973228
-0.13393536 0.016397785 0.10428041 -0.057606682 -0.2417939 -0.04024694 -0.031541087 -0.20591949
-0.07035668 0.059095815 0.048206028 0.09988932 -0.0590525 -0.11985846 0.019774284 -0.12941931
0.14796023 -0.12345036 0.020792536 0.06710158 -0.008701149 -0.045246847 0.13967395 -0.12239858
0.06278033 -0.063258395 0.07342176 0.039059497 0.0038247562 -0.05868386 -0.03164069 0.04001408
-0.01731725 -0.073101215 -0.118805766 -0.013721348 -0.050758388 0.062475618 -0.06005085 0.05695368
0.021318944 -0.08017813 -0.13442762 -0.10476826 0.19210368 0.031173104 -0.09052688 -0.026076926
-0.1282076 0.03251818 0.118907765 -0.12518977 -0.08442317 0.14331026 -0.04023364 -0.0506382
0.052036855 0.18013322 -0.07095704 -0.064571574 0.010006956 0.044264894 -0.04727674 0.08313295
0.05881989 -0.0044621658 -0.22024985 -0.12902665 0.114809915 0.03658159 -0.1932432 -0.18202145
0.054437485 0.19838178 -0.04781318 0.14311658 0.01773024 -0.019632453 -0.12515552 0.022425616
-0.093358375 -0.16707066 0.02313364 0.01000971 -0.039601933 -0.01699277 0.08403415 0.10570286
-0.17408195 -0.10330853 -0.19794098 -0.16569827 0.144434 0.027636753 0.036928613 0.061919574
-0.044788834 0.062939875 -0.1164777 0.031136947 0.01917102 -0.057078194 0.25361142 0.04395317
0.029458689 -0.06274754 0.08029208 -0.0133087225 0.015001209 -0.13536192 0.017997649 0.048025202
0.021068001 -0.16503692 0.08649302 -0.039078504 0.07611815 0.101795554 -0.00026477297 -0.049946457
0.10420202 -0.08407039 0.12966047 -0.035143074 0.075179175 0.13416179 -0.016470823 -0.030107496
-0.03558211 -0.09225144 -0.06914576 -0.21889865 -0.022758426 -0.0532566 0.006651955 0.06305305
-0.16824424 -0.1241658 -0.018004416 -0.17903091 0.30316666 -0.11988586 -0.18407264 0.03317205
-0.044536587 0.03541162 -0.14014614 0.018525109 0.027017219 -0.05679723 -0.08967603 0.14292853
-0.12250712 -0.10644659 0.06392366 -0.04527084 -0.08066972 0.051825523 0.0015975924 0.024761112
-0.02754233 -0.10967133 -0.008633305 0.00016597612 0.03135942 -0.002479611 -0.11622854 -0.012121369
-0.037383866 -0.097995415 0.04277712 -0.13719806 -0.027686331 -0.015281247 -0.085627854 -0.11365618
-0.08778166 0.038492378 -0.12934054 -0.09687444 -0.031472843 -0.019358581 0.061028887 0.023124892
-0.21566944 -0.1355609 -0.013901175 -0.01647565 -0.04156092 -0.09263032 0.056918025 -0.084466025
0.09536838 0.034997962 0.0012637156 -0.10979756 -0.03667541 -0.06364261 0.029973548 -0.17627732
00000000: 6474 dbbc 8f30 19bd fa6e cdbd 0523 17bd
00000010: f70d 05bd 971b fdbc 9c72 193d f1a7 fd3c
00000020: ebb6 42bb 6161 e63c d422 d5bd 89c5 e1bc
00000030: 95d2 c7bd 5a87 023e e22d 60be 2a31 793d
00000040: ee06 6cbc 8097 d6b9 31fc 683d 4fbe eabc
00000050: 8a15 e23d 46bf bc3d 856f 4e3d c75c d23d
00000060: 980d 293b 6eea 693d aeef 733d 9c8f 8e3c
00000070: 3e83 0c3e ec7b e53d 2da3 0fbe 28f9 d83d
00000080: 7a0d 27bd 6d84 8e3d ef27 c83d 28c5 0cbe
00000090: 4375 04be 06da 1cbc 6e8c 5c3d bcc1 cb3c
000000a0: 7442 ac3d 9e48 683d c0ac f6bc 50ab a9bd
000000b0: f770 8fbb 1ba7 0cbd 5af9 35bd 384a 46bd
000000c0: b0b6 24bd b9b1 883c b0ff d33b 0686 44be
000000d0: b4de 5fbc e5c2 febd 0e4b 883d cccf 8ebd
000000e0: 5a26 09be a654 863c f890 d53d fcf4 6bbd
000000f0: d298 77be fad9 24bd 3a31 01bd 8fdc 52be
00000100: 2a17 90bd 740e 723d af73 453d c692 cc3d
00000110: 09e1 71bd 5a78 f5bd aefd a13c 7f86 04be
00000120: e382 173e 8bd3 fcbd 1c55 aa3c 8e6c 893d
00000130: 448f 0ebc c254 39bd b006 0f3e 1bac fabd
00000140: f992 803d 9e8d 81bd 265e 963d dafc 1f3d
00000150: c3a8 7a3b 7d5e 70bd ab99 01bd cee5 233d
00000160: e8dc 8dbc 17b6 95bd 7050 f3bd 81cf 60bc
00000170: 07e8 4fbd 6fe6 7f3d e1f7 75bd 4348 693d
00000180: 11a5 ae3c 6e34 a4bd 65a7 09be be90 d6bd
00000190: d4b6 443e bd5e ff3c 2866 b9bd 479f d5bc
000001a0: da48 03be c831 053d ea85 f33d bf31 00be
000001b0: 0ee6 acbd edbf 123e 07cc 24bd 006a 4fbd
000001c0: 9924 553d d874 383e ed51 91bd 1a3e 84bd
000001d0: 37f4 233c 1b4f 353d 41a5 41bd 9c41 aa3d
000001e0: 20ed 703d 5c37 92bb 2d89 61be 901f 04be
000001f0: 7621 eb3d 94d6 153d 8ce1 45be d563 3abe
00000200: d7f9 5e3d 9824 4b3e c1d7 43bd 278d 123e
00000210: 023f 913c 3dd4 a0bc c528 00be edb5 b73c
00000220: ad32 bfbd 9214 2bbe c282 bd3c c4ff 233c
00000230: a335 22bd 6c34 8bbc 191a ac3d be7a d83d
00000240: 8a42 32be 6c93 d3bd 0ab1 4abe cfac 29be
00000250: 82e6 133e 7966 e23c 7542 173d 619f 7d3d
00000260: 7f74 37bd 9fe6 803d dc8b eebd e912 ff3c
00000270: 8b0c 9d3c d3ca 69bd 5bd9 813e 3d08 343d
00000280: 5953 f13c c881 80bd 2d70 a43d d40c 5abc
00000290: a2c7 753c 519c 0abe ce6f 933c 13b6 443d
000002a0: cd96 ac3c 70ff 28be 4123 b13d c810 20bd
000002b0: d5e3 9b3d 307a d03d 3ad1 8ab9 a894 4cbd
000002c0: de67 d53d 192d acbd b7c5 043e 2ff2 0fbd
000002d0: 8af7 993d b561 093e d2ed 86bc ffa3 f6bc
000002e0: 8cbe 11bd 53ee bcbd 4b9c 8dbd f826 60be
000002f0: e16f babc 9823 5abd a5f8 d93b f521 813d
00000300: 3848 2cbe a44a febd ff7d 93bc e153 37be
00000310: a938 9b3e b886 f5bd 8a7d 3cbe 6adf 073d
00000320: ff6b 36bd c60b 113d 7882 0fbe f8c1 973c
00000330: 3753 dd3c 36a4 68bd 11a8 b7bd db5b 123e
00000340: 03e5 fabd ab00 dabd 68ea 823d eb6d 39bd
00000350: 2b36 a5bd 0047 543d 4e66 d13a d1d7 ca3c
00000360: 74a0 e1bc 5d9b e0bd b572 0dbc e009 2e39
00000370: bc72 003d f880 22bb 3b09 eebd b598 46bc
00000380: d31f 19bd d2b1 c8bd 1037 2f3d a67d 0cbe
00000390: 72ce e2bc 325e 7abc a85d afbd 92c4 e8bd
000003a0: dfc6 b3bd 2faa 1d3d d971 04be 1b66 c6bd
000003b0: abe9 00bd e395 9ebc 6df9 793d 6a70 bd3c
000003c0: 73d8 5cbe 7ad0 0abe c1c1 63bc f1f7 86bc
000003d0: c93b 2abd f7b4 bdbd e022 693d 86fc acbd
000003e0: 7f50 c33d 065a 0f3d 42a3 a53a 8bdd e0bd
000003f0: f438 16bd 0f57 82bd 168b f53c 0b82 34be

network_body._body_endoder.seq_layers.2.bias f4 [128]
0.008204967 -0.048876822 0.017166896 -0.04584959 -0.023749767 0.030211702 -0.04038801 -0.04579239
-0.029261418 -0.045796793 -0.06224692 0.021888698 -0.032422543 -0.040041465 0.012359647 -0.04388279
-0.033739354 0.056189995 -0.02564819 0.046627812 0.014118207 -0.022276152 0.030770952 0.011730779
0.04937612 0.019954305 -0.006041644 0.042830743 -0.04218582 -0.02819123 0.052796822 -0.056797065
-0.03790026 -0.025250984 0.04967586 -0.032108907 0.045509275 0.049073987 -0.037455786 -0.046977445
0.051784363 0.009230893 0.05353962 -0.026527207 0.04415132 0.054377213 -0.04472824 0.05388195
0.002574841 -0.050418764 0.024219645 -0.041755736 -0.03397727 -0.04477796 -0.04809004 0.05494572
-0.049292922 0.047727305 -0.05305751 -0.024560101 0.04702943 0.04992972 0.041664418 -0.057105552
0.05275641 0.052325893 0.04979587 -0.040853392 -0.054581568 0.051370867 0.04764763 -0.049043298
-0.041983288 0.054518264 0.058688406 0.060375698 -0.05339265 0.055651024 -0.03577508 0.04452067
-0.052754786 0.032359734 0.05674951 -0.044682626 -0.019717392 0.046308015 -0.047014315 -0.032943975
0.040446118 -0.051057808 0.020448893 0.05658228 0.050222717 -0.035147537 0.033467837 0.052112512
-0.036604144 0.048679993 -0.048902076 0.05297023 0.034025796 -0.05234819 0.0407673 0.03361597
-0.049727004 0.025671296 0.045238037 -0.04969301 -0.039820626 -0.026006628 -0.048040435 0.0060250903
0.005448586 -0.047443032 -0.051556014 -0.043952897 0.045633126 0.044617653 -0.050340123 0.049387522
-0.04928402 -0.03852734 -0.044143017 0.027263215 -0.032965727 -0.06664889 -0.036699485 0.03887827
00000000: 206e 063c 1033 48bd 97a1 8c3c c8cc 3bbd
00000010: df8e c2bc 887e f73c e66d 25bd cd90 3bbd
00000020: a4b5 efbc 6b95 3bbd a0f6 7ebd ed4f b33c
00000030: 80cd 04bd 8502 24bd 1e80 4a3c 71be 33bd
00000040: 4732 0abd 7b27 663d 271c d2bc cefc 3e3d
00000050: 0d50 673c 7a7c b6bc 5d13 fc3c 7432 403c
00000060: 9d3e 4a3d 3677 a33c fcf8 c5bb 4a6f 2f3d
00000070: 0acb 2cbd 4bf1 e6bc 7b41 583d 0aa4 68bd
00000080: 4e3d 1bbd 27db cebc ea78 4b3d a184 03bd
00000090: ef67 3a3d ce01 493d 3d6b 19bd 6c6b 40bd
000000a0: d71b 543d 2c3d 173c 5c4c 5b3d 964f d9bc
000000b0: 04d8 343d a4ba 5e3d f634 37bd 52b3 5c3d
000000c0: aabe 283b e883 4ebd 4768 c63c 1008 2bbd
000000d0: c02b 0bbd 1869 37bd 10fa 44bd c30e 613d
000000e0: 60e7 49bd b57d 433d d552 59bd 4432 c9bc
000000f0: eea1 403d 1b83 4c3d 4fa8 2a3d 83e7 69bd
00000100: 1b17 583d ad53 563d c1f6 4b3d e355 27bd
00000110: ec90 5fbd 426a 523d 292a 433d a0e1 48bd
00000120: abf6 2bbd 8b4e 5f3d 4163 703d 824c 773d
00000130: 40b2 5abd 54f2 633d e488 12bd 4e5b 363d
00000140: 6715 58bd a48b 043d 2d72 683d 2105 37bd
00000150: 5e86 a1bc 79ad 3d3d 1592 40bd 43f0 06bd
00000160: d4aa 253d fe21 51bd 7084 a73c d2c2 673d
00000170: 56b6 4d3d ddf6 0fbd 9215 093d ee73 553d
00000180: 3aee 15bd ac64 473d 8b4d 48bd 50f7 583d
00000190: a25e 0b3d 0e6b 56bd 9dfb 263d e6b0 093d
000001a0: 8bae 4bbd 9c4c d23c 854b 393d e68a 4bbd
000001b0: f41a 23bd da0b d5bc 0cc6 44bd 1f6e c53b
000001c0: 0d8a b23b a053 42bd 662c 53bd f407 34bd
000001d0: cde9 3a3d 00c1 363d 7231 4ebd 924a 4a3d
000001e0: 0ade 49bd d8ce 1dbd 4fcf 34bd 1b57 df3c
000001f0: 1207 07bd 377f 88bd 3352 16bd d23e 1f3d

action_model._continuous_distribution.log_sigma f4 [1, 2]
-0.04739476 -0.02589155
00000000: 0221 42bd 841a d4bc

action_model._continuous_distribution.mu.weight f4 [2, 128]
-0.0085491445 -0.059467424 0.03314785 -0.027459785 -0.02338929 -0.0099972235 -0.027874142 -0.029118247
-0.021051947 -0.032667387 -0.037829403 0.031045852 -0.039277494 -0.01457391 0.009455052 -0.04544506
0.005910562 0.039385613 -0.035726167 0.007938854 0.0046673478 -0.017634526 0.026579184 0.0061960034
0.07295275 0.012346903 -0.00053576403 0.055999305 -0.049138885 -0.06154987 0.041773766 -0.0433176
-0.025885876 -0.041441947 0.049387217 -0.0032840392 0.02786813 0.04377255 -0.08263353 -0.041079808
0.060440328 0.0020481085 0.03415597 -0.0030310585 0.03094501 0.02964165 -0.02325606 0.043134328
-0.030271435 -0.03306969 0.008315705 -0.01961728 -0.068697974 -0.019296462 -0.03836156 0.030115793
-0.050052118 0.03098326 -0.038594317 -0.05156374 0.018327747 0.03418354 0.010526339 -0.046115365
0.024534136 0.06275568 0.016673788 -0.013848905 -0.0473005 0.020149194 0.055694155 -0.04310668
-0.04837607 0.042576667 0.04460454 0.03673761 -0.023492886 0.048440434 -0.0038371799 0.07173279
-0.0440303 0.027590984 0.02106552 -0.042224165 -0.03146221 0.054921128 -0.04900926 -0.016427953
0.02418835 -0.033856176 0.0012026986 0.029234145 0.047704797 -0.02290849 0.037393074 0.05163132
-0.007966125 0.024619274 -0.062023934 0.028451867 0.04295067 -0.053552564 0.043684393 -0.00048149872
-0.05360309 0.05153453 0.019197913 -0.035941876 -0.041196898 -0.012086011 -0.032728214 0.009088857
-0.0016279456 -0.027206786 -0.030972676 -0.047282547 0.060353223 0.054556936 -0.06051521 0.04743336
-0.040892232 -0.062418275 -0.035522 0.012648456 -0.038023084 -0.03911896 -0.057279695 0.019114427
-0.057301134 0.06303015 0.0035102814 0.04870803 -0.009512467 -0.017579682 0.026456706 0.033994347
0.08665701 0.056825858 0.040777013 -0.008143803 0.007129653 0.03268719 -0.034661107 0.037785824
0.018475575 -0.035149477 0.015264816 -0.034850392 -0.035751786 0.062056527 -0.016692255 0.004598401
-0.051751636 0.008589191 -0.025434358 -0.02407802 0.041928552 0.014007839 -0.050086595 0.043876205
0.051747434 -0.007227743 -0.031327464 0.023403108 -0.04915108 -0.049858894 0.030516468 0.036780447
-0.04860408 0.022158543 -0.037684746 0.012858663 -0.027367068 -0.038944058 0.02909806 -0.0358098
-0.0140862595 0.047977842 -0.0518643 0.059188478 0.013823623 0.028362075 0.039933447 -0.04601764
0.047172043 -0.028137667 0.05209455 0.006493154 -0.052049004 -0.068404935 -0.02502384 0.05345268
-0.02550753 -0.06723492 -0.04293463 0.042574093 0.052085314 -0.044261362 -0.031117456 0.049400736
0.03346088 -0.041455206 -0.041820418 -0.03351434 0.03914364 -0.069580935 0.023156686 -0.0272307
0.046620294 -0.0024768964 -0.038544267 0.06878305 0.0028115248 -0.027969457 0.040749278 0.01823149
-0.08679017 0.04387712 0.014058783 -0.03950878 -0.031059135 0.0019873586 -0.006421224 -0.047589425
0.014846598 -0.03246183 0.05216295 -0.04539399 -0.010652782 0.04281307 -0.0203107 -0.022276454
0.03676369 0.004390256 -0.031654928 0.06098009 0.033176072 0.035574466 0.031228721 -0.026001155
0.028617995 0.051296514 0.025038654 0.02526399 -0.023474408 -0.020689838 0.06275678 -0.03694317
0.027331822 0.025022183 0.05115699 -0.044211093 0.024827251 0.03719219 0.02719972 -0.01334307
00000000: b611 0cbc 1d94 73bd 0ac6 073d 58f3 e0bc
00000010: e59a bfbc 65cb 23bc 5058 e4bc 6489 eebc
00000020: 2275 acbc 3dce 05bd 01f3 1abd df53 fe3c
00000030: 70e1 20bd 69c7 6ebc 5de9 1a3c 9924 3abd
00000040: 63ad c13b cf52 213d 9a55 12bd f811 023c
00000050: 8df0 983b 4876 90bc 97bc d93c d807 cb3b
00000060: 4068 953d aa4a 4a3c 8472 0cba 875f 653d
00000070: db45 49bd b71b 7cbd f81a 2b3d cc6d 31bd
00000080: 9e0e d4bc 08bf 29bd 404a 4a3d 0939 57bb
00000090: b44b e43c d84a 333d c53b a9bd 4d43 28bd
000000a0: 4790 773d 8f39 063b 21e7 0b3d b9a4 46bb
000000b0: 6480 fd3c 0cd3 f23c 7e83 bebc 9fad 303d
000000c0: cdfb f7bc 1574 07bd 983e 083c 6bb4 a0bc
000000d0: 86b1 8cbd 9d13 9ebc 0321 1dbd 65b5 f63c
000000e0: 7303 4dbd 9bd0 fd3c 1315 1ebd 8034 53bd
000000f0: 1224 963c 0a04 0c3d aa76 2c3c 77e3 3cbd
00000100: d0fb c83c 0d86 803d 7897 883c 85e6 62bc
00000110: 2bbe 41bd ec0f a53c 8e1f 643d a190 30bd
00000120: fc25 46bd df64 2e3d 40b3 363d 2d7a 163d
00000130: 2774 c0bc 7a69 463d 3279 7bbb a4e8 923d
00000140: 1e59 34bd 7d06 e23c 9991 ac3c 3ff3 2cbd
00000150: 85de 00bd faf4 603d efbd 48bd ea93 86bc
00000160: a626 c63c c6ac 0abd dea3 9d3a 727c ef3c
00000170: 1b66 433d 96aa bbbc 7b29 193d 5d7b 533d
00000180: 5a84 02bc 5cae c93c cf0c 7ebd e413 e93c
00000190: 0bed 2f3d ef59 5bbd 68ee 323d aa71 fcb9
000001a0: ea8e 5bbd df15 533d f144 9d3c ca37 13bd
000001b0: 14be 28bd 6704 46bc 050e 06bd 6ee9 143c
000001c0: ca60 d5ba c4e0 debc 69ba fdbc 58ab 41bd
000001d0: f134 773d 1877 5f3d ccde 77bd 7c49 423d
000001e0: 9d7e 27bd 4eaa 7fbd 847f 11bd 783b 4f3c
000001f0: 18be 1bbd 343b 20bd 1d9e 6abd dc95 9c3c
00000200: 98b4 6abd f415 813d c00c 663b 1282 473d
00000210: 2eda 1bbc 4403 90bc bcbb d83c a83d 0b3d
00000220: 3b79 b13d 3bc2 683d cc05 273d 966d 05bc
00000230: dd9f e93b 01e3 053d cef8 0dbd 4fc5 1a3d
00000240: 175a 973c e6f8 0fbd 4719 7a3c 49bf 0ebd
00000250: 7770 12bd fc2e 7e3d 32be 88bc 2fae 963b
00000260: 86f9 53bd aeb9 0c3c b75b d0bc 453f c5bc
00000270: 46bd 2b3d 2381 653c 9a27 4dbd 89b7 333d
00000280: 1ef5 533d b4d6 ecbb 3a51 00bd e0b7 bf3c
00000290: a552 49bd d738 4cbd acfd f93c 18a7 163d
000002a0: 1215 47bd d585 b53c 525b 1abd 24ad 523c
000002b0: e730 e0bc ce83 1fbd 0e5f ee3c 4cad 12bd
000002c0: 0eca 66bc 6a84 443d a96f 54bd 9e6f 723d
000002d0: 7a7c 623c 9557 e83c 4191 233d fe7c 3cbd
000002e0: 7937 413d f780 e6bc 1861 553d 86c4 d43b
000002f0: 5631 55bd e317 8cbd ccfe ccbc 33f1 5a3d
00000300: 2bf5 d0bc 76b2 89bd 39dc 2fbd 2c62 2e3d
00000310: 6957 553d 674b 35bd 09ea febc 6d58 4a3d
00000320: 470e 093d efcc 29bd e34b 2bbd 5546 09bd
00000330: 1555 203d 7380 8ebd 17b3 bd3c eb12 dfbc
00000340: ecf4 3e3d 6d53 22bb 98e0 1dbd 21de 8c3d
00000350: 8f41 383b 3420 e5bc b7e8 263d 355a 953c
00000360: 0bbf b1bd 7fb8 333d cf56 663c f5d3 21bd
00000370: ba6f febc 583e 023b 2269 d2bb 21ed 42bd
00000380: 253f 733c b2f6 04bd d1a8 553d 0cef 39bd
00000390: 0289 2ebc c25c 2f3d a062 a6bc 1c7d b6bc
000003a0: 8695 163d 23dc 8f3b 99a8 01bd 42c6 793d
000003b0: a2e3 073d 88b6 113d 60d3 ff3c 6000 d5bc
000003c0: 4970 ea3c 4b1c 523d dd1d cd3c 6df6 ce3c
000003d0: 674d c0bc bc7d a9bc a086 803d b951 17bd
000003e0: fce6 df3c 52fb cc3c fe89 513d b116 35bd
000003f0: 8562 cb3c d656 183d f2d1 de3c e49c 5abc

action_model._continuous_distribution.mu.bias f4 [2]
0.035175443 -0.03522232
00000000: 2014 103d 4845 10bd

action_model._discrete_distribution.branches.0.weight f4 [1, 128]
0.007963734 0.0033279497 -0.0012968823 0.010276444 -0.0076540895 -0.0058250674 -0.0029310498 -0.015098992
0.0033398115 -0.010359942 0.010977721 0.0016260693 -0.006792828 -0.0040769945 0.0061702686 0.018916694
-0.003976953 -0.0097282855 0.0050842715 -9.832033e-05 -0.02615434 -0.0127986 0.0021909878 -0.006314188
0.0011826479 -0.0006306 -0.0025965602 -0.0074866014 0.0038157345 -0.013199898 0.014110274 0.014912884
-0.00645507 -0.008243543 -0.0021530504 0.0112509 -0.0075094583 0.020308236 0.008720968 0.0029374785
0.005055798 0.0059587895 -0.0010423794 -0.01687572 -0.006693928 -0.0036820385 -0.009155176 -0.0032991827
0.0019516032 -0.00054767163 0.022749906 -0.0041811224 -0.00038778238 -0.0074919574 0.010069344 0.0067926124
-0.0077517442 0.0011073061 -0.016442979 -0.012004915 0.007613001 0.0020535002 -0.0030388704 -0.0019125817
-0.0042109727 0.0010976598 0.0030977365 -0.00994056 -0.012114266 -0.0042411387 -0.011933409 -0.0037621756
0.0016808035 -0.0013436511 0.0045744535 -0.023035552 -0.008724003 -0.0029433193 -0.001173033 0.011074618
0.0044237925 -0.007452396 0.0033731055 -0.0075065005 0.005336344 -0.0039283405 0.0004010574 0.0024220184
0.007057763 0.0040900526 -0.003830657 0.011711837 0.010793015 0.0013617022 0.008593536 0.0074925395
0.00040215906 0.0008833591 -0.0026644843 -0.0032351376 -0.0018369263 -0.0094997985 0.010855761 0.01438649
0.004496602 -0.0074558444 -0.0030479764 0.011017053 0.004665402 -0.005917832 0.0035729078 -0.01666945
0.0035289691 0.009332205 -0.005792044 0.00035273397 0.010111192 -0.0043979087 -0.0076017254 -0.0025976696
-0.0036011252 -0.0018612033 -0.003421301 -0.0035048425 0.02284285 0.006856186 0.00031207822 0.006098749
00000000: 527a 023c bb19 5a3b 26fc a9ba 885e 283c
00000010: 28cf fabb 35e0 bebb db16 40bb c361 77bc
00000020: bde0 5a3b bfbc 29bc e6db 333c d521 d53a
00000030: 5f96 debb 4f98 85bb f72f ca3b 2ff7 9a3c
00000040: 1a51 82bb 6363 1fbc f699 a63b 5331 ceb8
00000050: a041 d6bc 38b1 51bc ad96 0f3b 3fe7 cebb
00000060: 1403 9b3a da4e 25ba 0d2b 2abb 2a52 f5bb
00000070: 6711 7a3b 6344 58bc c72e 673c 2b55 743c
00000080: 0d85 d3bb ed0f 07bc 311a 0dbb b255 383c
00000090: e711 f6bb 755d a63c 64e2 0e3c b682 403b
000000a0: 1cab a53b f341 c33b 73a0 88ba f33e 8abc
000000b0: bd58 dbbb 5b4e 71bb 97ff 15bc 1a37 58bb
000000c0: f0cc ff3a 9f91 0fba 035e ba3c cc01 89bb
000000d0: 454f cbb9 187f f5bb e4f9 243c 9094 de3b
000000e0: 5802 febb 0723 913a 6db3 86bc 43b0 44bc
000000f0: 7b76 f93b 0494 063b c927 47bb 98af faba
00000100: 33fc 89bb 5adf 8f3a 6503 4b3b bbdd 22bc
00000110: ea7a 46bc 40f9 8abb 5884 43bc d58e 76bb
00000120: 684e dc3a 731d b0ba 4ce5 953b 0eb5 bcbc
00000130: 1fef 0ebc b4e4 40bb 75c0 99ba 5172 353c
00000140: 76f5 903b 3b33 f4bb 520f 5d3b 17f9 f5bb
00000150: 7fdc ae3b 4fb9 80bb 0345 d239 baba 1e3b
00000160: cf44 e73b d905 863b c30b 7bbb 01e3 3f3c
00000170: 30d5 303c 257b b23a e7cb 0c3c fa83 f53b
00000180: e0d8 d239 3a91 673a a19e 2ebb 9a04 54bb
00000190: 05c5 f0ba 0ba5 1bbc 5ddc 313c 50b5 6b3c
000001a0: 3b58 933b 2850 f4bb 8fc0 47bb df80 343c
000001b0: 3be0 983b 5fea c1bb 7227 6a3b 5f8e 88bc
000001c0: 4746 673b 1be6 183c 30cb bdbb 27ef b839
000001d0: 6aa9 253c 551c 90bb e517 f9bb aa3d 2abb
000001e0: db00 6cbb 9ff3 f3ba e837 60bb 80b1 65bb
000001f0: ee20 bb3c dba9 e03b 6e9e a339 04d8 c73b

onnx::Div_70 f4 [12]
0.012511359 0.03902339 0.0036987993 0.2127126 0.06615682 0.27331427 0.19986029 0.2014721
0.32755575 0.0036852479 0.026819719 0.2841934
00000000: 71fc 4c3c fdd6 1f3d 8e67 723b 55d1 593e
00000010: 3a7d 873d d9ef 8b3e 2da8 4c3e b44e 4e3e
00000020: 63b5 a73e 3384 713b 07b5 db3c cc81 913e
